Archives/TFT-pytorch/results/age_subgroup_old/AGE80PLUS/checkpoints/latest-epoch=7.ckpt (torch, 703159 bytes, 506 tensors)

prescalers.AGE80PLUS.weight f4 [8, 1]
-0.039850865 -0.39571995 0.5458517 0.38640857 -0.8910216 -0.23837681 -0.7841346 0.51037973
00000000: a93a 23bd ce9b cabe f0bc 0b3f 58d7 c53e
00000010: fe19 64bf 0d19 74be 0cbd 48bf 3fa8 023f

prescalers.AGE80PLUS.bias f4 [8]
-0.030351546 0.35439333 0.9023654 0.26601842 -0.7215337 -0.757878 -0.3583902 0.33186182
00000000: cea3 f8bc 0b73 b53e 6b01 673f 9133 883e
00000010: 6fb6 38bf 4b04 42bf ec7e b7be cbe9 a93e

prescalers.SinWeekly.weight f4 [8, 1]
-0.017630577 -1.5835785 1.1396055 -1.3067322 0.6129782 -0.16928379 0.75734764 0.6315182
00000000: 006e 90bc b3b2 cabf 98de 913f 0043 a7bf
00000010: 24ec 1c3f bb58 2dbe 89e1 413f 2dab 213f

prescalers.SinWeekly.bias f4 [8]
0.11288246 0.048046958 0.5925085 0.59730476 0.5364871 -0.4469364 0.9236533 0.662395
00000000: eb2e e73d e3cc 443d a3ae 173f f7e8 183f
00000010: 3857 093f d9d4 e4be 8b74 6c3f b892 293f

prescalers.VaccinationFull.weight f4 [8, 1]
-0.15430231 0.17724101 1.1776184 0.8529016 -0.15717737 -0.70043474 -0.737375 -0.6654981
00000000: 6d01 1ebe ab7e 353e 33bc 963f c257 5a3f
00000010: 1bf3 20be b14f 33bf 9cc4 3cbf 155e 2abf

prescalers.VaccinationFull.bias f4 [8]
0.27848068 -0.24788237 -0.61304516 0.97608757 0.753222 0.5134931 0.34062564 0.6398335
00000000: 0595 8e3e e0d4 7dbe 87f0 1cbf e0e0 793f
00000010: 28d3 403f 4974 033f 7c66 ae3e 21cc 233f

prescalers.Cases.weight f4 [8, 1]
0.6322391 -1.1061738 -0.7827329 0.66531104 1.4689301 0.07460655 -0.72205764 0.4101775
00000000: 6cda 213f 1a97 8dbf 2f61 48bf d351 2a3f
00000010: e705 bc3f 52cb 983d c5d8 38bf c902 d23e

prescalers.Cases.bias f4 [8]
-1.0466396 -0.25340775 0.6941988 0.4494101 0.2563835 -0.19333476 0.51469356 -0.9189363
00000000: 49f8 85bf a9be 81be 03b7 313f 1519 e63e
00000010: b344 833e 8cf9 45be f5c2 033f 693f 6bbf

static_variable_selection.single_variable_grns.AGE80PLUS.resample_norm.mask f4 [16]
-1.4037932 -0.7268802 -0.81751907 0.049169313 -0.1345022 0.21714094 -0.09795949 -1.0921566
0.14482741 1.0484493 -0.6816368 -0.433552 0.55322635 0.26581523 -0.3058601 0.10618055
00000000: 7faf b3bf d214 3abf ee48 51bf c365 493d
00000010: f2ba 09be 325a 5e3e fc9e c8bd cacb 8bbf
00000020: a34d 143e 9633 863f c07f 2ebf 87fa ddbe
00000030: 3ea0 0d3f ef18 883e b299 9cbe 3075 d93d

static_variable_selection.single_variable_grns.AGE80PLUS.resample_norm.norm.weight f4 [16]
0.7651764 0.76734364 1.0604115 1.4114501 1.0289967 1.6358597 1.5586613 0.9307505
1.0768352 2.0453012 1.0099752 1.3770037 1.5611206 1.422692 0.722551 1.6081322
00000000: 9ae2 433f a270 443f 90bb 873f 66aa b43f
00000010: 2ab6 833f da63 d13f 3782 c73f aa45 6e3f
00000020: bcd5 893f 37e6 0240 de46 813f a841 b03f
00000030: cdd2 c73f c51a b63f 1af9 383f 47d7 cd3f

static_variable_selection.single_variable_grns.AGE80PLUS.resample_norm.norm.bias f4 [16]
-0.06151244 -0.45283377 -0.19340856 0.49324617 0.3038731 0.18064316 -0.09935453 -0.2635748
0.036154814 -0.23440467 0.15763044 -0.33830118 -0.059518833 -0.0041348794 -0.2589746 0.22921273
00000000: 78f4 7bbd d4d9 e7be e50c 46be c38a fc3e
00000010: 4195 9b3e 85fa 383e 637a cbbd 47f3 86be
00000020: 1217 143d c707 70be e069 213e d035 adbe
00000030: 05ca 73bd e27d 87bb 5298 84be beb6 6a3e

static_variable_selection.single_variable_grns.AGE80PLUS.fc1.weight f4 [8, 8]
0.25294098 -0.47826928 -0.55549365 -0.29206675 -0.19594611 -1.2551877 0.3717324 -0.48053503
-0.16206509 -0.7612829 -0.65065455 0.58237505 0.050907165 -0.16965626 0.91749 -0.05058498
0.19929361 0.13419218 0.72744036 0.13570118 -0.42539477 -0.20979494 -0.11740324 0.09186309
-0.86705554 -0.08299013 0.47315976 -0.3757719 -0.5165187 -0.2275751 -0.2733122 0.6609919
-0.29193625 0.5033915 -0.6205818 -0.23556778 -0.18455747 1.1753926 0.4218286 0.010265776
-0.16273072 -0.25491387 -0.12620543 0.2975493 0.2371235 -0.31105563 -0.11848329 0.047777165
-0.112389736 -0.3334397 -0.5363296 -0.14371873 0.8357611 1.3110582 0.7943413 -0.50294197
-0.3441235 -0.48577935 -0.27687287 0.46281883 0.20612377 -0.2344763 0.4906833 0.123973
00000000: 7b81 813e b6df f4be d534 0ebf c689 95be
00000010: 19a6 48be fea9 a0bf b653 be3e b008 f6be
00000020: 64f4 25be 70e3 42bf 4c91 26bf 8816 153f
00000030: 0884 503d 5fba 2dbe a0e0 6a3f 3232 4fbd
00000040: a013 4c3e ad69 093e 8839 3a3f 40f5 0a3e
00000050: 58cd d9be 7cd4 56be 1c71 f0bd b722 bc3d
00000060: 5af7 5dbf bbf6 a9bd ff41 f23e 2d65 c0be
00000070: 923a 04bf 7209 69be 94ef 8bbe c436 293f
00000080: ab78 95be 44de 003f 73de 1ebf ae38 71be
00000090: a2fc 3cbe 4473 963f ebf9 d73e c931 283c
000000a0: e2a2 26be 1284 82be ff3b 01be 6258 983e
000000b0: 81d0 723e af42 9fbe 5ea7 f2bd fdb1 433d
000000c0: 972c e6bd 9cb8 aabe e64c 09bf 012b 13be
000000d0: 70f4 553f c1d0 a73f f459 4b3f cec0 00bf
000000e0: f530 b0be 12b8 f8be 48c2 8dbe 97f6 ec3e
000000f0: 1c12 533e 8e1a 70be d73a fb3e 8ee5 fd3d

static_variable_selection.single_variable_grns.AGE80PLUS.fc1.bias f4 [8]
-0.21025737 -0.16419148 -0.13871369 0.2982989 -0.12971364 -0.10710987 0.18005684 -0.18118085
00000000: b54d 57be d021 28be f60a 0ebe a2ba 983e
00000010: a7d3 04be 6b5c dbbd d260 383e 7987 39be

static_variable_selection.single_variable_grns.AGE80PLUS.fc2.weight f4 [8, 8]
-0.035065494 0.008388625 0.29434186 -0.036222376 0.09848374 0.22774091 0.62571245 0.25215182
0.1403601 -0.33810076 0.2922759 0.5070169 0.097626805 0.06953776 0.49825644 -0.02079227
-0.07319504 0.10280779 0.15929332 0.2916853 -0.041697495 -0.08302385 -0.4248282 0.18720083
0.11688033 -0.29086822 0.47343403 0.08815751 -0.26734185 -0.08320957 0.42984882 -0.5817712
-0.041920807 -0.030347236 -0.37592363 -0.3084229 0.5634202 0.111558385 0.80990684 0.055765636
0.03367777 -0.015722131 -0.49257916 -0.12208702 0.23599412 -0.049682446 -0.6813901 0.098735645
-0.4800737 -0.08467045 0.13050558 0.12845385 0.34390774 0.053786576 -0.31899247 -0.2601206
0.09689814 0.5447532 -0.31021768 -0.4914792 0.2194882 -0.115306675 0.63941085 0.0076543614
00000000: d6a0 0fbd 7270 093c fab3 963e ea5d 14bd
00000010: d8b1 c93d ea34 693e b12e 203f 0b1a 813e
00000020: 8fba 0f3e 8b1b adbe 30a5 953e dccb 013f
00000030: 90f0 c73d d069 8e3d 781b ff3e 8d54 aabc
00000040: 48e7 95bd e48c d23d ca1d 233e c757 953e
00000050: feca 2abd 6908 aabd 1583 d9be 93b1 3f3e
00000060: f45e ef3d aeec 94be f265 f23e ed8b b43d
00000070: 08e1 88be c769 aabd 2515 dc3e f5ee 14bf
00000080: 27b5 2bbd c49a f8bc 1079 c0be 9be9 9dbe
00000090: 4e3c 103f b978 e43d 0e56 4f3f 826a 643d
000000a0: b4f1 093d b3cb 80bc 5633 fcbe c208 fabd
000000b0: 71a8 713e d27f 4bbd 956f 2ebf ea35 ca3d
000000c0: 38cc f5be b367 adbd 41a3 053e 6889 033e
000000d0: ad14 b03e 504f 5c3d fb52 a3be 872e 85be
000000e0: 8872 c63d f274 0b3f dad4 9ebe 29a3 fbbe
000000f0: 84c1 603e e825 ecbd 6eb0 233f 70d1 fa3b

static_variable_selection.single_variable_grns.AGE80PLUS.fc2.bias f4 [8]
-0.1369585 -0.26375356 -0.1404414 -0.09613597 0.2722184 -0.113304004 0.25106993 -0.12210572
00000000: d93e 0cbe b50a 87be dfcf 0fbe efe2 c4bd
00000010: 3660 8b3e ee0b e8bd 3d8c 803e 9012 fabd

static_variable_selection.single_variable_grns.AGE80PLUS.gate_norm.glu.fc.weight f4 [32, 8]
0.0299609 0.19490013 -0.12810951 -0.40473706 0.6224119 -0.417478 -0.14129409 0.056585565
0.19306657 0.19403383 0.3881046 0.1489415 -0.7556555 0.27514392 -0.15996388 -0.41910347
0.3730122 -0.67728347 -0.45692903 -0.19699416 0.24714753 0.08915955 -0.37485838 0.57906646
-0.39135244 -0.06410132 0.00069068733 -0.22226337 0.17616728 -0.4102265 -0.10231773 0.25535163
0.0043215323 -0.0045502377 0.05255386 0.09690925 0.09240638 -0.21205626 -0.40674254 0.038010344
0.18513279 0.10113454 0.055765804 0.055021733 -0.21071385 0.0581579 0.15483546 0.17823951
-0.16961016 -0.11762309 0.24278611 0.12740386 0.06647844 -0.30259508 0.09199816 0.15305187
0.44123286 0.16388477 -0.08631371 -0.28618234 0.22675605 0.062007505 -0.019215057 -0.039958168
-0.7350219 -0.41156027 0.21450186 -0.22292729 0.060454674 0.596309 0.23468277 -0.23051701
0.32511526 0.064991415 -0.50742626 0.14623135 0.3603132 -0.28119102 -0.16628356 0.2905307
-0.52077353 0.042523358 0.20223022 0.24359082 -0.5235888 -0.40780255 0.42710808 -0.21711066
-0.11470033 0.049764305 0.4440404 -0.1890837 -0.09521212 0.2184257 -0.22857574 0.3277975
0.000570428 0.4362047 -0.47613254 -0.087466486 0.4966246 -0.30197564 0.07499234 0.5037447
-0.7003899 -0.3023945 0.5408864 0.18293577 -1.1143931 0.92326325 0.37548217 -0.81512165
0.0941751 0.121341474 -0.118595146 0.21682183 -0.11754743 -0.042724464 0.20582408 -0.256961
-0.45961657 -0.09951185 0.44697598 0.5420418 0.15221964 0.32314256 0.28022775 -0.32463926
-0.17212765 -0.24265997 0.33654478 -0.20258364 1.1482394 -0.6048158 -0.55458266 0.3116637
0.88530445 -0.3625551 -1.249347 -0.6611793 0.9889041 -0.9726825 -0.5353621 1.0214934
-0.11075857 0.34567475 -0.059765145 0.82137233 -0.470786 0.04099504 0.31277102 0.0077880146
0.75027156 -0.024356464 -0.53887606 -0.6358087 0.49097973 -0.52120763 -0.9479303 0.97542274
0.4352907 -0.51061535 0.42904344 0.15862238 0.09715319 0.42476976 -0.116412625 0.17883609
0.453223 -0.4444787 0.787071 -0.23856668 -0.48729348 0.7927622 -0.27895188 0.5920424
0.6968527 0.27123627 -0.46650538 -0.37391567 0.52336544 -0.5000167 -0.5585932 1.0224534
-0.39343196 -0.34360424 0.2785892 0.46192548 0.037574816 0.39739206 0.15373883 -0.06762997
0.9072363 0.7927273 -0.30309784 0.79497063 0.716929 -0.9478687 -0.578331 0.90431327
0.13535318 0.007577023 -0.11990185 -0.57268864 0.19797538 -0.027711716 -0.603407 0.592487
0.15200576 -0.40906978 0.30297545 0.12442826 -0.7944436 -0.19503999 0.15206093 -0.53272295
1.0263276 -0.30441323 -0.5338463 -0.5297579 0.8949162 -0.6670889 -0.48851588 0.60485214
0.16795234 -0.37941718 -0.0051471414 -0.26134586 0.3427445 0.31905934 -0.27875456 1.0074495
0.37434074 -0.31456593 -0.89004487 -0.57633823 0.7430136 -0.51014704 -0.56470543 0.7047881
0.68289274 -0.49498308 -0.31234184 -0.35690594 0.09641231 0.1333906 -0.34355706 0.25997567
0.5593485 -0.1069882 -0.4626474 -0.6733935 0.06021502 -0.2544445 -0.57880557 0.96054393
00000000: 9070 f53c e693 473e 242f 03be b239 cfbe
00000010: 6356 1f3f adbf d5be 66af 10be 44c6 673d
00000020: 3eb3 453e ceb0 463e a5b5 c63e 1f84 183e
00000030: a472 41bf aadf 8c3e 92cd 23be bb94 d6be
00000040: 75fb be3e 7362 2dbf 9af2 e9be d6b8 49be
00000050: 3e14 7d3e 4899 b63d 70ed bfbe b33d 143f
00000060: 595f c8be 8e47 83bd 3e0f 353a 0299 63be
00000070: 3265 343e 3509 d2be f58b d1bd 73bd 823e
00000080: a49b 8d3b 291a 95bb b742 573d 5b78 c63d
00000090: 8e3f bd3d 4725 59be 8f40 d0be bcb0 1b3d
000000a0: 7393 3d3e a01f cf3d af6a 643d 785e 613d
000000b0: 5fc5 57be fa36 6e3d 308d 1e3e 6b84 363e
000000c0: 49ae 2dbe 60e4 f0bd ec9c 783e 2876 023e
000000d0: d925 883d beed 9abe 8869 bc3d a1b9 1c3e
000000e0: 46e9 e13e 69d1 273e 3ec5 b0bd 7e86 92be
000000f0: bd32 683e 95fb 7d3d e568 9dbc 2dab 23bd
00000100: 652a 3cbf 07b8 d2be 60a6 5b3e 0d47 64be
00000110: 529f 773d b5a7 183f ae50 703e a70c 6cbe
00000120: 8275 a63e 381a 853d b0e6 01bf acbd 153e
00000130: f97a b83e 45f8 8fbe 3d46 2abe 71c0 943e
00000140: 6a51 05bf f92c 2e3d 7015 4f3e df6f 793e
00000150: ea09 06bf 7fcb d0be e9ad da3e 4252 5ebe
00000160: 02e8 eabd a8d5 4b3d 4359 e33e 289f 41be
00000170: 92fe c2bd fdaa 5f3e c20f 6abe 13d5 a73e
00000180: c688 153a 3956 df3e a5c7 f3be a121 b3bd
00000190: 9445 fe3e 8d9c 9abe 9595 993d 6af5 003f
000001a0: c14c 33bf 74d3 9abe 8877 0a3f 8453 3b3e
000001b0: 6fa4 8ebf fb5a 6c3f 333f c03e d0ab 50bf
000001c0: e0de c03d e181 f83d 03e2 f2bd 8b06 5e3e
000001d0: b5bc f0bd d9ff 2ebd 8cc3 523e 6490 83be
000001e0: dd52 ebbe decc cbbd 09da e43e 40c3 0a3f
000001f0: 77df 1b3e f172 a53e 037a 8f3e 1e37 a6be
00000200: 3b42 30be db7b 78be 994f ac3e 1672 4fbe
00000210: 82f9 923f 35d5 1abf 21f9 0dbf 6292 9f3e
00000220: 50a3 623f d2a0 b9be 9aea 9fbf 0c43 29bf
00000230: d228 7d3f b801 79bf 7e0d 09bf 4cc0 823f
00000240: 64d5 e2bd 48fc b03e 4ccc 74bd 7545 523f
00000250: dd0a f1be 6aea 273d 8623 a03e 9a32 ff3b
00000260: cc11 403f 3587 c7bc c8f3 09bf 5cc4 22bf
00000270: b261 fb3e dd6d 05bf 8fab 72bf 4eb5 793f
00000280: 6cde de3e b0b7 02bf 95ab db3e e86d 223e
00000290: 40f8 c63d 6c7b d93e be69 eebd cf20 373e
000002a0: d80c e83e b692 e3be 7c7d 493f d34a 74be
000002b0: 887e f9be 77f2 4a3f c8d2 8ebe 1790 173f
000002c0: f064 323f 7bdf 8a3e cbd9 eebe e071 bfbe
000002d0: 47fb 053f 1801 00bf f7ff 0ebf c1df 823f
000002e0: ea6f c9be e5ec afbe 3ea3 8e3e 7f81 ec3e
000002f0: 0de8 193d f976 cb3e b66d 1d3e 9581 8abd
00000300: a340 683f 2df0 4a3f a42f 9bbe 3283 4b3f
00000310: a988 373f 86a7 72bf 800d 14bf 1381 673f
00000320: 069a 0a3e ad48 f83b 1a8f f5bd b99b 12bf
00000330: 0fba 4a3e ae03 e3bc e278 1abf 3aad 173f
00000340: 66a7 1b3e 9871 d1be 991f 9b3e 3ed4 fe3d
00000350: a860 4bbf 90b8 47be dcb5 1b3e 8860 08bf
00000360: b45e 833f 0ddc 9bbe 27aa 08bf 379e 07bf
00000370: 3a19 653f 57c6 2abf c11e fabe 97d7 1a3f
00000380: b3fb 2b3e f842 c2be 5aa9 a8bb 20cf 85be
00000390: 357c af3e bf5b a33e ebb8 8ebe 1bf4 803f
000003a0: 97a9 bf3e c90e a1be fbd9 63bf e78a 13bf
000003b0: 2436 3e3f ff98 02bf 8990 10bf fe6c 343f
000003c0: 0fd2 2e3f 6c6e fdbe 45eb 9fbe 60bc b6be
000003d0: d173 c53d 8c97 083e b6e6 afbe 881b 853e
000003e0: 7731 0f3f a11c dbbd 1fe0 ecbe 8463 2cbf
000003f0: 06a4 763d 8d46 82be 9a2c 14bf 35e6 753f

static_variable_selection.single_variable_grns.AGE80PLUS.gate_norm.glu.fc.bias f4 [32]
0.23695542 -0.5116055 -0.0994467 0.45668548 0.13145198 0.13916819 -0.10436566 -0.14962323
-0.19227104 -0.052330878 0.18931746 -0.5352296 0.19620427 -0.19554761 -0.1765917 -0.0685668
-0.5242436 -0.058725003 -0.135425 -0.08804462 -1.64886 -2.214788 -1.711479 -0.5162575
-0.17325662 -0.97842944 -0.5595487 -0.031038703 -1.5140986 0.13833529 -1.1474762 -0.53947705
00000000: 71a4 723e 94f8 02bf b6aa cbbd aed2 e93e
00000010: 599b 063e 1b82 0e3e aabd d5bd d536 19be
00000020: b3e2 44be e758 56bd 70dc 413e cf04 09bf
00000030: c6e9 483e a23d 48be 74d4 34be c06c 8cbd
00000040: d434 06bf a189 70bd daac 0abe bd50 b4bd
00000050: d80d d3bf 16bf 0dc0 be11 dbbf 7429 04bf
00000060: 2f6a 31be 5a7a 7abf 953e 0fbf e144 febc
00000070: fccd c1bf c4a7 0d3e 80e0 92bf 2b1b 0abf

static_variable_selection.single_variable_grns.AGE80PLUS.gate_norm.add_norm.norm.weight f4 [16]
0.6252235 0.5915227 0.85356253 1.7098613 1.4266119 1.7488501 1.0703816 0.6017357
0.7625458 1.6287999 0.7636089 1.5614121 1.2979558 1.24341 -0.16160445 1.3076912
00000000: a60e 203f 086e 173f 1383 5a3f bcdc da3f
00000010: 389b b63f 52da df3f 4402 893f 5a0b 1a3f
00000020: 3436 433f 847c d03f df7b 433f 5adc c73f
00000030: 6a23 a63f 0f28 9f3f a37b 25be 6d62 a73f

static_variable_selection.single_variable_grns.AGE80PLUS.gate_norm.add_norm.norm.bias f4 [16]
0.13900073 -0.085581556 -0.003987743 0.76026857 0.7199226 0.4872925 0.106441595 -0.24285439
0.119679995 -0.27597007 0.32021478 -0.3956507 -0.037624426 0.06167271 -0.0065784254 0.35961175
00000000: 3556 0e3e 6245 afbd 9dab 82bb f6a0 423f
00000010: d94c 383f 677e f93e 0dfe d93d d2ae 78be
00000020: c91a f53d f34b 8dbe 31f3 a33e bb92 cabe
00000030: 121c 1abd 869c 7c3d d58f d7bb 081f b83e

static_variable_selection.prescalers.AGE80PLUS.weight f4 [8, 1]
-0.039850865 -0.39571995 0.5458517 0.38640857 -0.8910216 -0.23837681 -0.7841346 0.51037973
00000000: a93a 23bd ce9b cabe f0bc 0b3f 58d7 c53e
00000010: fe19 64bf 0d19 74be 0cbd 48bf 3fa8 023f

static_variable_selection.prescalers.AGE80PLUS.bias f4 [8]
-0.030351546 0.35439333 0.9023654 0.26601842 -0.7215337 -0.757878 -0.3583902 0.33186182
00000000: cea3 f8bc 0b73 b53e 6b01 673f 9133 883e
00000010: 6fb6 38bf 4b04 42bf ec7e b7be cbe9 a93e

encoder_variable_selection.flattened_grn.resample_norm.mask f4 [3]
-0.9655446 0.07655083 0.38657367
00000000: ee2d 77bf aec6 9c3d fcec c53e

encoder_variable_selection.flattened_grn.resample_norm.norm.weight f4 [3]
1.0160304 1.1266881 2.1745005
00000000: 490d 823f 5137 903f 042b 0b40

encoder_variable_selection.flattened_grn.resample_norm.norm.bias f4 [3]
0.15090965 0.3145412 -0.6892521
00000000: 0f88 1a3e 8b0b a13e d372 30bf

encoder_variable_selection.flattened_grn.fc1.weight f4 [3, 24]
0.35909435 -0.3853829 0.06442999 -0.2665537 -0.030955425 0.31170484 -0.29992902 -0.30218685
-0.57041246 0.31096 -0.38965222 -1.673467 -0.3150295 0.44907585 0.5958675 0.41892245
0.7622897 -0.8495648 0.08517371 0.099614955 0.26488018 0.3118058 -0.056742657 0.6157302
0.35975257 -0.36383188 -0.105972975 -1.0279673 0.3487015 0.10278224 0.18946148 0.7344039
-0.57393813 0.2816735 -0.6519533 -0.57315123 -0.16153173 0.09462943 0.15457591 0.329463
-0.35418326 1.09456 0.07053445 -1.0260206 -1.1173027 0.08720445 0.5408777 -0.32264826
0.5219614 -0.09753442 -0.21322457 0.4406695 0.32150057 0.3463324 -0.04384024 0.38639402
-0.26354283 0.030153263 -0.13995576 0.3085294 0.21608232 0.3209435 0.5886073 0.60918653
-0.63648564 1.2964052 0.8284317 -0.65775794 -1.1988792 -0.84152293 0.4155226 -0.5967094
00000000: 37db b73e e850 c5be dff3 833d ba79 88be
00000010: 3b96 fdbc c797 9f3e 4c90 99be 3cb8 9abe
00000020: 8d06 12bf 2636 9f3e 7f80 c7be 2b34 d6bf
00000030: 8c4b a1be 45ed e53e c68a 183f 017d d63e
00000040: 6b25 433f 147d 59bf 8e6f ae3d ed02 cc3d
00000050: 609e 873e 03a5 9f3e fd6a 68bd 7fa0 1d3f
00000060: 7d31 b83e 2c48 babe 5c08 d9bd 6f94 83bf
00000070: 0189 b23e 7f7f d23d 3102 423e e501 3c3f
00000080: 9ced 12bf 8237 903e 69e6 26bf 0aba 12bf
00000090: 9368 25be 13cd c13d 2649 1e3e 60af a83e
000000a0: 8257 b5be 8b1a 8c3f 5e74 903d a554 83bf
000000b0: c603 8fbf 3f98 b23d f676 0a3f 2732 a5be
000000c0: 439f 053f 20c0 c7bd 8b57 5abe 6f9f e13e
000000d0: b99b a43e 7b52 b13e d391 33bd 70d5 c53e
000000e0: 16ef 86be fa03 f73c 9050 0fbe 91f7 9d3e
000000f0: af44 5d3e b552 a43e f8ae 163f a6f3 1b3f
00000100: b9f0 22bf 9bf0 a53f 1a14 543f d362 28bf
00000110: e074 99bf 0c6e 57bf 61bf d43e f2c1 18bf

encoder_variable_selection.flattened_grn.fc1.bias f4 [3]
-0.4213919 -0.32648382 0.083599456
00000000: aec0 d7be e328 a7be 3136 ab3d

encoder_variable_selection.flattened_grn.context.weight f4 [3, 16]
-0.030587532 0.010498486 -0.0012323859 -0.32167357 0.008517295 0.03917587 0.026368137 -0.020411395
-0.009083965 -0.2931472 -0.09932606 -0.000112234244 -0.010779907 -0.0029190145 -0.023423098 0.06561968
0.06620158 0.11173843 0.24838933 -0.60568523 0.04740408 0.1898562 0.11691146 0.065763876
0.22735597 -0.60815 -0.3416569 0.071620174 -0.051210336 0.027600536 -0.12228574 0.24287312
0.09018198 0.079646826 -0.1213576 0.065344535 0.26656437 -0.047886554 0.11276055 0.08865088
-0.05217734 -0.029401999 0.18215494 0.15111382 -0.052992582 -0.069032714 -0.12400872 0.5222719
00000000: b492 fabc d801 2c3c 0288 a1ba 66b2 a4be
00000010: 208c 0b3c e176 203d fe01 d83c cc35 a7bc
00000020: e9d4 14bc 6417 96be 766b cbbd 4d5f ebb8
00000030: 359e 30bc f04c 3fbb cce1 bfbc 9c63 863d
00000040: b294 873d 1ed7 e43d c659 7e3e 300e 1bbf
00000050: c82a 423d aa69 423e 476f ef3d 36af 863d
00000060: 01d0 683e b8af 1bbf a7ed aebe 99ad 923d
00000070: eec1 51bd 851a e23c f270 fabd bbb3 783e
00000080: 54b1 b83d e01d a33d 558a f8bd 5bd3 853d
00000090: 207b 883e b124 44bd 01ef e63d 988e b53d
000000a0: e8b7 55bd 76dc f0bc d386 3a3e 95bd 1a3e
000000b0: c00e 59bd 0661 8dbd 49f8 fdbd 9cb3 053f

encoder_variable_selection.flattened_grn.fc2.weight f4 [3, 3]
-0.87099946 -0.9794291 -0.60010046 -0.4695955 -0.8625883 -0.2428334 -0.59257686 -0.9426012
-0.6102056
00000000: d2f9 5ebf debb 7abf 2fa0 19bf d26e f0be
00000010: 96d2 5cbf 52a9 78be 1eb3 17bf 504e 71bf
00000020: 6f36 1cbf

encoder_variable_selection.flattened_grn.fc2.bias f4 [3]
0.030506767 -0.051234435 -0.07662363
00000000: 54e9 f93c 33db 51bd daec 9cbd

encoder_variable_selection.flattened_grn.gate_norm.glu.fc.weight f4 [6, 3]
0.09155217 -0.050159965 0.5867964 -0.22766218 -0.49278927 0.38796014 -0.3188383 -0.80135024
-0.54350984 0.05285834 -0.17274702 0.74033654 0.8074288 0.04015783 0.33241507 1.4709412
1.0633302 0.82936776
00000000: b47f bb3d 8974 4dbd 4a38 163f 4620 69be
00000010: e04e fcbe b6a2 c63e c63e a3be 4a25 4dbf
00000020: 7623 0bbf fd81 583d 98e4 30be b286 3d3f
00000030: a7b3 4e3f 897c 243d 4f32 aa3e cd47 bc3f
00000040: 341b 883f 7251 543f

encoder_variable_selection.flattened_grn.gate_norm.glu.fc.bias f4 [6]
0.34424862 0.16956161 -0.99728656 -0.5650094 -0.33911476 0.39255986
00000000: 5b41 b03e 8fa1 2d3e 2c4e 7fbf 75a4 10bf
00000010: 73a0 adbe 9bfd c83e

encoder_variable_selection.flattened_grn.gate_norm.add_norm.norm.weight f4 [3]
0.056850825 0.07252715 0.2512591
00000000: 69dc 683d 1d89 943d 08a5 803e

encoder_variable_selection.flattened_grn.gate_norm.add_norm.norm.bias f4 [3]
0.13523623 -0.44108468 0.5679877
00000000: 5e7b 0a3e dad5 e1be a467 113f

encoder_variable_selection.single_variable_grns.SinWeekly.resample_norm.mask f4 [16]
-0.14819822 0.5594623 0.14774263 -0.12078002 0.08139315 -0.5892111 0.7848643 -0.84268886
-0.6845425 -0.019024571 -0.8075967 -0.040379126 -0.48537394 -0.18239337 -0.48580596 0.7814871
00000000: 46c1 17be ec38 0f3f d849 173e 845b f7bd
00000010: 74b1 a63d 8ad6 16bf deec 483f 75ba 57bf
00000020: 2d3e 2fbf 6bd9 9bbc a8be 4ebf 9564 25bd
00000030: ef82 f8be 54c5 3abe 8fbb f8be 8a0f 483f

encoder_variable_selection.single_variable_grns.SinWeekly.resample_norm.norm.weight f4 [16]
0.66337585 0.96814615 1.4881372 0.9764141 1.7551539 0.7787414 2.0753174 0.6743795
-0.028352825 0.86049277 0.95790786 1.5603194 0.35240495 1.1417923 0.95843893 1.8938328
00000000: 00d3 293f 6dd8 773f 487b be3f 46f6 793f
00000010: e2a8 e03f 995b 473f 00d2 0440 23a4 2c3f
00000020: 2f44 e8bc 4149 5c3f 7339 753f 8cb8 c73f
00000030: 6c6e b43e 4026 923f 415c 753f 1d69 f23f

encoder_variable_selection.single_variable_grns.SinWeekly.resample_norm.norm.bias f4 [16]
0.048775475 0.008697489 -0.09947695 0.070055276 -0.10561877 -0.15599841 -0.27170652 -0.21912259
0.13567217 0.07619441 -0.12688865 0.28862196 0.23842525 0.19079602 0.09070346 -0.17245658
00000000: cbc8 473d ea7f 0e3c 92ba cbbd 2479 8f3d
00000010: a74e d8bd 0cbe 1fbe 1e1d 8bbe ac61 60be
00000020: a5ed 0a3e d10b 9c3d 19ef 01be 42c6 933e
00000030: c025 743e 0860 433e bcc2 b93d 7598 30be

encoder_variable_selection.single_variable_grns.SinWeekly.fc1.weight f4 [8, 8]
0.60263956 -1.9131762 -0.81944096 -3.02477 -0.37286243 0.21535648 0.080291025 0.31014684
-0.064100325 0.25084165 -0.65854317 -0.34692937 -0.8117151 1.6405407 -4.0461235 -2.4429467
-0.06817205 0.05214598 -0.67246443 0.3219957 -1.0346147 0.6766186 0.59055847 0.065033235
0.34362486 0.04802864 -0.36712456 0.07158873 0.292636 0.2853175 0.13487189 0.48709604
-0.59127575 -0.042415682 1.0380601 0.101688966 0.10656407 0.63774985 0.5387419 -1.0004826
0.7655488 -0.24025035 -0.5941339 0.043339275 0.27015007 -0.3518106 -0.062465962 0.40154895
-0.42546177 -0.16013375 -1.6929181 0.43131447 -0.82503265 0.5512732 -2.5983083 -1.640789
0.32705748 -0.06356369 -0.5729424 0.15966018 0.99332863 0.5633049 -0.075533405 0.4954357
00000000: 9646 1a3f f5e2 f4bf e2c6 51bf d595 41c0
00000010: d3e7 bebe 6986 5c3e 9f6f a43d 91cb 9e3e
00000020: 0847 83bd 516e 803e 4996 28bf baa0 b1be
00000030: 90cc 4fbf 3dfd d13f d879 81c0 3d59 1cc0
00000040: ca9d 8bbd 0697 553d a126 2cbf 9fdc a43e
00000050: 416e 84bf e036 2d3f d72e 173f 2530 853d
00000060: 99ef af3e aeb9 443d c0f7 bbbe 1d9d 923d
00000070: 63d4 953e 2315 923e db1b 0a3e a764 f93e
00000080: d95d 17bf 11bc 2dbd 27df 843f 4e42 d03d
00000090: 433e da3d 9343 233f fdea 093f d00f 80bf
000000a0: 02fb 433f 3004 76be 2919 18bf 8684 313d
000000b0: 1c51 8a3e 8520 b4be 4fdc 7fbd d397 cd3e
000000c0: 20d6 d9be 1afa 23be 8ab1 d8bf 40d5 dc3e
000000d0: 5735 53bf 3e20 0d3f af4a 26c0 6005 d2bf
000000e0: 1474 a73e ae2d 82bd 5aac 12bf f57d 233e
000000f0: c94a 7e3f c034 103f 42b1 9abd c0a9 fd3e

encoder_variable_selection.single_variable_grns.SinWeekly.fc1.bias f4 [8]
-0.5960722 -0.6068733 -0.18637927 -0.2741609 0.0996224 -0.094957575 -0.51672935 -0.18085805
00000000: 3098 18bf 0c5c 1bbf 35da 3ebe d15e 8cbe
00000010: d406 cc3d 1e79 c2bd 6048 04bf da32 39be

encoder_variable_selection.single_variable_grns.SinWeekly.fc2.weight f4 [8, 8]
-1.0965877 0.66224855 -1.1533031 -0.101908006 -0.19081883 0.0016489441 0.940429 0.0230946
-0.6565329 -0.18567091 0.22733048 0.056576803 -0.084981516 0.10874407 0.7674985 0.03545562
0.8063999 -0.20788954 0.23363118 -0.07966298 0.27626824 0.010244064 0.8672497 0.026984615
0.69991124 1.1864836 0.3718479 -0.026128659 0.16258028 -0.0051178187 0.38036048 -0.011040952
-1.0772753 1.2020042 -0.5188907 -0.022868086 0.21866904 0.007306052 0.36578616 -0.07127958
1.1561095 -0.7872748 -0.2493163 -0.06284927 -0.67796195 -0.028748872 -0.44167823 -0.13631122
0.14774424 -0.28998002 -0.31743386 -0.17714761 0.67128634 0.046479397 -0.37434965 0.055797752
0.74808186 -0.16586433 0.51739705 0.09032331 0.24476948 0.051349796 0.7787607 0.052876312
00000000: fc5c 8cbf 1f89 293f 709f 93bf 25b5 d0bd
00000010: 0366 43be 6221 d83a f4bf 703f e330 bd3c
00000020: 8a12 28bf 8420 3ebe 52c9 683e 14bd 673d
00000030: ca0a aebd 36b5 de3d c87a 443f ea39 113d
00000040: 3970 4e3f ffe0 54be 033d 6f3e 5826 a3bd
00000050: 0873 8d3e b8d6 273c 1404 5e3f d70e dd3c
00000060: 622d 333f b2de 973f d962 be3e c50b d6bc
00000070: 727b 263e 60b3 a7bb 9cbe c23e 1ce5 34bc
00000080: 28e4 89bf 46db 993f 05d6 04bf da55 bbbc
00000090: c7ea 5f3e 9b67 ef3b 5348 bb3e 07fb 91bd
000000a0: 65fb 933f d78a 49bf c64c 7fbe 1eb7 80bd
000000b0: ea8e 2dbf c182 ebbc a623 e2be 2b95 0bbe
000000c0: 444a 173e 4378 94be b186 a2be 2f66 35be
000000d0: 6cd9 2b3f 2e61 3e3d c2aa bfbe 2f8c 643d
000000e0: 4b82 3f3f 57d8 29be 2274 043f 6dfb b83d
000000f0: daa4 7a3e 2a54 523d dc5c 473f d594 583d

encoder_variable_selection.single_variable_grns.SinWeekly.fc2.bias f4 [8]
0.1619347 -0.060381457 0.45003048 0.24744529 0.27630067 -0.0021776143 -0.09699156 0.5502345
00000000: 36d2 253e 8c52 77bd 656a e63e 4c62 7d3e
00000010: 4877 8d3e 4eb6 0ebb 83a3 c6bd 2bdc 0c3f

encoder_variable_selection.single_variable_grns.SinWeekly.gate_norm.glu.fc.weight f4 [32, 8]
0.7324271 0.15246359 0.81421584 0.5770267 0.43996966 -0.7710531 -0.4657807 0.5938155
-0.015066305 0.2741042 -0.035441734 -0.21096578 0.18257064 -0.074395634 -0.069376685 -0.36841282
-0.16665506 -0.013704409 0.014953687 0.06935722 -0.117474854 0.10398193 -0.21270248 0.17655003
0.031717338 -0.1676453 -0.12630388 0.07374095 -0.08407715 0.14145282 -0.493471 0.24038358
0.5373137 0.3809922 0.38955814 0.24497259 0.4038136 -0.65517795 -0.3480972 0.510111
-0.025023114 -0.19405504 -0.12988682 -0.11670829 -0.28187522 0.15122436 -0.12057252 0.07345232
0.62545097 0.7649007 -0.9916174 -0.18740018 0.4511546 -0.7967466 -0.25556913 -0.6477075
-0.14087754 -0.112646654 -0.28830692 -0.33787864 0.06282799 -0.004864899 -0.4396777 0.10343637
0.52234143 -0.056290504 0.39260623 1.3511424 0.5902371 -0.48324755 -0.13549215 0.6696415
-0.17443432 -0.1779791 0.1638732 0.051710285 -0.14454505 0.05766437 0.1466747 0.1413833
0.06457468 -0.17038289 0.11547166 0.075588785 0.33126348 0.24892393 0.24421053 0.058134302
0.6667982 0.27649575 0.57334644 0.70002574 0.66961086 -0.743725 -0.42337808 0.5742126
1.062341 0.78155565 -0.8954389 -0.10472421 0.9513254 -1.2548021 -0.6598887 -0.47955605
-0.12120007 -0.5547546 -0.24484394 0.43970177 -0.48240498 0.3956165 0.5502526 -0.39739728
-0.13127936 -0.40816996 0.19634324 -0.30042452 -0.23316284 0.26083338 0.009427925 0.3199588
-0.96357673 -1.2195109 -0.5474908 -0.46510324 -0.9140457 1.0665567 1.2604293 -0.84680474
0.27228698 0.021198977 0.23233448 0.9506115 0.11464821 -0.2554217 -0.49105704 0.0073671886
0.49102226 -0.43171054 -0.06141031 0.011266015 0.09829523 -0.13985465 -0.83292264 -0.49121878
0.2893943 -0.1375219 -0.31214628 -0.25665024 0.14238279 0.017336419 -0.13028829 -0.50428575
0.2270868 0.09296026 -0.3221317 -0.37910432 0.10284342 0.5263521 -0.31435788 -0.13584541
0.44749197 1.2697635 -0.17882422 0.19858676 1.040368 -0.85508484 -1.2401688 0.3270479
0.08704203 0.08517329 -0.07730713 0.6248927 0.11666282 -0.25351083 -0.30775476 -0.6093457
-0.59236693 -0.31884864 1.0799088 -0.028897211 -0.5203539 0.6792452 0.1975402 1.1742718
-0.30849347 0.31811184 -0.37381032 -0.21275127 -0.10250347 0.27780232 -0.47987404 -0.20593876
0.1576451 -0.1395617 0.08310565 0.83880323 0.4311557 -0.2648834 -0.11153384 0.21971573
-0.7362706 -0.40528664 0.4457242 0.7690044 -0.52381957 0.44282073 -0.041617792 0.5590718
0.06851378 0.008531772 -0.37172475 0.07269036 0.0772461 0.11301584 -0.52108306 -0.47436103
0.2705663 0.1226896 -0.06800806 0.40938985 0.23946853 -0.32973415 -0.082815 -0.096710384
-0.010804097 -0.028365366 0.4025094 1.9708961 -0.033384867 0.21315746 -0.23416151 0.5074306
0.554219 1.6201905 0.33893675 0.65897816 2.2794735 -1.273985 -1.8149211 1.1156017
-0.8709462 -0.32022145 0.59445983 0.27863935 -1.2003791 0.48914605 -0.044382073 0.42984813
0.9898016 1.2221034 0.24738574 0.3169354 1.353037 -1.2697469 -0.60432273 0.13518982
00000000: 5880 3b3f 6a1f 1c3e 7370 503f 06b8 133f
00000010: b443 e13e bc63 45bf cf7a eebe 4b04 183f
00000020: aad8 76bc 6357 8c3e 5a2b 11bd 6a07 58be
00000030: ccf3 3a3e bd5c 98bd 5d15 8ebd 9ba0 bcbe
00000040: a0a7 2abe 7588 60bc 4f00 753c 280b 8e3d
00000050: a896 f0bd 7af4 d43d aece 59be 88c9 343e
00000060: 0aea 013d 36ab 2bbe ce55 01be 7f05 973d
00000070: a430 acbd 02d9 103e 3ba8 fcbe 1d27 763e
00000080: 648d 093f 6911 c33e 2a74 c73e 18da 7a3e
00000090: a8c0 ce3e beb9 27bf cc39 b2be a296 023f
000000a0: 46fd ccbc 5db6 46be 0d01 05be c204 efbd
000000b0: f351 90be 8fda 1a3e baee f6bd 2c6e 963d
000000c0: 8e1d 203f 88d0 433f a3da 7dbf d5e5 3fbe
000000d0: bcfd e63e 96f7 4bbf f5d9 82be 29d0 25bf
000000e0: 3442 10be 4ab3 e6bd f79c 93be 6efe acbe
000000f0: f6ab 803d bb69 9fbb 6f1d e1be 73d6 d33d
00000100: 2bb8 053f df90 66bd af03 c93e 3cf2 ac3f
00000110: c719 173f 396c f7be 74be 0abe a06d 2b3f
00000120: e99e 32be 2740 36be 60ce 273e 2ace 533d
00000130: 9e03 14be 7931 6c3d e431 163e c9c6 103e
00000140: bb3f 843d da78 2ebe 687c ec3d 4bce 9a3d
00000150: 5e9b a93e eae5 7e3e 5312 7a3e 3c1e 6e3d
00000160: 49b3 2a3f da90 8d3e d5c6 123f e334 333f
00000170: 9e6b 2b3f c364 3ebf 03c5 d8be 99ff 123f
00000180: cafa 873f 0814 483f 7c3b 65bf a679 d6bd
00000190: 108a 733f 5b9d a0bf 77ee 28bf 5f88 f5be
000001a0: be37 f8bd 6604 0ebf 5fb8 7abe 9720 e13e
000001b0: c9fd f6be 3f8e ca3e 5bdd 0c3f a877 cbbe
000001c0: 196e 06be a7fb d0be 340e 493e 3ed1 99be
000001d0: 3dc2 6ebe f48b 853e 9577 1a3c a4d1 a33e
000001e0: f7ac 76bf ef18 9cbf 5b28 0cbf 0322 eebe
000001f0: e6fe 69bf ee84 883f bf55 a13f 32c8 58bf
00000200: 3369 8b3e 7aa9 ad3c 17e9 6d3e 465b 733f
00000210: aecc ea3d a2c6 82be d46b fbbe 7568 f13b
00000220: 4567 fb3e 2a09 ddbe 6189 7bbd 1795 383c
00000230: 024f c93d 0f36 0fbe 6b3a 55bf 0781 fbbe
00000240: 7d2b 943e 8ad2 0cbe a3d1 9fbe a967 83be
00000250: cbcc 113e 1b05 8e3c 4b6a 05be df18 01bf
00000260: 7189 683e f361 be3d 72ee a4be f619 c2be
00000270: 929f d23d 03bf 063f 84f3 a0be 0f1b 0bbe
00000280: ab1d e53e 9c87 a23f b21d 37be 545a 4b3e
00000290: c72a 853f d7e6 5abf dabd 9ebf d372 a73e
000002a0: 1843 b23d 556f ae3d 3353 9ebd f8f8 1f3f
000002b0: ebec ee3d 2ccc 81be 0892 9dbe 14fe 1bbf
000002c0: 5ca5 17bf 2140 a3be 743a 8a3f d8b9 ecbc
000002d0: ea35 05bf 03e3 2d3f fa47 4a3e 8a4e 963f
000002e0: dbf2 9dbe 8edf a23e 1164 bfbe 78db 59be
000002f0: 57ed d1bd 1b3c 8e3e 0db2 f5be 9ce1 52be
00000300: b86d 213e 43e9 0ebe 4c33 aa3d cfbb 563f
00000310: 71c0 dc3e cc9e 87be db6b e4bd 29fd 603e
00000320: 3b7c 3cbf bb81 cfbe f635 e43e 79dd 443f
00000330: 0a19 06bf 66b9 e23e 6b77 2abd 541f 0f3f
00000340: f450 8c3d d8c8 0b3c b552 bebe afde 943d
00000350: 3433 9e3d d974 e73d b365 05bf 73df f2be
00000360: ab87 8a3e af44 fb3d cf47 8bbd 8c9b d13e
00000370: 3d37 753e ead2 a8be e99a a9bd 1810 c6bd
00000380: ab03 31bc 7c5e e8bc b615 ce3e 5346 fc3f
00000390: 92be 08bd f345 5a3e 09c8 6fbe f9e6 013f
000003a0: 4ce1 0d3f 6762 cf3f 1e89 ad3e cbb2 283f
000003b0: e5e2 1140 f111 a3bf 564f e8bf 09cc 8e3f
000003c0: 55f6 5ebf 11f4 a3be 852e 183f d1a9 8e3e
000003d0: 06a6 99bf 5a71 fa3e fac9 35bd 0e15 dc3e
000003e0: a363 7d3f e26d 9c3f b052 7d3e 5b45 a23e
000003f0: 5130 ad3f 1187 a2bf e5b4 1abf 336f 0a3e

encoder_variable_selection.single_variable_grns.SinWeekly.gate_norm.glu.fc.bias f4 [32]
0.5086656 0.25311425 -0.0181207 -0.15011646 0.39179465 -0.10148146 -0.8694272 -0.27227524
0.20205252 0.37742248 -0.023833225 0.47475392 0.21305369 -0.7786758 0.28142884 -0.96987927
-0.17722355 -0.6247848 -1.0001338 -1.9089055 0.5331269 -1.6930692 0.48146614 -1.5167617
-0.8051479 0.41648886 -2.3103004 -0.32054844 -0.8857066 0.13273764 -0.35978276 0.489435
00000000: e937 023f 3198 813e dd71 94bc 21b8 19be
00000010: 4f99 c83e 83d5 cfbd c892 5ebf a967 8bbe
00000020: dbe6 4e3e 853d c13e e53d c3bc f212 f33e
00000030: bf2a 5a3e 4c57 47bf 7117 903e 024a 78bf
00000040: 177a 35be e6f1 1fbf 6204 80bf 0457 f4bf
00000050: 017b 083f 7eb6 d8bf bb82 f63e 3f25 c2bf
00000060: 2c1e 4ebf 073e d53e f6db 13c0 ed1e a4be
00000070: abbd 62bf 60ec 073e 7235 b8be 3997 fa3e

encoder_variable_selection.single_variable_grns.SinWeekly.gate_norm.add_norm.norm.weight f4 [16]
0.6579415 0.33456135 1.4258051 0.038690425 1.4433129 0.49809808 1.6122887 -0.10245926
0.69158083 0.41551656 0.9642614 1.9398215 1.0206863 1.0960418 0.57889396 1.9260077
00000000: db6e 283f a04b ab3e c880 b63f da79 1e3d
00000010: 7abe b83f b606 ff3e 7a5f ce3f 29d6 d1bd
00000020: 710b 313f 96be d43e d6d9 763f 124c f83f
00000030: d9a5 823f 194b 8c3f 6532 143f 6c87 f63f

encoder_variable_selection.single_variable_grns.SinWeekly.gate_norm.add_norm.norm.bias f4 [16]
0.019317474 0.1932837 0.24969262 0.35086578 0.021535596 -0.15799092 -0.16448578 0.017405365
0.021711018 -0.099233925 -0.2764022 0.3398575 0.09989269 0.10920606 0.07581747 -0.08979665
00000000: ae3f 9e3c 2aec 453e 6caf 7f3e aea4 b33e
00000010: 6b6b b03c 5fc8 21be f66e 28be b295 8e3c
00000020: 4edb b13c 283b cbbd 9784 8dbe cd01 ae3e
00000030: 8a94 cc3d 6da7 df3d 3146 9b3d 4ee7 b7bd

encoder_variable_selection.single_variable_grns.VaccinationFull.resample_norm.mask f4 [16]
-0.4745741 -1.0837533 -0.1867127 -1.2960373 1.4617552 -0.6450997 -1.4776392 0.5176226
-1.3682126 -1.0714438 -0.63347274 0.2827099 0.25802353 0.36751372 0.2129602 -0.2915334
00000000: 60fb f2be 6eb8 8abf 9d31 3fbe 8de4 a5bf
00000010: cb1a bb3f 4125 25bf 4823 bdbf ea82 043f
00000020: 9721 afbf 1225 89bf 452b 22bf 5abf 903e
00000030: a91b 843e c22a bc3e 3d12 5a3e de43 95be

encoder_variable_selection.single_variable_grns.VaccinationFull.resample_norm.norm.weight f4 [16]
0.21917424 0.57642764 1.3676709 0.41722715 2.8551753 0.9770218 0.42198887 1.9516041
0.3721509 0.36112887 0.7601788 1.3613083 1.594316 1.4922476 1.0468216 0.9173252
00000000: 366f 603e c390 133f d70f af3f cc9e d53e
00000010: 31bb 3640 1a1e 7a3f ed0e d83e 2ace f93f
00000020: 908a be3e e2e5 b83e 149b 423f 5a3f ae3f
00000030: 8c12 cc3f f801 bf3f 40fe 853f d3d5 6a3f

encoder_variable_selection.single_variable_grns.VaccinationFull.resample_norm.norm.bias f4 [16]
0.2022213 0.361012 0.23693788 0.2697039 0.31278366 -0.491947 -0.38807127 0.2095608
-0.32615346 -0.39122632 -0.46955562 0.2298115 0.040704444 -0.59271014 0.372247 0.036421124
00000000: 1a13 4f3e 91d6 b83e d89f 723e a116 8a3e
00000010: 2e25 a03e 7ae0 fbbe 47b1 c6be 1b97 563e
00000020: 96fd a6be d14e c8be 9869 f0be b553 6b3e
00000030: b4b9 263d dabb 17bf 2997 be3e 512e 153d

encoder_variable_selection.single_variable_grns.VaccinationFull.fc1.weight f4 [8, 8]
0.15320641 0.22583798 -0.7545903 -0.15430579 0.7117324 0.1241933 -0.5858047 -0.05122656
-0.29471418 -0.03374582 -0.87835383 -2.0529783 -0.24046288 -0.02580894 1.1122178 -0.002908813
-0.21884623 -0.48299482 -0.427786 -1.1017525 -0.53394014 0.7901421 0.45676693 -0.1795593
-0.287484 -0.5052783 -0.22939765 0.40304977 -0.9495299 0.4508458 -0.054559935 -0.1699109
-0.08294191 0.6141164 -0.4304412 -0.15758924 -0.09310114 0.9729467 1.359765 1.2631274
-0.116680324 0.13467883 0.38934892 -0.18756236 -0.5980716 -0.9941748 -0.95698017 -1.9683585
-0.8165574 0.60319775 -0.008914432 0.04789197 0.7613205 -0.07702002 0.26210847 0.14508308
0.17708932 0.11271083 -0.52272147 -0.2919277 -0.6641471 -1.1773463 -0.28694147 -1.5700991
00000000: 24e2 1c3e 1242 673e d42c 41bf 5602 1ebe
00000010: 1834 363f 0f59 fe3d 4cf7 15bf f1d2 51bd
00000020: c7e4 96be 0f39 0abd ccdb 60bf ff63 03c0
00000030: e73b 76be 456d d3bc 275d 8e3f c9a1 3ebb
00000040: 3a19 60be 194b f7be c406 dbbe 3a06 8dbf
00000050: 4db0 08bf c146 4a3f 5bdd e93e 65de 37be
00000060: 1a31 93be eb59 01bf 38e7 6abe 8a5c ce3e
00000070: 6414 73bf 43d5 e63e 3d7a 5fbd 1ffd 2dbe
00000080: 73dd a9bd bb36 1d3f ca62 dcbe 135f 21be
00000090: cfab bebd 0913 793f c80c ae3f 29ae a13f
000000a0: 18f6 eebd 3fe9 093e be58 c73e 5910 40be
000000b0: 381b 19bf 3d82 7ebf a7fc 74bf 2cf3 fbbf
000000c0: e809 51bf 2b6b 1a3f d60d 12bc 5f2a 443d
000000d0: e6e5 423f acbc 9dbd 1533 863e a990 143e
000000e0: e756 353e f0d4 e63d 13d1 05bf 8c77 95be
000000f0: 8b05 2abf 49b3 96bf fee9 92be 02f9 c8bf

encoder_variable_selection.single_variable_grns.VaccinationFull.fc1.bias f4 [8]
0.37214243 -0.24149151 -0.196903 -0.11958668 -0.13556416 -0.66248053 -0.17064337 -0.41886443
00000000: 7489 be3e 8d49 77be f1a0 49be dce9 f4bd
00000010: 55d1 0abe 5398 29bf 23bd 2ebe 6675 d6be

encoder_variable_selection.single_variable_grns.VaccinationFull.fc2.weight f4 [8, 8]
-0.16102977 0.108009376 0.034514043 -0.3484857 -1.0778934 0.53219384 -0.3584049 -0.017520538
0.35457587 -0.853237 -0.4835127 -0.13555962 -0.884455 -0.78908324 -0.036573242 -0.06797185
-1.1942687 0.36714664 0.059430767 0.4491444 -0.29446068 0.4256818 0.103357136 0.21383962
0.06354205 -0.09856119 0.31250536 -0.40727922 1.1029332 -0.4841042 0.04898388 0.34456867
0.0031397976 0.02030643 0.3110907 0.023039296 0.5378978 0.7611984 -0.39178962 0.5613681
-0.4434992 0.92328936 0.79613936 0.2634748 0.30495787 0.22798885 -0.091436006 -0.6852872
0.24852715 -0.4048429 -0.2258972 0.15409969 0.114644326 -0.843264 -0.361873 0.3049756
-0.30643308 -0.0985975 0.15305573 0.11597173 -0.64735043 -0.83644223 -0.2396845 0.23229215
00000000: fde4 24be 0534 dd3d 995e 0d3d b86c b2be
00000010: 69f8 89bf db3d 083f d980 b7be 3b87 8fbc
00000020: f88a b53e bd6d 5abf fa8e f7be 24d0 0abe
00000030: a56b 62bf 5c01 4abf d3cd 15bd d334 8bbd
00000040: ccdd 98bf a5fa bb3e ad6d 733d 41f6 e53e
00000050: 8dc3 96be f7f2 d93e e8ac d33d c6f8 5a3e
00000060: 5622 823d 73da c9bd b400 a03e e786 d0be
00000070: ea2c 8d3f 81dc f7be 52a3 483d 4e6b b03e
00000080: 10c5 4d3b ac59 a63c 4847 9f3e e8bc bc3c
00000090: acb3 093f e6dd 423f a698 c8be d2b5 0f3f
000000a0: 5412 e3be b15c 6c3f cacf 4b3f 2be6 863e
000000b0: 7023 9c3e e975 693e cd42 bbbd fb6e 2fbf
000000c0: e77d 7e3e 9247 cfbe 9851 67be 4fcc 1d3e
000000d0: a5ca ea3d 26e0 57bf 6b47 b9be c325 9c3e
000000e0: cce4 9cbe 7ced c9bd a4ba 1c3e 9682 ed3d
000000f0: c2b8 25bf 1421 56bf db6f 75be fedd 6d3e

encoder_variable_selection.single_variable_grns.VaccinationFull.fc2.bias f4 [8]
-0.5244652 0.36570996 -0.3947968 0.032244515 -0.093453996 -0.06429078 0.4137868 0.14819726
00000000: 5a43 06bf 563e bb3e ce22 cabe d312 043d
00000010: cf64 bfbd e2aa 83bd dddb d33e 06c1 173e

encoder_variable_selection.single_variable_grns.VaccinationFull.gate_norm.glu.fc.weight f4 [32, 8]
0.013281623 0.8758227 -0.09546292 0.14763649 -0.71713877 0.067027204 0.3907047 0.27055892
-0.4833934 -0.5054456 -0.5754391 0.48938325 -0.21872766 0.48985758 0.43850768 -0.6581242
0.45265916 0.036085196 0.21767417 0.13740626 -0.26109543 0.56940985 0.0832587 -0.0038380928
-1.0550755 0.848251 -1.0159138 0.9363202 -1.1738183 0.24766563 1.5187404 1.2363192
1.1899407 0.6396946 0.72445637 -1.1602736 0.26468897 -0.93579674 -0.8899578 0.19609635
0.43647534 0.6082991 0.010136216 0.07909635 -0.35272333 0.022315947 0.05495916 0.0054030293
0.08629062 -0.4514945 0.27519318 0.12732328 0.4867136 0.59902686 -0.35398084 0.12049527
-0.4580051 1.0796931 -0.22833854 -0.041056138 -0.431937 -0.1317254 0.54827875 0.15475993
0.35665795 0.32926872 0.14242375 -0.82995325 -0.08768252 -0.05991463 -0.19506608 -0.061769888
-0.34144637 -0.047789514 -0.10509663 -0.13640673 -0.27786124 -0.0020733802 -0.30386117 0.116546005
0.21780872 0.1722995 0.29150686 -0.0024701792 0.4298802 0.36024663 -0.10845584 -0.1969563
-0.28458276 -0.7138766 -0.05279625 0.345821 0.3124418 0.22491038 0.034678698 -0.22167622
-0.33454907 -0.23057425 -0.26428398 -0.33126855 0.4358836 -0.12877792 -0.07214342 -0.17305255
-0.21817897 -1.5131601 -0.14342465 0.6073181 0.3842699 0.5690997 -0.045825474 0.009590811
-0.65020543 -0.040038664 -0.6427364 0.53946745 -0.41925144 0.27060008 0.50693595 0.11040264
-0.65050715 -0.05472502 -0.049216177 0.027333107 -0.08358306 -0.033223633 0.2907897 0.33754057
1.7473981 0.3606361 0.6721801 -0.7643538 -0.48293862 -0.3491545 -0.28948855 0.054504663
-0.3430962 -1.5508649 -0.059853967 0.48159587 0.45646372 1.7812192 0.06019595 -0.40168554
0.4430723 0.34236446 0.3090005 0.26379555 -0.19872558 0.38024297 0.031426594 1.4146085
0.76263374 0.12991011 0.5025439 -1.2242026 0.12227547 -0.47078323 -0.4487783 0.09192807
0.012620686 -0.011586254 0.059798654 -0.078296944 0.5407419 0.06507463 -0.06492345 -0.9382685
-0.18730211 -0.62281024 0.39791238 0.16748965 0.7102866 0.4608736 -0.8316041 0.6791974
0.546798 0.08936016 0.03999054 -0.5129035 0.068932645 -0.48273534 -0.54806906 0.5536661
-0.104777716 -0.32597026 0.2814265 -0.25432032 0.28184173 -0.6152778 -0.44594306 -0.080689706
1.0586464 0.40629584 0.48868048 -0.6806835 -0.09929078 -0.067961715 -0.6589891 -0.20557804
0.37807184 0.0996646 0.29530194 0.11133327 0.20125972 -0.058512084 -0.37305236 0.15710878
0.568815 -0.354194 0.7076787 -0.6214276 0.7535518 0.2550059 -0.64372617 -0.42000028
0.99553066 0.5195151 0.5093403 -3.0889747 -0.07875419 -0.46328065 -0.44320762 -0.216113
-0.3499415 -0.13413836 -0.80715644 0.5817349 0.098728426 1.0404264 0.1534346 -0.12435582
0.69539887 -0.5575303 0.7385734 -0.8124394 0.7630936 -0.4043027 -1.5073893 -0.25612304
0.35148105 0.6698848 -0.07220188 -0.18631351 -0.26546517 -1.666746 0.089025415 -0.045148816
0.12209995 0.7817759 0.56375974 0.3472602 -0.60914856 -0.5280501 -0.13590543 0.37833694
00000000: 2a9b 593c eb35 603f 1082 c3bd 052e 173e
00000010: 6896 37bf 8f45 893d 720a c83e b386 8a3e
00000020: 577f f7be e264 01bf fa4f 13bf 7190 fa3e
00000030: 25fa 5fbe 9dce fa3e 1484 e03e d47a 28bf
00000040: f1c2 e73e 12ce 133d fae5 5e3e 3ab4 0c3e
00000050: 4dae 85be d8c4 113f 8a83 aa3d 8388 7bbb
00000060: b70c 87bf fa26 593f 7709 82bf aeb2 6f3f
00000070: ae3f 96bf 0f9c 7d3e 1666 c23f b53f 9e3f
00000080: fa4f 983f 06c3 233f f975 393f d883 94bf
00000090: 5085 873e 6090 6fbf 46d4 63bf 7bcd 483e
000000a0: b279 df3e 7db9 1b3f 5f12 263c 44fd a13d
000000b0: 2798 b4be efcf b63c db1c 613d e50b b13b
000000c0: 23b9 b03d 492a e7be 1fe6 8c3e 0961 023e
000000d0: 8632 f93e d359 193f fa3c b5be 39c6 f63d
000000e0: a57f eabe 6233 8a3f 94d1 69be 7b2a 28bd
000000f0: d926 ddbe 06e3 06be ff5b 0c3f 6379 1e3e
00000100: df9b b63e e995 a83e 88d7 113e d177 54bf
00000110: e592 b3bd 0b69 75bd 67bf 47be 6c02 7dbd
00000120: 0fd2 aebe f0be 43bd e73c d7bd 35ae 0bbe
00000130: d443 8ebe 8ce1 07bb b193 9bbe acaf ee3d
00000140: 4009 5f3e 486f 303e 6340 953e bbe2 21bb
00000150: 4219 dc3e 3f72 b83e 181e debd eaae 49be
00000160: d5b4 91be 9ec0 36bf e140 58bd 730f b13e
00000170: 5ff8 9f3e e84e 663e 400b 0e3d 17ff 62be
00000180: 044a abbe a81b 6cbe 3b50 87be 089c a9be
00000190: 232c df3e 5cde 03be eebf 93bd b034 31be
000001a0: 4f6a 5fbe 3baf c1bf e9dd 12be 3379 1b3f
000001b0: 06bf c43e 85b0 113f 7eb3 3bbd c722 1d3c
000001c0: dd73 26bf 95ff 23bd 5f8a 24bf 8a1a 0a3f
000001d0: 20a8 d6be 188c 8a3e 8ec6 013f c81a e23d
000001e0: a387 26bf 5827 60bd e796 49bd aee9 df3c
000001f0: 982d abbd 8115 08bd 63e2 943e 1ed2 ac3e
00000200: beaa df3f 4ba5 b83e ff13 2c3f b1ac 43bf
00000210: bb43 f7be 61c4 b2be d837 94be 4840 5f3d
00000220: 4eaa afbe be82 c6bf 6f29 75bd bc93 f63e
00000230: 9db5 e93e fefe e33f 0790 763d baa9 cdbe
00000240: 5fda e23e 654a af3e 5035 9e3e 3610 873e
00000250: b87e 4bbe 35af c23e 2cb9 003d e411 b53f
00000260: f73b 433f 2807 053e b8a6 003f acb2 9cbf
00000270: 906b fa3d 800a f1be 45c6 e5be c944 bc3d
00000280: fec6 4e3c 46d4 3dbc 6fef 743d 265a a0bd
00000290: 106e 0a3f d945 853d 96f6 84bd 5d32 70bf
000002a0: 20cc 3fbe 7e70 1fbf 2cbb cb3e 6882 2b3e
000002b0: 58d5 353f a0f7 eb3e 02e4 54bf e1df 2d3f
000002c0: f4fa 0b3f 7602 b73d 1fcd 233d a54d 03bf
000002d0: 8f2c 8d3d 1629 f7be 414e 0cbf 10bd 0d3f
000002e0: b395 d6bd 93e5 a6be 2217 903e 4636 82be
000002f0: 8f4d 903e d982 1dbf a652 e4be a540 a5bd
00000300: ba81 873f 0206 d03e 5434 fa3e 4641 2ebf
00000310: f758 cbbd 832f 8bbd 82b3 28bf 0d83 52be
00000320: a292 c13e f41c cc3d d131 973e b302 e43d
00000330: 0717 4e3e 5eaa 6fbd b800 bfbe 20e1 203e
00000340: dc9d 113f ea58 b5be 6e2a 353f e115 1fbf
00000350: c5e8 403f 2290 823e 3dcb 24bf 470a d7be
00000360: 19db 7e3f f1fe 043f 2064 023f c3b1 45c0
00000370: e049 a1bd 1f33 edbe 1cec e2be ba4c 5dbe
00000380: 882b b3be 915b 09be cea1 4ebf 94ec 143f
00000390: 2132 ca3d b12c 853f f61d 1d3e 44ae febd
000003a0: a905 323f 4eba 0ebf 2513 3d3f 07fc 4fbf
000003b0: 1a5a 433f c300 cfbe 22f2 c0bf 8f22 83be
000003c0: 53f5 b33e 927d 2b3f 94de 93bd f8c8 3ebe
000003d0: 0deb 87be ef57 d5bf f552 b63d f7ed 38bd
000003e0: 8a0f fa3d 7722 483f 8f52 103f 17cc b13e
000003f0: 29f1 1bbf 4b2e 07bf cb2a 0bbe 61b5 c13e

encoder_variable_selection.single_variable_grns.VaccinationFull.gate_norm.glu.fc.bias f4 [32]
0.7490911 0.70575017 0.4024288 -0.28461358 0.085718356 0.13739936 -0.18406206 0.043006927
0.1060729 -0.28850204 0.31259397 -0.26906744 0.034685433 -1.4810046 0.17181787 0.10641364
0.3190171 -0.14971547 -0.9551921 0.5705999 1.6383533 -0.8470229 -0.48719007 -0.9475311
-0.14165711 -0.57904816 -0.8166844 0.24823101 -0.3525564 -0.23687845 0.51004946 -0.40772435
00000000: 6fc4 3f3f 0bac 343f 260b ce3e dfb8 91be
00000010: 1b8d af3d 6bb2 0c3e c47a 3cbe 0828 303d
00000020: c03c d93d 8ab6 93be 510c a03e 35c3 89be
00000030: 5012 0e3d 8f91 bdbf 06f1 2f3e 65ef d93d
00000040: 3656 a33e 034f 19be 7887 74bf d612 123f
00000050: 90b5 d13f 7ed6 58bf fa70 f9be 6691 72bf
00000060: 900e 11be 803c 14bf 3b12 51bf 4530 7e3e
00000070: 4682 b4be 4490 72be 9a92 023f 3fc1 d0be

encoder_variable_selection.single_variable_grns.VaccinationFull.gate_norm.add_norm.norm.weight f4 [16]
0.66092384 0.7820886 1.3383173 1.357942 1.119535 0.5377095 0.7099451 1.8477637
0.7949598 -0.15148382 -0.49468014 0.8346636 0.6560704 1.236754 1.2738297 0.3341804
00000000: 4e32 293f f536 483f fb4d ab3f 0bd1 ad3f
00000010: ec4c 8f3f 54a7 093f f6be 353f 8583 ec3f
00000020: 7c82 4b3f 931e 1bbe b746 fdbe 84ac 553f
00000030: 3bf4 273f f44d 9e3f da0c a33f b219 ab3e

encoder_variable_selection.single_variable_grns.VaccinationFull.gate_norm.add_norm.norm.bias f4 [16]
0.10089935 0.27995226 0.3238919 0.26203078 0.3883997 -0.095700204 -0.09742236 -0.11607127
-0.11531557 -0.18515529 -0.2297061 0.30190092 0.0059177172 -0.21331742 0.115332946 -0.004411825
00000000: 52a4 ce3d e755 8f3e 29d5 a53e e628 863e
00000010: 53dc c63e 78fe c3bd 6085 c7bd c6b6 edbd
00000020: 922a ecbd 5999 3dbe 1338 6bbe c292 9a3e
00000030: 69e9 c13b e26f 5abe ae33 ec3d 1291 90bb

encoder_variable_selection.single_variable_grns.Cases.resample_norm.mask f4 [16]
0.5743041 0.4966781 -2.0189464 -0.28984877 -0.5901639 0.44546616 -0.032379378 -1.2910585
-2.218027 0.6739235 0.33329535 -0.26767415 -1.2870696 -0.27643913 0.86076516 -0.36995292
00000000: 9805 133f 984c fe3e 6b36 01c0 0f67 94be
00000010: fb14 17bf 2414 e43e 3da0 04bd 6841 a5bf
00000020: 28f4 0dc0 4086 2c3f b0a5 aa3e 960c 89be
00000030: b2be a4bf 6e89 8dbe 1b5b 5c3f 786a bdbe

encoder_variable_selection.single_variable_grns.Cases.resample_norm.norm.weight f4 [16]
1.5305555 1.891026 0.4603099 1.2035335 0.6206477 1.5338067 1.7421076 0.8315103
0.48166627 2.1514785 1.3597662 1.1324787 0.06274655 0.9605706 2.285937 1.1047246
00000000: 3ee9 c33f 240d f23f bdad eb3e 630d 9a3f
00000010: c5e2 1e3f c753 c43f 62fd de3f dcdd 543f
00000020: f69c f63e d3b1 0940 d20c ae3f 10f5 903f
00000030: 4381 803d f4e7 753f cb4c 1240 9e67 8d3f

encoder_variable_selection.single_variable_grns.Cases.resample_norm.norm.bias f4 [16]
0.5548596 0.35719305 -0.50859165 -0.17901441 0.23143637 -0.3274621 -0.34784642 -0.11772655
-0.21859777 -0.103353456 -0.17130579 0.17052361 -0.26829356 -0.5274442 0.33163592 0.6285127
00000000: 470b 0e3f 02e2 b63e 1033 02bf 8e4f 37be
00000010: a8fd 6c3e 1da9 a7be ed18 b2be 9e1a f1bd
00000020: 18d8 5fbe faaa d3bd c96a 2fbe be9d 2e3e
00000030: c65d 89be 9506 07bf 2fcc a93e 35e6 203f

encoder_variable_selection.single_variable_grns.Cases.fc1.weight f4 [8, 8]
-0.036183678 1.7268298 0.21814872 -0.7675057 -0.78787917 0.4025391 -0.2426977 -0.48356998
0.5984891 0.80667573 -0.27528235 -3.2062714 -1.4012411 0.35512242 0.082421586 0.050650395
1.3261536 0.012739113 -0.17588747 0.064060524 0.033483025 0.09656192 -0.9128511 0.85542834
-0.576597 0.09626614 0.85437477 0.068982944 0.60058045 0.31267095 0.26675692 0.7394192
-0.3062476 -0.12522747 0.24534583 0.0522758 0.1047735 0.31629783 0.21896446 0.26590037
-0.10129681 0.3453626 0.16755587 -2.0579472 -0.91179603 0.58931196 0.029458543 0.8177266
0.12942445 0.6928514 0.24050066 -0.20778885 -1.7166619 0.3193058 0.5407489 -0.30744022
-0.32624772 -0.44142342 -0.39422664 -0.6426547 -0.09623058 -0.37877584 -0.6130035 1.1821067
00000000: 5635 14bd c208 dd3f 6162 5f3e 417b 44bf
00000010: 73b2 49bf 9b19 ce3e bf85 78be 7c96 f7be
00000020: 9536 193f 4d82 4e3f cff1 8cbe 8d33 4dc0
00000030: de5b b3bf 9bd2 b53e a6cc a83d ca76 4f3d
00000040: 67bf a93f b6b7 503c d81b 34be 2a32 833d
00000050: 7f25 093d 42c2 c53d 9cb0 69bf 5afd 5a3f
00000060: dc9b 13bf 2f27 c53d 4eb8 5a3f ee46 8d3d
00000070: a4bf 193f 6816 a03e 5d94 883e 944a 3d3f
00000080: 7ccc 9cbe a13b 00be f03b 7b3e 261f 563d
00000090: 7d93 d63d caf1 a13e 3838 603e 1824 883e
000000a0: b474 cfbd 5ed3 b03e c493 2b3e 68b5 03c0
000000b0: 776b 69bf 26dd 163f 0b53 f13c 8856 513f
000000c0: d887 043e b65e 313f ce45 763e 9ac6 54be
000000d0: 94bb dbbf 0d7c a33e 856e 0a3f ce68 9dbe
000000e0: f109 a7be 4002 e2be 13d8 c9be 0585 24bf
000000f0: 8a14 c5bd e8ee c1be cced 1cbf 464f 973f

encoder_variable_selection.single_variable_grns.Cases.fc1.bias f4 [8]
-0.40077862 -0.50132114 -0.21015498 -0.7381712 -0.36136034 -0.36116448 -0.51532394 -0.0074177086
00000000: db32 cdbe 9556 00bf de32 57be caf8 3cbf
00000010: 3904 b9be 8dea b8be 45ec 03bf 4010 f3bb

encoder_variable_selection.single_variable_grns.Cases.fc2.weight f4 [8, 8]
-0.020346927 0.9349089 0.23184654 -0.33182266 0.13141182 -0.11272299 1.0395159 0.19151786
-0.21579283 -0.10238728 -0.27102086 -0.3024989 0.101018004 0.08386336 0.028687077 -0.85594
-0.22701934 -0.78703326 -0.83303833 0.13621646 0.18468194 -0.432708 -0.7440762 0.8430139
-0.44010773 -0.6386559 -0.37449226 -0.6040929 0.10650455 -0.65583724 -0.6838877 -0.2519072
0.41946658 0.57836664 0.33278874 0.031352323 0.18439163 -0.35084385 0.35275683 0.4721001
0.45378616 0.15722306 0.8966709 0.21020608 -0.20036161 0.11211028 0.31449667 -0.11500166
-0.5555635 -0.47366288 -0.6708641 0.44840428 -0.10585176 -0.3574812 0.42395294 0.056790262
0.7093774 0.82376015 0.22658034 -0.21545807 0.099716626 0.044298977 0.28299 0.20216036
00000000: 99ae a6bc 3156 6f3f 2e69 6d3e a9e4 a9be
00000010: d290 063e 50db e6bd db0e 853f 421d 443e
00000020: ccf8 5cbe 6cb0 d1bd 3fc3 8abe 23e1 9abe
00000030: 87e2 ce3d 8ec0 ab3d 2901 eb3c e21e 5bbf
00000040: c277 68be 037b 49bf 0042 55bf 547c 0b3e
00000050: 431d 3d3e e78b ddbe c77b 3ebf c2cf 573f
00000060: cd55 e1be f47e 23bf 73bd bfbe d5a5 1abf
00000070: 0f1f da3d f3e4 27bf 4413 2fbf fbf9 80be
00000080: 53c4 d63e d60f 143f 4963 aa3e 4b6b 003d
00000090: 29d1 3c3e cea1 b3be 8b9c b43e 1bb7 f13e
000000a0: a956 e83e 15ff 203e 398c 653f 4340 573e
000000b0: 982b 4dbe 139a e53d b505 a13e fe85 ebbd
000000c0: 6939 0ebf f183 f2be c0bd 2bbf 3f95 e53e
000000d0: cfc8 d8bd c707 b7be 5c10 d93e e89c 683d
000000e0: c299 353f f2e1 523f ad04 683e 0aa1 5cbe
000000f0: 3b38 cc3d d872 353d 11e4 903e 2003 4f3e

encoder_variable_selection.single_variable_grns.Cases.fc2.bias f4 [8]
-0.255535 0.12753914 0.428918 0.32800794 0.14485098 -0.015516889 0.14730854 -0.07329467
00000000: 7cd5 82be 9f99 023e 249b db3e a8f0 a73e
00000010: d153 143e 8d3a 7ebc 0dd8 163e 841b 96bd
