TFT-pytorch/results/split_2/checkpoints/best-epoch=1.ckpt (torch, 912291 bytes, 815 tensors)

prescalers.AgeDist.weight f4 [8, 1]
0	0xbe48d992	-0.19614246
1	0xbf37e109	-0.7182775
2	0x3f1bf91c	0.60926986
3	0x3e191363	0.14948802
4	0xbf205863	-0.6263487
5	0xbe9eeb61	-0.31038955
6	0xbf18c043	-0.5966837
7	0x3e52d62d	0.20589514

prescalers.AgeDist.bias f4 [8]
0	0x3da54b48	0.080709994
1	0x3e9f9a2a	0.31172305
2	0x3f37d4ee	0.7180928
3	0x3e08373b	0.13302319
4	0xbf151c1a	-0.58246005
5	0xbf1daa91	-0.6158839
6	0xbe27e320	-0.16395235
7	0xbdd062f5	-0.101751246

prescalers.HealthDisp.weight f4 [8, 1]
0	0x3de7b76a	0.1131428
1	0xbf8f50fc	-1.119659
2	0x3f8ed466	1.1158569
3	0xbf3c34cd	-0.7351807
4	0x3f421f06	0.7582859
5	0x3dfb20ee	0.1226214
6	0x3f44f40e	0.769349
7	0x3f254e31	0.64572436

prescalers.HealthDisp.bias f4 [8]
0	0xbc470000	-0.012145996
1	0x3ebee4b5	0.37283865
2	0x3f2a0446	0.6641277
3	0x3ebea46f	0.37234828
4	0x3efbe573	0.49198493
5	0xbf273a94	-0.6532376
6	0x3ef6177f	0.480648
7	0xbe22059f	-0.15822457

prescalers.SinWeekly.weight f4 [8, 1]
0	0x3e624346	0.22095975
1	0x3ecd0523	0.40042982
2	0x3e65f588	0.22456944
3	0x3f972dd6	1.1810863
4	0xbcbd77f7	-0.023128493
5	0xbf3002c9	-0.6875425
6	0xbeb47083	-0.3524209
7	0xbf766057	-0.9624075

prescalers.SinWeekly.bias f4 [8]
0	0x3ed1c968	0.40973973
1	0xbea066b6	-0.31328362
2	0xbdfebded	-0.12438569
3	0x3f517f54	0.8183491
4	0x3f2cc3d2	0.674863
5	0x3dee2413	0.11627974
6	0xbed7445b	-0.4204434
7	0xbe16e778	-0.14736736

prescalers.CosWeekly.weight f4 [8, 1]
0	0x3eddfbd7	0.433562
1	0xbf019ce3	-0.50630015
2	0xbf53e662	-0.8277341
3	0x3f8b2c7e	1.0872953
4	0x3f9fe0ce	1.249048
5	0xbe847a39	-0.25874498
6	0xbfa5eb83	-1.2962497
7	0x3d4f4115	0.050599176

prescalers.CosWeekly.bias f4 [8]
0	0xbd6d69d8	-0.05796227
1	0xbeff09c0	-0.49812126
2	0x3ed31f73	0.4123493
3	0x3f265309	0.6497045
4	0x3d705fce	0.058685116
5	0x3d3d58c7	0.046227243
6	0x3ea06bd8	0.31332278
7	0xbefeea34	-0.49788058

prescalers.DiseaseSpread.weight f4 [8, 1]
0	0xbf4dbca5	-0.80365974
1	0x3e6c73e4	0.23091084
2	0xbf914f4b	-1.1352323
3	0xbf1a07be	-0.60168064
4	0x3f644244	0.89163613
5	0x3f7a8522	0.97859395
6	0xbdfbb8db	-0.12291118
7	0xbf5701c7	-0.83987087

prescalers.DiseaseSpread.bias f4 [8]
0	0x3e4a0e52	0.19732025
1	0xbeaa0890	-0.33209658
2	0xbd9ab228	-0.07553512
3	0x3f6eec6c	0.933295
4	0xbac4e294	-0.0015021139
5	0xbc2cc806	-0.010545736
6	0x3e0e2c86	0.13884172
7	0xbea1a161	-0.31568435

prescalers.Transmission.weight f4 [8, 1]
0	0x3fd6a45b	1.6768907
1	0xbfc90999	-1.5706054
2	0xbe62117b	-0.22076981
3	0xbee26b5b	-0.4422253
4	0xbee3b8f2	-0.4447704
5	0xbea2c18d	-0.31788293
6	0x3f738be1	0.95135313
7	0x3f6570e8	0.89625406

prescalers.Transmission.bias f4 [8]
0	0x3e27c08a	0.16382042
1	0x3f201666	0.6253418
2	0xbf0db13c	-0.55348563
3	0xbf582fda	-0.84448016
4	0x3cf97746	0.030452382
5	0xbd9395eb	-0.07206329
6	0xbf82f7aa	-1.0231831
7	0xbee429f5	-0.4456326

prescalers.VaccinationFull.weight f4 [8, 1]
0	0xbeb2fe6c	-0.34959733
1	0x3f3470f7	0.7048487
2	0xbe946612	-0.28984123
3	0x3f8907ea	1.070554
4	0xbee4ab3b	-0.44661888
5	0xbf70caa7	-0.9405922
6	0xbea24dae	-0.3169989
7	0x3ccb405d	0.024810964

prescalers.VaccinationFull.bias f4 [8]
0	0x3d8b0030	0.06787145
1	0xbf832bb3	-1.0247711
2	0x3f215b4a	0.6302992
3	0xbebe1184	-0.37122738
4	0xbecba335	-0.39772955
5	0x3f00b34d	0.5027359
6	0xbe6ec7fa	-0.23318473
7	0x3ee2c52e	0.4429106

prescalers.SocialDist.weight f4 [8, 1]
0	0x3e025cd3	0.12730722
1	0x3e1c0e6e	0.1523988
2	0xbf1c5fd9	-0.6108375
3	0xbf754680	-0.958107
4	0xbf0f753a	-0.5603825
5	0xbeeefecb	-0.46678767
6	0xbf1b3217	-0.60623306
7	0x3e4afcf1	0.19823052

prescalers.SocialDist.bias f4 [8]
0	0xbb8c5c07	-0.0042834315
1	0xbe2efd9c	-0.17088932
2	0x3f03780f	0.5135507
3	0xbf284c5a	-0.65741503
4	0x3ed925d3	0.4241167
5	0xbe4fc30b	-0.20289247
6	0xbf7497d9	-0.955442
7	0xbe410365	-0.18848951

prescalers.Cases.weight f4 [8, 1]
0	0x3e08d696	0.13363108
1	0x3f7fc7db	0.9991433
2	0xbf36a8fa	-0.7135159
3	0xbf0b6c0e	-0.54461753
4	0xbf50dd50	-0.81587696
5	0x3f322942	0.69594204
6	0x3f4b5755	0.79430133
7	0x3ee6bc76	0.4506566

prescalers.Cases.bias f4 [8]
0	0xbf025ab9	-0.5091968
1	0x3f234c27	0.63788074
2	0x3f534906	0.825333
3	0xbe9ddda1	-0.30833152
4	0xbe9617eb	-0.29315123
5	0x3ea6da46	0.32588404
6	0x3df0e9c4	0.11763337
7	0x3dbd2deb	0.09237274

static_variable_selection.flattened_grn.resample_norm.mask f4 [2]
0	0xbda432e1	-0.08017517
1	0x3da60ed4	0.08108297

static_variable_selection.flattened_grn.resample_norm.norm.weight f4 [2]
0	0x3f854eee	1.0414712
1	0x3f854eca	1.041467

static_variable_selection.flattened_grn.resample_norm.norm.bias f4 [2]
0	0x3e30ead2	0.17277077
1	0xbe30eb1f	-0.17277192

static_variable_selection.flattened_grn.fc1.weight f4 [2, 16]
0	0x3ee0c68b	0.43901476
1	0x3e6e86c5	0.23293598
2	0xbead762e	-0.33879226
3	0xbf284d26	-0.6574272
4	0xbe6c670f	-0.23086189
5	0xbe88e4c2	-0.26737028
6	0xbedf779a	-0.43645936
7	0x3fb59d25	1.4188582
8	0xbca4e616	-0.020129245
9	0xbcc03114	-0.023460902
10	0xbe8a5e79	-0.27025202
11	0x3dab355f	0.08359789
12	0xbf28f33f	-0.65996164
13	0x3ef7a315	0.4836661
14	0xbf274a5e	-0.6534785
15	0x3eaf346c	0.34219682
16	0xbf0c9bf7	-0.54925483
17	0x3f0de1bf	0.55422586
18	0xbee708a8	-0.45123792
19	0xbd81b57d	-0.06333444
20	0xbadc46f3	-0.0016805812
21	0x3f047fa4	0.51757264
22	0xbe8b4b40	-0.2720585
23	0xbe92af53	-0.28649387
24	0xbe9228f9	-0.28546885
25	0xbf231f7c	-0.63719916
26	0xbcaec767	-0.021335317
27	0xbe0033b8	-0.12519729
28	0xbd70a131	-0.058747474
29	0x3e2ad545	0.16682918
30	0xbf156596	-0.5835813
31	0x3d781303	0.060565006

static_variable_selection.flattened_grn.fc1.bias f4 [2]
0	0xbe5f0d8d	-0.21782513
1	0xbe40a740	-0.18813801

static_variable_selection.flattened_grn.fc2.weight f4 [2, 2]
0	0xbf9f4e91	-1.2445852
1	0xbf86d306	-1.0533149
2	0xbfa34c17	-1.2757596
3	0xbe4d5749	-0.20052828

static_variable_selection.flattened_grn.fc2.bias f4 [2]
0	0x3e2e2de6	0.17009696
1	0xbddf4f0c	-0.10903749

static_variable_selection.flattened_grn.gate_norm.glu.fc.weight f4 [4, 2]
0	0x3f3e1327	0.74247974
1	0xbcc4a293	-0.024003303
2	0x3f111cb2	0.5668441
3	0xbf01f123	-0.5075857
4	0xbe390ea6	-0.18071994
5	0xbe57650c	-0.2103464
6	0xbf3858b8	-0.72010374
7	0xbf61a48a	-0.8814169

static_variable_selection.flattened_grn.gate_norm.glu.fc.bias f4 [4]
0	0x3e0fdeb0	0.14049792
1	0xbdec180b	-0.11528023
2	0x3e3d4878	0.18484676
3	0xbe557275	-0.20844443

static_variable_selection.flattened_grn.gate_norm.add_norm.norm.weight f4 [2]
0	0x3e8721ad	0.2639288
1	0x3e8721b9	0.26392916

static_variable_selection.flattened_grn.gate_norm.add_norm.norm.bias f4 [2]
0	0xbc8b2c44	-0.016988881
1	0x3c8b2c1c	0.016988806

static_variable_selection.single_variable_grns.AgeDist.resample_norm.mask f4 [16]
0	0xbe9770a0	-0.29578114
1	0xbd268077	-0.040649857
2	0x3e8af6f8	0.27141547
3	0xbf804868	-1.0022097
4	0x3ec3f1c9	0.38270405
5	0xbd7aa776	-0.06119486
6	0xbeaf241f	-0.34207246
7	0xbeedd6fb	-0.4645308
8	0x3d6090ec	0.05482571
9	0x3e4b3c65	0.19847257
10	0x3e789597	0.24275814
11	0xbe72936c	-0.2368905
12	0xbe8a561b	-0.27018818
13	0x3db8519d	0.089999415
14	0xbec869ba	-0.39143163
15	0xbe1e6fa3	-0.15472274

static_variable_selection.single_variable_grns.AgeDist.resample_norm.norm.weight f4 [16]
0	0x3f284e48	0.6574445
1	0x3f8df9be	1.109184
2	0x3fbc3b73	1.4705642
3	0x3f1bd133	0.6086609
4	0x3fc5db32	1.5457518
5	0x3f66f7ce	0.9022187
6	0x3f1ed729	0.6204706
7	0x3f34cd68	0.70625925
8	0x3f8e30e0	1.1108665
9	0x3f9c7df4	1.2225938
10	0x3fae32f9	1.3609306
11	0x3f60ba08	0.8778386
12	0x3f421c8d	0.75824815
13	0x3f90584b	1.1276945
14	0x3fa13f49	1.2597438
15	0x3f81bbd8	1.013545

static_variable_selection.single_variable_grns.AgeDist.resample_norm.norm.bias f4 [16]
0	0x3e08b28d	0.13349362
1	0x3e44f8f2	0.1923559
2	0x3dd30e82	0.103055015
3	0xbed57aa8	-0.41695142
4	0x3e8dcde6	0.2769615
5	0xbdf875f0	-0.1213187
6	0xbcf3ff92	-0.029784951
7	0x3cb18ea0	0.021674454
8	0xbe010252	-0.12598541
9	0xbe13bd73	-0.14427738
10	0xbe9e1f04	-0.30883038
11	0x3ddc34d0	0.10752261
12	0xbd4c45bf	-0.049871203
13	0x3e62eb52	0.2216008
14	0xbe4a0abb	-0.19730656
15	0xbdd2bf12	-0.1029035

static_variable_selection.single_variable_grns.AgeDist.fc1.weight f4 [8, 8]
0	0xbf8176e6	-1.011441
1	0xbe503d20	-0.20335817
2	0xbe93e1be	-0.28883165
3	0x3e6d9e9c	0.23205036
4	0xbf052da8	-0.5202279
5	0xbe94630c	-0.28981817
6	0x3e3b1df2	0.18273142
7	0x3ee444c3	0.4458371
8	0x3e84d968	0.25947118
9	0x3f2476a4	0.6424353
10	0x3dbe8f79	0.09304709
11	0x3e0c806d	0.13720866
12	0xbdbf1758	-0.09330624
13	0xbe942d95	-0.28941026
14	0xbfab191f	-1.3367041
15	0x3e4d0b63	0.20023875
16	0x3f52634c	0.82182765
17	0x3fd46538	1.659339
18	0xbec85512	-0.39127403
19	0x3eb62a12	0.35578972
20	0x3f61703d	0.8806189
21	0x3f79b91a	0.9754807
22	0xbf01bf84	-0.50682855
23	0xbde232ee	-0.1104487
24	0x3f0667e9	0.52502304
25	0xbf647d85	-0.8925403
26	0x3ef48801	0.47760013
27	0x3e89c4b1	0.26907876
28	0x3ca2edc3	0.019888764
29	0x3e82458a	0.2544368
30	0xbf11ef48	-0.5700574
31	0xbde08dc3	-0.10964539
32	0x3efe544d	0.4967369
33	0x3e5f2f0b	0.21795289
34	0x3e15572f	0.14584039
35	0x3e42665d	0.18984361
36	0xbe8d4b98	-0.27596736
37	0x3e189fed	0.14904757
38	0x3f96cc62	1.1781123
39	0xbf7f1660	-0.99643517
40	0x3b79d70d	0.0038122565
41	0xbd7fe3dd	-0.062473167
42	0x3f1d22a2	0.6138097
43	0x3f5a8a71	0.85367495
44	0xbf371cd7	-0.7152838
45	0xbeefe48d	-0.46854058
46	0xbf14d515	-0.5813764
47	0xbde6e803	-0.112747215
48	0xbf53179a	-0.8245789
49	0x3e928f9e	0.28625196
50	0xbe3b8c67	-0.18315278
51	0x3effabe1	0.4993582
52	0xbe9fd140	-0.31214333
53	0xbb49224f	-0.0030690616
54	0xbebcb92c	-0.36860025
55	0xbe285050	-0.16436887
56	0xbe8f46cd	-0.27983704
57	0xbc3ec808	-0.011644371
58	0xbe031462	-0.12800744
59	0x3e081cb4	0.132922
60	0x3f69edea	0.91378653
61	0xbec88e50	-0.39171076
62	0x3e9c037b	0.30471405
63	0x3de4e0c1	0.11175681

static_variable_selection.single_variable_grns.AgeDist.fc1.bias f4 [8]
0	0x3e76d330	0.24103999
1	0xbdd8fee9	-0.10595495
2	0xbe4d51b7	-0.20050703
3	0x3cfdce4f	0.030982165
4	0xbebc39f0	-0.36762953
5	0x3e2ea6da	0.17055836
6	0xbd19cc4f	-0.03754836
7	0xbcd112ad	-0.0255216

static_variable_selection.single_variable_grns.AgeDist.fc2.weight f4 [8, 8]
0	0x3f1c7051	0.6110888
1	0x3f12c9b8	0.5733905
2	0x3f1b23fc	0.6060178
3	0xbf49f922	-0.7889577
4	0x3e04014c	0.1289112
5	0xbf464857	-0.7745413
6	0xbe099896	-0.13437113
7	0xbf7912ce	-0.9729432
8	0x3f209f50	0.6274309
9	0xbdd00553	-0.101572655
10	0xbe5e4b5c	-0.21708435
11	0xbf4fd6db	-0.8118722
12	0x3e7de914	0.24795943
13	0x3db91eb4	0.09039059
14	0x3ea364cd	0.31912842
15	0xbfa248a8	-1.2678423
16	0x3f488362	0.78325474
17	0xbdd9c63c	-0.10633513
18	0x3df2cd3d	0.11855552
19	0xbe4d990e	-0.20077917
20	0x3d1af81b	0.037834268
21	0xbee695d8	-0.45036197
22	0x3e96a18c	0.29420125
23	0x3f07489a	0.52845156
24	0xbe344182	-0.17603114
25	0xbf171113	-0.5901043
26	0x3f5e20be	0.8676871
27	0x3dd6362f	0.104595535
28	0xbe122048	-0.14270127
29	0xbed7bea8	-0.42137647
30	0xbe890d67	-0.26768038
31	0x3e8284a6	0.25491828
32	0xbeb66946	-0.35627192
33	0xbe22c4dd	-0.1589541
34	0x3f64eca3	0.8942358
35	0x3f2e076c	0.67980075
36	0x3e9adf61	0.3024855
37	0x3e891079	0.2677038
38	0x3e814db1	0.25254586
39	0xbf8fd8e4	-1.1238065
40	0x3eca2eae	0.3948874
41	0x3e86ea40	0.26350594
42	0x3d0e2e92	0.03471238
43	0xbebc9c1f	-0.3683786
44	0xbebb950a	-0.36637145
45	0x3edeaa8c	0.43489492
46	0x3ea0fa57	0.31440994
47	0xbed73d37	-0.4203889
48	0x3f14d2ae	0.5813397
49	0x3eaf55f0	0.34245253
50	0x3eebf283	0.4608346
51	0x3f2f2e6c	0.6843021
52	0x3cf830d0	0.030296713
53	0x3e9ae69d	0.3025407
54	0x3f205325	0.6262687
55	0xbdf3083c	-0.11866805
56	0x3e0e7e7c	0.13915437
57	0x3cb6fdec	0.022337876
58	0xbef68207	-0.48146078
59	0x3e97863f	0.2959461
60	0xbf23d4bb	-0.63996476
61	0x3f570a8c	0.8400047
62	0xbf0ece74	-0.5578377
63	0xbf5ad56f	-0.85481924

static_variable_selection.single_variable_grns.AgeDist.fc2.bias f4 [8]
0	0xbe963996	-0.2934081
1	0x3e198642	0.14992622
2	0x3d501c70	0.05080837
3	0xbd030356	-0.031985603
4	0xbe2868f9	-0.16446294
5	0x3d80d508	0.062906325
6	0xbe02d820	-0.12777758
7	0x3d3e1b3f	0.046412703

static_variable_selection.single_variable_grns.AgeDist.gate_norm.glu.fc.weight f4 [32, 8]
0	0x3c38d62d	0.011281532
1	0xbe503ac0	-0.20334911
2	0xbdce1756	-0.10063045
3	0xbeae7978	-0.34077048
4	0xbe4beb13	-0.19913892
5	0xbcf42c93	-0.02980641
6	0xbe804d9a	-0.25059205
7	0x3d1f50cc	0.038895413
8	0xbe301952	-0.17197159
9	0x3ec67b57	0.38765976
10	0xbe4827df	-0.1954646
11	0xbf2bfab3	-0.6717941
12	0xbedf95b7	-0.4366891
13	0x3e8c01f2	0.27345234
14	0xbd0e7507	-0.034779575
15	0x3e605f6b	0.21911399
16	0x3f10d7e6	0.56579435
17	0x3e41c53c	0.18922895
18	0x3ef52398	0.47878718
19	0x3f2bdf39	0.67137486
20	0x3e3dd512	0.18538311
21	0xbf0c8a8d	-0.5489891
22	0x3e6c7dde	0.2309489
23	0xbf4a9239	-0.7912937
24	0x3c5ffef0	0.013671622
25	0xbe331cd8	-0.17491472
26	0xbdd5b4ae	-0.104348525
27	0x3e0f790b	0.14011018
28	0xbd668bac	-0.056285545
29	0xbc1aed8d	-0.009456051
30	0x3e2711e3	0.16315417
31	0x3d0c06d1	0.034186188
32	0xbeab45c6	-0.3345167
33	0x3e9073d3	0.28213367
34	0xbeb747c3	-0.35796937
35	0xbf064bb3	-0.5245926
36	0x3d042964	0.032266036
37	0x3f24d002	0.64379895
38	0x3e97c51d	0.29642573
39	0x3eb760ff	0.3581619
40	0xbe16d84f	-0.14730953
41	0x3e1908e0	0.14944792
42	0x3e3ec441	0.18629552
43	0x3eb845cc	0.3599075
44	0xbe5915b0	-0.2119968
45	0x3dbd1d73	0.092341326
46	0x3ed34b28	0.41268277
47	0xbece0c2f	-0.4024367
48	0x3dce6c36	0.10079233
49	0x3e716ffa	0.23577872
50	0x3e59f760	0.21285772
51	0x3ee2d6d6	0.44304532
52	0x3e143b19	0.14475669
53	0xbd838ca5	-0.0642331
54	0x3e62a57f	0.22133444
55	0xbebb520e	-0.3658604
56	0x3e414755	0.18874867
57	0x3e652c3b	0.22380154
58	0x3d69006d	0.05688517
59	0xbd40f530	-0.04710883
60	0x3d0cc257	0.034365024
61	0x3d4049ef	0.04694551
62	0xbe09e7b4	-0.13467294
63	0xbe31b08f	-0.17352508
64	0x3e697f9c	0.22802585
65	0x3c3b14ef	0.011418565
66	0x3d5e367f	0.05425119
67	0x3d9116af	0.07084405
68	0xbe654392	-0.22389057
69	0xbe5182c3	-0.20460038
70	0xbeae7949	-0.34076908
71	0xbe9294bf	-0.2862911
72	0xbe8fc71e	-0.28081602
73	0xbeba2269	-0.36354378
74	0xbdda5f51	-0.106627114
75	0x3e75a676	0.23989281
76	0x3b0a6bd0	0.002112139
77	0x3e7833fb	0.24238579
78	0xbd3b3f43	-0.045714628
79	0x3bff85d4	0.007797936
80	0xbda67008	-0.08126837
81	0xbeabd3b4	-0.33559954
82	0xbdddd48b	-0.10831555
83	0x3d94e332	0.072698966
84	0x3bc9e931	0.006161832
85	0xbdd5c433	-0.10437813
86	0xbe0049c9	-0.12528147
87	0x3d066003	0.032806408
88	0x3dc747ea	0.097305134
89	0xbf00eafe	-0.5035857
90	0x3ede77f2	0.43450886
91	0xbecb88e5	-0.3975288
92	0x3e38acbc	0.18034643
93	0xbd7b4213	-0.06134231
94	0xbd9bb5f6	-0.07603066
95	0xbd819c43	-0.06328633
96	0x3e14f5cc	0.14546889
97	0x3db57463	0.0886009
98	0xbdfcb39f	-0.123389475
99	0xbe80ae44	-0.25132954
100	0xbe8a31bd	-0.26991072
101	0x3e18ed1a	0.14934197
102	0xbebce66e	-0.36894554
103	0x3e980ecf	0.29698798
104	0xbd38b7c7	-0.04509714
105	0x3eb77485	0.35831085
106	0x3e15e401	0.14637758
107	0x3e542ec2	0.20720962
108	0x3e01401a	0.12622109
109	0x3cd38b04	0.025823124
110	0xbdeb2c87	-0.11483102
111	0xbed29f1b	-0.41137013
112	0xbeb983d7	-0.36233398
113	0x3ed96f23	0.42467603
114	0xbdc65a7a	-0.09685226
115	0xbdbdea95	-0.092732586
116	0xbedb6e8a	-0.42857772
117	0x3f13f979	0.5780254
118	0x3f04c53f	0.51863474
119	0x3f1406af	0.578227
120	0xbe55b7c2	-0.2087088
121	0xbea88cb9	-0.32919863
122	0x3e762795	0.24038537
123	0x3e87e491	0.2654157
124	0x3e46abfb	0.19401543
125	0x3dcb4f50	0.09927237
126	0xbe41e482	-0.18934825
127	0x3e2419e2	0.16025499
128	0xbed497d4	-0.41522086
129	0xbe79b40a	-0.24385086
130	0x3e3be913	0.1835063
131	0xbe8c09ce	-0.2735123
132	0xbda1a177	-0.07892125
133	0xbe5e673f	-0.21719073
134	0xbe19c5e3	-0.15016894
135	0xbd017203	-0.03160287
136	0x3eaa73fd	0.33291617
137	0x3e8c24fe	0.27371973
138	0x3e1bc275	0.15210898
139	0x3e214edf	0.15752743
140	0x3e1956c3	0.14974503
141	0x3e1fb400	0.15596008
142	0x3eb0ea2d	0.34553662
143	0xbdd17dd2	-0.102290764
144	0x3ec6e48a	0.38846236
145	0x3d867ca8	0.06566745
146	0x3e1959b4	0.14975625
147	0x3f02e8c0	0.511364
148	0x3f14fabb	0.58195084
149	0x3e881e8e	0.2658581
150	0x3e2608f0	0.16214347
151	0xbeb44870	-0.35211515
152	0x3ee6f34a	0.4510749
153	0xbd0ed643	-0.034872305
154	0x3cf88fa5	0.030341933
155	0xbe198939	-0.14993753
156	0x3c87aed0	0.01656285
157	0xbe352493	-0.17689733
158	0x3cd4c278	0.025971636
159	0x3da2d3c7	0.079505496
160	0xbe4f6e5e	-0.20256945
161	0x3e5ab3dd	0.21357675
162	0x3e70520f	0.23468803
163	0xbef36412	-0.47537285
164	0x3e2203fc	0.15821832
165	0x3ebf9f95	0.3742644
166	0x3f090134	0.5351746
167	0x3e9dac5d	0.30795565
168	0xbe6c4241	-0.23072149
169	0xbecaa573	-0.39579353
170	0xbe40c6ed	-0.18825884
171	0xbf16969b	-0.58823556
172	0xbe33ee3f	-0.17571352
173	0x3e8ebac7	0.27876875
174	0xbe8404af	-0.25784823
175	0x3f16acdc	0.5885751
176	0x3e39c521	0.18141605
177	0x3e5283ab	0.2055804
178	0x3f075167	0.52858585
179	0x3d3b5fca	0.04574565
180	0xbee6c614	-0.45072997
181	0xbed4ceba	-0.4156397
182	0x3e43d858	0.19125497
183	0xbe7f8c63	-0.24955897
184	0x3cc911fa	0.024544705
185	0x3d390b95	0.04517706
186	0xbead5f94	-0.33861983
187	0xbcd56c47	-0.026052607
188	0xbf0f8fca	-0.5607878
189	0xbdc8012f	-0.09765851
190	0x3e24c8a6	0.16092166
191	0xbd663c35	-0.05620976
192	0xbb2a36c4	-0.0025972584
193	0xbed5eac9	-0.4178069
194	0x3ea9f5b2	0.33195263
195	0x3ee794ce	0.45230716
196	0x3e2dcafb	0.16971962
197	0xbe23fdf5	-0.16014846
198	0xbedef1a5	-0.43543735
199	0xbe26c179	-0.16284741
200	0xbe109c66	-0.14122161
201	0x3d6a64ab	0.05722491
202	0xbf4acf59	-0.7922264
203	0xbe22265c	-0.15834945
204	0xbf0b51df	-0.544218
205	0x3e0d74eb	0.13814132
206	0x3e43b424	0.19111687
207	0xbcf05f47	-0.029342307
208	0xbeb9d43d	-0.36294737
209	0xbd89ced5	-0.06728903
210	0xbef5bd04	-0.4799577
211	0xbc2e1bb6	-0.010626724
212	0xbf1d30b7	-0.6140246
213	0xbe4aa20b	-0.19788377
214	0x3ddaf807	0.10691839
215	0xbe23edb3	-0.16008644
216	0x3ce0a1c4	0.027420886
217	0xbf07559e	-0.52865016
218	0xbe843a73	-0.25825843
219	0x3e4a8a86	0.19779405
220	0xbc4b2b35	-0.012400438
221	0xbee064d2	-0.4382692
222	0xbce94edb	-0.028479984
223	0x3ecfe531	0.40604547
224	0x3e7ed126	0.24884471
225	0x3d7b57bd	0.06136297
226	0x3d32e6d5	0.04367717
227	0x3dcf9ac7	0.10136943
228	0x3ea4d7ea	0.3219598
229	0x3ecffa1b	0.40620503
230	0xbe6122e0	-0.2198596
231	0xbe248778	-0.16067302
232	0xbee9c2a0	-0.456563
233	0xbe55d507	-0.20882045
234	0x3f08753f	0.53303903
235	0xbe994992	-0.29938942
236	0x3e6ffcaa	0.23436227
237	0x3f053564	0.5203459
238	0x3ea04e73	0.31309852
239	0xbe03d91e	-0.12875792
240	0xbe517d6c	-0.20458001
241	0xbd9f11b8	-0.077670515
242	0xbf18cce0	-0.59687614
243	0xbec49145	-0.38392082
244	0xbe472f95	-0.19451745
245	0x3f3af635	0.7303193
246	0x3dff0442	0.12451984
247	0x3e5db5b5	0.21651347
248	0xbcd2f862	-0.025753204
249	0xbefdd7fb	-0.49578843
250	0xbe37a2d6	-0.1793321
251	0x3e0864f5	0.13319762
252	0xbe33ed9d	-0.17571111
253	0xbe0dcef4	-0.13848478
254	0x3eee38f0	0.46527815
255	0x3e5b6b45	0.21427639

static_variable_selection.single_variable_grns.AgeDist.gate_norm.glu.fc.bias f4 [32]
0	0x3e5607f1	0.20901467
1	0x3db023c0	0.08600569
2	0x3ecfec1e	0.4060983
3	0xbea01b83	-0.3127099
4	0x3e91494f	0.28376243
5	0xbde0b74b	-0.1097246
6	0x3c7aea21	0.01531461
7	0xbb80610f	-0.0039178203
8	0xbd388b13	-0.045054507
9	0xbdef6d5c	-0.116907805
10	0xbe472a56	-0.19449744
11	0x3e833f83	0.25634393
12	0xbdf25558	-0.11832684
13	0x3e033134	0.12811738
14	0xbdf48cbf	-0.11940908
15	0xbe3a9bd5	-0.18223508
16	0xbd99c2eb	-0.07507881
17	0x3e052895	0.13003762
18	0x3e323bb8	0.17405593
19	0xbe661d66	-0.22472152
20	0xbca54a77	-0.02017711
21	0xbe0f7e05	-0.14012916
22	0x3dd93d03	0.1060734
23	0xbe976a58	-0.2957332
24	0xbf0a2a4f	-0.5397081
25	0xbe724f5a	-0.23663083
26	0xbe9ebd3a	-0.31003743
27	0xbe45d8b5	-0.19320948
28	0x3d11e0ef	0.035614904
29	0xbe1a3366	-0.1505867
30	0xbe3f33be	-0.18672082
31	0xbe9f0434	-0.31057894

static_variable_selection.single_variable_grns.AgeDist.gate_norm.add_norm.norm.weight f4 [16]
0	0x3f5140a8	0.8173928
1	0x3f899657	1.0749005
2	0x3fc12591	1.5089589
3	0x3e56496d	0.20926447
4	0x3fc8cbe4	1.5687222
5	0x3f3c83cb	0.736386
6	0x3f196472	0.5991889
7	0x3e973ec8	0.29540086
8	0x3f416bd6	0.7555517
9	0x3f79d8f7	0.9759669
10	0x3f94ebd8	1.1634474
11	0x3f34eec6	0.7067684
12	0x3f4675d2	0.7752353
13	0x3f915681	1.1354524
14	0x3fa7dfd2	1.311518
15	0x3f6fccfa	0.93672144

static_variable_selection.single_variable_grns.AgeDist.gate_norm.add_norm.norm.bias f4 [16]
0	0x3bd60061	0.006530807
1	0x3d40ae56	0.04704126
2	0x3e0c0dfc	0.1367721
3	0xbe926d10	-0.28598833
4	0x3e67f157	0.22650658
5	0xbe24b10a	-0.1608316
6	0x3d32b62f	0.043630775
7	0x3c81f95d	0.015865976
8	0xbe12b63d	-0.14327331
9	0xbdc5dd3b	-0.09661337
10	0xbea592aa	-0.32338458
11	0x3e04f3a5	0.12983568
12	0xbe07874b	-0.13235204
13	0x3e9e5927	0.30927393
14	0xbd470a12	-0.04859359
15	0xbcb565f9	-0.02214335

static_variable_selection.single_variable_grns.HealthDisp.resample_norm.mask f4 [16]
0	0xbe7245d0	-0.23659444
1	0x3ebc915e	0.36829656
2	0x3e06a654	0.13149387
3	0x3defdf98	0.11712569
4	0xbe17e19f	-0.14832161
5	0xbe11133f	-0.14167498
6	0x3e83b4c7	0.2572386
7	0x3ea4aa1d	0.32161036
8	0x3d8b284b	0.06794795
9	0xbe9725d0	-0.29521036
10	0xbe3dc101	-0.18530656
11	0x3c408f1d	0.011752871
12	0xbe8961f8	-0.26832557
13	0x3e0026ea	0.12514845
14	0xbe1a2f27	-0.1505705
15	0x3de1ee82	0.1103182

static_variable_selection.single_variable_grns.HealthDisp.resample_norm.norm.weight f4 [16]
0	0x3f7693e4	0.96319413
1	0x3fb8e861	1.4445916
2	0x3f877fbb	1.0585855
3	0x3f74403a	0.954105
4	0x3f87e3a4	1.0616345
5	0x3f890a6e	1.0706308
6	0x3f7c9146	0.9865917
7	0x3f956a43	1.1673054
8	0x3f96b13c	1.1772838
9	0x3f21f757	0.63268036
10	0x3f7f1a18	0.9964919
11	0x3f942b2e	1.1575677
12	0x3f983888	1.1892252
13	0x3faeabdb	1.3646196
14	0x3f6d325b	0.9265496
15	0x3fa2f869	1.2732059

static_variable_selection.single_variable_grns.HealthDisp.resample_norm.norm.bias f4 [16]
0	0xbccc057b	-0.024904957
1	0xbe8f9368	-0.2804215
2	0xbb1a3ddd	-0.0023535409
3	0x3e4ec2d7	0.20191513
4	0x3dbd6f5d	0.092497565
5	0xbddb4df3	-0.10708227
6	0xbc7ec4c4	-0.015549842
7	0xbdf8e420	-0.121528864
8	0x3b477cb6	0.0030439324
9	0xbd9b0462	-0.07569195
10	0xbd7f3715	-0.06230839
11	0x3d8c1ac7	0.06841045
12	0xbe6696e5	-0.22518499
13	0x3e9610b0	0.29309607
14	0xbbfb1374	-0.007662231
15	0xbcdfa6a1	-0.027301135

static_variable_selection.single_variable_grns.HealthDisp.fc1.weight f4 [8, 8]
0	0x3de8789e	0.11351131
1	0x3dc7fc03	0.09764864
2	0xbee54d75	-0.44785658
3	0xbfb6f437	-1.4293278
4	0x3eceaabc	0.40364635
5	0x3ee31959	0.44355276
6	0x3e8f3086	0.27966708
7	0xbf0477a2	-0.51745045
8	0xbf2838fe	-0.65711963
9	0x3eed9ad4	0.46407187
10	0xc007a1f8	-2.1192608
11	0x3c34ffc0	0.011047304
12	0xbf8fb935	-1.1228396
13	0xbeae0413	-0.33987483
14	0xbff9bea7	-1.9511307
15	0xbf6f0290	-0.93363285
16	0xbe83be8f	-0.25731322
17	0x3f47827a	0.77933466
18	0x3f145de3	0.5795576
19	0x3f2f4c33	0.68475646
20	0x3e29768f	0.16549133
21	0xbe932937	-0.28742382
22	0xbed7a65e	-0.42119116
23	0x3f133974	0.5750954
24	0x3f375b3e	0.716236
25	0xbe27566e	-0.16341564
26	0xbf5665ce	-0.8374909
27	0x3f1b9f19	0.6078964
28	0x3e5f22a8	0.21790564
29	0x3d78241d	0.060581315
30	0xbec6afc0	-0.38805962
31	0xbf34b26b	-0.70584744
32	0x3ee30fdf	0.44348046
33	0xbf4f8844	-0.810673
34	0x3f2719a7	0.6527352
35	0xbf3a8a66	-0.7286743
36	0xbd93a817	-0.07209795
37	0xbf042ec6	-0.5163387
38	0xbd28ec14	-0.041240767
39	0x3d69824a	0.05700902
40	0xbdf25870	-0.11833274
41	0xbe7ba0ea	-0.24573103
42	0xbee4dc08	-0.4469912
43	0xbeab1db1	-0.3342109
44	0xbe5a4737	-0.21316229
45	0x3ec4db37	0.38448498
46	0x3f38c786	0.7217945
47	0xbf0abd23	-0.5419485
48	0x3f2e6024	0.6811545
49	0x3e916f72	0.2840534
50	0x3d9c7d4c	0.07641086
51	0xbf1a67dd	-0.6031473
52	0xbf9335f2	-1.1500838
53	0x3eb2f2dc	0.34950912
54	0x3ed5a997	0.4173095
55	0xbe9f2cfd	-0.3108901
56	0xbf9d07e0	-1.2268028
57	0xbefeb258	-0.4974544
58	0xbd59b706	-0.05315306
59	0xbe84a096	-0.25903767
60	0xbcc78c4b	-0.02435889
61	0x3dec0f0a	0.11526306
62	0xbea22b99	-0.31673887
63	0x3cd3a0de	0.025833543

static_variable_selection.single_variable_grns.HealthDisp.fc1.bias f4 [8]
0	0xbe8ec3d7	-0.2788379
1	0x3e1e6cc9	0.15471186
2	0xbec60234	-0.38673556
3	0x3aa62af9	0.0012677602
4	0xbe1a01ea	-0.15039793
5	0xbd1f70e5	-0.038926024
6	0x3e4f423b	0.20240109
7	0x3d718a04	0.058969513

static_variable_selection.single_variable_grns.HealthDisp.fc2.weight f4 [8, 8]
0	0x3bb9a52d	0.0056654424
1	0xbf4d5f08	-0.8022313
2	0x3f29c6a1	0.6631871
3	0x3e1ed915	0.15512498
4	0xbf085552	-0.5325519
5	0x3e1790cc	0.1480133
6	0x3eea67c6	0.45782298
7	0x3ed8fbdf	0.42379662
8	0xbe0eda8c	-0.13950557
9	0x3f32b4f1	0.69807345
10	0x3d84a928	0.064775765
11	0x3e3ce599	0.1844696
12	0x3ef81546	0.4845373
13	0x3dcf8706	0.101331756
14	0x3ec45b88	0.38351083
15	0x3e4245f9	0.18972005
16	0xbf51e63b	-0.8199193
17	0xbf50d627	-0.8157677
18	0xbf085687	-0.5325703
19	0xbd965da7	-0.073420815
20	0xbec52a22	-0.38508707
21	0x3d9872d6	0.07443778
22	0x3ebbd00f	0.36682174
23	0x3e508e10	0.20366693
24	0x3ea5c4d6	0.32376736
25	0xbf986a42	-1.1907427
26	0x3e01a7bb	0.1266164
27	0x3e93d60b	0.2887424
28	0xbe9e9120	-0.30970097
29	0xbd81d193	-0.06338801
30	0xbf1f70be	-0.62281406
31	0x3c93de6c	0.018050395
32	0x3f858bd4	1.0433297
33	0xbf63844d	-0.8887375
34	0xbdd9aee9	-0.106290646
35	0xbbe9f5d6	-0.0071399016
36	0x3e8357cd	0.25652924
37	0x3ea6c12b	0.3256925
38	0x3db7832e	0.089605674
39	0xbdb7f46a	-0.08982165
40	0xbf4eea03	-0.80825824
41	0x3f10fc96	0.56635416
42	0xbbd479d4	-0.0064842496
43	0x3f06933a	0.525684
44	0xbe781347	-0.24226104
45	0xbebc2bd7	-0.36752197
46	0xbe6c66b3	-0.23086052
47	0xbd07e603	-0.03317834
48	0xbf4f0865	-0.80872184
49	0xbd79ec87	-0.061016586
50	0xbf0fda07	-0.5619206
51	0x3e0b4d52	0.13603714
52	0x3f2a75bc	0.665859
53	0xbdf13f93	-0.11779704
54	0x3e749549	0.23885073
55	0x3f41d10e	0.7570962
56	0x3f7e27e1	0.992796
57	0x3db6b559	0.08921308
58	0x3e3bcbd0	0.18339467
59	0x3e85cc4f	0.26132438
60	0x3e60c8c7	0.2195159
61	0x3e12fba8	0.14353812
62	0xbeb08525	-0.3447658
63	0xbeded58f	-0.43522307

static_variable_selection.single_variable_grns.HealthDisp.fc2.bias f4 [8]
0	0x3cea222f	0.028580753
1	0x3c20615b	0.009788836
2	0x3e67028e	0.22559568
3	0xbe22f0e5	-0.15912206
4	0xbdb8890e	-0.09010516
5	0x3d3c332b	0.045947235
6	0x3db6c205	0.08923725
7	0xbe3125d0	-0.1729958

static_variable_selection.single_variable_grns.HealthDisp.gate_norm.glu.fc.weight f4 [32, 8]
0	0xbd209832	-0.039207645
1	0x3e759496	0.23982462
2	0xbe6bd1b3	-0.23029213
3	0xbef27ad8	-0.47359347
4	0xbf0fab62	-0.56120884
5	0x3f4663bc	0.7749593
6	0xbe83bc98	-0.25729823
7	0x3d9d2e08	0.076747954
8	0x3d781e93	0.060576033
9	0xbef26008	-0.4733889
10	0x3d81d0df	0.06338667
11	0xbef65b0b	-0.48116335
12	0xbe9f7fb7	-0.31152126
13	0x3f007342	0.5017587
14	0xbf115bcc	-0.56780696
15	0xbedf2212	-0.4358068
16	0xbe2661ef	-0.16248296
17	0xbe67cc15	-0.22636445
18	0x3d9e7f7f	0.07739162
19	0xbdd41bf2	-0.10356893
20	0xbcdabec6	-0.026702296
21	0xbe117983	-0.1420651
22	0x3e290159	0.1650442
23	0x3e844989	0.25837353
24	0x3eb047cd	0.3442978
25	0xbe620683	-0.22072797
26	0xbc61c089	-0.013778814
27	0x3eaee46a	0.3415864
28	0x3f1016d5	0.5628484
29	0xbea052fd	-0.31313315
30	0x3d8d7558	0.06907147
31	0xbe924485	-0.285679
32	0xbd952afc	-0.07283589
33	0xbe5fa786	-0.21841249
34	0x3e0f93fa	0.14021292
35	0x3e3f25ba	0.18666735
36	0x3e425ec0	0.18981457
37	0xbdf83025	-0.12118558
38	0xbeaaf7f2	-0.33392292
39	0xbee34808	-0.44390893
40	0x3da5de18	0.08099002
41	0xbf5ee73c	-0.87071586
42	0x3efca23a	0.4934252
43	0x3ec399f8	0.38203406
44	0x3f2efbea	0.6835314
45	0xbe956702	-0.2918015
46	0x3ebc3315	0.36757722
47	0x3de309d5	0.1108586
48	0x3dd8fe11	0.10595334
49	0x3c917500	0.017755985
50	0x3ec2a75e	0.38018316
51	0x3efa59ed	0.48896733
52	0x3e438a9e	0.19095847
53	0xbdd47ba2	-0.103751436
54	0x3e7f3d6c	0.24925774
55	0x3df0fe09	0.11767203
56	0x3ed8c786	0.42339724
57	0xbd39e062	-0.045380004
58	0x3e6bbfb5	0.23022349
59	0x3e75e0a2	0.24011472
60	0x3d9bf257	0.07614582
61	0xbd7b24be	-0.061314337
62	0x3a9e0012	0.0012054464
63	0xbe5f657a	-0.21816054
64	0x3e0d0239	0.13770379
65	0xbe9f3063	-0.31091604
66	0x3e9bacfb	0.3040541
67	0x3effd35e	0.49965948
68	0xbce565c3	-0.028002625
69	0xbd8483e8	-0.064704716
70	0x3dad6d5e	0.08468126
71	0xbde0cbee	-0.109763965
72	0x3f2803d7	0.6563086
73	0xbed2a3cb	-0.4114059
74	0x3e99f848	0.30072236
75	0xbd7d9160	-0.06190622
76	0x3d0db578	0.03459689
77	0xbe16053d	-0.14650436
78	0xbdf473ff	-0.11936187
79	0xbef8b731	-0.48577264
80	0x3ea23831	0.31683496
81	0xbe8edeb1	-0.27904275
82	0xbd8b6d9d	-0.068080164
83	0xbdb46359	-0.088080116
84	0xbe6e7a61	-0.23288871
85	0x3d9e7a79	0.077382036
86	0xbea99d72	-0.33127934
87	0xbeb246a2	-0.34819514
88	0xbea49ecf	-0.3215241
89	0x3e1977c3	0.14987092
90	0xbe8467a3	-0.2586032
91	0xbcaeaf77	-0.021323903
92	0x3e17d41f	0.14827012
93	0x3dd3fc64	0.10350874
94	0x3eae842e	0.3408522
95	0xbcf6132e	-0.030038442
96	0xbeb1d986	-0.3473627
97	0x3f4362b6	0.76322496
98	0xbe9567ce	-0.2918076
99	0xbf32119a	-0.6955811
100	0xbdc05907	-0.093919806
101	0x3ef8dbf8	0.48605323
102	0x3b9b1eb0	0.004733883
103	0xbe0154dc	-0.12630028
104	0x3e4c9be1	0.19981338
105	0x3d28424d	0.041078854
106	0x3df207ad	0.1181787
107	0x3d322c71	0.043499414
108	0x3ed72af6	0.42024964
109	0xbe814780	-0.25249863
110	0x3e1c36f2	0.15255335
111	0x3ecd2bf4	0.40072596
112	0x3eef4bfa	0.46737653
113	0xbeaa3346	-0.33242244
114	0x3e87b991	0.26508763
115	0x3ee9e813	0.4568487
116	0x3f029628	0.5101037
117	0xbe01ef7f	-0.12689017
118	0xbed06f4e	-0.4070992
119	0xbef4109e	-0.47668928
120	0xbf00c0c7	-0.50294155
121	0x3ebe98bc	0.37225902
122	0xbe6a8c8e	-0.2290518
123	0xbed6f5ae	-0.41984314
124	0xbcfd02eb	-0.03088518
125	0xbe0d0a94	-0.13773566
126	0x3d430fe1	0.047622565
127	0x3cf38bf1	0.029729815
128	0x3dafef3d	0.08590553
129	0x3eb0cf8e	0.34533352
130	0x3c4464e3	0.011986944
131	0xbeefec33	-0.46859893
132	0xbeca45a9	-0.3950627
133	0x3f278f7f	0.6545333
134	0xbe754c8b	-0.2395498
135	0xbd7b61a4	-0.061372414
136	0xbef58e43	-0.479601
137	0x3ea65ff7	0.3249509
138	0xbee12f0c	-0.43981206
139	0xbd329a1a	-0.043603994
140	0xbe945ab5	-0.28975454
141	0xbdb0f532	-0.08640517
142	0x3ed155bf	0.40885732
143	0x3ed04ff8	0.4068601
144	0x3e0f6e58	0.14006937
145	0x3dd5a86e	0.10432516
146	0x3f1b34fa	0.6062771
147	0x3ea39e89	0.3195689
148	0x3e1a5a42	0.15073493
149	0x3edb98ed	0.4289011
150	0xbeba4459	-0.3638027
151	0x3e60ff2d	0.21972342
152	0xbc856379	-0.016282784
153	0x3e81c9a5	0.25349155
154	0xbde06c4c	-0.10958156
155	0xbe39d30f	-0.18146919
156	0xbe996eb5	-0.29967275
157	0xbc912fb4	-0.017722942
158	0xbee06584	-0.4382745
159	0xbe5d3de4	-0.2160564
160	0x3dc47672	0.09592904
161	0xbdc57cc6	-0.09642939
162	0x3dd9181b	0.10600301
163	0xbea2e68c	-0.31816518
164	0xbc5a84bc	-0.01333731
165	0x3e9d67a2	0.30743128
166	0x3da09820	0.078415155
167	0x3e16a949	0.14713015
168	0xbdb1a05e	-0.08673166
169	0x3ec96958	0.39338183
170	0xbe847f6d	-0.25878468
171	0xbede5942	-0.43427473
172	0xbef39008	-0.47570825
173	0x3f252cf2	0.64521706
174	0xbec286ce	-0.37993473
175	0xbe8367f7	-0.25665256
176	0x3e02addf	0.12761639
177	0xbd7d15b5	-0.06178828
178	0xbd76900c	-0.060195968
179	0xbf0f58dc	-0.55994964
180	0xbef706b3	-0.482473
181	0x3f345298	0.7043853
182	0x3ddf47b1	0.10902346
183	0xbef9ffcb	-0.48827967
184	0x3e09cadc	0.13456291
185	0x3bd60c07	0.0065321955
186	0x3e253bb5	0.16136058
187	0x3d965428	0.0734027
188	0xbc92456e	-0.017855372
189	0x3ea8e680	0.32988358
190	0xbe8cbbdc	-0.27487075
191	0x3b5a0fc8	0.0033273567
192	0xbd09fd4f	-0.03368884
193	0x3ea7fac6	0.32808512
194	0xbf205cb1	-0.62641436
195	0xbea47bcf	-0.32125708
196	0x3d947a0e	0.072498426
197	0x3c47544b	0.012166093
198	0xbea88d2b	-0.32920203
199	0x3e0984fd	0.13429637
200	0x3e850d24	0.25986588
201	0xbe974a27	-0.2954876
202	0x3e11d7f4	0.14242536
203	0xbeafca66	-0.34334105
204	0xbea851b3	-0.32874832
205	0x3dbd2838	0.09236187
206	0xbf3750b7	-0.71607536
207	0xbdd236ce	-0.102643594
208	0xbe3e1dc9	-0.1856605
209	0xbe1f56f2	-0.15560511
210	0x3ee5695f	0.44806954
211	0xbcb64dcc	-0.022253893
212	0xbdd0ccbf	-0.10195302
213	0xbda3a91e	-0.07991241
214	0xbdcda4f5	-0.10041229
215	0xbeacfbfa	-0.33785993
216	0xbe34f94d	-0.17673226
217	0x3ed81f0c	0.42211187
218	0xbdca0ac4	-0.09865335
219	0xbeae288e	-0.34015316
220	0x3ee7ffdf	0.45312402
221	0xbdb21efa	-0.086973146
222	0xbd01c67c	-0.03168343
223	0x3e7b7993	0.24558096
224	0x3e6bc4d3	0.23024301
225	0xbe79de6f	-0.24401258
226	0xbf1bae61	-0.60812956
227	0xbdd779e2	-0.10521294
228	0xbf0850c1	-0.5324822
229	0x3e7096d0	0.2349503
230	0xbec222f6	-0.37917298
231	0x3c7d4026	0.015457189
232	0xbc8ef934	-0.017452814
233	0x3e3cbade	0.18430659
234	0x3e918536	0.28421944
235	0xbe0933c1	-0.13398649
236	0xbed41183	-0.4141961
237	0x3dba7f54	0.09106317
238	0x3d5400bb	0.05175851
239	0x3dabe8da	0.08394022
240	0x3ea00259	0.3125179
241	0x3ed53a02	0.4164582
242	0x3e495de2	0.1966472
243	0xbf17b172	-0.59255135
244	0xbe540ba2	-0.20707563
245	0x3ceb6bc7	0.028737916
246	0xbefba16f	-0.49146602
247	0xbe5ec351	-0.21754195
248	0x3e098dbf	0.13432978
249	0x3f05875d	0.5215967
250	0x3e934d53	0.2876993
251	0xbe242793	-0.16030721
252	0xbeea0945	-0.45710197
253	0x3f2828a9	0.6568704
254	0xbd856393	-0.06513133
255	0xbe08acf5	-0.13347228

static_variable_selection.single_variable_grns.HealthDisp.gate_norm.glu.fc.bias f4 [32]
0	0x3dc64f09	0.096830435
1	0xbe9fba5b	-0.31196865
2	0xbcceeba4	-0.025258847
3	0x3db43b14	0.08800331
4	0x3e0121e3	0.12610583
5	0xbe290cc2	-0.16508773
6	0xbe5a3c2d	-0.21312018
7	0xbd910d22	-0.07082583
8	0x3db9b489	0.090676375
9	0x3da53cbe	0.08068226
10	0x3e7a7821	0.24459888
11	0x3d40ff85	0.047118682
12	0xbde6a942	-0.11262752
13	0x3cbbe3e9	0.022935824
14	0x3dab5485	0.0836573
15	0x3d59c982	0.05317069
16	0x3c2a0af9	0.010378593
17	0x3e83331e	0.25624937
18	0xbf16915f	-0.5881557
19	0x3d80d776	0.06291096
20	0xbeaf39d7	-0.34223816
21	0xbe4c004f	-0.19921993
22	0xbde5db7f	-0.11223506
23	0xbe558910	-0.20853066
24	0xbede99ab	-0.43476614
25	0xbde6d798	-0.1127159
26	0xbe9c9984	-0.30585873
27	0x3d77bc6b	0.060482424
28	0x3e477e76	0.19481835
29	0x3d2d380d	0.042289782
30	0xbe3fc8ca	-0.18728939
31	0xbe23b14d	-0.15985604

static_variable_selection.single_variable_grns.HealthDisp.gate_norm.add_norm.norm.weight f4 [16]
0	0x3faa08b3	1.3283905
1	0x3fc45d0c	1.5340896
2	0x3f8d39e4	1.1033292
3	0x3f98b35e	1.1929739
4	0x3f7d5ec7	0.98972744
5	0x3f8d3ff8	1.1035147
6	0x3f4e9a35	0.8070405
7	0x3f736bfe	0.9508666
8	0x3f86cefd	1.0531918
9	0x3f2877aa	0.6580759
10	0x3f845529	1.0338489
11	0x3fa29eaa	1.270467
12	0x3fb71cdb	1.4305681
13	0x3fb9531b	1.4478487
14	0x3f806435	1.0030581
15	0x3fa53fb4	1.2910066

static_variable_selection.single_variable_grns.HealthDisp.gate_norm.add_norm.norm.bias f4 [16]
0	0x3daf7ac1	0.08568335
1	0xbea23ff4	-0.31689417
2	0x3c7e8ea8	0.015536942
3	0x3e7c03f9	0.2461089
4	0x3deb6c84	0.11495307
5	0xbe1e2b56	-0.15446219
6	0xbd638321	-0.055544976
7	0xbe12035c	-0.14259094
8	0x3c7d305c	0.015453424
9	0xbdb9246c	-0.0904015
10	0xbe0287f9	-0.12747182
11	0x3c827e71	0.015929433
12	0xbe845bd3	-0.25851306
13	0x3ef97c9e	0.48727888
14	0xbd1f9f0d	-0.038970042
15	0x3d866436	0.065620825

static_variable_selection.prescalers.AgeDist.weight f4 [8, 1]
0	0xbe48d992	-0.19614246
1	0xbf37e109	-0.7182775
2	0x3f1bf91c	0.60926986
3	0x3e191363	0.14948802
4	0xbf205863	-0.6263487
5	0xbe9eeb61	-0.31038955
6	0xbf18c043	-0.5966837
7	0x3e52d62d	0.20589514

static_variable_selection.prescalers.AgeDist.bias f4 [8]
0	0x3da54b48	0.080709994
1	0x3e9f9a2a	0.31172305
2	0x3f37d4ee	0.7180928
3	0x3e08373b	0.13302319
4	0xbf151c1a	-0.58246005
5	0xbf1daa91	-0.6158839
6	0xbe27e320	-0.16395235
7	0xbdd062f5	-0.101751246

static_variable_selection.prescalers.HealthDisp.weight f4 [8, 1]
0	0x3de7b76a	0.1131428
1	0xbf8f50fc	-1.119659
2	0x3f8ed466	1.1158569
3	0xbf3c34cd	-0.7351807
4	0x3f421f06	0.7582859
5	0x3dfb20ee	0.1226214
6	0x3f44f40e	0.769349
7	0x3f254e31	0.64572436

static_variable_selection.prescalers.HealthDisp.bias f4 [8]
0	0xbc470000	-0.012145996
1	0x3ebee4b5	0.37283865
2	0x3f2a0446	0.6641277
3	0x3ebea46f	0.37234828
4	0x3efbe573	0.49198493
5	0xbf273a94	-0.6532376
6	0x3ef6177f	0.480648
7	0xbe22059f	-0.15822457

encoder_variable_selection.flattened_grn.resample_norm.mask f4 [7]
0	0xbf09ac48	-0.53778505
1	0xbf86a167	-1.0518006
2	0x3ef27120	0.47351933
3	0x3e8d3e36	0.27586526
4	0x3d5f2f17	0.054488268
5	0x3e0febbd	0.14054771
6	0x3e1f78a8	0.1557337

encoder_variable_selection.flattened_grn.resample_norm.norm.weight f4 [7]
0	0x3f8b7d1e	1.0897558
1	0x3e40aa43	0.1881495
2	0x3f752571	0.95760256
3	0x3fb54f6f	1.4164866
4	0x3f89d66f	1.0768565
5	0x3f9c9dff	1.2235717
6	0x3fb4005d	1.4062611

encoder_variable_selection.flattened_grn.resample_norm.norm.bias f4 [7]
0	0xbda399dd	-0.079883315
1	0xbe98b39f	-0.2982454
2	0xbe77f650	-0.24215055
3	0xbed1dc64	-0.40988457
4	0x3e290928	0.16507399
5	0xbdf4408f	-0.11926376
6	0x3f052373	0.52007216

encoder_variable_selection.flattened_grn.fc1.weight f4 [7, 56]
0	0x3ead757b	0.33878693
1	0x3eabd1f5	0.33558622
2	0x3e4ec295	0.20191415
3	0xbe1c7bf9	-0.15281667
4	0xbe9c1de8	-0.30491567
5	0xbd377623	-0.0447904
6	0xbe0103f6	-0.12599167
7	0xbe2ce9a9	-0.1688601
8	0x3e1d2671	0.15346695
9	0xbee5f7c5	-0.44915596
10	0xbe9500da	-0.29102212
11	0x3eb06ec2	0.34459502
12	0x3e88f862	0.26752
13	0xbd18c0c7	-0.03729322
14	0xbebb1113	-0.36536464
15	0x3eb27ab1	0.3485923
16	0x3e91bd59	0.28464773
17	0xbe4977a8	-0.19674551
18	0x3f24182d	0.6409939
19	0x3dc7fecd	0.09765396
20	0xbf1c319a	-0.61013186
21	0xbea55e60	-0.32298565
22	0xbe8882c6	-0.26662272
23	0x3f4c68a2	0.79847157
24	0x3dea688b	0.11445721
25	0xbeb61475	-0.35562482
26	0x3e3ae8c5	0.18252857
27	0x3e0aec74	0.13566762
28	0xbda26ec6	-0.079312846
29	0x3dafdc77	0.08586972
30	0x3ef6f818	0.48236156
31	0x3e32412a	0.1740767
32	0xbe96146f	-0.29312465
33	0x3f23025a	0.63675463
34	0xbe5ae891	-0.2137778
35	0x3e411005	0.18853767
36	0xbe903981	-0.28168872
37	0xbf0e050b	-0.55476445
38	0xbdd50bf8	-0.104026735
39	0xbed85012	-0.4224859
40	0xbdf51d00	-0.11968422
41	0x3deda70b	0.116041265
42	0xbe6f5d99	-0.23375548
43	0x3e62a300	0.22132492
44	0xbe17af6c	-0.14813012
45	0x3e45bb11	0.19309641
46	0x3e838fc4	0.25695622
47	0x3bba07f1	0.005677216
48	0x3e08381f	0.13302658
49	0xbc7b728b	-0.015347133
50	0xbea917c3	-0.3302594
51	0x3dff9428	0.124794304
52	0xbed81002	-0.42199713
53	0x3df3cbc8	0.119041026
54	0xbda86a7b	-0.082234345
55	0x3daa8bc5	0.0832744
56	0x3dbd4910	0.09242451
57	0x3e3679dd	0.17819925
58	0x3dfdadb4	0.12386647
59	0xbcc51e73	-0.02406237
60	0xbd801b6e	-0.06255232
61	0x3ed6b5d5	0.41935602
62	0x3e3cd578	0.18440807
63	0x3e300877	0.17190729
64	0x3eac3647	0.3363516
65	0x3e8ab636	0.2709214
66	0x3e949fee	0.29028267
67	0xbe0d2d56	-0.13786826
68	0xbd355958	-0.044274658
69	0xbda865a7	-0.08222514
70	0xbe3de821	-0.18545581
71	0x3c8534a9	0.016260462
72	0xbe483d52	-0.19554642
73	0x3eb7fb8f	0.3593411
74	0xbee4fa12	-0.44722039
75	0xbe159059	-0.14605846
76	0x3e1b4a86	0.15165147
77	0x3e3e80e7	0.1860386
78	0xbe9d36fb	-0.3070601
79	0xbe7f22fb	-0.24915688
80	0xbe365263	-0.17804866
81	0x3e7156aa	0.23568216
82	0xbc6ed4f8	-0.014577143
83	0x3e4f803d	0.20263763
84	0x3d704ce5	0.058667082
85	0x3db9bb3e	0.09068917
86	0xbddcc21b	-0.1077921
87	0x3e02502a	0.12725893
88	0xbe34dc39	-0.17662133
89	0x3f38a36e	0.72124374
90	0xbee356f4	-0.44402277
91	0x3ea12e67	0.31480715
92	0xbd8b9df9	-0.0681724
93	0xbe9ece8f	-0.31016967
94	0xbe920fc1	-0.28527644
95	0xbeaa916c	-0.33314073
96	0x3d78cfbf	0.060744997
97	0x3e930d5f	0.2872114
98	0xbe834442	-0.25638014
99	0xbbaa74ee	-0.0052019274
100	0xbda26e27	-0.07931166
101	0xbe172e90	-0.14763856
102	0xbd8638cc	-0.06553802
103	0x3e19a6c3	0.15005021
104	0x3ee3753e	0.44425386
105	0x3e9e8849	0.30963352
106	0xbe8f2dd3	-0.2796465
107	0xbcb2190c	-0.021740459
108	0xbeb1cf60	-0.34728527
109	0x3eb62575	0.35575452
110	0x3f02af70	0.51048946
111	0x3f09f35c	0.5388696
112	0x3e6c8466	0.23097381
113	0x3e83bfa4	0.25732148
114	0xbd9cbec0	-0.0765357
115	0xbe8b2704	-0.27178204
116	0xbe0b7976	-0.13620552
117	0xbe042ec1	-0.1290846
118	0xbe60f00f	-0.21966575
119	0xbebd3c50	-0.36960077
120	0xbc75f623	-0.015012297
121	0x3e2a5581	0.1663418
122	0xbd855fe3	-0.065124296
123	0xbea0efeb	-0.31433043
124	0x3d666ead	0.056257892
125	0x3d1dccae	0.038525276
126	0xbe8aa4ec	-0.2707895
127	0xbda94367	-0.08264809
128	0xbeee2b9b	-0.46517643
129	0x3d35d26d	0.04439013
130	0xbd149234	-0.036272243
131	0xbeba2b25	-0.36361042
132	0x3f2713ce	0.65264595
133	0x3f0cbf5d	0.549795
134	0xbeaf2f47	-0.34215757
135	0xbefb2cb0	-0.4905753
136	0xbfa842d6	-1.3145397
137	0x3f5aee13	0.8551952
138	0x3e951583	0.29117975
139	0x3eb115bb	0.34586892
140	0x3f11b559	0.5691734
141	0x3f022822	0.5084249
142	0xbef327ee	-0.474914
143	0xbf48804f	-0.78320783
144	0x3e23a216	0.159798
145	0xbe4d110c	-0.20026034
146	0x3e531e7f	0.20617102
147	0xbef847ef	-0.4849238
148	0x3f33a547	0.7017407
149	0x3ac3c1be	0.0014935059
150	0x3e894894	0.26813185
151	0x3e0f416a	0.13989797
152	0xbdb408c2	-0.08790733
153	0x3e375d87	0.17906772
154	0xbdc2f0a7	-0.09518557
155	0xbe57e3a5	-0.21082933
156	0x3eafb7b2	0.34319836
157	0xbd4032a8	-0.04692331
158	0x3d87d7b6	0.066329405
159	0x3e65a04a	0.22424427
160	0x3d9b0027	0.075683884
161	0x3a85f677	0.0010220547
162	0x3e40cce4	0.1882816
163	0x3eb5fc94	0.35544264
164	0x3de0a4ce	0.10968934
165	0x3dabfd6e	0.08397947
166	0xb850fe2e	-4.9827788e-05
167	0xbe2bb3f9	-0.16767873
168	0x3e1c1172	0.1524103
169	0xbe93921e	-0.28822416
170	0xbe87fe14	-0.26561034
171	0x3c973825	0.018459389
172	0xbe5db349	-0.21650423
173	0x3e579c02	0.21055606
174	0x3ea7660b	0.3269504
175	0xbdc36393	-0.09540477
176	0x3e7a2f78	0.2443217
177	0xbe99c564	-0.3003341
178	0x3ca86c50	0.02055946
179	0x3ee68a0c	0.45027196
180	0x3f01ebbc	0.5075033
181	0xbdd41b56	-0.103567764
182	0xbf046234	-0.51712346
183	0x3cf5aa7e	0.029988524
184	0xba2f2ccb	-0.0006682395
185	0xbe539d25	-0.20665415
186	0xbeeec478	-0.4663427
187	0xbe8567d4	-0.26055777
188	0x3dea4ab5	0.114400305
189	0x3ec571bf	0.38563344
190	0x3e8b9c09	0.27267483
191	0xbed5471f	-0.41655824
192	0x3ea73eb0	0.32665014
193	0xbf2555f1	-0.6458426
194	0x3b9cf7ac	0.004790267
195	0x3d19a473	0.037510347
196	0xbed8db33	-0.42354736
197	0x3b0511f7	0.0020304897
198	0x3ebe31f9	0.371475
199	0x3ea973a4	0.3309604
200	0xbe5df205	-0.21674354
201	0x3ceb27e0	0.028705537
202	0x3e631327	0.22175275
203	0xbe66f801	-0.22555543
204	0xbe2cd4db	-0.16878073
205	0xbe0bec3b	-0.13664334
206	0xbe0baf03	-0.1364098
207	0x3e8e3a7f	0.27779004
208	0x3d40cd30	0.047070682
209	0x3ebd0214	0.36915648
210	0xbf30e5e6	-0.691008
211	0xbe9c02ec	-0.3047098
212	0xbf84bfa6	-1.0370986
213	0xbe93655e	-0.28788275
214	0xbdeb8f52	-0.115019456
215	0x3ed51b13	0.41622218
216	0xbdb52c73	-0.08846369
217	0xbdd6990f	-0.10478412
218	0xbdc7e8c8	-0.097611964
219	0xbe9bb137	-0.30408642
220	0x3d469416	0.04848107
221	0xba471cff	-0.00075955683
222	0xbd36582f	-0.044517692
223	0x3e688eef	0.22710775
224	0xbe1bea9c	-0.15226215
225	0xbddd2f1f	-0.10800003
226	0x3da734ca	0.081643656
227	0x3d50cca0	0.050976396
228	0xbe952990	-0.29133272
229	0x3b167919	0.0022960363
230	0xbe3ebfca	-0.18627849
231	0xbe3a96c1	-0.1822157
232	0xbdd27896	-0.10276906
233	0x3ddaa8af	0.10676705
234	0x3e1c4de6	0.15264091
235	0xbd4966f8	-0.049170464
236	0xbc938a0a	-0.018010158
237	0xbcbd4e53	-0.023108637
238	0xbdb99f05	-0.09063534
239	0xbd65e803	-0.056129467
240	0x3e86fffe	0.26367182
241	0x3da3185c	0.079636306
242	0x3ead1fc8	0.3381331
243	0x3ed73b01	0.42037204
244	0xbe968457	-0.29397842
245	0xbe2dcbb2	-0.16972235
246	0x3de4e803	0.11177065
247	0x3ec2731e	0.37978452
248	0xbf052efc	-0.5202482
249	0x3f3c7bd2	0.73626435
250	0x3e2891a1	0.16461803
251	0x3ea2e16c	0.31812608
252	0x3ed7063f	0.41996953
253	0x3ecca314	0.3996817
254	0xbee322e5	-0.4436256
255	0xbed59b46	-0.41720027

encoder_variable_selection.flattened_grn.fc1.bias f4 [7]
0	0xbe601c27	-0.2188574
1	0xbdbfebe6	-0.09371166
2	0xbcb39601	-0.021922113
3	0x3d071e5c	0.032987937
4	0xbd2baec6	-0.041914724
5	0xbe2f731b	-0.17133753
6	0xbe238430	-0.15968394

encoder_variable_selection.flattened_grn.context.weight f4 [7, 16]
0	0x3f0b39c3	0.5438501
1	0x3f1fb25e	0.6238154
2	0xbea48285	-0.32130828
3	0xbecd6f9a	-0.40124208
4	0x3ee1c917	0.44098732
5	0xbed6efaa	-0.41979724
6	0xbd17b3c8	-0.037036687
7	0x3d265cb3	0.04061575
8	0x3dbcae43	0.09212925
9	0xbe92c880	-0.28668594
10	0xbebd1626	-0.3693096
11	0x3d355a46	0.044275545
12	0x3e9fd984	0.3122064
13	0xbf2c3e70	-0.6728277
14	0x3eed348b	0.4632915
15	0x3f167823	0.58777064
16	0xbf3a412b	-0.7275569
17	0xbe7795f7	-0.24178301
18	0xbe2cf850	-0.16891599
19	0x3f47726a	0.77908957
20	0xbf55fbe7	-0.835875
21	0xbea9ba08	-0.33149743
22	0xbe3d2a17	-0.18473087
23	0xbe47f451	-0.19526793
24	0x3f12e171	0.57375246
25	0x3d880fd7	0.06643646
26	0x3e1d820a	0.15381637
27	0xbe4668b3	-0.19375877
28	0xbea8b825	-0.3295299
29	0xbdfd65ea	-0.12372954
30	0x3dcb52a0	0.09927869
31	0xbcfdaf8b	-0.030967494
32	0xbe981f33	-0.29711303
33	0x3da32a7f	0.0796709
34	0xbe9e9b76	-0.30977982
35	0xbefe4b07	-0.49666616
36	0x3d7b0ea4	0.06129326
37	0xbebe55f0	-0.3717494
38	0xbed60375	-0.41799513
39	0xbc7edb55	-0.0155552225
40	0xbe91a37a	-0.28445035
41	0xbd61c94e	-0.05512362
42	0xbeacf1eb	-0.3377832
43	0xbed7988f	-0.4210858
44	0xbdf78d0c	-0.120874494
45	0xbedfc93d	-0.4370822
46	0x3db025dd	0.08600972
47	0xbf139541	-0.5764962
48	0xbe8170af	-0.25281283
49	0xbe0e700c	-0.1390993
50	0xbe82a4cd	-0.25516358
51	0x3d8d7d18	0.06908625
52	0xbe42e910	-0.19034219
53	0xbcc283db	-0.023744514
54	0xbd17302e	-0.036911182
55	0xbdd769b9	-0.10518212
56	0x3e8870a2	0.26648432
57	0xbeb7218e	-0.35767788
58	0x3e0f5a1c	0.13999218
59	0x3e944579	0.28959253
60	0xbdb98277	-0.09058087
61	0xbd7f89b2	-0.062387176
62	0xbe50dd2b	-0.20396869
63	0xbeb84995	-0.3599364
64	0x3e3ed15d	0.18634553
65	0x3da9de16	0.08294313
66	0xbe2decb4	-0.16984826
67	0x3de0b9ef	0.10972964
68	0xbd02f2ad	-0.031969715
69	0xbd2cbd39	-0.042172644
70	0x3dad3f7b	0.084593736
71	0x3cd75c04	0.026288994
72	0xbed736a1	-0.42033866
73	0xbec065a6	-0.37577552
74	0xbe8cc05f	-0.27490517
75	0x3e9fba5d	0.3119687
76	0xbd8605b1	-0.06544054
77	0x3d9745fa	0.07386394
78	0xbdefd62b	-0.11710771
79	0x3c2526fa	0.0100800935
80	0x3eb9a7ac	0.36260736
81	0x3ee37754	0.44426978
82	0xbce666c6	-0.028125178
83	0x3d577260	0.05259931
84	0xbe7d960e	-0.24764273
85	0xbe914ac9	-0.2837737
86	0x3e5661e2	0.20935777
87	0x3eb4af94	0.35290205
88	0xbed72f9f	-0.4202852
89	0x3d0750c2	0.033036
90	0xbe221209	-0.15827192
91	0x3f2ab920	0.6668873
92	0x3ddcf65e	0.10789178
93	0x3e9c1da9	0.3049138
94	0x3cb27ade	0.021787103
95	0xbe9d1194	-0.30677474
96	0xbec4d95c	-0.38447082
97	0x3ea3dae2	0.32002932
98	0xbe8aa86f	-0.2708163
99	0x3ea373be	0.31924242
100	0xbdd55a57	-0.104176216
101	0x3e70ea3e	0.23526856
102	0xbe127f19	-0.14306296
103	0xbd214084	-0.039368168
104	0x3eb6b17f	0.35682294
105	0xbe23746c	-0.1596238
106	0x3ea84789	0.32867077
107	0x3e166b85	0.14689453
108	0x3bdfbe64	0.0068281163
109	0xbdb556b3	-0.08854427
110	0x3e04742e	0.12934944
111	0xbd3a23fd	-0.045444477

encoder_variable_selection.flattened_grn.fc2.weight f4 [7, 7]
0	0xbe84872b	-0.25884375
1	0x3f224531	0.6338683
2	0x3f0f0cb5	0.55878764
3	0x3e3d6273	0.18494587
4	0x3f796393	0.97417563
5	0xbefdd290	-0.4957471
6	0xbf95b800	-1.1696777
7	0x3dc774a5	0.09739045
8	0xbe7716ce	-0.24129793
9	0xbc110efe	-0.008853672
10	0xbe044970	-0.12918639
11	0xbfa331be	-1.2749555
12	0x3f5e8c0a	0.8693243
13	0x3e201837	0.15634237
14	0x3f1b54a1	0.6067601
15	0xbe9b421f	-0.30323884
16	0x3ecf1a51	0.40449765
17	0x3c006e47	0.007838792
18	0xbe95179b	-0.29119572
19	0x3e7d2005	0.24719246
20	0x3f0071dc	0.50173736
21	0xbc1514b5	-0.009099175
22	0xbe2c963e	-0.16854188
23	0xbf0f0b1a	-0.55876315
24	0x3e4394de	0.19099757
25	0xbece7188	-0.40320992
26	0x3ea1664a	0.31523353
27	0x3d042567	0.032262232
28	0x3e8b5df1	0.2722011
29	0xbf0300a5	-0.5117286
30	0xbeba173f	-0.3634586
31	0x3e6d9002	0.23199466
32	0xbf664082	-0.8994218
33	0x3f2712fb	0.65263337
34	0x3fa6a772	1.301985
35	0xbf7a40d2	-0.9775516
36	0x3ea6fe7b	0.32616028
37	0xbe9445de	-0.28959554
38	0xbe89b3e1	-0.2689505
39	0xbb1348d4	-0.002247383
40	0x3f22276d	0.6334141
41	0x3e907a2e	0.28218216
42	0x3e176815	0.14785798
43	0x3eb679eb	0.3563989
44	0x3da453a1	0.080237634
45	0x3f0fd360	0.5618191
46	0xbe0f610c	-0.14001864
47	0xbe8998fc	-0.2687453
48	0x3e0c93cc	0.13728255

encoder_variable_selection.flattened_grn.fc2.bias f4 [7]
0	0x3ec1fe01	0.37889102
1	0xbe8a6838	-0.27032638
2	0xbc736cf9	-0.014857524
3	0xbe5fdbce	-0.21861193
4	0xbeaaf9f3	-0.3339382
5	0xbea98c19	-0.331147
6	0x3e249204	0.16071326

encoder_variable_selection.flattened_grn.gate_norm.glu.fc.weight f4 [14, 7]
0	0x3e096002	0.1341553
1	0xbd653d69	-0.05596677
2	0x3e2d5a75	0.16929038
3	0x3e4b98e3	0.1988254
4	0x3df63e4a	0.120235994
5	0xbf05f7a4	-0.52330995
6	0x3ecf708b	0.4051555
7	0xbe4671c9	-0.19379343
8	0xbdff76cf	-0.12473833
9	0xbebd73d1	-0.37002423
10	0xbef6a35f	-0.48171517
11	0xbe785448	-0.24250901
12	0xbe08bdbd	-0.1335363
13	0xbd591d78	-0.05300662
14	0x3de58218	0.11206454
15	0xbe0698e2	-0.13144258
16	0x3ce424ec	0.027849637
17	0xbdb3fcf7	-0.087884836
18	0x3dc8b704	0.098005325
19	0xbde98548	-0.114023745
20	0x3f2949fa	0.66128504
21	0xbf5e7cfb	-0.86909455
22	0x3f52b2e0	0.8230419
23	0x3f2a18f5	0.6644433
24	0x3f014469	0.5049501
25	0x3f446b59	0.767263
26	0x3db9cee6	0.09072666
27	0x3c871d92	0.016493592
28	0x3c9f976c	0.019481383
29	0xbd0d9542	-0.03456617
30	0x3e05ee7d	0.13079257
31	0x3ecac19e	0.39600843
32	0x3e61be2a	0.22045198
33	0xbef20a7b	-0.4727362
34	0x3ebf08e3	0.37311468
35	0xbeb1f12c	-0.34754312
36	0x3d5b9605	0.053609867
37	0x3ea2c9e3	0.31794652
38	0x3eab05e3	0.3340293
39	0x3effc555	0.4995524
40	0x3e73d6f7	0.23812471
41	0xbf7a3eeb	-0.97752255
42	0x3ee9830e	0.456078
43	0xbedfc3e1	-0.4370413
44	0xbdef51ed	-0.11685548
45	0xbe2c556a	-0.16829458
46	0xbe6e74b0	-0.232867
47	0xbefcf332	-0.49404293
48	0x3ed685d6	0.41898984
49	0x3ebaa881	0.36456683
50	0xbed201b3	-0.4101692
51	0x3e19282c	0.1495673
52	0xbdfbc2e3	-0.12293031
53	0x3d1f74ca	0.038929738
54	0xbe833ca0	-0.2563219
55	0xbc930e44	-0.017951138
56	0xbe86cd86	-0.26328677
57	0xbd704fd5	-0.058669884
58	0x3eea5af8	0.4577253
59	0xbe2fe567	-0.17177354
60	0x3f320dfd	0.69552594
61	0x3e212142	0.15735343
62	0x3e9ee593	0.31034526
63	0x3e3947f5	0.18093856
64	0x3ea1396e	0.31489128
65	0xbed60b0c	-0.41805303
66	0x3dca9c19	0.098930545
67	0x3ecb94b8	0.397619
68	0x3e34b29b	0.17646258
69	0xbf54541a	-0.8294083
70	0x3f096a28	0.53677607
71	0xbefb1d06	-0.4904558
72	0xbe84f7f6	-0.2597043
73	0xbc2327d2	-0.009958224
74	0xbe5a5a9f	-0.21323632
75	0xbf2d2907	-0.6764073
76	0xbd2204b9	-0.039555285
77	0x3f84527b	1.0337671
78	0xbf20e558	-0.6284995
79	0xbe972d14	-0.2952658
80	0xbe45f8bd	-0.19333167
81	0x3ca6880f	0.02032855
82	0xbd6e858c	-0.05823283
83	0x3d5431fb	0.051805478
84	0x3f1910f8	0.5979152
85	0xba4e09af	-0.00078597193
86	0xbf2a7981	-0.6659165
87	0xbe4907a6	-0.19631824
88	0xbda5a825	-0.08088712
89	0x3d848a39	0.064716764
90	0x3f1da684	0.6158221
91	0x3e3ebb32	0.18626097
92	0xbe876f8c	-0.2645229
93	0xbe94c163	-0.29053792
94	0x3da9dcaf	0.08294045
95	0xbeaf9c6d	-0.3429903
96	0xbf083f63	-0.5322172
97	0x3e5e17b3	0.21688728

encoder_variable_selection.flattened_grn.gate_norm.glu.fc.bias f4 [14]
0	0x3e1aeddc	0.15129799
1	0xbebade3f	-0.36497685
2	0xbdbc6505	-0.091989554
3	0xbf3d6c37	-0.7399325
4	0x3d936a4c	0.07198009
5	0xbe6e98ed	-0.23300524
6	0x3f0d6605	0.55233794
7	0xbd7e6b26	-0.062113903
8	0xbf083284	-0.5320208
9	0xbf03e3a2	-0.51519215
10	0x3e1e9037	0.15484701
11	0xbd456d2e	-0.048199825
12	0x3d1e89ca	0.038705625
13	0x3fb0987b	1.3796533

encoder_variable_selection.flattened_grn.gate_norm.add_norm.norm.weight f4 [7]
0	0x3f0f2875	0.5592111
1	0x3e73ab4c	0.23795813
2	0x3f8826c0	1.0636826
3	0x3f5ea67e	0.86972797
4	0x3f29ebd2	0.6637546
5	0x3fb307d1	1.398676
6	0x3f5120f2	0.81690896

encoder_variable_selection.flattened_grn.gate_norm.add_norm.norm.bias f4 [7]
0	0x3e157566	0.14595565
1	0x3d4ee225	0.050508637
2	0xbdb4e330	-0.08832395
3	0xbe34d580	-0.17659569
4	0xbd357f6b	-0.04431097
5	0xbe546df5	-0.2074507
6	0x3d88b41d	0.06674979

encoder_variable_selection.single_variable_grns.SinWeekly.resample_norm.mask f4 [16]
0	0x3ecfab45	0.40560356
1	0x3e7e5b7d	0.24839588
2	0xbea098ca	-0.3136657
3	0xbf3e0533	-0.74226683
4	0xbe93f3d8	-0.28896976
5	0x3e0a2b25	0.13493021
6	0xbf4c0285	-0.79691344
7	0x3dd21bb3	0.102591895
8	0x3cf129e3	0.029438918
9	0xbd3ee153	-0.046601605
10	0xbf15af58	-0.5847068
11	0xbe865690	-0.26237917
12	0x3e3fa55a	0.1871542
13	0x3c943e50	0.01809612
14	0x3f5fb0ed	0.8737934
15	0x3f0928ba	0.5357777

encoder_variable_selection.single_variable_grns.SinWeekly.resample_norm.norm.weight f4 [16]
0	0x3fc17888	1.5114908
1	0x3fdd5606	1.7291877
2	0x3f594584	0.848717
3	0x3f07dfa5	0.5307563
4	0x3f49ba56	0.7879995
5	0x3f5deb59	0.8668724
6	0x3e8340e4	0.25635445
7	0x3f9700c9	1.1797115
8	0x3f9abeaa	1.2089436
9	0x3f913523	1.1344341
10	0x3ed5444d	0.41653672
11	0xbd3518c3	-0.044213068
12	0x3f835988	1.0261698
13	0x3f8d5a0a	1.1043103
14	0x3fddca18	1.7327299
15	0x3f8836e0	1.0641747

encoder_variable_selection.single_variable_grns.SinWeekly.resample_norm.norm.bias f4 [16]
0	0x3e6a8430	0.22901988
1	0xbe8aa12d	-0.27076092
2	0x3e1d2a58	0.15348184
3	0x3dfafef3	0.12255659
4	0x3e0219b7	0.12705122
5	0x3d64d922	0.055871136
6	0xbee742f3	-0.45168266
7	0xbcd8506c	-0.026405536
8	0x3d2e99f2	0.042627282
9	0xbdd467e6	-0.103713796
10	0xbd51063a	-0.05103133
11	0x3e260831	0.16214062
12	0x3deda567	0.116038136
13	0xbd9d9b62	-0.076956525
14	0xbdc29aa7	-0.09502154
15	0x3e4cbc05	0.19993599

encoder_variable_selection.single_variable_grns.SinWeekly.fc1.weight f4 [8, 8]
0	0x3ef8f078	0.48620963
1	0x3e85ec5e	0.26156896
2	0xbcd55f0b	-0.026046297
3	0xbd8177f2	-0.06321706
4	0xbe91a5e1	-0.28446868
5	0x3ec1ea97	0.3787429
6	0xbef61362	-0.48061663
7	0xbce4530c	-0.027871631
8	0x3d918d66	0.07107048
9	0xbeddf48c	-0.43350637
10	0x3f74fadb	0.95695275
11	0x3ecda82d	0.4016737
12	0x3dd8fdd3	0.10595288
13	0xbe7932cf	-0.24335788
14	0x3e6776aa	0.2260386
15	0xbe821263	-0.25404653
16	0xbe80f678	-0.2518804
17	0xbe30a8d5	-0.17251904
18	0x3fb4dc47	1.4129723
19	0xbf101210	-0.5627756
20	0x3f0db7f0	0.5535879
21	0xbf4039ae	-0.7508801
22	0xbe9149b0	-0.28376532
23	0xbf82bdaa	-1.0214131
24	0x3e95a64e	0.29228443
25	0x3eda83a1	0.4267855
26	0xbe807867	-0.2509186
27	0x3e0dab43	0.13834862
28	0xbe5919b5	-0.21201213
29	0xbebd7459	-0.3700283
30	0xbf157ab1	-0.5839034
31	0xbf8b492a	-1.0881703
32	0x3fcaec9b	1.5853456
33	0xbeadb94b	-0.3393043
34	0xbea71658	-0.32634234
35	0xbddfaceb	-0.10921653
36	0xbf2fd829	-0.6868921
37	0xbdba7348	-0.091040194
38	0xbf68baf8	-0.9091029
39	0x3f0fc43d	0.5615881
40	0xbeeae28e	-0.45875973
41	0x3efb28d7	0.49054596
42	0x3fc9408d	1.5722824
43	0x3dbf5471	0.09342278
44	0x3ee5debc	0.44896495
45	0xc00bcadf	-2.1842573
46	0x3e89dab4	0.2692467
47	0xbec5781f	-0.38568208
48	0xbecfe187	-0.4060175
49	0x3f8c5e48	1.0966272
50	0x3d4e60d5	0.050385315
51	0x3f0618b5	0.5238145
52	0xbed1d5ec	-0.40983522
53	0xbe5564ca	-0.20839229
54	0x3db43b13	0.0880033
55	0xbf3c62d9	-0.7358833
56	0xbe23de54	-0.1600278
57	0xbeb6b486	-0.35684603
58	0x3e437dd1	0.19090964
59	0xc030ff94	-2.7655993
60	0xbe5d9b22	-0.2164121
61	0x3d5a293c	0.05326198
62	0x3ffc03c8	1.9688654
63	0x3f7525e9	0.9576097

encoder_variable_selection.single_variable_grns.SinWeekly.fc1.bias f4 [8]
0	0xbe2eed02	-0.17082599
1	0x3ddc4381	0.10755063
2	0xbdde0284	-0.108403236
3	0x3d176eb2	0.0369708
4	0x3d86905c	0.06570503
5	0xbe2c157f	-0.16805075
6	0xbc7e5c9e	-0.015525011
7	0xbe88a208	-0.2668612
