TFT-pytorch/results/TFT_split_2/checkpoints/latest-epoch=3.ckpt (torch, 847333 bytes, 815 tensors)

prescalers.AgeDist.weight f4 [8, 1]
0	0x3ec240e5	0.37940136
1	0xbed641aa	-0.41846973
2	0x3f1893ec	0.5960071
3	0xbc2261f5	-0.00991105
4	0xbf3cdb7f	-0.73772424
5	0xbed1251e	-0.4084863
6	0xbf25673f	-0.64610666
7	0xbcb4c49c	-0.022066407

prescalers.AgeDist.bias f4 [8]
0	0xbe551e65	-0.20812376
1	0x3e75b872	0.23996142
2	0x3f3fe9f3	0.74966353
3	0x3e0e3006	0.13885507
4	0xbf289ff5	-0.65869075
5	0xbef1459c	-0.4712342
6	0xbea58502	-0.3232804
7	0xbf0ec824	-0.5577414

prescalers.HealthDisp.weight f4 [8, 1]
0	0x3e656296	0.22400889
1	0xbf7a70e2	-0.97828496
2	0x3f4ab608	0.7918401
3	0xbf85e12e	-1.0459344
4	0x3f53a044	0.8266642
5	0xbea44433	-0.32083282
6	0x3f45e2aa	0.77298987
7	0x3f01dac1	0.50724417

prescalers.HealthDisp.bias f4 [8]
0	0xbdea3c5b	-0.11437293
1	0x3ed3be88	0.413563
2	0x3f1b4d09	0.6066442
3	0x3f15d027	0.5852074
4	0x3e630b17	0.22172199
5	0xbf246bda	-0.6422707
6	0x3f2e1578	0.6800151
7	0x3df638fd	0.120225884

prescalers.SinWeekly.weight f4 [8, 1]
0	0x3e8715d6	0.26383847
1	0x3f3600ed	0.7109516
2	0x3e716716	0.2357448
3	0x3faf11d2	1.3677313
4	0xbf081f0f	-0.5317239
5	0xbf11f2d8	-0.57011175
6	0xbef0a91d	-0.47004023
7	0xbf88d865	-1.0691038

prescalers.SinWeekly.bias f4 [8]
0	0x3eb9b3ae	0.36269897
1	0xbe4275cd	-0.1899025
2	0xbdfdfadd	-0.12401364
3	0x3f562a4c	0.8365829
4	0x3f303fee	0.6884755
5	0x3e1556bf	0.14583872
6	0xbedbc51e	-0.42923826
7	0xbd1a4275	-0.037661035

prescalers.CosWeekly.weight f4 [8, 1]
0	0x3ed64977	0.41852924
1	0xbf6eb8f4	-0.93250966
2	0xbf81d3f4	-1.0142808
3	0x3f8db749	1.1071559
4	0x3faf2e7f	1.3686064
5	0x3d27f595	0.04100569
6	0xbf811e3b	-1.0087351
7	0xbf188c12	-0.5958873

prescalers.CosWeekly.bias f4 [8]
0	0x3e20bf4b	0.15697972
1	0xbf05ee8d	-0.52317125
2	0x3e557e09	0.2084886
3	0x3f0ed9c8	0.5580106
4	0xbcbf4a0b	-0.023350736
5	0xbce54ae4	-0.027989812
6	0x3ec06701	0.37578586
7	0xbee2559f	-0.4420595

prescalers.DiseaseSpread.weight f4 [8, 1]
0	0xbf745e7c	-0.9545667
1	0x3e7b0996	0.24515375
2	0xbfa77262	-1.3081782
3	0xbf307e54	-0.6894276
4	0x3f24a62d	0.64316064
5	0x3f87f50a	1.0621655
6	0x3ede1f6f	0.43383357
7	0xbf582c89	-0.84442955

prescalers.DiseaseSpread.bias f4 [8]
0	0x3f241ecb	0.64109486
1	0xbe97fcb2	-0.2968498
2	0x3da4151d	0.080118395
3	0x3f46e438	0.77691984
4	0xbe484bc9	-0.1956016
5	0xbe026e39	-0.12737359
6	0x3e476835	0.19473346
7	0xbeb04509	-0.3442767

prescalers.Transmission.weight f4 [8, 1]
0	0x3fab6cbd	1.3392559
1	0xbfa2f339	-1.2730476
2	0x3d453c4f	0.048153218
3	0xbe6ddb1a	-0.23228112
4	0xbe496d4a	-0.19670597
5	0xbf210062	-0.6289121
6	0x3f6939a8	0.911036
7	0x3f40f528	0.7537408

prescalers.Transmission.bias f4 [8]
0	0xbdab8d75	-0.0837659
1	0x3f540205	0.8281558
2	0xbeec0efd	-0.46105185
3	0xbf5504a9	-0.83210236
4	0x3ea4e3bb	0.32204995
5	0x3d51b541	0.051198248
6	0xbf865a9b	-1.04964
7	0xbf36865d	-0.7129877

prescalers.VaccinationFull.weight f4 [8, 1]
0	0xbf005407	-0.50128216
1	0x3f529a73	0.8226692
2	0xbd274490	-0.04083687
3	0x3f6c9cf3	0.92426986
4	0xbe2d343c	-0.16914457
5	0xbf546955	-0.82973224
6	0xbf4cfdb0	-0.80074596
7	0xbe447b0c	-0.19187564

prescalers.VaccinationFull.bias f4 [8]
0	0x3ec45487	0.3834574
1	0xbf8858cf	-1.0652102
2	0x3f287f2a	0.65819037
3	0xbef34002	-0.47509772
4	0xbe59eab4	-0.21280938
5	0x3f2e19e1	0.6800824
6	0xbe0e7365	-0.13911207
7	0x3ea4b801	0.32171634

prescalers.SocialDist.weight f4 [8, 1]
0	0xbc84b055	-0.016197363
1	0x3eabd119	0.33557966
2	0xbed7c1ce	-0.4214005
3	0x3e6435fc	0.22286218
4	0xbf0aa1c9	-0.54153115
5	0xbe80c8d1	-0.2515321
6	0xbf5cb03a	-0.862064
7	0x3eab492d	0.33454266

prescalers.SocialDist.bias f4 [8]
0	0x3c4b0a11	0.012392537
1	0xbed9eb10	-0.4256215
2	0x3f03c5ae	0.5147351
3	0xbe90e17c	-0.2829703
4	0x3efcbb5c	0.49361694
5	0xbe58ac75	-0.21159537
6	0xbfa2e192	-1.2725089
7	0xbec31606	-0.3810274

prescalers.Cases.weight f4 [8, 1]
0	0x3ebcdc00	0.36886597
1	0x3f6a7460	0.91583824
2	0xbf4a2641	-0.7896462
3	0xbee8d332	-0.4547363
4	0xbf8082a8	-1.0039873
5	0x3f19e9a3	0.60122126
6	0x3f4d04d7	0.8008551
7	0x3ea69650	0.32536554

prescalers.Cases.bias f4 [8]
0	0xbed4cc01	-0.41561893
1	0x3f2faacc	0.6861999
2	0x3f44afce	0.76830757
3	0xbe8e28bf	-0.27765462
4	0xbeb8f4ff	-0.36124417
5	0x3eb3e776	0.35137528
6	0x3e2d0833	0.16897659
7	0xbdb92a02	-0.090412155

static_variable_selection.flattened_grn.resample_norm.mask f4 [2]
0	0x3dac9b0e	0.08428012
1	0xbdb19cd0	-0.08672488

static_variable_selection.flattened_grn.resample_norm.norm.weight f4 [2]
0	0x3f9a7df8	1.2069693
1	0x3f9a73ae	1.2066553

static_variable_selection.flattened_grn.resample_norm.norm.bias f4 [2]
0	0xbda5b696	-0.08091466
1	0x3da59d17	0.08086603

static_variable_selection.flattened_grn.fc1.weight f4 [2, 16]
0	0x3f137eff	0.57615656
1	0x3e827002	0.2547608
2	0xbf298eec	-0.66233706
3	0xbf4eb3dd	-0.807432
4	0x3d8e1b1f	0.06938767
5	0x3c7c0a03	0.015383246
6	0xbe6a3905	-0.22873314
7	0x3fe053c9	1.7525569
8	0x3e65e092	0.22448948
9	0xbe8b368d	-0.27190056
10	0x3c810f3b	0.015754333
11	0xbe14c864	-0.14529568
12	0xbe9e6a0e	-0.30940288
13	0x3f3cd3cf	0.73760694
14	0xbf39db88	-0.72600603
15	0x3f007c35	0.50189525
16	0xbf06ce80	-0.52658844
17	0x3f3544fb	0.7080838
18	0xbf0b069c	-0.5430696
19	0xbd4563b9	-0.048190806
20	0x3e6eec6d	0.23332377
21	0x3ee7fe04	0.45310986
22	0x3dd02c6c	0.10164723
23	0xbec7843a	-0.38968068
24	0xbe99cd25	-0.30039325
25	0xbf22390b	-0.6336829
26	0x3c936687	0.017993225
27	0xbda72ca1	-0.08162809
28	0xbc17bac2	-0.009260835
29	0x3d6409e5	0.0556735
30	0xbec3184d	-0.38104478
31	0x3d4973b2	0.0491826

static_variable_selection.flattened_grn.fc1.bias f4 [2]
0	0xbef2f2cc	-0.47450864
1	0xbdc4e276	-0.096135065

static_variable_selection.flattened_grn.fc2.weight f4 [2, 2]
0	0xbf8a7301	-1.0816346
1	0xbf98f046	-1.1948326
2	0xbfd68264	-1.6758542
3	0xbea41ac4	-0.3205167

static_variable_selection.flattened_grn.fc2.bias f4 [2]
0	0x3e1d9310	0.15388131
1	0x3e82cda7	0.25547525

static_variable_selection.flattened_grn.gate_norm.glu.fc.weight f4 [4, 2]
0	0x3f2e9086	0.68189275
1	0xbedcd32d	-0.43129864
2	0x3efe752d	0.49698773
3	0xbdf82131	-0.12115706
4	0xbe9bb89f	-0.30414292
5	0xbf1553cc	-0.5833099
6	0xbf5ed2ec	-0.8704059
7	0xbf431fd9	-0.7622047

static_variable_selection.flattened_grn.gate_norm.glu.fc.bias f4 [4]
0	0x3ad7d9f9	0.0016468159
1	0xbdf8ff5d	-0.12158082
2	0x3db3baaa	0.08775838
3	0xbede324e	-0.43397754

static_variable_selection.flattened_grn.gate_norm.add_norm.norm.weight f4 [2]
0	0x3f425f43	0.7592661
1	0x3f425f41	0.75926596

static_variable_selection.flattened_grn.gate_norm.add_norm.norm.bias f4 [2]
0	0x3db787f3	0.08961477
1	0xbdb787ff	-0.08961486

static_variable_selection.single_variable_grns.AgeDist.resample_norm.mask f4 [16]
0	0xbdbafcb6	-0.09130232
1	0xbe2a3c07	-0.16624461
2	0xbd8f929e	-0.07010387
3	0xbe206bb6	-0.15666088
4	0x3cfdd456	0.030985039
5	0xbf2f931e	-0.6858386
6	0x3e474c73	0.19462757
7	0x3d472883	0.04862262
8	0x3edab2da	0.42714578
9	0x3f1c147e	0.6096877
10	0xbf213f3c	-0.62987113
11	0xbef69e3d	-0.481676
12	0x3edba6dd	0.42900744
13	0xbdc1736a	-0.094458416
14	0x3e693d65	0.22777326
15	0x3f151653	0.5823719

static_variable_selection.single_variable_grns.AgeDist.resample_norm.norm.weight f4 [16]
0	0x3f986281	1.1905061
1	0x3fbabbd9	1.4588577
2	0x3f92ae9b	1.1459535
3	0x3f96d9d8	1.1785231
4	0x3f9100a5	1.1328322
5	0x3e980d16	0.29697484
6	0x3f814ded	1.0101906
7	0x3f29965f	0.66245073
8	0x3fb2b9b0	1.3962917
9	0x3fd5a3a5	1.6690565
10	0x3f13185e	0.57459056
11	0x3f3e21c8	0.74270296
12	0x3fa4ffce	1.2890565
13	0x3f594176	0.8486551
14	0x3fa37d87	1.2772683
15	0x3fc5093f	1.5393447

static_variable_selection.single_variable_grns.AgeDist.resample_norm.norm.bias f4 [16]
0	0xbcb8d930	-0.0225645
1	0x3ea06368	0.3132584
2	0x3df38f7f	0.11892604
3	0x3dac989d	0.08427546
4	0x3d7691f5	0.06019779
5	0xbe572d20	-0.21013308
6	0x3f05cd0a	0.5226599
7	0x3ea7bae4	0.32759774
8	0xbe8684c3	-0.26273164
9	0xbe233eaa	-0.15941873
10	0x3e1fb7e2	0.1559749
11	0x3e35786e	0.17721722
12	0xbd53be25	-0.051695008
13	0xbd68d1bb	-0.05684064
14	0xbe86aae8	-0.26302266
15	0xbf18ef2f	-0.59739965

static_variable_selection.single_variable_grns.AgeDist.fc1.weight f4 [8, 8]
0	0xbf3feb1d	-0.7496813
1	0xbe8a9456	-0.27066296
2	0xbf689dc2	-0.9086572
3	0x3dea5c36	0.11443369
4	0x3e14bf20	0.14526033
5	0x3e68dda8	0.22740805
6	0x3ebb29a0	0.36555195
7	0x3f105cda	0.5639168
8	0x3eb23d42	0.3481236
9	0x3f397f67	0.72460026
10	0x3eb544aa	0.3540395
11	0x3d4858b2	0.04891271
12	0xbf232ceb	-0.63740414
13	0xbf11492a	-0.56752264
14	0xbfb45e6b	-1.4091314
15	0x3e021aaf	0.12705491
16	0x3f388738	0.7208133
17	0x3fd44e77	1.6586446
18	0xbf4f5f14	-0.8100445
19	0x3e9612c5	0.29311195
20	0x3fb643c3	1.4239429
21	0x3fa7947d	1.309219
22	0xbea17557	-0.31534836
23	0xbdace36b	-0.08441814
24	0x3ee1a449	0.44070652
25	0xbf4681f7	-0.7754206
26	0x3eb82597	0.3596618
27	0x3ecde34d	0.4021248
28	0x3d75e19f	0.060029622
29	0x3ea4932a	0.32143527
30	0xbeee7763	-0.4657546
31	0xbdd89ed3	-0.10577168
32	0x3f1c8d37	0.61152977
33	0x3e2b8e53	0.16753511
34	0xbdc3fcfe	-0.09569739
35	0xbe24a554	-0.16078693
36	0xbce2b588	-0.027674451
37	0x3e9ea273	0.30983314
38	0x3f9aa323	1.2081035
39	0xbf6e5760	-0.93102074
40	0x3dd070f3	0.10177793
41	0xbcb34e24	-0.021887846
42	0x3f3c3153	0.7351276
43	0x3f6b55c2	0.9192773
44	0xbf684d67	-0.90743107
45	0xbf05b3b0	-0.52227306
46	0xbf1e19a3	-0.6175787
47	0xbdece0c9	-0.11566312
48	0xbef45817	-0.47723457
49	0x3e5b0554	0.21388751
50	0xbf816466	-1.0108764
51	0x3e6c41ef	0.23072027
52	0x3edb3643	0.42814836
53	0x3f049243	0.5178568
54	0xbdb450a9	-0.08804447
55	0xbca0371f	-0.019557534
56	0xbea615b4	-0.32438433
57	0xbe081393	-0.13288717
58	0xbf381cac	-0.7191875
59	0x3d3c293b	0.045937758
60	0x3fbf1d81	1.4930879
61	0x3dd8e04f	0.105896585
62	0x3eaf6c0b	0.34262118
63	0x3e73983f	0.23788546

static_variable_selection.single_variable_grns.AgeDist.fc1.bias f4 [8]
0	0xbdb390e4	-0.0876787
1	0x3dbcff8c	0.09228429
2	0xbea08715	-0.3135306
3	0x3d28bdc3	0.041196596
4	0xbeedbff4	-0.4643551
5	0x3e71ecd7	0.23625503
6	0xbed73b75	-0.4203755
7	0xbe88ce38	-0.26719832

static_variable_selection.single_variable_grns.AgeDist.fc2.weight f4 [8, 8]
0	0x3f2a8771	0.6661292
1	0x3f43c5ef	0.764739
2	0x3f48247e	0.7818068
3	0xbf5c0e1f	-0.8595905
4	0x3ec3ba6c	0.38228166
5	0xbf0462c2	-0.5171319
6	0xbeb05c46	-0.344454
7	0xbf890f90	-1.0707874
8	0x3f01277b	0.5045087
9	0xbe096b0b	-0.1341974
10	0xbd7c5aec	-0.061610147
11	0xbf527808	-0.82214403
12	0x3edc6c35	0.43051305
13	0x3de99fc7	0.11407428
14	0x3eb5e897	0.35529014
15	0xbfaf1ed9	-1.3681289
16	0x3f48a774	0.78380513
17	0xbefb4918	-0.49079204
18	0x3eac8760	0.33697033
19	0xbe92641b	-0.28592
20	0xbd8e7200	-0.069553375
21	0xbf1a8d42	-0.6037179
22	0x3cf21359	0.029550241
23	0x3f8109ae	1.0081079
24	0xbe813fe7	-0.25244066
25	0xbf606cef	-0.8766622
26	0x3f828a3a	1.0198433
27	0x3bb9f3ad	0.0056748004
28	0xbdd7d4c9	-0.105386324
29	0xbee13192	-0.43983132
30	0xbd3b7efa	-0.04577539
31	0x3f299fba	0.6625935
32	0xbef9b87a	-0.48773557
33	0xbe37d898	-0.17953718
34	0x3f5474a2	0.8299047
35	0x3f1178c9	0.5682493
36	0x3e4e2e1b	0.20134775
37	0x3eb13c62	0.3461638
38	0xbdc110f1	-0.094270594
39	0xbfa26c61	-1.2689325
40	0x3d1da3f4	0.038486436
41	0x3ed03213	0.40663204
42	0xbe1d163e	-0.15340516
43	0xbea7ab1c	-0.32747734
44	0xbeeb96e0	-0.46013546
45	0x3efbc8ac	0.49176538
46	0xbbb5a3b2	-0.0055431956
47	0xbf218b45	-0.63103133
48	0x3f171ff0	0.5903311
49	0x3e211722	0.1573148
50	0x3f3ad44c	0.7298019
51	0x3f0a2845	0.53967696
52	0x3db2a5f5	0.0872306
53	0x3d96cfcb	0.07363852
54	0x3f84e275	1.0381609
55	0x3f041de2	0.516081
56	0xbdf2c244	-0.118534595
57	0x3f1a0997	0.6017088
58	0xbf342c20	-0.7037983
59	0x3e6152d4	0.22004253
60	0xbf210bf4	-0.62908864
61	0x3f9dff3a	1.2343514
62	0xbf3a9371	-0.7288123
63	0xbfa72116	-1.3056972

static_variable_selection.single_variable_grns.AgeDist.fc2.bias f4 [8]
0	0x3dd8a769	0.10578806
1	0x3ec186ce	0.3779816
2	0xbe26c715	-0.16286881
3	0xbd329872	-0.043602414
4	0x3dd0216c	0.10162625
5	0x3dda69ed	0.10664735
6	0xbe92d10a	-0.2867511
7	0x3e698dc4	0.22807986

static_variable_selection.single_variable_grns.AgeDist.gate_norm.glu.fc.weight f4 [32, 8]
0	0xbebfc018	-0.37451243
1	0x3eb940fa	0.36182386
2	0xbe48c69c	-0.19607013
3	0xbeb31247	-0.34974882
4	0xbf475822	-0.77868855
5	0xbe7bfac1	-0.24607374
6	0x3be41305	0.006960275
7	0x3e546d26	0.20744762
8	0xbea64803	-0.32476816
9	0x3f01aa36	0.50650346
10	0xbee5ef6b	-0.44909224
11	0xbf870c43	-1.0550617
12	0xbe8923a5	-0.26785007
13	0x3f1b53cd	0.60674745
14	0xbf546a46	-0.8297466
15	0x3f61a516	0.88142526
16	0xbce836a2	-0.028346363
17	0x3d96e18f	0.07367241
18	0xbe932ba0	-0.2874422
19	0x3eab5802	0.33465582
20	0x3e9bda68	0.30440068
21	0xbd294b8e	-0.04133182
22	0x3f0e2e17	0.5553908
23	0xbe652c31	-0.22380139
24	0xbe1f7006	-0.15570077
25	0xbe60e1d1	-0.21961142
26	0xbedc41cc	-0.4301895
27	0xbe7933fa	-0.24336234
28	0x3d76c137	0.060242858
29	0x3df206b2	0.11817683
30	0xbe420495	-0.1894706
31	0x3f0e05f6	0.55477846
32	0xbee27244	-0.44227803
33	0xbeaa3b1b	-0.3324822
34	0xbdbf572d	-0.09342799
35	0xbf631c5e	-0.8871516
36	0x3e13b256	0.14423499
37	0x3f08dcf0	0.53462124
38	0x3dba4f34	0.09097138
39	0x3f12fc30	0.5741606
40	0x3db7048b	0.089364134
41	0x3d909e47	0.07061439
42	0x3f01fcac	0.5077617
43	0x3e982bce	0.2972092
44	0xbc27dd5b	-0.010245646
45	0x3e7296e1	0.23690368
46	0x3f15b44a	0.58478224
47	0xbf155735	-0.5833619
48	0xbd94612d	-0.07245097
49	0x3e82384e	0.25433582
50	0xbe449aed	-0.19199724
51	0x3e84e50b	0.25955996
52	0x3e8e769d	0.2782487
53	0xbe9af2f6	-0.3026349
54	0xbecd6c74	-0.40121806
55	0xbe0e4394	-0.13892967
56	0x3dcf0f79	0.10110373
57	0x3e5f05f2	0.21779612
58	0xbb35e581	-0.0027755203
59	0x3e9ab1a8	0.30213666
60	0x3e9b15cc	0.30290067
61	0x3d9cdf70	0.07659805
62	0xbed49d18	-0.41526103
63	0x3d0d2de3	0.03446759
64	0x3eba686e	0.364078
65	0xbe801c04	-0.25021374
66	0x3ed0bb67	0.40767977
67	0x3f0f02b1	0.5586348
68	0x3e704c92	0.2346671
69	0xbf260473	-0.6485054
70	0x3e06f6fc	0.13180155
71	0xbf6982a0	-0.9121494
72	0x3e24670e	0.16054937
73	0xbf5da348	-0.8657727
74	0xbca39ca5	-0.019972155
75	0x3edfb9c9	0.4369643
76	0xbdc7e004	-0.097595245
77	0xbcde0a90	-0.027104646
78	0x3e4536b4	0.19259149
79	0xbe7c025c	-0.24610275
80	0xbe009c98	-0.12559736
81	0x3ec28e93	0.379994
82	0xbec9aff5	-0.39392057
83	0xbe66d2e8	-0.22541392
84	0xbed19a99	-0.4093826
85	0xbe61ef36	-0.22063908
86	0x3d9eef97	0.07760542
87	0x3e3d38a0	0.18478632
88	0x3a2f4729	0.0006686324
89	0xbc17e41b	-0.009270693
90	0xbe3b5555	-0.1829427
91	0xbf09e592	-0.5386592
92	0xbe1604fb	-0.14650337
93	0x3dd57a00	0.1042366
94	0x3d428273	0.047487687
95	0x3e347cdc	0.17625755
96	0x3e4f8f72	0.20269564
97	0x3eb43feb	0.35205016
98	0x3e364464	0.17799526
99	0x3d328c7f	0.04359102
100	0xbef26fa1	-0.4735079
101	0xbea57721	-0.3231745
102	0x3e1a0c4a	0.1504375
103	0xbc88bb05	-0.01669074
104	0x3da6ffc4	0.08154252
105	0x3d8ae5b9	0.06782097
106	0x3ea93c81	0.33053973
107	0x3ebc8078	0.36816764
108	0xbea255d5	-0.3170611
109	0x3dd56969	0.10420496
110	0x3e3292c2	0.17438796
111	0xbef938bf	-0.48676106
112	0xbe79fbde	-0.24412486
113	0xbe68969e	-0.22713706
114	0x3eb7a572	0.35868412
115	0x3e821b0c	0.2541126
116	0xbef6b204	-0.4818269
117	0x3d26d55c	0.04073082
118	0x3f371026	0.71509016
119	0xbd7e95e0	-0.06215465
120	0xbe6a9307	-0.22907649
121	0xbe87e768	-0.26543736
122	0x3f2148d9	0.6300178
123	0x3f3629d2	0.7115756
124	0xbe979da2	-0.29612452
125	0xbefa900f	-0.48938033
126	0x3e9bbd99	0.3041809
127	0xbee38d73	-0.44443855
128	0x3e4fbb53	0.20286302
129	0xbc8c4966	-0.017124843
130	0x3e83bed6	0.25731534
131	0xbdfe3729	-0.12412865
132	0x3f1b94a9	0.6077371
133	0xbe98c369	-0.29836586
134	0xbe81eaff	-0.253746
135	0xbe68f24b	-0.22748677
136	0x3f0c240d	0.5474251
137	0x3f17ef5c	0.5934961
138	0x3d4aec97	0.049542036
139	0x3e6708dd	0.22561975
140	0x3f080a8c	0.53141093
141	0x3f138363	0.57622355
142	0xbd801ead	-0.06255851
143	0xbe185246	-0.14875135
144	0x3ea3e346	0.32009333
145	0x3d2748e6	0.040841006
146	0xbf158bcf	-0.58416456
147	0xbe650590	-0.22365403
148	0x3ed4f86e	0.41595787
149	0x3f059095	0.5217374
150	0xbec75b16	-0.3893668
151	0x3de2cb4b	0.11073931
152	0x3f0b45ed	0.54403573
153	0x3edf93db	0.43667492
154	0x3ea8e72a	0.32988864
155	0xbdaaae19	-0.08333988
156	0xbeab1222	-0.33412272
157	0xbe8c45e1	-0.27397063
158	0x3e52709f	0.20550774
159	0xbe561934	-0.20908052
160	0xbe38a764	-0.18032604
161	0xbe5448e5	-0.20730932
162	0x3eff53b1	0.4986854
163	0xbe234376	-0.15943703
164	0xbd6f45c7	-0.058416154
165	0xbdd74ffd	-0.105133034
166	0x3f56c0cb	0.8388793
167	0x3e1f0e6e	0.15532848
168	0x3f1c0763	0.6094877
169	0xbee52b77	-0.44759724
170	0xbef4dbc0	-0.47823906
171	0xbe92c3c2	-0.28664976
172	0x3f1f878a	0.6231619
173	0x3e9daf3c	0.30797756
174	0x3e4f7def	0.20262884
175	0x3eaf0b3e	0.34188265
176	0xbe9089e9	-0.28230217
177	0x3f3ad770	0.7298498
178	0x3dcea1be	0.100894436
179	0xbd54b321	-0.051928643
180	0xbebfb9d9	-0.37446478
181	0xbec74365	-0.38918605
182	0xbee3c4df	-0.44486138
183	0xbea4ed31	-0.32212213
184	0xbeebc6f7	-0.46050236
185	0x3e76b35c	0.24091858
186	0xbebc6e67	-0.3680298
187	0x3e660741	0.22463705
188	0xbf2284f2	-0.6348411
189	0x3d9ba962	0.076006666
190	0xbecf4ddf	-0.40489098
191	0xbd88641e	-0.06659721
192	0xbd9d39f1	-0.07677067
193	0x3da8c641	0.08240939
194	0xbdf1ae5f	-0.11800837
195	0x3f583c48	0.8446698
196	0x3e8cc248	0.27491975
197	0xbed7796f	-0.42084834
198	0xbc021779	-0.007940167
199	0xbedbdd53	-0.42942294
200	0x3e22d3f9	0.15901174
201	0x3e86364a	0.26213294
202	0xbe8e9b37	-0.27852795
203	0x3e3547ea	0.17703214
204	0x3d02450b	0.031804126
205	0x3ada819a	0.0016670704
206	0x3e86d309	0.26332882
207	0xbe8151c3	-0.25257692
208	0xbe8d7afa	-0.27632886
209	0xbe33cfac	-0.1755969
210	0xbe5fc061	-0.2185073
211	0x3ed1e568	0.40995336
212	0xbd5f1974	-0.054467633
213	0xbf39fdba	-0.7265278
214	0x3efe4083	0.49658594
215	0xbf234f96	-0.63793314
216	0xbecf80ba	-0.40527898
217	0x3e2bfc87	0.1679555
218	0xbf46afa5	-0.7761176
219	0xbd7c596d	-0.06160872
220	0xbf29153c	-0.66048026
221	0xbd1c623b	-0.038179617
222	0xbf20873a	-0.6270634
223	0x3edcf3b5	0.43154684
224	0x3e681aac	0.22666425
225	0xbe0cea6d	-0.13761301
226	0x3f1107df	0.56652635
227	0x3ec7c331	0.39016107
228	0x3ecc0965	0.39850917
229	0x3e27c7a8	0.16384757
230	0xbe32c096	-0.17456278
231	0xbe893640	-0.26799202
232	0xbf0388d3	-0.5138065
233	0x3e86ba11	0.26313832
234	0xbef65f3c	-0.48119533
235	0xbf90ba04	-1.1306767
236	0x3d9bddf4	0.076106936
237	0x3e9d7efc	0.30760944
238	0xbee2f351	-0.4432626
239	0x3ee1a26f	0.4406924
240	0xbe8127d1	-0.2522569
241	0xbc0b58ec	-0.008505087
242	0xbf12d76f	-0.57359976
243	0xbf89e768	-1.0773745
244	0xbebb19a5	-0.36543003
245	0x3f188c99	0.59589535
246	0xbf046ff0	-0.51733303
247	0x3e9e7c6a	0.30954295
248	0xbeb45c2a	-0.35226566
249	0xbdb3576d	-0.087569095
250	0xbf41a61d	-0.75644094
251	0xbf3b4637	-0.73154014
252	0x3c7a1dff	0.015265941
253	0x3eeff9e7	0.46870348
254	0xbef5d984	-0.48017514
255	0x3f5238d1	0.82117945

static_variable_selection.single_variable_grns.AgeDist.gate_norm.glu.fc.bias f4 [32]
0	0xbe67a83a	-0.22622767
1	0xbd05ea37	-0.032694068
2	0x3dd4ba83	0.10387137
3	0x3d887bc6	0.06664233
4	0xbe06bfda	-0.13159123
5	0xbe819993	-0.2531248
6	0x3edc8567	0.43070528
7	0x3e92277e	0.28545755
8	0xbe0579d2	-0.13034752
9	0xbecb128d	-0.3966259
10	0x3e4627e3	0.19351153
11	0x3e7ef2d3	0.24897318
12	0x3dedb6d3	0.116071366
13	0xbe82fc48	-0.255831
14	0xbeac343c	-0.33633602
15	0xbf343474	-0.7039254
16	0x3f1ddf7d	0.6166914
17	0x3f25bb91	0.6473933
18	0x3e8576e0	0.26067257
19	0xbf2142e8	-0.62992716
20	0xbdc9c123	-0.09851291
21	0x3eca1532	0.39469296
22	0xbe4cb484	-0.19990736
23	0xbe45ea22	-0.19327596
24	0xbe1e2121	-0.15442325
25	0x3e2f2dc9	0.1710731
26	0x3e895ed1	0.26830152
27	0xbe8e4bfd	-0.2779235
28	0xbe833566	-0.25626677
29	0xbde21c79	-0.11040587
30	0xbe87399a	-0.26411134
31	0xba36ec0c	-0.0006977923

static_variable_selection.single_variable_grns.AgeDist.gate_norm.add_norm.norm.weight f4 [16]
0	0x3f8cb864	1.0993772
1	0x3fc56a80	1.5423126
2	0x3f917a4b	1.1365446
3	0x3f9ad7a6	1.2097061
4	0x3fe1d8a4	1.7644238
5	0x3f5efe8b	0.8710715
6	0x3f57400c	0.840821
7	0x3f6f68d0	0.93519306
8	0x3f9f73f5	1.2457262
9	0x3fa6e259	1.3037826
10	0x3f3c237b	0.7349164
11	0x3f70c6f5	0.94053584
12	0x3f60feec	0.8788898
13	0x3f47e882	0.78089154
14	0x3f91b559	1.1383468
15	0x3ff3cb3d	1.9046398

static_variable_selection.single_variable_grns.AgeDist.gate_norm.add_norm.norm.bias f4 [16]
0	0x3baa0070	0.0051880404
1	0x3e6c3a30	0.23069072
2	0x3e14df3b	0.1453828
3	0xbceb795c	-0.028744392
4	0x3e534415	0.2063144
5	0xbe21d558	-0.1580404
6	0x3e8916e8	0.2677529
7	0x3e1f7bcd	0.1557457
8	0xbdbf547e	-0.093422875
9	0x3b897d6b	0.004195859
10	0x3d9d5d60	0.076838255
11	0x3e8ed3e1	0.27896026
12	0xbdad0906	-0.08448987
13	0x3db540d1	0.088502534
14	0xbe6febfa	-0.23429862
15	0xbed174ea	-0.4090951

static_variable_selection.single_variable_grns.HealthDisp.resample_norm.mask f4 [16]
0	0xbe55a41a	-0.20863381
1	0x3e16988a	0.14706627
2	0x3c0d220c	0.008614074
3	0xbcbee0bd	-0.023300523
4	0xbf4db65b	-0.8035638
5	0xbe5d3278	-0.21601284
6	0x3f1c87f1	0.6114493
7	0xbddf55ac	-0.109050125
8	0xbf0ad922	-0.5423757
9	0xbd51888a	-0.051155604
10	0xbe53c5a3	-0.20680861
11	0xbda2f886	-0.07957558
12	0xbf1cf792	-0.6131526
13	0x3dd89780	0.10575771
14	0x3e0a4810	0.13504052
15	0x3be0dee9	0.0068625105

static_variable_selection.single_variable_grns.HealthDisp.resample_norm.norm.weight f4 [16]
0	0x3f9deba9	1.2337543
1	0x3f83bd24	1.0292096
2	0x3facc932	1.34989
3	0x3f88acb7	1.0677708
4	0x3f4245d6	0.7588781
5	0x3f8b7d65	1.0897642
6	0x3fe6b4ea	1.802396
7	0x3f8f5222	1.119694
8	0x3f2981b7	0.66213554
9	0x3f9c21a9	1.2197772
10	0x3f9f5dc0	1.2450485
11	0x3fa8314b	1.3140043
12	0x3eaa3c9e	0.33249372
13	0x3fb4e6bf	1.4132918
14	0x3fb9c1dd	1.4512287
15	0x3fb31ec8	1.3993769

static_variable_selection.single_variable_grns.HealthDisp.resample_norm.norm.bias f4 [16]
0	0xbd876112	-0.066103116
1	0x3d15b272	0.03654713
2	0x3dc5acca	0.096520975
3	0x3d143953	0.03618748
4	0xbd909681	-0.07059956
5	0xbdebdbd7	-0.115165405
6	0x3e44dd05	0.19224937
7	0x3e47ee1d	0.19524427
8	0xbea8d006	-0.3297121
9	0x3c76e3eb	0.015068988
10	0x3d2c705d	0.042099345
11	0x3daeb073	0.08529749
12	0xbc3b838d	-0.011444938
13	0x3e6c47b5	0.23074229
14	0xbdbdbede	-0.09264921
15	0xbe8fe084	-0.2810098

static_variable_selection.single_variable_grns.HealthDisp.fc1.weight f4 [8, 8]
0	0xbe54a99b	-0.20767824
1	0x3ec74352	0.3891855
2	0xbf0ec343	-0.55766696
3	0xbf8f4a30	-1.1194515
4	0x3e979424	0.2960521
5	0x3ef57e35	0.4794785
6	0x3e347fea	0.1762692
7	0xbf2f7dd3	-0.6855137
8	0xbf33b802	-0.7020265
9	0x3ee92b4d	0.45540848
10	0xbfd41612	-1.6569235
11	0x3c1b1cb4	0.009467293
12	0xbf206130	-0.62648296
13	0xbe8db5d7	-0.27677795
14	0xbfdb2e48	-1.7123499
15	0xbf73a5c6	-0.95174825
16	0x3d3087eb	0.04309837
17	0x3f053634	0.5203583
18	0x3f173fd6	0.5908178
19	0x3eda2cdc	0.4261235
20	0x3e898a8a	0.2686351
21	0xbe9a2875	-0.3010899
22	0xbedaa1da	-0.42701608
23	0x3f1667d7	0.587522
24	0x3f23c44b	0.63971394
25	0xbe3cf0b0	-0.1845119
26	0xbf67687e	-0.9039382
27	0x3f1940f7	0.59864753
28	0x3e1b2c6b	0.15153663
29	0xbd0d5a9d	-0.034510244
30	0xbe9ac9d5	-0.3023211
31	0xbf41c0c7	-0.7568478
32	0x3cefc32c	0.02926787
33	0xbeff4227	-0.49855158
34	0x3ef90f7b	0.48644623
35	0xbecccbbb	-0.39999184
36	0xbe6fced4	-0.23418742
37	0xbee0d7c0	-0.43914604
38	0xbe4739d3	-0.19455652
39	0xbe658527	-0.22414075
40	0xbe6adefc	-0.22936624
41	0xbdd21908	-0.102586806
42	0xbea35fa4	-0.31908906
43	0xbe282df3	-0.16423778
44	0xbe082784	-0.13296324
45	0x3eda4d05	0.42636886
46	0x3f471821	0.7777119
47	0xbf02dc83	-0.51117724
48	0x3f382a54	0.7193959
49	0x3e344ff7	0.17608629
50	0x3e485f91	0.19567706
51	0xbf3462e7	-0.70463413
52	0xbf9321e0	-1.1494713
53	0x3e998a79	0.2998846
54	0x3ef4ac7c	0.47787845
55	0xbe9865bc	-0.29765117
56	0xbf8d7328	-1.1050768
57	0xbf3c5a12	-0.73574936
58	0xbcd11b6d	-0.025525773
59	0xbf00bd2c	-0.50288653
60	0x3c95442d	0.018220985
61	0x3e5c5445	0.21516521
62	0xbeaa9bfe	-0.33322138
63	0x3d9dbc66	0.0770195

static_variable_selection.single_variable_grns.HealthDisp.fc1.bias f4 [8]
0	0xbe3ed3c6	-0.18635473
1	0x3e55397b	0.20822708
2	0xbee01c36	-0.43771523
3	0x3d8f78b3	0.070054434
4	0xbe88b75c	-0.26702392
5	0xbcf3a2bb	-0.029740682
6	0x3de7f183	0.113253616
7	0xbdcdfb63	-0.10057714

static_variable_selection.single_variable_grns.HealthDisp.fc2.weight f4 [8, 8]
0	0x3d8d4204	0.06897357
1	0xbefd083c	-0.49420345
2	0x3f0ebaa2	0.5575353
3	0x3e353ffc	0.1770019
4	0xbea7f9a0	-0.32807636
5	0xbe045288	-0.12922108
6	0x3f2342c5	0.6377376
7	0x3f112a97	0.5670561
8	0xbe72f8b4	-0.23727685
9	0x3f048271	0.5176154
10	0xbd171e9d	-0.03689443
11	0x3dc4135a	0.095740035
12	0x3e010f0e	0.12603399
13	0x3da831c9	0.08212621
14	0x3eb91802	0.3615113
15	0xbede4ea3	-0.4341937
16	0xbf187c2f	-0.5956449
17	0xbf1c8aad	-0.611491
18	0xbee5c543	-0.4487706
19	0x3e0e1e58	0.13878763
20	0xbf0de089	-0.5542074
21	0x3e34971b	0.17635767
22	0x3efa5c8b	0.4889873
23	0x3ef0df40	0.47045326
24	0xbd299900	-0.041405678
25	0xbf60e775	-0.87853175
26	0x3e975231	0.29554895
27	0x3eefbbca	0.4682296
28	0xbe8300ac	-0.2558645
29	0xbdc8306a	-0.09774859
30	0xbf478946	-0.7794384
31	0xbdcc4a62	-0.09975125
32	0x3f3d8965	0.7403777
33	0xbf8b8669	-1.0900394
34	0xbdb6ab6a	-0.089194134
35	0xbe5a0b71	-0.21293427
36	0xbdf14996	-0.117816135
37	0x3e0b1f0f	0.13586067
38	0x3d2446ed	0.040106703
39	0xbee43a61	-0.4457579
40	0xbf3876dd	-0.7205637
41	0x3e86588e	0.26239437
42	0xbe4e4687	-0.20144092
43	0x3edb2c11	0.42807057
44	0xbd5704f5	-0.05249496
45	0x3cd5a150	0.026077896
46	0x3e6b7b2a	0.22996202
47	0xbdcab2c5	-0.09897379
48	0xbf550918	-0.83217
49	0xbdb0ab8e	-0.086264715
50	0xbe85b173	-0.26111946
51	0x3e86699f	0.26252457
52	0x3eef645c	0.46756256
53	0xbd966cfc	-0.07345006
54	0x3ea9b3f7	0.33145115
55	0x3f21e8dc	0.6324594
56	0x3f52edff	0.82394403
57	0x3ed2ebaa	0.41195422
58	0x3e958792	0.29204994
59	0x3e913a76	0.28364915
60	0x3e8940f5	0.2680737
61	0x3e1c2567	0.15248643
62	0xbefdfee0	-0.49608517
63	0xbf381453	-0.7190601

static_variable_selection.single_variable_grns.HealthDisp.fc2.bias f4 [8]
0	0xbd99972f	-0.07499539
1	0x3d96848c	0.073495
2	0xbd4ea267	-0.050447848
3	0x3d8d8c7f	0.06911563
4	0xbe1bb9ba	-0.15207568
5	0xbcef3cc7	-0.029203786
6	0x3e4ba4f9	0.19887151
7	0xbe025c11	-0.12730433

static_variable_selection.single_variable_grns.HealthDisp.gate_norm.glu.fc.weight f4 [32, 8]
0	0x3e5d82d1	0.21631934
1	0x3e2b5354	0.16731006
2	0xbd2b5e4c	-0.041837975
3	0xbed2829f	-0.4111528
4	0xbeb5ddb2	-0.35520703
5	0x3ee5ccff	0.44882962
6	0xbd615699	-0.055014227
7	0x3df2a036	0.11846964
8	0xbd989725	-0.074507035
9	0xbf00c14a	-0.50294936
10	0xbae32eee	-0.0017332712
11	0x3dcd6f9e	0.10031055
12	0xbe3fd372	-0.18733004
13	0x3ea6fe2b	0.3261579
14	0xbf2498d8	-0.6429572
15	0xbe95bf56	-0.2924754
16	0xbe807a57	-0.25093338
17	0xbdeedbce	-0.11663018
18	0x3db19673	0.08671274
19	0xbdb209f8	-0.08693308
20	0xbe211466	-0.15730438
21	0xbe85a471	-0.2610202
22	0xbe8f4e52	-0.2798944
23	0x3e91aff6	0.2845456
24	0xbdb6e734	-0.08930817
25	0x3e7dc6d4	0.24782878
26	0xbe83e059	-0.257571
27	0xbed195fb	-0.4093474
28	0x3dfb42b4	0.12268582
29	0x3d105f40	0.035247087
30	0xbd0d3b86	-0.034480594
31	0xbd8af8e6	-0.06785755
32	0xbe2f64a9	-0.17128243
33	0x3c282d10	0.01026465
34	0x3e8bf881	0.2733803
35	0x3dc83751	0.09776176
36	0xbe7fe491	-0.24989535
37	0x3e9228d1	0.28546765
38	0xbe96edb4	-0.29478228
39	0xbe83a369	-0.2571061
40	0xbdc045ce	-0.09388314
41	0xbeee3ae6	-0.4652931
42	0x3d6f772a	0.058463253
43	0xbea9a6b1	-0.33134988
44	0x3f0c3b2d	0.54777795
45	0x3e2365f9	0.15956868
46	0x3e4fd202	0.20294955
47	0x3e3d5080	0.1848774
48	0x3aab9ba8	0.0013092654
49	0xbcd0b737	-0.025477989
50	0x3cd4a282	0.025956396
51	0x3ec55a99	0.38545683
52	0x3ec2ea1f	0.38069245
53	0xbe35ba5c	-0.17746872
54	0xbc4ce2e6	-0.012505269
55	0xbd8188a2	-0.06324889
56	0x3d423818	0.047416776
57	0x3ea4e04a	0.3220237
58	0x3e4c41a5	0.19946916
59	0x3dacdd48	0.084406435
60	0xbe05960f	-0.13045524
61	0xbe535fcc	-0.20642012
62	0xbde550f0	-0.11197078
63	0xbdb68e82	-0.089139
64	0x3cc1c090	0.023651391
65	0xbe7cedeb	-0.24700134
66	0x3e61f7ba	0.22067156
67	0x3d29d1a5	0.0414597
68	0xbe89bc6e	-0.26901573
69	0x3e909ec8	0.2824614
70	0x3eaaca15	0.333573
71	0xbbc4ddf5	-0.0060079047
72	0x3ef13080	0.47107315
73	0x3dccef05	0.10006527
74	0xbe862214	-0.26197875
75	0xbed75c87	-0.4206278
76	0xbe957541	-0.2919102
77	0xbe7fc479	-0.24977292
78	0xbc80ef84	-0.01573921
79	0xbeab9731	-0.33513787
80	0x3dd02e8d	0.10165129
81	0xbdaf3e57	-0.08556812
82	0xbe1cf00a	-0.15325943
83	0xbe67db3c	-0.22642225
84	0xbe5fcd1b	-0.21855585
85	0x3cf141da	0.029450346
86	0xbe9fc2ba	-0.31203252
87	0xbe53d37a	-0.2068614
88	0xbc47d3dc	-0.012196507
89	0x3e2cca54	0.16874057
90	0x3cd2498b	0.025669834
91	0xbe371f10	-0.17882943
92	0xbe121dac	-0.14269131
93	0xbdb53f6e	-0.08849989
94	0x3ede85f1	0.43461564
95	0x3ea6037c	0.32424533
96	0xbe3c436e	-0.18385097
97	0x3f32479d	0.69640523
98	0xbd200fb9	-0.039077494
99	0xbeade7e6	-0.33965987
100	0xbe8bfb95	-0.2734038
101	0x3f329a87	0.6976704
102	0x3d904e7c	0.0704622
103	0xbd72b29f	-0.059252378
104	0x3ecf2f09	0.40465572
105	0xbcbb6d02	-0.022879127
106	0x3d23299a	0.039834596
107	0x3d8c9c95	0.06865803
108	0x3dc1092b	0.09425577
109	0xbb872321	-0.0041240607
110	0xbe97dab7	-0.29659054
111	0xbe7edfd5	-0.24890073
112	0x3e6c28e2	0.2306247
113	0xbe6859f3	-0.22690563
114	0x3e931552	0.28727204
115	0xbd539828	-0.05165878
116	0x3f82b3cd	1.0211121
117	0xbe13aff4	-0.1442259
118	0x3d71551e	0.058919065
119	0xbefe874f	-0.49712607
120	0xbd319004	-0.043350235
121	0xbc37a9a4	-0.011209879
122	0xbc36211f	-0.011116295
123	0x3df5d639	0.1200375
124	0x3eaa8856	0.3330714
125	0xbed315a3	-0.41227445
126	0x3ef67629	0.48137024
127	0xbea6e94e	-0.32599872
128	0x3d8c88c5	0.06862024
129	0x3eae37f0	0.34027052
130	0x3edb8873	0.4287754
131	0x3e1792d1	0.148021
132	0xbe004536	-0.12526402
133	0x3f01231a	0.50444186
134	0xbecf0b57	-0.4043834
135	0xbdf7e86a	-0.12104876
136	0xbeb1112c	-0.34583414
137	0xbe9677a6	-0.2938816
138	0x3edc821d	0.4306802
139	0xbf125b57	-0.57170624
140	0xbdf58ad2	-0.119893685
141	0xbf75dfbf	-0.96044534
142	0x3f8632dd	1.0484272
143	0x3e811099	0.25207976
144	0x3e054b71	0.1301706
145	0x3f18495c	0.5948694
146	0x3f4d134c	0.8010757
147	0xbe9654ab	-0.29361472
148	0xbebb1e69	-0.3654664
149	0xbe901f05	-0.28148666
150	0x3db9bd6f	0.09069335
151	0x3ee12095	0.4397017
152	0x3e4e9c4e	0.20176813
153	0x3d1bc7aa	0.03803221
154	0x3e4f491e	0.20242736
155	0xbf1193c3	-0.5686609
156	0xbec210e2	-0.37903506
157	0xbf0b74d8	-0.54475164
158	0xbcbc77c1	-0.023006322
159	0xbedfcbbd	-0.43710127
160	0x3ea12c57	0.3147914
161	0x3df0b7ac	0.11753783
162	0x3e276013	0.16345243
163	0xbdb893d5	-0.09012572
164	0xbe36d81a	-0.17855874
165	0xbdc30e72	-0.095242396
166	0x3e61c0ba	0.22046176
167	0x3f191d87	0.5981068
168	0xbe091e31	-0.13390423
169	0x3f0cf326	0.55058515
170	0xbe4d602b	-0.20056216
171	0xbe865f5f	-0.26244637
172	0xbed3f886	-0.41400546
173	0xbe15e701	-0.14638902
174	0x3eb542d0	0.35402536
175	0xbcfa8eb5	-0.030585626
176	0x3f161bc4	0.58636117
177	0xbe4a0208	-0.19727337
178	0x3e776801	0.24160768
179	0xbe971443	-0.29507646
180	0x3d90a3a7	0.07062464
181	0x3e2fa274	0.17151815
182	0xbe43afff	-0.19110106
183	0xbefe2fd1	-0.49645856
184	0x3f1c83d1	0.61138636
185	0x3f222d41	0.633503
186	0x3ed24792	0.4107023
187	0xbdd38094	-0.10327259
188	0xbce4c493	-0.027925765
189	0xbdc80c98	-0.09768027
190	0xbe8ddbe8	-0.27706838
191	0x3f1b1b00	0.60588074
192	0xbdd4f2ac	-0.103978485
193	0x3edbc0d1	0.42920545
194	0x3d04d06a	0.03242532
195	0xbf09a74e	-0.5377091
196	0x3ee4d835	0.44696203
197	0xbf396d3f	-0.7243232
198	0x3c6674df	0.01406595
199	0xbe97967e	-0.29607004
200	0x3e90fe68	0.28319097
201	0xbe86ebef	-0.26351878
202	0x3e1740d3	0.14770822
203	0xbf6cbff2	-0.92480385
204	0xbe0b0754	-0.13577014
205	0xbf302683	-0.68808764
206	0xbe6bbc9e	-0.2302117
207	0x3eb26f91	0.34850743
208	0x3e16e4e9	0.1473576
209	0xbd2c3634	-0.04204388
210	0x3f6b00f7	0.9179835
211	0x3d89848b	0.06714734
212	0xbed9ba77	-0.42525074
213	0xbe8de096	-0.27710408
214	0xbdefe739	-0.11714024
215	0xbe9b292a	-0.30304843
216	0x3c39f112	0.01134898
217	0x3ddeaa74	0.10872355
218	0x3f2f416b	0.68459195
219	0xbecd4842	-0.4009419
220	0x3efe7bc4	0.497038
221	0x3ca1cf01	0.019752027
222	0x3e302d90	0.1720488
223	0x3e9fd5a2	0.31217676
224	0x3deade2a	0.11468156
225	0x3eddf6c2	0.43352324
226	0xbe8b8ffa	-0.27258283
227	0xbf1e0e7c	-0.6174085
228	0xbef49c95	-0.47775713
229	0xbe0336eb	-0.12813918
230	0xbee14345	-0.43996635
231	0x3eafe6e5	0.34355846
232	0x3ec24d9b	0.37949833
233	0xbee0eece	-0.43932194
234	0x3e2b63cb	0.16737287
235	0xbe87e158	-0.2653911
236	0x3e770e76	0.2412661
237	0xbe6a72f4	-0.22895414
238	0x3e01852a	0.12648454
239	0x3c3fa285	0.0116964625
240	0xbecc120d	-0.39857522
241	0x3f388c81	0.7208939
242	0xbe05d0b9	-0.13067903
243	0xbf314c4a	-0.6925703
244	0xbf91e963	-1.1399349
245	0x3e632109	0.2218057
246	0xbf0ed5e8	-0.55795145
247	0x3f27bccc	0.65522456
248	0x3e8a9087	0.2706339
249	0x3f4578f2	0.7713767
250	0x3eaee9eb	0.3416284
251	0xbef8c722	-0.48589426
252	0xbf456cb3	-0.77118987
253	0x3f297177	0.6618876
254	0xbe70f109	-0.23529448
255	0x3f0a6f2a	0.5407587

static_variable_selection.single_variable_grns.HealthDisp.gate_norm.glu.fc.bias f4 [32]
0	0xbde31b91	-0.11089242
1	0x3c4f7e19	0.012664341
2	0x3e2a6dec	0.16643494
3	0x3e152c23	0.14567618
4	0xbe1c163f	-0.15242861
5	0xbe1bc8ad	-0.1521327
6	0x3e41dc01	0.18931581
7	0x3d8aa8b5	0.067704596
8	0xbec4de5a	-0.3845089
9	0xbd968bfb	-0.07350918
10	0x3dc26c2c	0.094932884
11	0x3d492cda	0.04911504
12	0x3d4414a1	0.047871236
13	0x3e31946c	0.17341775
14	0xbee7c610	-0.45268297
15	0xbe805c4a	-0.2507041
16	0xbe423fb8	-0.1896962
17	0xbedc43fc	-0.43020618
18	0xbf84e552	-1.0382483
19	0xbf5bb943	-0.8582956
20	0xbf0f6e44	-0.56027627
21	0xbe36c2a9	-0.17847694
22	0xbddfab3a	-0.10921331
23	0xbf83d0c3	-1.0298084
24	0xbeffad1b	-0.49936756
25	0xbef9a765	-0.48760524
26	0xbf861b10	-1.0477009
27	0xbf7a9eae	-0.97898376
28	0xbf20eee9	-0.6286455
29	0xbf148472	-0.58014596
30	0xbe9a9157	-0.3018901
31	0xbf01d5b9	-0.5071674

static_variable_selection.single_variable_grns.HealthDisp.gate_norm.add_norm.norm.weight f4 [16]
0	0x3f5aefd4	0.855222
1	0x3f79300b	0.9733893
2	0x3f87698a	1.0579083
3	0x3f38834e	0.72075355
4	0x3f1c708e	0.61109245
5	0x3f5e274d	0.8677872
6	0x3fc2af09	1.5209666
7	0x3f5ea589	0.86971337
8	0x3ecd8ce2	0.40146548
9	0x3f909ce4	1.1297879
10	0x3f91622e	1.1358087
11	0x3f998055	1.1992289
12	0x3f023d84	0.50875115
13	0x3fbb72d3	1.4644417
14	0x3fa76703	1.3078312
15	0x3f95b8f6	1.1697071

static_variable_selection.single_variable_grns.HealthDisp.gate_norm.add_norm.norm.bias f4 [16]
0	0xbdc7ed94	-0.09762111
1	0xbd49f3ee	-0.049304895
2	0x3dbbcbbc	0.091697186
3	0xbcce6969	-0.025196748
4	0x3cc166dd	0.02360862
5	0x3ca9ad7a	0.020712603
6	0x3deea87a	0.11653228
7	0x3e43301a	0.19061318
8	0xbea13771	-0.3148761
9	0x3de2706b	0.11056598
10	0xbd4d7517	-0.050160494
11	0x3dbac8ee	0.091203555
12	0xbdf1984a	-0.11796625
13	0x3ebf070f	0.37310073
14	0x3cd6e120	0.026230395
15	0xbe86d715	-0.2633597

static_variable_selection.prescalers.AgeDist.weight f4 [8, 1]
0	0x3ec240e5	0.37940136
1	0xbed641aa	-0.41846973
2	0x3f1893ec	0.5960071
3	0xbc2261f5	-0.00991105
4	0xbf3cdb7f	-0.73772424
5	0xbed1251e	-0.4084863
6	0xbf25673f	-0.64610666
7	0xbcb4c49c	-0.022066407

static_variable_selection.prescalers.AgeDist.bias f4 [8]
0	0xbe551e65	-0.20812376
1	0x3e75b872	0.23996142
2	0x3f3fe9f3	0.74966353
3	0x3e0e3006	0.13885507
4	0xbf289ff5	-0.65869075
5	0xbef1459c	-0.4712342
6	0xbea58502	-0.3232804
7	0xbf0ec824	-0.5577414

static_variable_selection.prescalers.HealthDisp.weight f4 [8, 1]
0	0x3e656296	0.22400889
1	0xbf7a70e2	-0.97828496
2	0x3f4ab608	0.7918401
3	0xbf85e12e	-1.0459344
4	0x3f53a044	0.8266642
5	0xbea44433	-0.32083282
6	0x3f45e2aa	0.77298987
7	0x3f01dac1	0.50724417

static_variable_selection.prescalers.HealthDisp.bias f4 [8]
0	0xbdea3c5b	-0.11437293
1	0x3ed3be88	0.413563
2	0x3f1b4d09	0.6066442
3	0x3f15d027	0.5852074
4	0x3e630b17	0.22172199
5	0xbf246bda	-0.6422707
6	0x3f2e1578	0.6800151
7	0x3df638fd	0.120225884

encoder_variable_selection.flattened_grn.resample_norm.mask f4 [7]
0	0xbdd266d4	-0.10273519
1	0xbd3cc8b8	-0.046089858
2	0x3ef341b2	0.4751106
3	0x3d941b1e	0.07231735
4	0x3cdb8a06	0.026799213
5	0x3f00dedd	0.5034006
6	0xbe9155d4	-0.28385794

encoder_variable_selection.flattened_grn.resample_norm.norm.weight f4 [7]
0	0x3fb6728b	1.4253706
1	0x3f6f1aab	0.9340007
2	0x3f6b87cb	0.9200408
3	0x3ffb7804	1.9646001
4	0x3f87119c	1.0552249
5	0x400a5819	2.161627
6	0x3f8bdfff	1.0927733

encoder_variable_selection.flattened_grn.resample_norm.norm.bias f4 [7]
0	0x3e782dbe	0.242362
1	0xbee240e4	-0.44190133
2	0xbe192e03	-0.14958958
3	0xbf0e7640	-0.55649185
4	0xbd0d5df3	-0.034513425
5	0xbf9e17fc	-1.235107
6	0x3f0023c2	0.5005456

encoder_variable_selection.flattened_grn.fc1.weight f4 [7, 56]
0	0x3f00ee06	0.50363195
1	0x3f69c446	0.91315114
2	0x3f4aef70	0.792716
3	0x3e1b4f1a	0.15166894
4	0xbf3277e7	-0.69714206
5	0xbf2645d3	-0.64950293
6	0xbedb09d3	-0.42780933
7	0xbf1e3e32	-0.6181365
8	0xbed6a6d2	-0.4192415
9	0x3e81e6af	0.2537131
10	0x3e930499	0.28714445
11	0xbed92f89	-0.4241908
12	0xbebcb9c3	-0.36860475
13	0x3e13f96f	0.1445062
14	0x3e3a8533	0.18214874
15	0x3f3ca979	0.73696095
16	0x3f65e3c1	0.8980065
17	0xbeeb514f	-0.4596047
18	0x3f85ab80	1.0442963
19	0x3f302e51	0.68820673
20	0xbf943838	-1.1579657
21	0xbf4ae0eb	-0.7924945
22	0xbf652365	-0.8950713
23	0x3f8b2ecc	1.0873656
24	0x3e679753	0.2261632
25	0xbee0745a	-0.4383877
26	0x3e3d8f29	0.18511643
27	0x3da440d1	0.08020175
28	0xbe26f2f2	-0.16303614
29	0xbc1a56f8	-0.009420149
30	0x3f0caeeb	0.54954404
31	0x3e86c1b9	0.26319674
32	0xbe5c0148	-0.21484864
33	0x3ed43c4a	0.41452247
34	0x3d759081	0.059952263
35	0x3caa69d3	0.020802414
36	0xbdca0b2b	-0.09865411
37	0xbec7fade	-0.39058584
38	0xbc0f3002	-0.008739473
39	0xbf16b0b1	-0.5886336
40	0xba806b47	-0.0009797596
41	0x3e593363	0.21211009
42	0xbe9fb175	-0.31190076
43	0x3e2e13b7	0.16999708
44	0xbe016bac	-0.1263873
45	0x3e697ca5	0.22801454
46	0x3e9f9a4e	0.31172413
47	0x3e34e270	0.17664504
48	0xbd87820b	-0.066166006
49	0xbe220c1a	-0.15824929
50	0xbdb61794	-0.08891216
51	0x3e96718d	0.29383507
52	0xbe5021d3	-0.20325403
53	0xbd61dc86	-0.05514195
54	0xbe9f046f	-0.3105807
55	0xbdba7b1a	-0.09105511
56	0xbd49bd26	-0.04925265
57	0x3be1f401	0.0068955426
58	0x3dd31a47	0.103077464
59	0xbe4ca905	-0.19986351
60	0x3d1a6319	0.037692163
61	0x3f02e65c	0.5113275
62	0x3e9be069	0.3044465
63	0x3e9ace9d	0.30235758
64	0x3d406db2	0.046979614
65	0x3f116905	0.5680087
66	0x3f1edcaf	0.62055486
67	0xbee5d9bc	-0.4489268
68	0xbec39dd7	-0.3820636
69	0x3dbfd213	0.0936624
70	0x3e1572a1	0.14594509
71	0x3edd9b32	0.43282467
72	0x3e0f0015	0.13964875
73	0x3e80fc05	0.25192276
74	0x3e19256d	0.14955683
75	0x3d3ebe48	0.046568185
76	0xbea90255	-0.33009592
77	0xbedd864e	-0.4326653
78	0xbef7593d	-0.4831027
79	0x3eaea206	0.3410799
80	0xbf19a4c7	-0.60017055
81	0x3ed1f969	0.41010597
82	0x3d445464	0.047932044
83	0x3ea69739	0.3253725
84	0x3e94acbe	0.29038042
85	0x3f08825a	0.533239
86	0xbe85e27b	-0.26149353
87	0x3d1e1709	0.038596187
88	0x3cbf58f6	0.02335785
89	0x3e99f6c4	0.3007108
90	0xbe884a24	-0.26619065
91	0x3d7b3e2d	0.061338592
92	0x3dfe36f3	0.124128245
93	0xbd4a1b78	-0.049342602
94	0xbdacc602	-0.084362045
95	0xbee0230b	-0.43776736
96	0x3e5876f2	0.21139124
97	0x3dd6efb5	0.10494939
98	0xbeb0e4cc	-0.34549558
99	0xbc7f15e2	-0.015569182
100	0x3ecdca87	0.4019358
101	0xbd684730	-0.056708515
102	0x3c587067	0.013210393
103	0xbe052ab9	-0.13004579
104	0xbd74057a	-0.059575535
105	0xbdb50c11	-0.08840192
106	0x3eafb4ee	0.34317726
107	0x3eccc3b8	0.39993072
108	0x3e505992	0.20346668
109	0xbdca3799	-0.09873886
110	0xbd9577f0	-0.07298267
111	0xbdaccbce	-0.0843731
112	0x3c4f438e	0.012650384
113	0x3d9fff6b	0.07812389
114	0xbe40a84d	-0.18814202
115	0xbee6761c	-0.45011985
116	0xbdc876a5	-0.09788255
117	0x3e48ab83	0.19596677
118	0xbc941abc	-0.018079154
119	0xbda65713	-0.08122077
120	0xbdea814a	-0.11450441
121	0x3e0a17b7	0.13485609
122	0x3d0e5206	0.034746192
123	0xbe8f27e6	-0.27960128
124	0xbbab9564	-0.0052363146
125	0x3bd5bfdd	0.006523116
126	0xbe599fae	-0.21252319
127	0xbca7613a	-0.020432103
128	0xbde40427	-0.111336045
129	0x3c5e92f2	0.013584839
130	0x3eb0b8ed	0.34516087
131	0xbe85831f	-0.260766
132	0x3e846ed2	0.258658
133	0x3dc84aff	0.09779929
134	0xbe715da3	-0.23570876
135	0xbe24e2d9	-0.1610216
136	0xc00f7322	-2.2414021
137	0x3f917a82	1.1365511
138	0x3ec99365	0.39370266
139	0x3f0aeb41	0.5426522
140	0x3f38c645	0.72177535
141	0x3fc8d3cb	1.5689634
142	0xbf3826f0	-0.71934414
143	0xbf722b1a	-0.9459702
144	0xbf239cb2	-0.63910973
145	0x3eeefc24	0.46676743
146	0x3e91708c	0.2840618
147	0x3e9e0b85	0.30868164
148	0x3e5cc2a9	0.21558632
149	0xbf473e56	-0.7782949
150	0xbeb61b90	-0.35567904
151	0xbcc88362	-0.02447671
152	0x3c4c3d0e	0.012465728
153	0xbdcc1a4a	-0.09965952
154	0x3dc8a656	0.09797351
155	0xbe256424	-0.16151482
156	0x3f3b164d	0.73080903
157	0x3e12f71b	0.14352076
158	0x3e6430dc	0.22284263
159	0xbdbf3359	-0.09335966
160	0xbb8f9b92	-0.004382559
161	0x3d0239cf	0.03179341
162	0x3e8f3f07	0.27977774
163	0x3e9e8ea3	0.30968198
164	0x3dbde8c1	0.0927291
165	0x3e047bf9	0.12937917
166	0x3c74b073	0.014934647
167	0xbe04fbb7	-0.12986647
168	0x3d11a63e	0.03555893
169	0xbef80582	-0.48441702
170	0xbe8043c2	-0.25051695
171	0xbc1e277b	-0.009652968
172	0xbe492032	-0.19641188
173	0x3e851938	0.25995803
174	0x3eaccb90	0.33749056
175	0xbd9886a0	-0.07447553
176	0x3f20a5cc	0.62752986
177	0xbecd0490	-0.40042543
178	0xbec9648b	-0.3933452
179	0x3eff41b5	0.49854818
180	0x3f4394d8	0.7639899
181	0x3d1fccdb	0.039013725
182	0xbf61285e	-0.8795222
183	0xbe62cafa	-0.22147742
184	0x3f2c1ec2	0.6723443
185	0xbee017ae	-0.43768066
186	0x3e1c0599	0.1523651
187	0x3d808f7a	0.06277366
188	0xbf24faaa	-0.64444983
189	0xbe97d4ca	-0.29654533
190	0xbca1d64e	-0.019755509
191	0x3c68510d	0.01417948
192	0x3ebcef2c	0.36901224
193	0xbf3285da	-0.6973549
194	0x3d286a31	0.041116897
195	0x3d6f900a	0.058486976
196	0xbed6923f	-0.41908452
197	0x3b3591d5	0.002770533
198	0x3eea2459	0.45730856
199	0x3ec5fbfa	0.38668805
200	0xbc7ed75e	-0.015554277
201	0xbe4e2988	-0.2013303
202	0x3d3ea702	0.04654599
203	0xbee3f698	-0.44524074
204	0xbd2279f0	-0.03966707
205	0x3db9c146	0.09070067
206	0x3badd1ad	0.0053045363
207	0x3e164ccb	0.14677732
208	0xbc69825b	-0.014252271
209	0xbdfbc193	-0.12292781
210	0x3da242c0	0.07922888
211	0xbd8286d1	-0.063733704
212	0xbe9d51e9	-0.30726555
213	0xbda4cf62	-0.08047368
214	0x3d2c81fe	0.042116158
215	0xbe274694	-0.16335517
216	0xbeecb9b8	-0.46235442
217	0xbeaa2d8f	-0.33237883
218	0x3e60f7a5	0.21969469
219	0xbd8b4f0b	-0.068021856
220	0x3e96ed83	0.29478082
221	0xbe7752f0	-0.24152732
222	0xbe8f10cd	-0.27942505
223	0x3d40d2fc	0.04707621
224	0x3d0554ef	0.032551702
225	0x3cc4fb7c	0.024045698
226	0x3e732b87	0.23747073
227	0x3ea7637e	0.32693094
228	0xbe95c7b0	-0.29253912
229	0xbea08d05	-0.3135759
230	0xbef65412	-0.48111016
231	0xbf0e868e	-0.55674064
232	0xbeb40687	-0.3516123
233	0x3ea7819c	0.32716072
234	0x3ee5ccd3	0.4488283
235	0xbe806673	-0.25078163
236	0xbea8f3de	-0.32998556
237	0xbc7d9718	-0.015477918
238	0x3e4a4fc6	0.19756994
239	0x3d35c62d	0.04437845
240	0xbea08ef1	-0.31359056
241	0x3ea5bce7	0.32370684
242	0xbe3e5d7a	-0.18590346
243	0x3d9e4925	0.07728795
244	0x3e9000eb	0.281257
245	0x3eb893f6	0.36050385
246	0x3e35bd81	0.17748071
247	0xbd05a4e0	-0.03262794
248	0xbea1abc3	-0.31576356
249	0x3f1ecfc9	0.62035805
250	0x3e075fdd	0.13220163
251	0x3e9557f4	0.29168665
252	0x3e1b8731	0.1518829
253	0x3e8e2180	0.27759933
254	0xbee38314	-0.44435942
255	0xbe944f23	-0.28966627

encoder_variable_selection.flattened_grn.fc1.bias f4 [7]
0	0xbe99ca3c	-0.30037105
1	0xbe1cb093	-0.15301733
2	0xbd9db1b2	-0.07699908
3	0xbd2c9b3d	-0.042140234
4	0xbd84dedb	-0.06487819
5	0xbe31585e	-0.17318866
6	0x3d17f6e0	0.037100673

encoder_variable_selection.flattened_grn.context.weight f4 [7, 16]
0	0x3d93e14a	0.07220705
1	0x3f3873ab	0.72051495
2	0xbcd5c60a	-0.026095409
3	0xbeb070d2	-0.34461075
4	0x3cb2ea17	0.021840138
5	0xbf43e588	-0.7652211
6	0xbd6dd517	-0.058064546
7	0x3d99d6f3	0.075117014
8	0xbe241872	-0.1602495
9	0xbed99da3	-0.4250308
10	0xbe4edd0b	-0.20201509
11	0xbd82b746	-0.06382613
12	0xbd0fff5a	-0.03515563
13	0xbf01137f	-0.50420374
14	0x3de6b8ef	0.11265742
15	0x3c31c73a	0.010850722
16	0xbe133b0f	-0.14377998
17	0x3e1900ae	0.14941666
18	0xbe06f453	-0.1317914
19	0x3e05929a	0.13044205
20	0x3e3acdd8	0.18242586
21	0xbebae6b3	-0.36504135
22	0xbf34ceca	-0.70628035
23	0x3cf9e604	0.030505188
24	0x3e95389f	0.2914476
25	0xbf017e31	-0.5058318
26	0x3e08ffa6	0.13378772
27	0xbec26fc4	-0.37975895
28	0xbc442549	-0.01197178
29	0xbf0d7279	-0.55252796
30	0x3ea8474c	0.32866895
31	0xbf0c4c51	-0.5480395
32	0xbed6a057	-0.41919205
33	0x3cb3a49d	0.02192908
34	0xbd3666f0	-0.044531763
35	0xbe3e3d0c	-0.18577975
36	0xbe166cd9	-0.1468996
37	0xbe98e93a	-0.29865438
38	0xbea69fa5	-0.32543674
39	0xbd3c6279	-0.04599235
40	0x3d7585b4	0.059941962
41	0x3dde3669	0.10850222
42	0xbd00a525	-0.031407494
43	0xbe39426f	-0.18091749
44	0xbc3da45d	-0.011574832
45	0xbebc6cd4	-0.3680178
46	0xbdcecdb5	-0.10097829
47	0xbd284a21	-0.04108632
48	0xbef0068a	-0.4687999
49	0xbeb37658	-0.35051227
50	0xbe665496	-0.22493204
51	0xbd830900	-0.06398201
52	0xbe2d3cb5	-0.16917689
53	0x3dce04f2	0.10059537
54	0xbcc4ed40	-0.02403891
55	0xbe8ee4aa	-0.27908832
56	0x3e1fac9b	0.15593188
57	0xbe81733a	-0.25283223
58	0x3f1bcae7	0.6085648
59	0x3cd20337	0.025636299
60	0xbcb8dfd1	-0.022567661
61	0xbe1e21e1	-0.15442611
62	0x3d9571ae	0.07297073
63	0xbd6e0fcf	-0.058120545
64	0x3df9e2cd	0.12201462
65	0x3e53709a	0.20648423
66	0xbafcbe00	-0.0019282699
67	0x3d0c9df4	0.034330323
68	0xbe087e52	-0.13329437
69	0xbe81a8c2	-0.25324064
70	0x3d74fefc	0.059813485
71	0xbbe86ef4	-0.007093305
72	0x3dc36730	0.09541166
73	0xbea37031	-0.31921533
74	0xbe9fe666	-0.31230468
75	0x3e594243	0.21216683
76	0x3c00e743	0.007867637
77	0x3e1def8d	0.15423413
78	0x3c5070dc	0.01272222
79	0xbe176f54	-0.14788562
80	0x3f23b517	0.63948196
81	0x3f13d218	0.5774245
82	0x3e012314	0.12611037
83	0x3d8386f3	0.06422224
84	0xbdff74a9	-0.12473423
85	0xbef067e9	-0.46954277
86	0xbcfb1c8c	-0.03065326
87	0x3e5fe6b8	0.21865356
88	0xbe60ea70	-0.21964431
89	0xbed1557e	-0.40885538
90	0xbee6c580	-0.45072556
91	0x3e64732b	0.22309558
92	0x3d271eba	0.040800788
93	0x3ebf2dbb	0.37339577
94	0x3d718896	0.05896815
95	0xbe9604f0	-0.29300642
96	0xbe9e05f8	-0.3086393
97	0x3e8b8195	0.272473
98	0xbd2cc8de	-0.04218375
99	0xbdee5b2d	-0.11638484
100	0xbea9e053	-0.33178958
101	0x3e5a25f0	0.21303535
102	0x3f188f0e	0.59593284
103	0xbdb08d18	-0.086206615
104	0x3e267a8c	0.16257685
105	0xbf415565	-0.75520927
106	0xbe1c8306	-0.15284356
107	0xbe5b53aa	-0.21418634
108	0x3e133688	0.14376271
109	0x3e170bdb	0.14750616
110	0x3e51c910	0.20486856
111	0xbbf4b7f9	-0.0074682203

encoder_variable_selection.flattened_grn.fc2.weight f4 [7, 7]
0	0xbe436a48	-0.19083512
1	0x3f4dc1cd	0.8037384
2	0x3eddcaca	0.43318778
3	0xbd7d14d6	-0.06178745
4	0x3f309a1e	0.68985164
5	0xbf177c29	-0.5917383
6	0xbe798105	-0.24365623
7	0x3e828f4f	0.2549996
8	0xbd2a5e65	-0.041593928
9	0x3ed88742	0.42290694
10	0x3e421772	0.18954256
11	0xbefda5de	-0.4954061
12	0x3f4ac811	0.7921153
13	0xbf2c0380	-0.6719284
14	0x3eb4e4e9	0.35330895
15	0xbefced75	-0.49399915
16	0x3f088764	0.5333159
17	0x3e6a54ee	0.2288396
18	0xbebf2dd4	-0.37339652
19	0xbba90103	-0.0051575913
20	0x3e07f745	0.1327792
21	0x3eba6260	0.3640318
22	0xbcbca6f3	-0.023028826
23	0xbf461002	-0.77368176
24	0x3e280cda	0.16411152
25	0xbd5ca818	-0.053871244
26	0x3ea964e3	0.33084783
27	0xbf0d55b6	-0.5520891
28	0x3e95a624	0.29228318
29	0xbeb83fe6	-0.3598625
30	0xbf851953	-1.0398353
31	0x3e403e7e	0.18773839
32	0xbeb3344e	-0.35000843
33	0x3ef604dc	0.48050582
34	0x3f0e3c2c	0.55560565
35	0xbf746ea0	-0.954813
36	0x3e1d4c06	0.15361032
37	0x3e41c57f	0.18922995
38	0xbe8d1602	-0.27555853
39	0xbe4d642e	-0.20057747
40	0x3ec6e070	0.38843107
41	0x3ec7ca52	0.39021546
42	0x3eb0ec5b	0.34555325
43	0x3e6993fe	0.22810361
44	0xbeb44277	-0.3520696
45	0xbe367b5e	-0.17820498
46	0x3e37acd9	0.1793703
47	0xbf206b57	-0.6266379
48	0x3df9f5ad	0.12205062

encoder_variable_selection.flattened_grn.fc2.bias f4 [7]
0	0x3d5b8729	0.053595696
1	0x3d5de014	0.054168776
2	0xbd2ffdfd	-0.04296683
3	0xbe3da4db	-0.18519919
4	0x3e27a1d4	0.16370326
5	0x3dc4cee0	0.09609771
6	0xbd3cd734	-0.04610367

encoder_variable_selection.flattened_grn.gate_norm.glu.fc.weight f4 [14, 7]
0	0xbe2c89bf	-0.16849421
1	0x3dbc9ec2	0.09209968
2	0x3c693c56	0.014235577
3	0x3e6c512e	0.23077843
4	0x3dbdf358	0.0927493
5	0xbe06dfd4	-0.13171321
6	0xbbb67437	-0.005568053
7	0x3ef24692	0.47319466
8	0x3c05d095	0.008167406
9	0xbece6cd9	-0.4031742
10	0x3e805493	0.25064525
11	0xbf4cca22	-0.7999593
12	0xbf60f10d	-0.87867814
13	0x3f027856	0.5096487
14	0x3e82f51e	0.25577635
15	0xbe18881a	-0.14895669
16	0x3e78b384	0.2428723
17	0xbd31b6ca	-0.04338721
18	0x3e091f33	0.13390808
19	0xbe8bf338	-0.27334
20	0x3f00b3d6	0.5027441
21	0xbf31191c	-0.6917894
22	0x3f51acbb	0.8190419
23	0x3ef8cdb0	0.48594427
24	0x3f4eeb0f	0.8082742
25	0x3eb5dc89	0.35519817
26	0xbea979a3	-0.33100614
27	0x3eac2db0	0.33628607
28	0xbd24856b	-0.0401663
29	0xbe45a94c	-0.19302863
30	0xbe93492e	-0.2876677
31	0x3eb835f4	0.35978663
32	0x3e910b9c	0.2832917
33	0xbeaa376a	-0.33245403
34	0x3f31714c	0.693135
35	0xbf3ab03b	-0.72925156
36	0x3e463606	0.19356546
37	0xbe69a9af	-0.22818635
38	0x3f612e45	0.87961227
39	0x3f5b2ab2	0.8561202
40	0xbe1ba684	-0.1520024
41	0x3f3aad1d	0.729204
42	0x3dbb10c3	0.091340564
43	0xbe45485d	-0.19265886
44	0xbc022791	-0.007944004
45	0xbcfa4d65	-0.030554483
46	0xba9360bc	-0.0011244039
47	0xbe965f62	-0.29369646
48	0x3ecb46d9	0.3970249
49	0xbc7d5464	-0.015462015
50	0x3f3d4825	0.7393821
51	0x3f73d917	0.9525313
52	0x3ea9f4bc	0.3319453
53	0x3e88d60c	0.26725805
54	0xbe20c943	-0.15701775
55	0xbf24861d	-0.6426714
56	0xbf60204c	-0.8754928
57	0xbe836b3c	-0.2566775
58	0x3ed0bbd4	0.407683
59	0xbe5b9c10	-0.21446252
60	0x3ef84507	0.48490164
61	0x3e838273	0.25685462
62	0x3ceb04b9	0.028688775
63	0xbd99679a	-0.074904636
64	0x3f4e0b72	0.80486214
65	0x3d5f3a2b	0.054498833
66	0xbe01c257	-0.12671791
67	0x3eb6a89f	0.35675523
68	0x3e2f6a13	0.17130308
69	0xbf136cd2	-0.5758792
70	0x3eb8835d	0.36037722
71	0xbf27fe94	-0.6562283
72	0xbe42140b	-0.18952958
73	0xbe8badf6	-0.2728116
74	0xbe882d49	-0.2659705
75	0xbc9a5013	-0.01883701
76	0xbf21790b	-0.6307532
77	0x3ed5329e	0.4164018
78	0xbe5971e8	-0.21234858
79	0xbe834f2e	-0.25646347
80	0xbfa81561	-1.3131524
81	0xbf0f1478	-0.5589061
82	0x3dd9929e	0.10623668
83	0x3ccad257	0.024758501
84	0x3f792d67	0.97334903
85	0x3e349480	0.17634773
86	0xbe1beead	-0.15227766
87	0xbf89ee0b	-1.077577
88	0xbec1d3ef	-0.37857005
89	0x3e8991b6	0.2686898
90	0xbeb1acac	-0.3470205
91	0x3f0bfeb7	0.5468554
92	0xbc87652b	-0.016527733
93	0xbeaa1e23	-0.33226117
94	0x3c44bad5	0.012007435
95	0xbe1ec5a1	-0.15505077
96	0xbea6daf5	-0.32588926
97	0x3e1c922f	0.1529014

encoder_variable_selection.flattened_grn.gate_norm.glu.fc.bias f4 [14]
0	0x3f07fcda	0.53120196
1	0xbf23c26d	-0.63968545
2	0xbe54a8a4	-0.20767456
3	0xbeda16cd	-0.4259552
4	0xbd139911	-0.036034647
5	0xbf96fc30	-1.1795712
6	0x3f0babfc	0.545593
7	0xbeaa0fdb	-0.33215222
8	0xbe2c210a	-0.16809478
9	0xbe99ae93	-0.30016002
10	0x3d3d901c	0.04628001
11	0xbf609925	-0.8773368
12	0x3dc0f9c6	0.094226405
13	0x3d9790db	0.07400676

encoder_variable_selection.flattened_grn.gate_norm.add_norm.norm.weight f4 [7]
0	0x3f24812c	0.642596
1	0x3e410aaa	0.18851724
2	0x3f21a30e	0.63139427
3	0x3f59a510	0.8501749
4	0x3f2db185	0.67849
5	0x3fd63f91	1.6738149
6	0x3f43dfe7	0.7651352

encoder_variable_selection.flattened_grn.gate_norm.add_norm.norm.bias f4 [7]
0	0xbd980246	-0.074223086
1	0xbd1ad946	-0.037804864
2	0xbdfc277b	-0.12312218
3	0xbf3268c1	-0.6969109
4	0xbd64e531	-0.055882636
5	0xbcf6d6f0	-0.030131787
6	0x3e937d3d	0.28806487

encoder_variable_selection.single_variable_grns.SinWeekly.resample_norm.mask f4 [16]
0	0xbe83b796	-0.25726002
1	0xbd9b3ceb	-0.075799786
2	0xbede5285	-0.43422332
3	0xbcd5d8ea	-0.02610441
4	0xbe8a6d10	-0.27036333
5	0xbe1f2565	-0.15541609
6	0xbf725470	-0.9466009
7	0x3e687515	0.22700913
8	0x3ef5f064	0.48034966
9	0x3e91f438	0.28506637
10	0xbe846cb1	-0.25864175
11	0xbe90b5ad	-0.28263608
12	0x3d5b79a4	0.053582802
13	0xbf1503c9	-0.582089
14	0x3e805c28	0.2507031
15	0x3ef0b2d8	0.47011447

encoder_variable_selection.single_variable_grns.SinWeekly.resample_norm.norm.weight f4 [16]
0	0x3f68a911	0.90882975
1	0x3fafff33	1.3749756
2	0x3edfdc0f	0.4372258
3	0x3f815fac	1.0107322
4	0x3f57c53f	0.8428535
5	0x3f2c43bf	0.6729087
6	0x3f05cea7	0.5226845
7	0x3fd2acf4	1.6459031
8	0x3fc6284f	1.5481051
9	0x3faa675e	1.3312795
10	0x3f1df8fc	0.61708045
11	0x3dba1806	0.09086613
12	0x3f6dab55	0.92839557
13	0x3f22e891	0.6363612
14	0x3faae4c3	1.3351063
15	0x3f91c8b1	1.1389371

encoder_variable_selection.single_variable_grns.SinWeekly.resample_norm.norm.bias f4 [16]
0	0xbe510f89	-0.20416082
1	0xbe4ec234	-0.2019127
2	0x3ecd70d0	0.40125132
3	0xbd36819e	-0.044557206
4	0x3d34c424	0.044132367
5	0xbe0f29fb	-0.13980858
6	0xbf35392c	-0.7079036
7	0xbecba75b	-0.3977612
8	0x3e940d1b	0.2891625
9	0xbcfe347b	-0.031030884
10	0xbd90630a	-0.0705014
11	0x3e17185b	0.14755385
12	0x3e644f0e	0.22295782
13	0x3e48aba3	0.19596724
14	0xbd48fc21	-0.049068574
15	0x3e92d22f	0.28675982

encoder_variable_selection.single_variable_grns.SinWeekly.fc1.weight f4 [8, 8]
0	0x3f0d0a0d	0.5509346
1	0x3e2eff84	0.17089659
2	0xbe003db0	-0.12523532
3	0xbdc5431b	-0.0963194
4	0xbe17c033	-0.14819412
5	0x3ee6badd	0.4506444
6	0xbedb074c	-0.42779005
7	0xbc9e85c5	-0.019350896
8	0xbc9cd04a	-0.019142289
9	0xbf00b437	-0.50274986
10	0x3f6503f4	0.89459157
11	0x3e870c93	0.2637678
12	0x3e0a8392	0.13526753
13	0xbe060fec	-0.13092011
14	0x3ecdbe1f	0.40184113
15	0xbe0d671a	-0.13808861
16	0x3cb73c28	0.022367552
17	0xbecd791f	-0.4013147
18	0x3f8a8c5e	1.0824087
19	0xbed6f46d	-0.41983357
20	0x3f54b896	0.83094156
21	0xbefcb6c3	-0.49358186
22	0xbee199d9	-0.4406269
23	0xbf7508c1	-0.9571648
24	0x3e6175b6	0.2201756
25	0x3f85daf7	1.0457448
26	0x3e013304	0.12617117
27	0x3e4cebc1	0.20011808
28	0xbef4f7d8	-0.4784534
29	0xbf6a0dec	-0.91427493
30	0xbf1dff13	-0.6171734
31	0xbfacc093	-1.3496269
32	0x3fc252d1	1.5181524
33	0xbe9a6ba2	-0.30160242
34	0xbe8808e2	-0.26569277
35	0xbe2e46f9	-0.17019261
36	0xbf3d8b78	-0.7404094
37	0x3c6f2dd5	0.01459833
38	0xbf55b4e2	-0.8347913
39	0x3f28d1a8	0.6594491
40	0xbed1d1f9	-0.4098051
41	0x3d342b61	0.04398668
42	0x3f1c263b	0.60995835
43	0x3d8ce7f0	0.06880176
44	0x3f3e7593	0.74398154
45	0xbfb40a06	-1.4065559
46	0x3e8b60e3	0.27222356
47	0xbda792de	-0.081823096
48	0xbec72bc3	-0.38900575
49	0x3fbc8ff6	1.4731433
50	0x3db17d27	0.08666449
51	0x3f132bce	0.57488716
52	0xbefada44	-0.48994648
53	0xbf014ef1	-0.5051108
54	0x3d378a78	0.04480979
55	0xbf5910d3	-0.84791297
56	0xbed3089f	-0.41217515
57	0xbe8351b0	-0.2564826
58	0x3ec4e38c	0.38454854
59	0xc03fdb1f	-2.997749
60	0xbea06011	-0.31323293
61	0xbd3dec8b	-0.046368163
62	0x403feb8a	2.9987512
63	0x3f6fcf41	0.9367562

encoder_variable_selection.single_variable_grns.SinWeekly.fc1.bias f4 [8]
0	0xbd4414f8	-0.04787156
1	0x3d9c31ec	0.07626709
2	0x3e47209b	0.19446032
3	0xbe12cd41	-0.1433611
4	0xbc7f06f4	-0.015565623
5	0x3d7ed776	0.0622172
6	0xbd0ff16c	-0.035142347
7	0xbee114c9	-0.4396117
