TFT-pytorch/results/age_subgroup_cs_server/AGE2029/checkpoints/best-epoch=4.ckpt (torch, 702903 bytes, 506 tensors)

prescalers.AGE2029.weight f4 [8, 1]
000000 85 1f 52 be f2 1c 86 bf db 8c 02 3e fe b2 47 3f
       -0.20519836 -1.0477583 0.12749045 0.78007495
000010 10 f1 61 3e d7 8f 0c bf 1e b5 a2 bf aa 41 84 3f
       0.22064614 -0.5490698 -1.2711523 1.0332539

prescalers.AGE2029.bias f4 [8]
000000 bb f3 91 bc 81 3b 34 3f 58 de 43 3e f6 72 c2 bd
       -0.017816415 0.70403296 0.19127786 -0.09494583
000010 24 21 9b 3c 8d e8 a2 bd 70 55 a8 3d 0f 43 95 be
       0.018936701 -0.07954512 0.08219421 -0.29152724

prescalers.SinWeekly.weight f4 [8, 1]
000000 3c 2b 5f 3d 3d ac 99 bf 89 01 59 3f f9 b9 81 bf
       0.05448459 -1.2005688 0.8476797 -1.0134879
000010 26 5d 3c 3f 7c 44 4a be cd 47 56 3f de 9f e3 3e
       0.73579633 -0.19752687 0.8370331 0.44457906

prescalers.SinWeekly.bias f4 [8]
000000 9e 87 a8 3e 0a df 2a be 9f 62 6e 3f f4 4f c7 3e
       0.32915968 -0.16686645 0.93119234 0.38928187
000010 0e 4d 15 3f 38 0e 25 bf 54 27 1a 3f 1a df 9e 3e
       0.583207 -0.6447482 0.6021626 0.31029588

prescalers.VaccinationFull.weight f4 [8, 1]
000000 ca 4a 8a 39 1e 48 f0 3e 9b d6 26 3f 24 79 63 3f
       0.00026377133 0.4693002 0.6517121 0.8885672
000010 81 16 8c be 6f e6 64 bf 12 32 f6 be 7c 1f 27 bf
       -0.2736092 -0.89414114 -0.48085076 -0.65282416

prescalers.VaccinationFull.bias f4 [8]
000000 d6 74 a6 3e b0 51 15 bf 32 39 76 be 5a 78 90 3f
       0.32511014 -0.5832777 -0.24045256 1.1286728
000010 9d ef 5d 3f e6 8a 1b 3e cb 82 2b be 06 ab a0 3e
       0.86693746 0.15189704 -0.16749112 0.3138048

prescalers.Cases.weight f4 [8, 1]
000000 f9 77 10 3f 33 91 a2 bf 71 b5 3d bf b4 6b 38 3f
       0.56433064 -1.2700561 -0.7410498 0.7203934
000010 83 97 b0 3f e8 8e 47 3e 48 24 0b bf b1 e1 cd 3e
       1.3796238 0.19488108 -0.54352236 0.4021125

prescalers.Cases.bias f4 [8]
000000 5a 17 44 bf 1f 6b 56 be 40 09 28 3f bb 56 d7 3e
       -0.7659813 -0.20939301 0.65639114 0.42058358
000010 0d fe bf 3c 80 fa d0 3a ec 76 d0 3e c0 25 5d bf
       0.02343657 0.0015943795 0.4071573 -0.86385727

static_variable_selection.single_variable_grns.AGE2029.resample_norm.mask f4 [16]
000000 2e 0c f4 be a5 60 18 3e 09 2b 0f bd ce bc 9d be
       -0.47665542 0.14880617 -0.03495315 -0.3080811
000010 f4 ae 5c be 2f f9 96 be 58 21 05 3e ea 72 e5 3e
       -0.21551114 -0.29486987 0.13001001 0.44814235
000020 ad 53 c0 bd ee 34 3f bf 69 6a 50 be f8 5c 50 3e
       -0.0939096 -0.7469014 -0.20353092 0.20347965
000030 f4 6e a8 be 9d cb 3d 3f 6a ce 40 be 94 12 3a 3f
       -0.3289715 0.74138814 -0.1882874 0.726846

static_variable_selection.single_variable_grns.AGE2029.resample_norm.norm.weight f4 [16]
000000 a5 fb 68 3f 9d cb 98 3f 9b a4 b0 3f 5e f8 8c 3f
       0.9100898 1.1937138 1.3800234 1.1013296
000010 3d 30 7b 3f 1b e9 7f 3f 26 56 9c 3f a8 01 c5 3f
       0.9812048 0.99965066 1.221379 1.539113
000020 fe 17 7b 3f d3 55 3f 3f 19 2e 8d 3f 76 b3 aa 3f
       0.98083484 0.7474033 1.1029693 1.3336017
000030 2a 91 59 3f f9 e8 d4 3f c1 69 7b 3f 60 a2 db 3f
       0.8498713 1.6633598 0.9820824 1.7158928

static_variable_selection.single_variable_grns.AGE2029.resample_norm.norm.bias f4 [16]
000000 8a ca 09 be 5b 12 bd be 67 e4 7d 3e fc d8 c7 3d
       -0.13456169 -0.36928067 0.2479416 0.09758183
000010 4f b8 19 3e 80 1c 12 3e 12 82 ab bd a0 0a 88 3e
       0.15011714 0.14268684 -0.08374418 0.26570606
000020 87 5b 99 be c0 55 74 3e d2 99 e9 3d ca 84 83 be
       -0.29952642 0.23860836 0.11406292 -0.25687248
000030 84 8f 92 3e cb 21 27 be 60 88 97 bb 9a a8 35 3d
       0.2862512 -0.16321485 -0.0046244115 0.044350244

static_variable_selection.single_variable_grns.AGE2029.fc1.weight f4 [8, 8]
000000 ed 6d 07 3f 27 2c 5b bf 39 3b 07 bf 5c 42 ba be
       0.5290211 -0.85614246 -0.5282474 -0.36378753
000010 80 37 34 bd 29 d6 b9 bf de 91 c5 3d 12 f3 4b bd
       -0.04399824 -1.4518481 0.096469626 -0.049792357
000020 3e 0f d3 be ca 06 bd bf 16 9f 03 be 87 2a 7d 3f
       -0.41222566 -1.4767697 -0.12853655 0.98893017
000030 ce a3 4d 3d ce ac 0b bf ff f0 8f 3e 35 c2 31 3f
       0.050205044 -0.54560554 0.28113553 0.6943696
000040 1b 7e d2 3e 93 a8 06 be 34 2c 23 3f 13 c0 2a 3e
       0.41111836 -0.13150243 0.63739324 0.16674833
000050 30 9d 08 3d 6c ca 80 be 41 45 95 bd a0 60 39 3e
       0.03335303 -0.25154436 -0.072886 0.18103266
000060 c0 cc 47 bf 31 1b db bd e9 5e a0 3c 78 68 b7 be
       -0.780468 -0.10698546 0.019576507 -0.3582189
000070 95 7a e6 3d 57 78 cb 3d da 9e ef bd 89 90 1f 3f
       0.112538494 0.099350624 -0.117002204 0.6232992
000080 48 3f 2c bf aa a5 23 3f bc c8 3b 3c 75 58 ed bd
       -0.6728406 0.6392466 0.011461433 -0.115891375
000090 ea 2a 0b bf 02 9d 49 3f 53 ff 50 3e 00 91 2a be
       -0.54362357 0.787552 0.20409898 -0.16656876
0000a0 ed 7e 83 bd c0 55 57 3e 03 70 46 be ae a2 ad be
       -0.064206935 0.21028805 -0.19378667 -0.33913177
0000b0 fc 2f ef 3e aa c4 d9 be 80 2d ce 3e c8 d0 47 bf
       0.46716297 -0.42532855 0.4026909 -0.7805295
0000c0 1f 87 35 be 5e 2b a2 bf 92 a7 6e 3e 53 46 84 3f
       -0.17727326 -1.2669485 0.2330611 1.0333961
0000d0 d8 4d 14 3e a4 21 50 3f 21 bb f4 be e9 0d 38 3f
       0.1448282 0.8130133 -0.47799018 0.71896225
0000e0 8e 94 c8 be c4 cb 81 bf 3c 88 be bd f6 c2 56 3f
       -0.39175838 -1.0140309 -0.093033284 0.83891237
0000f0 2a f4 0e 3e 5c 41 03 bf ab 20 47 bd 8d 97 29 3f
       0.13960329 -0.51271605 -0.04861514 0.66246873

static_variable_selection.single_variable_grns.AGE2029.fc1.bias f4 [8]
000000 f4 7c 3e be 0b 8f 07 bb c1 58 21 be af d5 e6 3d
       -0.18602353 -0.0020684625 -0.15756513 0.11271226
000010 cc f3 46 3e c9 4c 23 3e cf cc 9b 3e e8 fc dd bd
       0.19428939 0.1594726 0.30429694 -0.10839254

static_variable_selection.single_variable_grns.AGE2029.fc2.weight f4 [8, 8]
000000 ee 38 be bd f8 d4 48 3f 15 b2 6b 3e a1 e5 9b bd
       -0.09288202 0.78449965 0.23017152 -0.076121576
000010 71 07 bd bd de c3 f4 be b5 62 37 3f 5f 50 9f 3f
       -0.09229935 -0.47805685 0.7163499 1.2446402
000020 90 45 91 be f2 59 24 be 40 50 a3 3e d5 2f b0 bd
       -0.28373384 -0.16049936 0.31897163 -0.08602873
000030 24 bc 15 be 33 c5 8e be 31 2f e9 3e ff 8d fe 3e
       -0.14622551 -0.27884826 0.45543817 0.4971771
000040 24 56 d7 3d 05 e5 55 3f 80 e8 32 be 97 7c 60 3e
       0.10514477 0.8355258 -0.17471504 0.21922527
000050 16 c0 4d be 78 e0 30 bf 08 97 aa 3e 43 e4 6a 3f
       -0.20092806 -0.6909251 0.33318353 0.9175455
000060 8a a8 94 3e e0 87 6e bd ad 31 fc 3e 01 5f 66 bd
       0.29034835 -0.05823505 0.4925665 -0.056242947
000070 c1 42 3d be d9 66 93 be 72 de 1c 3f e5 ba 1d bf
       -0.18482496 -0.28789404 0.61276925 -0.61613303
000080 81 61 2c 3e 8f e5 53 be d3 29 17 3e f9 5a 72 3d
       0.1683407 -0.20693038 0.14762048 0.05916879
000090 c2 31 1e 3d 83 75 c7 bd 84 6a 21 3f 98 df 6f 3e
       0.03862167 -0.097392105 0.63053155 0.23425138
0000a0 fc 66 63 be 6a 66 1a bf bb db f1 be 1d b4 a4 be
       -0.22207254 -0.6031252 -0.47237954 -0.32168666
0000b0 c5 52 20 3f 93 fd 39 3e f0 ab 92 bf eb 4d 91 be
       0.62626296 0.18163137 -1.1458721 -0.2837976
0000c0 78 37 02 bf 76 a3 72 be c3 39 82 bc 60 10 93 3e
       -0.5086589 -0.23695168 -0.015896684 0.2872343
0000d0 dc b0 c6 3e 11 5e a8 3e e9 df 25 bf 87 90 e5 be
       0.38806808 0.32884267 -0.64794785 -0.44836828
0000e0 ac 1a ce bb 0a 1e dc 3e 28 2a 93 be f3 3f 42 be
       -0.0062898006 0.42991668 -0.287431 -0.18969707
0000f0 2a dd b7 3e ba 91 52 3e f4 d8 d0 3e 2d 2e ad be
       0.35910922 0.20563403 0.40790522 -0.33824292

static_variable_selection.single_variable_grns.AGE2029.fc2.bias f4 [8]
000000 90 88 fe 3d b6 92 a1 3e 5d c2 9b be 0f a1 38 be
       0.12428391 0.31557244 -0.30421725 -0.18030189
000010 a5 55 32 be 9c 4b 52 bd 2d c7 59 3e 63 e8 02 3e
       -0.17415483 -0.051341638 0.21267386 0.12783961

static_variable_selection.single_variable_grns.AGE2029.gate_norm.glu.fc.weight f4 [32, 8]
000000 58 90 1b 3e 05 d0 20 3f d0 d4 ec bd a9 c9 25 bf
       0.15191782 0.6281741 -0.11564028 -0.64760834
000010 89 c9 b8 3e 35 ec 84 3d 72 b7 80 be 51 50 1d 3f
       0.3609126 0.064903654 -0.25139958 0.6145068
000020 a5 c6 3e be 61 4a a0 be 6e df 96 be ee 06 62 3d
       -0.18630464 -0.31306747 -0.29467338 0.05518239
000030 f0 6e 21 bf 01 7b b9 3e 3b 17 8f 3e d9 72 04 be
       -0.630599 0.36226657 0.2794741 -0.12934436
000040 b5 fe 00 be e3 26 41 be bf 71 05 bf 68 f2 7c 3e
       -0.12597163 -0.1886249 -0.5212669 0.24701846
000050 c8 12 da be ab 42 38 be 07 ca 53 3e 94 68 b0 3e
       -0.42592454 -0.17994182 0.20682536 0.34454787
000060 20 7f 89 be 6b dd 3f 3d 11 58 96 be 2f 29 2c 3e
       -0.268548 0.04684202 -0.29364064 0.16812585
000070 c2 1e 4d 3d db 35 25 be aa 64 f9 3c e1 15 10 3d
       0.05007816 -0.16133825 0.030443508 0.035177115
000080 bf 10 4d 3e 5e 67 8f 3d 01 b3 d7 3e b8 65 b3 bd
       0.2002592 0.070021376 0.42128757 -0.08759636
000090 9b f8 9a 3e 45 ef dd be cd 06 e3 be 6f 5b fe be
       0.30267796 -0.4334661 -0.44341126 -0.49679133
0000a0 0d 64 46 3f ad 83 2f 3e 9e 80 1d 3f 04 a1 bc bd
       0.77496415 0.17140074 0.6152438 -0.09210399
0000b0 6f 5c 58 3f 66 5f 49 bf ef 8c bc be bc 3a 43 bd
       0.8451604 -0.7866119 -0.36826274 -0.047663435
0000c0 06 b6 2a bb 98 9f f5 be 99 de aa 3e a8 c6 68 bd
       -0.0026048436 -0.47973323 0.33372954 -0.05683008
0000d0 8d 71 80 bd e0 91 bd be 99 e1 6f 3e ee 25 02 3f
       -0.06271658 -0.37025356 0.23425902 0.50839126
0000e0 cb b8 0f be 48 57 a0 3d 44 19 c2 be 1b e3 02 3e
       -0.14035337 0.078291476 -0.379099 0.12781946
0000f0 ad c7 cb be 53 94 8d 3e d6 12 24 3f 2f 1c f0 3d
       -0.39800778 0.27652225 0.6409124 0.117241256
000100 06 7d 3e bf 33 55 41 bf 66 0f f9 be 2c 61 29 bd
       -0.7440952 -0.7552063 -0.4864456 -0.041352436
000110 8a 2c fb bd 80 98 97 3f 81 f3 45 3f c1 4b 34 3f
       -0.122643545 1.1843414 0.7732468 0.7042809
000120 fe 8a 55 3f df dc f2 3e 89 ba 21 3f ee f2 76 3d
       0.8341521 0.47434136 0.63175255 0.06029027
000130 a9 f1 46 3e 7e 1b 9d be 20 fb 4b bf 84 cf 17 bf
       0.19428124 -0.30685037 -0.7968006 -0.5930102
000140 ba 30 1f 3e 2c cd 88 3d 28 d6 f7 3e 70 b0 1e bd
       0.15545931 0.066797584 0.48405576 -0.038742483
000150 87 33 00 3e fa ba 02 bf 77 9f 98 be 1e 19 80 3d
       0.12519656 -0.51066554 -0.29809162 0.06254791
000160 ac 25 f4 bd cd ce 94 3c 7b 89 e8 3e 0a f5 85 be
       -0.11921248 0.018165017 0.4541739 -0.26163512
000170 c9 d3 00 3f b9 29 a1 be 6f b5 aa be 94 ac 80 3e
       0.5032316 -0.31477144 -0.33341548 0.25131667
000180 0c b4 8d 3e 88 dd 41 3f 4e 7b 10 3f c0 15 0a bd
       0.27676427 0.75728655 0.5643815 -0.03371215
000190 17 e9 7b bc d6 59 02 bf 60 86 02 bd a9 ae 4f be
       -0.015375397 -0.5091833 -0.03186643 -0.20281471
0001a0 49 83 42 bf 0a a6 64 be 86 0b 3b bf fa 94 44 bc
       -0.75981575 -0.22328964 -0.7306446 -0.011998409
0001b0 b3 13 d7 be 5c b0 34 3f e6 8c 3a 3f b7 10 ba 3e
       -0.42007217 0.70581603 0.72871244 0.36340877
0001c0 6a e7 c3 3e d6 0c 84 3f f5 6b 0c 3f 1b 98 bb be
       0.38262492 1.0316417 0.5485223 -0.36639485
0001d0 7c 0d 23 be 71 76 a9 be 4c 83 74 be c6 f8 0b be
       -0.15923113 -0.33098176 -0.23878211 -0.13669118
0001e0 e8 ba 3f bf 07 aa 90 bd a3 b8 0a bf 67 99 46 3e
       -0.7489457 -0.0706368 -0.54187983 0.19394456
0001f0 b6 94 4d 3e ce 24 10 3f 2e e2 a8 3e 35 34 2d be
       0.2007626 0.5630616 0.3298506 -0.16914447
000200 c7 d0 a7 be cb 8a 54 bf 76 af 48 be 9b 9b f5 3d
       -0.32776472 -0.8302428 -0.19598183 0.1199257
000210 fe a5 64 3c 20 e6 42 3e b9 fc ed be 2f 92 f0 3e
       0.013955591 0.19033098 -0.46481875 0.4698653
000220 af 0d 9f 3b 9c 6c 25 bf 99 6f 78 bf 6f bf cc be
       0.004853926 -0.6461885 -0.97045285 -0.39989802
000230 a8 b5 2a 3e 65 3a a3 3e 77 c0 e6 3d fd 2c 19 3f
       0.16670859 0.3188049 0.112671785 0.5983427
000240 bb 45 57 3e c2 07 af bd cf 00 9e bd b5 cd 0f 3f
       0.21022694 -0.085464016 -0.07714998 0.5617326
000250 f3 8c 0e be c1 0a 26 bd b6 29 a1 be 1f c8 52 3e
       -0.13920955 -0.0405376 -0.31477135 0.20584153
000260 72 c7 dc 3d 80 13 3b 3e 7f be ed bd 6c 95 ff 3e
       0.10780229 0.18269157 -0.116086 0.49918687
000270 59 37 38 3f 1c 3d 92 3e d1 5b 28 bf 7f f2 15 3f
       0.71959454 0.28562248 -0.657651 0.58573145
000280 bb 6c 11 3f a9 76 31 bd d2 0a a7 3e 22 35 1f 3d
       0.56806535 -0.043326054 0.32625443 0.03886903
000290 6f d1 ac 3e 68 fa 13 bf b7 4a 81 bf 71 1a 82 be
       0.33753535 -0.57803965 -1.0100926 -0.25410798
0002a0 bb b4 4b 3f 86 b9 a5 be d8 77 48 3f 61 91 a6 3e
       0.7957265 -0.32368106 0.7830787 0.3253279
0002b0 3e 35 32 3f 51 2f d9 bd 87 99 22 bf 65 8b 40 3f
       0.6961249 -0.10604728 -0.63515514 0.752127
0002c0 00 c8 31 3e 14 cb 41 3f 6f 19 84 be b3 f4 49 3e
       0.1736145 0.757005 -0.25800654 0.19722252
0002d0 13 d4 5b bd 15 7d 0b be 90 fd ba bd a4 f6 86 be
       -0.053669047 -0.13621934 -0.091303945 -0.26360047
0002e0 e9 2c 60 3e 8c 83 1c 3f d6 c5 d7 3e 9b 3c a6 3e
       0.21892132 0.61138225 0.42143124 0.32468113
0002f0 6e c5 96 3e b1 5d af be 08 ad 12 be 0b 39 ab be
       0.29447502 -0.34251168 -0.14323819 -0.33441958
000300 f0 e6 e2 3e 2c 76 7e 3e 7f e4 39 3f f9 21 ec 3c
       0.44316816 0.24849766 0.7261428 0.028824793
000310 d9 55 b9 3e 87 8c d7 be 4a 28 a1 be c4 f1 40 3e
       0.3619831 -0.420994 -0.3147605 0.18842226
000320 66 6a 26 be d0 a5 94 3e 4d 0a 06 bf 66 73 3e be
       -0.16251525 0.29032755 -0.5235947 -0.18598709
000330 77 8d 21 3e d1 d6 bc bd b6 73 a8 3d d6 ce 83 3e
       0.15776621 -0.092206605 0.08225195 0.2574374
000340 9b 59 c4 3e fe d8 1b be 91 41 dd 3e a5 82 cd 3d
       0.38349614 -0.15219495 0.43214086 0.10034684
000350 e2 2f 6e be f9 17 e2 be cb eb 9e be 6e f4 0a be
       -0.23260453 -0.44158915 -0.3103927 -0.13569805
000360 83 8e 41 3c bb 3b c7 3e b0 e9 89 3f f2 20 bf 3e
       0.011813763 0.38912758 1.0774441 0.37329823
000370 75 48 f3 bd b3 68 0f be c9 7c f1 bd 08 34 54 be
       -0.118790545 -0.14004783 -0.11791379 -0.20722973
000380 a3 e5 19 3f 38 f1 a7 3e 6a 1a 3e 3f 9f d4 b0 3e
       0.6011602 0.32801223 0.74259055 0.34537217
000390 29 2b 11 3f 03 a9 24 bf b3 79 16 bf 99 01 b0 3e
       0.5670648 -0.6432039 -0.5877945 0.3437622
0003a0 2b 09 e3 bd e7 0c 5f 3e ad 64 61 bf 9f b2 ee be
       -0.11085733 0.21782266 -0.88044244 -0.46620652
0003b0 0a 69 98 be 71 a7 be 3e bd e9 ad 3d 80 5f 87 3d
       -0.29767638 0.37237123 0.08491848 0.06610012
0003c0 fd 0a b6 3f f1 d0 cc 3e cd d8 a6 3e c1 6c 09 bf
       1.4222103 0.4000316 0.3258728 -0.5368157
0003d0 1b 1f bc 3e 47 56 64 bf f3 ef 01 be cf 3a 2b 3e
       0.36742482 -0.8919415 -0.1268919 0.16721652
0003e0 82 6d 08 3f 17 77 51 bd 77 d5 58 3e 78 a0 be 3d
       0.53292096 -0.051138964 0.2117518 0.09307951
0003f0 b7 76 05 3f 99 dd 93 bf ba bf 43 be da e2 58 3e
       0.5213427 -1.1552001 -0.19116107 0.21180287

static_variable_selection.single_variable_grns.AGE2029.gate_norm.glu.fc.bias f4 [32]
000000 bb e6 4f be d9 08 10 3c 51 73 d2 3d c7 f3 62 3d
       -0.2030286 0.008791172 0.10275901 0.055408265
000010 ad 75 b7 3e 5c 9e 02 3e c1 30 af bd 75 d5 8a 3e
       0.35831967 0.12755722 -0.08554221 0.2711598
000020 54 80 fd be 65 05 78 bc 0a 06 49 3e 10 95 8b be
       -0.4951197 -0.015138005 0.1963121 -0.27262163
000030 39 ef eb 3e e6 88 63 3e 71 e8 ec 3e 0a 02 36 bd
       0.4608095 0.22220191 0.4627109 -0.04443554
000040 df ab 1d be 27 fc bb be f8 b3 e4 be 28 98 67 bf
       -0.15397595 -0.36715814 -0.44668555 -0.90466547
000050 a6 1e 09 bf 35 1f 39 bf 95 16 72 be ae b9 02 bf
       -0.5356239 -0.72313243 -0.23641427 -0.51064575
000060 e5 79 14 be 9b ca 2c 3f c3 81 1b bf 46 95 59 be
       -0.14499624 0.6749665 -0.60744876 -0.2124835
000070 53 8e 27 bf 44 aa 31 3f 6e 24 6a be f2 44 1a bf
       -0.65451545 0.6940043 -0.2286546 -0.6026145

static_variable_selection.single_variable_grns.AGE2029.gate_norm.add_norm.norm.weight f4 [16]
000000 82 91 1a 3f ca 1d 5c 3f 6b 4d c9 3f 50 47 97 3f
       0.6037828 0.85982955 1.5726751 1.1818638
000010 49 ec 88 3f 22 81 8e 3f 68 bc 57 3f 01 f7 83 3f
       1.0697109 1.1133158 0.8427186 1.0309755
000020 d9 ff cc 3f db 83 a3 3f b9 8b 8a 3f 5e 9b 9c 3f
       1.6015579 1.2774614 1.082389 1.2234914
000030 5c 15 42 3f 1f cf c3 3f aa ae 6d 3f da 75 bb 3f
       0.7581384 1.5297583 0.9284464 1.464534

static_variable_selection.single_variable_grns.AGE2029.gate_norm.add_norm.norm.bias f4 [16]
000000 df 44 b7 bd 70 66 a1 be d6 f4 d0 3e 44 b4 7b 3e
       -0.08948683 -0.31523466 0.40811795 0.24580485
000010 59 cf aa 3e 3e d3 b0 3e 47 6d 93 bb e7 2a 49 3e
       0.3336132 0.34536165 -0.004499111 0.19645272
000020 e3 61 07 bf f3 7e 9e bd 72 85 5a 3e 32 02 b0 be
       -0.5288374 -0.077390574 0.21339968 -0.34376675
000030 20 31 ba 3e f0 67 46 be 96 d3 49 3e b4 d6 84 3c
       0.36365604 -0.19375587 0.1970962 0.01621566

static_variable_selection.prescalers.AGE2029.weight f4 [8, 1]
000000 85 1f 52 be f2 1c 86 bf db 8c 02 3e fe b2 47 3f
       -0.20519836 -1.0477583 0.12749045 0.78007495
000010 10 f1 61 3e d7 8f 0c bf 1e b5 a2 bf aa 41 84 3f
       0.22064614 -0.5490698 -1.2711523 1.0332539

static_variable_selection.prescalers.AGE2029.bias f4 [8]
000000 bb f3 91 bc 81 3b 34 3f 58 de 43 3e f6 72 c2 bd
       -0.017816415 0.70403296 0.19127786 -0.09494583
000010 24 21 9b 3c 8d e8 a2 bd 70 55 a8 3d 0f 43 95 be
       0.018936701 -0.07954512 0.08219421 -0.29152724

encoder_variable_selection.flattened_grn.resample_norm.mask f4 [3]
000000 c9 b2 46 bf db e5 96 3d 7c ff b8 3e
       -0.77616554 0.0736806 0.3613242

encoder_variable_selection.flattened_grn.resample_norm.norm.weight f4 [3]
000000 04 0e 49 3f eb 75 99 3f 2b 91 14 40
       0.7853701 1.1989111 2.3213603

encoder_variable_selection.flattened_grn.resample_norm.norm.bias f4 [3]
000000 23 2e 8e 3e 30 0f bf 3c 79 2b 14 bf
       0.27769575 0.023322672 -0.57878834

encoder_variable_selection.flattened_grn.fc1.weight f4 [3, 24]
000000 3d 0c e3 3e 95 18 0f bf ae 5c a7 3e 7f b7 a8 be
       0.44345275 -0.55896884 0.32687896 -0.32952496
000010 10 42 8d 3e e9 f3 1e 3e 9f 74 fa 3d ac 95 fa 3d
       0.27589464 0.15522732 0.12229275 0.12235579
000020 62 23 1a bf d4 c3 10 3d 31 26 be 3c 8e 4c b2 bf
       -0.6021024 0.035343006 0.02321157 -1.3929613
000030 ca ae a2 bd 20 01 15 3e 84 d8 95 3e c6 38 3c 3e
       -0.079434946 0.1455121 0.2926675 0.18381032
000040 9c c1 25 3f 80 bc 4d bf ad 8c 25 3e ae 13 68 3d
       0.6474855 -0.80365753 0.16166945 0.056659393
000050 fb b2 50 3e 3d eb 86 be 86 a9 82 3c d0 b9 d4 3e
       0.20380776 -0.26351348 0.015949976 0.41548014
000060 18 ca 9f 3c 76 3d 5f 3f 9c 18 80 bf 9f 0b 91 3e
       0.019505545 0.87203157 -1.000751 0.2832918
000070 2c 7e 2e bf 77 f6 56 3e f9 21 31 bf 44 e5 51 be
       -0.68161273 0.20992456 -0.69192463 -0.20497614
000080 df c0 9d be 59 14 12 3e 38 9b 2d bf 43 65 02 bf
       -0.3081121 0.14265575 -0.6781497 -0.50935763
000090 a7 e6 23 3d eb 39 41 3e 74 53 3e 3f e6 5a c8 3e
       0.04001489 0.1886975 0.7434609 0.3913185
0000a0 ed e3 b5 3e 42 fe 0b be 0a 95 3e bf 90 b9 65 bd
       0.35525456 -0.1367121 -0.74446166 -0.05608517
0000b0 f6 01 11 3e 94 a6 a9 3e 58 bb 7a be 1f 6a c8 3e
       0.14160904 0.33134902 -0.24485528 0.39143464
0000c0 c2 24 0b 3e 77 1c f3 bd 86 4b cc be 39 ae a0 3e
       0.1358824 -0.118706636 -0.3990137 0.3138292
0000d0 59 78 71 3d 15 28 11 3f 51 08 ba be a7 3e a1 3d
       0.058952663 0.56701785 -0.3633447 0.07873278
0000e0 b1 ab e2 be 9a 63 a0 3e a0 82 b2 3e 8d 02 a5 3e
       -0.44271615 0.3132599 0.34865284 0.3222851
0000f0 27 57 ca bd 8c 25 05 be 2b e9 45 3e e3 0b b8 3d
       -0.09879904 -0.13002604 0.19327228 0.08986642
000100 e7 e6 ee bd ad 8b 69 3f 1b b9 a0 3e 1b 60 78 bf
       -0.11665135 0.91228753 0.31391224 -0.97021645
000110 7b 08 3a bf 38 23 79 bf 48 67 a7 bd 68 c1 aa bc
       -0.7266919 -0.97319365 -0.08173996 -0.020844176

encoder_variable_selection.flattened_grn.fc1.bias f4 [3]
000000 51 91 8b be e7 74 b4 bd 27 37 3d be
       -0.27259305 -0.0881136 -0.1847807

encoder_variable_selection.flattened_grn.context.weight f4 [3, 16]
000000 25 bb 3a bd 6a b7 7b bc ee 1b 74 3d 50 86 4a bd
       -0.04558863 -0.015363554 0.05959695 -0.049444497
000010 6e 4f ef bc a0 34 3d bd 2b dc 11 bd 1f a5 2a 3d
       -0.02921268 -0.046192765 -0.03561036 0.041661378
000020 bb d0 6e 3c e1 0c bb bd 51 15 a0 bb e1 79 3b bc
       0.014576132 -0.09133316 -0.0048853536 -0.011442632
000030 f6 93 85 3c 5a 92 21 3d 13 d2 08 be 63 38 b3 bc
       0.016305905 0.039446212 -0.13361387 -0.021877473
000040 b1 28 8d bc 36 d1 7f bd 25 7e 2f 3d b2 dd 27 bc
       -0.017231317 -0.06245538 0.04284491 -0.010245727
000050 a4 a2 a7 3d 8a e9 1d 3f a8 19 dc 3d 4d ef 4e be
       0.08185318 0.6168448 0.10747081 -0.20208474
000060 d7 13 12 bc f7 4b cf bc 5a a6 96 3c ad 5d 5d bd
       -0.008915863 -0.025304778 0.01838987 -0.054044414
000070 1c 07 fb 3b 4a ed dc 3c f2 f1 d7 3d fe dd 67 3d
       0.0076607596 0.026968617 0.10544194 0.056608193
000080 34 bc d3 3d dd 7b fe 3d 67 e6 2b 3e 22 88 72 be
       0.10338631 0.12425969 0.1678711 -0.23684743
000090 d2 f1 14 bd 7f 5e 0c 3f 4d b4 cb 3e 42 a2 88 3d
       -0.03636343 0.5483169 0.39785996 0.06671573
0000a0 79 b5 42 bf 82 dc a7 bd 62 d1 bb be 25 53 a3 3e
       -0.76058155 -0.081963554 -0.36683184 0.31899372
0000b0 be 82 91 3e de 4a a3 3e 7b 6f 7a be 8d ac 9f be
       0.2842006 0.31893057 -0.24456589 -0.31186333

encoder_variable_selection.flattened_grn.fc2.weight f4 [3, 3]
000000 72 f7 41 bf 5d 9f a6 bf 1c 68 ce be b2 86 4e be
       -0.75768197 -1.3017384 -0.40313804 -0.2016857
000010 69 c6 56 bf ce d3 b0 be 76 9b a2 be aa 50 22 bf
       -0.838965 -0.34536594 -0.31759232 -0.63404334
000020 dc 63 57 bf
       -0.8413675

encoder_variable_selection.flattened_grn.fc2.bias f4 [3]
000000 64 a1 5e 3e 8e 94 83 bd 51 df 53 3d
       0.21741253 -0.06424819 0.051726643

encoder_variable_selection.flattened_grn.gate_norm.glu.fc.weight f4 [6, 3]
000000 e4 5f a0 3e d4 52 93 bd 3c 16 ed 3e ef 5b ac bd
       0.3132316 -0.071935326 0.46306026 -0.084159724
000010 c7 3b 05 bf 8f de c4 3e 61 78 85 be d7 a2 0a bf
       -0.5204434 0.3845105 -0.26068404 -0.54154724
000020 e7 72 a3 be f1 66 d9 be 3f fe e4 be 43 d9 09 3f
       -0.319236 -0.4246135 -0.44725224 0.5384714
000030 4e 92 64 3f 4a 2e 1a be 1e 1a 9f 3d 22 3a aa 3f
       0.89285743 -0.1505672 0.07768653 1.3298991
000040 51 97 7e 3e 8e f1 e0 3e
       0.2486241 0.43934292

encoder_variable_selection.flattened_grn.gate_norm.glu.fc.bias f4 [6]
000000 25 18 69 3e 13 13 9b bd 12 0e ef be be 62 a5 be
       0.22763117 -0.075719975 -0.46690422 -0.32301897
000010 8c d1 e3 bd d2 77 29 3e
       -0.11123952 0.16549614

encoder_variable_selection.flattened_grn.gate_norm.add_norm.norm.weight f4 [3]
000000 18 79 06 3d 48 26 21 3e 86 10 94 3e
       0.032830328 0.1573726 0.28918856

encoder_variable_selection.flattened_grn.gate_norm.add_norm.norm.bias f4 [3]
000000 cc 7f bf 3d e7 4a ff be 7a f7 13 3f
       0.09350547 -0.49861833 0.57799494

encoder_variable_selection.single_variable_grns.SinWeekly.resample_norm.mask f4 [16]
000000 3f 9b c3 3d 55 4a 8c bd fa 90 29 3e 71 f3 52 be
       0.09551095 -0.06850115 0.1655921 -0.20600678
000010 17 1c c0 bd a3 4a cd be db 02 06 3f 80 b3 27 bf
       -0.09380358 -0.40096006 0.5234811 -0.6550827
000020 d3 58 26 bf 88 3e 62 be 8d 99 06 bf 44 36 14 bf
       -0.64979285 -0.22094166 -0.5257805 -0.578953
000030 de 1c de be 91 8c 49 3e 75 61 3b 3f 82 14 8f 3e
       -0.433814 0.19682528 0.7319558 0.27945334

encoder_variable_selection.single_variable_grns.SinWeekly.resample_norm.norm.weight f4 [16]
000000 54 11 0c 3f 9a d5 01 3f e0 11 f3 3f 69 39 51 3f
       0.5471394 0.50716555 1.898983 0.81728226
000010 8d ef 87 3f 00 cb 40 3f 3f 8c d7 3f e0 5e 2d 3f
       1.061998 0.75309753 1.6839675 0.6772289
000020 9b 3a c9 3e 3f 35 34 3f 81 3d 52 3f af e1 59 3f
       0.39302525 0.7039375 0.821251 0.8510999
000030 70 3f 75 3f e7 86 8e 3f 5a 0a 07 40 24 40 82 3f
       0.9579992 1.1134919 2.1100068 1.0175824

encoder_variable_selection.single_variable_grns.SinWeekly.resample_norm.norm.bias f4 [16]
000000 20 ff 4d 3e 91 a1 bb 3d ec b5 d1 be d1 6a 35 3d
       0.20116854 0.09161676 -0.40959108 0.04429132
000010 30 a2 b7 bb 0d f1 76 be 80 18 ad be ee 41 55 be
       -0.005604051 -0.24115391 -0.33807755 -0.20825931
000020 b8 ec eb bc c3 51 0b bd 27 68 0f 3e d0 c5 cf 3e
       -0.0287994 -0.03401352 0.14004575 0.40580606
000030 16 58 47 bd 92 bd 7a 3e 16 cb 23 bd 88 03 5b 3e
       -0.04866799 0.24486378 -0.0399886 0.21388066

encoder_variable_selection.single_variable_grns.SinWeekly.fc1.weight f4 [8, 8]
000000 cc 72 3b 3f 50 0f d1 bf ce 3d 4c bf 6f 65 0b c0
       0.7322204 -1.6332798 -0.79781806 -2.178066
000010 e3 fa 88 be 5c 6b 21 3d 91 d9 c4 3e 07 a0 11 3f
       -0.2675391 0.039409027 0.3844724 0.5688481
000020 ad 3f 09 bf 2b 1d b1 3e 5f 4e bc bf 3a 73 46 be
       -0.53612787 0.34592566 -1.4711417 -0.19379893
000030 11 a3 46 bf e5 60 8e 3f ab b0 4e bf f4 4e e5 be
       -0.7759257 1.112332 -0.80738324 -0.447868
000040 0e 8b cc be e2 58 5f 3d 83 84 db be c6 33 b0 3e
       -0.3994984 0.054528125 -0.42874536 0.344145
000050 8c f4 4f bf da a5 e4 3e 54 ef 6b 3f b2 a5 45 3e
       -0.81232524 0.44657785 0.9216206 0.19301489
000060 0a 86 5e 3e 98 3b 0b 3e 81 21 eb be 61 2f 3c 3e
       0.2173082 0.13596952 -0.45924 0.18377449
000070 e0 07 82 3e 90 cb 48 3e 0d 23 58 3e 77 53 13 3f
       0.25396633 0.19608903 0.21107121 0.5754923
000080 65 d6 56 bf b8 c0 97 3d ef f2 78 3f 59 73 3c 3e
       -0.8392089 0.07409805 0.9724569 0.18403377
000090 0a 38 94 3b 79 9f 52 3f 65 3e e4 3e 67 b4 92 bf
       0.004523282 0.82274586 0.44578853 -1.1461304
0000a0 6d 4e 33 3f 52 4d 63 be 80 2f 30 bf 42 db c6 3d
       0.70041543 -0.22197464 -0.6882248 0.09709789
0000b0 1b e4 11 3e ca e2 ac be 21 8b 4e be d8 be 6b 3e
       0.14247172 -0.33766776 -0.20170261 0.2302202
0000c0 96 a4 a4 bf 79 ab 22 bd ab 4a 3a c0 be 7a 11 3f
       -1.2862728 -0.03971431 -2.9108074 0.56827915
0000d0 7d a3 95 bf 50 3f ab 3e ce 8b a6 bf e5 52 15 bf
       -1.1690518 0.3344674 -1.3011415 -0.5832961
0000e0 f5 09 8f 3e 6b 13 49 3d fc b0 1b bf 96 08 84 3e
       0.27937284 0.049090784 -0.6081693 0.257878
0000f0 ba b6 66 3f 2f 0f f7 3e ba a9 85 bd 63 b2 b3 3e
       0.9012257 0.48253772 -0.065265134 0.35097036

encoder_variable_selection.single_variable_grns.SinWeekly.fc1.bias f4 [8]
000000 07 30 8f be 8e e5 59 be a5 82 90 3c 8d d3 fc bd
       -0.2796633 -0.21278974 0.017640421 -0.123450376
000010 a8 b2 2c bd f1 ec cc bb a2 6f a2 be 7c 05 59 bd
       -0.042162567 -0.0062538316 -0.31725794 -0.052983746

encoder_variable_selection.single_variable_grns.SinWeekly.fc2.weight f4 [8, 8]
000000 17 c3 76 bf ce be 0e 3e cd 42 7e bf 92 84 9f be
       -0.96391433 0.13939974 -0.9932068 -0.3115583
000010 d5 1d 7d be e5 bd cf 3c 6e 81 2f 3f 23 a4 a0 bd
       -0.24718411 0.025359103 0.6855687 -0.078438066
000020 ce dd a0 3b f1 a1 2a be 02 bd aa 3e 89 24 a8 3d
       0.0049092537 -0.16663338 0.33347327 0.082100935
000030 a9 3b de 3d 0e eb 0e 3e 33 a2 42 3f 50 4c b8 3e
       0.10851223 0.13956854 0.76028746 0.35995722
000040 d1 8e 3d 3f 04 4c 4f be 58 50 eb 3d 22 1d 85 bd
       0.74046046 -0.20243841 0.11489934 -0.06499697
000050 eb f2 b0 3d 3d 73 4c 3d c9 46 6e 3f bf 2d e1 3e
       0.08640083 0.049914587 0.9307676 0.43980214
000060 f0 b3 2a 3f 15 e1 52 3f 01 9f 19 3e 3e d8 26 3d
       0.6668081 0.823747 0.15002061 0.04073357
000070 48 3d e3 3d a8 e9 c3 be 5b fc be 3e 66 eb 81 be
       0.11095673 -0.38264203 0.37301907 -0.25374907
000080 33 6e 1e bf 43 84 6b 3f f4 5e f0 be 30 84 64 3e
       -0.618869 0.9199869 -0.46947443 0.2231605
000090 f1 33 aa bd 1e 06 85 3e 24 32 ae 3e e8 6c 34 be
       -0.08310688 0.2598123 0.3402263 -0.1761967
0000a0 0d 76 1e 3f b6 ad e8 bd 08 45 87 be 73 43 a9 bd
       0.6189888 -0.11361258 -0.26419854 -0.08264818
0000b0 c4 78 a0 be b8 61 8c 3e 14 49 86 3c c3 5f 98 bb
       -0.31342137 0.27418303 0.016392268 -0.0046500876
0000c0 4f b0 fe be fd 17 ae be b4 a1 a2 bd 9e 8a 7e bd
       -0.49743888 -0.34002677 -0.07940999 -0.062143914
0000d0 6c 7a 2c 3e 75 04 d2 bd 71 7d 34 bf 5e eb 95 3a
       0.16843575 -0.10254756 -0.7050391 0.0011437943
0000e0 f2 47 55 3f 85 4b 9d bd 12 06 34 3d 04 a5 c2 3b
       0.83312905 -0.0768042 0.0439511 0.0059400816
0000f0 9a 14 9b 3d ad 03 dd 3c 8d aa 5f 3f 1e d5 3e be
       0.07572289 0.026979292 0.87369615 -0.18635985

encoder_variable_selection.single_variable_grns.SinWeekly.fc2.bias f4 [8]
000000 9e 4f 96 bd 1f ef 7d be ad 79 b3 3d bc 37 82 3e
       -0.073394045 -0.24798249 0.08763442 0.25433147
000010 6c 91 b5 bc 24 a2 86 bd 3f 54 a4 be 0f ec 2e 3e
       -0.02216407 -0.065738946 -0.32095525 0.17082237

encoder_variable_selection.single_variable_grns.SinWeekly.gate_norm.glu.fc.weight f4 [32, 8]
000000 75 ef 6f 3c f4 fc c9 bd d9 6b 6f 3e c7 7d 03 be
       0.014644493 -0.098627 0.23380984 -0.12840949
000010 77 d0 4c be f9 72 dc bc a5 a7 46 be 6f b3 3e 3e
       -0.20001398 -0.026910292 -0.19399889 0.18623136
000020 56 95 33 be 05 79 e6 bd a3 c1 64 be b3 47 e4 be
       -0.17537436 -0.112535514 -0.22339492 -0.44585952
000030 1b a0 a5 bd b9 6e 80 bd ba 4f a2 3e 3f cf 0a be
       -0.08087178 -0.06271119 0.31701452 -0.1355562
000040 38 3b 60 3f f2 03 93 3f 8a c2 1f 3f c9 3b 31 3f
       0.8759036 1.1485579 0.6240622 0.6923185
000050 2a df 7b 3f 9b 21 d7 be 72 e2 95 bf 6c fe 27 3f
       0.98387396 -0.42017826 -1.1709731 0.6562259
000060 d0 c6 19 3e bf 22 73 3e 83 03 7d 3d 45 b8 3c 3e
       0.15017247 0.23743723 0.061770927 0.18429668
000070 d6 28 3d 3e f4 f4 9a bd ef 59 d0 be 7b 6d 0e 3f
       0.18472609 -0.07566252 -0.40693614 0.55635804
000080 bd 61 3d 3e 78 66 81 be 9c 0d c5 bd 37 31 57 3e
       0.18494315 -0.2527349 -0.096217364 0.21014868
000090 b4 0d f4 bc 8b d6 b8 bd 76 35 9f 3e 94 76 bb 3e
       -0.02979169 -0.09025296 0.31095475 0.36613905
0000a0 d3 ad ad 3d 4e 46 6e be fb 10 73 bc c6 2c fa 3c
       0.0848042 -0.23269007 -0.014835591 0.030538928
0000b0 3e 24 7b bc fe cf c3 3c e2 ed 08 3d fe 50 82 3e
       -0.015328465 0.02390289 0.033429988 0.25452417
0000c0 38 5d ed 3e 04 a5 ae 3d 23 23 85 bf ee a0 52 bf
       0.46360183 0.08527568 -1.0401348 -0.8227681
0000d0 7e 09 a8 3e 3a 83 39 bf f2 f2 83 3f 19 ad 67 bf
       0.32819742 -0.7246586 1.0308516 -0.904985
0000e0 49 a2 12 bf b0 b0 19 be 61 5e ae 3e aa 36 62 3e
       -0.5727888 -0.15008807 0.3405638 0.22091165
0000f0 c1 e2 8c be 1d 0f e0 3e 12 fb b4 be fd 8c f7 3e
       -0.2751675 0.4376153 -0.353478 0.48349753
000100 de 29 eb 3e 2b 33 23 3f 33 1e 20 3e 2b fa 98 3e
       0.4593038 0.6374995 0.1563652 0.29878363
000110 8e 4a bf 3e 55 52 cb be e2 e5 cd be 03 70 d4 3e
       0.37361568 -0.39711252 -0.4021445 0.41491708
000120 86 e8 95 bd 2c e1 08 bf 6e 61 80 3d cf 8f 63 be
       -0.07319741 -0.53468585 0.06268583 -0.22222827
000130 85 60 b6 bd 93 cf 10 3e 60 34 86 3d 2f 72 b2 3d
       -0.089051284 0.14141683 0.065529585 0.08713185
000140 e4 02 13 3e 1b bd 0d 3e f7 8d 8f 3e b0 90 57 3e
       0.14356571 0.1384167 0.28037998 0.21051288
000150 54 97 fa 3d 8b 8a 11 3e 3f 9b 6b be 92 05 08 3e
       0.12235895 0.14213006 -0.2300844 0.13283375
000160 26 be 14 3e 7d 14 b7 3e c9 d3 ec 3d 2d a4 cb 3e
       0.14525661 0.3575782 0.11563832 0.39773694
000170 43 f6 b5 3e 3e 9c aa be b9 05 78 be 65 1a 37 3f
       0.35539445 -0.33322328 -0.24220933 0.7152465
000180 cc 51 f2 3e f0 7a d1 3e de 0a 94 3e cd 54 09 3f
       0.4732803 0.40914106 0.2891454 0.5364502
000190 fb 01 d9 3e 57 80 03 bf ed 03 b1 be 02 ce b2 3d
       0.42384323 -0.51367706 -0.34573308 0.08730699
0001a0 d2 67 a5 3e bf a1 80 be 2a 6d 8a 3b 2a 33 22 be
       0.3230577 -0.25123402 0.004224439 -0.1583983
0001b0 32 70 ad 3c 12 a8 09 3e c6 2b 24 3d 03 d1 d4 bc
       0.021171663 0.1344302 0.040080808 -0.02597857
0001c0 2a d6 4c bf d5 f9 15 bf a8 26 42 3f b2 63 c1 3e
       -0.8001429 -0.5858434 0.75840235 0.37771374
0001d0 e9 00 32 bf d7 41 8a 3f 7b a0 09 bf c7 4b 39 3f
       -0.6953264 1.0801343 -0.537605 0.7238125
0001e0 65 4d 22 3e 40 57 ad be 42 ea 14 be c8 d7 f9 bd
       0.15849836 -0.3385563 -0.14542487 -0.1219936
0001f0 ee c4 12 be c1 98 d1 be 31 be 13 3f 1e 95 13 be
       -0.14332935 -0.40936854 0.57712084 -0.14412352
000200 4a 71 60 be aa 8e 68 bc 25 2b 91 3d 2a 19 97 3e
       -0.21918216 -0.01419417 0.07088307 0.29511386
000210 6c f0 08 3f c1 6e 93 be 25 94 bb 3e 5f e9 69 be
       0.53491855 -0.28795436 0.36636463 -0.2284293
000220 30 7e b9 3c d4 e2 0f bf f0 67 fe be ca d8 d4 be
       0.022643179 -0.5620549 -0.49688673 -0.41571647
000230 20 19 77 bd 8b 88 99 3d 7c 6f 0a bc fe 91 04 bf
       -0.060326695 0.07496747 -0.0084494315 -0.51785266
000240 42 aa 8d 3e 92 c9 7b 3e ce 98 ac 3c 37 fb ce 3c
       0.2766896 0.24588612 0.021068957 0.025266273
000250 c9 8d 3d 3e 0e d2 90 be 2c d7 10 be 61 b9 bc bc
       0.18511118 -0.2828526 -0.14144582 -0.023037614
000260 94 be 81 3e af e4 1a 3f 95 eb 11 3e f5 3d b9 3e
       0.25340712 0.60505193 0.14250024 0.36180082
000270 96 61 7b 3e 72 64 98 be 2c 67 80 be b3 99 40 3d
       0.24548945 -0.29764134 -0.25078714 0.04702158
000280 cb f2 12 be d1 2d 26 3f 59 15 e4 3c 55 da 8c be
       -0.1435043 0.6491366 0.02784221 -0.27510324
000290 b9 84 92 3e 65 b6 82 3e 82 26 09 be 33 28 af be
       0.28616884 0.2552978 -0.13393596 -0.34210357
0002a0 d6 72 7e 3d 1c 7a c2 3d cb 69 a6 3c 14 f4 67 bc
       0.062121235 0.09495947 0.020314118 -0.014157314
0002b0 58 5e e9 3d 2f 78 e7 bd b6 98 57 3e f8 e9 e4 be
       0.11394948 -0.1130222 0.21054348 -0.44709754
0002c0 30 09 35 be 2a 45 ef be 73 52 04 bd a9 b4 95 bd
       -0.17679286 -0.46732455 -0.032305192 -0.07309849
0002d0 b1 6a 89 be d1 61 55 3d 23 bc ab bd 63 25 05 3e
       -0.26839212 0.052095238 -0.083854936 0.13002543
0002e0 c7 a3 37 bf fc 9f d0 3e 77 e3 69 3f 59 64 0e 3f
       -0.7173428 0.40747058 0.9136271 0.5562187
0002f0 e0 af 46 3e ce 38 a6 3e 37 f4 a2 bb 1d ef b9 3d
       0.19403028 0.32465214 -0.0049729603 0.0907881
000300 f5 20 a5 3d 2a f6 18 3e f3 09 1e 3d b9 07 86 bc
       0.08062927 0.14937654 0.038583707 -0.016361104
000310 16 c7 22 3f de c5 fa be 66 52 9a be 88 11 32 3d
       0.6358503 -0.48979086 -0.3014099 0.04347375
000320 27 e9 96 3c f2 79 3a 3e be 4a dd 3e 52 51 25 3f
       0.018421723 0.18210581 0.43221086 0.6457721
000330 dc 98 85 3e 48 db 1f bd 10 15 4d be a5 30 6a 3e
       0.26093185 -0.039027482 -0.20027566 0.22870119
000340 29 6a 98 3e e1 84 c9 bd 1d c0 64 bf 6c dc 50 bf
       0.29768494 -0.09839798 -0.8935564 -0.8158634
000350 10 1c 78 3e 99 97 89 bd ae 8b 45 3e 30 00 0c bf
       0.24229455 -0.06718368 0.19291565 -0.54687786
000360 b4 fa 8a 3e 11 73 2f 3e cd 67 c9 3e 1b 60 d2 3e
       0.27144396 0.17133738 0.39337006 0.41088948
000370 14 d5 fd 3e dc fd 5f 3b 4e ef d1 be 5d 20 c1 3d
       0.49576628 0.0034178412 -0.41002887 0.09430001
000380 42 dc 8a bc 82 a4 e3 3e 6d f8 b2 bb ec a0 e6 3e
       -0.01695073 0.44461447 -0.0054617436 0.4504465
000390 a3 d4 f5 3e 8a 33 9c bd c0 11 30 bd f7 9c 05 3f
       0.4801379 -0.07627018 -0.042985678 0.52192634
0003a0 47 40 ae be 8e 65 90 3e 42 bf 7c be 55 9e 8e 3d
       -0.34033415 0.2820248 -0.24682334 0.06963793
0003b0 a1 67 d0 3e 3c c2 2f be b0 df 7c be c8 44 45 be
       0.40704063 -0.17163938 -0.24694705 -0.19264519
0003c0 9e 20 63 bf c7 20 0a bf 58 cd ed 3e a0 54 6b 3e
       -0.88721645 -0.53956264 0.46445727 0.229815
0003d0 92 6c 41 bf 40 f1 32 3f 33 9f d0 be 22 15 2a 3f
       -0.7555629 0.6989937 -0.4074646 0.66438496
0003e0 79 ff b9 3e 83 1b 77 3e 5f 2f e9 be 8a f5 06 be
       0.36327723 0.24131589 -0.45543954 -0.13179603
0003f0 f6 c8 e2 3d 2c 2c ef be 70 40 0d 3d 00 2e af be
       0.110734865 -0.46713388 0.03448528 -0.34214783

encoder_variable_selection.single_variable_grns.SinWeekly.gate_norm.glu.fc.bias f4 [32]
000000 d3 5f 22 3e f7 8a 5b 3e 6e 6a e1 bd 2a 26 29 3d
       0.15856867 0.2143973 -0.11006628 0.04129616
000010 7e e8 c9 3b 4e 68 9a be 19 9e 42 be 5b 29 b7 be
       0.0061617484 -0.30157703 -0.19005622 -0.3577374
000020 74 6d eb 3d 0a 36 7a 3d 36 a9 7f 3d d7 14 5d 3e
       0.11495486 0.061086692 0.06241723 0.21589981
000030 f2 9d 89 3d 6e 2c 51 3d ef 2f 9a 3e 27 ba fc 3d
       0.06719579 0.051067762 0.30114695 0.12340193
000040 80 67 a7 bf 55 68 7b be 96 5c 4b 3f 58 03 83 bf
       -1.3078461 -0.24551518 0.7943815 -1.0235395
000050 28 1f 05 c0 60 bd 87 bf d2 56 64 3f 76 6d 1d bf
       -2.0800266 -1.0604668 0.8919498 -0.6149515
000060 76 67 be 3d 3f b0 25 bf ba ae 04 bf 19 27 80 bf
       0.09297077 -0.64722055 -0.5182911 -1.0011932
000070 4e d4 fb 3e 5b 1f 27 bf 4e 99 3b bd 2e 1e a7 bb
       0.49185413 -0.6528222 -0.0458005 -0.0051000332

encoder_variable_selection.single_variable_grns.SinWeekly.gate_norm.add_norm.norm.weight f4 [16]
000000 6a 0b 51 3e 54 cc 0f 3f 59 a3 fc 3f 0d a6 47 3f
       0.2041451 0.56171155 1.973735 0.7798775
000010 c7 ed 57 3f 69 5c e8 3e e9 da dc 3f fc 05 b6 3e
       0.84347194 0.45383003 1.7254306 0.3555144
000020 44 d5 17 3f 21 e8 15 3f f8 ee 6f 3f 6b 1c 77 3f
       0.5930979 0.58557326 0.9372401 0.9652774
000030 c7 7c 3a 3f a5 e6 6b 3f 57 73 8c 3f 91 c8 82 3f
       0.72846645 0.9214881 1.0972699 1.0217458

encoder_variable_selection.single_variable_grns.SinWeekly.gate_norm.add_norm.norm.bias f4 [16]
000000 8a b5 b2 3c a3 d4 31 3e f6 e6 b6 3d 6c 39 a7 3e
       0.02181508 0.1736627 0.08930771 0.32660997
000010 d1 f3 54 3d b1 36 ac bd 43 e0 3a be 4e 41 cd bd
       0.051990334 -0.08408869 -0.18249612 -0.100222215
000020 8f 25 9d 3c 3b 99 5e be 85 79 86 be 99 01 34 3e
       0.019182948 -0.2173814 -0.26264587 0.17578734
000030 23 95 e0 bd 4f 26 62 3e 26 57 13 bc 7b 22 1a 3e
       -0.109659456 0.22084926 -0.008992946 0.15052216

encoder_variable_selection.single_variable_grns.VaccinationFull.resample_norm.mask f4 [16]
000000 03 9b f8 be fe 35 40 bf f0 5c 99 3e ea 08 ab bf
       -0.48555765 -0.75082386 0.29953718 -1.3362095
000010 bb 08 69 3f 41 79 02 bf a4 1f 73 bf 04 bb f6 3e
       0.91028947 -0.5096627 -0.94970155 0.48189557
000020 71 ff 9f 3d b7 b4 62 bf 83 84 5d be af b5 2a 3f
       0.078123935 -0.88557 -0.2163258 0.6668348
000030 a9 be d7 be dc ca b2 3e b6 42 40 3d 41 d0 f1 3d
       -0.4213765 0.34920394 0.04693862 0.118072994

encoder_variable_selection.single_variable_grns.VaccinationFull.resample_norm.norm.weight f4 [16]
000000 17 d6 a2 3e a7 35 12 3f f3 62 c0 3f ff 13 b8 3e
       0.31803963 0.57113117 1.5030197 0.35952756
000010 46 54 09 40 a2 33 3d 3f e8 53 a5 be 74 5a dc 3f
       2.1457686 0.7390691 -0.32290578 1.7215104
000020 76 cf b6 3f 25 e7 a0 3e f8 d4 6c 3f 08 a8 dd 3f
       1.4282062 0.3142635 0.92512465 1.7316904
000030 ab 6f 70 3c aa b0 b7 3f bf 64 3b 3f 24 1a 92 3f
       0.014675061 1.4350789 0.732006 1.1414227

encoder_variable_selection.single_variable_grns.VaccinationFull.resample_norm.norm.bias f4 [16]
000000 57 a5 b4 3d 48 8b 09 3e fb 38 e3 3d 06 c6 2f 3e
       0.088205986 0.13432038 0.110948525 0.17165384
000010 eb 01 de 3d e7 5c 20 be cf 71 3c be bf 82 49 3e
       0.108402096 -0.1566044 -0.1840279 0.19678782
000020 b7 4b 19 3e d0 df f3 be 9a 54 17 be 3b 39 49 be
       0.14970289 -0.47631693 -0.14778367 -0.19650738
000030 3d b2 99 3e b4 75 cf bd 98 7d 8f 3e 1f 17 fb 3d
       0.30018798 -0.10129872 0.28025508 0.122602694

encoder_variable_selection.single_variable_grns.VaccinationFull.fc1.weight f4 [8, 8]
000000 bc 46 00 3f 2e 08 a3 be de 08 49 bf 74 8d b0 bd
       0.5010793 -0.31842178 -0.78529155 -0.0862073
000010 91 db 55 3f 1d 08 25 3e ea 74 24 bf f0 92 6d bd
       0.83538157 0.16116376 -0.64240897 -0.05800146
000020 b6 d7 66 3c 88 87 9a be 57 5b 6e bf af b3 a5 bf
       0.014089515 -0.30181527 -0.93108124 -1.294546
000030 53 5b 2d 3d b0 53 dc 3d db 86 b8 3f 38 70 cb 3d
       0.04232342 0.107581496 1.4416155 0.099335134
000040 3e 2c 70 be 16 34 27 bf 68 02 ae be 55 23 55 bf
       -0.23454377 -0.6531385 -0.3398621 -0.8325704
000050 b5 58 cb be 93 3e 60 3f e7 22 ec 3e a4 6f a8 bd
       -0.39716116 0.8759548 0.46120378 -0.08224419
000060 89 e6 8c be 4f 65 9b bf 23 93 3e bf bc 81 30 3d
       -0.27519634 -1.2140292 -0.7444326 0.043092474
000070 8b ce 04 bf 1d 6d b7 3f d2 35 1e 3f 63 87 58 3f
       -0.5187766 1.4330174 0.61800873 0.84581584
000080 31 95 fe bd 06 b3 08 3f 59 14 8d 3d 6e f8 43 be
       -0.124308 0.5339817 0.06888647 -0.19137737
000090 1a b4 4a bd e1 d6 45 3f ea 7b 8b 3f 6b 84 97 3f
       -0.049488164 0.77281004 1.089719 1.1837286
0000a0 9f d4 4b be cd 0a 7e 3f 6a 35 bf 3e 36 27 4d be
       -0.19905327 0.9923523 0.3734544 -0.20034489
0000b0 b0 4e 1a bf a3 ec 6c bf 0a 07 4b bf cc 6a e6 bf
       -0.6027632 -0.9254858 -0.79307616 -1.8001342
0000c0 0f ca 23 bf ea c2 36 3e c3 be 92 bc 08 6f 10 3e
       -0.6398019 0.17847791 -0.017913228 0.14104855
0000d0 63 f7 7a 3f 67 c0 c1 3b ab 25 94 3e 87 44 82 3e
       0.9803373 0.0059128287 0.28934988 0.25442907
0000e0 4b ff f7 3d 36 2c 7c 3f 28 9f 3d be e2 9c bd be
       0.1210924 0.9850496 -0.18517745 -0.37033755
0000f0 c4 28 7a bf 8a b5 9f bf 6c 41 43 be b1 2d c8 bf
       -0.97718453 -1.2477276 -0.19067925 -1.5638944

encoder_variable_selection.single_variable_grns.VaccinationFull.fc1.bias f4 [8]
000000 10 3f c2 3e 9a e5 f9 3c af 00 ab bd f3 cd 15 3e
       0.37938738 0.03050499 -0.0834974 0.14629345
000010 a9 be 20 be 73 5e e0 be 08 44 9c 3b ae 3a 0c bf
       -0.15697731 -0.4382206 0.004768852 -0.5477704

encoder_variable_selection.single_variable_grns.VaccinationFull.fc2.weight f4 [8, 8]
000000 5d c4 17 be df 14 eb 3d fe d5 1c be cc 7d 09 bf
       -0.14821 0.1147859 -0.15316007 -0.53707576
000010 52 a6 55 bf 25 bf c3 3e a1 7e 1b bf 42 f4 89 3e
       -0.8345691 0.3823177 -0.60740095 0.26944166
000020 56 f8 43 3f d2 13 58 bf 0c 00 25 bf 59 3c 5a bf
       0.76550806 -0.84405243 -0.64453197 -0.85248333
000030 f5 40 51 bf ce 85 37 bf fe 4b 1f 3e a6 cc cb be
       -0.8173974 -0.71688545 0.15556332 -0.39804572
000040 4f 3a aa bf 33 e0 bf 3e 97 5f 12 3e 73 41 88 3f
       -1.3299044 0.37475738 0.14294277 1.0644974
000050 5f 48 2f bd bc ef 0d 3f 47 ef 05 3f 06 1d 4b 3f
       -0.042793628 0.5544393 0.52318233 0.7934116
000060 f9 79 7d 3e 61 70 5c be 99 4d fd 3d fc 4a de 3d
       0.2475356 -0.21527244 0.12368316 0.10854146
000070 c7 c3 44 3f 3a 50 40 bf 4d 4b fe 3b d4 3d af 3c
       0.7686123 -0.75122416 0.0077604414 0.021391787
000080 19 1b 09 be a0 1f ad 3e d7 3e 31 3f 90 e0 c9 3e
       -0.13389243 0.3381319 0.6923651 0.3942914
000090 21 c7 61 3f 72 8d e9 3e b2 c2 0f bf ca 0f 7f 3f
       0.8819447 0.45615727 -0.56156456 0.9963347
0000a0 fc c5 6e be 7b 8e 3e 3e 30 0e 15 3f d7 a8 3a 3f
       -0.23317713 0.1860904 0.58224773 0.7291388
0000b0 10 17 14 3e 9f 2d 19 3e 16 4a 20 ba 10 b4 42 bf
       0.14461923 0.1495881 -0.0006114555 -0.76056004
0000c0 ea c6 29 3f 96 63 d1 bc 8f 4c 8e be 56 5b 50 3f
       0.66319144 -0.025560182 -0.27792785 0.8138937
0000d0 5a ed 7e 3e 7d 17 2c bf 25 02 da bd 97 65 b6 bc
       0.2489523 -0.6722334 -0.1064494 -0.022265239
0000e0 0f 28 29 be f0 35 eb 3e 3a 65 06 3f 73 2a 64 3f
       -0.16519187 0.4593959 0.5249821 0.8912727
0000f0 bc 4d 8b be 76 09 0a bf 8b 4c 86 3d 14 d0 75 be
       -0.27207744 -0.53920686 0.06557568 -0.24005157

encoder_variable_selection.single_variable_grns.VaccinationFull.fc2.bias f4 [8]
000000 34 6a 2a bc 37 21 01 3f 37 ea 87 be 64 28 1d 3b
       -0.010401297 0.50441307 -0.2654588 0.0023980374
000010 a4 47 8d be 6e 25 b7 3d 34 75 68 3e 79 49 62 3c
       -0.2759372 0.08942686 0.2270096 0.013811463

encoder_variable_selection.single_variable_grns.VaccinationFull.gate_norm.glu.fc.weight f4 [32, 8]
000000 d7 dd 1d be 30 5d 8f 3f 94 a6 5a be bd 9b 20 3f
       -0.15416656 1.1200314 -0.21352607 0.6273764
000010 db 7a 0b bf 75 16 be 3e da cb 28 3e d4 c2 43 3e
       -0.5448434 0.37126508 0.16484013 0.1911729
000020 ae 88 ac be 8a f9 c0 ba 4a c6 cf bd 7c 82 08 be
       -0.33698028 -0.0014722806 -0.101452425 -0.13331026
000030 12 d7 d6 3e ab 34 c4 3c 40 4f 3b 3e bb 68 21 be
       0.4196096 0.023950895 0.1829195 -0.15762608
000040 72 cd c0 3e 8e 91 b7 bd ad b0 8b 3e f8 9c 53 bd
       0.37656742 -0.08963309 0.2728323 -0.05166337
000050 30 42 20 3d a8 30 d9 bd 83 20 8b be b3 d1 98 bd
       0.03912562 -0.106049836 -0.27173242 -0.07461872
000060 b7 be 44 bf 8f 6d 16 3e 39 2b 47 bf 44 12 4c 3f
       -0.7685351 0.14690231 -0.7780033 0.7971537
000070 4c 0b 4a bf f1 ac 26 3f 21 63 67 3f 1d e1 f7 3e
       -0.7892349 0.6510764 0.90385634 0.48413935
000080 29 73 7e 3f 49 32 b5 be ca 20 07 3f 2a ef a9 bf
       0.9939447 -0.35389927 0.5278441 -1.3276112
000090 10 77 00 3f ac 72 41 bf e1 c1 94 bf e0 7e 89 bf
       0.50181675 -0.755656 -1.1621667 -1.0741844
0000a0 79 4c 96 3e 2a 44 b6 3e 4d b8 9d 3e e6 6b a8 3c
       0.2935522 0.3559888 0.30804673 0.020559262
0000b0 3e 0a ef be 36 41 02 be 7b ff 60 3e 2f 7f 50 3d
       -0.46687502 -0.12720188 0.21972458 0.05090254
0000c0 07 55 2e bf 42 11 c7 be c5 e3 9e 3e 86 80 bf 3e
       -0.6809849 -0.38880354 0.3103315 0.37402743
0000d0 86 dc b2 3e eb d5 a0 3e 3b dc 83 3e 15 6e b6 3e
       0.3493387 0.31413206 0.2575396 0.3563086
0000e0 6a c2 91 be 2e 48 8e 3f 26 e3 1d bf d3 3e 98 3c
       -0.2846864 1.1115777 -0.61674726 0.018584644
0000f0 ee e9 0d bf bb 9b 53 be 42 33 aa 3e 5a a4 41 bd
       -0.55435073 -0.20664875 0.33242232 -0.04727588
000100 92 39 53 be 42 4a 6e 3e bc 25 e3 be 56 3c 86 3d
       -0.2062743 0.23270515 -0.44364727 0.06554477
000110 ab 2c 0a bf 49 f8 ae 3e 8e b8 b7 3e 46 df a9 3e
       -0.5397441 0.34173802 0.35882992 0.33178157
000120 10 7b e5 3e 83 ee 32 3e 71 92 11 3f 51 36 0f bf
       0.44820452 0.17473798 0.56864077 -0.55942255
000130 96 9b 27 3f 1a fa 22 bf 69 d3 6f bf 45 43 35 bf
       0.6547178 -0.63662875 -0.9368196 -0.7080577
000140 02 22 37 be 59 7c 85 bd 23 59 82 3e 22 9e 5b 3e
       -0.17884067 -0.06517858 0.2545863 0.21447042
000150 ed 4c 83 3e 80 7f ce 3e e7 7a 10 3e 24 ab ce 3e
       0.25644627 0.4033165 0.14109384 0.40364945
000160 40 20 a1 be db d4 a9 bf f6 47 ee 3e 88 ee c8 3e
       -0.31469917 -1.3268083 0.46539277 0.39244485
000170 67 3f a1 3e 15 3e 9c 3e 9f 94 79 3b b2 b2 76 3e
       0.31493685 0.30516115 0.003808297 0.24091604
000180 18 dc 88 3e 2a 56 c0 3f 22 6a 17 bf b3 4b 08 bf
       0.26730418 1.5026295 -0.5914632 -0.5324051
000190 01 28 1e bf e5 55 0e bf c7 e9 72 be 3b 87 de be
       -0.6177979 -0.55599815 -0.23721991 -0.43462548
0001a0 95 4a f1 bb dd f1 4f bf 8d bb 8f bc f0 6d 0f 3e
       -0.007363627 -0.8122843 -0.017545486 0.14006782
0001b0 7a 9b 6e 3e 9d 9f 87 3e 09 11 37 be 7a 1e e7 be
       0.23301497 0.26488963 -0.17877592 -0.4514044
0001c0 34 62 0b bf d7 d2 04 3f 1f ff 1d bf 8f a9 67 3e
       -0.5444672 0.51884216 -0.6171741 0.22623275
0001d0 ed 9f 2a bf 2b 76 6b 3e a1 da 1f 3e 89 76 88 3e
       -0.6665028 0.22994296 0.15610744 0.26652935
0001e0 cf 45 bf be ca 02 be be b7 5a 0c 3c 3e 5c 8d 3b
       -0.37357947 -0.37111503 0.00856655 0.0043139746
0001f0 8b 6c 64 3e 18 57 64 bd 58 a8 07 3c 76 0c 69 3e
       0.22307031 -0.05574712 0.008279882 0.2275866
000200 27 22 72 3d 05 b6 98 bf 67 67 06 3f 08 31 55 be
       0.0591146 -1.1930548 0.5250153 -0.20819485
000210 c3 b5 9f 3e 63 53 96 3e 91 37 b6 be 59 dd a9 bd
       0.3119336 0.29360494 -0.3558927 -0.08294172
000220 25 89 85 3d 02 7f 2b bf 92 26 13 3f f4 a9 92 3e
       0.06520299 -0.66990674 0.5748073 0.2864529
000230 64 1b b3 3e 1f be b7 3e ef 9b 8f be e5 a1 a6 3d
       0.34981835 0.35887238 -0.28048655 0.08136348
000240 7c f1 69 be 13 b8 00 3d 09 14 dd 3d 0a 43 ca 3e
       -0.22846025 0.031425547 0.10794837 0.39504272
000250 85 c0 aa 3c fe d1 8c 3f 2f d8 fe 3d 9d e2 5b 3f
       0.020843754 1.1001585 0.124435775 0.8589266
000260 72 2d 7d 3f 0f 2d e0 bd 66 dc 67 3e da 26 d1 be
       0.9889747 -0.10946094 0.22642669 -0.40849954
000270 e5 59 52 3d 3a 6f 9c be ad e4 48 bf 95 c9 cb be
       0.05135526 -0.3055361 -0.7847393 -0.39802232
000280 e8 33 9e bf b3 85 73 bd 88 d5 e7 3d 32 ac cd 3f
       -1.235959 -0.059453677 0.11320025 1.6068175
000290 b0 22 e1 3d 73 fc 0c 3f e0 09 96 3e 41 a9 fa 3f
       0.10992944 0.55072707 0.2930441 1.9582902
0002a0 a4 3d c8 be 30 03 9b bf ce 82 e7 3e 65 ca b4 bd
       -0.39109528 -1.2110348 0.45216984 -0.08827666
0002b0 4a 59 96 be 4b b5 b1 3e c0 91 28 bf a1 c1 53 3e
       -0.29364997 0.34708628 -0.65847397 0.20679332
0002c0 76 30 12 bd cb 07 91 3f 27 e3 78 be 2a 56 77 3e
       -0.035690747 1.1330503 -0.24305402 0.24153963
0002d0 21 a3 22 bf 0f 37 ae 3d 94 38 63 bd a2 6d b4 bd
       -0.63530165 0.08506595 -0.05547388 -0.08809973
0002e0 22 81 01 3f dc 47 52 3e 79 ae cd 3e 03 16 c9 bd
       0.50587666 0.20535225 0.40172175 -0.098186515
0002f0 f4 e8 db b8 06 fe 10 bf d0 29 45 bf a9 fd 66 bf
       -0.00010486125 -0.5663761 -0.77016926 -0.90230805
000300 d2 d9 bc 3d d7 31 33 3f 3b 65 06 be eb a3 5e be
       0.092212334 0.69997925 -0.13124554 -0.21742217
000310 b3 54 a1 be b2 55 77 be e5 d8 2e 3d 8a c9 17 bf
       -0.31509933 -0.24153784 0.042687315 -0.592919
000320 97 a0 f9 3e 28 28 69 bc 60 dc 9c 3f 04 59 e7 be
       0.48755333 -0.014230765 1.2254753 -0.451851
000330 44 82 09 3f 1c e4 b6 be f8 32 33 bf fc 2d bd be
       0.53714395 -0.3572091 -0.6999965 -0.36949146
000340 c3 07 51 3f 53 fe 0e bd b4 80 38 3e e4 61 a0 bf
       0.8165247 -0.03491051 0.18017846 -1.2529874
000350 16 0a ac 3e 29 0b 1c bf 85 74 b6 be eb 34 9d bf
       0.33601445 -0.6095453 -0.35635772 -1.2281774
000360 0a a1 92 3e 03 28 60 be 1d a4 1f 3f 3d ed 3d be
       0.28638488 -0.21890263 0.6235979 -0.1854753
000370 2c b4 22 3e fe 33 c4 3c a4 c3 35 bf a8 1c fb be
       0.15889043 0.023950573 -0.7100165 -0.490453
000380 54 93 8a 3f b8 a1 0c be 1d 82 d9 3e c5 2e 2d bf
       1.0826211 -0.13733566 0.4248208 -0.6764949
000390 54 2f f9 3e ca cc 42 be 8e 7d bd bf d7 89 3d bf
       0.4866892 -0.19023433 -1.4803941 -0.7403845
0003a0 7f 38 b3 3d 82 2e 9e bf c3 53 0a bc 67 f0 dd 3e
       0.0875101 -1.2357943 -0.008442822 0.43347475
0003b0 ab c8 04 3f cf d2 d1 3d 1a 40 19 be 19 d8 1a bd
       0.51868695 0.10245287 -0.14965859 -0.037803743
0003c0 73 15 d9 3f 1c e3 a0 3b 30 81 04 be 03 5c 03 3e
       1.6959671 0.004909886 -0.12939906 0.12828068
0003d0 df 95 17 be 9b 23 38 bf 44 b0 b0 bd a6 18 b9 bf
       -0.14803265 -0.7192933 -0.0862737 -1.4460647
0003e0 c4 0c 8e bc 5a b4 34 3f 82 15 85 3e 65 4c 27 3e
       -0.017340071 0.70587695 0.25992972 0.16337736
0003f0 15 9a e4 be 00 b6 08 bf 03 9a e3 bd fa cd 32 bf
       -0.44648805 -0.5340271 -0.1111336 -0.69845545

encoder_variable_selection.single_variable_grns.VaccinationFull.gate_norm.glu.fc.bias f4 [32]
000000 4c f4 3a 3e 64 e8 9d 3e 75 b0 99 be c6 1d e8 be
       0.18257254 0.30841362 -0.3001744 -0.45335215
000010 fd c5 54 bf 00 8b 8d be 81 3b 98 be 35 1d 84 3e
       -0.83114606 -0.2764511 -0.29732898 0.25803533
000020 55 36 2b 3e 72 d1 cd 3e 43 83 53 be 38 79 58 bf
       0.16719945 0.40198857 -0.20655541 -0.84559965
000030 4c 7b 5c 3f 98 34 ce bb 4e 8d 22 3e a9 1d 26 be
       0.86125636 -0.0062928908 0.15874216 -0.16222252
000040 1b 65 14 bf 29 98 b0 bf 9f 0a cd 3d fb ce 02 3f
       -0.57966775 -1.3796436 0.100117914 0.5109708
000050 34 40 08 be 29 db 75 bf d8 d5 6e 3f 76 3f 3b be
       -0.13305742 -0.96037537 0.9329505 -0.18285927
000060 90 f2 28 3f af 62 e1 3d 4e 3e d0 3d 35 ce fc bd
       0.6599512 0.110051505 0.10168134 -0.12344018
000070 ee e6 f2 3d 30 0c b0 bf 5d a7 1a bc e2 5c c3 3e
       0.118604526 -1.3753719 -0.009439317 0.381568

encoder_variable_selection.single_variable_grns.VaccinationFull.gate_norm.add_norm.norm.weight f4 [16]
000000 44 b5 35 3f 36 74 0b 3e 9d 49 88 3f fe 9f 7c 3f
       0.70979714 0.1361855 1.0647465 0.9868163
000010 23 7a 8a 3f 93 3c 8f 3e ad 41 1d 3f e4 e3 b9 3f
       1.0818523 0.27975902 0.6142834 1.4522672
000020 4f 40 85 3f 65 32 71 3f ea 35 ad 3e 79 43 ac 3f
       1.041025 0.9421752 0.33830196 1.3458091
000030 71 fd 8d 3f 96 58 46 3f b9 1e 7a 3f 94 46 fd 3e
       1.1092969 0.7747892 0.9770313 0.4946791

encoder_variable_selection.single_variable_grns.VaccinationFull.gate_norm.add_norm.norm.bias f4 [16]
000000 73 8a 42 bd 2e fa 85 3e 97 3d 0b 3f e8 e1 78 3e
       -0.047495317 0.26167434 0.54390854 0.24304926
000010 dc a6 70 3d fa 8e 8a bd dc 5a a3 be ea b1 11 be
       0.05875288 -0.06765552 -0.31905258 -0.14228025
000020 63 dc 68 3b f8 39 8b be 1a b4 93 be 90 b9 91 3e
       0.0035531751 -0.27192664 -0.28848344 0.28461885
000030 a7 d3 02 bd b6 6d ff 3d 32 fd 1d be 8b 56 c3 3d
       -0.03194013 0.124720976 -0.15428618 0.09537991

encoder_variable_selection.single_variable_grns.Cases.resample_norm.mask f4 [16]
000000 37 f4 fe 3e 31 50 ca 3e e1 7b c4 bf ac a7 14 bf
       0.49795696 0.39514306 -1.5350305 -0.58068347
000010 91 c8 07 be c1 31 01 3f fd 40 c4 bd 5d 71 1b bf
       -0.13260104 0.50466543 -0.09582708 -0.60719854
000020 76 c9 ea bf d0 22 03 3f af d7 f5 3e 5b 90 22 bd
       -1.8342731 0.51224995 0.48016116 -0.03968845
000030 31 a3 73 bf 0e a5 31 bf 4c 46 57 3e fa b1 1e be
       -0.95170885 -0.6939248 0.2102291 -0.1549758

encoder_variable_selection.single_variable_grns.Cases.resample_norm.norm.weight f4 [16]
000000 e4 e0 b5 3f f5 cc d9 3f 00 62 5f 3f 78 bc 62 3f
       1.4209256 1.7015673 0.8725891 0.8856883
000010 b4 62 79 3f e1 92 cf 3f 10 9f c5 3f 5f 7b 91 3f
       0.97416234 1.6216699 1.5439167 1.1365775
000020 e1 dc 14 3f 38 fe e7 3f a2 74 ca 3f 7f 6a 75 3f
       0.58149534 1.8124456 1.5816844 0.95865625
000030 1d 7e a8 3e 4b ea 0b 3f de 80 dd 3f ed a3 9c 3f
       0.32908717 0.5465438 1.7304952 1.2237526

encoder_variable_selection.single_variable_grns.Cases.resample_norm.norm.bias f4 [16]
000000 2c 8c d7 3e 89 6e df 3e f1 8b 21 bf 66 63 0b bf
       0.4209913 0.4363902 -0.6310416 -0.54448545
000010 04 7a 3c 3e 02 f7 b0 be ae 94 ab be f1 6b 3c be
       0.1840592 -0.34563452 -0.3351187 -0.18400551
000020 17 58 09 be ca bf 5b 3d ee 45 16 3e f8 d2 cf be
       -0.1341251 0.0536497 0.14675114 -0.40590644
000030 d1 25 0c be 34 1a 4c be 77 5c 27 be 0e a6 e3 3e
       -0.13686301 -0.1993187 -0.16343866 0.44462627
