Archives/TFT-pytorch/results_splits_case_death/3/checkpoints/best-epoch=8.ckpt (torch, 989297 bytes, 935 tensors)

prescalers.AgeDist.weight f4 [8, 1]
00000000: 2334 5fbd 61c7 9dbe 302c 1e3f 69a4 b53e
00000010: c48b 1bbf 638e f3be 21c2 2fbf 4057 963e
-0.05449308 -0.30816177 0.61786175 0.35476997 -0.6076014 -0.4756957 -0.6865559 0.2936344

prescalers.AgeDist.bias f4 [8]
00000000: c87d b4be a293 df3e 998e 303f 82c4 913e
00000010: b91c 09bf 9d3b 04bf 5b7d bbbe 76f1 6fbd
-0.35252213 0.43667322 0.68967587 0.28470236 -0.5355945 -0.5165346 -0.36619076 -0.058579884

prescalers.HealthDisp.weight f4 [8, 1]
00000000: c2b6 b43e 128b afbf aacf 843f 587d 9fbf
00000010: a854 783f f4b4 443d 3981 3a3f 978e b13e
0.35295683 -1.3714316 1.0375874 -1.2460127 0.97004175 0.048024133 0.7285343 0.346791

prescalers.HealthDisp.bias f4 [8]
00000000: b389 d13d e8ca ad3e 40ce b73e c7a8 c43e
00000010: ba2d 843e daf4 1ebf 0281 e63e e59a c03e
0.10231342 0.33943868 0.35899544 0.38410017 0.25816137 -0.62092364 0.450203 0.37618175

prescalers.LinearSpace.weight f4 [8, 1]
00000000: 25f5 e63e e7e3 773e 69e2 e23e f677 573f
00000010: 5760 d23d a9cb 25bf def9 b0bc 98a9 05bf
0.45108905 0.24208032 0.44313362 0.8416742 0.102722816 -0.64763886 -0.021603521 -0.52211905

prescalers.LinearSpace.bias f4 [8]
00000000: 55dd c53e 5278 62be 1e2b 17bf 628b 833f
00000010: e1db 213f 52ea d13d fc03 c1bc b113 ccbe
0.38645425 -0.22116211 -0.59050167 1.0276911 0.63226134 0.10249771 -0.02356147 -0.39858773

prescalers.SinWeekly.weight f4 [8, 1]
00000000: 0bd1 173f ac61 4fbf a05f 43bf cfb3 803f
00000010: 4370 643f 85f4 1abe 06cc 7cbf 85e0 5d3e
0.5930335 -0.8100841 -0.7631779 1.0054873 0.892338 -0.1513234 -0.98748815 0.21667679

prescalers.SinWeekly.bias f4 [8]
00000000: 538b f4be c632 493e 1c1f 0f3f 2ab0 d13e
00000010: 5d1a 433e 497e 78bd 1c1c 8e3e b8f6 cbbe
-0.47762546 0.19648275 0.55906844 0.40954715 0.19053026 -0.06066731 0.2775582 -0.3983667

prescalers.CosWeekly.weight f4 [8, 1]
00000000: e2a6 a03c ac74 b1bd 1148 1ebf d08f 8abe
00000010: 05c4 f43e 8b11 643f b28b 13be d208 f2be
0.019610826 -0.086648315 -0.61828715 -0.27062845 0.478058 0.8908927 -0.14408758 -0.47272354

prescalers.CosWeekly.bias f4 [8]
00000000: ded4 173f d7fc 92be 18f4 dfbe 107c 393f
00000010: 8021 3e3e c5b5 7e3e 72c1 493e f03b 89be
0.59309185 -0.28708526 -0.43740916 0.7245493 0.18567467 0.24874027 0.197027 -0.2680354

prescalers.DiseaseSpread.weight f4 [8, 1]
00000000: 5bc4 6c3f e56a 8ebf 7544 b0be ed3f eabe
00000010: 4794 27bf dc4a 60bc 987f 3e3f efe6 3f3f
0.92487115 -1.1126372 -0.3442723 -0.45751897 -0.6546063 -0.013689723 0.7441344 0.7496175

prescalers.DiseaseSpread.bias f4 [8]
00000000: bd37 37bc 7743 693f 4b78 febe 7652 80be
00000010: 99d0 853e dfc6 4c3b 8099 53bf 068d 08bf
-0.011182723 0.9111857 -0.4970115 -0.25062913 0.2613571 0.0031246466 -0.826561 -0.53340185

prescalers.Transmission.weight f4 [8, 1]
00000000: fa1a e6be 2825 4b3f b084 ad3e 9352 3f3f
00000010: 1141 27bf 443b 7dbf 50b2 35bf df1e a2be
-0.44942456 0.7935357 0.33890295 0.74735373 -0.6533366 -0.9891856 -0.7097521 -0.31664178

prescalers.Transmission.bias f4 [8]
00000000: 3d35 13bc 3686 6bbf edc6 fc3e d8dc 17bf
00000010: cf5e c5be e81f 1e3f 3a17 5cbd 0c09 9a3e
-0.008984861 -0.92001665 0.49370518 -0.59321356 -0.38548896 0.61767435 -0.053733088 0.30085027

prescalers.VaccinationFull.weight f4 [8, 1]
00000000: 8187 df3e 7f48 4a3d dc5d a93e 47e4 45bf
00000010: e5e2 40bf d6a5 3abf 472e 19bf d7d2 8d3e
0.4365807 0.049385544 0.33079422 -0.7730145 -0.75346214 -0.72909296 -0.5983624 0.2769992

prescalers.VaccinationFull.bias f4 [8]
00000000: 6b65 f6bb 2854 acbd 4113 633e c4e8 37bf
00000010: 6854 343d da7b b8be af0f 84be b370 e3be
-0.007519414 -0.08414489 0.22175314 -0.7183955 0.04402581 -0.3603199 -0.25793216 -0.4442192

prescalers.SocialDist.weight f4 [8, 1]
00000000: 3868 093f b792 843e 75ca 3abf 0fab f1bd
00000010: a2e4 2abf 67d9 b9bc d9f6 b63e 43bc c43e
0.5367465 0.25893185 -0.72965175 -0.11800205 -0.66755116 -0.022686673 0.35735205 0.38424882

prescalers.SocialDist.bias f4 [8]
00000000: 68d7 09bf 90a5 d73e e2f8 463f c90c ba3d
00000010: 8382 cfbc ddac 2d3c 8977 8cbe 4b59 bdbe
-0.5384431 0.42118502 0.77723515 0.0908447 -0.025330788 0.010600296 -0.27434948 -0.36982188

prescalers.Cases.weight f4 [8, 1]
00000000: 94f4 adbf ec9d 31bf 170b a73e e338 85be
00000010: 4979 683f 8144 5abc 06ab 82be 9773 45bf
-1.3590264 -0.69381595 0.32625648 -0.26019964 0.90810066 -0.013321997 -0.25521106 -0.771295

prescalers.Cases.bias f4 [8]
00000000: 1d0c 26bf 7167 a43e 95d8 013f debc 973e
00000010: 4a0e 7dbf 4eca 843e e3ea 8a3f a6f9 003e
-0.64862233 0.3211017 0.507211 0.29636282 -0.9884993 0.25935596 1.0852932 0.12595233

prescalers.Deaths.weight f4 [8, 1]
00000000: 0848 26bf 63b9 58bd 7750 38bf 78dd 83bf
00000010: 2e51 1e3f 6468 49bf 7c3d 25bd 374f 72bf
-0.6495366 -0.052911174 -0.7199778 -1.0301962 0.6184262 -0.7867491 -0.04034184 -0.9465212

prescalers.Deaths.bias f4 [8]
00000000: c1b4 f83e c650 433e d5ad 1b3f e015 e7be
00000010: ed75 1b3f e900 c73d c1ac 20bf 4026 a73d
0.48575404 0.19073781 0.6081212 -0.45133877 0.60726815 0.097169705 -0.627636 0.081615925

static_variable_selection.flattened_grn.resample_norm.mask f4 [2]
00000000: 31e6 e93d 4967 ebbd
0.11420859 -0.114943095

static_variable_selection.flattened_grn.resample_norm.norm.weight f4 [2]
00000000: 865f 7b3f 795f 7b3f
0.9819263 0.98192555

static_variable_selection.flattened_grn.resample_norm.norm.bias f4 [2]
00000000: 7137 fabd 0f38 fa3d
-0.12217606 0.122177236

static_variable_selection.flattened_grn.fc1.weight f4 [2, 16]
00000000: 911c 07bf 0781 143e ab94 bcbe 222d 25be
00000010: def3 ba3e ae6c e93d a681 293e f168 9ebe
00000020: 26a6 e3be 3b76 083f 338c 90be e7a9 9d3e
00000030: e477 493e faf9 cc3e 1042 083e 47f4 98be
00000040: c257 e5be a968 c0be a9c2 063f f3cd c33e
00000050: 5f59 dfbe 1928 a43e 1716 1e3d df04 753e
00000060: b616 e23e 0c6f 533f 68ca 603f 8336 da3e
00000070: 6fb4 993e ce2b 87be 7953 423f 0c8a 863d
-0.52777964 0.14502345 -0.36832175 -0.16130498 0.3651418 0.11397682 0.16553363 -0.3093944
-0.444627 0.53305405 -0.28231964 0.30793688 0.19674641 0.40034467 0.13306451 -0.2987387
-0.44793516 -0.3757985 0.5264078 0.38243064 -0.43622872 0.32061842 0.038595285 0.2392764
0.44157952 0.8259132 0.8780885 0.42619714 0.30020472 -0.26400608 0.7590862 0.06569299

static_variable_selection.flattened_grn.fc1.bias f4 [2]
00000000: 1a3d 433c e663 803d
0.011916423 0.06269054

static_variable_selection.flattened_grn.fc2.weight f4 [2, 2]
00000000: c07f 1040 d6b8 a83f 4d07 8d3e ef72 d7be
2.2577972 1.3181407 0.27544633 -0.42079875

static_variable_selection.flattened_grn.fc2.bias f4 [2]
00000000: 9d1c 223d fe6d 2fbd
0.03957807 -0.042829506

static_variable_selection.flattened_grn.gate_norm.glu.fc.weight f4 [4, 2]
00000000: 77f6 7fbf 6307 4e3f eda0 38bf 54da 15be
00000010: 9656 dcbd 3925 103f 3b76 63bf 0c87 1bbf
-0.9998545 0.8048002 -0.72120553 -0.14634067 -0.107587025 0.563068 -0.8885228 -0.6075294

static_variable_selection.flattened_grn.gate_norm.glu.fc.bias f4 [4]
00000000: f72a d0bd 3ccf 4e3d fc97 0e3d 02a7 0bbd
-0.10164445 0.050490603 0.034812912 -0.034094818

static_variable_selection.flattened_grn.gate_norm.add_norm.norm.weight f4 [2]
00000000: e77a 203f ea7a 203f
0.62687534 0.6268755

static_variable_selection.flattened_grn.gate_norm.add_norm.norm.bias f4 [2]
00000000: 29fe a43e 2dfe a4be
0.3222516 -0.3222517

static_variable_selection.single_variable_grns.AgeDist.resample_norm.mask f4 [16]
00000000: dd26 c7be 77fa 95bd 24dc cdbd 5d3b 5ebe
00000010: 3b14 5f3e 1ad3 93be 67dc 353e 4774 b0bd
00000020: 5162 b23e 4fb1 053b e75e 31be 3e1b 8bbc
00000030: 64f3 bd3e 7ac7 783e a398 b5bd 15ed 003e
-0.38896838 -0.07323163 -0.10051754 -0.21702333 0.21785061 -0.28871995 0.17759858 -0.08615928
0.34840634 0.0020399874 -0.17321359 -0.016980764 0.37099755 0.24294844 -0.08867004 0.1259044

static_variable_selection.single_variable_grns.AgeDist.resample_norm.norm.weight f4 [16]
00000000: 5f35 3e3f 62cc 763f d65e 743f 8886 4b3f
00000010: d52b c43f aec7 013f 8582 913f 75aa 8b3f
00000020: dd3c 943f 3bd8 a33f b9f0 4e3f 3b25 803f
00000030: 93cb b73f 49a8 a93f 24d8 433f a793 983f
0.7430019 0.96405613 0.9545721 0.79502153 1.5325876 0.5069531 1.1367956 1.0911394
1.1581074 1.2800363 0.80836064 1.0011362 1.4359001 1.3254482 0.7650168 1.192006

static_variable_selection.single_variable_grns.AgeDist.resample_norm.norm.bias f4 [16]
00000000: ab7c 3f3e 092f 313d 8abe 50bc 8033 33be
00000010: 04ac 00be f71e a93d 800f 183d 2a8c e13c
00000020: ac0b e83d cdd8 69be 8ce5 833e 5462 b23c
00000030: 0b45 d93d 95b7 3cbe 8113 533e ad5e eebd
0.18699901 0.043257747 -0.012740741 -0.17500114 -0.12565619 0.08257859 0.037124157 0.027532656
0.11330351 -0.22836609 0.25761068 0.021775402 0.10608872 -0.18429406 0.20612909 -0.11639152

static_variable_selection.single_variable_grns.AgeDist.fc1.weight f4 [8, 8]
00000000: 050b a63e 0461 923e 9555 803f e8c0 fa3e
00000010: 783f 8bbf e7d1 0ebf d873 743f b98a 8dbf
00000020: 2ce8 193e 0ced 91bd f4dd 5e3f 60b1 333f
00000030: 7ec7 74bf dc98 37bf 8638 1abf 3f5d 6cbd
00000040: f81c 26bf 1e70 8a3e 619e ddbe 044a e03e
00000050: db6c 05be bbd2 723e 188b 8cbe d791 edbd
00000060: 994d 94be eba1 4ebe ba89 1dbf 5e09 cc3d
00000070: bc78 923f 7477 e23d 841e 603e 9f07 6c3e
00000080: 13a2 2c3f f509 133f c3b1 293f 6096 65bf
00000090: 64d6 ac3e 083d ffbe ceb0 40be 727a 52bf
000000a0: d42f 853f 79ac 24be 8198 7dbf 11c2 85bf
000000b0: 90e0 613f 487e 593f 27e9 e93e 4c51 afbf
000000c0: 50be 423f c8ff febe 6480 313f c2f9 b73c
000000d0: 2611 f8be 129c 85bf d5df eebb 7999 4e3f
000000e0: 1f79 8cbe 4752 16bf 98c5 a03f 000e 3f3e
000000f0: f37e 3cbf 2207 28bf 31bc ffbe 4bf3 5ebc
0.32430282 0.28589642 1.0026118 0.489753 -1.0878744 -0.55789036 0.95489264 -1.105796
0.15029973 -0.07125291 0.87057424 0.7019253 -0.956169 -0.7171762 -0.602425 -0.057706114
-0.6488795 0.27038664 -0.43284896 0.4380647 -0.13029806 0.237132 -0.2744987 -0.11600082
-0.28965452 -0.20178954 -0.6153828 0.09962724 1.1443095 0.1105794 0.21886641 0.23049782
0.67434806 0.5743707 0.6628687 -0.8968258 0.33757317 -0.4985125 -0.18817446 -0.82218087
1.0405221 -0.16081418 -0.9906083 -1.0449849 0.8823328 0.84958315 0.45685694 -1.3696685
0.76071644 -0.4980452 0.69336534 0.022457961 -0.48450583 -1.0438254 -0.0072898665 0.8070293
-0.27436158 -0.58719295 1.2560301 0.18657684 -0.7363121 -0.65635884 -0.49948266 -0.01360781

static_variable_selection.single_variable_grns.AgeDist.fc1.bias f4 [8]
00000000: 0dc9 c9bd d7c5 2f3e 385b 3bbe b698 65be
00000010: a1e5 55be 3330 3cbe 562f 293e 4fa8 723e
-0.098528005 0.17165314 -0.18296516 -0.22421536 -0.20888378 -0.18377762 0.16521963 0.23697017

static_variable_selection.single_variable_grns.AgeDist.fc2.weight f4 [8, 8]
00000000: 5f34 e6be 51d4 3ebf 05c0 823f 167e 393f
00000010: cfe9 fc3e d801 0c3f 3cba a53e 3c7c a1bf
00000020: 8db5 93bd 079f a7be f391 443e 43d7 80be
00000030: c07d c4be 895e 853e 104b b53e 53d4 fbbe
00000040: c983 3f3e 0bc0 253e f935 d83e 2d8e 093f
00000050: 8a87 123e 6922 f63e b8a4 8a3f 78b8 2f3e
00000060: fad3 b43d f300 b2be 6b2d bcbe fcac d83e
00000070: 94c7 23bf 8af0 943f c5a6 3cbf 5847 93bf
00000080: 77de 9ebe 5030 2dbf c693 babe 6fb3 d83a
00000090: b83f a73e 5c54 833f 3d1e 33bf 78ad 03be
000000a0: 3d11 5b3e 8a5c f8be b77e 203d ab8a d83d
000000b0: 402c 2d3d 55f2 28bf d90c afbe 7f7c 2bbf
000000c0: e8b0 05be fc49 a93e a749 84bd 70df 683f
000000d0: 99b5 f2bd 3614 373c 99f9 7b3f 2b28 343f
000000e0: 0276 d03e 1db9 633d 70aa 4a3f 753b e13c
000000f0: cf82 3cbf e945 353e f3e7 bbbe b6d6 72be
-0.4496183 -0.7454272 1.021485 0.72458017 0.49397132 0.54690313 0.32368648 -1.2616038
-0.072123624 -0.32738516 0.191963 -0.25164232 -0.3837719 0.26048687 0.3540883 -0.49185428
0.18702616 0.1618654 0.42228678 0.5373257 0.14309517 0.48073128 1.0831518 0.17160213
0.08829494 -0.3476635 -0.367534 0.42319477 -0.6397641 1.1635907 -0.7369197 -1.1506147
-0.31029102 -0.67651844 -0.36440867 0.0016532968 0.326658 1.026012 -0.69968015 -0.12859142
0.21393295 -0.48508102 0.039183345 0.10573324 0.04227853 -0.6599477 -0.3418949 -0.6698684
-0.13055766 0.33064258 -0.064593606 0.9096594 -0.11851043 0.011174252 0.9842773 0.7037379
0.40715033 0.05559646 0.79166317 0.027494172 -0.736371 0.1770245 -0.367004 -0.23714718

static_variable_selection.single_variable_grns.AgeDist.fc2.bias f4 [8]
00000000: 71e1 00bb 6464 eebd 5533 00be 6891 57bd
00000010: 91f7 0fbe 95ed be3d e3bc d0bd d34a dabd
-0.0019665624 -0.11640242 -0.12519582 -0.052628905 -0.14059283 0.09322659 -0.10192277 -0.10658803

static_variable_selection.single_variable_grns.AgeDist.gate_norm.glu.fc.weight f4 [32, 8]
00000000: 1f44 9dbe f562 47be 8f41 12be 9de9 b3be
00000010: 4083 1fbd bc20 8c3e e1cc 6c3d 9e9d 1d3e
00000020: 2e82 cbbd 394b 4c3e 5983 ef3c b016 2d3d
00000030: 6480 b4be 06e4 e63d a7a1 bd3e 1c1b 02be
00000040: a342 92bd 60ca 4f3e 11a3 10be 8885 af3c
00000050: e225 20be f180 763d f44e 91be 748f 1fbe
00000060: 98bf c9bc b00b a23e 3937 b4be 216a 183e
00000070: 1969 443e f83e 7b3e f1af d3be f9c7 d6bd
00000080: fe8e f8be f770 b2bd 1810 09be f30c e3be
00000090: f083 15bf a924 ecbe ed69 ca3e a31e 3abf
000000a0: d5f9 aabc bf03 f8be ecb4 85be b770 f83e
000000b0: 11ec 043e e9c5 a83e 14f1 84be c60e 303e
000000c0: eed9 89be 5caf 16be bb84 5cbd 9bda 9bbe
000000d0: df4d e83c d285 58be 906d cfbc 9a63 153e
000000e0: 7d47 82be 4ac2 02bf 7153 8e3e dd01 ecbe
000000f0: d832 3b3d aa0b 6a3e 02a6 2fbd e9eb 51bd
00000100: 8e18 b23d 2279 adbd 706f ccbd d7c5 87be
00000110: 7565 dbbe e837 9f3e 687a 0cbe 221a 833e
00000120: 7ab8 2b3d 7b2d f23e 8f2f 063d b59a c03c
00000130: bb4e acbe 5b33 81be 5cf0 84bc cede 0cbf
00000140: f143 f3bd ddaf 453e 0361 fa3e 347f e6bd
00000150: 369b 76be 2738 81bd e962 d03e 8456 dc3e
00000160: 35e4 33bd 8774 99be 01f0 923e 5255 883e
00000170: 94a5 773e fd3f e7bd f301 a93e 5b04 75be
00000180: 8477 313e 0518 f53d 1500 713d 1619 3a3d
00000190: d454 ab3e b510 a03e 4392 0ebf 45cc 7fbd
000001a0: 1255 853f 8cea c63e 9169 023e 54e0 683f
000001b0: d93c 183f 46c6 a93e dfa9 9dbe f433 4abe
000001c0: ef08 633e e6af 97be feb5 adbd 3f15 653e
000001d0: 06bd c83e 3eae 113f 63dd 37be 333f 10bd
000001e0: 8754 16bd d7b9 153e dadd fe3e 2155 bfbe
000001f0: 3264 5b3e 37b8 a4be 4088 ee3e 1927 edbd
00000200: c645 293d a4d1 9d3e d3ed 753e 42ff c4bc
00000210: 4645 003f 9a74 ac3e 1d72 753e 5bdb 183d
00000220: dc24 72be 8b6d 17bc 2ec3 10be b954 d6be
00000230: 1222 843e f36d eb3d 27d7 943c 8a1c 1b3e
00000240: 8fb0 553e 0acf eb3e 8e16 423e 27a4 69be
00000250: 9ca0 d4be c5f9 c1be 5fba 133f 442a e5be
00000260: 9d49 9dbd 21d1 853e 5bfe b03d abdc a1bd
00000270: 4c19 b9be d9e0 a3be be69 143f 4ade e6be
00000280: 0216 3c3e 3639 4ebd 963f ab3c 96a1 483f
00000290: f862 423f 360d 963e b833 bebe 1d8c ab3c
000002a0: 85ee 373d 24f9 b73d bd6c 97be b73f 20be
000002b0: 1f5e 92be 9099 423e b812 15be da2c 833d
000002c0: 0671 e3be df08 07be 5e6d f0be 5921 113e
000002d0: 0a8a babe 41df d5be a0fd 233f a178 13bf
000002e0: eae8 17bf 2047 9fbe 5176 61be 0c1e 253e
000002f0: 38f0 f4be f96b dfbe 1d95 013f 4466 563e
00000300: f698 483a b316 2abe 7c7d 873d f05c 3e3e
00000310: 2b00 833e aa91 853e 9a2d e4be 814f 13be
00000320: da3c 3ebe 7287 8fbe 9815 9a3e f366 9fbd
00000330: 6519 003d 2741 733e e40e 423e fc5c 25be
00000340: af62 c4bd c1b7 24be e1fd 83bd 6b93 a5be
00000350: 4403 3ebe 9a25 8d3d 5ed4 be3e e428 c8be
00000360: 190a 1bbe 442a 44be 940a abbe d8f7 953e
00000370: c25d 48bd 9232 623e 4229 253e 7ae8 d13d
00000380: 081f 25be 0fb4 a63c a0e0 863e 0bde e5bd
00000390: f8ac 87be bf1e 5fbe 6655 053e 64f0 65be
000003a0: 2862 b53e f81c 2ebf 78cf 223f 330c dbbd
000003b0: 6112 983e 9497 06be 193e c93d 9c97 203f
000003c0: 1b5c a63e ca1f a3be c7e9 6c3e 0c57 21be
000003d0: 948f 5e3e 98ca 0b3e 9426 53be 648b 2dbe
000003e0: dec2 4fbe 0b5b 2cbe dcea 7a3e e8af 62be
000003f0: 2418 863d 38d7 64bd 7cb8 fc3d 3625 08be
-0.30716035 -0.19471343 -0.14282821 -0.3513917 -0.03894353 0.27368724 0.057812575 0.15392157
-0.09936939 0.1995057 0.029237436 0.042257965 -0.35254204 0.11273961 0.37037393 -0.12705654
-0.07141616 0.20292044 -0.14124705 0.021425977 -0.15639451 0.06018156 -0.2838055 -0.15582067
-0.024627492 0.31649542 -0.35198382 0.14884235 0.19180717 0.2453574 -0.4134517 -0.104873605
-0.48546594 -0.087129526 -0.13385046 -0.44345817 -0.58404446 -0.4612172 0.3953394 -0.72703
-0.020871082 -0.48440358 -0.26114595 0.48523495 0.12980677 0.32963493 -0.25965178 0.17193136
-0.2692408 -0.14715332 -0.05383752 -0.3044022 0.028357444 -0.21144798 -0.025320798 0.14588776
-0.25445166 -0.5107771 0.27798036 -0.46095172 0.045702785 0.22856012 -0.042882927 -0.051250372
0.0869609 -0.0847037 -0.099821925 -0.26518127 -0.42850843 0.3109734 -0.1371857 0.25605875
0.041923977 0.47300324 0.0327602 0.02351127 -0.33653817 -0.25234494 -0.016227894 -0.5502747
-0.11878193 0.19305368 0.4890214 -0.11254731 -0.24082646 -0.06309538 0.40700462 0.43034756
-0.043918807 -0.29971716 0.28698733 0.26627594 0.24184257 -0.11291502 0.330093 -0.23927443
0.17330748 0.11967472 0.05883797 0.04543408 0.33463156 0.31262746 -0.5569193 -0.062450666
1.0416586 0.3885082 0.12735583 0.909673 0.59467846 0.33159083 -0.30793664 -0.19746381
0.22171377 -0.29626387 -0.08481978 0.22371386 0.39206713 0.569065 -0.17955546 -0.03521652
-0.036701705 0.14621674 0.49778634 -0.37369636 0.2142494 -0.32171795 0.46588326 -0.11579723
0.041326307 0.30824006 0.24016504 -0.024047498 0.501057 0.3368271 0.23969312 0.03731857
-0.23646873 -0.009242426 -0.14136955 -0.41861513 0.25807244 0.114955805 0.018168999 0.15147606
0.20868133 0.46056396 0.18953916 -0.22816525 -0.41528785 -0.37885872 0.57706255 -0.4475881
-0.07680056 0.26136115 0.086422645 -0.07903417 -0.36152112 -0.32007483 0.5797385 -0.45091468
0.1836777 -0.05034753 0.020904344 0.7837156 0.75932264 0.29306954 -0.37148833 0.020940835
0.044905204 0.08983067 -0.29575148 -0.15649305 -0.28587434 0.19003892 -0.14557922 0.06405039
-0.44422168 -0.13186978 -0.4695844 0.14172877 -0.3643344 -0.41771892 0.64058876 -0.5760594
-0.59339774 -0.31108952 -0.2201779 0.16124743 -0.47839522 -0.43637064 0.50618154 0.20937449
0.00076521875 -0.16610222 0.06615731 0.1859014 0.25586066 0.26087695 -0.4456604 -0.14385797
-0.185779 -0.28033024 0.300946 -0.07783308 0.031274218 0.23755322 0.18950993 -0.16148752
-0.09589135 -0.16085722 -0.06444908 -0.32339033 -0.18555933 0.068919376 0.37271398 -0.39093697
-0.1514057 -0.19156748 -0.33406508 0.29290652 -0.04891754 0.22089604 0.1612902 0.102494195
-0.16125119 0.02034953 0.2634325 -0.11223992 -0.26499152 -0.21789072 0.13020858 -0.22454983
0.3542645 -0.6801295 0.6359782 -0.10695686 0.29701522 -0.1314376 0.09826297 0.6273134
0.32492146 -0.3186019 0.23136054 -0.15755862 0.21734458 0.13651502 -0.20620185 -0.16947705
-0.2028918 -0.16831605 0.24503654 -0.22137415 0.06547573 -0.05586931 0.12339875 -0.13295445

static_variable_selection.single_variable_grns.AgeDist.gate_norm.glu.fc.bias f4 [32]
00000000: ed0b 3b3e f195 a43d 2a45 b53d 7002 c1bd
00000010: 267f c7be 1c43 6c3d dba2 ea3d 0376 2b3e
00000020: 3779 ce3d 9b9e bbbd c866 cd3d 6dbb 07bd
00000030: 2d7c 66bd b9be 09be 28f4 603e eab3 c3bb
00000040: 2df6 a9be eba1 00be 6d7f 77be bc4d 0cbd
00000050: c18f 84bd 47c4 0e3e d9a4 72be d0da 9bbc
00000060: 2808 093e 035e 7abd 9274 83be 20c8 34be
00000070: 9f57 22be ff4b fa3e 4f95 ac3e eaf2 bd3b
0.18266268 0.080364116 0.088510826 -0.09424293 -0.38964194 0.057681188 0.114568435 0.16744237
0.10081714 -0.09161111 0.100293696 -0.033137728 -0.056270767 -0.13451661 0.21968138 -0.005972375
-0.3319563 -0.12561767 -0.24169703 -0.03425382 -0.064727314 0.13942061 -0.23695697 -0.019025236
0.13382018 -0.061124813 -0.25674874 -0.17654467 -0.15853737 0.48886105 0.33707663 0.00579678

static_variable_selection.single_variable_grns.AgeDist.gate_norm.add_norm.norm.weight f4 [16]
00000000: 2be3 433f f943 7f3f f9e9 793f 51af 7e3f
00000010: 7e84 b63f 1b7f 353f c3d6 a43f a593 9e3f
00000020: 090d 7b3f 1cd7 873f 5ba1 963f 1c9d 7b3f
00000030: 1c32 c13f cf11 c93f 8868 583f 6cf5 a63f
0.76518506 0.99713093 0.9762264 0.9948626 1.4259183 0.7089707 1.287804 1.2388808
0.98066765 1.0612521 1.1767992 0.98286605 1.5093417 1.570856 0.845345 1.3043647

static_variable_selection.single_variable_grns.AgeDist.gate_norm.add_norm.norm.bias f4 [16]
00000000: 1bf3 43bc 8e34 243e e4cf 353e 56c6 27be
00000010: 1d2e 0b3e 98b4 ccbd d254 843d 6d7f c0bc
00000020: 1803 b7be 7922 07be 6306 b43e 48f0 cf3d
00000030: 3576 75bd 5415 9ebe e919 9bbd 3331 8a3d
-0.011959816 0.16035673 0.17755085 -0.16384253 0.1359181 -0.09995383 0.06461491 -0.023498261
-0.35744548 -0.13196744 0.35161123 0.10153252 -0.059927184 -0.30875647 -0.07573301 0.06747665

static_variable_selection.single_variable_grns.HealthDisp.resample_norm.mask f4 [16]
00000000: 1ccc 033c 2db7 ab3e a8b1 1f3f 4fea 4a3c
00000010: 0860 d3bd cf95 ffbc 97dd 2a3e 990a 633e
00000020: d1ae 3bbd f4c4 9ebd 09aa 01bf 6603 8ebd
00000030: 525b e93d 5aa2 c5be 5fe3 773e 7fc9 b53c
0.008044269 0.3353819 0.62380457 0.012384965 -0.10321051 -0.031199364 0.16686092 0.22172011
-0.045821015 -0.077524096 -0.5065008 -0.06934242 0.11394371 -0.38600427 0.24207829 0.022190807

static_variable_selection.single_variable_grns.HealthDisp.resample_norm.norm.weight f4 [16]
00000000: 77e1 8c3f 1dd7 8a3f a4af b43f 7623 a43f
00000010: 0ddb 843f 9eb2 8b3f f293 b83f c0f4 ce3f
00000020: d50c 853f e574 a53f 6f3d 513f 5c9d 943f
00000030: 811f 473f 544f 503f 1082 ac3f 6de7 8b3f
1.1006306 1.0846897 1.4116101 1.2823322 1.0379349 1.0913885 1.4420149 1.6168442
1.0394541 1.2926298 0.81734365 1.1610522 0.77782446 0.81371045 1.3477192 1.093

static_variable_selection.single_variable_grns.HealthDisp.resample_norm.norm.bias f4 [16]
00000000: 9581 a1bd 0a63 9a3d 4ff7 d5bc 8a81 2cbe
00000010: 5600 0f3c f3e1 de3c 2964 523b a46a b9bc
00000020: a803 5ebd 3451 0dbe 1ddb a03e fd0a c6bd
00000030: daed 163d 294a 36be 9d15 5a3e a5e4 083e
-0.07886044 0.075384215 -0.026118902 -0.1684629 0.008728107 0.02720735 0.0032103157 -0.022633858
-0.054202706 -0.13800508 0.3141717 -0.096700646 0.036847927 -0.17801727 0.21297307 0.13368471

static_variable_selection.single_variable_grns.HealthDisp.fc1.weight f4 [8, 8]
00000000: 2b61 603c 250d 43bf 1f26 093f 4d87 5abf
00000010: 7ce4 20be 0f3f d9be cd8a ddbd a909 59be
00000020: 5178 93bd 2cc3 d5be 8bf5 9ebe 4680 08bf
00000030: 1fe7 60bd 4154 c53e 91a1 593f 94b3 f3be
00000040: 89b0 833f 87ed b8be f468 a13d a6b2 a7bf
00000050: fc90 8ebf f440 f93e 500e be3e d662 83be
00000060: 5d29 80bf 4bf7 9fbf 616a 0c3e 2f58 9bbf
00000070: c641 573e 90ff 543e 4f78 48be 9b77 4e3e
00000080: 05b3 a8bd 30f5 57bf c3e7 3a3f a0a6 97be
00000090: 4fb5 05bf 7b07 9d3e 0505 b63e f58a d33e
000000a0: 7bfc c4be a47f 113f 37b8 83be beec 793e
000000b0: f3d1 773e 7cca 233e fb1d df3e f14b c8be
000000c0: 722b 44bf de60 91be 95d0 26bf 2f26 c03e
000000d0: 0f5b dabe 2902 fcbc ebd7 1c3f dbae 1f3f
000000e0: 3f01 6bbd fe0d 39bf 59ba 3a3e 8f4f 2d3f
000000f0: 20e8 7cbe 5b16 2ebe b538 97bf 21fc 6d3d
0.013695042 -0.7619193 0.53573793 -0.853627 -0.1571216 -0.42430922 -0.1081749 -0.21195091
-0.07200683 -0.41750467 -0.3104671 -0.5332073 -0.054907914 0.38540843 0.85012156 -0.47597945
1.0288249 -0.3611872 0.07881346 -1.3101394 -1.1137996 0.48682368 0.37120295 -0.25661343
-1.0012623 -1.2497343 0.13712455 -1.2136286 0.21021184 0.20800614 -0.19577144 0.20162813
-0.0823727 -0.843585 0.7300989 -0.29619312 -0.5222978 0.3066977 0.35550705 0.41316953
-0.38473877 0.5683539 -0.25726482 0.24406716 0.24201183 0.1599521 0.4357756 -0.3912044
-0.7662879 -0.28394216 -0.6516202 0.37529132 -0.42647597 -0.030762749 0.61266965 0.62376183
-0.057374235 -0.72286975 0.18235148 0.6769952 -0.24697924 -0.17000715 -1.1814181 0.058101777

static_variable_selection.single_variable_grns.HealthDisp.fc1.bias f4 [8]
00000000: 1e6c 28be 5bd9 c1bb f36b 7a3d c84d 93bd
00000010: 19e2 51be 838a a1bc a78c 0c3e 326f a53c
-0.16447493 -0.0059158034 0.061138105 -0.0719257 -0.20496406 -0.019719368 0.1372553 0.020194624

static_variable_selection.single_variable_grns.HealthDisp.fc2.weight f4 [8, 8]
00000000: 480c 913f cd5c 27be fa3a f73d 0efe 063f
00000010: 3179 a23e 29d7 5a3e 45bb 37bd 5299 7fbe
00000020: c1a7 29bf 3738 f73e 7cce ad3d 47d8 193f
00000030: e4df 29bd a192 18bf 8bbf 97be 216d 263c
00000040: eb7e 52bf d4a3 343e 7a6e 31bf 0613 e03e
00000050: abb5 0d3f 44d3 d2bd 0c65 0a3f 3608 4f3f
00000060: 4372 443f f718 513e 2bed e03e 2a73 fc3e
00000070: e3e8 213e a498 cc3d 0feb d0be 8abd 2abf
00000080: 2082 2a3e 29c9 edbe 4893 0f3e d3e8 f9be
00000090: 37af cebd b0c9 a13d c6c3 033f 7dba 7cbe
000000a0: 7d2e 593d b6b3 e7be 8fda 7abf 7a59 bdbe
000000b0: 9242 d5bd b34b fabd e733 f3be 28c9 553e
000000c0: f040 bf3d 4484 0d3e d575 003f 6c04 023e
000000d0: d644 133f 98f0 dcbb 19e8 18be 3de5 07be
000000e0: c92b bd3d 14f1 c0be e89a 0abe b378 87be
000000f0: 6884 0bbf eb00 763f 6701 9bbe 31e7 3c3f
1.1331873 -0.16343994 0.12071796 0.52731407 0.31733087 0.2137114 -0.04485633 -0.24960831
-0.662716 0.48285076 0.084866494 0.6009564 -0.041473284 -0.5959874 -0.29638323 0.010157854
-0.8222491 0.1764062 -0.693092 0.43764514 0.5535533 -0.10294202 0.54060435 0.80871904
0.7673685 0.2041968 0.43930945 0.49306613 0.15811495 0.099900514 -0.40804335 -0.66695464
0.16651201 -0.46442536 0.14021027 -0.48810443 -0.10092013 0.07899797 0.514706 -0.24680515
0.05302285 -0.45254296 -0.97989744 -0.36982328 -0.10413088 -0.1222147 -0.47500536 0.20877516
0.09338558 0.13819987 0.501798 0.12697 0.5752691 -0.006742548 -0.14932288 -0.13271041
0.09236867 -0.37683928 -0.13535655 -0.26459274 -0.5449891 0.9609515 -0.30274507 0.7379027

static_variable_selection.single_variable_grns.HealthDisp.fc2.bias f4 [8]
00000000: 03a0 09be bd28 52bd 4b97 1b3c b8a6 07be
00000010: 0a2f a63d 108f f4bd aa53 4dbe 6f15 60bb
-0.13439946 -0.051308382 0.00949652 -0.13247192 0.08114441 -0.119413495 -0.20051447 -0.0034192463

static_variable_selection.single_variable_grns.HealthDisp.gate_norm.glu.fc.weight f4 [32, 8]
00000000: f71d 8dbe 1f21 fcbe ddb9 733e 0ac7 9f3e
00000010: 0844 9a3e 7c5c 28be e244 1fbe 0b0b 59be
00000020: 1564 84be 85fe 7bbe dbf3 d23d 9790 c4be
00000030: 6466 773e 0398 ca3c 792b 8c3d c1d7 243e
00000040: 3df9 863e 7da7 bc3e 94fa e33d 379d eb3e
00000050: b228 e0bd 4e9e b4be 1a1c 9f3e 24b6 463e
00000060: ea91 5bbd bd1f ec3d e099 c4be 08ef a13e
00000070: fa14 66be 6b36 7fbe 38e5 1e3e 9a8d 71be
00000080: d55a 263f f0c8 41bd bcf8 10bd e49c 303f
00000090: aaf3 94be 2d9a f4bd 673f 073f df74 20bf
000000a0: 7bc5 d63e 0af1 233e 3d66 eabe 63d4 c3bd
000000b0: 9825 02be e112 a4be 7416 44be 2c4d e5be
000000c0: 2d34 09be bfeb e43a e0ce 31be 6f03 a9be
000000d0: c450 b43c 9769 00be 0a85 e7be 2fdf 39be
000000e0: 0f0e 94be 5252 6e3d 6c98 36be 6b6c 923c
000000f0: 46d5 703e e071 c93d 0056 833e 9994 cb3c
00000100: b13c 92be 8c15 2a3e 9bfc c4bd 0e35 ddbe
00000110: b1a0 0b3f e587 053f 1d35 243e 0f8b bb3c
00000120: 45f6 da3e 95b2 0e3e 5864 613d 5ce4 ea3d
00000130: 1138 f03b 5aa9 31be 77f8 bdbd 845f 743d
00000140: a9c6 033f 5f19 21be 6d5d fb3d 24fd 633e
00000150: 2248 e93e 3d34 013f 0865 7ebe fb24 5cbe
00000160: 4203 40be c351 8c3c 58f8 cc3c b129 37be
00000170: aa2f a93c d485 4fbe 6d23 9d3d 72e3 b53c
00000180: 21ca be3e 478c d93e c666 2dbe 3a3d 4ebe
00000190: 3af1 fe3d a810 a23e 4c37 333e c220 10be
000001a0: 87ac c7be 84af 1abe 8c69 cdbd 6e66 ea3b
000001b0: 9644 15be a206 48bd 5507 163e f5c6 b03e
000001c0: 0608 8f3e 1a92 ca3e 1b33 59bd 4abe 023f
000001d0: 5d71 af3e 5f05 3b3e 1dcc 8f3e 4b64 22be
000001e0: a472 4b3e 0536 afbd 6071 aa3d 68ef 823e
000001f0: f9dc cebe 40c9 64be 69b2 9fbd 00ac 71be
00000200: 11fc 143f 84b2 703c 187a c0bc 61d9 05be
00000210: bbbe b3be 0b33 83bd 8344 b13e d479 bd3e
00000220: 2c18 28bc 2359 793e e265 d3be 782a d63d
00000230: c717 5abe dc0f 743e ae46 ae3d 72fa 2dbe
00000240: d0f1 cf3e f800 e93e a1b9 54be 44a4 f73d
00000250: 6e7c 29bf 6a1c b5be b7c8 093f 4f75 aabe
00000260: 0807 afbe accf b13e dcfa 373e 48ec b9bd
00000270: 5ce7 2c3e e728 bfbb aadd 19bf 9fbf 133f
00000280: 6e3f 083f 5dcc 123f 9aa1 bcbe 5036 e93e
00000290: 7fd9 81be 503f cdbe 3c19 963d 7683 b0be
000002a0: 3a28 3ebe 57ea d6bd d591 473e 69e0 b7be
000002b0: f956 ff3c 58bb 883d b23e e8be dbe4 a83e
000002c0: 2e54 dabe 6a15 babe 508a af3e cf79 6bbe
000002d0: 4f30 b4be a912 a7be 8f78 2abf 4a72 9b3e
000002e0: 49f3 febd e76e bc3e 4e52 a33e 2902 12bf
000002f0: fb50 313e cef2 a8be 9ccd 18bf 6387 c03e
00000300: fb09 8b3e 5725 683e bfb3 aabe 7000 dd3e
00000310: cf0d 0bbf 495c eebe d776 97bc e186 b2bd
00000320: c5fb 33bd 5cb3 593e 22f7 da3d 95fa 43be
00000330: 80aa bfbe e39a c2be c3fe 253d b8a8 3f3e
00000340: d9d4 123f f7f5 57bd b24d 113e b1e1 8abe
00000350: b17f 3dbe 2844 a13c 6bf3 a7be 43fd 653e
00000360: d699 153d b2cd 263f 5ade 193f 43e0 f33d
00000370: 9d40 82be 9a1e 1f3e a513 54be bd43 4a3e
00000380: 8db3 27bf 28df ae3e e6ff 71bd 3773 633d
00000390: fd68 fd38 845b a43e a452 1ebe dacc 61be
000003a0: a820 35be e170 17be 8f9a 04be 77b0 993e
000003b0: 97c3 0fbd a93d 8dbe 2954 e33e e4cb efbe
000003c0: 6921 f4bc d06e 053e fb6f 97be dc76 e0be
000003d0: 3b3e b33e df65 ea3b e8bd f2be 5550 8b3e
000003e0: 51a0 4d3e 9962 803e b261 3fbe 87c7 8d3e
000003f0: 1293 3abd e531 9bbe f59d 28be 5133 cbbd
-0.27561924 -0.4924402 0.2380137 0.31206542 0.3013003 -0.1644153 -0.1555362 -0.21195619
-0.25857607 -0.2460881 0.10300418 -0.38391563 0.24160153 0.024730688 0.06844229 0.16097929
0.2636203 0.36846533 0.11131778 0.46018383 -0.10945262 -0.35277027 0.31076127 0.19405419
-0.05360595 0.11529491 -0.38398647 0.3162768 -0.2246894 -0.24923103 0.15517128 -0.23589173
0.6498235 -0.04731077 -0.03539346 0.68989396 -0.2909215 -0.11943469 0.5283112 -0.6267833
0.4194754 0.16009918 -0.45781127 -0.09561994 -0.12709653 -0.32045653 -0.1914919 -0.4478544
-0.1339881 0.0017465277 -0.17364073 -0.33010432 0.022011168 -0.1254028 -0.45218688 -0.18151544
-0.28916976 0.058183976 -0.17831582 0.017873963 0.23518857 0.09836173 0.2565155 0.02485113
-0.2856193 0.16609782 -0.09618493 -0.4320454 0.5454207 0.52160484 0.16035886 0.022893457
0.42766014 0.13935311 0.055027336 0.11469337 0.0073309024 -0.17349759 -0.092759065 0.059661403
0.51475006 -0.15732335 0.12273679 0.22264534 0.45562845 0.50470334 -0.24843228 -0.21498482
-0.18751243 0.01712883 0.025020763 -0.17886998 0.02065261 -0.20265895 0.076727726 0.022203181
0.37263587 0.42489836 -0.16933736 -0.20140544 0.12448354 0.31653333 0.17501563 -0.14074996
-0.38998815 -0.15106016 -0.10029897 0.007153324 -0.14576945 -0.04883445 0.14651234 0.34526792
0.2793581 0.39564592 -0.053027254 0.5107161 0.34266177 0.18263768 0.28085414 -0.15858571
0.1986795 -0.08555225 0.08322406 0.25573277 -0.40402964 -0.22342396 -0.07797701 -0.23600769
0.5819712 0.014690999 -0.023495719 -0.13071205 -0.35106453 -0.0640622 0.34622583 0.3700701
-0.010259669 0.24350409 -0.41288668 0.10457319 -0.21298133 0.23834175 0.08509575 -0.16990069
0.40614176 0.45508552 -0.20773937 0.12091878 -0.6620549 -0.3537324 0.5382189 -0.33292624
-0.34185052 0.34728754 0.17966789 -0.0907827 0.16885132 -0.0058337334 -0.6010386 0.57714266
0.53221786 0.57343084 -0.36842042 0.4554925 -0.2536125 -0.40087366 0.07329032 -0.34475297
-0.18570033 -0.104939155 0.19489224 -0.359134 0.031169401 0.06676358 -0.45360333 0.32987103
-0.4264235 -0.36344463 0.34285212 -0.22995685 -0.35193107 -0.32631424 -0.6659021 0.30360633
-0.12448747 0.36803362 0.3189873 -0.57034546 0.17316048 -0.32997745 -0.59688735 0.37603292
0.27156052 0.22670494 -0.3334026 0.43164396 -0.54317945 -0.46554783 -0.018489284 -0.08717132
-0.043941278 0.21259826 0.10691668 -0.19138558 -0.3743477 -0.38008794 0.040526163 0.18716705
0.5735603 -0.052724805 0.14189795 -0.27125314 -0.18505742 0.01968582 -0.328029 0.22459893
0.036523663 0.65157616 0.60104907 0.11908009 -0.2543992 0.15539017 -0.20710619 0.19752403
-0.6550835 0.3415463 -0.059081934 0.0555298 0.00012083536 0.3210107 -0.15461212 -0.22050801
-0.17688239 -0.14789154 -0.12949584 0.30017444 -0.03509864 -0.27586105 0.44400147 -0.46835244
-0.029801087 0.13030553 -0.29577622 -0.43840683 0.35008416 0.0071532573 -0.47410512 0.27209726
0.20080687 0.25075224 -0.18689612 0.2769129 -0.045550413 -0.30311504 -0.16466506 -0.09921897

static_variable_selection.single_variable_grns.HealthDisp.gate_norm.glu.fc.bias f4 [32]
00000000: 8b55 51bd 3b82 633d 5185 8dbd a9a3 31be
00000010: 6e37 1d3c 869e 97bd c731 173d 7967 9c3d
00000020: 68f2 95bd 3439 22be d3e2 993e 9276 383a
00000030: 8ccc ea3c 5c0d 1ebe ca0b 363e 80bf c83d
00000040: 9e4e 7fbe f26c 20be 154e 10bf 897f b3be
00000050: 5dcd 35be e739 07be d04f c5be ed89 06bf
00000060: f622 a6be 753a a0be 988f 363e c1ab 80be
00000070: 115b 07be 1269 1abe bcc2 1cbd d861 38be
-0.05110697 0.05554412 -0.06910194 -0.17347588 0.009595735 -0.07403283 0.036912706 0.07636923
-0.07321626 -0.15842134 0.30055866 0.00070367113 0.028661989 -0.15434784 0.17777935 0.09802151
-0.24932334 -0.1566656 -0.56369144 -0.3505824 -0.17754121 -0.13205682 -0.38537455 -0.5255421
-0.32448548 -0.312946 0.17828214 -0.25131038 -0.13218333 -0.15079144 -0.03827165 -0.18006074

static_variable_selection.single_variable_grns.HealthDisp.gate_norm.add_norm.norm.weight f4 [16]
00000000: bc9f 5d3f edfc 903f f18d a03f 74c5 8e3f
00000010: d3e0 9d3f f8d0 693f 1554 9f3f 1615 b33f
00000020: e420 6c3f 3521 943f bb2c 5b3f a7fb 7f3f
00000030: ab93 c03e f0b0 a53e 3134 9c3f 7b45 5f3f
0.8657186 1.1327187 1.2543317 1.1154008 1.2334236 0.91334486 1.2447535 1.399081
0.9223769 1.1572634 0.8561513 0.99993366 0.37612662 0.32361555 1.2203428 0.87215394

static_variable_selection.single_variable_grns.HealthDisp.gate_norm.add_norm.norm.bias f4 [16]
00000000: 2712 843c 2fa6 ba3d b110 543d fad4 40be
00000010: 4517 ff3d aea9 87bd a503 1ebd a34d d4bd
00000020: 8b75 a1be 2149 93bd b17e 9d3e 3783 913d
00000030: 71a2 68bc f23f 8dbe 1c51 ae3c 9c49 c53d
0.016121937 0.09113728 0.05177373 -0.18831244 0.1245561 -0.06624161 -0.038577694 -0.103663705
-0.3153499 -0.071916826 0.3076072 0.07105105 -0.014198885 -0.2758785 0.02127891 0.096331805

static_variable_selection.prescalers.AgeDist.weight f4 [8, 1]
00000000: 2334 5fbd 61c7 9dbe 302c 1e3f 69a4 b53e
00000010: c48b 1bbf 638e f3be 21c2 2fbf 4057 963e
-0.05449308 -0.30816177 0.61786175 0.35476997 -0.6076014 -0.4756957 -0.6865559 0.2936344

static_variable_selection.prescalers.AgeDist.bias f4 [8]
00000000: c87d b4be a293 df3e 998e 303f 82c4 913e
00000010: b91c 09bf 9d3b 04bf 5b7d bbbe 76f1 6fbd
-0.35252213 0.43667322 0.68967587 0.28470236 -0.5355945 -0.5165346 -0.36619076 -0.058579884

static_variable_selection.prescalers.HealthDisp.weight f4 [8, 1]
00000000: c2b6 b43e 128b afbf aacf 843f 587d 9fbf
00000010: a854 783f f4b4 443d 3981 3a3f 978e b13e
0.35295683 -1.3714316 1.0375874 -1.2460127 0.97004175 0.048024133 0.7285343 0.346791

static_variable_selection.prescalers.HealthDisp.bias f4 [8]
00000000: b389 d13d e8ca ad3e 40ce b73e c7a8 c43e
00000010: ba2d 843e daf4 1ebf 0281 e63e e59a c03e
0.10231342 0.33943868 0.35899544 0.38410017 0.25816137 -0.62092364 0.450203 0.37618175

encoder_variable_selection.flattened_grn.resample_norm.mask f4 [9]
00000000: e9b8 f6be 2038 30bf ab58 57bf 1ac3 d6bd
00000010: 8aa6 263c a824 2d3e dc56 93bf 2be7 9d3e
00000020: d238 763e
-0.4818795 -0.6883564 -0.8411967 -0.104864314 0.010171542 0.16908514 -1.1510882 0.3084043
0.24045113

encoder_variable_selection.flattened_grn.resample_norm.norm.weight f4 [9]
00000000: 8bc8 7b3f e932 b93f 0b68 263f eee3 ac3f
00000010: 2dbe df3f dbab d23f 746c 343f f0bd ae3f
00000020: be24 de3f
0.9835288 1.4468662 0.65002507 1.3507059 1.7479912 1.6458696 0.70477986 1.3651714
1.7354963

encoder_variable_selection.flattened_grn.resample_norm.norm.bias f4 [9]
00000000: ae6c 46bd db97 173e b69b ad3e 99d0 80be
00000010: 0027 e7bb 6e86 89be fbdd b8bc 6c47 d93e
00000020: a40c 7bbe
-0.04844349 0.14804022 0.3390786 -0.25159147 -0.0070542097 -0.26860374 -0.022566786 0.42437303
-0.24516541

encoder_variable_selection.flattened_grn.fc1.weight f4 [9, 72]
00000000: c477 793e 3843 8f3d ed66 643c 7001 c13c
00000010: d6b3 bbbe 1501 51bc 41b1 143e b125 d5bc
00000020: d978 1dbe b50d 283d 9d06 e73d 1893 cebd
00000030: adb1 373e 0eca 4ebd e54e a03c bb61 95bd
00000040: 0ecc 14be e974 c43e 8e2b 13be 26ad e1be
00000050: 172c b03d d37d 13bd 2ada 0fbe 1a1d c2bd
00000060: eac7 fc3d ba71 d6bd fd6b 0fbe ed9c 693e
00000070: 5975 45be ac6b adbc cdb5 6e3e 6edc 7e3e
00000080: 3106 3b3e f54b ce3e 1ccb 10be 680b 023e
00000090: d8a5 bb3e 1e73 84bc e279 fa3c 59ff 6ebd
000000a0: a81b c5bd 9f71 30bc 6f9b 46bd 71a4 2f3e
000000b0: c42b 00be 99ca a43d 440b 5f3e c4ab 5cbe
000000c0: 9282 213e 7fca 7dbe a308 5dbe 0e04 c2bd
000000d0: 6fe4 503e 9744 41bd 6426 0f3e 20ec 633e
000000e0: 23a1 8f3f db4c fd3e f7d9 55bf 8631 393e
000000f0: 86b0 7ebe 0ace 3f3e 6707 4e3d bf00 4e3f
00000100: b676 00bf 0c17 47bd 57ab 1ebd 1591 1ebd
00000110: 6bb0 8e3d 2a21 8ebd 8ef7 afbc 102b 293e
00000120: 35ad bbbe d26c 643e 1ec3 b33e 3e07 d43c
00000130: eb26 a0be 92fd 113e 5ff0 e53d 7014 b83e
00000140: 0878 033d 9296 a63d d184 3c3e 7bb3 adbd
00000150: fed9 52bc b8aa abbd 7493 efbc 8869 b43e
00000160: c5e4 2cbe 9d18 353e f7a5 e03d c7e3 34be
00000170: f0a0 433e 3056 8d3d d2c4 75be 08ce edbd
00000180: 4563 0cbd b3c6 05be 2464 073f 17c9 4f3e
00000190: 37a4 50bd 7728 753e 7379 ab3d fc28 293d
000001a0: c6a6 d23e d869 35bd 22c5 9abe 0f60 42be
000001b0: 26e4 013e b801 533e 11f8 e13d 3243 a8be
000001c0: ed4b b6bd 3d9a c13d 652e 2abe 8415 133e
000001d0: 5d62 293e 53d9 923e c202 1d3e 8ea2 f03e
000001e0: 1df2 0b3f 7ab7 25bd 2e86 16bf cfcf 203d
000001f0: d37c 613e 4a1f be39 510f fb3c 6616 293d
00000200: 6c92 15be b095 dcbe 377a 5fbe 0e6a 1dbe
00000210: e441 2d3d 2d85 b1be 8296 b9be e1d3 383d
00000220: 61b3 5dbe 8f68 2abd bc0b a2be c30f 12be
00000230: dab5 f53d 9bc4 a6be c3ad 6f3e e7f6 3dbe
00000240: 1fdd 9b3d 6d9b 88be 7c71 0e3e 129b 7ebe
00000250: 4bcf 7c3c a687 4f3d c23d 053e d9f4 6c3e
00000260: 9503 843e e0f2 c8be 007f 1a3e ea08 91bc
00000270: b990 9ebc b891 de3e 2a24 65be 7e34 d5bd
00000280: 08a4 cf3d f535 e3bd 3416 293e 5abf 6cbe
00000290: afe1 91ba cdf7 993e be53 09bc fc0f 1c3d
000002a0: 87a6 ffbe 55ea 633e 83e6 733d 4481 da3e
000002b0: f3f3 2c3e de5e 4a3e ff15 b6bd b671 0ebf
000002c0: b8d4 ea3d cc8a 4e3d a23f 63be b4f1 eebe
000002d0: 0317 a43e 61a9 9e3e 9614 0a3d e236 9fbc
000002e0: ae33 a53e 29fa ff3d 1ac3 953e ea16 bdbe
000002f0: 43ed 19be 25ee bfbe fb1b 33be 7289 dc3d
00000300: cf7d 96bd fbc7 903d 5c46 cebd 9408 0a3d
00000310: 6c6b 1bbc ba7b 43bd e5fa cc3c 4fbf 57be
00000320: a978 cabe cccf 40bf ae45 3ebe 951e 01bf
00000330: 254d 163f 06be e2bc 3ea9 c4be 4e3c d1be
00000340: 1c8f 8d3e 91d8 20be 56cc 8f3e 4da9 933e
00000350: 3127 13bf 3ad9 043f c722 293f 4574 b6bc
00000360: 2d33 073f d340 1d3e a0b7 a53e 480d 463e
00000370: 5fab 423d 4eb9 b43d 5b97 08be cc8b d1bc
00000380: 1180 cbbd fc0f f93d 0893 4a3e a78c 143e
00000390: 5ea2 01bd 1373 633e 9cac 093e 4556 0fbe
000003a0: e810 b13d dcb9 53be efb8 75be 7e9e 6f3e
000003b0: 7475 033e 5218 b33e b99d 603e 7d23 383d
000003c0: 4336 c63c a071 093f 69c8 d8be c2a9 eebb
000003d0: c21a 9d3e efc3 93be 692c 03be 170e d3be
000003e0: be39 b1bd a8b7 10bf f554 7dbd c0ea 93be
000003f0: 1d90 42be 4afb 1a3f 42fa a63e 0637 0dbe
0.24362093 0.06995243 0.013940555 0.023560256 -0.3666064 -0.012756606 0.14520742 -0.02601895
-0.15378131 0.041028697 0.11280558 -0.1008665 0.17938872 -0.050485663 0.01956887 -0.07294031
-0.14530966 0.38370445 -0.14372084 -0.44077414 0.086021595 -0.036008667 -0.14048067 -0.09478207
0.12342818 -0.1047091 -0.14006038 0.22813769 -0.19283046 -0.021169506 0.23311539 0.24888775
0.1826408 0.40292326 -0.1413998 0.12699664 0.36649966 -0.016168173 0.030575696 -0.058348987
-0.09624416 -0.010769277 -0.048488077 0.17152573 -0.12516695 0.08046455 0.21781641 -0.21549898
0.15772465 -0.24784277 -0.21585326 -0.094734296 0.2039964 -0.047184553 0.13979489 0.22258043
1.122105 0.494727 -0.8353571 0.18085298 -0.24872026 0.18730941 0.05030003 0.8046989
-0.5018114 -0.048605964 -0.03873762 -0.03871258 0.06967243 -0.06939919 -0.021480348 0.16520333
-0.36655584 0.22307137 0.351098 0.02588236 -0.31279692 0.14256886 0.11227488 0.35953093
0.032096893 0.08134188 0.1841004 -0.08481499 -0.012869356 -0.083821714 -0.029245116 0.35236764
-0.16884144 0.1768517 0.10969155 -0.17665015 0.19104362 0.069012046 -0.24000862 -0.11611563
-0.03427436 -0.13064079 0.5288718 0.20291553 -0.050937857 0.23941217 0.08372774 0.04129885
0.41142863 -0.044290394 -0.30228525 -0.18981956 0.12684688 0.20606124 0.11033643 -0.32863766
-0.089012004 0.09453247 -0.1661926 0.14363676 0.16541429 0.2868143 0.15333083 0.4699902
0.5466631 -0.04045818 -0.5879849 0.03926068 0.22020273 0.00036262936 0.030646952 0.041281126
-0.14606637 -0.43082952 -0.21823965 -0.15372488 0.042299166 -0.34671918 -0.3624764 0.04512394
-0.21650459 -0.04160362 -0.31649578 -0.14263825 0.11997576 -0.32571873 0.23406129 -0.18551217
0.07610535 -0.2668108 0.13910478 -0.24863842 0.015430282 0.050666474 0.1301184 0.23140277
0.25783983 -0.392478 0.15087509 -0.017704446 -0.019356119 0.4347055 -0.22377077 -0.10410403
0.10138708 -0.11094276 0.16512376 -0.2311987 -0.0011129881 0.3007187 -0.008381782 0.03810118
-0.49931738 0.2225736 0.059546005 0.42676747 0.16889934 0.19762751 -0.08890914 -0.5564226
0.11466354 0.050425336 -0.22192243 -0.4666878 0.32048807 0.309886 0.03371104 -0.01943535
0.3226599 0.12498886 0.29250413 -0.36931545 -0.15031914 -0.37486377 -0.17491142 0.10768403
-0.07348215 0.07069393 -0.10072014 0.033699587 -0.009486061 -0.047725417 0.02502198 -0.21069072
-0.3954518 -0.7531707 -0.18581268 -0.5043729 0.58711463 -0.0276785 -0.38410372 -0.4086632
0.27648246 -0.15707614 0.28085583 0.28840104 -0.57481676 0.5189396 0.6606869 -0.022272239
0.52812463 0.1535676 0.32366657 0.19341004 0.047526713 0.088244066 -0.13338988 -0.025579356
-0.09936536 0.12161252 0.1978265 0.1450678 -0.031648986 0.22211866 0.13444752 -0.13997753
0.08645803 -0.20676368 -0.23996328 0.23400304 0.12837774 0.34979492 0.21935166 0.04495572
0.024195796 0.53689003 -0.423404 -0.0072834203 0.30684477 -0.28860423 -0.1280991 -0.41221687
-0.086535916 -0.5653024 -0.0618486 -0.28890038 -0.19000287 0.60539687 0.32612807 -0.13790521

encoder_variable_selection.flattened_grn.fc1.bias f4 [9]
00000000: 10cb 3ebe dd4c 77be 87bf cfbd 3068 a33d
00000010: fbe1 76bd 7abc 4dbe 1532 b2bd 5e9b 383d
00000020: 21bc 83be
-0.1863215 -0.24150415 -0.10143953 0.079788566 -0.060274106 -0.2009143 -0.08700959 0.045070045
-0.25729468

encoder_variable_selection.flattened_grn.context.weight f4 [9, 16]
00000000: d6ff 99be ea14 22be 114b 9fbe 88bc 1abf
00000010: 5aa5 cabe 3823 a0be d981 1b3c a0a5 89be
00000020: f9ea a7be 9104 1ebf 18d9 9c3e ec8a b93e
00000030: 1824 62be 583a a5be 1b49 c9be 66c3 23bf
00000040: e59e 253b ab22 0bbd 83fa f5bd fa2d 5dbe
00000050: 0081 61be cf52 db3e 8e10 ddbe 400f bbbe
00000060: 4354 8bbe e70d 8c3c a4cc b4be 9b08 933e
00000070: cdf4 81be 7323 9c3b 4942 4c3e 4d0d 5abe
00000080: 4c20 40be bc58 743d ec65 fdbd 854d 0f3e
00000090: 2812 b0bd 850f c33e c71e 01be 253e 8dbc
000000a0: 5824 0bbe 9b41 373e 60d5 b6be 06ce a33e
000000b0: 945d cb3d 7a3d 0d3d 0fea 33be 7800 1f3e
000000c0: af8f 073d 494d 9d3e 3a72 70be 3d3b 903e
000000d0: b02c 60bd 086e 60be b6e5 c33e 1ae1 cf3d
000000e0: f97a 3ebe 88b2 073d c7c4 1d3f e6cb acbc
000000f0: dd91 87be 15f2 3bbc 46eb e33d 1373 fe3d
00000100: 88cc ccbe ffb4 82be 5e46 4cbf 4906 973c
00000110: ad48 0bbf 2896 323e aa2b ecbe 7ee6 00be
00000120: 05c4 0abd 7ac7 9fbe ef76 82bd 4fa3 dfbd
00000130: 4bf4 a4be 1116 feba 90df 05be 1ef7 4b3d
00000140: cae8 e4bd 7258 103e 8f48 a3bd 8eac 063e
00000150: c5d8 77be e79a be3c b82e 4abb b077 7fbe
00000160: 99dc 8f3e 857a d2bc 9b07 94be 091d 723e
00000170: 43b6 273c 8288 09be 7659 95bd 88db 993e
00000180: 63e2 223e 0d2b e3be 1d22 52be 6110 09bf
00000190: c795 c1be ce6f cc3e 497d 14be 0402 c6be
000001a0: 1e03 453e d89d 9dbe 925b 75bd 1c72 a93e
000001b0: 68de 45be 4ac3 6d3e 1bee ca3b c029 46bd
000001c0: c5a7 963d 5b98 543e ae31 053e 7adc f6be
000001d0: 98dd 38be 1a5f 8e3e 31e8 36bd 76ab 5bbe
000001e0: bf30 923e a371 033e 63d0 10be 2af5 423c
000001f0: 2de4 883e 45ca c6bb 003a 02be b4b5 793e
00000200: 0cf9 3f3e 65f5 c13e 5f35 2fbe f775 8abb
00000210: 95a8 bcbd 2fd8 e6bc 256f 29be 84cb 08bf
00000220: dd7f 5e3c 5340 f6bd f8dd 8dbe 5e1d 95be
00000230: 7944 2dbe a9f9 fdbd 37b1 57bd b10d 063f
-0.30078 -0.1582829 -0.3111196 -0.60443926 -0.39579278 -0.3127687 0.009491407 -0.26884174
-0.32796457 -0.6172572 0.3063438 0.362388 -0.22084081 -0.32271075 -0.39313588 -0.6397003
0.002527171 -0.03396861 -0.12010672 -0.2159957 -0.22021866 0.42836615 -0.43176693 -0.36535072
-0.27212724 0.017096473 -0.35312378 0.28717503 -0.2538208 0.004764968 0.19947161 -0.21294136
-0.1876232 0.059654936 -0.12372956 0.13994415 -0.08597213 0.38097778 -0.12609397 -0.017241547
-0.13588083 0.1789612 -0.35709667 0.3199312 0.09929958 0.034482457 -0.17569755 0.15527523
0.03309601 0.30723026 -0.23481074 0.28170195 -0.054730117 -0.21916974 0.38261193 0.101503566
-0.18601598 0.033129245 0.61628383 -0.02109332 -0.26478472 -0.011471291 0.11128859 0.124242924
-0.39999795 -0.25528714 -0.7979487 0.018435614 -0.5440777 0.17440093 -0.46127063 -0.12587926
-0.033878345 -0.31206876 -0.06370341 -0.109198205 -0.3221763 -0.0019385238 -0.13073564 0.049796216
-0.111772135 0.14096239 -0.07972824 0.13151762 -0.24203785 0.023267223 -0.00308506 -0.24948001
0.2809799 -0.025693187 -0.28912053 0.23643889 0.010236326 -0.1343098 -0.07292454 0.30050302
0.15906672 -0.44368783 -0.20520826 -0.5354062 -0.37809584 0.3992905 -0.14500917 -0.38673413
0.1923947 -0.30784488 -0.05990178 0.3309487 -0.19323123 0.23219028 0.006192935 -0.04837966
0.07356218 0.20761244 0.13007233 -0.48215085 -0.18053281 0.27806932 -0.04465503 -0.21452126
0.28552815 0.12836318 -0.14141993 0.011899272 0.26736584 -0.006066593 -0.12717438 0.2438572
0.18747348 0.37882534 -0.17110203 -0.0042254883 -0.09211842 -0.028179256 -0.16546305 -0.5343554
0.01358029 -0.120239876 -0.2770841 -0.29123968 -0.16920651 -0.124011345 -0.05265924 0.5236464

encoder_variable_selection.flattened_grn.fc2.weight f4 [9, 9]
00000000: 73fb 433e 39a3 71bd feff d23e fd76 dd3e
00000010: a38c eebc 52bd efbe 239d 563f 22f7 4fbe
00000020: 7444 0b3d 96f3 39bd 270c 293c 60a3 15bf
00000030: a296 49be f99b 493f 9d08 673f a546 0cbf
00000040: 9356 9a3d 2aaf f7be c7db 5c3e 23a9 c83e
00000050: 0759 803c 61df 893e d385 c13e 0b9d a33e
00000060: 45e6 11bf 22a1 fabe a3ae b43e 0914 c13c
00000070: de12 4cbe c7f2 52be aa47 8fbe 8526 bcbe
00000080: 4803 f53e efe0 493e 663e 1c3b 6947 11bf
00000090: a776 683f 489f 34be 45e1 1d3f 4940 4ebc
000000a0: 9dfd 3d3e 7271 2b3c 235e 0b3d 43e9 82bf
000000b0: c658 d1bd a00a e8be 9500 d73d 1618 d43d
000000c0: b3cf 19bc cbed d53e 057d 99be 4deb 2f3d
000000d0: 6e6b 3dbc e40f 103f db64 2bbe 13da 6abd
000000e0: 4a42 1fbf 8fbd a3be 46b7 db3e 5dd5 5fbf
000000f0: 21f7 31bf c5f0 1f3d 76fd e0be 9da6 90bf
00000100: ba99 c6be 4497 103f 524f 9ebe ffae ebbe
00000110: 646e 8bbe 12c9 71be 7d06 8abf 91d5 23bc
00000120: fdc0 d83c dfc0 493e 14fb e6be fe2b 6fbe
00000130: bedf 67be 4b67 c13e 1368 b83e 9899 053c
00000140: 56c7 30bd
0.19138889 -0.058993552 0.41210932 0.43254843 -0.029119795 -0.46824127 0.8383352 -0.20309117
0.03400083 -0.045398317 0.010317839 -0.58452415 -0.19686368 0.7875362 0.9024752 -0.54795295
0.07536044 -0.48375827 0.21568213 0.3919154 0.015667452 0.26928237 0.37797412 0.31955752
-0.5699199 -0.4895106 0.35289487 0.023569124 -0.19929072 -0.20600425 -0.27984363 -0.36748138
0.47854066 0.19714712 0.0023840903 -0.5674959 0.9080605 -0.17638886 0.6167186 -0.012588569
0.18553777 0.010464059 0.034025323 -1.0227436 -0.1022201 -0.45320606 0.10498158 0.103561565
-0.009387898 0.41782984 -0.29978195 0.04294901 -0.011561258 0.5627425 -0.16737692 -0.057336878
-0.62210524 -0.3198056 0.42913264 -0.8743494 -0.69517714 0.039047975 -0.43943375 -1.1300846
-0.3878916 0.56480813 -0.30919892 -0.4603195 -0.2723266 -0.23611858 -1.078323 -0.009999649
0.026459211 0.1970248 -0.45113432 -0.23356625 -0.22643945 0.3777412 0.36016902 0.008154295
-0.04315885

encoder_variable_selection.flattened_grn.fc2.bias f4 [9]
00000000: fbe5 723d a7dd dcbd bfbd 84be 6264 67be
00000010: 7d59 adbd d818 75be 9e45 1abe 980a 10be
00000020: 7e8f 763d
0.059301358 -0.10784464 -0.25926015 -0.22596887 -0.08464334 -0.23935258 -0.1506562 -0.14066541
0.06019544

encoder_variable_selection.flattened_grn.gate_norm.glu.fc.weight f4 [18, 9]
00000000: 34ba e2be 9fdc 13bc 46bb 7abe 5925 c13e
00000010: 47cf 8e3e b067 8dbc 60ab e1bd 2d26 d23e
00000020: cd6f 353f 4e5d b03e 8282 09bf d3fd 9dbb
00000030: 99fd 0bbf f1b4 aebc 9e36 303e c155 99be
00000040: d185 043f bd69 9abe 96cd 98bd d8cf cc3e
00000050: 0c47 4d3f 0547 bbbd 4559 63bd a44b 273e
00000060: 78fc c3ba 7cbc 5d3e f951 3ebd 4b84 413e
00000070: a5eb e9be c262 713d 9fe0 d03e 6a44 8d3e
00000080: 9270 0e3f a8c3 653e 53fb 323e f8a0 323c
00000090: edcb e93d c5ec 31be 18c5 643e dbae 88be
000000a0: ca32 bd3e 6ad5 26bc e16e 823d dc14 023f
000000b0: 2c1e 69be 2271 3c3e f7f3 c9be 1368 ae3a
000000c0: b29c 813e f750 5f3e b2fd abbd c270 03be
000000d0: 4f4b ad3e dafd c13d a7ab 45bf db32 093f
000000e0: 3a91 103e 1bed 123e f50e 293d 4f09 d0be
000000f0: 4870 603f 524d 3e3e bb4f 0e3c 84e9 893e
00000100: 1208 dcbe 9a86 1abe baf6 b5be 4687 ebbd
00000110: ab9f ecbd 23ec 22be 567a da3e 221d 81be
00000120: f4a0 17be 66ca 35bb 8d93 8b3d 9e42 2c3e
00000130: bf9d 72be 05d8 15be 053b a3be 46a5 b23d
00000140: 3e99 ee3e 3527 1cbe e690 6e3e 4a04 1ebf
00000150: 186c f63d 6f43 26bf e3c7 d0be b07a 913e
00000160: 87e0 ef3d 9b6d 06bd ce59 a73e a669 b7be
00000170: 2e9a ae3d 55f7 18bf b871 893e bb66 443d
00000180: 9480 8b3d aa1d 34be 2b0e 3fbf 6ed0 83be
00000190: b165 803d 3aba 5bbe 1261 da3e 6eae 39be
000001a0: fb16 00be 6ea0 f0be 5fa0 90be ddcc fd3e
000001b0: b3cc 0dbf f88c fe3e 49b7 15bf 19eb 103f
000001c0: bbb8 d6be 78cb 95be 49c5 a0be f76e 64be
000001d0: 3a90 8d3e cea6 fa3d c799 92be 25a8 8f3d
000001e0: 0f7c 8bbe b83a 05bd e69f d33e fb0e 2d3c
000001f0: 9a92 8f3d 503b c5be 26a6 0bbe d469 d53e
00000200: 3195 14bf 9d41 2dbe a469 0dbe f9cd 233d
00000210: b5f9 3d3d ec90 c7be 39eb 79be 12b6 a23e
00000220: 786f 91bd 0f47 13be 84cc f0bd a352 e13d
00000230: 7a3c 743e be9c d7be a9d5 34bc 6cc8 32be
00000240: ebee e13e a6d4 39bf 0c83 65be f468 efbe
00000250: ff88 8e3e 00bb 943e 9737 9abe 0c49 903e
00000260: d77b 4f3d d5a7 80bd d0e0 513f 88b1 253e
00000270: bbef 6b3e 017b 393e 04ad a13e 0108 85bd
00000280: 6bc4 963d 9498 253f
-0.44282687 -0.009024768 -0.24485502 0.37723807 0.27892515 -0.017261356 -0.11019015 0.4104475
0.7087372 0.34446186 -0.53714764 -0.004821518 -0.54683834 -0.021326514 0.17208335 -0.29948238
0.5176669 -0.30158797 -0.074610874 0.40002322 0.80186534 -0.09144405 -0.055505056 0.16337448
-0.0014952561 0.21653932 -0.046464894 0.18898122 -0.45687595 0.058932073 0.40796372 0.27591258
0.5564052 0.22437918 0.17478685 0.010902636 0.11415849 -0.17375477 0.2234081 -0.26695904
0.3695281 -0.010182718 0.06368805 0.5081308 -0.22765416 0.18402532 -0.39443943 0.0013306163
0.25314862 0.2180823 -0.08397998 -0.12835982 0.33846518 0.094722465 -0.77215046 0.53593224
0.141179 0.14348261 0.04127403 -0.40632102 0.8767133 0.18584183 0.008686001 0.2693597
-0.42974907 -0.15090409 -0.355398 -0.11500411 -0.11553892 -0.15910392 0.4267146 -0.2521754
-0.14807492 -0.0027739047 0.068152525 0.16822287 -0.23692988 -0.14633186 -0.31880966 0.0872293
0.4660129 -0.15249331 0.23297462 -0.61725295 0.12032336 -0.64946645 -0.407775 0.28413916
0.11712747 -0.03281937 0.32685703 -0.3582279 0.08525501 -0.597524 0.26844573 0.047949534
0.06811634 -0.17589441 -0.74630994 -0.25744957 0.06269396 -0.21457759 0.42652184 -0.18132946
-0.12508766 -0.46997398 -0.28247353 0.4957036 -0.5539047 0.49716926 -0.58482796 0.5660873
-0.41937813 -0.29256797 -0.31400517 -0.22307955 0.276491 0.12238847 -0.28632948 0.07014493
-0.27243087 -0.0325267 0.4133293 0.010562654 0.07010384 -0.38521814 -0.136376 0.41682303
-0.5804015 -0.1691956 -0.1380983 0.039991353 0.046380717 -0.38977754 -0.24406137 0.31779534
-0.07101339 -0.14382575 -0.11757758 0.1100209 0.23851195 -0.42111772 -0.011037269 -0.17459267
0.44127592 -0.725901 -0.22413272 -0.4675976 0.27838895 0.2904892 -0.30120537 0.2818073
0.050655212 -0.062820114 0.8198366 0.16181004 0.23040669 0.18113329 0.31577313 -0.06495667
0.073616825 0.6468594

encoder_variable_selection.flattened_grn.gate_norm.glu.fc.bias f4 [18]
00000000: 8f7d 1dbd 944a c43e ebd3 243e fe76 ddbe
00000010: a3da 1abd 31fb 8bbe d7ae adbe 3b0d 933e
00000020: 1003 32be c57c 243e 8084 b73e 1efc e4be
00000030: de6e 2c3e 66a5 503c 7493 2e3e b58e d4bc
00000040: a5cb 83bd aca4 3fbf
-0.03844982 0.3833815 0.16096465 -0.43254846 -0.037806164 -0.2734008 -0.33922455 0.28721032
-0.17383981 0.16063221 0.35843277 -0.447236 0.16839167 0.012734747 0.17048436 -0.025946954
-0.064353265 -0.74860644

encoder_variable_selection.flattened_grn.gate_norm.add_norm.norm.weight f4 [9]
00000000: 4b04 823f 45ca 503f f51a f03e e010 3f3f
00000010: b063 993f 2c7f 563f e246 713f b155 603f
00000020: 3d4c c03e
1.015756 0.8155864 0.46895567 0.74635124 1.1983547 0.837878 0.94248784 0.87630755
0.37558165

encoder_variable_selection.flattened_grn.gate_norm.add_norm.norm.bias f4 [9]
00000000: 9483 abbd 168c 3bbe b397 333d 29a8 45bd
00000010: a53e 29bd 5c40 3fbd 8784 b4be 66f9 343e
00000020: fbe9 a63e
-0.08374706 -0.18315157 0.043845844 -0.048256073 -0.041319508 -0.046692237 -0.3525736 0.17673263
0.32600388

encoder_variable_selection.single_variable_grns.LinearSpace.resample_norm.mask f4 [16]
00000000: 4749 b1be e78b 3abd da9c 01be f2b5 5abd
00000010: a0e7 123e f1de 963e d8cd 223e cdf9 5e3c
00000020: 43c5 b5be d5ce dbbc 599b 2d3b 121f 9bba
00000030: 88eb 763e 6f51 64be ddca 873e 857a 4b3d
-0.3462622 -0.045543578 -0.1265749 -0.053396173 0.1434617 0.29466966 0.15898836 0.013609362
-0.3550206 -0.026832024 0.00264903 -0.0011834821 0.24113286 -0.2229669 0.2652196 0.04967739

encoder_variable_selection.single_variable_grns.LinearSpace.resample_norm.norm.weight f4 [16]
00000000: d883 183f 8233 8f3f 6345 3c3f 4d26 5e3f
00000010: a0ff 9b3f a494 bd3f 55c2 933f b7f0 6f3f
00000020: dc45 2c3f c596 703f bb3a 803f 9fb7 783f
00000030: d5cc 9b3f 189c 223f 9ac6 ad3f 704e 953f
0.5957618 1.1187594 0.73543376 0.8677719 1.2187386 1.4810987 1.154368 0.93726677
0.67294097 0.93980056 1.0017923 0.97155184 1.2171885 0.6351943 1.3576233 1.1664562

encoder_variable_selection.single_variable_grns.LinearSpace.resample_norm.norm.bias f4 [16]
00000000: 0a89 3c3e 7591 e1bd c752 b33e f363 3c3d
00000010: dbc9 0dbe a47f 2cbf e6fe 49bd f524 06be
00000020: 1842 2bbe dc4a 8abc ffa8 343e 1bda 4e3e
00000030: c1cf 233e a54c 943e 5f0f d93d ac08 24be
0.18411651 -0.11014072 0.35024092 0.045993757 -0.13846533 -0.67382264 -0.049315356 -0.13100035
-0.16724432 -0.016881399 0.17642592 0.20200388 0.1599722 0.28964725 0.10598635 -0.16018933
