TFT-pytorch/results/industry_subgroup/Accommodation and Food Services/checkpoints/best-epoch=0.ckpt (torch, 703415 bytes, 506 tensors)

state_dict f4 [8, 1]
00000000: 8f01 33be 0579 40bf 9699 0d3f 1f36 0b3f
00000010: 318a 67bf e2bd 83be 80c0 23bf 7d00 0e3f
-0.17481063 -0.7518466 0.5531248 0.5437946 -0.9044524 -0.25730807 -0.63965607 0.55469495

state_dict f4 [8]
00000000: 95de a0be 8554 0c3f ac3f 333f e5e7 b53d
00000010: fbb0 b8be f712 13bf 0109 e7bd 5f8c 93bd
-0.31419817 0.54816467 0.7001903 0.08882121 -0.36072525 -0.57450813 -0.11281014 -0.07204508

prescalers.SinWeekly.weight f4 [8, 1]
00000000: 5dd9 683e 5d3e 86bf 42b3 653f 3f94 55bf
00000010: b85f 3e3f fa3e c0be 3f59 333f a4e8 cc3e
0.22739168 -1.0487782 0.8972665 -0.8342933 0.74364805 -0.37548047 0.70058054 0.4002124

prescalers.SinWeekly.bias f4 [8]
00000000: 9bfb ae3d 3b9e babd 6f6d 363f 01de 663e
00000010: 2870 173f 50f9 2cbf 10bf 363f d07f c63e
0.08544084 -0.09112211 0.7126073 0.22545625 0.5915551 -0.6756792 0.7138529 0.38769388

prescalers.VaccinationFull.weight f4 [8, 1]
00000000: 6d75 1d3e c384 783e 6419 2d3f 94a8 443f
00000010: 5139 0cbe a6ca 52bf 452a 03bf ca2a 17bf
0.15376826 0.24269395 0.6761687 0.7681973 -0.1369374 -0.82340467 -0.51236373 -0.59049666

prescalers.VaccinationFull.bias f4 [8]
00000000: 2638 c63e c5ea 26bf bb79 b2be bbf5 6a3f
00000010: 0195 453f 6542 393e bbbb 1cbe bf2a b93c
0.38714713 -0.6520198 -0.34858498 0.91781205 0.77180487 0.18091734 -0.15305988 0.02260339

prescalers.Cases.weight f4 [8, 1]
00000000: 178b 343f 50ab 8dbf e1cf 4dbf e673 3a3f
00000010: 65fc 9c3f b1f9 b93d c9a8 21bf 0a6a d43e
0.70524734 -1.1067905 -0.80395323 0.72833097 1.2264525 0.09080828 -0.6314817 0.4148715

prescalers.Cases.bias f4 [8]
00000000: 16da 01bf 36cc b8bd 8520 f73e b3b7 cd3e
00000010: 776b 8dba 27d8 d13d 90b1 b43e 5b2f 5bbf
-0.507234 -0.09023325 0.48266998 0.40179214 -0.0010789473 0.10246306 0.3529172 -0.85619134

prescalers.Cases.bias f4 [16]
00000000: 0f27 d6bd 7a74 aabe 00a8 bcbd 66f1 9e3d
00000010: b4d0 853d 76f9 12bd 426b 9d3d 96cb 80be
00000020: 3423 0b3e ff19 6b3d 93b9 40be 2bee 583e
00000030: 4a98 05be d936 fe3d 4ee6 0cbe 2450 a93c
-0.104566686 -0.3329199 -0.09211731 0.07760887 0.065339476 -0.035882436 0.076864734 -0.25155324
0.13587648 0.05739784 -0.18820791 0.21184604 -0.13046375 0.12412805 -0.1375973 0.020668097

prescalers.Cases.bias f4 [16]
00000000: 0f64 5e3f 817e 3d3f cafb 7f3f 2a74 913f
00000010: a353 903f 4011 813f fe45 953f caf9 3d3f
00000020: 53b5 8c3f e195 833f afe6 653f f3f6 9e3f
00000030: ebf5 5e3f 5ac7 8e3f f274 6d3f f526 8c3f
0.8687143 0.74021155 0.99993575 1.1363575 1.1275524 1.0083389 1.1661985 0.7420927
1.0992836 1.0280114 0.8980512 1.2419113 0.8709399 1.1154587 0.9275657 1.0949389

prescalers.Cases.bias f4 [16]
00000000: 1e7d d33b 5219 f8bd 7d95 003d 3390 0c3e
00000010: 0e8f fd3d d807 7cbc af7a 81bd fc2f 52bd
00000020: 5c6c bbbd d7f5 443d a7ba a13d ae66 84be
00000030: 1d60 023e 29ca babd 7533 873d d01b e83d
0.006454124 -0.121142045 0.031392563 0.13726883 0.12380801 -0.0153827295 -0.06322228 -0.051315293
-0.09151527 0.048086014 0.07896929 -0.25859588 0.12731977 -0.0912059 0.066016115 0.1133343

prescalers.Cases.bias f4 [8, 8]
00000000: 0660 e33e c0b4 e0be 55c9 25bf 84f7 41bf
00000010: c081 423c 022c adbf 54bf 0e3f c740 21bf
00000020: 0992 2ebf 39e6 81bf 7230 92bd b8ae 5d3f
00000030: 7b8d d1be 8e94 fdbe 8a47 e03e b070 463e
00000040: 8fc6 973e ac3f ad3e c4e5 113f 855e 9abe
00000050: 64d7 083e 14a1 50be c2fc ca3e 4ede b0be
00000060: b4ce 34bf 48d6 40bd 1eee 933d ba60 98be
00000070: 33c5 b1be f92c 4f3d 4ac6 88be d408 2e3f
00000080: 67c2 d8be 6bcd 123f ae5f 3fbe bc1e e5be
00000090: 1ed3 4bbe a98c 703f 7a0a 1e3f fc20 1bbe
000000a0: 80c6 9d3e 2842 06be f8fa 7abe 6a3c f23c
000000b0: 0770 e53e a850 bdbe 092b 9d3d ce2c 22be
000000c0: ba0c a2bd bd60 06bf ea51 99be d0b1 18be
000000d0: d647 283f 07f1 a83f 6915 503f 8d90 cabe
000000e0: 756d 49bf 062d 0ebf 4649 54bc e24a 173f
000000f0: 526b debd 9ddf 06bf 23c1 303e 207f 2a3e
0.44409198 -0.438879 -0.64760333 -0.75768304 0.011871755 -1.3529055 0.55760694 -0.6298947
-0.6819158 -1.0148383 -0.071381465 0.86594725 -0.40928254 -0.495274 0.4380458 0.19378924
0.29643676 0.3383764 0.5699122 -0.30150238 0.13363415 -0.20373946 0.39645964 -0.34544605
-0.70627904 -0.047079355 0.072231516 -0.29761297 -0.34720764 0.05058 -0.26713783 0.6798222
-0.42335817 0.5734469 -0.18688843 -0.4475001 -0.19904754 0.9396463 0.61734736 -0.15149301
0.30815506 -0.13111174 -0.245098 0.029569823 0.44812033 -0.36975598 0.07674224 -0.15837404
-0.07912584 -0.5249136 -0.29945308 -0.1491158 0.6573461 1.3198556 0.8128267 -0.39563408
-0.78682643 -0.5553745 -0.012956923 0.5909864 -0.108603135 -0.52684957 0.17261176 0.16650057

prescalers.Cases.bias f4 [8]
00000000: 5d9f f0bd 2abc f23d cbf3 5fbd fc0f cc3d
00000010: effe a03d 3871 e3bc 2a2c d33d 8818 9e3d
-0.11749146 0.11852296 -0.05467586 0.09963986 0.07861125 -0.027763948 0.10311158 0.07719523

prescalers.Cases.bias f4 [8, 8]
00000000: c98a 53bd 4fc5 503f 7428 223e 4f1b 37be
00000010: e8a5 9a3e 9ab1 c5be e9f8 3b3f fa46 7c3f
00000020: 6fc3 afbe f155 38bf 5cd4 863e b102 4dbe
00000030: 83e8 a23e 546b 38bd ddd8 b43e 9944 073d
00000040: 6101 26be 71a1 e33e 4125 a83c b025 843e
00000050: d1fa e23d 3b39 04bf b1b0 dabe d3b7 3a3f
00000060: 8ccc 393f b5e9 fabd de85 f53e 32ae e2be
00000070: c5fe 243d 243d 2bbe 57db 283f 10ef 41bf
00000080: 6637 cb3e 6ea2 fdbe 3f33 5e3e 06ff bf3d
00000090: f3e1 0c3f 2608 6b3e ebf7 083f c436 3fbd
000000a0: 9c74 853e 9617 8bbe 5a6c fdbe efae e8bd
000000b0: 4ad5 d63e d7f8 943d fc3b 29bf 9bc6 79bd
000000c0: 16ed 45bf 26f0 433e 21e5 86bc 56f5 8d3d
000000d0: ba7b 943d 28d7 233d af08 ebbe d32e 7ebe
000000e0: a8d5 d83d 8a8c d23e 0b5a 27bf bb26 2ebe
000000f0: 4477 dd3d a4f4 0e3e 65eb a93e 35b4 00bf
-0.051646028 0.8155107 0.15835744 -0.17881511 0.302047 -0.38612062 0.7342668 0.985458
-0.34328791 -0.72006136 0.26333892 -0.20020558 0.31818017 -0.04502423 0.35321704 0.033024404
-0.16211464 0.44459108 0.020525577 0.25810003 0.11082996 -0.51649827 -0.4271293 0.72936743
0.7257774 -0.12251607 0.47953695 -0.44273525 0.04028203 -0.16722542 0.65959686 -0.75755405
0.39690703 -0.49537987 0.21699236 0.09374814 0.5503227 0.22952327 0.5350329 -0.046683088
0.26065528 -0.27166432 -0.49496728 -0.11361491 0.41959602 0.07274025 -0.66107154 -0.06098042
-0.7731489 0.19134578 -0.016466679 0.0693156 0.072501615 0.04000011 -0.45905063 -0.2482255
0.10587627 0.41122848 -0.6537177 -0.17006962 0.10813764 0.1396051 0.33187404 -0.50274974

prescalers.Cases.bias f4 [8]
00000000: f6a9 963d c25a 743d 84aa fa3d c28a 8ebd
00000010: 937e 0a3d 3323 9dbd 7d05 2e3d d4dc 46bc
0.07356636 0.059656866 0.122395545 -0.0696006 0.033812117 -0.07672729 0.042485703 -0.01213761

prescalers.Cases.bias f4 [32, 8]
00000000: aaa3 35be 223a 173f a149 02bf d67c dabc
00000010: bff5 a53e 1a43 debe 40ec c1be 6c63 143e
00000020: d426 da3e a375 03be 1336 183d 0208 23be
00000030: 9489 11bf 9514 3c3d 925f b4bd 6f0c 033d
00000040: a939 c53e 9ff5 ea3a 32d8 07be 2c3b 14bd
00000050: 5b38 4b3e 7f4c edbe ea45 dc3c 6f36 703e
00000060: 232e 00bf 9d55 003e 79b4 aebe 7462 15be
00000070: 8e2b 063e 0994 4ebe c996 c7bd c020 87bc
00000080: ffb1 783d 5a99 b7be 0dcf 103f 627f efbe
00000090: 6f0a f2bd a792 78be 197b 95bd fac5 55bd
000000a0: 4965 c03e b3d5 f3bd 1e5f b4be 8d14 a63d
000000b0: 2d0d 00be e377 90be 2f1e 173e 07b5 493e
000000c0: 1a4b 17be 7704 6bbe 525b 003e 3e0f 69be
000000d0: 1759 7cbe 0f00 c7be 4496 143e 9346 843e
000000e0: 325f 143c f9be e23e 9759 61be 28ae 7a3e
000000f0: 76d9 7b3d e195 ccbd ae6d 57bd f946 6abb
00000100: c539 72be 048c 6cbe a929 873d e112 9e3e
00000110: ac23 c43e 9240 ab3d 77af ac3e 45d8 7c3e
00000120: 4420 5d3e 0b27 25be 8e3c 1b3e 127c 493e
00000130: 3d88 a33d b674 313e 2b25 22be 003e 87be
00000140: 89b0 51be affe f7bd c501 103f f941 e4be
00000150: 4014 cebe f5d9 93be 90cb 913e 9124 ddbb
00000160: 048c 92be 1eef 673d 8443 3dbc 9524 91be
00000170: 4a3e cf3e fa7e 1a3e 92b9 c3be f270 083f
00000180: f29c c7be 5481 e03e b38f 8e3e 724a 843e
00000190: 632d a83e 780b 313e 1cd5 6d3e 5290 933c
000001a0: 2a6c e1be 23ec f83b 8b14 8a3d ef83 9d3e
000001b0: 6d84 36bd e310 b53d c9ae 213e 3c53 153e
000001c0: eb7a eebe 3192 f23e 9437 4cbe f70b ec3d
000001d0: 23e1 3ebe ca41 d33d 1c4c 753e 2564 ab3d
000001e0: 250f c1bd d2d2 5a3d b2c4 a0be f1a4 8e3e
000001f0: 52cc c13d 48dc a63e ba14 2a3e 25e0 efbe
00000200: df42 5ebd b6ae 23bf 4197 103f 8326 f93c
00000210: dedb cf3b aeb1 4cbe f932 0abe 7b0f 16be
00000220: 16ec fa3e c671 cfbe eb69 d9be 5596 a03d
00000230: 6db9 09bd 0aa5 f2be 4ce6 51be be98 60be
00000240: bc40 3a3e 863f d5bd da59 22be 5f5a 2a3e
00000250: 0497 d4be f605 b43e fd90 023d 8e73 833e
00000260: 93b7 7cbe 89dc 973e ead6 14bf 32f9 57bc
00000270: 5b4b 9cbc 6de8 9e3e e274 34bf e6c7 013f
00000280: f159 d03e b223 debe 9a1c 4f3e 8749 d0be
00000290: 9ebc cdbe 072e c1be ccea 40bd c3f9 b13d
000002a0: 5e78 873e d6d1 4dbb 6133 713e 1e2d 85bd
000002b0: f89e 9e3e 05fb 923d 6983 c4be 842b 013f
000002c0: 10f9 e43d 9120 013f 1916 4dbf e097 773e
000002d0: b7fd f2bd 9089 233e 4cec e5be 54eb 34be
000002e0: 66c3 22be 17b6 823e fcc0 913e fdef 6dbc
000002f0: c7b2 a93d 33de 193d b0c3 a0bc 5690 adbe
00000300: 2db1 ce3d a06d 373c b6c5 473e d973 c9bd
00000310: 0f91 b63d ad6a 1b3e 54b2 00bd 52dd 173f
00000320: 179f 8f3d f127 33be 71d8 9f3e 8ec3 6dbe
00000330: 266b b83e fd06 d4bc 0e79 9dbe 5042 e63e
00000340: 0f15 833e 71c1 fabe b337 a03e a231 80be
00000350: 213a e0be b771 eabd b2c7 783e 0677 d2be
00000360: b847 b7bd cfbb 8a3e 21dc aa3e e0a0 053f
00000370: 5451 3cbd 4aea 843e e5a0 813d eaf2 28be
00000380: 187f 5ebe 0bef 24bd b6b5 863e 2dad a3be
00000390: 2556 23be 0af4 e63d 9488 333c da63 973e
000003a0: e9ac 9b3d c746 cabe f1f3 bfbe 0817 e4be
000003b0: 0c18 3dbe 4676 173e eab5 ecbd b81a f23d
000003c0: 41c5 f93e 670c 1abd 8fe1 4fbd 66be a2be
000003d0: c05d a23d 9b99 65be 3d46 943e 9990 c13e
000003e0: a9b2 843e c5d3 83be 4977 c83d 800e 19bf
000003f0: 0dee d4bd f984 b0be 1088 0fbe 2bbf f33e
-0.17738214 0.5907308 -0.508936 -0.026670855 0.32414052 -0.4341057 -0.37875557 0.14491051
0.42607749 -0.12837844 0.037160944 -0.15921023 -0.5685055 0.045918066 -0.08807291 0.03199428
0.38520554 0.0017925984 -0.13266066 -0.036189243 0.19845717 -0.46347424 0.026888806 0.23458265
-0.500704 0.12532659 -0.34122065 -0.14588338 0.13102552 -0.20173658 -0.09745557 -0.016495109
0.060716625 -0.35859185 0.56565934 -0.46776873 -0.11818396 -0.24274693 -0.0729887 -0.05219076
0.37577274 -0.11905994 -0.3522882 0.081093885 -0.12505026 -0.28216466 0.14757608 0.19697963
-0.14774743 -0.22950922 0.12534836 -0.2275972 -0.2464336 -0.38867232 0.14510447 0.25835094
0.009055899 0.44286326 -0.22006832 0.24480498 0.061486684 -0.09989525 -0.052594833 -0.003574787
-0.2365485 -0.23100287 0.06599743 0.30873778 0.38308465 0.08361925 0.3372762 0.24691875
0.2159434 -0.16128175 0.15159819 0.19676235 0.0798497 0.17329678 -0.15834491 -0.2641449
-0.20477499 -0.12109124 0.562527 -0.44581583 -0.40249825 -0.28877226 0.28475618 -0.006748744
-0.28622448 0.056624524 -0.0115517415 -0.28348222 0.4047721 0.150875 -0.38227516 0.5329734
-0.38986927 0.4384867 0.2784401 0.25838047 0.32847127 0.17289531 0.23225826 0.018013153
-0.44027835 0.007596509 0.067421995 0.3076472 -0.044559885 0.088411115 0.15789331 0.14582533
-0.46578154 0.4737716 -0.19943076 0.115257196 -0.1864057 0.10315283 0.23954815 0.083687104
-0.09426717 0.05342371 -0.31400067 0.27860215 0.09462799 0.32589936 0.16609469 -0.46850696
-0.054262992 -0.6393846 0.56480795 0.030413872 0.006343349 -0.19989654 -0.13496007 -0.14654343
0.49008244 -0.4051649 -0.42463621 0.078411736 -0.0336241 -0.4739154 -0.20498008 -0.21933267
0.18188757 -0.10412507 -0.15854588 0.16636036 -0.41521466 0.35160798 0.031876553 0.256741
-0.24679403 0.29660442 -0.5814043 -0.013181971 -0.019078901 0.31036702 -0.7049085 0.50695646
0.4069362 -0.43386608 0.20225754 -0.40681097 -0.40182966 -0.3773043 -0.04709892 0.086902164
0.2645902 -0.003140559 0.23554756 -0.06502746 0.3098066 0.071767844 -0.38381508 0.50457025
0.111803174 0.5044032 -0.80111843 0.2417903 -0.118647985 0.15970445 -0.44906843 -0.17667896
-0.15894851 0.2552955 0.28467548 -0.01452255 0.08286052 0.03756542 -0.019624561 -0.33899182
0.10092387 0.01119557 0.19509014 -0.09836549 0.089143865 0.15177412 -0.031420067 0.59322083
0.07012766 -0.17495705 0.3121982 -0.2321913 0.36019248 -0.025882239 -0.3075642 0.44972467
0.25602004 -0.4897571 0.31292495 -0.25037867 -0.4379435 -0.11447471 0.24294928 -0.41106433
-0.08949226 0.27096412 0.3337107 0.521986 -0.045975998 0.25959998 0.06329516 -0.16498914
-0.2172817 -0.04026703 0.2631051 -0.3196806 -0.1595083 0.112770155 0.010957856 0.29568368
0.07601339 -0.39507124 -0.374908 -0.4454882 -0.18466204 0.14791211 -0.11558135 0.118215024
0.48783305 -0.037609484 -0.05075222 -0.31785887 0.07928038 -0.22421877 0.28959838 0.37805632
0.25917557 -0.25747505 0.09788377 -0.5978775 -0.10396967 -0.3447645 -0.14016747 0.47606787

prescalers.Cases.bias f4 [32]
00000000: 8bb2 8bbb 6ba8 c9bd 1c26 da3c c382 b03d
00000010: 2be6 133e 5149 243d b541 f0bc f7fc 66bc
00000020: 6ffb 5ebd ebfc 203d e720 0d3e f712 62be
00000030: ea05 c43d 9e39 cdbd 3f9a c63d b8a1 173e
00000040: 0229 83bc f643 d6bd 4e03 173c 9764 a5be
00000050: 6676 083d 2e3c 26be 0ac9 04be 0296 30be
00000060: d4b8 f4bd 2f03 88be 8ddd b53d d6b2 fa3d
00000070: fad1 963c 05a3 b8bd 96ed 8fbd 6f0a 03be
-0.0042632273 -0.09846576 0.0266295 0.08618691 0.14443271 0.040108982 -0.029328207 -0.014098397
-0.054439005 0.0393037 0.13782082 -0.22077547 0.095714405 -0.10020755 0.09697389 0.14807785
-0.016010765 -0.10462181 0.0092170965 -0.32303306 0.03331604 -0.16233894 -0.12967315 -0.17244723
-0.11949316 -0.2656493 0.08880148 0.122411415 0.018410672 -0.090154685 -0.07027738 -0.12796949

prescalers.Cases.bias f4 [16]
00000000: a76f 473f a158 503f 4967 743f 1658 913f
00000010: 1082 943f 8f1d 813f 9a4d 8f3f bbe9 f43e
00000020: 0b5a 803f c112 783f c38e 743f 3c65 993f
00000030: ce14 603f 0e4a 863f 443a 513f 2532 793f
0.7790474 0.81385237 0.954701 1.1355007 1.1602192 1.0087146 1.1195557 0.47834572
1.0027479 0.96903616 0.9553034 1.1984019 0.87531745 1.049135 0.8172953 0.9734214

prescalers.Cases.bias f4 [16]
00000000: 290a ca3c 85af 50bd 723e a43d deee 463e
00000010: bb8c 283e f9ac 4b3d 965e 5dbd 5abc b6bc
00000020: 6681 02be 2a33 1d3d 8f6a c13d 4dd6 82be
00000030: fd23 ef3d d25d a1bd 0a0a 893d 54c5 103e
0.024663048 -0.05094864 0.08019723 0.19427058 0.16459934 0.049725506 -0.054045282 -0.02230661
-0.12744674 0.038378872 0.094441526 -0.25554124 0.11676786 -0.07879223 0.06691368 0.14137775

prescalers.Cases.bias f4 [8, 1]
00000000: 8f01 33be 0579 40bf 9699 0d3f 1f36 0b3f
00000010: 318a 67bf e2bd 83be 80c0 23bf 7d00 0e3f
-0.17481063 -0.7518466 0.5531248 0.5437946 -0.9044524 -0.25730807 -0.63965607 0.55469495

prescalers.Cases.bias f4 [8]
00000000: 95de a0be 8554 0c3f ac3f 333f e5e7 b53d
00000010: fbb0 b8be f712 13bf 0109 e7bd 5f8c 93bd
-0.31419817 0.54816467 0.7001903 0.08882121 -0.36072525 -0.57450813 -0.11281014 -0.07204508

encoder_variable_selection.flattened_grn.resample_norm.mask f4 [3]
00000000: 4707 aebe 585c 90bd 3513 b23e
-0.33989927 -0.07048863 0.3478028

encoder_variable_selection.flattened_grn.resample_norm.norm.weight f4 [3]
00000000: 0e44 6d3f 7b2b 863f 084b bf3f
0.9268197 1.0482019 1.4944773

encoder_variable_selection.flattened_grn.resample_norm.norm.bias f4 [3]
00000000: 698a 613e 274a c53b 5728 ccbe
0.22025456 0.0060208025 -0.39874527

encoder_variable_selection.flattened_grn.fc1.weight f4 [3, 24]
00000000: 0112 833e 4c1d ce3d 464d 993d 398c b43e
00000010: 8e68 72bd 9b94 303d d25f 63be d94f 83be
00000020: 9fe6 8fbe c06f 323d 68b8 d63d 9585 81bf
00000030: 1e5e 1bbd 63cd bbbd 825c 88bd 6a49 aebd
00000040: 2032 f83e e276 47bf dc19 a13e 1234 6a3d
00000050: 41cb 1d3e 78ff debe 131a ff3d 7a12 6b3e
00000060: aabb 0fbe 1b7e f53e 923a 0bbf be63 8b3c
00000070: 6624 aebd 4369 d23d aef9 30bd 298a d13e
00000080: 0ba6 61be 65bf 253d 6957 47bf 9165 b9be
00000090: 5096 e23d 49fa 1f3e 8eae cb3e 5143 d33e
000000a0: 3263 12bd 8e26 d73d 52b7 cdbe f133 64be
000000b0: 0db7 03be c419 263e a544 873d 007d 1cbd
000000c0: c548 e43d 9f7b 7abe af76 78be e30d 413e
000000d0: f1d1 693e b8be 073f 9568 2fbe e055 863e
000000e0: de5d c9be a471 703e 939b 1a3e 0e65 973e
000000f0: d7ac 99bd f44b dfbc 3bbe 883e 1330 533e
00000100: 6668 193e 42bc 9e3e d620 20bd 43cc b3bd
00000110: 8e36 3dbe 4e96 06bf f68d eabe 0023 ba3d
0.25599673 0.10064182 0.07485442 0.3526323 -0.059181742 0.04311047 -0.22204521 -0.25646856
-0.28105637 0.043563604 0.104843915 -1.0118891 -0.037931554 -0.09170034 -0.066582695 -0.08510096
0.48475742 -0.77915776 0.31465042 0.057178564 0.15409566 -0.43554282 0.12456145 0.22956267
-0.14036432 0.47947773 -0.54386246 0.017015334 -0.08503036 0.10273983 -0.043206863 0.4092572
-0.22035997 0.04046573 -0.7786775 -0.36210302 0.11063826 0.1562282 0.39781612 0.41262296
-0.03573913 0.105054006 -0.40178925 -0.22285439 -0.12862797 0.16220766 0.0660489 -0.038205147
0.11146692 -0.2446122 -0.24264024 0.18852954 0.22833993 0.5302539 -0.17129739 0.26237392
-0.39329427 0.2348085 0.1509841 0.29569286 -0.0750367 -0.027257897 0.26707634 0.20623808
0.14981231 0.31003004 -0.039093815 -0.08779194 -0.18477842 -0.52573097 -0.45811433 0.09088707

encoder_variable_selection.flattened_grn.fc1.bias f4 [3]
00000000: 2dcf 52bc d13d f5bc b350 4dbe
-0.012866777 -0.029936703 -0.20050316

encoder_variable_selection.flattened_grn.context.weight f4 [3, 16]
00000000: 359a 4dbe 0c37 4fbe ab17 83be d885 44bd
00000010: 9f61 bb3e a3cc a9be 6061 383d b7d6 043e
00000020: e139 78be 6ca9 1a3d 81e2 baba c91d 433d
00000030: 2fa7 fb3d 3a05 f53c 0718 6abe b257 71be
00000040: 6876 113f 7bc7 14be 4d8e 143f 3d82 c6be
00000050: d030 b2be dee9 1a3f 5157 07bd 828e b2be
00000060: 7c47 dc3d b6fe 6dbd 3139 d5be a9da 153c
00000070: 3d3c 01bd dc50 62bd 7e66 a9be 291a 1bbd
00000080: 4950 083e 2085 6abe 64c7 1c3f 3e3b aabe
00000090: 5738 bebe d78e 0c3f e475 84bc 8a1b a63d
000000a0: 1acf e6be 2d02 a23e 1c01 1e3d 2871 2dbe
000000b0: 1156 ce3b 4b5c 16bd 7ade 8ebe 0708 803e
-0.20078357 -0.20235842 -0.25603995 -0.047979206 0.36597916 -0.33163938 0.04501474 0.12972532
-0.24240829 0.03775923 -0.0014258177 0.047635827 0.12287747 0.029909719 -0.22860728 -0.2356861
0.568213 -0.14529221 0.58029634 -0.3877124 -0.34802866 0.60513103 -0.033042256 -0.3487435
0.10755822 -0.05810424 -0.41645196 0.009146371 -0.03155159 -0.055252895 -0.33086008 -0.037866745
0.13311876 -0.22902346 0.61241746 -0.33248323 -0.3715236 0.54905456 -0.016169496 0.081107214
-0.4507988 0.31642285 0.038575277 -0.16937697 0.006296881 -0.03670911 -0.2790411 0.25006124

encoder_variable_selection.flattened_grn.fc2.weight f4 [3, 3]
00000000: 939d 3cbf db8d 91bf 7f19 ffbd 5e54 b83d
00000010: 2d50 8dbf 379e 65be 797d b3be 64b3 65bf
00000020: 6b68 4abf
-0.7367794 -1.1371416 -0.12456035 0.09000467 -1.1040093 -0.22423635 -0.35056666 -0.89726853
-0.7906558

encoder_variable_selection.flattened_grn.fc2.bias f4 [3]
00000000: 638a 233d e32d 8dbc e695 b6bd
0.039926898 -0.017233795 -0.089153096

encoder_variable_selection.flattened_grn.gate_norm.glu.fc.weight f4 [6, 3]
00000000: 4489 c33e 9f4f 1cbe a7ca 273f 14b1 dabd
00000010: 4f51 b5be 1b7a 273f 1d71 8f3d 11be 7dbe
00000020: ba1b d23c 7353 3dbe 553d 35bf 8960 3f3f
00000030: 0f53 5f3f 58be e1bd 17d1 bcbe e0a4 0c3f
00000040: 10cc d53e c4d5 c83e
0.38190663 -0.15264748 0.655436 -0.10678306 -0.35413596 0.65420693 0.070039965 -0.24779536
0.025647987 -0.18488865 -0.7079671 0.74756676 0.8723611 -0.11022633 -0.36878273 0.5493908
0.4175725 0.3922559

encoder_variable_selection.flattened_grn.gate_norm.glu.fc.bias f4 [6]
00000000: 7417 db3d 8358 9bbc 6d00 b9be 411a 94be
00000010: 2246 0b3e b922 8e3e
0.10697833 -0.018963104 -0.36133137 -0.2892628 0.13600972 0.27760866

encoder_variable_selection.flattened_grn.gate_norm.add_norm.norm.weight f4 [3]
00000000: 4e2f f83d 079d db3e dd4b 503e
0.12118398 0.4289324 0.2034144

encoder_variable_selection.flattened_grn.gate_norm.add_norm.norm.bias f4 [3]
00000000: b992 533e 73b1 00bf 632a fb3e
0.20661439 -0.50270766 0.49055776

encoder_variable_selection.single_variable_grns.SinWeekly.resample_norm.mask f4 [16]
00000000: 5101 3cbe 36c4 283d aa98 17be b938 0dbd
00000010: 7bcc 2bbd c936 703b 51e5 823d 4b8e 37bf
00000020: c5a7 11bf fe5a ecbd 98a4 dfbd b43b 0f3d
00000030: 0a0c 2bbc 4650 143e 245b 843e 8420 323e
-0.18359877 0.041202746 -0.1480433 -0.034477923 -0.041943055 0.0036653748 0.06391395 -0.71701497
-0.5689662 -0.11540793 -0.10920066 0.034969047 -0.010439882 0.14483747 0.25850785 0.17395216

encoder_variable_selection.single_variable_grns.SinWeekly.resample_norm.norm.weight f4 [16]
00000000: 2d87 3b3f 0b14 573f b072 853f e55d 893f
00000010: 41ae 5e3f 0b09 843f 6f2e 9b3f 9018 f33e
00000020: 0c66 d93e ac99 623f 5e1f 753f ff1d 8e3f
00000030: 0222 683f 4d33 923f 383c ae3f bf6a 883f
0.73253137 0.8401496 1.0425625 1.0731779 0.8698464 1.031526 1.2123545 0.47479677
0.42460668 0.88515735 0.9575099 1.1102904 0.9067689 1.1421906 1.3612127 1.0657576

encoder_variable_selection.single_variable_grns.SinWeekly.resample_norm.norm.bias f4 [16]
00000000: 34fc 0c3d 95b1 cd3d fa03 4abe c3da ba3d
00000010: 1590 123d 3b65 3e3c 1468 10be 13ba 47be
00000020: e0e1 43be d9bc 9bbd 3048 ab3c 95bf 0f3e
00000030: 748f 3f3d 9830 eabc 317f 743c 8553 da3d
0.034420207 0.10043637 -0.1972808 0.09123757 0.03578194 0.011620815 -0.14102203 -0.19504575
-0.19129133 -0.07604379 0.020908445 0.14037926 0.046767667 -0.028587624 0.014922903 0.10660461

encoder_variable_selection.single_variable_grns.SinWeekly.fc1.weight f4 [8, 8]
00000000: 80d6 8d3f 7fb6 c2bf 2d73 41bf 7295 dbbf
00000010: dc9b 94be c42d f6bd d69f aa3e e4b0 013f
00000020: 8591 4bbe 3b68 b73e d301 babe 22e4 17be
00000030: 7e74 bebe 4f86 563f f079 15bf 9b66 00bf
00000040: 4247 c3be 3448 163e 37f9 58bf c6b8 d53e
00000050: 8670 a7bf bb40 193f 89ca 023f 4174 35be
00000060: ae84 a33e 8eb8 f83d b222 a8be 5e53 653e
00000070: f563 b53e 0555 913d 99d5 a83e f66a 1d3f
00000080: d088 26bf bda4 b2bd dcc8 8a3f 76d7 c9b8
00000090: e557 953d e371 463f 45e7 003f 7fec 83bf
000000a0: 3f8c 373f 5e4c b5be d87a 2bbf 3701 b6bc
000000b0: 0c2e 823e 12a5 acbe 14f9 2ebe 875b 693e
000000c0: 4569 67bf 45c1 38be f2df a2bf ed9d f23e
000000d0: c06e cabe bbbf ad3d afc7 2fbf 8460 a6be
000000e0: d16c d13e 28cb 033c 5682 41bf 4e94 613e
000000f0: 61d2 443f 3dd9 f93e d9f2 4abe ad0d b63e
1.1081085 -1.5211943 -0.7556637 -1.7154982 -0.2902516 -0.12020448 0.3332507 0.5066054
-0.1987973 0.3582171 -0.36329517 -0.1483312 -0.3719825 0.8379869 -0.58389187 -0.50156564
-0.38140303 0.14675981 -0.8475527 0.41742533 -1.3081214 0.59864396 0.51090294 -0.17720129
0.31937164 0.12144576 -0.3283897 0.22395083 0.35427824 0.07096294 0.32975462 0.61491334
-0.6505251 -0.087228276 1.0842547 -9.6245596e-05 0.07292155 0.7751753 0.5035289 -1.0306548
0.71698374 -0.35409826 -0.6698432 -0.022217376 0.25425756 -0.3371969 -0.17087203 0.22788821
-0.90395004 -0.18042476 -1.2724593 0.47386113 -0.3953762 0.08483835 -0.6866407 -0.3249551
0.40903333 0.008044042 -0.755895 0.2202923 0.7688351 0.48798552 -0.19819202 0.3555731

encoder_variable_selection.single_variable_grns.SinWeekly.fc1.bias f4 [8]
00000000: e6dc 3cbe deaf ac3c 05c8 e6bc d8d0 0dbd
00000010: 2a2c 3cbd e7e1 47bd 155f 03be d3ff a0bc
-0.18443641 0.021079954 -0.028171549 -0.034622997 -0.045940556 -0.04879942 -0.1282924 -0.019653236

encoder_variable_selection.single_variable_grns.SinWeekly.fc2.weight f4 [8, 8]
00000000: 5baf 95bf 3cdb 843c 43c4 a6bf 1cd7 26bf
00000010: dc47 25bf 41f1 113e 1777 9c3e c6c2 83be
00000020: 8174 bcbd e39e b2be 282a a83e 5a0f 533d
00000030: 8506 3fbd d33e ed3e eb2f 0c3f 16c1 803e
00000040: fe97 283f 0e2c fabe c161 e1bc 216a d6be
00000050: a1fd 1f3f 468e b8be 4ec2 ee3e 6980 fb3e
00000060: 1399 c13e d690 843f e140 103f 13d6 033e
00000070: 72f7 fd3d fba4 07bf 7194 973e 0814 d6be
00000080: f31b 8ebf 2794 6b3f 023e 17bf e545 30bc
00000090: d89f 8bbd 922b a53e 18d9 8bbd 5524 a5be
000000a0: 4533 d63e e1ea 08bf 04b9 14bf a79b e53c
000000b0: 8894 febe 1647 eb3d eff9 bfbe c686 94be
000000c0: 8533 b6be 9200 d13a 2d5e b13d d98e d1bc
000000d0: 5bfe 943e 66c0 afbe 8498 d83d 0770 683e
000000e0: d56c 4d3f 5e91 473e 1538 103f ab2c 193f
000000f0: 0aee 233f 1ff3 a7be 9344 693f 0889 f8be
-1.1694139 0.01621782 -1.3028644 -0.6517198 -0.64562774 0.14252187 0.30559608 -0.25734538
-0.09201909 -0.34886846 0.32844663 0.051528312 -0.046637077 0.46336994 0.54760617 0.25147313
0.6585692 -0.48861736 -0.027512433 -0.41877845 0.6249638 -0.36046046 0.46632618 0.49121407
0.378121 1.03567 0.56349 0.12874632 0.12400712 -0.52986115 0.2960544 -0.41812158
-1.110228 0.9202294 -0.5907899 -0.010758852 -0.06817597 0.32259804 -0.06828517 -0.32254282
0.4183599 -0.53483397 -0.5809481 0.028028322 -0.49722695 0.11488168 -0.37495372 -0.29009074
-0.3558618 0.0015945605 0.08660541 -0.02558081 0.29100308 -0.34326476 0.10575965 0.22698985
0.8024419 0.19489047 0.56335574 0.5983378 0.64035094 -0.32802674 0.9112026 -0.48542047

encoder_variable_selection.single_variable_grns.SinWeekly.fc2.bias f4 [8]
00000000: a274 06be 7c94 39be 2697 293d 26b3 103d
00000010: 9b94 e23d b40e a13d c6ed 223d 6847 3e3d
-0.1313043 -0.18123049 0.041403912 0.0353271 0.110635005 0.078641325 0.03977754 0.046454817

encoder_variable_selection.single_variable_grns.SinWeekly.gate_norm.glu.fc.weight f4 [32, 8]
00000000: c596 cf3d 1653 28bd afba be3c e9f6 9dbe
00000010: 82c7 20bd 39dd 84be a2ac 5dbd c4cf 023e
00000020: dd88 01be d308 d93d 891a 9cbd 4597 bfbe
00000030: 7e86 4dbd 7dc0 833e 8cc0 b93e 376e 5dbe
00000040: bab5 5c3e 0e9d 01bd 0a79 0a3d 7d02 b43e
00000050: 9030 0c3f dbb8 5dbe c4c9 4fbe 9986 b73e
00000060: 5518 623d 602f 2d3c 84d9 99be e9f8 bebd
00000070: e1a0 af3e 4908 2c3d ef62 05bd 3d63 a93e
00000080: 5efa 773e 969d 05bc 6a17 373d 1d28 c13e
00000090: 9267 893d 409e 17be 06fb 8a3e 20e0 d63c
000000a0: a27e 163e 9646 8dbe e870 673d b53d 113d
000000b0: ffa3 97be f9f6 fabd 4e5b c1bc 769e d93c
000000c0: 9598 c93e 5234 853e c7a7 55bf 19be 13be
000000d0: b249 b73e 6696 f1be e1cc e53e e742 25bf
000000e0: 7c58 debe 3120 fb3d 0058 9c3e ba3e 99be
000000f0: 7bc1 d0bd 9cae e0bd 1c9c 98bd 948a 143e
00000100: 690b 1b3e 3a1b ca3e 5c88 45be 2862 403f
00000110: e756 463e a224 ebbe 84d0 3e3d fdc5 053f
00000120: 19e5 90bc 8e4b b3be 2973 d93d 4a8c 28bb
00000130: 4398 03be 0151 19be c9c2 523d f2e2 f03d
00000140: a16e 8b3d 3886 ed3d dcb0 4dbc d3af 80bc
00000150: 7af6 b8bd c7a2 8c3c fe5c b0bc 98b9 e23e
00000160: a74e f83d 2e2a 833e cc79 babe 8285 c03e
00000170: 5b66 353d 66a3 29bf ebb2 8c3e 134d e53e
00000180: fc6e ef3e 48f4 c83e eeb3 d4bc 9a2d cfbd
00000190: 43c6 f33e 4fc3 debe 4d2b 2e3e dd20 06bf
000001a0: 55da 973e da76 d8be 99f0 863e af73 2ebe
000001b0: 1b57 e53c 595c ab3e 3aad 27be b66d 31bf
000001c0: f9c1 10bf 8033 d5be 84b0 273f 5b90 38be
000001d0: d8f8 b2be 8952 e53e 1501 dfbe d415 f33e
000001e0: 0aaa 5a3e 62fc d8be b23e 6abe cb0e f4bd
000001f0: c94f 80be dfec 80be cf31 da3e 1dc8 5fbc
00000200: f69c 9f3d 56d0 64bc fdd3 133e b6cc 9b3e
00000210: ba53 103e e9fb a9be 9058 60bd dc55 1abf
00000220: 9b76 463e f2ab 85be 517a ecbc cae4 8fbe
00000230: 2337 e3bc 5187 a93e 893a 7ebe 8bc7 efbe
00000240: ac35 c63e 8433 1cbe c05f 95be c008 9b3d
00000250: 5d7f d33c 55c2 a9be 4fd7 13be 88eb 71bd
00000260: 08c4 cb3e c7ab 513e dad7 f43d c3cb 40be
00000270: 7885 1abe 881d 18be d962 83be 7434 7d3e
00000280: fb70 563e 76ab 193e f5e0 31be ad78 a5bd
00000290: a686 49bd 401b 6ebe 0abc 963e 1e8b 763d
000002a0: 765c dabd 50c9 63be 0610 7f3e 88fe 2f3e
000002b0: 52b5 56be 9404 14be 386e 113f cc1d 7dbe
000002c0: cba1 8abe fee9 d0be e68c 963e 629a e4be
000002d0: 4409 c7be c7d1 543e 7552 8dbe 49d4 b73e
000002e0: 5a30 9fbe 8c08 ac3e c657 743e 017e 8fbe
000002f0: 7de2 ed3d d071 11bd 24c3 f9bd e5a8 4fbe
00000300: 0f8e 433e cc8b 36ba 74e4 a2bd c2f1 5abe
00000310: e81e b43e 78c8 b1bd ebc9 863e 8fe2 a0be
00000320: dfe8 bdbd 0832 6ebe 1d17 b2bc e5ce 853e
00000330: 4422 913d a4c8 e3bc 51b4 72be d5bd 8a3e
00000340: f957 843e bb70 2bbe c54d 0dbe 1ebb 3e3e
00000350: 08ad 383d 13d0 523e 8da3 d2be 8ac2 abbe
00000360: 8eb0 d03e ed0e 0f3e ffbb 6ebe 8d8d 093f
00000370: d390 e83e d6b0 8ebe 5881 a43e 7ad8 1fbb
00000380: 25d0 e8be 8385 b1be 2e04 813e 6cf9 373c
00000390: 5681 1abe cece 5b3e 4fb8 6bbb b7e4 253f
000003a0: 9b87 b1be f53a 643e 4625 bfbe b0cf 6c3e
000003b0: b4c2 b53e 2f5a 78be 6269 8abd 8774 3c3e
000003c0: dd51 ddbe 123e 10bd 7756 273d 3856 293e
000003d0: 3ec0 6abe 2596 15bd 268d 8abd 39ae c73e
000003e0: 390e 67bc 1bec f33e bffe 7fbb 065f efbc
000003f0: 8b6b 43bd 55af 24bc ce19 f5bd 035c cfbe
0.10136179 -0.041094862 0.023282377 -0.3085244 -0.039252765 -0.2595003 -0.054119714 0.12774569
-0.12649865 0.10597386 -0.07622249 -0.37420097 -0.05017709 0.25732794 0.36279714 -0.21624075
0.21553698 -0.03164392 0.033806838 0.35158148 0.547616 -0.21652548 -0.20291811 0.35844877
0.055198986 0.010570377 -0.30048764 -0.093248196 0.34302428 0.04200009 -0.032565054 0.33083525
0.24216601 -0.008155247 0.044700064 0.37725917 0.067092076 -0.14806461 0.2714464 0.026229918
0.14696744 -0.27592915 0.05650416 0.03545924 -0.29617307 -0.122541375 -0.023603108 0.026564818
0.39374223 0.2601648 -0.8345913 -0.14427985 0.35798413 -0.47185057 0.44882873 -0.6455521
-0.43426883 0.122619994 0.3053589 -0.2993067 -0.101931535 -0.10970804 -0.074516505 0.14505988
0.15141071 0.39473897 -0.19290298 0.75149775 0.19369088 -0.45926386 0.046585575 0.5225523
-0.017687367 -0.3501858 0.10617668 -0.0025718384 -0.12851052 -0.14972307 0.051455293 0.117620364
0.0680821 0.11597866 -0.012554374 -0.01570884 -0.09031387 0.017167462 -0.021528717 0.44282222
0.12124377 0.25618118 -0.3642105 0.37601858 0.044287067 -0.6626495 0.27480254 0.44785365
0.46764362 0.39248872 -0.025964703 -0.1011612 0.476122 -0.43508384 0.17008705 -0.52393895
0.29658762 -0.42278177 0.26355436 -0.17036317 0.027995637 0.33468893 -0.16374674 -0.6930803
-0.5654598 -0.41640854 0.65503716 -0.18023817 -0.34955478 0.44789532 -0.43555513 0.4747759
0.21353927 -0.42380053 -0.22875479 -0.11916884 -0.2506087 -0.25180718 0.42616126 -0.013658551
0.0779361 -0.013965687 0.14436336 0.3042962 0.14094439 -0.33200005 -0.05477196 -0.6028726
0.19381182 -0.26107746 -0.028866919 -0.2810424 -0.027736252 0.3311105 -0.24827017 -0.46831927
0.38712823 -0.15254027 -0.29174614 0.07570028 0.025817567 -0.33156076 -0.14437602 -0.05906251
0.39797997 0.20475684 0.11955233 -0.18827729 -0.15089977 -0.14855015 -0.25661352 0.2472704
0.20941536 0.15006813 -0.1737097 -0.08079658 -0.049200676 -0.23252583 0.29440337 0.060191266
-0.10662167 -0.22244763 0.24908456 0.1718694 -0.20967606 -0.14454871 0.56808805 -0.24718398
-0.27076563 -0.40803522 0.29404372 -0.44649035 -0.38874257 0.20783149 -0.27601972 0.35904148
-0.31091577 0.3360027 0.23861608 -0.2802582 0.11615465 -0.03550893 -0.12195423 -0.20279272
0.1909716 -0.00069635804 -0.0795373 -0.21381286 0.3517983 -0.086808145 0.26325926 -0.3142285
-0.09272932 -0.23261273 -0.021739537 0.2613441 0.07086614 -0.027805634 -0.23701598 0.27097955
0.25848368 -0.16742222 -0.13799198 0.18626067 0.04508689 0.20587187 -0.41140404 -0.3354686
0.407597 0.13970537 -0.23313902 0.53731614 0.45422992 -0.2786929 0.3212993 -0.0024390505
-0.45471302 -0.34672174 0.251985 0.0112289 -0.150884 0.21465608 -0.003596801 0.64802116
-0.3467377 0.22288115 -0.37333125 0.23126101 0.3550011 -0.24253152 -0.067583814 0.18403827
-0.4322652 -0.035215445 0.040853944 0.16536796 -0.22924897 -0.036520142 -0.06765203 0.3900011
-0.014102512 0.47641072 -0.0039061753 -0.029220115 -0.047709983 -0.010051568 -0.119678125 -0.40499887

encoder_variable_selection.single_variable_grns.SinWeekly.gate_norm.glu.fc.bias f4 [32]
00000000: ad79 ae3d 23d4 0d3e f9de 27be 59a4 d53d
00000010: 6b8b b33d 0de5 c83c 2ce5 32be d434 86be
00000020: 316d 3abe ebf9 14bd 9a81 71bc cd09 fe3d
00000030: c4fe 0f3b 2602 4dbd 57cd 353d a761 d13d
00000040: 6059 b1be 7888 babd 03f8 3e3d ba6e c3be
00000050: acae 02be 0264 ba3d aa0e 40be 0e72 a73d
00000060: 4445 5b3e c67f 01be 8b1b ddbe 7736 11bc
00000070: b286 20bd b644 06bd 9e65 883e 0418 53be
0.085193016 0.13850455 -0.16393651 0.104317375 0.08766826 0.024523282 -0.17470235 -0.2621218
-0.18205716 -0.036371153 -0.014740372 0.12404213 0.002197192 -0.050050877 0.04438528 0.10223704
-0.346385 -0.091080606 0.04662324 -0.38170415 -0.12761945 0.09101106 -0.18755594 0.08176051
0.21413141 -0.12646398 -0.43185076 -0.008863083 -0.039190955 -0.03278037 0.26640028 -0.2061463

encoder_variable_selection.single_variable_grns.SinWeekly.gate_norm.add_norm.norm.weight f4 [16]
00000000: 3439 413f 813a 683f 2709 ac3f 37f0 8f3f
00000010: 9de2 593f ae52 6e3f 1e98 bc3f 8b31 b83e
00000020: 2071 823f d282 6e3f 0d86 813f 102f b63f
00000030: b0a7 783f ab0d a93f be66 a73f 2369 873f
0.7547791 0.9071427 1.3440293 1.1245183 0.8511141 0.9309491 1.4733922 0.35975298
1.0190773 0.93168366 1.0119034 1.4233112 0.9713087 1.3207296 1.307823 1.057896

encoder_variable_selection.single_variable_grns.SinWeekly.gate_norm.add_norm.norm.bias f4 [16]
00000000: 1dc3 a4bd 2722 a13d 2e71 ddbc 4bf5 653e
00000010: 8b38 123d 25b8 fd3c a4ec 2ebe 27da 5ebd
00000020: 23ea 8fbc b28b e0bd f7ff 80bd 4940 033e
00000030: 9f5f bf3c 6f29 cebc 19ae d73d d88d ca3d
-0.080450274 0.07867842 -0.027031507 0.22456853 0.035698455 0.030971596 -0.17082459 -0.054407265
-0.0175677 -0.10964145 -0.062988214 0.12817492 0.023361025 -0.025166241 0.10531253 0.09890336

encoder_variable_selection.single_variable_grns.VaccinationFull.resample_norm.mask f4 [16]
00000000: cd5c 88be bc77 653b fc7b 453e 3e30 a5be
00000010: baa6 a13e 1038 cb3c 4e81 8ebe 08ef 813e
00000020: d73d 293e c699 adbe 3fe9 20be e981 883e
00000030: 7399 18be 7ab6 953e 98fc 2abe 4efb 60be
-0.266333 0.0035013994 0.19285578 -0.32263368 0.31572515 0.024807006 -0.27833027 0.2537768
0.16527496 -0.33906382 -0.15713976 0.26661614 -0.14902286 0.2924078 -0.1669792 -0.21970865

encoder_variable_selection.single_variable_grns.VaccinationFull.resample_norm.norm.weight f4 [16]
00000000: 774a 303f ed0a 673f 7a6e a13f 8087 4c3f
00000010: c48e ad3f 468a 7d3f 52e5 133f 12f7 9f3f
00000020: a69a 993f 3d6f 3d3f 0cb4 603f 6144 a53f
00000030: 3c87 563f c21e a23f 8e4f 2f3f 1950 3f3f
0.68863624 0.90251046 1.261184 0.79894257 1.3559194 0.99039114 0.5777179 1.2497275
1.200032 0.7399786 0.8777473 1.2911493 0.838001 1.2665637 0.68480766 0.74731594

encoder_variable_selection.single_variable_grns.VaccinationFull.resample_norm.norm.bias f4 [16]
00000000: 584e 08be 1dd4 363e 9bf1 46be 15a0 c5bc
00000010: 3467 d8bd f260 c93d 9fb2 db3c 0817 7a3d
00000020: d266 0b3e 996b 14be 1186 9cbd 05e1 083e
00000030: c68a b53c 522c d7bd 986a 023e d12b 8039
-0.13311136 0.17854352 -0.19428103 -0.024124185 -0.105665594 0.09832944 0.026818572 0.06105712
0.13613442 -0.1449417 -0.07642759 0.13367088 0.022160899 -0.105065 0.12735975 0.00024446708

encoder_variable_selection.single_variable_grns.VaccinationFull.fc1.weight f4 [8, 8]
00000000: 614a f33e e82f a3be 9fe6 49bf 1b0d 4ebe
00000010: 478b 3a3f 4790 783e 6075 0ebf 58d7 da3c
00000020: 5ea8 c33d 4a78 4ebe fc61 4ebf d414 82bf
00000030: 06fd 04bd 19d4 d2bd b27f 873f f98d 7cbd
00000040: 0c1b 2dbd 03e5 f3be 57f9 c9bd 3b9b d8be
00000050: 4c24 f4be f9b3 e23e 2d29 563c b3aa ecbe
00000060: 1034 77be 0a74 6cbf 3677 c0be c251 243e
00000070: 4423 39bf 9ed2 5e3f e4a9 0f3f 358e bc3e
00000080: dac4 c33d 6bd0 213f 154a 773e 0fa8 2e3e
00000090: 77d0 52bd 9c98 ce3e 83db 513f 1a42 633f
000000a0: 0a12 43be e0a6 123f 3552 e03d f38e 07be
000000b0: 21b7 a2be f15b 5fbf 0fa1 50bf b3e6 e0bf
000000c0: 3239 19bf 8611 983e 1413 1d3e ac72 083e
000000d0: b717 7d3f c198 92bd 7597 853e 51f3 6f3e
000000e0: 5d85 7e3e 7676 b83e 5aad eebe 06f1 3fbe
000000f0: cff9 07bf 0dcf a3bf b94c a3be 4059 cfbf
0.47517684 -0.31872487 -0.78867525 -0.20122187 0.7286877 0.24273787 -0.5564785 0.026714012
0.09553598 -0.20163074 -0.8061826 -1.0162606 -0.032467864 -0.10294361 1.0585845 -0.061658833
-0.042262122 -0.4763566 -0.09862011 -0.4230593 -0.47683942 0.44277933 0.0130713405 -0.46223983
-0.24140954 -0.9236456 -0.3759095 0.16046813 -0.72319436 0.87040126 0.5611861 0.36827245
0.09559031 0.63208646 0.24149354 0.17056297 -0.05146834 0.40350807 0.81975573 0.8877274
-0.1904985 0.5728588 0.1095318 -0.13238125 -0.3178034 -0.87249666 -0.81495756 -1.7570404
-0.598529 0.2970087 0.15339309 0.13324994 0.9886431 -0.07158042 0.26092115 0.23432662
0.24855562 0.3602788 -0.46616632 -0.18744287 -0.5311555 -1.2797562 -0.31894472 -1.6199112

encoder_variable_selection.single_variable_grns.VaccinationFull.fc1.bias f4 [8]
00000000: ba3d 193e ea6f 873c 82ea 9abd 61ed a03c
00000010: e0fb b6bd 0348 35be 7d66 b6bd 98b9 17be
0.14964953 0.016532857 -0.0756426 0.019644441 -0.0893476 -0.17703252 -0.08906267 -0.14816892

encoder_variable_selection.single_variable_grns.VaccinationFull.fc2.weight f4 [8, 8]
00000000: 1645 15be 9467 68be 175f a4be ef4f 24bf
00000010: 87a1 93bf bbf2 d43e 48a4 20bf fe7c a83e
00000020: a789 4c3f 18d8 debe d976 8fbe 4762 e1be
00000030: f9e9 04bf 9b95 09bf 4b74 943e af10 d6bd
00000040: b51d ecbf bee8 ca3d 2fc8 cfbd 6c85 3b3f
00000050: cfb7 61be 8f71 ac3e 6e28 003e 22ac 033f
00000060: 5bd2 4c3e 355d bfbe f3b2 2e3d 68d1 8bbe
00000070: bb64 363f 7c1b 5dbf 00a1 24bd 824a 12be
00000080: 8766 ccbe 0c56 00be 1c8f b63e 56e1 22bd
00000090: 0726 133f ad69 a63e a49d 71bf 25b6 533f
000000a0: 8451 cfbe afa5 9a3e 4cec 293f 317d d73e
000000b0: 2731 413e 2ae2 2fbd d59b 6ebe cec9 7ebf
000000c0: 5a44 743f 479c 11be 7b7a 84be 2eb9 473f
000000d0: 47a8 223e e3a4 18bf df87 f13d e914 a93d
000000e0: 7560 06be ddf0 aa3e 9b8f 9a3e dbea 0e3f
000000f0: 2363 ecbe ce2a 1cbf 416c 003e 186e dcbe
-0.14577135 -0.22695762 -0.32103798 -0.6418447 -1.1533669 0.4159144 -0.62750673 0.3290786
0.7989754 -0.4352424 -0.2802036 -0.44020292 -0.51919514 -0.53743905 0.28994974 -0.10452401
-1.8446566 0.09907673 -0.10145604 0.7325046 -0.22042774 0.33680388 0.12515423 0.5143453
0.20002119 -0.373758 0.042651128 -0.27308202 0.7124745 -0.8637006 -0.040192604 -0.14286235
-0.39921972 -0.12532824 0.3565606 -0.03976568 0.574799 0.325025 -0.94381166 0.82699805
-0.4049188 0.30204532 0.66376185 0.420877 0.18866406 -0.042940296 -0.23301633 -0.9952668
0.95416796 -0.14219771 -0.25874695 0.78016937 0.15884505 -0.596266 0.117934935 0.082559414
-0.13122733 0.3338689 0.30187687 0.5582711 -0.46169385 -0.61002815 0.12541296 -0.43052745

encoder_variable_selection.single_variable_grns.VaccinationFull.fc2.bias f4 [8]
00000000: 0d67 f53d 0d5d b23d ee19 3cbe 01c7 4ebd
00000010: 316b dbbc 6dfa 32bd 4d3a 9b3e b6d5 d43d
0.11982546 0.08709154 -0.18369266 -0.050482754 -0.026784511 -0.043695856 0.30317917 0.103923246

encoder_variable_selection.single_variable_grns.VaccinationFull.gate_norm.glu.fc.weight f4 [32, 8]
00000000: 8b03 743d a243 073f 78c1 cf3d b8eb 9a3e
00000010: 6211 d6be f3e9 b63e 5918 7c3d c58e 9dbd
00000020: 3b80 a2be 3ce7 a23d 9cb9 96be 8bfd 26bc
00000030: 0d6d 833e a30b 79be c1a1 903d 45bf a0be
00000040: dde1 a63c 8834 ac3d d5d0 933e 5061 54bd
00000050: 6a5a 3abc 51a6 e73e b171 c1be 3f94 8b3e
00000060: c814 46bf 2b7a b73d c8af 78be 166c 253f
00000070: 4751 24bf 03c1 053f a87e 013f 2ab7 283f
00000080: 096b 083f c54d 29be 7a11 f93e 6a41 00bf
00000090: 7105 f03e 7bdf dbbe c073 22bf a90b d8be
000000a0: 6085 513e 3b71 643e 042e d83e addf a0be
000000b0: aad1 f5bc c6a3 9c3d f17d 3fbe eb25 863e
000000c0: 1733 f3be bb61 b83e 4a9e 8bbd d490 5e3e
000000d0: c357 71be edce c23e 084a f43e 1f95 fd3e
000000e0: 1c19 68be 697c bd3e 59ec 6a3c 0fb1 a8be
000000f0: 53b7 9b3e 4ffc 44be 291b 933e 374a 9ebe
00000100: 0e9d c0bd 8a6e ce3e 2d64 58be 8422 7cbd
00000110: 4459 d6be d378 713e 4ec1 493e f0e1 903e
00000120: bfd9 ce3e f0c6 56be b171 dc3e 244a 02bf
00000130: 03ec 2e3e 66b3 05bf 87b3 3bbf 9533 06bf
00000140: d00c 27bc b91c 15be 3c76 043e 2ea5 d6be
00000150: 2a0a 983e 6e4b 013e 0672 98bd a0c5 7cbd
00000160: 4a87 77be 4f79 9ebe 9e1b 613d 0f38 683e
00000170: 7a7b dabd c8b1 cf3d e90e 03be 5d57 433e
00000180: 234b 70be 1c2a 783e d9fd a2be cfa2 ccbe
00000190: 97d1 0ebc 2baa 11be 71fa 60be e84d 0dbe
000001a0: 9742 4e3e 5eb8 12bf 291e 653e 6ea3 423e
000001b0: 24f5 b53e ce2d 473e 9d1f b0bc dadb 77be
000001c0: 21a2 57be 7f9f 7a3e 53fa 7dbe f10a 3b3e
000001d0: 1e63 5dbe 2a8d b83d 5135 babc e7cc f53d
000001e0: 8d7e 8dbe dbc1 3dbe 6d93 d43d 8e5a 28be
000001f0: 8f15 403e fb30 30be 800b a13e 7b21 b2bc
00000200: 0435 b13d add0 38bf c71d f83e 8c32 82bd
00000210: df8f 2a3e a7e9 a23e 8ff6 93be d092 83be
00000220: 2be4 0abe 2d40 47be 87b9 ab3e 193d ca3c
00000230: e485 7b3d 4c01 d33e 5f86 87be c46b 143e
00000240: 2073 933e 1ea0 003f 4c70 22bd abe8 bc3e
00000250: 32f4 d1bd a8a5 e03e bfc4 d83d 1b9d aa3e
00000260: 7f89 b03e 15ac a23d 52ec 943e 2720 c63d
00000270: 062f b13d 4614 8bbd 60be d9be a787 0fbe
00000280: fe97 09bf 2ef8 51be 53dc 033d 124a 313f
00000290: b06f 37be 59cd a93e 099a 0d3e 2dcb 213f
000002a0: bbc3 1fbe 9e61 02bf 311d 073f c91a 54bd
000002b0: 66cb 12be abd2 843e 65f1 fdbe 73ea 573e
000002c0: bab7 973e dfde 413f 7b2a d1be 50d9 a53e
000002d0: 41b0 84be 3e88 bcbd dade 15be 850e df3d
000002e0: 56b0 8ebe 9bda ac3d f3b2 a73e d824 473c
000002f0: 76d8 d4bd 6804 c8be 1307 d8be c996 efbc
00000300: 0b69 17be f71d 1f3e 1ef4 ccbd aaa6 a7bd
00000310: a5b9 7abe f30e 3a3d d083 8d3e 4d4c 3cbe
00000320: 952b 873e 3596 fdbe 105a 3c3f 5ea0 89be
00000330: d911 073f f383 23bd 3278 7bbe b7ee f43c
00000340: 94e2 993e 1a45 873d c980 983e 9ff7 d5be
00000350: 883c 883e b7c2 2bbf fb93 b9bd a1a1 f3be
00000360: dddc 4f3e f401 c0bc 8b31 e73e 07b1 80be
00000370: a3d1 693e aa05 a7bd 3699 4bbf 0116 d3be
00000380: 0a07 173e d50d 453e 3f78 7bbe 667d 8f3e
00000390: dedb 263e 7788 8c3e 1d67 98be 1e58 463e
000003a0: 9976 76be 9233 2bbf 473c 143d 8dbf 00be
000003b0: 6142 9e3e 48ec 413e 278a c6be 4ca2 2d3c
000003c0: 10a0 053f 73b0 38be a1e7 033e c7fb 8f3c
000003d0: a4a3 b43c 7e8e 9cbe b45c 91bd 1493 e4be
000003e0: fdb3 d5be 98f0 fa3e d120 643e 0336 973e
000003f0: 9820 56be 1598 aabe f04d 193e 7adb a6be
0.05957369 0.52837574 0.10144323 0.30257964 -0.41810137 0.35725364 0.061546657 -0.07693247
-0.31738457 0.07954261 -0.29438484 -0.010192285 0.25669137 -0.24320845 0.07062102 -0.31395927
0.020371372 0.08408457 0.28870264 -0.051850617 -0.011374095 0.45244077 -0.37782052 0.2726154
-0.7737546 0.089588486 -0.24285805 0.6461805 -0.6418652 0.5224764 0.5058389 0.65904486
0.5328832 -0.16533573 0.48646146 -0.50099814 0.4687915 -0.4294394 -0.6345787 -0.42196396
0.20461035 0.22308819 0.42222607 -0.3142065 -0.030007202 0.07648425 -0.18700387 0.26200804
-0.47499916 0.36012062 -0.068173006 0.21734935 -0.23568635 0.38048497 0.4771273 0.49527833
-0.22665828 0.3700898 0.014338576 -0.32947585 0.30413303 -0.19236873 0.2873166 -0.30915996
-0.09404956 0.4031871 -0.21131964 -0.061556354 -0.4186498 0.23581247 0.19702646 0.28297377
0.40400502 -0.20974326 0.4305549 -0.5089438 0.17082219 -0.52226865 -0.7332081 -0.5242246
-0.010195926 -0.14561738 0.12935728 -0.41922897 0.29695255 0.1262643 -0.07443623 -0.061711907
-0.24172702 -0.30951926 0.05495798 0.22677635 -0.106680825 0.10141331 -0.12798657 0.19076295
-0.23466162 0.24234813 -0.31834295 -0.39967963 -0.008716962 -0.1422507 -0.21970536 -0.1379925
0.2014259 -0.5731257 0.22374786 0.19007656 0.3553859 0.19451067 -0.02149945 -0.2420496
-0.21057941 0.24474905 -0.24802522 0.18265893 -0.21619841 0.090113 -0.022730501 0.12001973
-0.27635613 -0.18530981 0.10379682 -0.16440794 0.18758224 -0.17206185 0.31454086 -0.02174448
0.0865269 -0.72193414 0.48460218 -0.06357297 0.16656445 0.31818888 -0.28899047 -0.25697947
-0.13563602 -0.19458075 0.33539984 0.024687337 0.061406985 0.41211927 -0.26469705 0.14494234
0.2879877 0.5024432 -0.039657876 0.36896262 -0.10251655 0.43876386 0.10584401 0.33322987
0.344799 0.07942978 0.29086548 0.09674101 0.08651547 -0.06790976 -0.42528057 -0.14016591
-0.53747547 -0.2050483 0.03219254 0.6925365 -0.17913699 0.3316448 0.13828291 0.63200647
-0.15602009 -0.509302 0.5277892 -0.051783357 -0.14335403 0.25941977 -0.49598232 0.21085529
0.2963236 0.757307 -0.40852723 0.3239236 -0.2591572 -0.09205674 -0.14635792 0.10891441
-0.2786891 0.08440133 0.32753715 0.01215478 -0.10392849 -0.39065862 -0.42192897 -0.029246705
-0.14786164 0.15538774 -0.10007499 -0.081860855 -0.2448488 0.045424413 0.27639627 -0.18388481
0.26400438 -0.4952866 0.73574924 -0.26880163 0.5276161 -0.03992076 -0.2455757 0.029898984
0.30055678 0.06604977 0.29785755 -0.41790482 0.26608682 -0.67093986 -0.09061428 -0.4758425
0.20299096 -0.023438431 0.45154986 -0.2513506 0.22833876 -0.08155377 -0.79530656 -0.41227725
0.14748779 0.19243558 -0.24557589 0.2802536 0.1629481 0.27447864 -0.2976617 0.19369552
-0.24068679 -0.66875565 0.036190297 -0.12573071 0.30910018 0.1893779 -0.38777277 0.010597777
0.5219736 -0.1803606 0.12881328 0.017576111 0.022050686 -0.30577463 -0.0709776 -0.44643462
-0.41738883 0.49011683 0.22278143 0.29533395 -0.20910871 -0.33319154 0.14971137 -0.32589322

encoder_variable_selection.single_variable_grns.VaccinationFull.gate_norm.glu.fc.bias f4 [32]
00000000: e39b 8ebd 0db7 803d 0b45 79be 8757 77be
00000010: cac4 8fbe 36cd 233e b676 bb3d 4be5 943d
00000020: 8544 783e b1a1 f93d 345e 6c3d 4926 8fbc
00000030: d30e 07bd 1e01 03bd 61f1 cc3d b11d 8fbd
00000040: 0614 c1be 9172 5abe 6036 dcbc 4b99 343e
00000050: aa3e db3d 5327 fdbe 476e f33e 83bb 13be
00000060: 8054 6b3e f64e 8abc 0a37 0a3e bbac f43d
00000070: b7b9 1ebe 6dd9 e4be c8c4 36be 129a 2e3d
-0.06963327 0.06284914 -0.24342744 -0.24154483 -0.28079826 0.1599625 0.09153502 0.07270297
0.24244888 0.12189043 0.057707027 -0.01747431 -0.03297312 -0.031983487 0.10006977 -0.06988085
-0.3771059 -0.21332766 -0.026881397 0.17636602 0.107053116 -0.49444064 0.47545072 -0.14426999
0.22981453 -0.016883355 0.13497558 0.11947008 -0.15500532 -0.44697133 -0.17848504 0.0426274

encoder_variable_selection.single_variable_grns.VaccinationFull.gate_norm.add_norm.norm.weight f4 [16]
00000000: d529 0d3f a7fd 2c3f ae8d 933f e8fb 533f
00000010: 6e90 7f3f a1ac 633f d861 463f 448c 623f
00000020: e189 763f 836c 5d3f c07e 3a3f 5abb 873f
00000030: 7f4d 253f 3009 573f 8460 563f 796a 073f
0.55141956 0.6757454 1.1527612 0.82806253 0.9982976 0.88935286 0.7749305 0.8849528
0.96304137 0.864937 0.72849655 1.060405 0.64571375 0.83998394 0.8374102 0.5289684

encoder_variable_selection.single_variable_grns.VaccinationFull.gate_norm.add_norm.norm.bias f4 [16]
00000000: 731b e1bd 1894 193e 635c 623c be91 3e3e
00000010: caf0 803c 8346 643d 3af5 243c 8cc0 13be
00000020: 90f1 d3bd 2762 dfbd ea75 83bd 5319 1f3e
00000030: eacc 893c 8da2 593d 391d bcbc 38e0 de3c
-0.10991564 0.149979 0.013815972 0.18610284 0.015739817 0.055731308 0.010068232 -0.1442892
-0.10348809 -0.10907393 -0.06418975 0.15537004 0.016821343 0.053133536 -0.022963153 0.027206525

encoder_variable_selection.single_variable_grns.Cases.resample_norm.mask f4 [16]
00000000: 2e7d 243e 0f8c f83d b280 62bf 396b a9bd
00000010: 8ce2 c0bd c0d4 843e e274 bf3d dfe8 d1be
00000020: d839 27bf 3a41 8d3e 26fb b23e 05ed 343e
00000030: 44c4 cbbe e72d 40be 6c05 8d3e 5791 f53d
0.16063377 0.12136089 -0.88477623 -0.08272404 -0.094182104 0.25943565 0.093484655 -0.4099798
-0.6532264 0.27588826 0.34957236 0.17668541 -0.39798176 -0.1876751 0.275432 0.11990612

encoder_variable_selection.single_variable_grns.Cases.resample_norm.norm.weight f4 [16]
00000000: 1c36 8d3f 6df3 9d3f 2e25 0d3f b2b2 7c3f
00000010: 7c60 6b3f 2062 a73f 6c96 a93f cc9d 4f3f
00000020: 6608 1c3f 4053 aa3f 837d b13f d2cf 923f
00000030: a0de 1c3f 80e5 523f dd72 af3f ed48 9b3f
1.1032138 1.2339913 0.55134857 0.9871017 0.919441 1.307682 1.324903 0.81100154
0.60950315 1.3306656 1.3866428 1.1469672 0.612772 0.8238144 1.3706928 1.213163

encoder_variable_selection.single_variable_grns.Cases.resample_norm.norm.bias f4 [16]
00000000: d8af 6d3e 877c c63d a95d 27bd efa2 e4bd
00000010: 9c64 adbd b58e 04be d272 22be 84c0 d2bd
00000020: f0af 6fbd 7ecb d23d 9565 ad3d 171e 3f3d
00000030: 63f5 313d 0ba6 403c adfd 5cbd e3e8 063e
0.2321161 0.096917205 -0.040860806 -0.111638896 -0.08466455 -0.12945063 -0.15864113 -0.10290626
-0.058517396 0.10292719 0.08466641 0.046659555 0.04344691 0.011758338 -0.05395286 0.13174777

encoder_variable_selection.single_variable_grns.Cases.fc1.weight f4 [8, 8]
00000000: 6ec3 7cbd 748c be3f e532 373e a9a4 8ebe
00000010: 254f fdbe 8a4f ba3e 554c 80be a2ae 14bf
00000020: 983a 023f 4741 fb3e 2989 8cbe e771 e2bf
00000030: fe9b 87bf f201 453e b125 f33d 809c f2bd
00000040: 9385 9b3f 6555 d33d b46e 6dbd be0c 7cbd
00000050: 8ad8 adbd 2dd7 f2bb ab7b 61bf f994 353f
00000060: 7925 0abf 0a6c 17be 2cb1 333f 9d12 ea3e
00000070: a2cd 533f 5326 a7bc 4ad9 e13d 56f1 273f
00000080: 479b 6ebe 2248 c2be a6d2 cc3d 8e95 a53e
00000090: 892e af3e dfc0 023e c60f 8c3d 3665 4c3e
000000a0: 0e51 3fbe f54e 473e 13b9 413e 9c2e a7bf
000000b0: b24b 37bf e9ab 103f e52e ad3d 71fc 2a3f
000000c0: c7a8 533e 4edf fe3d e3fe d73d 8c1f 723f
000000d0: 4796 92bf bbc8 24bc a955 db3e 85f8 c7be
000000e0: 294a bbbe 579e a6be d0a3 a3be 656c 54bf
000000f0: 8776 74be 52fc 9abe 9f77 17bf 9b67 b13f
-0.061709814 1.4886613 0.17890508 -0.2786 -0.49474445 0.36388808 -0.25058237 -0.5807897
0.50870657 0.4907324 -0.27448395 -1.769101 -1.059448 0.19239023 0.118724234 -0.11846256
1.2150139 0.10319022 -0.057966903 -0.06153559 -0.08488567 -0.007410905 -0.8807933 0.7093044
-0.5396343 -0.14787307 0.7019222 0.45717326 0.82735646 -0.020404017 0.11027773 0.65602624
-0.23301421 -0.37945658 0.100011155 0.32340664 0.3421519 0.12768887 0.06838946 0.19960484
-0.18683264 0.19463713 0.18918256 -1.3061099 -0.71599877 0.56512314 0.0845621 0.66791445
0.20669852 0.12444936 0.10546663 0.94579387 -1.1452111 -0.0100576235 0.4283879 -0.39056793
-0.36580017 -0.3254268 -0.31960917 -0.82977897 -0.2387334 -0.3027063 -0.591669 1.3859743

encoder_variable_selection.single_variable_grns.Cases.fc1.bias f4 [8]
00000000: ff91 57be 2108 5abe dec1 78bb 6286 02be
00000010: 0948 ef3d 8b7d ffbd 1645 86be 9402 c5bd
-0.21051787 -0.21292163 -0.003795735 -0.12746575 0.116836615 -0.12475117 -0.26224583 -0.09619632

encoder_variable_selection.single_variable_grns.Cases.fc2.weight f4 [8, 8]
00000000: 698d 25be 1733 473f e917 e23c 6482 8dbe
00000010: c619 ed3e 3700 4dbe 8d84 563f de97 9dbd
00000020: 446a 2cbe d9c2 4d3e 8b36 aebd 6d93 32bf
00000030: 2d5d 133e c70d b53e 0552 1b3e 1406 90bf
00000040: 6241 59bd 3a7f bbbe c9ee 70bf f6c3 a23e
00000050: 6bf7 1e3f 02e0 93be 703c 0dbf 1895 553f
00000060: 04b1 babe 31f2 31bf 71da 01bf 874c 81bf
00000070: 74ac 003f 6c52 67bf aa39 0abf 58a3 9bbe
00000080: e8f1 f73e f9d5 303f f5a5 293e 09bb b13e
00000090: e7a6 703e 1f64 523d 69a1 6e3e 7573 083f
000000a0: 715e d43e f54b fa3d 1f54 7d3f a9fe 213f
000000b0: a40c b6be b336 2d3e 84f1 263e d473 cd3e
000000c0: 9b7a 37bf 966e e3be 3c82 0abf 5699 9b3e
000000d0: 79ec 1dbe b9b0 cebe cff6 db3e 3157 31bd
000000e0: 3b22 d23e 91d9 0d3f 79d6 d43c 9f15 cebd
000000f0: dac5 cb3d 669d 81bd 057e 88bd f054 2dbd
-0.16167225 0.7781233 0.027599292 -0.27638543 0.46308726 -0.20019613 0.83796006 -0.07694982
-0.16837412 0.2009386 -0.08506497 -0.69756204 0.14391012 0.35362074 0.15168007 -1.1251855
-0.05304087 -0.36620504 -0.9411436 0.3179013 0.6209628 -0.28881842 -0.55170345 0.83430624
-0.36463177 -0.6951018 -0.5072394 -1.0101479 0.5026314 -0.9036014 -0.5399424 -0.3039806
0.48426747 0.69076496 0.16567214 0.3471301 0.23501168 0.051365014 0.2330376 0.53301173
0.41478303 0.12221519 0.98956484 0.63279206 -0.3555652 0.16915397 0.16303068 0.40127432
-0.71671456 -0.44420308 -0.5410497 0.30390424 -0.15422238 -0.40369204 0.42961738 -0.043296043
0.4104174 0.55410105 0.025981175 -0.10062718 0.099498466 -0.063288495 -0.06664661 -0.04231733

encoder_variable_selection.single_variable_grns.Cases.fc2.bias f4 [8]
00000000: aef6 efbd bfb9 cdbd 3764 a13d 7141 6a3e
00000010: 4242 a6bd 25db 7b3d 8b7b babc a5ec 3e3d
-0.11716972 -0.10045194 0.078804426 0.22876526 -0.081181064 0.06148829 -0.022763988 0.0466124
