TFT-pytorch/results/age_subgroup/AGE2029/checkpoints/latest-epoch=7.ckpt (torch, 703031 bytes, 506 tensors)

prescalers.AGE2029.weight f4 [8, 1]
000000 fc 8f fc bd 64 f2 ab bf c7 a0 dd 3e 03 dc 32 3f
       -0.1233215 -1.3433347 0.43286726 0.6986696
000010 73 70 47 3d c3 51 ca be 1c c7 75 bf 92 4d 77 3f
       0.048691224 -0.39515504 -0.9600694 0.9660274

prescalers.AGE2029.bias f4 [8]
000000 c2 4f 6f 3e ff 5d 37 3f d0 bf 03 be fe 02 5d be
       0.23370269 0.716278 -0.1286614 -0.21583173
000010 a2 e2 7c 3e 78 79 79 bc 84 78 8f 3e 3b bb 39 be
       0.24695829 -0.015226714 0.28021634 -0.18137829

prescalers.SinWeekly.weight f4 [8, 1]
000000 21 d2 61 3e f2 7f 9e bf c1 8a 66 3f 08 b7 92 bf
       0.22052814 -1.2382796 0.9005547 -1.1462107
000010 c4 3e 16 3f 19 57 53 be ba 84 70 3f 6c 2c 02 3f
       0.5868952 -0.20638694 0.93952525 0.5084903

prescalers.SinWeekly.bias f4 [8]
000000 e0 31 a4 3e 23 8a 73 be 06 f2 86 3f 21 84 0b 3f
       0.32069302 -0.23783164 1.054261 0.5449849
000010 11 bd 00 3f d0 be 1c bf a5 f9 17 3f 9c ad d9 3e
       0.5028849 -0.61228657 0.593653 0.42515266

prescalers.VaccinationFull.weight f4 [8, 1]
000000 7c 17 ee 3c d5 14 0e 3f 30 23 52 3f 49 27 68 3f
       0.029063933 0.5550054 0.8208494 0.90684944
000010 77 ec dd be 52 45 61 bf 58 0c 14 bf f3 85 34 bf
       -0.4334447 -0.879964 -0.57831335 -0.7051689

prescalers.VaccinationFull.bias f4 [8]
000000 7f b6 81 3e 60 88 24 bf bd 6f 1f be 70 8c 9e 3f
       0.25334546 -0.6427059 -0.15569969 1.2386608
000010 b7 e8 76 3f ad 1a 31 3e 9c 79 22 be 62 16 ac 3e
       0.96448845 0.17295332 -0.15866703 0.33610827

prescalers.Cases.weight f4 [8, 1]
000000 aa df 1e 3f ab f1 c5 bf 8b 72 37 bf 6a 3f 39 3f
       0.62060034 -1.5464376 -0.71659154 0.7236239
000010 bc 62 c2 3f bf 07 8f 3e 2e aa 18 bf 37 93 c6 3e
       1.5186381 0.27935597 -0.59634674 0.3878419

prescalers.Cases.bias f4 [8]
000000 6a f4 48 bf 50 74 92 be ce ae 31 3f ba 3b 02 3f
       -0.78497946 -0.28604364 0.69407356 0.50872386
000010 0a d0 f1 3d 30 3f 8e bd 4a 4e d1 3e 95 02 55 bf
       0.118072584 -0.06945646 0.40880042 -0.83207065

static_variable_selection.single_variable_grns.AGE2029.resample_norm.mask f4 [16]
000000 37 85 5c bf 2a 6e ef bf 9c f6 89 3f 7e 08 44 bf
       -0.8614077 -1.8705494 1.0778384 -0.7657546
000010 9e a5 8d be d8 3d de be 9d 29 c5 3e ed fa 8d 3e
       -0.27665418 -0.43406558 0.3850831 0.27730504
000020 36 ee b6 be d2 bd 8d bf 57 14 6e bf 16 75 95 3e
       -0.35728616 -1.1073554 -0.92999786 0.29190892
000030 8b 63 27 bf 47 ea 3b 3f 6a 95 42 bf e8 8f 37 3f
       -0.65386266 0.73404354 -0.7600924 0.7170396

static_variable_selection.single_variable_grns.AGE2029.resample_norm.norm.weight f4 [16]
000000 a4 ed e4 3d 80 d2 f9 3e 7d d2 11 40 d2 66 52 3f
       0.11178139 0.4879341 2.2784722 0.8218814
000010 17 3f 80 3f 6f 6c 87 3f 7e 7d e0 3f 03 66 d1 3f
       1.0019253 1.0579966 1.7538297 1.6359257
000020 db e3 73 3f 0d 03 4e 3f 61 fc 7d 3f 08 b2 ca 3f
       0.95269555 0.80473405 0.99213225 1.5835581
000030 be 74 86 3f 94 91 f7 3f 31 d8 6c 3f 06 b6 e0 3f
       1.0504377 1.9341302 0.9251738 1.7555549

static_variable_selection.single_variable_grns.AGE2029.resample_norm.norm.bias f4 [16]
000000 98 75 8a 3e 30 d6 e1 bd d2 cc e2 bd 19 f1 95 be
       0.27042842 -0.11027181 -0.110742226 -0.29285505
000010 03 28 11 3d 45 00 94 be 59 0c 38 3e ef e9 e4 3e
       0.03543855 -0.28906456 0.1797346 0.44709727
000020 c9 34 66 be 4d 86 95 3e 56 ee 8d 3d 60 04 95 be
       -0.22481073 0.29204026 0.069302246 -0.291049
000030 f2 95 8e 3c 15 71 63 be cf 21 99 be 60 c9 82 3e
       0.017405484 -0.22211106 -0.29908606 0.25544262

static_variable_selection.single_variable_grns.AGE2029.fc1.weight f4 [8, 8]
000000 02 f7 9f 3e 4a 47 74 bf d0 1b a5 be 7c 93 9c be
       0.3124314 -0.9542128 -0.32247782 -0.30581272
000010 41 cd 5a 3e 3c a4 c3 bf 6f 17 8c bd 80 75 a6 be
       0.2136736 -1.5284495 -0.06840407 -0.3251152
000020 e1 15 a1 be b1 cf 1c c0 e6 f3 6d be ef 74 5b 3f
       -0.31462005 -2.4501765 -0.23237571 0.857253
000030 5a e5 d5 be df 7c a5 be 3c e7 b7 3e cd 65 38 3f
       -0.41776544 -0.32321832 0.35918605 0.72030336
000040 7b 1c d3 3d 08 68 e0 3e 2f 89 27 3f e5 91 63 bd
       0.103081666 0.4382937 0.654437 -0.055559058
000050 17 05 87 3d 7b 2c a9 be 3a 53 1e 3e a8 f6 38 be
       0.06592768 -0.33041748 0.15461436 -0.18062842
000060 40 b9 56 bf 62 53 ed 3d b2 f9 f5 3d f8 19 b3 be
       -0.8387642 0.1158817 0.12010516 -0.3498075
000070 44 bc 66 be 5f 73 8a bb a6 f3 67 be fc 02 11 3f
       -0.22532755 -0.004225179 -0.22651538 0.5664518
000080 fb e4 98 bf 91 2d b7 3d f0 29 29 3e 6d 33 90 3e
       -1.1944879 0.08944238 0.16519904 0.28164235
000090 9f df 44 bf 2f b6 4f 3f 95 b5 ab be b4 f7 81 3e
       -0.7690372 0.81137365 -0.33536974 0.25384295
0000a0 93 20 0a bd 86 53 ab 3e 03 a6 35 be 3c 36 30 bd
       -0.03372247 0.3346216 -0.1773911 -0.043020472
0000b0 06 33 c2 3e 7e fa f6 be ae 9c 30 3e 8f 55 da be
       0.37929553 -0.48237985 0.17247269 -0.426434
0000c0 31 6b 1b bd ca 0b 8e be 26 1c 96 be d5 81 ae 3c
       -0.037944023 -0.2774337 -0.2931835 0.021302143
0000d0 a9 bf 91 3e 4c a9 a0 3f 2d 93 0b 3f f6 96 00 bf
       0.28466538 1.2551665 0.5452145 -0.5023035
0000e0 2e aa a3 be ed f9 be bf 99 38 7f be 0e d0 d9 3e
       -0.31965774 -1.4920021 -0.24923934 0.42541546
0000f0 16 5d f7 bd 74 bf 73 be 12 58 5d 3e 49 36 83 3e
       -0.120783016 -0.23803502 0.21615627 0.25627354

static_variable_selection.single_variable_grns.AGE2029.fc1.bias f4 [8]
000000 89 fb 9c bd 96 3e 90 be b7 4d 40 3e db 02 63 3e
       -0.07665164 -0.2817275 0.18779646 0.22169058
000010 6a 61 bf bd 53 2e 1a 3e 35 e6 ab 3e 53 3f d0 be
       -0.09344752 0.15056734 0.33574072 -0.40673313

static_variable_selection.single_variable_grns.AGE2029.fc2.weight f4 [8, 8]
000000 0f f7 b4 bd 05 69 a5 3f 93 5f 70 3e 62 3a aa bd
       -0.08836185 1.2922674 0.23473959 -0.08311917
000010 0e 0b 70 be 75 70 81 be 56 b3 43 3f 1a 8d 8e 3f
       -0.23441717 -0.2528111 0.7644552 1.1136811
000020 61 17 4f 3e b4 cd f3 be de 8a d3 bd 73 aa 8d 3d
       0.20223762 -0.47617877 -0.10329221 0.06917276
000030 9e b7 d7 bd f9 ac e7 be 41 72 08 3d ca 55 03 3f
       -0.10533069 -0.45249155 0.033312086 0.5130278
000040 c2 07 f0 bd f2 e4 ed 3e 47 c0 84 bd f6 b0 7e be
       -0.1172023 0.46463734 -0.064819865 -0.24872193
000050 3e b4 92 3e fb 9a f7 be 2f 70 82 bd 53 54 26 3f
       0.2865314 -0.48360428 -0.063690536 0.6497242
000060 94 e5 17 3f ff d7 d0 3d da ba 05 bd 65 3d 50 3e
       0.59334683 0.10197448 -0.0326489 0.2033592
000070 ae cc c9 bd 12 74 a3 be 3b d5 df bb a3 8f 0d be
       -0.09853493 -0.31924492 -0.006830839 -0.13824324
000080 bd bd e6 3d 68 9d 10 bf 33 74 ce 3d 72 72 ef bd
       0.112666585 -0.5649018 0.10080757 -0.116917506
000090 ed ca 02 3f 3e 84 ed be db c0 1d 3f 67 91 8b 3e
       0.5109089 -0.46389955 0.616224 0.2725937
0000a0 e0 71 be 3e b1 af 81 be 56 9e a9 3c 7a a3 a1 3c
       0.37196255 -0.25329354 0.020705383 0.019731272
0000b0 77 d3 10 be e2 c2 0b 3e 1d 08 5c bf 9d 35 05 3d
       -0.14143167 0.1364856 -0.8594988 0.032521833
0000c0 79 2a 0b 3d 56 50 1e bd f2 c5 0d bf 8e 91 5e bd
       0.033976052 -0.038650833 -0.55380166 -0.05433803
0000d0 cd 01 52 3c 86 a8 a6 be 42 2e f7 be d7 82 88 3d
       0.012817812 -0.32550448 -0.4827748 0.06665581
0000e0 8b 3c b0 3c f0 4a 79 3f 4b 39 08 bf 09 17 30 be
       0.021513244 0.9737997 -0.5321242 -0.17196287
0000f0 a5 98 78 3e eb 13 3f 3d dc 5b 80 3e 5f 72 3d 3e
       0.2427698 0.046649855 0.25070083 0.1850066

static_variable_selection.single_variable_grns.AGE2029.fc2.bias f4 [8]
000000 1d 52 94 bd d6 ba 96 3e 0e ef 0c bf 35 f3 01 3f
       -0.07242224 0.2943942 -0.5505227 0.5076173
000010 83 8d 77 be 2d d6 10 3d 27 c3 8b bc 45 45 ad bd
       -0.24175076 0.035360504 -0.01706083 -0.08460478

static_variable_selection.single_variable_grns.AGE2029.gate_norm.glu.fc.weight f4 [32, 8]
000000 e3 eb 13 bf db 87 1a 3f 56 cb 7d be 9b 6c 1f 3e
       -0.5778181 0.6036355 -0.24784598 0.15568773
000010 6b d1 99 3e f9 de 18 bf 65 67 2f be a9 f0 4b 3e
       0.30042586 -0.5971523 -0.17129286 0.19916023
000020 25 dd 22 3d d6 e2 9c be 7b 0d 89 3e 5e fd 5d be
       0.03976168 -0.30641812 0.26768097 -0.21678683
000030 b7 46 52 be e6 21 5d 3e 27 ca a8 be 0e 51 88 be
       -0.20534788 0.21594962 -0.3296673 -0.2662434
000040 ec 33 86 be 36 df 5d 3e 1c d4 22 bf c1 f5 3b bd
       -0.26211488 0.2166718 -0.63604903 -0.045888666
000050 6b 03 db 3e ad ed 07 bf df 41 2c 3e 19 36 38 be
       0.42776045 -0.5309704 0.16822003 -0.17989387
000060 5f d5 a9 bc 4b fd c6 bd 3b ed c6 be b1 f1 c6 be
       -0.020731626 -0.097162805 -0.38852867 -0.3885627
000070 8d 63 63 3e 3a 92 80 be 58 7d 10 bf 1a 9b f8 3e
       0.22205944 -0.25111562 -0.5644126 0.48555833
000080 b7 ee 0a 3f 81 91 18 bf 3b bf cf 3e c6 49 04 bf
       0.542705 -0.5959702 0.40575585 -0.5167507
000090 fa 6f 2b bf c9 bf 99 3d 59 30 02 bf 8f cc ae 3e
       -0.6696774 0.07507283 -0.5085502 0.3414044
0000a0 9a 4a 77 3e 6f 57 83 be a0 24 27 be 7e 26 9a bd
       0.24149552 -0.25652644 -0.16322565 -0.07526873
0000b0 f4 11 c9 be 98 a8 c6 be 53 66 0a 3e 7e 71 ed be
       -0.3927151 -0.38800502 0.13515596 -0.4637565
0000c0 74 50 69 3d 1a 01 53 bf a4 16 06 3f 07 e4 d7 3e
       0.05696149 -0.82423556 0.52378297 0.4216616
0000d0 c8 5f b0 be 89 3b 2f be d6 ea df be 29 67 4a 3f
       -0.34448075 -0.17112555 -0.43733853 0.7906366
0000e0 36 16 ef bd 1d 12 63 3d c9 9b 86 be dd 0d 69 be
       -0.11674158 0.055437196 -0.2629073 -0.22759195
0000f0 e2 3c 1c bf 6b d8 b6 3e 3e 84 0f bd 8f 8a 54 be
       -0.610304 0.3571199 -0.035038225 -0.20755981
000100 5c 19 a9 be cb e7 53 3c ff 1b 80 3e 7e 31 be 3e
       -0.3302716 0.012933682 0.2502136 0.37147135
000110 00 12 f1 3e 26 d8 4a 3e 42 ff 2d 3e f1 39 39 be
       0.47084045 0.19809017 0.16991904 -0.18088509
000120 46 f7 f2 3e f3 e5 56 be 8b 7d 3c 3d ec 80 35 3e
       0.4745428 -0.20986156 0.046018165 0.17724961
000130 96 cf 93 be 27 14 66 be f7 78 d5 be dd 79 0b bf
       -0.28869313 -0.22468625 -0.4169385 -0.54482824
000140 3e 42 37 bd 59 e0 85 bd c6 35 09 be 06 f3 08 3f
       -0.044740908 -0.065369315 -0.13399419 0.53495824
000150 b9 34 93 bd 44 cf 27 bf 64 00 bb be 04 20 5b 3e
       -0.071877904 -0.6555064 -0.36523736 0.21398932
000160 2b fb 97 be e7 4c 31 be 3d 51 6a bd 50 71 d2 bd
       -0.29683813 -0.17314492 -0.05720638 -0.10275519
000170 ad 42 6b 3d 84 64 b2 3e 15 eb 88 bc 3c 84 0e 3e
       0.057436634 0.34842312 -0.016713658 0.13917631
000180 99 6b 46 3e d7 d0 26 3f d7 4c b2 be 3f 1a 2f 3e
       0.19376983 0.65162414 -0.3482425 0.17099856
000190 46 77 b2 3e e8 51 29 be b4 df 9b 3d ba 92 32 3d
       0.34856623 -0.16535151 0.07611027 0.04359696
0001a0 b7 a9 78 bf 17 a7 4c 3f 04 e9 5f bf 14 0a 40 3f
       -0.97133964 0.7994246 -0.8746493 0.7501538
0001b0 fc 69 3a 3f 6f fa 2a bf 29 83 04 3f 2c 5f 45 bf
       0.7281797 -0.6678838 0.51762635 -0.77098346
0001c0 f1 3a 0b 3d 8d 13 af 3e 60 c1 8a be 50 12 10 be
       0.033991758 0.34194604 -0.27100658 -0.14069486
0001d0 f7 6e d9 3c 59 8e 3e be f4 1f 22 3e 71 19 70 be
       0.02654217 -0.18608989 0.15832502 -0.23447205
0001e0 64 8a 88 bf d3 0e 77 3e 5d 29 38 bf 22 05 1e 3f
       -1.0667233 0.24126749 -0.71938115 0.6172658
0001f0 1e 03 37 3f da da 47 bd 68 e3 0c 3f 0f 4f a4 bf
       0.7148913 -0.048792697 0.55034494 -1.2836627
000200 f0 87 35 bf 66 bf 69 be 8f fc d2 3b e0 23 39 3f
       -0.7091055 -0.22826919 0.0064387987 0.72320366
000210 dc 86 48 3f c9 06 f2 be b1 23 6c be 6e 3b 9c be
       0.7833078 -0.47270802 -0.2306049 -0.3051409
000220 6b e9 fe bd 92 b8 d1 be 82 5c c7 be 2c 44 49 3f
       -0.12446865 -0.40961128 -0.38937765 0.7861965
000230 f6 85 4b 3f 93 14 f3 bd 51 10 18 be 29 52 30 3f
       0.79501283 -0.118691586 -0.14849974 0.68875366
000240 d0 e2 93 be 94 86 d2 3c c5 20 38 bf 24 67 d5 3e
       -0.28883982 0.025698937 -0.71925 0.41680253
000250 3b 1c 6b 3d 2e 2f b8 be 42 48 18 be 58 9d 38 be
       0.05739997 -0.35973495 -0.14871314 -0.18028772
000260 86 76 80 bf b7 e0 f6 3e 69 45 4c 3e 9d d8 ac 3d
       -1.003617 0.4821832 0.19948353 0.08439753
000270 ac e7 11 3d 30 b5 c2 3e e6 78 cb be 73 4e 04 3f
       0.03562133 0.3802886 -0.39740676 0.51682204
000280 05 2b f5 3e 03 bf 8c bf dc 9b fb bc d4 0f cc be
       0.47884384 -1.0995792 -0.030713968 -0.39855826
000290 97 e5 83 bf 25 93 7a 3f 7d 1d ab be d8 64 11 3f
       -1.030444 0.97880775 -0.33420935 0.567945
0002a0 47 58 5b 3f db d0 58 bf 3b 2b e7 3e 51 2a 4d bf
       0.85681576 -0.8469369 0.4515017 -0.80142695
0002b0 b6 4e 12 bf d9 62 27 3f a3 c6 b8 be d5 0d 8c 3f
       -0.57151353 0.65385205 -0.36089048 1.0941721
0002c0 fc 3e 0e be 61 18 fd 3e 7e be 77 bf 63 a5 fe ba
       -0.13891214 0.49432662 -0.96775043 -0.0019427951
0002d0 ce 27 a5 be 3f 62 74 bd 2e 6b 8c 3d db 99 9d be
       -0.3225693 -0.059664007 0.068563804 -0.30781445
0002e0 6b 67 34 be ad 12 68 be ff 8c 61 3f e8 66 8b be
       -0.17617576 -0.22663374 0.8810577 -0.2722695
0002f0 05 ac de be 5c 30 34 bb 8d 69 ae bd 97 e1 a5 3e
       -0.43490615 -0.0027494645 -0.08516226 0.32398674
000300 c5 0e ef 3e 5c db 88 3d 9d c0 f5 3e 1d 9e 3c bf
       0.46690956 0.066824645 0.47998515 -0.7367876
000310 f8 db 4c be 71 42 47 bd 2a dc f8 3c d7 28 e9 3e
       -0.20005786 -0.048647348 0.03037842 0.4553897
000320 86 57 89 bf 62 ff f7 3e e4 07 03 bf 48 c6 ac bd
       -1.0729835 0.4843703 -0.51183915 -0.08436257
000330 83 b0 45 3f 97 e7 bc be db b0 84 be 60 97 7f be
       0.7722246 -0.3689544 -0.2591618 -0.24960089
000340 36 d3 b6 3d 7f a0 81 bf c5 a0 98 bd 47 1f 03 3e
       0.08927004 -1.0127105 -0.07452539 0.128049
000350 fb cc 01 bd ab f3 d3 be c5 49 42 bf a3 d7 9f 3b
       -0.031689625 -0.4139684 -0.75893813 0.004878001
000360 a6 e9 70 be 0a b4 d1 bc d3 4f c2 3e 81 c7 3a bf
       -0.2352663 -0.025598545 0.37951526 -0.7296067
000370 fa a8 20 3e b8 a2 b0 be 88 d9 d1 3e 97 52 89 be
       0.1568946 -0.34499145 0.40986276 -0.26820824
000380 b2 90 97 bd 59 21 87 be 90 15 8f 3e b4 49 0a bf
       -0.07400645 -0.2639263 0.27946138 -0.5401871
000390 15 ea 79 be 52 ca 0a bf 59 2d 64 be 20 ab ed bd
       -0.24405701 -0.54214966 -0.22282924 -0.11604905
0003a0 52 64 5b be 82 1f 1f bf 99 76 01 bf ce 0b 96 bd
       -0.21424988 -0.6215745 -0.5057159 -0.0732647
0003b0 5a 21 fe bd 53 a6 86 bc 87 4f b9 be 9c c9 6a be
       -0.12408705 -0.016436731 -0.36193487 -0.2292847
0003c0 bb c0 02 3f 2a 07 19 be 93 b8 a4 3e 31 b2 f9 be
       0.51075333 -0.14944139 0.3217207 -0.48768762
0003d0 3c a9 9b 3e 0a 3d 0c be 13 df 20 bd 5d 05 3f 3f
       0.30402553 -0.1369516 -0.03927524 0.7461756
0003e0 73 26 d7 3e af 04 9f be 1d 41 1d 3f 07 2f f4 be
       0.42021522 -0.3105826 0.6142748 -0.4769213
0003f0 9a a8 0a bf 57 ab 68 bd 00 52 19 be fe aa 45 3f
       -0.54163516 -0.056804027 -0.14972687 0.7721404

static_variable_selection.single_variable_grns.AGE2029.gate_norm.glu.fc.bias f4 [32]
000000 17 a6 ab 3e 4c 5a c5 be 5b 3a 94 3d 17 09 2a be
       0.33525154 -0.38545454 0.07237693 -0.1660503
000010 c9 7d e3 3e fe b8 a8 bd 6a e2 ff bd d6 b8 1b 3f
       0.44431904 -0.082384095 -0.12494357 0.6082891
000020 2a a0 2c be 0d 2a 0b 3d a8 5b 34 3e 4d 01 81 be
       -0.16857973 0.03397565 0.17613089 -0.25196305
000030 ad 2d b7 bd db ab ea bd 67 c2 80 be c4 af a6 3d
       -0.08944259 -0.1145856 -0.25148317 0.081389934
000040 dd b2 34 be 6a f9 51 be bf 62 36 bf a6 2c d8 be
       -0.17646356 -0.205053 -0.71244425 -0.42221564
000050 a5 3c c3 bc 7e af c0 be da ee 2f 3e 7d 6d e1 be
       -0.023832629 -0.3763389 0.17180958 -0.44028845
000060 69 05 51 bf a8 04 f2 be 30 ff 85 bf 09 db 29 bf
       -0.8164888 -0.47269177 -1.0468502 -0.66349846
000070 8b 66 dc be a9 b3 3b 3f eb 5d 86 bf e8 3d 91 be
       -0.43046984 0.73321015 -1.0497411 -0.28367543

static_variable_selection.single_variable_grns.AGE2029.gate_norm.add_norm.norm.weight f4 [16]
000000 ae 33 17 3f 13 72 95 3e 9d 7d 02 40 3f 83 20 3f
       0.5906323 0.29188594 2.0389168 0.62700266
000010 44 48 85 3f d8 05 44 3f 32 2a 87 3f 4e 62 9f 3f
       1.0412679 0.76571417 1.0559752 1.2451875
000020 7e 19 4c 3f cc 79 45 3f e0 f4 73 3e 43 d1 bb 3f
       0.797264 0.7713897 0.23823881 1.4673237
000030 cd 51 23 3f 56 aa dc 3f c7 c3 bd bd 77 8f c1 3f
       0.63796693 1.7239482 -0.09265857 1.5121907

static_variable_selection.single_variable_grns.AGE2029.gate_norm.add_norm.norm.bias f4 [16]
000000 f3 91 13 3f 4e 43 5f 3e 6a 18 e5 3d f1 f1 05 bd
       0.57644576 0.21803018 0.11186297 -0.032701436
000010 f6 51 4b 3e 2e 37 f1 bd b5 78 91 bd e8 4e cc 3e
       0.19855484 -0.11778103 -0.07103101 0.3990395
000020 43 8c 9b be 46 7a 97 3e a0 0a a0 3e 75 77 6f be
       -0.3038045 0.29585475 0.31258106 -0.23385413
000030 ba 3c 1b 3e ae a9 16 be 55 c3 bb 3d 54 b9 c7 3c
       0.15159884 -0.14713165 0.09168116 0.024380364

static_variable_selection.prescalers.AGE2029.weight f4 [8, 1]
000000 fc 8f fc bd 64 f2 ab bf c7 a0 dd 3e 03 dc 32 3f
       -0.1233215 -1.3433347 0.43286726 0.6986696
000010 73 70 47 3d c3 51 ca be 1c c7 75 bf 92 4d 77 3f
       0.048691224 -0.39515504 -0.9600694 0.9660274

static_variable_selection.prescalers.AGE2029.bias f4 [8]
000000 c2 4f 6f 3e ff 5d 37 3f d0 bf 03 be fe 02 5d be
       0.23370269 0.716278 -0.1286614 -0.21583173
000010 a2 e2 7c 3e 78 79 79 bc 84 78 8f 3e 3b bb 39 be
       0.24695829 -0.015226714 0.28021634 -0.18137829

encoder_variable_selection.flattened_grn.resample_norm.mask f4 [3]
000000 ff 37 32 bf b1 72 98 3e d1 37 52 3e
       -0.69616693 0.29775003 0.20529105

encoder_variable_selection.flattened_grn.resample_norm.norm.weight f4 [3]
000000 66 d9 64 3f 9b 67 c0 3f 4c 3c 12 40
       0.89394224 1.5031618 2.2849302

encoder_variable_selection.flattened_grn.resample_norm.norm.bias f4 [3]
000000 34 63 f4 3d a2 bd 61 3e ec d9 0f bf
       0.11932984 0.22044995 -0.561919

encoder_variable_selection.flattened_grn.fc1.weight f4 [3, 24]
000000 d9 b5 ac 3e 57 8d 9c be 1e c4 15 3e 57 41 68 be
       0.3373249 -0.30576584 0.14625594 -0.22681175
000010 d1 f6 5e 3c 34 ce a4 3e 46 5c ed bd ac 55 0a be
       0.01360865 0.3218857 -0.115898654 -0.13509244
000020 24 ec 27 bf fe c7 f2 3c fd 81 9f be 5e bc cf bf
       -0.65594697 0.02963638 -0.3115386 -1.622936
000030 41 29 1f be a1 d5 e9 3e 81 c0 14 3f 28 49 e8 3e
       -0.15543081 0.45670798 0.5810624 0.45368314
000040 65 04 33 3f 0e e3 58 bf 6f 83 c3 3d 80 43 ce 3d
       0.6992858 -0.8472146 0.09546553 0.10071468
000050 44 11 81 3e 8a 87 61 be 83 0a df bc 09 18 fb 3e
       0.25208485 -0.2202436 -0.027226692 0.49041775
000060 59 b9 8c be 14 28 00 3f c6 6c 9b bf 2b 56 d9 bd
       -0.2748516 0.50061154 -1.214257 -0.10612138
000070 72 22 08 bf 49 66 f1 3e 27 69 ba be 1f e9 92 3d
       -0.5317756 0.4714835 -0.3640835 0.071733706
000080 40 e7 27 bf 97 9a 80 3e f9 8d 30 bf 3b 33 5d bf
       -0.65587234 0.25117943 -0.68966633 -0.86406296
000090 0a 03 42 be 53 c0 25 3e fe 6f 12 3f 9a 0f b5 3e
       -0.18946472 0.16186647 0.57202137 0.35363466
0000a0 2c 3d 90 bd b3 90 99 3e 3c f3 94 be de dd df be
       -0.070429176 0.2999321 -0.29091823 -0.4372396
0000b0 a7 00 9e be c1 3b 00 be 89 a4 81 3e 82 13 d7 3d
       -0.30859873 -0.12522794 0.25320843 0.10501768
0000c0 cb a4 8b 3c fc 6e 16 3b cf d9 09 bf 33 3a 83 3e
       0.017046353 0.0022954335 -0.53847975 0.2563034
0000d0 01 3f b4 bd fa f2 4e 3f d1 52 04 bf 41 da b0 bd
       -0.088010795 0.808395 -0.5168887 -0.08635379
0000e0 85 39 f3 be 5d 81 ee 3e 20 7c 00 3f b7 18 80 3e
       -0.4750482 0.4658307 0.501894 0.25018856
0000f0 fe f0 bf be 88 41 9b be 72 d1 ab 3d 22 81 bd bd
       -0.3748855 -0.30323434 0.08389558 -0.09253146
000100 7f f2 1b be 9c 80 ce 3f 5f 53 ce 3e ff c0 29 c0
       -0.15229224 1.6132998 0.40297982 -2.6524045
000110 9f 01 a1 bf bc 11 9b bf 15 b0 ad 3d a0 f1 e8 3c
       -1.257862 -1.2114787 0.084808506 0.028435528

encoder_variable_selection.flattened_grn.fc1.bias f4 [3]
000000 cf 12 c7 be 17 b2 d1 be b8 b1 dc be
       -0.38881537 -0.40956184 -0.4310434

encoder_variable_selection.flattened_grn.context.weight f4 [3, 16]
000000 77 8f 34 3d 06 84 d3 bd 76 60 65 3b 7c 80 15 be
       0.04408213 -0.10327916 0.0035000122 -0.14599794
000010 43 5e 85 bd a9 73 48 3c 95 7b 14 bb cc 71 dd 3c
       -0.065121196 0.012234607 -0.0022656668 0.027031802
000020 1b 9c 1b 3c 87 61 d9 bc 83 99 fd bd 88 9d 1a 3d
       0.009497668 -0.026535762 -0.12382796 0.03774789
000030 5e c1 b6 3d 9c 6d 23 be b0 9f e4 bd ba ed 0f be
       0.089236006 -0.15959781 -0.111632705 -0.14055529
000040 18 8b ab 3e 59 3b 32 3e cb c6 e9 3e c3 97 4f 3c
       0.33504558 0.17405452 0.4565948 0.01267046
000050 4b 22 fe bd c9 39 40 3f 54 10 30 3e f5 26 c2 be
       -0.124088846 0.75088173 0.17193729 -0.37920347
000060 66 28 f7 bc 85 2d 89 3e 1d c9 01 bf d4 f9 1f be
       -0.03017063 0.2679254 -0.506975 -0.15622646
000070 71 47 0b b9 d4 b8 a1 bd d3 30 a2 be 0e 5a 94 3d
       -0.00013282687 -0.07896581 -0.31677875 0.07243739
000080 70 3e 78 3e 31 c8 7b be 9f 9d 8f 3e 49 d2 c9 3d
       0.24242568 -0.24588086 0.28049943 0.09854562
000090 db 93 18 bf df ba 25 3f 6b a7 69 ba 51 bf 15 bf
       -0.5960061 0.6473827 -0.0008913192 -0.5849505
0000a0 b4 30 d0 bd 4c 8f de 3d a8 57 8d be 45 db b3 bd
       -0.101655394 0.108671755 -0.2760594 -0.08782057
0000b0 cf 9b 71 3d 05 02 93 be 46 26 09 be a9 6d aa be
       0.05898648 -0.28712478 -0.13393506 -0.3328679

encoder_variable_selection.flattened_grn.fc2.weight f4 [3, 3]
000000 1c a5 44 bf 6f 5f 8e bf 30 26 eb be 6e c0 0f bf
       -0.76814437 -1.1122874 -0.45927572 -0.56153
000010 e3 73 48 bf 8a 72 b3 be 83 e5 cf be cc 8f 6f bf
       -0.7830183 -0.35048324 -0.4060479 -0.9357879
000020 aa aa 4f bf
       -0.8111979

encoder_variable_selection.flattened_grn.fc2.bias f4 [3]
000000 db fc 53 3e 00 de 17 3d ca 4e 9e 3d
       0.20701925 0.03707695 0.077298716

encoder_variable_selection.flattened_grn.gate_norm.glu.fc.weight f4 [6, 3]
000000 45 5a 18 3e f4 5e b7 3c 45 31 21 3f 16 a2 c7 bd
       0.14878185 0.022384144 0.62965804 -0.09747712
000010 14 c9 ec be 09 34 b6 3e 70 fb b9 be 5a 24 42 bf
       -0.4624716 0.35586575 -0.36324644 -0.7583672
000020 6f fa 00 be 22 85 82 be 32 d8 d8 be 63 37 1c 3f
       -0.12595533 -0.25492197 -0.42352444 0.61022013
000030 43 7e 4b 3f af 5b bd 3e d4 72 04 be dc 86 41 3f
       0.79489535 0.36984012 -0.12934428 0.75596404
000040 08 8e 8f 3e c6 6c 1c 3e
       0.2803805 0.15275869

encoder_variable_selection.flattened_grn.gate_norm.glu.fc.bias f4 [6]
000000 a2 ea 44 3e 9f ca 9a bd 74 79 2f bf 46 ac d8 be
       0.1923013 -0.07558178 -0.685447 -0.42318934
000010 cd 1d 1f bf ba 0c 9c 3e
       -0.6215485 0.3047846

encoder_variable_selection.flattened_grn.gate_norm.add_norm.norm.weight f4 [3]
000000 22 6e c0 3d 6f b7 2b 3e 05 2a a1 3e
       0.09396006 0.16769193 0.3147737

encoder_variable_selection.flattened_grn.gate_norm.add_norm.norm.bias f4 [3]
000000 fe df ba 3d a1 3d cd be bc 48 0c 3f
       0.09124754 -0.40086082 0.54798484

encoder_variable_selection.single_variable_grns.SinWeekly.resample_norm.mask f4 [16]
000000 96 fe 31 3e 64 2e 1c be 2f e2 5a 3e cd 17 6a bd
       0.17382273 -0.15252072 0.21375345 -0.057151604
000010 20 bf c5 bd c6 be 27 bf 01 f2 20 3f b1 6f 27 bf
       -0.09655595 -0.6552547 0.6286927 -0.654048
000020 4d dc 46 bf aa 2d f0 be 74 08 5c bf 5e d2 3e bf
       -0.776799 -0.4690984 -0.859504 -0.74539745
000030 46 c3 7a bf 8b cf b1 bd 14 55 84 3f 5d 2f f3 3e
       -0.97954214 -0.08682164 1.0338464 0.47497073

encoder_variable_selection.single_variable_grns.SinWeekly.resample_norm.norm.weight f4 [16]
000000 78 bd 06 3f a0 1a 1e 3e d0 52 0a 40 ed 51 89 3f
       0.52632856 0.15439844 2.1613045 1.0728127
000010 ec 32 9c 3f 6b 1b 33 3f 79 1b ef 3f cf bd 88 3f
       1.220304 0.6996371 1.8680259 1.0682925
000020 02 fb 38 3d 0b 54 cc 3e d6 e2 52 3f 8e a1 83 3f
       0.045161255 0.3990787 0.82377374 1.0283678
000030 d0 e6 3e 3f 10 62 62 3f bc ea 21 40 98 98 96 3f
       0.7457094 0.8843088 2.529952 1.1765318

encoder_variable_selection.single_variable_grns.SinWeekly.resample_norm.norm.bias f4 [16]
000000 46 d5 c1 3e 0a 6f cd bd 95 15 bc be 39 24 db 3d
       0.37858027 -0.10030945 -0.36735216 0.10700268
000010 b5 13 63 bc db 52 a1 be 1e 58 d9 be 2c 90 cb bd
       -0.013859679 -0.31508526 -0.4245004 -0.09939608
000020 2e 90 9e bd 4e ad 3b 3c e9 a8 1a 3e 76 65 ec 3e
       -0.07742344 0.011454893 0.15103497 0.4617116
000030 e6 d6 47 3e 68 4c 50 3e c3 a3 77 3c d6 80 2a 3e
       0.19515571 0.20341647 0.015114727 0.1665071

encoder_variable_selection.single_variable_grns.SinWeekly.fc1.weight f4 [8, 8]
000000 e9 92 24 3f e6 2e d8 bf 95 01 59 bf 11 4a 31 c0
       0.6428667 -1.6889312 -0.8476804 -2.7701457
000010 30 fb 9e be 07 c2 28 3e 3e eb bb 3e 56 35 05 3f
       -0.31051016 0.16480266 0.36702913 0.5203451
000020 44 37 39 bf 4f a6 af 3e b6 41 39 c0 42 4c 8a be
       -0.72349954 0.3430657 -2.8946357 -0.27011305
000030 3d 96 98 bf d4 25 b9 3f dc 6d 79 bf 49 31 23 bf
       -1.1920849 1.4464669 -0.9743326 -0.6374708
000040 25 56 f5 be 6e b0 de 3d 27 e3 fc be b9 dc cd 3e
       -0.47917286 0.10873495 -0.49392053 0.4020746
000050 2b f6 62 bf 92 9e f4 3e e9 41 5c 3f 3e d9 d7 3d
       -0.8865687 0.4777723 0.8603807 0.105394825
000060 1f 99 98 3e 66 ec ba 3d 5f 0f cc be 8e dd 3b 3e
       0.29804322 0.09127121 -0.39855477 0.18346235
000070 30 ca ac 3e fd 46 43 3e 38 b6 94 3e 15 5a 1e 3f
       0.33748007 0.19070049 0.29045272 0.61856204
000080 04 81 46 bf 58 d0 e6 3c 38 b9 7d 3f e0 42 33 3e
       -0.7754061 0.028175518 0.99110746 0.1750598
000090 ba c5 f0 3c 8e 17 50 3f 6b 08 ff 3e 4e 0b 89 bf
       0.029391158 0.8128594 0.4981111 -1.0706575
0000a0 c7 43 0c 3f 24 34 6a be 61 d0 1e bf 15 3b a5 3d
       0.5479092 -0.22871453 -0.6203671 0.0806791
0000b0 b5 fe 5a 3e 0a 60 88 be b9 50 1d be 63 34 8a 3e
       0.21386226 -0.26635772 -0.15362824 0.26993093
0000c0 c0 be 9a bf a1 b3 05 bc 04 0a 58 c0 2a db 0e 3f
       -1.2089462 -0.008160503 -3.3756113 0.5580317
0000d0 cb 1b aa bf e7 30 ea 3e d6 b7 a9 bf 4a d5 1f bf
       -1.3289732 0.45740435 -1.3259227 -0.6243483
0000e0 b6 46 a8 3e 22 09 0c 3c 88 60 10 bf 44 03 72 3e
       0.32866448 0.008547099 -0.56397295 0.23634058
0000f0 62 75 6f 3f 4d 5f e7 3e c3 6c 81 3b 9a 6a fc 3e
       0.93538487 0.45189896 0.003949733 0.4930008

encoder_variable_selection.single_variable_grns.SinWeekly.fc1.bias f4 [8]
000000 81 0c dd be 78 90 e6 be 92 10 bf 3c 4c fc 04 be
       -0.43173602 -0.45032096 0.023323331 -0.12986869
000010 9e ce b8 bc b7 4c b0 bd 61 32 cb be b8 86 0b bd
       -0.02255946 -0.08608382 -0.39686874 -0.034064025

encoder_variable_selection.single_variable_grns.SinWeekly.fc2.weight f4 [8, 8]
000000 8b 2b 82 bf 31 41 a5 3e 33 b9 75 bf 86 19 a6 be
       -1.0169538 0.322763 -0.95985717 -0.32441348
000010 e6 33 34 be 49 c5 53 bc 16 2f 39 3f e3 3b 1b 3d
       -0.17597923 -0.012925454 0.7233747 0.03789891
000020 b5 6e b7 bc 3a 3b 80 3c 46 05 aa 3d da 28 0e 3d
       -0.022391656 0.015653241 0.08301787 0.034706928
000030 db 35 f4 3d 67 3e 25 3e 62 d9 21 3f d3 7b 18 3e
       0.119243346 0.16137086 0.63222325 0.14890985
000040 00 c8 44 3f 8f 64 27 be 6f fa 15 3e 2f 61 08 3d
       0.76867676 -0.16346954 0.14646314 0.033295806
000050 b0 cd 19 bc 9d fd 70 3c 65 4f 61 3f 44 bc a5 3e
       -0.009387419 0.014708904 0.8801177 0.32370198
000060 ca c0 38 3f dd 48 3e 3f f6 aa a8 3d 1d 16 a9 bd
       0.7216917 0.7432993 0.08235733 -0.08256171
000070 42 1a d9 bd ae 35 ff be c1 69 00 3f 04 ef 7a be
       -0.106007114 -0.49845642 0.5016137 -0.2450524
000080 63 95 2c bf a6 d3 86 3f dc 64 e7 be 90 e2 70 3e
       -0.67415446 1.053334 -0.45194137 0.23523927
000090 67 16 d5 bd 69 44 9a 3e 14 8e be 3e ff 80 da bd
       -0.104046635 0.30130318 0.37217772 -0.10669135
0000a0 4f 9d 35 3f 79 3a 71 be 44 3c 6a be ab 6e e1 bd
       0.7094316 -0.23557462 -0.22874552 -0.11007436
0000b0 63 d6 58 be 03 c9 c1 3e 87 f7 d2 be 0b b1 bf 3d
       -0.21175532 0.37848672 -0.41204473 0.0935994
0000c0 a0 66 12 bf b0 86 8d be da f5 5f bd ee 6f 88 3b
       -0.57187843 -0.2764182 -0.05467782 0.0041637337
0000d0 50 5f 6d bd 52 b2 36 be 9c 37 1e bf fe 35 20 be
       -0.057952225 -0.17841461 -0.61803603 -0.15645596
0000e0 af 0c 64 3f a8 11 93 bd 8c d9 01 3e 41 ce 61 3d
       0.89081854 -0.07181102 0.12680644 0.05512834
0000f0 79 2a fe 3d c2 28 89 3c b2 0c 5e 3f b2 79 8f be
       0.12410445 0.016743068 0.8673812 -0.28022534

encoder_variable_selection.single_variable_grns.SinWeekly.fc2.bias f4 [8]
000000 0f fa 6d ba 89 48 8b be 97 eb 35 3e e9 bf 1a 3f
       -0.0009078094 -0.27203777 0.17765652 0.6044908
000010 7a af 0b 3c 12 77 a8 be 54 44 cd be 4d db 85 3e
       0.008525724 -0.32903343 -0.40091193 0.26143876

encoder_variable_selection.single_variable_grns.SinWeekly.gate_norm.glu.fc.weight f4 [32, 8]
000000 d5 66 ca 3e 0b e4 2d ba 41 17 97 3e 20 84 ce bd
       0.3953158 -0.00066334073 0.2950993 -0.100837946
000010 bb 63 f4 3d c6 1f d0 be 1f 17 77 be 22 f3 b9 3e
       0.119330846 -0.4064924 -0.24129914 0.36318308
000020 b1 51 18 bb e7 c9 1d be f8 d0 d4 be f3 b7 04 bf
       -0.0023242051 -0.15409051 -0.4156568 -0.51843184
000030 b8 9e d6 3d a8 b3 a3 be e8 8d 0d 3f 14 14 e2 be
       0.10479492 -0.31973004 0.55294657 -0.44155943
000040 79 95 69 3f df 94 85 3f 48 2c 75 3f 40 23 4b 3f
       0.912437 1.0436057 0.9577069 0.7935066
000050 d2 a7 86 3f 9c 09 6a bf 52 70 8b bf 49 1e 5f 3f
       1.0519965 -0.9142091 -1.0893652 0.87155586
000060 16 1d 0b 3e e6 c5 3d be b5 c5 7c be 1c d4 62 be
       0.13585314 -0.18532524 -0.24684794 -0.22151226
000070 2d cc 8f 3e ee fc 21 3e 1a 5e 75 3e 27 ec 12 3e
       0.2808546 0.15819141 0.23961678 0.14347897
000080 5f d5 d1 3d 87 68 92 bd b8 f8 3c be 6e 91 94 3e
       0.102457754 -0.07148843 -0.18454254 0.29017204
000090 32 f8 c4 bc 5f 7b 62 be 35 f2 17 3f af ec db 3d
       -0.02404413 -0.22117375 0.59353954 0.10738503
0000a0 8c 7e 1b 3e 6f e1 ce be db e0 4e be ec d2 aa 3d
       0.15184993 -0.40406367 -0.20202963 0.083410114
0000b0 f0 d0 05 be 70 5c 34 be a9 77 8d bc c7 b4 cf 3c
       -0.13067985 -0.17613387 -0.017268972 0.025354756
0000c0 b8 f9 1f 3f 65 cc 6d bd 3b c3 44 bf 0c 89 7c bf
       0.62490416 -0.058056254 -0.768604 -0.98646617
0000d0 f3 99 b1 3e bd d8 56 bf 7f a2 85 3f 72 22 73 bf
       0.34687766 -0.83924466 1.0440215 -0.94974434
0000e0 21 f1 c3 be 87 98 bf be bc 6c 17 3f df a3 50 3e
       -0.38269904 -0.37421057 0.5915029 0.20375012
0000f0 c8 c2 45 be b7 c2 e5 3e d5 b5 0e bf 53 47 e6 3e
       -0.19312584 0.44875118 -0.55746204 0.4497629
000100 af b4 13 3f 5c 9c 30 3f ff bd 20 3e af 9a 2c 3f
       0.57697576 0.68988585 0.15697478 0.6742353
000110 92 ac 0f 3f c0 da 03 bf 6d 92 0b bf a5 df 1b 3f
       0.56122696 -0.5150566 -0.54520303 0.6088813
000120 5a 12 36 bd 16 6e ef be 47 02 ec bd 2e 64 04 be
       -0.044451095 -0.46763676 -0.11523872 -0.1292884
000130 2e 3f 37 be 0d 49 b8 3d 80 1b 3c 3e 26 cc 05 be
       -0.17895195 0.08998308 0.18369865 -0.13066158
000140 62 07 ca bc 8c 14 c6 3e 6d f9 fb bc df 86 93 be
       -0.024661724 0.3868755 -0.030758584 -0.28813836
000150 b5 1d 01 3e 4e 24 09 3e 60 a3 57 bd ef 3e 86 3d
       0.12608989 0.13392755 -0.05264604 0.065549724
000160 26 01 92 3e ef ab 1c 3f 44 b2 d4 3e c9 70 2d 3f
       0.285165 0.6119985 0.41542256 0.6775022
000170 ba b7 36 3f 8d 7c ce be 95 d7 17 bf 3e b0 fd 3e
       0.71374094 -0.403294 -0.5931333 0.49548525
000180 76 57 be 3e 68 d5 e2 3e 8d 81 cc 3e 9f 80 24 3f
       0.37176102 0.4430344 0.3994259 0.6425876
000190 1b c7 31 3f 60 55 ce bc 86 4c 82 be 53 a9 58 3e
       0.69444436 -0.025187194 -0.25449008 0.21158342
0001a0 21 41 11 3e 7c 05 49 be fb 62 a1 bd 7b 0d f6 bd
       0.14185001 -0.19630998 -0.07880207 -0.1201429
0001b0 96 8d 4c 3d 26 4b 14 be 10 c2 5e be ef 1a 8e be
       0.049939714 -0.14481792 -0.21753716 -0.27754924
0001c0 89 3c 7f bf 6a f3 72 bf 67 d9 53 3f 0b 7c 3e 3f
       -0.99701744 -0.9490267 0.82753605 0.74408025
0001d0 68 d4 58 bf bc b9 7c 3f a9 91 14 bf eb e8 65 3f
       -0.84699106 0.9872091 -0.5803476 0.8980853
0001e0 ef 87 84 3e 7b 6c 47 be db 60 7d be b0 34 6d bd
       0.2588496 -0.19474976 -0.24743979 -0.057911575
0001f0 cb 41 4b be db 63 b0 be 8a 79 97 3e 91 15 00 3d
       -0.19849317 -0.34451184 0.29584914 0.031270567
000200 a6 1e e8 bc 98 41 84 3e e2 c9 66 3f 7e 82 81 3f
       -0.028334927 0.25831294 0.901518 1.0117948
000210 96 02 75 3e 08 40 31 be b8 9a 61 bf 92 65 98 3e
       0.23926768 -0.17309582 -0.8812671 0.29764992
000220 0e c7 6a 3f 0a bc 38 bf cb b1 57 bf 1b e2 2e bf
       0.91709983 -0.72161925 -0.84255666 -0.6831376
000230 bc 92 6c be b3 b2 a7 3e e3 c0 b8 3e de 3d 8c bf
       -0.2310285 0.32753524 0.3608466 -1.095638
000240 aa 40 89 3e 63 24 c8 3e 90 6d 8f 3d 3d e9 1a 3c
       0.26807147 0.3909026 0.07003319 0.009455022
000250 ea 19 cf 3e 97 1f ba be df 43 18 be a2 45 67 3c
       0.40449458 -0.36352226 -0.14869641 0.014115723
000260 1d 38 98 3c ab 71 ad 3e 76 ca 40 3e 20 85 94 3e
       0.018581444 0.33875784 0.18827233 0.29007816
000270 e8 f1 52 be 3f eb 63 3d 96 b9 20 bf d6 d4 7e bb
       -0.20600092 0.05564427 -0.6278318 -0.0038884184
000280 8a 2f 84 bd 3d da 07 3f bd bb e1 be 90 4e 2c bf
       -0.0645438 0.5306738 -0.44088545 -0.67307377
000290 98 68 ec 3e 60 9e 92 3e ae d5 14 be 8d bb 28 be
       0.4617355 0.28636456 -0.14534637 -0.16477795
0002a0 56 ef 17 be 94 81 a3 3e 06 d4 92 bd 0a 32 0e 3e
       -0.14837393 0.31934798 -0.071693465 0.13886276
0002b0 07 67 a6 3e 82 94 5a 3e d9 e6 ee bc f6 d9 49 be
       0.3250048 0.21345714 -0.029162811 -0.19712052
0002c0 0c be 5c be 7e 6a f8 be 60 3d 8c 3d d7 44 44 be
       -0.21556872 -0.48518747 0.06847644 -0.19166885
0002d0 7c c2 9a be 9f be b6 3e 04 c0 cf b9 5f 71 f8 3c
       -0.30226505 0.35692307 -0.0003962518 0.030327497
0002e0 7a 1f 58 bf 15 5c 3b be a8 22 1e 3f fd 9f f0 3e
       -0.8442303 -0.18296845 0.6177163 0.4699706
0002f0 ed 78 24 bf 8d 73 67 3f 27 6d d6 bd c9 87 45 3d
       -0.6424702 0.9041069 -0.10470038 0.048225198
000300 e9 7b 05 3e 4d db 68 3e de d1 e6 3c 04 56 ba 3e
       0.13035549 0.22739907 0.028176244 0.3639375
000310 f1 b4 e6 3e 9c 9b 81 be 75 9c d0 be ff 36 1c 3b
       0.45059922 -0.25314033 -0.40744367 0.002383649
000320 ea c7 30 3e e8 10 3b 3e f4 0f 8c 3e 8c a1 41 3f
       0.17263761 0.18268168 0.2735592 0.75637126
000330 fc 1e b6 3e 6e 9e 81 bd 90 82 33 bf 4d 1d 2a 3e
       0.35570514 -0.06329046 -0.701211 0.1661274
000340 44 e3 e2 bd 01 d8 ab 3e 91 05 11 bf 4c 6f 11 be
       -0.11078504 0.33563235 -0.5664912 -0.14202613
000350 1f d0 01 3f 24 df 8a 3e a5 92 98 be 2a 81 00 bf
       0.5070819 0.27123368 -0.2979938 -0.5019709
000360 2a 87 4f 3f 53 79 f1 3e 69 ef 12 3e 3c 92 c0 3d
       0.8106562 0.47162876 0.1434914 0.09402892
000370 97 fd 71 3f 08 20 44 bf 13 f4 db be 77 3d 5e bd
       0.9452757 -0.76611376 -0.4295965 -0.054257836
000380 9b fa a9 3d 61 3c a3 3e c9 1a 6c 3e 01 e8 43 3e
       0.08299752 0.31882003 0.23057093 0.19131471
000390 19 39 07 3f 2f c3 b1 bd 92 7f 52 be a6 08 7e bd
       0.528215 -0.086798064 -0.20556477 -0.062019967
0003a0 15 3c a5 be a1 4d dd 3d 61 59 20 bf 8b 0f 6a be
       -0.322724 0.10805822 -0.6263638 -0.22857492
0003b0 eb e1 81 3e 07 52 07 bc 0a 8d c9 be 4f 86 9a be
       0.25367674 -0.008259303 -0.39365417 -0.30180594
0003c0 91 a6 47 bf fb 1d 84 be 7c 7f 4a 3f 5c 1b 19 3f
       -0.77988535 -0.25804123 0.79100776 0.5980737
0003d0 c6 7b 11 bf 71 c5 19 3f 65 b6 28 bf 87 2b 79 3f
       -0.5682949 0.60066897 -0.6590331 0.9733204
0003e0 62 cb 29 3e d7 3f c9 3e d5 09 f0 be 37 0a 4b be
       0.1658149 0.39306518 -0.468825 -0.19828115
0003f0 0e 0d e5 3c a5 30 4f 3e 17 55 b3 3b 1b ce cd be
       0.027960327 0.202334 0.00547279 -0.40196308

encoder_variable_selection.single_variable_grns.SinWeekly.gate_norm.glu.fc.bias f4 [32]
000000 8d de 09 3f 42 a1 30 3e be 3a d7 3d 52 9a 6d bb
       0.5385521 0.17249015 0.10509251 -0.0036255312
000010 dc 85 82 bd 06 a2 67 be 59 06 8e be 82 01 b7 bd
       -0.06373188 -0.22620401 -0.27739218 -0.089358345
000020 6e 13 0a 3e 1a ca 44 3e 46 b3 23 3e f0 ae d8 3e
       0.13483974 0.1921772 0.15986356 0.42320967
000030 b5 5d b1 3e 6b ad ad 3d 8e ee 3d 3f ae 67 da 3d
       0.34641805 0.084803425 0.7419213 0.106643066
000040 dd 88 14 bf 15 68 2b bc aa 0f 89 3f dc e0 b9 bf
       -0.58021337 -0.010461827 1.0707905 -1.4521747
000050 df a5 0a c0 6e 0c 04 c0 85 f3 11 3f 38 aa 43 bf
       -2.166374 -2.0632586 0.57012206 -0.7643161
000060 17 e6 2e be f6 58 a0 bf b2 b9 18 c0 3d 55 a0 3e
       -0.1707996 -1.2527149 -2.386334 0.31315032
000070 9f 16 a5 3d 24 df c8 bf 3d 45 69 3e 7a 13 95 be
       0.08060955 -1.5693097 0.22780319 -0.29116422

encoder_variable_selection.single_variable_grns.SinWeekly.gate_norm.add_norm.norm.weight f4 [16]
000000 21 8c 9d 3d 8b 53 4b 3f 9e 40 e6 3f ad 66 84 3e
       0.07692743 0.7942435 1.798847 0.25859585
000010 2a a8 48 3f 8e 2a d3 3e b0 aa e4 3f a1 fe ea 3e
       0.783816 0.41243404 1.786459 0.4589739
000020 c3 ba e7 3e a9 cd da 3e 4b 0d 56 3f 8f 26 82 3f
       0.45259675 0.4273503 0.83614033 1.0168017
000030 c1 37 33 3f e5 fc db 3e 33 12 90 3f 03 59 3e 3f
       0.7000695 0.4296638 1.1255554 0.7435457

encoder_variable_selection.single_variable_grns.SinWeekly.gate_norm.add_norm.norm.bias f4 [16]
000000 8f 30 b2 3c c3 25 20 3e d4 5b 3a 3d dd b9 a2 3e
       0.02175167 0.15639405 0.04549773 0.31782427
000010 b2 f4 65 3d 1b 34 c4 bd e7 b8 61 be ab 6f 14 bd
       0.056141563 -0.09580251 -0.22043191 -0.036239307
000020 a4 f5 40 3d 05 5e 8d be 4a db 9f be f2 0b 73 3e
       0.04710926 -0.27610794 -0.31221992 0.23735026
000030 7d a1 8c bd 6c d8 a7 3e d8 1b 62 bd a4 c0 be 3d
       -0.06866739 0.32782304 -0.055202335 0.09314087

encoder_variable_selection.single_variable_grns.VaccinationFull.resample_norm.mask f4 [16]
000000 46 73 1d bf 4a 70 52 bf 7b 35 c4 3e d5 1e ce bf
       -0.6150402 -0.8220259 0.38322052 -1.6103159
000010 68 ac b3 3f 7c 7b 83 bf a1 b7 b1 bf d6 d2 88 3e
       1.4036989 -1.027206 -1.3884164 0.26723355
000020 dd 10 04 3e 87 3b a4 bf ea 93 02 be 86 c2 39 3f
       0.12897058 -1.2830666 -0.12751737 0.72562444
000030 e6 cc 43 be d5 be fb 3e 1f 07 e7 bb ca f7 f3 3d
       -0.19121131 0.4916903 -0.0070504094 0.119124964

encoder_variable_selection.single_variable_grns.VaccinationFull.resample_norm.norm.weight f4 [16]
000000 99 20 9a 3e 8b 22 3a 3f 00 af cf 3f d1 60 b8 3e
       0.30102995 0.7270896 1.6225281 0.36011365
000010 f8 aa 25 40 31 92 1b 3f 73 0a 0e bf f8 d1 ea 3f
       2.58856 0.60769945 -0.55484694 1.8345327
000020 9f 50 c1 3f 99 4c 1b 3d 7f 1e 99 3f 7a 6a e3 3f
       1.5102729 0.037914846 1.1962432 1.7766869
000030 1a e1 11 3f 89 e0 c2 3f 04 a5 59 3f 2b e1 92 3f
       0.569841 1.5224773 0.8501742 1.1474966

encoder_variable_selection.single_variable_grns.VaccinationFull.resample_norm.norm.bias f4 [16]
000000 bd 66 ea 3d 30 19 13 3c 6b c2 1f 3f 28 42 37 be
       0.11445377 0.008978173 0.62406033 -0.1789633
000010 0f 48 65 3e 69 91 88 be c3 52 5c be 2e f1 bc 3e
       0.2239077 -0.2667344 -0.21515946 0.36902755
000020 f4 ed c7 3b 02 44 10 bf 0e 92 a2 be fd d8 44 be
       0.0061013643 -0.5635377 -0.31752056 -0.192234
000030 eb cc 87 3e 03 17 8d bd 8e 4d 01 3d 72 64 46 3e
       0.26523528 -0.06889155 0.031568103 0.19374254

encoder_variable_selection.single_variable_grns.VaccinationFull.fc1.weight f4 [8, 8]
000000 e3 4f ed 3e b1 f2 c8 be fd 8e 45 bf 03 58 11 bc
       0.4635001 -0.3924766 -0.7717131 -0.008871081
000010 73 eb 72 3f f5 d0 f6 3d 30 3f 29 bf b4 99 e8 bd
       0.94890517 0.12051574 -0.6611204 -0.113574415
000020 f3 dd 4f be f7 ea 70 be 9f 9b 7c bf d9 a9 ef bf
       -0.2029951 -0.23527132 -0.9867496 -1.8723708
000030 28 c6 7f bd c6 9f 0b 3e b9 59 c0 3f 0b 2a e3 3d
       -0.062444836 0.13635167 1.5027381 0.110920034
000040 d5 19 d6 be ce 09 17 bf 21 19 ca be c5 18 a3 bf
       -0.41816583 -0.58999336 -0.39472297 -1.2741934
000050 40 8f f2 be ae 01 62 3f a0 4d 13 3f 05 1b a1 bd
       -0.47374916 0.88283813 0.5754032 -0.07866482
000060 89 1b 99 be 79 00 95 bf 4b 5c 42 bf 13 88 b6 bd
       -0.2990382 -1.1640769 -0.7592208 -0.08912673
000070 0a b1 0a bf 90 2a b1 3f c8 4b 57 3f 50 cd 53 3f
       -0.5417639 1.3841114 0.8410001 0.82735157
000080 39 b7 39 be b6 7e 19 3f 3d 08 3a 3c 1c 1d fd be
       -0.181363 0.5995897 0.011354503 -0.4943627
000090 f5 4b cc bd 59 ff 49 3f 2b 99 95 3f 03 43 9b 3f
       -0.09975425 0.78905255 1.1687368 1.2129825
0000a0 34 bf 32 be 95 dd 8f 3f 97 00 b5 3e df c6 73 be
       -0.1745575 1.1239496 0.35352013 -0.23806332
0000b0 ef a1 59 bf b2 39 6a bf 3b d5 50 bf 7b 66 e6 bf
       -0.85012716 -0.91494286 -0.81575364 -1.8000025
0000c0 44 25 48 bf f5 dd c2 3e 39 cd d0 3c c9 ae da 3d
       -0.7818186 0.38059965 0.025488483 0.10677869
0000d0 87 e0 50 3f d1 db 67 bd 05 2f 8b 3e 9f c0 21 3e
       0.815926 -0.056606118 0.2718431 0.15796135
0000e0 66 e4 72 3e 19 1e 92 3f 15 ba 55 be 6c 46 a3 be
       0.2371994 1.1415435 -0.20871766 -0.31889665
0000f0 50 7e 8e bf 7c aa a6 bf f3 8c 96 be 83 a3 d1 bf
       -1.1132298 -1.3020778 -0.2940441 -1.6378025

encoder_variable_selection.single_variable_grns.VaccinationFull.fc1.bias f4 [8]
000000 cd 8a 01 3f b5 7b 34 be 99 38 87 be 25 20 81 3d
       0.5060242 -0.17625315 -0.26410368 0.06304959
000010 32 dd 97 be b6 70 0b bf 15 eb 05 be 0b b8 0a bf
       -0.29660946 -0.5446886 -0.13077958 -0.5418708

encoder_variable_selection.single_variable_grns.VaccinationFull.fc2.weight f4 [8, 8]
000000 55 43 63 be 88 a3 b1 3b bd 4e 3f be fe 69 55 bf
       -0.22193654 0.005421106 -0.1868238 -0.83364856
000010 d3 bf 5a bf e9 cf a0 3e 71 9f 12 bf 53 bb bb 3d
       -0.8544895 0.31408623 -0.5727454 0.09166589
000020 98 c1 5d 3f 42 d0 95 bf 48 7b 4f bf e3 5a 4f bf
       0.86623526 -1.170418 -0.8104749 -0.8099806
000030 06 7a 66 bf 10 a2 4f bf ac 6d e4 3d 6e f7 fb be
       -0.90029943 -0.8110666 0.11153731 -0.4921221
000040 13 1f 96 bf 69 f0 e4 3e a9 bf 3e 3e 9b 81 8f 3f
       -1.1728233 0.44714668 0.186278 1.1211427
000050 67 34 8d 3c dd 24 35 3f 1a 77 0e 3f cf 26 69 3f
       0.017236901 0.70759374 0.55650485 0.9107484
000060 c7 4e f0 3d a6 0d 76 bd d9 82 7f 3e be 22 8c 3e
       0.117337756 -0.06007161 0.24952258 0.27370256
000070 96 9e 4a 3f 86 34 4e bf be 63 04 be bb ab 87 bc
       0.7914823 -0.80548894 -0.12928674 -0.01656138
000080 b7 73 43 bd 6c 12 00 3f 60 7d 32 3f 64 78 a0 3e
       -0.047717776 0.5002811 0.6972256 0.3134185
000090 57 04 55 3f e1 de 33 3f 65 5e f6 be 4f d1 91 3f
       0.8320975 0.7026196 -0.48118892 1.1392001
0000a0 cf 81 a3 be d2 fc c2 3d 56 00 cf 3e 27 27 f8 3e
       -0.31934974 0.09520878 0.40429944 0.4846737
0000b0 d5 8f 26 be d3 01 02 3e 75 06 37 be c3 45 40 bf
       -0.16265805 0.12696008 -0.17873557 -0.7510645
0000c0 91 1b 38 3f 4a 81 91 bc 57 01 bf be 7a 63 78 3f
       0.71917063 -0.017761845 -0.3730571 0.9702679
0000d0 d4 14 8e 3e cc 07 3a bf 6f fa bd 3d a9 4c b2 bd
       0.27750266 -0.7266815 0.09276282 -0.08706028
0000e0 fd f7 66 be b0 71 c2 3e 85 f2 b6 3e ec bd 7c 3f
       -0.22555538 0.37977362 0.35731903 0.987273
0000f0 21 59 d7 be ec fe cf be 9c 48 77 3d 41 4d e3 bd
       -0.42060187 -0.40624177 0.06037198 -0.110987194

encoder_variable_selection.single_variable_grns.VaccinationFull.fc2.bias f4 [8]
000000 48 27 04 bd 18 f7 2a 3f f8 80 8d be 5e 64 50 be
       -0.032264024 0.66783285 -0.27637458 -0.20350787
000010 38 b5 56 be 09 0d 61 3c 44 ec c7 3e b5 f9 f0 3c
       -0.20967567 0.013736018 0.39047444 0.029415945

encoder_variable_selection.single_variable_grns.VaccinationFull.gate_norm.glu.fc.weight f4 [32, 8]
000000 5f 3f b9 be 88 cc 0e 3f a7 a2 5c be 68 ce 0c 3f
       -0.3618116 0.5578084 -0.21546422 0.5500245
000010 c5 62 09 bf c9 7a 2e 3f f1 74 b8 3e d2 76 83 3e
       -0.53666335 0.68156105 0.3602672 0.2567659
000020 96 e7 f2 bd df b2 31 3f 0b 5e 89 be 01 58 80 3d
       -0.11860578 0.6941356 -0.26829562 0.062667854
000030 f8 7b 95 bd e7 08 0a 3e 1a 70 01 3e 94 9b af bd
       -0.07299036 0.13479958 0.1264042 -0.08574596
000040 e9 cb db 3e 04 9a 6c bf a4 ad 08 3f a4 98 88 be
       0.4292901 -0.9242251 0.53389955 -0.26678956
000050 e2 d5 24 3f 48 f4 fe 3d 04 68 a0 be 3c d3 a1 be
       0.6438886 0.12448937 -0.31329358 -0.31606472
000060 b3 d8 64 bf f2 d2 87 be 6a e5 8b be d2 ba 60 3f
       -0.89393157 -0.26528126 -0.27323467 0.87785065
000070 d1 64 03 bf ee 9c 4b 3f 58 f1 42 3f 63 da 61 3f
       -0.5132571 0.7953633 0.7614951 0.88223857
000080 3e df 8f 3f 73 bf a6 be ae 2b 70 3f 4c ec a0 bf
       1.1240003 -0.3256794 0.9381665 -1.2572112
000090 4c cb 34 3f df 0c 20 bf 9f cb b8 bf d1 f1 9b bf
       0.70622706 -0.6251964 -1.443714 -1.2183172
0000a0 ae 25 29 3e 66 59 52 3f 82 eb 6a 3e 60 28 4f bb
       0.1651828 0.8216766 0.22941402 -0.0031609759
0000b0 89 6e 2f bf 19 ba 94 3d 10 d0 00 3d bf 3c 10 3e
       -0.6852804 0.07262058 0.031448424 0.14085673
0000c0 0e 58 35 bf 07 bb 3d be c3 1f a9 3b 7f fa 23 3f
       -0.70837486 -0.18528377 0.005161257 0.640541
0000d0 59 6e 36 be 42 10 dd 3e 79 39 74 3b 67 0b e8 3e
       -0.17815532 0.43176466 0.0037265702 0.453212
0000e0 b2 dd c4 bc 9f 06 6e 3f b3 50 00 bf fd 52 df 3d
       -0.024031494 0.92978853 -0.5012314 0.10904501
0000f0 4c c6 6f be d3 8b 14 bd ab 13 59 3e 21 0f 6d be
       -0.23415488 -0.03626616 0.21198909 -0.23150302
000100 10 07 b5 be 96 5d 40 3f b6 7e f0 be a6 e3 9a bd
       -0.3535695 0.751428 -0.46971673 -0.07562952
000110 0c 07 52 bf 64 e6 08 3e 8d 2b 88 3e c5 b6 84 3d
       -0.82042 0.13369137 0.26595727 0.06480173
000120 74 1b 1b 3f 85 db 40 be 68 6c 52 3f c8 2e 7b bf
       0.60588765 -0.1883374 0.82196665 -0.9811826
000130 8e de 53 3f 1d 94 62 bf 4e 3d 93 bf cb 7c 72 bf
       0.82761467 -0.8850725 -1.1503084 -0.9472167
000140 88 09 14 bf b3 98 3a bf e4 07 fc 3d 5a 2e 85 3e
       -0.57827044 -0.7288925 0.123061925 0.26011926
000150 a7 28 21 3e 1e 60 0a 3f 39 9b d0 3e ff 78 25 3f
       0.15738164 0.54052913 0.40743425 0.6463775
000160 a2 d3 62 be 9f 63 f1 bf 06 c3 1c 3f 1d 64 cc 3e
       -0.22151044 -1.8858527 0.6123508 0.3992013
000170 14 72 86 3e 92 f3 b8 3e 20 c4 a1 bc a3 a5 5f 3e
       0.2625891 0.3612333 -0.01974684 0.21840529
000180 88 48 e2 bc 8d 69 58 3f 3a 07 6e be 6b 39 29 3c
       -0.027622476 0.8453606 -0.23244944 0.010328631
000190 d7 b6 fb bd 40 51 d5 be af 9d 16 be 86 7b 0e be
       -0.12290733 -0.4166355 -0.14708589 -0.13914308
0001a0 bf 75 05 be 9e 69 93 bf fb d4 c6 3e 0a 0c 2f 3e
       -0.13033198 -1.1516607 0.38834366 0.17094436
0001b0 b9 58 47 3f 81 21 37 3b 1e 8a af bd 9b 69 dc be
       0.77869755 0.0027943554 -0.08571266 -0.4304932
0001c0 2e 2f 1f bf 62 0d 9a 3d c6 e5 91 bd 10 ad 7a 3e
       -0.62181365 0.07522084 -0.07123904 0.2448008
0001d0 10 e7 d6 be e4 20 bd 3e e1 c2 d5 3e 32 26 e2 3e
       -0.41973162 0.36939156 0.41750243 0.44169766
0001e0 30 bb 8a bc 94 00 f4 bd 31 91 35 3e 7b dd 0f bc
       -0.016934961 -0.11914173 0.17731167 -0.008780832
0001f0 bc a2 63 3e 3d 0c b5 3d 0c b4 27 3e 64 d2 d0 3d
       0.22230047 0.08840225 0.16377276 0.10196379
000200 3b 8c 34 3d f5 c4 07 bf 7c ce 4b 3f 2b ca ef bd
       0.044079047 -0.5303491 0.79611945 -0.11708482
000210 09 8a 3b 3f f8 ba 4d 3d c9 64 62 bf 24 d7 c8 be
       0.732575 0.050227135 -0.88435036 -0.3922664
000220 58 de ff 3d 72 d4 2e bf 10 db 1b 3f 70 23 4b be
       0.124935806 -0.68292916 0.6088114 -0.19837737
000230 37 f3 30 3e 28 47 9e 3e 1a 52 95 be 28 0c ad be
       0.17280279 0.30913663 -0.291642 -0.33798337
000240 61 ef bc bf 5c 74 8f bc 91 ec b5 3d 3e a2 9f 3f
       -1.4760553 -0.01751154 0.08883012 1.2471387
000250 84 46 ec bd 1a bc 6d 3f 50 e0 cd 3e fe 4d e7 3f
       -0.11536887 0.92865145 0.402102 1.8070676
000260 50 4c fb 3e e8 16 9c 3d e3 0b 9f 3e 3b 7f 41 bf
       0.4908166 0.076215565 0.31063756 -0.75584763
000270 a7 ef 52 be 5c 57 00 bf fb 84 cb bf 9f b5 f4 be
       -0.20599233 -0.501333 -1.5899957 -0.47794816
000280 16 b0 0a c0 ca c2 f9 bc ad ca 07 3d 03 8f 03 40
       -2.1669974 -0.03048839 0.03315227 2.0556037
000290 78 f2 20 3c 81 45 2c 3f aa c9 83 3e 5f 2f e9 3f
       0.009823434 0.67293555 0.25739795 1.8217582
0002a0 31 c4 8c bd 37 5b 97 bf 7d 68 e7 3e ec 07 df 3d
       -0.06873358 -1.1824712 0.45196906 0.10890183
0002b0 ab 98 3a 3e 43 93 eb 3e 8f f5 62 be d8 0a cb bd
       0.182223 0.4601079 -0.22163986 -0.09914178
0002c0 ca 2c 2e 3e 01 2d c0 3f 5f a8 7a be 71 03 13 bc
       0.17009273 1.5013734 -0.24478291 -0.008972988
0002d0 32 ff b3 be 9c 9e 93 bd e1 1e 3b be e8 af ca bd
       -0.35155636 -0.07207987 -0.18273498 -0.09896833
0002e0 a6 7d ad 3e 1f 48 99 3d 19 6a a2 3e c8 75 31 bb
       0.33884925 0.07484459 0.3172157 -0.002707826
0002f0 03 35 35 3e 0a a0 80 bd 30 e7 6b bf b3 15 20 bd
       0.17696004 -0.06280525 -0.9214964 -0.039083194
000300 a7 4f b0 3e 46 90 bd 3f 5b 6f c4 be 8c f1 65 3d
       0.3443577 1.4809654 -0.38366207 0.05613856
000310 b3 d1 fe be c1 c7 8c be 6d 21 e1 3c 84 3c 00 be
       -0.49769363 -0.2749615 0.027481759 -0.12523085
000320 a9 95 0e 3f d9 32 0b bd 2a 11 3b 3f 10 26 dd be
       0.55697113 -0.03398404 0.73073065 -0.43193102
000330 e8 79 17 3f 07 78 0a bf 23 b1 99 bf c1 a0 06 bf
       0.5917039 -0.540894 -1.2007183 -0.5258904
000340 a9 aa 3c 3f 70 bf 23 be 51 49 26 3e 8f 3f 53 bf
       0.73697907 -0.15990996 0.16238905 -0.8251886
000350 59 52 d5 3e de 10 c6 be 9f 51 ad be 4c 43 15 bf
       0.4166439 -0.38684744 -0.33851334 -0.5830581
000360 46 61 70 3e 04 41 0c bf bc fa 3e 3f 52 40 76 be
       0.23474607 -0.54786706 0.7460134 -0.24047974
000370 fa 14 23 3f 11 a1 3e bd ef 46 00 bf 77 6d cb be
       0.6370388 -0.046540324 -0.50108236 -0.39731953
000380 65 44 fa ba e3 23 67 3e 82 a4 8c 3e 23 a1 42 3f
       -0.001909387 0.22572283 0.2746926 0.76027125
000390 9b c7 a3 3e 0c 1b a4 3c 71 7a 87 bf 5d 33 a2 be
       0.31988224 0.020032428 -1.0584241 -0.31679812
0003a0 4b fd 5d 3e 08 a5 8d bf 90 41 af 3e 8c b3 b8 3e
       0.21678655 -1.1065989 0.34229708 0.36074483
0003b0 fe 89 25 3f d8 ef df bd 9e fa ac be 9e bb 81 bd
       0.64663684 -0.109344184 -0.33784956 -0.06334613
0003c0 36 56 dd 3f 7b 0e 60 bd 65 e6 9c 3c 7f f4 c1 3c
       1.7291934 -0.05470131 0.01915283 0.023676155
0003d0 50 d6 69 bc 19 7e 69 bf eb 47 9d be e6 27 32 bf
       -0.0142722875 -0.91208035 -0.30718932 -0.6959213
0003e0 51 6c a3 be d9 c0 7e 3f e4 95 52 bd 1e c7 2b 3f
       -0.31918576 0.9951301 -0.051412478 0.67100704
0003f0 6d 43 30 bf 44 0c 7f be 13 f1 11 3f b5 40 19 be
       -0.68852884 -0.24907023 0.57008475 -0.1496609

encoder_variable_selection.single_variable_grns.VaccinationFull.gate_norm.glu.fc.bias f4 [32]
000000 2c 23 83 3e 44 b7 a5 3e 66 c4 f5 be af 08 82 bf
       0.25612772 0.32366383 -0.48001403 -1.01589
000010 48 19 9d bf 4b f6 d1 be cd d2 00 bf f2 17 52 3e
       -1.227334 -0.4100822 -0.50321656 0.20516947
000020 52 7e 19 3e 00 84 51 3f 4e a2 f3 be 6a eb 8e bf
       0.14989594 0.8184204 -0.47584766 -1.1165593
000030 1e d7 9a 3e 3a 69 dc be 86 cb 32 be 1b fa 85 3d
       0.30242246 -0.43049031 -0.1746045 0.065418445
000040 cb 10 07 be 57 91 fc bf 9d 6d 6e bd 6f 60 09 3f
       -0.1319 -1.9731854 -0.058210004 0.5366277
000050 17 60 69 bd 59 92 16 c0 7e c0 8a 3f 5c 3e eb be
       -0.056976404 -2.3526824 1.0839994 -0.45946014
000060 ad 4a cc 3e 8d 8c 17 3e 8c eb 16 3e 0f 44 04 bf
       0.39900723 0.1479971 0.14738292 -0.5166635
000070 84 4d 34 bf c3 cc ad bf a8 4b 44 be 70 a6 3a 3f
       -0.7043078 -1.3578113 -0.19169486 0.72910213

encoder_variable_selection.single_variable_grns.VaccinationFull.gate_norm.add_norm.norm.weight f4 [16]
000000 07 53 2a 3f a1 2d 82 3e ab c0 a4 3f 7e 2e 41 3f
       0.6653294 0.25425437 1.2871298 0.75461566
000010 12 7b 8a 3f ab 97 55 3e d3 4a b2 3e 73 fa 9a 3f
       1.0818808 0.20858638 0.3482271 1.2107681
000020 ac 1b bf 3f ed be 8d 3f 93 a9 98 3e d0 49 bb 3f
       1.493032 1.1073891 0.29816875 1.4631901
000030 1f 3c 85 bd e2 c6 a0 3f 24 f8 0b 3f e4 99 c0 3e
       -0.06505608 1.2560694 0.5467551 0.3761741

encoder_variable_selection.single_variable_grns.VaccinationFull.gate_norm.add_norm.norm.bias f4 [16]
000000 4a 87 ef bc 98 7d 5d 3e 9d 4e 17 3f b0 90 7d 3e
       -0.029239316 0.21629941 0.5910433 0.24762225
000010 22 ed 10 3e d9 7f ae bd 54 c1 a5 be 3c 90 40 bd
       0.14152959 -0.08520479 -0.3237406 -0.047012553
000020 21 43 4a 3d 7e 1e c9 be 46 b9 b6 be 7f f3 a3 3e
       0.049380425 -0.39281076 -0.35688227 0.3202171
000030 d3 c2 32 bd 3f 46 a8 3e 7f a7 39 be 1f b3 b6 3d
       -0.04364283 0.32866094 -0.18130301 0.089208834

encoder_variable_selection.single_variable_grns.Cases.resample_norm.mask f4 [16]
000000 0b cb 30 3f 56 e6 f7 3e fc fc 1d c0 ac dd 63 bf
       0.6905982 0.4841792 -2.468566 -0.8901012
000010 c7 a9 c5 be da c9 12 3f ac ad ce be 98 c0 36 bf
       -0.38606092 0.5733925 -0.40366876 -0.71387625
000020 71 02 f4 bf 79 8b 1a 3f 9d 49 27 3f e3 43 5e 3e
       -1.9063245 0.6036907 0.653467 0.21705584
000030 1c 13 c8 bf ac d9 70 bf b0 0a df 3d a8 c5 5a be
       -1.5630832 -0.9408214 0.1089071 -0.21364462

encoder_variable_selection.single_variable_grns.Cases.resample_norm.norm.weight f4 [16]
000000 f9 df cd 3f 73 fe f8 3f d6 5f ef 3e d0 d6 4f 3f
       1.6083976 1.9452652 0.46752805 0.8118715
000010 3a a2 56 3f dd 61 e3 3f 63 68 c0 3f b5 cc ae 3f
       0.8384129 1.776424 1.5031856 1.3656222
000020 c6 78 45 3f db 60 fe 3f 2c ef e3 3f c2 ed 53 3f
       0.7713741 1.9873308 1.7807364 0.82784665
000030 1d bb 3c 3b ee 2a 13 3f a9 e3 f9 3f 1b 5f ab 3f
       0.0028798052 0.5748738 1.9522601 1.3388399

encoder_variable_selection.single_variable_grns.Cases.resample_norm.norm.bias f4 [16]
000000 91 a5 11 3f 3f 7e e8 3e 35 30 5e bf 75 7b 06 bf
       0.5689326 0.45408818 -0.8679231 -0.5253213
000010 14 0e 2b 3e 21 03 f7 be 77 5d e4 be 51 b7 21 be
       0.16704589 -0.48244575 -0.44602558 -0.15792586
000020 3f c2 a8 be f1 b3 7e bd c1 4a 70 3e f6 a7 c9 be
       -0.32960698 -0.062183324 0.23466016 -0.39385957
000030 19 9e 42 be 31 78 cc be 9f 35 a1 bb ab 5e 1d 3f
       -0.19005622 -0.3993545 -0.004919722 0.61472577
