Archives/TFT-pytorch/results/age_subgroup_old_cs_server/AGE2029/checkpoints/latest-epoch=7.ckpt (torch, 702903 bytes, 506 tensors)

prescalers.AGE2029.weight f4 [8, 1]
00000000: 25da ecbd b76c 80bf d1c5 f4bd 3d66 413f
00000010: 7b56 113e b9d3 ffbe aea1 a1bf afbd 813f
-0.11565045 -1.0033177 -0.11951793 0.7554663 0.14193146 -0.4996622 -1.2627466 1.0136012

prescalers.AGE2029.bias f4 [8]
00000000: f844 a2bd bf88 323f 5b9c 80bc ed6b 95be
00000010: 9026 143b f62f 29be 73ee 723e af3f b9be
-0.07923311 0.6973991 -0.015699556 -0.29183903 0.0022605993 -0.16522202 0.23723774 -0.361814

prescalers.SinWeekly.weight f4 [8, 1]
00000000: 461c 603d 9947 a7bf 2d40 5e3f 1156 89bf
00000010: 19de 3b3f d674 61be 388a 5a3f 463f d43e
0.054714464 -1.3068725 0.86816674 -1.072939 0.7338577 -0.22017226 0.85367155 0.41454524

prescalers.SinWeekly.bias f4 [8]
00000000: 1fdc b93e 8068 88be a41f 833f c327 073f
00000010: 78dd 013f 1410 27bf 9508 293f d7e4 d43e
0.36300752 -0.26642227 1.0244031 0.52795047 0.5072856 -0.6525891 0.6602872 0.4158084

prescalers.VaccinationFull.weight f4 [8, 1]
00000000: 5270 a2bd f31e 043f 685f 483f 2e92 823f
00000010: 1d88 8cbe 5190 7fbf 0b5e 1cbf 90d4 38bf
-0.0793158 0.51609725 0.7827058 1.020086 -0.27447596 -0.99829584 -0.61081 -0.72199345

prescalers.VaccinationFull.bias f4 [8]
00000000: c8de 513e 55e1 1fbf 2f1c 72be abb4 8f3f
00000010: 6950 593f 6f1b 073e e32e 8cbe 6584 d43e
0.2049514 -0.62453204 -0.23643564 1.122701 0.8488832 0.13194059 -0.27379522 0.4150726

prescalers.Cases.weight f4 [8, 1]
00000000: d796 143f 5af4 b2bf 511e 3cbf 28af 343f
00000010: eb2b b93f 9ab5 433e 42ce 03bf 68b5 e23e
0.58042663 -1.398082 -0.7348376 0.7057977 1.4466528 0.19112244 -0.514866 0.44279027

prescalers.Cases.bias f4 [8]
00000000: e340 59bf 180f 8dbe 1ef8 303f 12eb f23e
00000010: b096 7b3d 2500 6f3c 7760 db3e 76f5 5fbf
-0.84864634 -0.27550578 0.69128597 0.4744497 0.061423004 0.014587437 0.42847034 -0.8748392

static_variable_selection.single_variable_grns.AGE2029.resample_norm.mask f4 [16]
00000000: a041 aebe d226 92bb 32fc debe cb0f 95be
00000010: 42ed c1be 6eff 65bf 252b f1bd ad88 2a3f
00000020: 5a23 aabe c4dc 85bf d218 00be 4f78 763c
00000030: 3d7d 85be b921 823f f26c 81bd 1016 763f
-0.34034443 -0.004460194 -0.43551785 -0.29113612 -0.37876326 -0.8984288 -0.11775807 0.666148
-0.33230096 -1.0457997 -0.12509468 0.015043332 -0.26072112 1.0166541 -0.06319608 0.96127415

static_variable_selection.single_variable_grns.AGE2029.resample_norm.norm.weight f4 [16]
00000000: 0765 9a3f 50f2 9d3f d79e a83f 79fc a33f
00000010: 3994 883f d79c 1e3f e691 b93f c67d fd3f
00000020: d098 7e3f 333d 0b3f 66d2 b83f 6656 c63f
00000030: ccca 9e3f f9f0 0440 70d7 8e3f 1ddf 0440
1.2062081 1.2339573 1.3173474 1.2811424 1.0670234 0.6195807 1.449765 1.9804008
0.99451923 0.5439026 1.4439209 1.5495117 1.2405639 2.0772078 1.1159496 2.0761178

static_variable_selection.single_variable_grns.AGE2029.resample_norm.norm.bias f4 [16]
00000000: 3d85 90be 59f4 d7be f5ef 4f3e 781d 993e
00000010: edcc 9b3e aa69 6b3d b2cc 9fbc 847b 1d3f
00000020: ba16 1cbe 957a 7a3e 1acb 90be 17c5 c1be
00000030: 1448 30be 68e5 74be 780d 10be cab1 bd3e
-0.28226653 -0.4217861 0.2030638 0.29905295 0.30429783 0.057473816 -0.019506786 0.61516595
-0.15243044 0.24460824 -0.28279954 -0.3784568 -0.17214996 -0.23915637 -0.14067638 0.37049705

static_variable_selection.single_variable_grns.AGE2029.fc1.weight f4 [8, 8]
00000000: ec0c 143f 3304 06bf 583c cebe ecc7 33bf
00000010: f59b a4be bd32 adbf e034 a63e e04c c2be
00000020: de75 a1be 6653 b7bf f1dc 8bbe 0f6b 6a3f
00000030: e39f 3f3a 72c1 04bf 44db 9e3e 3110 2a3f
00000040: d6b5 0b3f 5262 78bd 58c1 863e 67d4 d23b
00000050: 4f50 4f3d 2bfd 8bbe 219e 0dbd 5319 cf3d
00000060: 1c76 37bf d764 c6bd f335 863d 1def f3be
00000070: 1597 a93e e319 1a3e f3a8 473d 676c 003f
00000080: 210b 4abf c186 f73e 6327 ad3d cb9b 363e
00000090: 974f cdbe 25ca 3e3f f149 1b3d befb 313b
000000a0: 8d2e 5ebe d657 513e 7967 0cbc 524e 76be
000000b0: fc39 153f 9b0d 06bf 4b82 b93e e7f3 4fbf
000000c0: b173 a7bb 19a8 abbf 40ee 013d 9efa 673f
000000d0: 0e16 fb3d 99d7 643f 373b c4be 0a8e 203f
000000e0: 3896 49be fc70 76bf 7729 80be 7619 2b3f
000000f0: e5b4 35bc a5ae cdbe 1ee0 993d 8e83 183f
0.5783222 -0.5235016 -0.40280414 -0.7022693 -0.32150236 -1.3531109 0.32462215 -0.37949276
-0.31535238 -1.4322326 -0.27317002 0.9156961 0.0007309897 -0.51857674 0.3102666 0.66430956
0.54574335 -0.06064064 0.26319385 0.0064340117 0.050613698 -0.2734159 -0.03457463 0.10112252
-0.71664596 -0.096872024 0.06553259 -0.47643366 0.3312308 0.15048937 0.048745107 0.5016541
-0.7892323 0.48344997 0.08454778 0.17832868 -0.40099785 0.745272 0.037912313 0.0027158107
-0.21697445 0.20443663 -0.008569592 -0.24053314 0.582916 -0.5236451 0.36232218 -0.8123154
-0.005110227 -1.3410674 0.031721354 0.90616786 0.12260066 0.89391476 -0.38326427 0.62716734
-0.1968621 -0.9626615 -0.25031635 0.66835725 -0.011090492 -0.40172306 0.0751345 0.59575737

static_variable_selection.single_variable_grns.AGE2029.fc1.bias f4 [8]
00000000: 8e0b 1dbe a851 9abd ccac 6dbe 7178 dd3d
00000010: 865a 3d3e 949b 8e3e 2953 3a3e 27e4 7ebe
-0.15336439 -0.07535106 -0.23210448 0.10813988 0.18491563 0.27853072 0.18195786 -0.2489172

static_variable_selection.single_variable_grns.AGE2029.fc2.weight f4 [8, 8]
00000000: d82c f5bd 66fd 1e3f e748 c7bd b5b5 53be
00000010: 0d99 423e 4d91 15be d25e cc3e 6b04 833f
00000020: a20c 59be b554 94be fc8e 8f3e a454 c9be
00000030: 344d bb3c 496a 28be 2d18 753e 0793 a73e
00000040: 818a 89bc 98d8 4a3f 334f f4bd b721 c93d
00000050: e92c f4bd 88aa 20bf 749b 8b3e 502b 5b3f
00000060: 232a 263e f1ce f8bd 8d04 223f 89f5 4dbd
00000070: bee1 bebd e114 5fbe 96f7 173f 9213 2fbf
00000080: 94a4 50bd d6e7 f1be 8d18 e83d ceb0 24be
00000090: 1c9e 9e3e 444d df3d 68ff bb3e 2825 a1bc
000000a0: 3de5 13bd 7a59 f2be 3b1a a2be 3f8e 93be
000000b0: 4c00 ad3e a53d 3dbe 6e26 75bf 57f1 19be
000000c0: be0c 24be 7740 333e 4754 363e c791 1a3f
000000d0: 4440 59bb 41c4 923d 7ea4 6abe a109 9dbc
000000e0: 618b ccbc b4e2 893e 4a53 07be e47e cabe
000000f0: d5b9 da3e 68a1 a93d 7330 8e3e 93d8 fdbe
-0.11971444 0.62105405 -0.09730702 -0.20674784 0.19003697 -0.14606209 0.39916092 1.0235723
-0.21196225 -0.28970876 0.28038776 -0.39322388 0.022863962 -0.16446795 0.23935004 0.3272936
-0.016789677 0.79236746 -0.119291686 0.09820884 -0.119226284 -0.6276021 0.2726704 0.85612965
0.16227011 -0.12148846 0.63288194 -0.05028299 -0.09320401 -0.21785308 0.5936216 -0.68389237
-0.050938204 -0.4724719 0.11332808 -0.1608307 0.30980003 0.10903409 0.36718297 -0.019671038
-0.03610729 -0.4733389 -0.31660637 -0.28819463 0.3378929 -0.18480547 -0.95761764 -0.1503347
-0.16020486 0.1750506 0.17805587 0.6037869 -0.0033149878 0.07166339 -0.22914311 -0.01916963
-0.024968805 0.26930773 -0.13215366 -0.39549935 0.42719904 0.08282739 0.2777134 -0.49579296

static_variable_selection.single_variable_grns.AGE2029.fc2.bias f4 [8]
00000000: 22bd 5c3c 8e49 023d cdd4 d8be a1ad acbe
00000010: c77c afbe 1859 99bd 8e29 0f3f a621 bfbe
0.013472827 0.03180843 -0.42349854 -0.33726218 -0.34274885 -0.074876964 0.5592278 -0.3733036

static_variable_selection.single_variable_grns.AGE2029.gate_norm.glu.fc.weight f4 [32, 8]
00000000: 54fd 9abc f56b b93e 5869 14bf 6e94 0abf
00000010: eb06 393e bd59 5f3b 33db 933d 07bc 173f
00000020: 00aa 9e3e e125 3b3e 3b8d b0be ddae 8c3e
00000030: 3c2b 0dbf 809a 623d ee3c 873e a092 d1be
00000040: 2d0d d03e 4892 1d3e 167c fabd 8c3f a13e
00000050: 85e7 14be 3eef a2be 77c2 5ebe 325b ee3e
00000060: d95a d0bb 9c98 a03e 45d4 d23c 7ccd a13d
00000070: 609b e93e 1499 33be c234 8dbe 08d4 883e
00000080: bf05 fc3e 656e 32bd 53a8 1a3f 3386 80be
00000090: ede7 263d 5ad4 15bf 3974 2abf 68e4 9bbe
000000a0: 62c7 593f b76a e63e 51db 493f c352 023f
000000b0: 517a 9a3f e059 08bf 367f 0cbf 06c3 3d3e
000000c0: aac0 b8be 70db 0dbf 6d84 353d 8527 42be
000000d0: b7cf 8bbe f2f5 f8bd 71e6 b63e be99 b43e
000000e0: f227 7f39 1915 eb3e 05b5 d6bd ea33 f9bb
000000f0: 92e1 a3be 54be 053e b0bd 013f 9d59 b0bd
00000100: ecd6 49bf e5fd 3dbf 8fd1 25bf d7d9 02bf
00000110: 6acd 1cbf 9c29 823f d4d0 853f 8394 373e
00000120: 974b 393f 1e78 2ebe 17da 95bd 6dc5 d73c
00000130: 59e9 1c3d abb3 59be 6c74 1ebf f0d5 a8be
00000140: f243 a4bd 5535 80be 207f 583e ee90 a73e
00000150: b772 203e 53ab 96be a90d 5c3d 1f37 6c3e
00000160: db19 adbd b5a7 dcbe 02c9 443e d3da 94be
00000170: ca48 393e 9688 8ebe 9896 b5be 4d41 d03e
00000180: 9448 a53e 4626 263f b78e 283f 957b dd3c
00000190: 612f 303e bbd5 2cbf 4644 973d d402 a63c
000001a0: 5712 02bf 0cfb 83bd 3a2d 64bf 4fe7 6d3d
000001b0: 0094 c1bd 19e9 ef3e 0a76 553f c921 b23e
000001c0: 00e9 97bd 713a 733f a714 c53e b68a 1c3d
000001d0: 0511 653e 86e6 5abe fd03 87be 4640 d93d
000001e0: f314 5dbf 1f60 103e 0146 1ebf 8b10 443e
000001f0: 660e 9e3d 3e5c 633f 0e03 383e fe80 a3be
00000200: ff48 c6be 7bf3 79bf 3ffd 15bf 8200 a03e
00000210: d5cc c9bd c8fc e13e da74 39be c702 fb3e
00000220: 941f 893e 3f11 a8be dbe0 59bf 1594 32be
00000230: fda1 f23e fd44 263e c6c8 fc3b fd4a 213f
00000240: 6943 8f3e 869a 62be 7003 b3be e4f9 503f
00000250: 0e71 633c 7f0a 3f3e a1dc b8be 15ad 903e
00000260: 0eef 853e caaf 6a3e 432e f8bd 129f 1e3f
00000270: 8144 573f f6f2 753e 538f 20bf a24f 0c3f
00000280: 9f43 583f 3bf0 09be a3ad 9d3e 1a83 34be
00000290: 2ce6 fe3d 9ba9 64bf 6159 6cbf ea3b 24bf
000002a0: e639 2b3f 18de d1be 1755 253f 678d 9d3f
000002b0: 5340 893f a6dc 28bd 46e3 3abf dc8b 9e3f
000002c0: e4fb e0bb e488 e53e 1d5c 63be 6145 b13e
000002d0: 2803 f4bd c870 d1bd 0bf4 efbd ac43 0cbe
000002e0: 9007 7fbe 50b7 533f 91c2 f83e 8ee2 de3d
000002f0: f95a bb3e 43cf 1abe b376 913c 29cf 86bd
00000300: f362 e23e 7579 81be 13e0 173f 8519 123f
00000310: ded7 293f 0196 d6be 5947 12bf 0b62 f53e
00000320: 531a 63bf 1101 0d3f 3775 26bf cd65 e0bd
00000330: 3d63 e13e 0d84 973e 3193 dd3e de4a 663e
00000340: 387c ce3b 1c9a b8bd 516d 563e e150 b53e
00000350: d201 613e a50c bebe df4b 0abf 2773 d43e
00000360: f2f1 d3be b950 ae3e c7b1 873f c1fa ae3e
00000370: a88b 9a3e e201 cdbd ecf5 89be 28ec a5bd
00000380: 332d 133f ddea 0a3d 59b1 6a3f 9944 073f
00000390: b84a 533f d213 27bf 6edc f2be 58ba 243f
000003a0: 31e3 59bb bdd0 b33e 6e22 4bbf c207 68be
000003b0: c6f3 86be 210e 3d3e ecc7 08bb cabd b2be
000003c0: 6b3c cc3f 642b 303f e7bf 853e 0b34 cebc
000003d0: fbe6 503f 6fef 0bbf e242 c5be ae63 193f
000003e0: 4d1c b73d a8a3 a6bc dd96 a6bd d85c 653e
000003f0: 825d d83e dd74 6bbf 976b 1fbd f193 1d3f
-0.018919624 0.36215177 -0.5797324 -0.54132736 0.18069045 0.0034080588 0.07219543 0.5927128
0.30989075 0.18276168 -0.3448275 0.2747716 -0.55144095 0.055323124 0.26413673 -0.40932178
0.40635052 0.15387833 -0.12230699 0.31493795 -0.14541443 -0.31823152 -0.2175387 0.46553952
-0.006358486 0.31366432 0.025735984 0.07900521 0.45626354 -0.17538863 -0.27579314 0.26724267
0.49223134 -0.04356231 0.6041309 -0.25102386 0.040748525 -0.5852715 -0.6658359 -0.30447698
0.8506986 0.45003292 0.78850275 0.50907534 1.2068578 -0.5326214 -0.5488161 0.18531427
-0.3608449 -0.5541296 0.044315744 -0.18960388 -0.2730691 -0.12156285 0.35722688 0.35273546
0.00024333576 0.45914534 -0.104837455 -0.0076050656 -0.32008034 0.13060886 0.50680065 -0.086108424
-0.7884357 -0.7421554 -0.64772886 -0.5111365 -0.61250937 1.0168948 1.0454354 0.17927746
0.72380966 -0.17038009 -0.07316988 0.026339257 0.038308475 -0.21259944 -0.61896396 -0.3297572
-0.08020772 -0.2504069 0.21142244 0.3272776 0.1566876 -0.29427585 0.053723965 0.23067902
-0.08452197 -0.430967 0.19217303 -0.290732 0.18094173 -0.27838582 -0.35466456 0.4067482
0.32281935 0.6490215 0.65842766 0.027036468 0.17205574 -0.67513627 0.07386069 0.02026502
-0.50809234 -0.06444368 -0.8913151 0.05808192 -0.09452057 0.46857527 0.8338324 0.347914
-0.07417488 0.9501105 0.3849232 0.038218223 0.22369774 -0.21377 -0.2637023 0.10607962
-0.8636009 0.14099167 -0.6182557 0.19146936 0.0771759 0.88812625 0.17969915 -0.3193435
-0.38727567 -0.97637147 -0.5858955 0.31250387 -0.09853522 0.4413817 -0.18110982 0.49025556
0.26781905 -0.32825658 -0.8510873 -0.17439301 0.47389212 0.16237254 0.0077143637 0.6300505
0.27981117 -0.22129259 -0.3496356 0.816313 0.013881935 0.18656348 -0.36105826 0.2825705
0.26158947 0.2291862 -0.12118199 0.6196147 0.84088904 0.24018463 -0.62718695 0.5480901
0.8447818 -0.13470547 0.30796537 -0.17628136 0.124462456 -0.893213 -0.9232388 -0.6415392
0.6688522 -0.40989757 0.6458296 1.2308778 1.0722755 -0.04122605 -0.7300304 1.2386432
-0.006865965 0.44831002 -0.22203107 0.34623244 -0.119146645 -0.102265894 -0.117164694 -0.1369769
-0.24905229 0.8270159 0.48585942 0.108830556 0.36592844 -0.15118127 0.017756796 -0.065824814
0.44216117 -0.25287977 0.59326285 0.5707019 0.6634501 -0.4191132 -0.5714012 0.47926363
-0.8871204 0.5507975 -0.65022606 -0.10956917 0.44021025 0.29592934 0.4327636 0.22489497
0.006301429 -0.09013769 0.20940138 0.35413268 0.2197335 -0.37119022 -0.5402202 0.41494104
-0.41395527 0.34045961 1.0601128 0.34175685 0.30184674 -0.10010125 -0.26945436 -0.08101684
0.57490844 0.03391539 0.9167686 0.52839047 0.82535887 -0.6526462 -0.474338 0.6434684
-0.003324699 0.35120192 -0.7934941 -0.2265921 -0.2635786 0.18462421 -0.0020871116 -0.34910423
1.5955938 0.6881621 0.26122972 -0.0251713 0.8160245 -0.5466222 -0.3852759 0.59917724
0.08940945 -0.02034171 -0.08134244 0.22398698 0.4225884 -0.91975194 -0.038920965 0.61553866

static_variable_selection.single_variable_grns.AGE2029.gate_norm.glu.fc.bias f4 [32]
00000000: 5976 61be d2d1 13bd b898 00be f6b0 be3d
00000010: 8815 083f 83f6 e23d 9dfb 043c 534a 203f
00000020: 8bbb adbe 9f7e 9c3d d60c ecbd 05a9 1abf
00000030: 64ca ea3e acd3 703e 8ab2 043e 5f2e 26bd
00000040: 25a4 83be fa93 26bf 644a 82bf d17c 92bf
00000050: 4079 8abe de85 a3bf 4435 0dbf 5f69 c0be
00000060: 328e 31bf b288 c33e d8ff 52bf 3703 8abe
00000070: 1601 3bbf 6acd 1b3f a050 43bf 7ea9 34bf
-0.22017802 -0.036088772 -0.12558258 0.09311096 0.53157854 0.11082175 0.00811663 0.6261341
-0.33932146 0.076413386 -0.11525886 -0.60414153 0.45857537 0.23518246 0.12958732 -0.040571567
-0.2571117 -0.65069544 -1.0178952 -1.1444341 -0.2704563 -1.2775228 -0.551594 -0.37580392
-0.693576 0.38190228 -0.82421637 -0.26955578 -0.7304853 0.6086031 -0.762949 -0.70571125

static_variable_selection.single_variable_grns.AGE2029.gate_norm.add_norm.norm.weight f4 [16]
00000000: faf5 223f 650e 643f 9c44 b53f e514 a43f
00000010: 4923 a53f 76e3 613f b569 4b3f 29b2 a83f
00000020: 7503 ac3f 5a8d 863f e6ed a83f 532b b43f
00000030: d792 543f d126 e43f b235 0b3f d59f ed3f
0.6365658 0.89084464 1.4161563 1.2818877 1.2901393 0.882377 0.7945817 1.317937
1.3438555 1.0511887 1.3197601 1.4075722 0.8303656 1.7824346 0.5437881 1.8564402

static_variable_selection.single_variable_grns.AGE2029.gate_norm.add_norm.norm.bias f4 [16]
00000000: 5abf 62be 2f88 41be 5a6f 013f e329 dc3e
00000010: 0617 ac3e 9471 743e e283 00be 365e 093f
00000020: b51c dabe d191 10be 9af8 4ebe 8f30 ffbe
00000030: 9181 573d c4ff 24be c8b3 9f3c f7d8 213e
-0.22143307 -0.18899606 0.50560534 0.43000707 0.33611315 0.23871452 -0.1255031 0.5365938
-0.42600027 -0.14118125 -0.20212021 -0.49841735 0.0526138 -0.16113192 0.019494906 0.15805422

static_variable_selection.prescalers.AGE2029.weight f4 [8, 1]
00000000: 25da ecbd b76c 80bf d1c5 f4bd 3d66 413f
00000010: 7b56 113e b9d3 ffbe aea1 a1bf afbd 813f
-0.11565045 -1.0033177 -0.11951793 0.7554663 0.14193146 -0.4996622 -1.2627466 1.0136012

static_variable_selection.prescalers.AGE2029.bias f4 [8]
00000000: f844 a2bd bf88 323f 5b9c 80bc ed6b 95be
00000010: 9026 143b f62f 29be 73ee 723e af3f b9be
-0.07923311 0.6973991 -0.015699556 -0.29183903 0.0022605993 -0.16522202 0.23723774 -0.361814

encoder_variable_selection.flattened_grn.resample_norm.mask f4 [3]
00000000: 1a59 6dbf 1c4b 053e 0b4c bf3e
-0.92714083 0.13016933 0.37362704

encoder_variable_selection.flattened_grn.resample_norm.norm.weight f4 [3]
00000000: 7aae 433f f78d ad3f dbb4 2640
0.76438105 1.3558949 2.6047885

encoder_variable_selection.flattened_grn.resample_norm.norm.bias f4 [3]
00000000: 73a9 333e a88e 393e d1c9 23bf
0.17545108 0.18120825 -0.6397982

encoder_variable_selection.flattened_grn.fc1.weight f4 [3, 24]
00000000: 0ded cc3e d6e9 2ebf b19e c73e 1f41 06bf
00000010: fcf5 bd3e 2061 453e 85cd 713e f541 663e
00000020: 4ca6 edbe 93e2 5b3d c524 28bc 6a2e c0bf
00000030: 9aad 153d 9b37 4b3e 4f81 bf3e aefe 4f3e
00000040: 1746 323f 90b6 50bf 5184 ff3d c840 8d3d
00000050: e083 623e fc4b 6bbe ee90 15bc 0981 f03e
00000060: 306d c23c 4218 7e3f b472 95bf 37d0 af3e
00000070: 9989 64bf 1ae9 793e 14dd 62bf d979 babe
00000080: 46aa 10be 2308 6a3c eb52 78bf a067 32bf
00000090: 2eb0 0d3e e608 033f d80d 873f 2609 263f
000000a0: 2ddf a53e 665d 16be 1adb 3bbf 4063 08bd
000000b0: badf 1d3e 619a b23e ac0c 7bbe d6d3 903e
000000c0: d26a 743e be52 c3be 5d31 15be 46ee f33d
000000d0: d55b b33e 1e69 db3e 9fa6 95bd 6e1d b73e
000000e0: 7e06 d1be 9d5a e33e b6dc fd3e eeb0 c43e
000000f0: 9160 c8bd 5c56 89be 78f0 c13d 907d 95bd
00000100: c1a8 74be 23af b03f 1651 f13e d705 c8bf
00000110: 00b9 8cbf 876a b9bf 1006 a93d a72b fbbd
0.40024605 -0.68325555 0.3898826 -0.52443117 0.37101734 0.19275331 0.23613556 0.22486098
-0.46415937 0.053682875 -0.010262673 -1.5014164 0.036542512 0.1984543 0.37403342 0.20311996
0.696382 -0.8152857 0.12476409 0.06897122 0.22120619 -0.22978204 -0.009128792 0.46973446
0.023733705 0.99255764 -1.167563 0.34338543 -0.8927246 0.24405327 -0.8861859 -0.36421087
-0.14127454 0.0142841665 -0.9700152 -0.6968937 0.13836738 0.5118545 1.05511 0.6485771
0.32396832 -0.14684066 -0.733812 -0.033297777 0.15417376 0.34883407 -0.24516553 0.28286618
0.23868874 -0.38149065 -0.14569612 0.119106814 0.35031 0.42853636 -0.07307171 0.3576464
-0.40825266 0.4440507 0.49582452 0.38416237 -0.097840436 -0.268237 0.09469694 -0.0729934
-0.238925 1.3803447 0.47132176 -1.5626782 -1.0993958 -1.4485635 0.082531095 -0.122641854

encoder_variable_selection.flattened_grn.fc1.bias f4 [3]
00000000: 5716 bdbe 51f4 acbd 8657 14be
-0.36931106 -0.08445037 -0.14486513

encoder_variable_selection.flattened_grn.context.weight f4 [3, 16]
00000000: 9aed fe3d 86b8 70bd cb63 3638 6ace 39bc
00000010: 1c01 203d b3da 81bd 78e0 723e 3389 7e3d
00000020: 2580 193c 3dc1 143b 5f57 b13c c347 bfbc
00000030: 5c65 f1ba 1ad0 733d b196 2d3e 6a8b 0a3d
00000040: 4d6d dc3d 3a94 e93d babf 3fbc bd98 143e
00000050: 3ed5 df3d 7227 f43e 8acf dc3d 9170 243d
00000060: 9293 66be 8428 123d 2f15 50bd 50c5 403d
00000070: 4768 0ebd 21d6 46bd 68d6 7e3e 30fa 00be
00000080: 74d1 113e 079b da3c 346f d0bb b441 7fbd
00000090: e51c 0a3d 617f ef3e 2deb a53e 2a3c 083e
000000a0: 6d79 83bf f39b 353d 0511 28be a437 9d3d
000000b0: 3a88 f1bc 7fd8 b8bb 2592 6c3d 49f1 293d
0.12447663 -0.058769725 4.348512e-05 -0.011340717 0.039063558 -0.06340542 0.2371844 0.062142562
0.009368931 0.0022698187 0.021648107 -0.023349648 -0.0018417048 0.059524633 0.16952015 0.03382436
0.10763035 0.11405225 -0.011703426 0.1451139 0.109293446 0.47686344 0.107817724 0.040146414
-0.22517231 0.03568317 -0.050801452 0.047063172 -0.034767415 -0.048544053 0.24886477 -0.12595439
0.14240056 0.02668525 -0.0063609127 -0.06231852 0.033718962 0.4677687 0.32405987 0.13304201
-1.0271431 0.044338178 -0.16412742 0.07676628 -0.029483903 -0.0056410427 0.05775656 0.041489873

encoder_variable_selection.flattened_grn.fc2.weight f4 [3, 3]
00000000: 9233 3bbf 7c2a 99bf 1ffd e8be 2250 76be
00000010: fe34 4ebf 8764 e3be 4676 d5be d369 b5be
00000020: 0967 59bf
-0.73125565 -1.196609 -0.45505616 -0.24054006 -0.8054961 -0.44412634 -0.41691798 -0.354323
-0.84922844

encoder_variable_selection.flattened_grn.fc2.bias f4 [3]
00000000: 0e01 2d3e a99e a4bd af9f 123e
0.16894934 -0.080380745 0.14318727

encoder_variable_selection.flattened_grn.gate_norm.glu.fc.weight f4 [6, 3]
00000000: ff7f 6b3e 5264 fd3c 6b99 ca3e caad b5bd
00000010: 70bf 57bf daa3 88bc 1bd6 86be 9c8d dbbe
00000020: 8f92 acbe ef20 93be e93b 15bf ffb7 093f
00000030: d62a 2a3f 73ba 07be 6708 933e 8445 b93f
00000040: 78f1 4a3d 7fd7 5f3e
0.22998045 0.030931626 0.39570174 -0.08871038 -0.84276485 -0.016679693 -0.26335225 -0.42881477
-0.33705565 -0.28736064 -0.5829454 0.5379638 0.6647161 -0.13254718 0.28717348 1.447434
0.04954669 0.21859549

encoder_variable_selection.flattened_grn.gate_norm.glu.fc.bias f4 [6]
00000000: 4e67 9e3e 043c 283e 9e44 14bf 08f7 11bf
00000010: 3173 15be 477d b33e
0.3093819 0.16429144 -0.579172 -0.57017565 -0.14594723 0.35056517

encoder_variable_selection.flattened_grn.gate_norm.add_norm.norm.weight f4 [3]
00000000: 6191 3f3d 5bfd 0e3e 3e52 8d3e
0.046769504 0.13963835 0.27601808

encoder_variable_selection.flattened_grn.gate_norm.add_norm.norm.bias f4 [3]
00000000: d82f 9c3d 48e0 ccbe 53f0 0a3f
0.07626313 -0.40014863 0.54272956

encoder_variable_selection.single_variable_grns.SinWeekly.resample_norm.mask f4 [16]
00000000: 936f 323d a5c2 4ebe 2fd5 703e 1f5e b6be
00000010: 489b e9bd ad58 24bf 5d71 283f 4781 2dbf
00000020: db24 34bf 5c61 dcbe 0b43 58bf f2ef 41bf
00000030: 2f26 69be 24a2 403d 4eb6 793f 49a2 783e
0.043563437 -0.20191438 0.23518823 -0.35618684 -0.11406571 -0.6419781 0.6579798 -0.67775387
-0.70368737 -0.4304303 -0.844773 -0.7575675 -0.22768472 0.04702963 0.975438 0.24280657

encoder_variable_selection.single_variable_grns.SinWeekly.resample_norm.norm.weight f4 [16]
00000000: 07c1 b63e 5e19 b83e be5e 0e40 56db 143f
00000010: 48b7 983f 161d 373f aa24 f23f 1a4d 623f
00000020: f507 ba3d 0e94 063f ba3f 453f 0119 733f
00000030: a90b 8b3f 43f0 893f f8bd 2040 3a6c 6d3f
0.35694143 0.35956854 2.2245326 0.5814718 1.1930933 0.71528757 1.8917439 0.883989
0.09083549 0.52569664 0.77050364 0.9496003 1.0862933 1.0776447 2.5115948 0.92743266

encoder_variable_selection.single_variable_grns.SinWeekly.resample_norm.norm.bias f4 [16]
00000000: ef75 ba3e d317 023e ee59 d6be cdce 3cbc
00000010: 5913 173d 0c49 8cbe fc89 eebe c022 1ebe
00000020: 0771 953d a875 bb3b 44a7 1d3e e0a0 b03e
00000030: 0f77 01be 30f6 8d3e 04e6 c23b 34bc 6b3e
0.364181 0.127044 -0.41865486 -0.0115239145 0.036883686 -0.2739948 -0.4658965 -0.15442944
0.07296949 0.005720813 0.15395838 0.34497738 -0.12643073 0.2772689 0.00594783 0.23021013

encoder_variable_selection.single_variable_grns.SinWeekly.fc1.weight f4 [8, 8]
00000000: f8f7 153f 82c8 d9bf 5250 52bf 9314 27c0
00000010: fd08 81be c2a4 f73d e8c4 c13e 70e1 083f
00000020: 34a4 19bf 65f8 ae3e 960f 25c0 220f 78be
00000030: c694 63bf faae ae3f ed74 6fbf ec1f 10bf
00000040: 2f0b cfbe 51a8 253e 48cd dfbe fd64 e33e
00000050: a729 54bf 3d94 d83e 6c95 593f 8508 d63d
00000060: 3beb 563e db89 f93d 958c dabe dda5 413e
00000070: bee7 a13e 7d6c 5a3e 2f28 833e ff4a 1a3f
00000080: f13e 5fbf 5eb8 293e faeb 6a3f bf03 8f3e
00000090: 2478 aabc 36c4 613f e050 c63e aa00 9ebf
000000a0: 6890 3e3f 160a 8dbe 5a0a 12bf ef42 d53d
000000b0: bdce 763e f784 c8be 33ff 94bd b907 d53e
000000c0: 2d14 a0bf 3543 b5bc 4b2d 53c0 95a3 113f
000000d0: 08db 9bbf 8839 f53e dbd3 b0bf 7efc 1cbf
000000e0: 6372 843e 1c77 833d 2520 13bf 1030 983e
000000f0: 8b14 733f 11ad 043f 975a e6bb 2a8a cb3e
0.58581495 -1.7014315 -0.8215381 -2.6106308 -0.2520217 0.12091972 0.3784554 0.5346899
-0.6001618 0.34173885 -2.5790763 -0.24224523 -0.88898885 1.3647149 -0.9353779 -0.5629871
-0.4043822 0.16177489 -0.43711305 0.44412985 -0.82876056 0.42300597 0.84993625 0.10450844
0.20988171 0.12184497 -0.4268538 0.18910928 0.31622118 0.21330447 0.25616595 0.60270685
-0.87205416 0.16574237 0.9176632 0.27932546 -0.02080924 0.8819002 0.38733578 -1.2343953
0.74439096 -0.27546757 -0.57047045 0.10413157 0.24102302 -0.39163944 -0.07275238 0.41607454
-1.2506157 -0.022126773 -3.2996395 0.5689023 -1.2176218 0.47895455 -1.3814653 -0.6132277
0.2586852 0.06419203 -0.57470924 0.2972417 0.9495322 0.5182658 -0.007029842 0.39753848

encoder_variable_selection.single_variable_grns.SinWeekly.fc1.bias f4 [8]
00000000: 0f58 c8be 44ca bebe c91d 853d f6ea 15be
00000010: be6d 8abd 9346 033d 854a cbbe 88bb 89bd
-0.39129683 -0.3726369 0.06499822 -0.14640412 -0.06759213 0.032049727 -0.3970529 -0.06725222

encoder_variable_selection.single_variable_grns.SinWeekly.fc2.weight f4 [8, 8]
00000000: d1bf 64bf 997e 7c3e 2861 8cbf ca1c 35bc
00000010: 6241 3ebd 7cd7 d7bc 46c5 353f 404e b5bd
00000020: 5fa2 22be 48e8 80bc f9a0 8a3e 2865 a7bc
00000030: 2c96 92bd 5d67 3f3e 99db 363f c2db b33e
00000040: acad 353f 3bd2 86be 6a69 0a3d 2f40 1dbd
00000050: 54e8 ebbc 0b45 863c 8e98 653f b90d 943e
00000060: 9447 363f 1310 2a3f 400c 433e a54d 453d
00000070: e990 073e 8a4f bfbe fbb0 db3e c810 a9be
00000080: 6a3c 33bf 4763 813f ed29 e1be 1a84 4bbc
00000090: f30a 293d 500a b43d c017 cb3e c61c abbe
000000a0: ce78 3e3f 61af dabd 9f9f ccbd 6deb 92bd
000000b0: adac 80bd 0e9a 7a3e c535 b33c 2463 71bd
000000c0: c74b 0dbf b6ed 66be c7e8 1cbc 59b0 b2bc
000000d0: bcd1 753c f3f1 16bd 1068 15bf 44c8 2fbd
000000e0: 20f3 2f3f f0a8 25be 62f5 1e3e bcbb 92ba
000000f0: 9e8b b5bd c2af 1f3e 1344 5b3f ef6b 4fbd
-0.8935519 0.24657668 -1.096715 -0.011054227 -0.046449073 -0.026347868 0.7100414 -0.08852816
-0.15882252 -0.01573576 0.27075937 -0.020433977 -0.07157549 0.18691774 0.7142883 0.351286
0.7096813 -0.26332268 0.033791937 -0.03839129 -0.028797306 0.016390344 0.89685905 0.2891672
0.7120297 0.6643078 0.19047642 0.04816975 0.13238873 -0.3736537 0.42908463 -0.33020616
-0.7001406 1.0108422 -0.439773 -0.012421632 0.041270208 0.087910295 0.39666557 -0.3342039
0.74403083 -0.10677982 -0.09991383 -0.0717381 -0.06282935 0.2447283 0.021876225 -0.05893244
-0.5519375 -0.22551617 -0.009576983 -0.021812605 0.015003618 -0.036851835 -0.5836191 -0.042915598
0.68730354 -0.16177726 0.15523294 -0.0011194865 -0.088645205 0.1559439 0.8565075 -0.050640043

encoder_variable_selection.single_variable_grns.SinWeekly.fc2.bias f4 [8]
00000000: 91f4 41be 4891 b9be 7118 053e 2d6d fd3e
00000010: 7601 94bd a7f2 a1bd b20c a8be 0e52 903e
-0.18940951 -0.36243653 0.12997605 0.49497357 -0.07226841 -0.079076104 -0.32822186 0.28187603

encoder_variable_selection.single_variable_grns.SinWeekly.gate_norm.glu.fc.weight f4 [32, 8]
00000000: 7a1c cd3e 2b4b 883d a2bc 7b3e 4e1b 94be
00000010: 7973 c9bd 7744 5bbd 60af 0abe e048 bd3e
00000020: 6437 9bbe 0bac 9d3c 99c0 80bd c27f 08bf
00000030: 7b6d 2d3d 1e8a 41be cd88 d03e 1049 65bd
00000040: 69b6 753f 9cae 923f 0938 603f a96d 433f
00000050: 6e9a 9d3f ba8f 06bf 96b6 94bf 4336 5e3f
00000060: e27f 8e3e db60 583e a215 b93d 84ad a13e
00000070: 882a ae3e b4b7 01bd 6303 f8be 8674 e83e
00000080: 5f99 653e 6c4b 10be 067d 5bbe 24ca 9e3d
00000090: ac4e e9bd 737c 8bbe e9b7 be3e 1004 5c3e
000000a0: 0cbb 023e c4f3 f0bd 9fb0 16be 77ac 633e
000000b0: e9b9 d4bd 6b16 8fbd 4a8f 783d a332 f53d
000000c0: 1b56 023f 671d a33d 4e32 57bf 8e68 71bf
000000d0: 9407 ce3e 2b26 59bf 07df 6a3f 4530 4bbf
000000e0: ba5b b8be 0a9b a2be c8dc f33e aa25 f63e
000000f0: 3b52 d0be 620e 503f 0d38 24bf 3a62 f33e
00000100: 75b2 013f 314b 0e3f ad03 103e 6c17 ba3e
00000110: 6c70 9b3e bfba babe 27ed fdbe 11b9 f03e
00000120: 280b d93d 4795 e2be 4839 cb3d f4d9 4cbe
00000130: 9cec 77be 4aab 413e 9331 ce3d bbcc eb3d
00000140: cc74 abbc cf23 343e 0ea7 353e 5ae1 b03d
00000150: 4d68 d63d 35fc 003e a529 2cbe ff36 183e
00000160: b1ee a93e 6d7f 293f 7730 e63e 6bd6 213f
00000170: 4a0c 033f a04d c5be 0a9c 81be d89c 323f
00000180: d4a0 073f a74a 173f 8752 f03d 07e4 193f
00000190: 296e db3e 51f0 acbe e148 01bf 5399 843e
000001a0: f047 6a3e 8c21 8bbe 7394 a23d 289d 0e3e
000001b0: 45b0 cabd a547 723e eab1 54be 7b78 12bb
000001c0: 1fcf 8bbf 3738 81bf 8a7c 7d3f 0b35 fd3e
000001d0: 57fc 4abf b408 9b3f 620c 12bf c716 523f
000001e0: 27a6 b23d 00d4 77be 6c51 bdbd d8c8 5fbe
000001f0: 9e0c 1d3d 5099 b0be 42df e13e 4827 b33b
00000200: 86e4 91bd 1fff a13c a0f8 aa3e af10 b03e
00000210: 868c 343f b511 8bbe aa78 bb3e 7265 8a3d
00000220: a98e 883e 59c8 e7be eab7 b0be 68cc d0be
00000230: 3273 5fbe 9b58 0e3e e024 62bd 4210 2abf
00000240: efe9 bd3e 48ca d63e 53b4 17bd 138f b83d
00000250: 6cee ae3e 51e8 88be 9d54 2abe f645 1dbd
00000260: dce0 9c3e 0b3f ec3e 6802 92bc 317c 983e
00000270: a403 243f 51fd 02bd dc42 bfbe 4595 1b3d
00000280: ee30 79be 37fe 4d3f e064 89bd 04e6 6bbe
00000290: 6503 c13e 1746 1a3f d88d b63d 1ff4 d7be
000002a0: ab64 c1bd a32f 4f3e 49e0 b4bc 6607 dfbd
000002b0: c962 923e 529a bd3e b9c4 4a3e 41aa 70be
000002c0: c809 bcbc 1824 26bf f1ed 8a3d 6fdf 5cbd
000002d0: 89e2 a3be c008 6e3e 40f0 85bd c9c5 a53d
000002e0: 3b8c edbe ed86 9e3e c471 573f d205 3f3f
000002f0: 85cf c03d c215 fe3e d36a 65be b05a 513e
00000300: f5a6 0e3f 794d ba3e e42f babc 5335 e43d
00000310: 2266 1c3f 9076 6fbf c869 8fbe 247f 9d3d
00000320: 3946 613e 4303 623e b2bc 383e b242 193f
00000330: 0f9f ca3e e93f 1dbd 9fe3 c0be e3ca 24bb
00000340: 95bb 513e 5fd4 b83c 1955 3abf 46f2 4abf
00000350: ad6f 893e 9f69 9e3d f57c 443e d9c0 04bf
00000360: 6ecb 9b3e 30f0 db3e 68bd c23e f184 033f
00000370: 7cf2 2c3f be57 4d3d 5cfe 7cbe 04dc ea3d
00000380: 0ccc 20be be62 ca3d 9a9f c53e eb6f 243f
00000390: b072 ae3e c79c a53e 72cb a9bd 4854 283f
000003a0: 1cc7 29bf 6238 8e3d 91da 39be a5d7 563b
000003b0: e4ba 273f 6117 cb3d e075 8dbe 4f6f 27be
000003c0: bea1 97bf 0086 11bf fb3c 5b3f 0636 4d3e
000003d0: 2a88 52bf 0b4d 863f bf96 20bf 3eb6 633f
000003e0: f1b3 273e a053 0b3e 8540 cbbe 1ced 61be
000003f0: 1f64 b6bc fdd4 6fbe 7d68 0c3e 7ecd eabe
0.40060788 0.06654962 0.24583676 -0.28927082 -0.09836478 -0.05353209 -0.13543463 0.36969662
-0.30315697 0.019247076 -0.06286735 -0.5331994 0.042340737 -0.18900344 0.4072937 -0.05597788
0.9598146 1.1459537 0.875855 0.76339203 1.2312753 -0.5256306 -1.1618221 0.86801547
0.27831942 0.21130697 0.09037329 0.31577694 0.34016824 -0.031669334 -0.48440084 0.454014
0.22421788 -0.14091271 -0.21434411 0.07753399 -0.113919586 -0.27243385 0.37249687 0.21485925
0.12766665 -0.117652446 -0.14715813 0.22233759 -0.10387022 -0.06986698 0.060683526 0.11972549
0.50912637 0.079645924 -0.84061134 -0.9430016 0.40240157 -0.84823865 0.9174656 -0.7937053
-0.36007482 -0.3175891 0.4762938 0.4807561 -0.40687737 0.81271946 -0.64148027 0.47535878
0.5066293 0.55583483 0.14063902 0.36345994 0.3035921 -0.364706 -0.49594995 0.47016194
0.10597831 -0.44254515 0.09923035 -0.20005018 -0.24211353 0.18912998 0.10068049 0.115136586
-0.020929717 0.17591785 0.17739508 0.086367324 0.104691125 0.1259621 -0.16812761 0.1486473
0.3318992 0.6621006 0.4495885 0.632178 0.51190627 -0.38535786 -0.2531436 0.69770575
0.5297978 0.59098285 0.11734491 0.6011357 0.42857483 -0.33777097 -0.5050183 0.25898227
0.22879004 -0.27174032 0.07938471 0.13927138 -0.09896902 0.23660143 -0.20770994 -0.0022349644
-1.0922583 -1.009528 0.99018157 0.4945453 -0.7929129 1.2112031 -0.57050145 0.82066005
0.08723097 -0.24201965 -0.092440456 -0.2185396 0.03834211 -0.34491968 0.44115645 0.005467329
-0.071236655 0.019774972 0.3339281 0.3438773 0.7052692 -0.27161947 0.36615497 0.067576304
0.2667134 -0.4527004 -0.34515315 -0.4078095 -0.21821287 0.13900988 -0.055210948 -0.6643106
0.3709254 0.41951203 -0.037037205 0.09011664 0.34166276 -0.26739743 -0.1663384 -0.038396798
0.30640304 0.46141848 -0.017823413 0.2978225 0.64068055 -0.031979863 -0.37355697 0.03798415
-0.24335071 0.80466026 -0.067086935 -0.23036963 0.37697902 0.602632 0.08913773 -0.42178437
-0.09443029 0.20233016 -0.022079604 -0.10890083 0.28590992 0.370318 0.19801606 -0.23502447
-0.022953883 -0.64898825 0.06783665 -0.05392402 -0.3200877 0.23245525 -0.06539965 0.08094365
-0.4639605 0.30962315 0.8415797 0.74618256 0.09414581 0.49625975 -0.22404031 0.20444751
0.55723506 0.36387232 -0.022727914 0.11142983 0.6109334 -0.93540287 -0.28010392 0.07690266
0.21999444 0.22071557 0.18040732 0.59867394 0.39574477 -0.038391028 -0.3767366 -0.0025145344
0.20481713 0.022562204 -0.727861 -0.7927593 0.26843014 0.077349894 0.19188292 -0.5185676
0.30428642 0.42956686 0.3803513 0.5137473 0.675575 0.050132506 -0.24706405 0.11467746
-0.15702838 0.09882115 0.3859833 0.64233273 0.34071875 0.32346174 -0.08290757 0.65753603
-0.6631944 0.06944348 -0.18149783 0.0032782343 0.6551955 0.099165685 -0.27628994 -0.16351055
-1.1846235 -0.5684509 0.85639924 0.2004014 -0.8223902 1.0492262 -0.6273002 0.88949955
0.16377236 0.13606119 -0.39697662 -0.22063106 -0.022264538 -0.23421092 0.13711734 -0.45859903

encoder_variable_selection.single_variable_grns.SinWeekly.gate_norm.glu.fc.bias f4 [32]
00000000: ca8f 833e 86b3 803e b2e5 703c e328 06be
00000010: cd90 7d3e f95e 4ebe eb75 73be 6547 08bf
00000020: a046 c43e 003b 003e b1f6 0d3e 7566 413d
00000030: b795 e53c 3402 4d3d 6bb7 113f 4b4b bc3d
00000040: 2603 c5bf acab fabd c8ba 4e3f b2b3 d0bf
00000050: c4dc 33c0 22b9 0cc0 5024 683f fbea 83bf
00000060: a1db fa3e e70d 98bf 7ed5 25bf 275c d4bf
00000070: 563f c13e af66 b7bf d79a 1dbe f4d0 90bd
0.2569564 0.25136966 0.014703201 -0.13101535 0.24762268 -0.20153417 -0.23775451 -0.5323394
0.38335133 0.12522507 0.13863637 0.04721685 0.028025491 0.05005093 0.569205 0.091940485
-1.5391586 -0.12239775 0.80753756 -1.6304839 -2.8103495 -2.1987996 0.9068041 -1.0306085
0.4899569 -1.1879243 -0.6477889 -1.6590623 0.37743634 -1.4328212 -0.15391098 -0.07071105

encoder_variable_selection.single_variable_grns.SinWeekly.gate_norm.add_norm.norm.weight f4 [16]
00000000: 0f60 c73c 09d7 c53e 00c2 0040 499f fe3e
00000010: f5c3 4c3f 4a15 8b3e 13cd da3f e2ce ed3e
00000020: e3ae 063f 62f4 ba3e fdd7 493f b738 803f
00000030: 7723 333f d5ab 243f 408a 5f3f afa7 463f
0.024337796 0.3864062 2.0118408 0.497309 0.79986507 0.2716468 1.7093834 0.46446902
0.52610606 0.36514574 0.78845197 1.0017308 0.6997599 0.64324695 0.8732033 0.77599615

encoder_variable_selection.single_variable_grns.SinWeekly.gate_norm.add_norm.norm.bias f4 [16]
00000000: dabf 5a3d 6a8e 683e 1671 f73d 97ca 9b3e
00000010: 15b5 f33d 5ea4 19be 2388 8fbe 2f3b 81bd
00000020: adea b93c 1b6a 8fbe a36d acbe 2606 083e
00000030: ea17 25be 5af9 9d3e 661c 68bd aa97 0b3e
0.05340562 0.22710577 0.12082116 0.30428 0.11899773 -0.15004107 -0.28033552 -0.063101165
0.02269491 -0.2801064 -0.33677396 0.13283595 -0.16122404 0.30854303 -0.056667708 0.13632074

encoder_variable_selection.single_variable_grns.VaccinationFull.resample_norm.mask f4 [16]
00000000: 443a bebe c00e 96bf 821f 453e 4bfe ecbf
00000010: d7c2 953f 75d1 86bf 7861 8ebf 63fa 053f
00000020: fa46 29bd 56fc 75bf a19a 1abe 1be6 3b3f
00000030: c3dc b8be 7432 1e3f 1c87 2a3c 4833 863e
-0.37153828 -1.1723251 0.192503 -1.8515104 1.1700085 -1.0532671 -1.1123495 0.52335185
-0.041327454 -0.9608816 -0.15098049 0.7339799 -0.36105928 0.61795735 0.010408189 0.26211

encoder_variable_selection.single_variable_grns.VaccinationFull.resample_norm.norm.weight f4 [16]
00000000: 25a5 183f 8d99 d83e 52c6 bc3f 1024 833e
00000010: 3087 1c40 d95e 963e 2505 20bf 69f1 eb3f
00000020: d763 af3f 7cc3 813e 0463 723f 1252 e43f
00000030: f5a4 803b d350 da3f c9ca 263f 9890 a63f
0.5962699 0.4230465 1.4748023 0.2561345 2.4457512 0.29369238 -0.6250785 1.8433048
1.3702344 0.25344455 0.94682336 1.7837546 0.0039259144 1.7055916 0.65153176 1.3012877

encoder_variable_selection.single_variable_grns.VaccinationFull.resample_norm.norm.bias f4 [16]
00000000: cb9a 843e 166a b13d fc4b a83e 2679 cc3c
00000010: 1a66 bc3d 852a bcbe 624a c7bd 65b1 463e
00000020: 93d6 b5bd 0607 ddbe b90d 00be b823 a7be
00000030: e394 ea3e 25b3 3e3c a5f7 453e c373 423e
0.25899348 0.086628124 0.3287047 0.024960112 0.09199162 -0.3675119 -0.09730984 0.19403608
-0.088788174 -0.4316942 -0.12505235 -0.3264444 0.45816717 0.011639391 0.1933275 0.18989472

encoder_variable_selection.single_variable_grns.VaccinationFull.fc1.weight f4 [8, 8]
00000000: cefd b83e d6be c9be 5c88 4abf 5ba2 8ebd
00000010: a443 683f e104 2a3e 22e3 22bf 5e0f 48bd
00000020: 05d7 38bd f2e9 75be 1a61 7bbf 1597 f9bf
00000030: 0e3e 4ebd f805 533e defe f53f fa8c eb3d
00000040: c588 97be e68b 15bf 3547 c3be 4b01 bcbf
00000050: acd7 fdbe b79d 773f 7f13 6c3f 5453 97bd
00000060: 8f38 38be e3bf 9abf 0711 39bf 391c d93a
00000070: 0f53 fcbe ca25 b83f 5429 173f 2cb4 583f
00000080: a324 83be 8a67 273f a800 773d c1dc 6bbf
00000090: 7774 57be fc76 573f d83e cf3f 11b0 933f
000000a0: 5906 27be e889 923f a3fc d23e 3cf9 59be
000000b0: d91a 43bf a6b8 75bf 7b1a 4cbf 5349 ecbf
000000c0: 012a 4fbf 0b3e cf3e 81b9 7f3d 5508 ec3d
000000d0: 2f91 4b3f b751 5ebd e192 893e 2ef1 093e
000000e0: ba11 233e 6b62 863f 145d 2dbe 7890 c6be
000000f0: c4ff 8ebf a855 a1bf c988 3cbe b6c0 c9bf
0.36131138 -0.3940341 -0.7911432 -0.069645606 0.9072821 0.16603424 -0.6362783 -0.04884278
-0.045126934 -0.24015024 -0.9819504 -1.9499232 -0.05035215 0.20607746 1.9218404 0.115014985
-0.29596534 -0.58416593 -0.38140264 -1.4687895 -0.49578607 0.9672503 0.9221725 -0.073889405
-0.17990325 -1.2089809 -0.72291607 0.0016564197 -0.4928212 1.4386532 0.59047437 0.8464992
-0.2561389 0.65392363 0.06030336 -0.9213372 -0.21040522 0.8416593 1.6191053 1.1538106
-0.16311015 1.1448336 0.41208372 -0.21286482 -0.7621284 -0.95984876 -0.79727906 -1.8459877
-0.8092347 0.40477023 0.06243277 0.11525027 0.7951841 -0.054277148 0.26869872 0.13470909
0.15924731 1.0498785 -0.16930038 -0.38782096 -1.1171803 -1.2604265 -0.18411554 -1.5761936

encoder_variable_selection.single_variable_grns.VaccinationFull.fc1.bias f4 [8]
00000000: c43c f53e 74f8 25be 9155 90be c71d 0e3e
00000010: c35c d9be 25b3 11bf 2573 c2bd e5c8 2abf
0.47897923 -0.16208059 -0.28190282 0.13878547 -0.42453584 -0.5691398 -0.09494618 -0.6671279

encoder_variable_selection.single_variable_grns.VaccinationFull.fc2.weight f4 [8, 8]
00000000: a0d0 58be bf4d be3d afbf 1ebe 67c5 55bf
00000010: 9f98 50bf c570 0f3f 327a 9cbe 591e c93e
00000020: 0387 413f a4e4 9abf 309f 6dbf d7d1 61bf
00000030: 4c5f 86bf 6e02 47bf 3a04 363d f1df fbbe
00000040: efbc 9abf c40b 193f 6ed3 a73e 875e 873f
00000050: 8427 f43d 5ffd 163f d536 e73e d2f3 5a3f
00000060: 10b6 eb3d f6d5 003d 3790 973e d800 bebc
00000070: 3832 6b3f b059 8fbf 6cfd 263d 5304 81be
00000080: 7678 853d 006a 393f dc70 7b3f 797a 043f
00000090: f108 923f 28b8 e93e 8fb4 96be 76c8 783f
000000a0: 025f 00be 4df9 6d3e 10a3 1a3f 1725 7a3f
000000b0: 8014 2a3e b1f1 913c 145e 2ebc b3f3 48bf
000000c0: b77c 283f d11c 10be f69f c8be 9a3a 613f
000000d0: 4132 063e 9b31 36bf d523 aabd 0e69 0ebe
000000e0: d860 00be 1e79 f13e d720 063f 42a1 7f3f
000000f0: f586 95be 0741 0bbf 2cb2 ffba 23ac 64be
-0.21173334 0.09292173 -0.15502809 -0.8350434 -0.8148288 0.5603145 -0.30561978 0.39280966
0.75596637 -1.2101026 -0.92821026 -0.88210815 -1.0497832 -0.7773808 0.044437625 -0.4919429
-1.2088908 0.5978358 0.32778496 1.0575722 0.119215995 0.58980364 0.4515902 0.8552829
0.11509335 0.03145405 0.29602215 -0.023193762 0.918735 -1.1199245 0.040769026 -0.25198612
0.06517117 0.7242737 0.98219085 0.5174938 1.1408979 0.45648313 -0.2943463 0.9718088
-0.12536243 0.23239632 0.60405064 0.97712845 0.16609383 0.017815443 -0.010642547 -0.78496855
0.658153 -0.14073493 -0.3918454 0.87980044 0.13105108 -0.7116944 -0.08307616 -0.13907263
-0.12536943 0.47162718 0.5239386 0.99855435 -0.29204527 -0.543961 -0.0019508055 -0.2233129

encoder_variable_selection.single_variable_grns.VaccinationFull.fc2.bias f4 [8]
00000000: 2950 2fbd 0c95 303f 878c e0be a5d2 30be
00000010: d216 babe 6f32 da3d 2114 bf3e 2dd1 a73c
-0.042801056 0.6897743 -0.43857214 -0.17267855 -0.36345536 0.10654151 0.37320045 0.020485485

encoder_variable_selection.single_variable_grns.VaccinationFull.gate_norm.glu.fc.weight f4 [32, 8]
00000000: bd85 65be 9a55 573f 2a5e 8cbe 865b 283f
00000010: 72c1 27bf 3a2c d53e b125 bd3e c844 143e
00000020: f86a e9be 60a0 19be 3da5 47be 2e02 9abd
00000030: ffb5 a73e 534b 5c3d 4286 323e 2e4b 2fbe
00000040: 4930 fe3e a506 c1bd 424c 503e 4af9 21be
00000050: eeeb 523c b128 68be fb0a 66be b532 c6be
00000060: 09d6 b9bf 9a74 64bd d7b9 3ebf 6eff 7d3f
00000070: 82d1 26bf 9105 713f 5008 983f 9713 793f
00000080: 4898 813f b238 a9bd 1ee0 153f ca13 aebf
00000090: 5755 a53e 8a2d 62bf c33b 9fbf 4f5c 58bf
000000a0: 1e25 6b3e 3709 2a3f 34b6 573e 20a2 613c
000000b0: e0ac 3dbf 024b d6bd 15f5 203d a336 d73d
000000c0: ff7d 27bf ab03 3fbe ce29 8f3e eca6 da3e
000000d0: a8c9 003e 60eb 993e c5e1 c13e 5047 083f
000000e0: 04c3 83be 6f36 b53f 3647 41bf bb28 2d3e
000000f0: ed74 65bf 3dd8 433d 692e 9d3e 86ca 81bd
00000100: e673 94be fee3 053f 265a c2be cb7b 573d
00000110: 7534 e6be 93e5 073f c014 363f 66a4 e43e
00000120: d646 2b3f 59a0 743e 5263 f23e 402c 65bf
00000130: 9fbb 333f 538e 3cbf f4e8 82bf c51c 69bf
00000140: cd52 9abe 6c6e 833d 7de4 23be ec65 2b3e
00000150: 4b1f 6fbe de2a 0e3f 5736 0d3f 72c9 f53e
00000160: bebf a1be de8b e8bf 198a 1e3f b87d e73e
00000170: 90fc 3d3f 31d8 013e ffdb 70bd 1392 953e
00000180: e4c8 7c3e 73b7 e43f df6a 4ebf 554a febe
00000190: 2a65 5fbf 4806 1abf fe0c 8cbe 0c9f dcbe
000001a0: 5427 e63d 91ee 66bf a973 1bbd 9f6f 7c3a
000001b0: 8f0f b63e 6d60 123e 1df6 7dbe a5a0 c4be
000001c0: 1f31 04bf 9858 0d3f 1f55 1ebf 59dc c93e
000001d0: 4d7a 2bbf c9da b63e db1d ff3e 5667 cd3e
000001e0: 9cbd 14bf aaa8 b0be 4bbc 82bd 3ebf bc3d
000001f0: 77d2 b03d e8f7 583d ed0d 0b3e b836 693e
00000200: 6a81 073e bc93 83bf 0a11 553f 366c a6be
00000210: 2d0c 533f ee61 db3d 28e0 83be d894 43be
00000220: a74b 0d3e 38e7 6abf 8559 593f 435f 5a3e
00000230: 2f0b 8a3e 7dee 863e 6d5f e0be d9b7 56be
00000240: 5b05 ecbe 30cf 1a3d 048e 2c3e 980d 573e
00000250: 46f2 09be be33 dc3f be17 3c3d c061 e23f
00000260: ed85 823f 94a4 113d 70ee d93e d5c8 39bf
00000270: f746 c33d 456c 50bf 5b61 60bf 985c 83be
00000280: 1a5a e1bf 9492 ebba 32a5 ed3b 48e7 ec3f
00000290: 8cce 50bd 3f37 7e3f ea98 b03e 3a01 1940
000002a0: bbf9 04bf 88ed 02c0 53f5 1f3f 859d 3b3e
000002b0: 5708 c73e 3d8f e13e 4550 b0be 35d6 453e
000002c0: ce56 da3d c383 b33f 8766 aebe 19e8 323e
000002d0: 1a01 74bf c043 15be 2d73 fbbd 9dda 7cbd
000002e0: 2e94 bd3f 2721 363d 9d8b 333e bcd5 36bf
000002f0: e85e 9bbc 6e9d 79bf e884 3dbf 5611 9dbf
00000300: 64ef 283e b63e a23f 579d 81be 6970 3abf
00000310: 9673 3dbf d97e d3be 41c0 ce3c 97e1 68be
00000320: 40cf 2c3f 00a3 a33d ac9b 8a3f 758c 15bf
00000330: 5284 943e c685 25bf d8b9 a0bf 220e 25bf
00000340: a7c1 c73e 41e5 153f 8acd 9abe 95fe b2bf
00000350: 4ebd 7fbe eb8c 68bf cac6 a93d ff54 60bf
00000360: 1bcc cc3e 781f cbbe f188 693f c1f3 aebe
00000370: b2b1 c63e 7687 2ebd 5a21 28bf 0477 8fbe
00000380: e210 933f 4d62 56be 7b65 f93e a29e 45bf
00000390: 3d2a ae3e 8f8c a6be 11b0 d6bf e8d6 11bf
000003a0: 5a06 c53e 9581 b4bf 2299 22bd 196c cb3e
000003b0: c3ec 613e 51f5 05be 57f1 92be d140 a1be
000003c0: 31b8 e33f 8adc c93c 7595 1fbd 8029 73be
000003d0: 1db3 a6bc 4727 d4bf 30ea 47be 3896 4ac0
000003e0: a5e3 ab3c 5706 733f 615f 923e 53b0 e5bd
000003f0: ed5f c1be f12d 11bf 2621 e4be 48d5 6abf
-0.22414298 0.8411499 -0.2741559 0.65764654 -0.6552955 0.41635305 0.3694282 0.14479363
-0.45589423 -0.15002584 -0.19496627 -0.07519947 0.3275604 0.053782772 0.17434028 -0.17118523
0.49646214 -0.094250955 0.2034159 -0.15817752 0.012873633 -0.22671773 -0.22465126 -0.3871056
-1.4518443 -0.055775262 -0.7450232 0.9921788 -0.65163434 0.9414912 1.1877537 0.97295517
1.0124598 -0.08262767 0.585451 -1.3599789 0.32291672 -0.8835074 -1.2440113 -0.8451585
0.22963378 0.6642031 0.21065599 0.013771564 -0.7409191 -0.10463525 0.03929623 0.10508468
-0.6542663 -0.18653743 0.27961582 0.42705476 0.12576926 0.3006239 0.3786756 0.53233814
-0.25734723 1.4157237 -0.75499284 0.16910069 -0.8963154 0.047813643 0.3069947 -0.063374564
-0.28994673 0.52301013 -0.37959403 0.052608293 -0.44961897 0.5308468 0.7112541 0.44656676
0.6690496 0.23889293 0.473414 -0.89520645 0.7020816 -0.7365467 -1.0227342 -0.91059524
-0.30141297 0.06417546 -0.1600513 0.16738099 -0.23351781 0.5553416 0.5516104 0.48005253
-0.315916 -1.8167684 0.6192947 0.45213103 0.74213505 0.12680127 -0.058803555 0.29213008
0.24686009 1.7868484 -0.8063182 -0.49666086 -0.8726374 -0.60165834 -0.27353662 -0.43090093
0.1123797 -0.90207773 -0.0379521 0.000962967 0.35558745 0.14294596 -0.24800916 -0.38403812
-0.5163745 0.5521331 -0.61848634 0.39425924 -0.6698349 0.35713795 0.49827465 0.40117902
-0.5810182 -0.3450368 -0.0638357 0.09216164 0.08633893 0.052970797 0.13579531 0.2277478
0.13232961 -1.027946 0.83229125 -0.32504433 0.82440454 0.10712038 -0.25756955 -0.19099748
0.1379839 -0.9175906 0.8490222 0.21325402 0.26961657 0.26353827 -0.43822804 -0.2096857
-0.46097836 0.037795246 0.1685105 0.2100128 -0.13471326 1.720329 0.04592108 1.7686081
1.0197121 0.035557345 0.42564726 -0.7257207 0.0953502 -0.81415206 -0.8764855 -0.2565658
-1.7605622 -0.0017972761 0.007252359 1.8508081 -0.05097823 0.9930305 0.34491664 2.3906999
-0.5194356 -2.0457478 0.6248371 0.18321808 0.3887355 0.44054595 -0.3443624 0.19319995
0.10661088 1.4024585 -0.34062597 0.1747135 -0.9531418 -0.14576626 -0.122778274 -0.061731923
1.4810846 0.04446521 0.17533727 -0.7141988 -0.018966153 -0.97505844 -0.74030924 -1.2270916
0.1649757 1.2675388 -0.25315353 -0.72827774 -0.74004495 -0.41307715 0.025238158 -0.22742306
0.6750374 0.07990074 1.0828757 -0.58417445 0.29007202 -0.6465725 -1.2556715 -0.6447469
0.39014933 0.5855294 -0.3023494 -1.3983942 -0.24974558 -0.90840024 0.08289869 -0.87629694
0.3999947 -0.39672446 0.9122458 -0.34170344 0.38807446 -0.042609654 -0.6567589 -0.2802049
1.1489527 -0.20935936 0.48710236 -0.7719518 0.340166 -0.32529113 -1.6772481 -0.56968546
0.38481408 -1.4102045 -0.03969682 0.3973091 0.22062974 -0.13081862 -0.28699753 -0.31494763
1.7790586 0.024641294 -0.038960893 -0.237463 -0.02034908 -1.6574486 -0.19522929 -3.1654186
0.020982573 0.9493155 0.28588393 -0.11215272 -0.37768498 -0.56710726 -0.4455654 -0.9173169

encoder_variable_selection.single_variable_grns.VaccinationFull.gate_norm.glu.fc.bias f4 [32]
00000000: b918 6a3e 39f2 243e 5d84 a5be 1774 75bf
00000010: 5a9f 8bbf 7194 babe 01e5 b2be 9ba2 be3e
00000020: 456d c73e 8be8 0d3f 94ef ddbd 0f82 90bf
00000030: 6e2d a43f 80be 4cbd 2861 b43e a597 6abe
00000040: ed49 06bf 3226 dcbf 5425 7fbe 4efe a33e
00000050: d0a0 8c3c def8 70bf 2efc 893f 3999 6fbe
00000060: c9cf 843f 9dc8 df3c ce18 263f 297e cabe
00000070: c13e d0bc 1c40 fabf cbda fcbd 877f 893e
0.22860993 0.16108026 -0.32327548 -0.95880264 -1.0908005 -0.36441377 -0.3494034 0.37233433
0.38950554 0.5543296 -0.108367115 -1.1289691 1.2826364 -0.049986362 0.35230374 -0.2290941
-0.5245655 -1.7199156 -0.24916583 0.32029957 0.017166525 -0.9412974 1.0780084 -0.23398294
1.0375911 0.02731734 0.648816 -0.39549378 -0.025420548 -1.9550815 -0.12346419 0.26855108

encoder_variable_selection.single_variable_grns.VaccinationFull.gate_norm.add_norm.norm.weight f4 [16]
00000000: fec8 073f bc53 513d 687c 833f a128 8f3f
00000010: 53c0 853f 8f4c b43e e3d2 f53e e1e3 c93f
00000020: 87a0 b53f 3d10 7a3f a420 a23e 80eb af3f
00000030: 73a4 9d3f e08e 503f 14d2 833f d69c 953e
0.53041065 0.051105246 1.0272341 1.1184274 1.0449318 0.3521466 0.48012456 1.5772668
1.4189614 0.9768103 0.31665528 1.3743744 1.2315811 0.8146801 1.0298486 0.2922122

encoder_variable_selection.single_variable_grns.VaccinationFull.gate_norm.add_norm.norm.bias f4 [16]
00000000: eccf 41bd 3a52 b13e bbf2 2b3f 2a49 213e
00000010: c3b8 3d3e 8877 f5bd 8b5d f0be 38bd 08be
00000020: b2f1 e83c 6b15 bebe 556a d0be 4bf8 863e
00000030: 354c 72bd 7ecc 813e 16a9 85be bf85 d33d
-0.04731743 0.34633046 0.6716725 0.15750566 0.18527512 -0.119856894 -0.46946368 -0.13353431
0.028435562 -0.37125716 -0.40706125 0.26361308 -0.059154708 0.25351328 -0.26105565 0.103282444

encoder_variable_selection.single_variable_grns.Cases.resample_norm.mask f4 [16]
00000000: 088c 133f 47bf 013f 1f67 debf e516 21bf
00000010: 57e1 87be a722 0a3f 81ee 88be 54b9 08bf
00000020: 8663 f6bf f776 1d3f fb02 f23e b991 d53d
00000030: 1b6a 8ebf 0121 5ebf 833c 5d3d 565a 53be
0.57635546 0.5068249 -1.737522 -0.6292556 -0.26539108 0.53959125 -0.26744464 -0.5340779
-1.9249122 0.6150965 0.472679 0.10428185 -1.1126131 -0.8676911 0.054012787 -0.20639929

encoder_variable_selection.single_variable_grns.Cases.resample_norm.norm.weight f4 [16]
00000000: 52f9 c43f 1408 fa3f 928e 5c3f 005d 633f
00000010: 523f 533f f51c de3f 337b cf3f af0c b43f
00000020: e1b3 303f aebb f73f c433 c83f a711 873f
00000030: 87c9 913e 4ae2 ef3e acc2 e63f 9655 b23f
1.5388587 1.9533715 0.86155045 0.8881378 0.82518494 1.7352587 1.6209472 1.4066371
0.69024473 1.935415 1.5640798 1.0552262 0.28474066 0.46852332 1.8028159 1.3932369

encoder_variable_selection.single_variable_grns.Cases.resample_norm.norm.bias f4 [16]
00000000: 95c0 fd3e 7c29 1f3f a5f2 37bf 4b54 34bf
00000010: 4760 a73e e43d efbe e356 00bf ea82 87be
00000020: e5b5 90be 66db 24bd c630 613e 6180 fcbe
00000030: 8768 98be 299d 98be 7fd5 6fbe c64f 0e3f
0.4956099 0.62172675 -0.7185462 -0.7044112 0.3269064 -0.46726906 -0.5013258 -0.26467067
-0.28263775 -0.040248297 0.21991262 -0.49316695 -0.29767248 -0.29807404 -0.23421286 0.55590475

encoder_variable_selection.single_variable_grns.Cases.fc1.weight f4 [8, 8]
00000000: bf59 143c 8f24 e03f f588 0f3e 97c3 91bf
00000010: ce35 28bf 36e6 a73e 793d 91be 91cb d6be
00000020: c112 063f 4adb 593f b143 7bbe b5a6 45c0
00000030: b302 a8bf 0117 29bc e7c5 1b3e 5e1e ddbb
00000040: 8bc5 ac3f 3704 d2bc 0793 71be 91a6 b93d
00000050: 8737 6a3d c7d1 373e 6114 63bf ee98 513f
00000060: d017 16bf b121 123e 709d 5b3f 0b40 393e
00000070: 8bfb 0b3f c290 72be 2f7d db3e d29c 383f
00000080: 40b8 69be 88a6 ffbd 453d 373e 7201 a53b
00000090: 4ab3 ed3d 74e1 f4bd a05b 323e c838 aa3e
000000a0: a9b3 65be fdba d23d 075e 603e d8a0 cabe
000000b0: 5823 29bf f67a 003f 5e59 ba3d edde 253f
000000c0: 750a 803e 37f4 cc3e ce7f 673d 97e9 433e
000000d0: 0586 a9bf 1dfa c23e f673 c53e fa03 59be
000000e0: 3ab1 c6ba 9421 f9be 7fab 13bf a1ad 27bf
000000f0: 64ed 77bd bde3 42be 774c 27bf 5dc2 f43f
0.0090546 1.7511157 0.14017089 -1.1387814 -0.657071 0.32792825 -0.28367212 -0.41952184
0.52372366 0.85100234 -0.24537541 -3.0883 -1.3125824 -0.010320426 0.15212213 -0.006748005
1.3497785 -0.025636775 -0.23591243 0.09064973 0.05718186 0.17951117 -0.8870297 0.8187398
-0.58630085 0.14270665 0.85787106 0.18090837 0.546807 -0.23688033 0.42868945 0.7211429
-0.22824192 -0.12482935 0.17894466 0.0050355727 0.11606462 -0.11957064 0.17417765 0.33246446
-0.22431816 0.102895714 0.21910869 -0.3957584 -0.66069555 0.50187624 0.09099077 0.6479328
0.25007978 0.4003007 0.05651837 0.19132076 -1.3244025 0.38081446 0.38565034 -0.21192923
-0.0015159019 -0.4865843 -0.5768356 -0.6549931 -0.060529128 -0.19032188 -0.6535105 1.9121815

encoder_variable_selection.single_variable_grns.Cases.fc1.bias f4 [8]
00000000: 84a2 fdbe f8c4 e9be ce15 12be d321 1bbf
00000010: b6dc b9be 49aa eebd eaf3 14bf 6140 59be
-0.49538052 -0.45658088 -0.1426613 -0.60598487 -0.36301202 -0.11653573 -0.58184683 -0.21215965

encoder_variable_selection.single_variable_grns.Cases.fc2.weight f4 [8, 8]
00000000: 0a26 0a3e 2c01 833f 4a9e 373e 2e63 ae3a
00000010: a98a 6a3e 7bf1 54be c404 663f a3b2 903e
00000020: c3c4 3abe c451 d03d 9445 11bc c85f 32bd
00000030: 19af 3d3e 4789 d03d 120c 72bd c962 45bf
00000040: 19de 53be a005 1abf 359e 3bbf 936c d63d
00000050: 0e40 643e 3e4e edbd 020a 9cbe 43de 723f
00000060: cff7 15bf 308f 67bf 11eb afbe 91fe 01bf
00000070: 8fca 7a3e 5693 4ebf 8491 34bf b256 49be
00000080: f4c2 053f 25c5 243f 9793 a03e 61fc 503d
00000090: fd0f 833e 3bd1 a4be c36d dd3c bb22 ca3e
000000a0: 4aca 1c3f 5c86 8f3e 9e4d 633f fb55 1f3e
000000b0: 9c5c 1abe 87f4 153d c971 253e ba00 3abd
000000c0: c96b 74bf 0370 2fbf 9924 dcbe d79a aa3e
000000d0: b621 2abd 2005 0cbf 2517 613e 65ef 90bd
000000e0: dbd2 d33e 8589 343f 60b1 b6be 6619 433d
000000f0: 8efb 393b 1ccd efbd 4a82 a3be 9794 29be
0.13491073 1.0234733 0.17931476 0.0013304704 0.22904457 -0.20795242 0.8985102 0.2826129
-0.18239121 0.101718456 -0.008866686 -0.043548375 0.18523826 0.101824336 -0.059093542 -0.7710386
-0.20690192 -0.60164833 -0.7328828 0.10469928 0.2229006 -0.11587189 -0.30476385 0.94870394
-0.5858125 -0.9045286 -0.3435903 -0.5077906 0.24491332 -0.80693567 -0.7053454 -0.19661978
0.522506 0.6436332 0.31362602 0.051021937 0.25598136 -0.3219088 0.027029878 0.39479622
0.6124617 0.28032196 0.8879031 0.15560143 -0.1507439 0.036610153 0.16156687 -0.04541085
-0.9547697 -0.6853029 -0.42996672 0.33321258 -0.041536056 -0.5469532 0.21981485 -0.07076911
0.41371807 0.7052234 -0.356822 0.047631644 0.0028378698 -0.117090434 -0.3193534 -0.16560589

encoder_variable_selection.single_variable_grns.Cases.fc2.bias f4 [8]
00000000: 13df a9bd c358 8b3e 3ff1 253d d589 db3e
00000010: 65b0 913d 70d3 573d 0359 b33e eb9e 16bd
-0.08294501 0.27216157 0.040513273 0.42878595 0.07113723 0.052691877 0.35028848 -0.03677265
