Archives/TFT-pytorch/results/industry_subgroup/Manufacturing/checkpoints/latest-epoch=4.ckpt (torch, 703287 bytes, 506 tensors)

prescalers.Manufacturing.weight f4 [8, 1]
-0.34697118 -0.761032 0.5761055 0.702206 -0.9352312 -0.19206358 -0.81164485 -0.11298788
00000000: 35a6 b1be fed2 42bf a67b 133f c6c3 333f
00000010: 506b 6fbf 51ac 44be f5c7 4fbf 3166 e7bd

prescalers.Manufacturing.bias f4 [8]
-0.10863972 0.44925943 0.6562958 0.38342395 -0.52324 -0.44179612 -0.2855929 0.02412709
00000000: 807e debd 5505 e63e 0003 283f 2550 c43e
00000010: 0ef3 05bf 1a33 e2be 3c39 92be 2da6 c53c

prescalers.SinWeekly.weight f4 [8, 1]
-0.0075523425 -1.3781067 0.88033456 -0.9731498 0.5407977 -0.40597898 0.8173449 0.41781148
00000000: a479 f7bb cd65 b0bf 9b5d 613f 5820 79bf
00000010: b871 0a3f 7adc cfbe 843d 513f 63eb d53e

prescalers.SinWeekly.bias f4 [8]
0.04100586 -0.31475505 0.80704707 0.5778966 0.5495575 -0.55225587 0.62730014 0.6023215
00000000: c3f5 273d 9327 a1be a39a 4e3f 08f1 133f
00000010: cdaf 0c3f a460 0dbf be96 203f be31 1a3f

prescalers.VaccinationFull.weight f4 [8, 1]
0.005795156 0.42201504 0.8353376 0.9899211 -0.2105325 -0.7860167 -0.88287735 -0.59309983
00000000: 4be5 bd3b 5b12 d83e afd8 553f 786b 7d3f
00000010: d595 57be 6438 49bf 4004 62bf 64d5 17bf

prescalers.VaccinationFull.bias f4 [8]
0.007664538 -0.6262397 -0.65516084 0.8103301 0.80939454 0.32494178 -0.04030127 0.2683646
00000000: ce26 fb3b 3f51 20bf 9fb8 27bf cb71 4f3f
00000010: 7b34 4f3f c55e a63e f212 25bd 1667 893e

prescalers.Cases.weight f4 [8, 1]
0.71943444 -1.0400406 -0.76904786 0.7869983 1.3713558 0.051681437 -0.65618545 0.4059829
00000000: db2c 383f 0d20 85bf 52e0 44bf b878 493f
00000010: 9688 af3f eaaf 533d c5fb 27bf fedc cf3e

prescalers.Cases.bias f4 [8]
-0.8390997 -0.21049935 0.58585393 0.5004326 0.13315378 -0.05840229 0.43083313 -0.86472887
00000000: 3dcf 56bf 248d 57be 86fa 153f 5a1c 003f
00000010: 7759 083e 3d37 6fbd 2996 dc3e df5e 5dbf

static_variable_selection.single_variable_grns.Manufacturing.resample_norm.mask f4 [16]
-0.58185816 -0.37051404 -0.26882005 0.016853532 -0.44806132 -0.09765143 0.9191663 0.199886
0.25439805 0.6624967 -0.086929515 0.09544267 -0.48220482 0.41972205 0.06428193 -0.63193536
00000000: a8f4 14bf 04b4 bdbe c8a2 89be 6b10 8a3c
00000010: 4b68 e5be 79fd c7bd 7c4e 6b3f eaae 4c3e
00000020: 7640 823e 6299 293f 1a08 b2bd 7277 c33d
00000030: 8de3 f6be cfe5 d63e 3fa6 833d 84c6 21bf

static_variable_selection.single_variable_grns.Manufacturing.resample_norm.norm.weight f4 [16]
1.047914 0.93015134 1.1602675 1.3366497 0.79433244 0.8213047 1.9412395 1.3905526
1.1589534 1.5340441 1.1832993 1.4587554 0.8546309 1.404521 0.43576524 0.73832685
00000000: 0c22 863f 661e 6e3f a583 943f 5617 ab3f
00000010: 5f59 4b3f 0641 523f 897a f83f a1fd b13f
00000020: 9658 943f 8f5b c43f 5a76 973f 7fb8 ba3f
00000030: 17c9 5a3f 58c7 b33f 9f1c df3e fd02 3d3f

static_variable_selection.single_variable_grns.Manufacturing.resample_norm.norm.bias f4 [16]
0.033854555 -0.016727705 0.03205903 0.1705876 -0.10548854 0.16091008 0.12622495 -0.0134225935
0.06263723 -0.15772961 -0.1309686 -0.43207452 0.13555609 -0.059977967 0.062170416 0.02824272
00000000: 13ab 0a3d 8a08 89bc 5450 033d 84ae 2e3e
00000010: 600a d8bd 9dc5 243e 1d41 013e 70ea 5bbc
00000020: f347 803d df83 21be a21c 06be df38 ddbe
00000030: 37cf 0a3e 75ab 75bd 68a6 7e3d 475d e73c

static_variable_selection.single_variable_grns.Manufacturing.fc1.weight f4 [8, 8]
0.48850155 -0.6173833 -0.7120505 -0.5384091 0.13712907 -1.2596151 0.35822758 -0.32125556
-0.39966822 -0.95100045 -0.24893986 0.42970663 -0.23516254 -0.46807274 0.7913112 0.09185395
0.24540578 0.25664422 0.38034028 -0.46995065 0.54202235 -0.08726642 0.54941475 -0.15825765
-0.6493012 -0.3275443 0.0274826 0.008922368 -0.7224885 0.20813903 -0.57574177 0.24431877
-0.655811 0.41840115 -0.030996649 0.046301592 -0.3263614 0.89364284 0.11636863 -0.50743157
0.21451192 0.07042838 -0.25797856 -0.18245222 0.9254792 -0.41849452 0.3215092 -0.12294888
-0.23065963 -0.70869726 -0.07724809 0.23566794 0.29522213 1.1656134 0.4566459 -0.17757943
-0.7082005 -0.72332126 0.058057915 1.1463445 -0.85833174 -0.48967263 -0.34002694 -0.0838085
00000000: e01c fa3e d50c 1ebf f148 36bf 2ed5 09bf
00000010: 906b 0c3e 113b a1bf 9b69 b73e 9c7b a4be
00000020: 50a1 ccbe c474 73bf 17ea 7ebe 8202 dc3e
00000030: 73ce 70be 3ba7 efbe 5f93 4a3f ec1d bc3d
00000040: a74b 7b3e df66 833e f6bb c23e 5f9d f0be
00000050: fac1 0a3f bdb8 b2bd 72a6 0c3f 4b0e 22be
00000060: 9a38 26bf e3b3 a7be 3123 e13c 202f 123c
00000070: 02f5 38bf 6622 553e d063 13bf b32e 7a3e
00000080: 3be3 27bf ad38 d63e afec fdbc bda6 3d3d
00000090: d718 a7be c7c5 643f ad52 ee3d 09e7 01bf
000000a0: 03a9 5b3e c13c 903d c415 84be c1d4 3abe
000000b0: 34ec 6c3f ea44 d6be db9c a43e 9fcc fbbd
000000c0: 0a32 6cbe 2f6d 35bf 3f34 9ebd f052 713e
000000d0: 5b27 973e d232 953f 7ecd e93e 62d7 35be
000000e0: a14c 35bf 952b 39bf 23ce 6d3d 6bbb 923f
000000f0: a1bb 5bbf 5fb6 fabe 0318 aebe caa3 abbd

static_variable_selection.single_variable_grns.Manufacturing.fc1.bias f4 [8]
-0.29503345 0.1373112 -0.20767675 -0.054296482 0.030642793 0.020793114 0.1122349 0.054735042
00000000: a00e 97be 4f9b 0c3e 37a9 54be fd65 5ebd
00000010: 9806 fb3c 5256 aa3c 69db e53d da31 603d

static_variable_selection.single_variable_grns.Manufacturing.fc2.weight f4 [8, 8]
0.13548787 0.26350144 0.33580604 -0.56604 0.3204528 -0.07425546 0.5935978 0.37975988
-0.35671577 -0.25082687 0.28031462 -0.01829609 -0.020039959 -0.068888314 0.3704686 0.109190725
-0.17400284 0.21898752 -0.054459736 0.15803197 0.10552985 -0.4489062 -0.42111334 0.81771594
0.6660233 0.29485264 0.15956561 -0.01588137 -0.2103822 -0.33682144 0.7839253 -0.55610436
-0.014580431 0.10680294 -0.10666455 0.2976567 -0.03784825 -0.14739487 0.6249815 0.47841313
0.0866447 -0.107259065 -0.47568172 -0.100348875 0.18859372 0.1499748 -0.48459938 0.14454904
-0.49457443 -0.037068408 0.0894467 -0.15652831 0.22125766 0.047689363 -0.7022078 -0.6031003
0.015885195 0.0017084086 -0.60282 -0.26288554 -0.20938045 -0.24960636 0.15400824 -0.35675746
00000000: 55bd 0a3e a9e9 863e c5ee ab3e ffe7 10bf
00000010: 6412 a43e 3f13 98bd 07f6 173f e36f c23e
00000020: 73a3 b6be 616c 80be 6685 8f3e afe1 95bc
00000030: d72a a4bc 5115 8dbd 0fae bd3e 639f df3d
00000040: cd2d 32be 443e 603e 2c11 5fbd 22d3 213e
00000050: 0920 d83d 09d7 e5be 2b9c d7be d555 513f
00000060: 8180 2a3f edf6 963e 2b65 233e a619 82bc
00000070: 6e6e 57be dc73 acbe 54af 483f db5c 0ebf
00000080: c3e2 6ebc 80bb da3d f272 dabd 7566 983e
00000090: c406 1bbd aeee 16be cafe 1f3f 91f2 f43e
000000a0: c772 b13d a4aa dbbd 8e8c f3be b683 cdbd
000000b0: b61e 413e fe92 193e 691d f8be aa04 143e
000000c0: dc38 fdbe 0bd5 17bd d52f b73d f548 20be
000000d0: 5e91 623e ec55 433d e4c3 33bf c864 1abf
000000e0: ab21 823c aeec df3a 6952 1abf ef98 86be
000000f0: d467 56be cf98 7fbe 56b4 1d3e eaa8 b6be

static_variable_selection.single_variable_grns.Manufacturing.fc2.bias f4 [8]
0.26920366 0.000873733 0.13570172 -0.25782457 -0.20313366 -0.29330954 0.37323248 0.078861535
00000000: 10d5 893e 3b0b 653a 64f5 0a3e 9501 84be
00000010: 4502 50be ab2c 96be 5418 bf3e 2882 a13d

static_variable_selection.single_variable_grns.Manufacturing.gate_norm.glu.fc.weight f4 [32, 8]
-0.11248058 0.1732476 0.3172461 -0.25738662 0.25504792 -0.23505065 -0.33214805 -0.15882093
0.12835534 0.06335147 -0.06379901 -0.7860459 -0.46380386 0.0959747 -0.9471107 -0.28748766
0.14239196 0.007649093 -0.740314 0.024381647 -0.011917784 -0.43143597 0.11937002 0.6041266
-0.24289626 0.13876736 -0.4526378 -0.14058098 -0.27078018 -0.3563098 0.34586483 0.026208563
-0.028407337 0.006160287 -0.03356772 -0.566871 0.024682095 -0.06016954 -0.23670742 0.00055353105
0.007213167 -0.15098743 -0.3872306 0.38627884 -0.62034315 -0.16254398 0.2781581 0.22992595
-0.23754366 -0.09319874 0.3988821 -0.5104541 -0.38369396 -0.20357865 -0.21363617 0.15746526
0.09124133 0.16931538 0.68767226 -0.17995319 -0.2026752 0.21083176 -0.3122514 0.085307494
0.12559249 -0.0035969238 0.23712 0.26028088 0.55718476 -0.3850264 0.5243044 0.04395858
-0.019468447 -0.053804297 -0.21692105 0.463262 0.5092634 -0.11388478 0.15288328 -0.09188526
-0.109720334 -0.041353747 0.28872633 0.22892186 0.1649691 -0.2984722 0.11175983 0.49204507
-0.12169658 0.029537648 0.29080588 -0.24640954 0.62511593 0.47823372 -0.4855488 0.58606184
-0.2325014 0.30812672 -0.008833037 0.15774141 0.20190117 -0.1519021 0.6147787 0.33334604
-0.13284162 0.09737914 -0.2760204 0.25684816 0.12491043 0.1538196 0.27090126 -0.2531968
-0.42975396 0.20255429 -0.39254317 0.046017252 -0.15332022 -0.22571719 0.37191507 0.044156935
0.35926777 -0.13945386 -0.033211067 -0.022010421 0.15198727 0.15053251 0.11932721 -0.17831323
-0.60075784 -0.5641165 0.082012974 0.33088124 1.0358737 -0.5723803 -0.47379076 0.08564155
0.6869115 -0.35479802 -0.90605944 0.91841143 0.368303 -0.5584952 0.21425249 -0.3540691
0.13284953 0.1528356 0.46220177 0.06588818 -0.16710979 0.7930114 -0.41613406 -0.004461971
-0.281334 0.3329587 -0.45115697 0.08073902 -0.21822658 0.3493214 -0.26924917 0.94815063
-0.10848374 -0.3207244 -0.5488434 0.0027777606 0.43121222 -0.014715879 -0.39711076 0.57109797
0.076139584 0.20419031 -0.025538662 -0.24311157 0.79467976 -0.31237873 -0.5048904 0.30187288
0.44865078 0.24342006 -0.28597832 0.023336213 -0.22308888 0.19949882 -0.6677374 -0.6286953
-0.8488475 0.1922178 -0.0031772368 0.6340783 0.9070196 -0.001455045 0.0905918 -0.48691922
-0.3406699 -0.16626577 -0.95595384 0.34695223 1.0025022 -0.4153242 0.029923957 0.67231774
0.08240253 -0.19943145 0.3736907 -0.16919269 0.5338643 0.31552052 -0.607737 0.5012834
-0.20231187 0.1972598 -0.6220599 0.26152408 0.2635286 0.25092992 -0.5510557 0.015986592
-0.11139702 -0.14722347 0.42426932 0.29799852 -0.2690874 -0.06439456 0.41521677 0.10448345
0.10002214 0.1070156 0.22002342 -0.12486203 0.24494562 0.81152517 -0.5161971 0.28623632
0.26103854 -0.7970987 -0.20209067 0.12625735 -0.30895537 0.11551032 -0.72499317 0.13962275
0.39893648 0.1516631 -0.19593987 -0.066154584 1.1477047 0.31654608 -0.67568177 0.5544825
-0.055520467 0.030845001 -1.149537 0.44403583 1.1155825 -0.2676295 -0.37774295 0.9719401
00000000: 385c e6bd d267 313e 156e a23e 2ec8 83be
00000010: a495 823e 1eb1 70be 4f0f aabe f4a1 22be
00000020: 956f 033e 6abe 813d 0ea9 82bd 4e3a 49bf
00000030: b377 edbe 628e c43d d975 72bf 9531 93be
00000040: 33cf 113e 3ea5 fa3b 3885 3dbf 05bc c73c
00000050: cf42 43bc 2de5 dcbe 4578 f43d 0aa8 1a3f
00000060: ccb9 78be 0819 0e3e 24c0 e7be 76f4 0fbe
00000070: b3a3 8abe 3d6e b6be 3215 b13e 57b3 d63c
00000080: 81b6 e8bc 3cdc c93b 4e7e 09bd 751e 11bf
00000090: 1b32 ca3c 5674 76bd 6e63 72be d71a 113a
000000a0: 6e5c ec3b 739c 1abe 1743 c6be 57c6 c53e
000000b0: cfce 1ebf ee71 26be bd6a 8e3e b571 6b3e
000000c0: a53e 73be fbde bebd 463a cc3e 1fad 02bf
000000d0: 8973 c4be ec76 50be 71c3 5abe 933e 213e
000000e0: bcdc ba3d 0361 2d3e 4a0b 303f a645 38be
000000f0: 168a 4fbe 48e4 573e 6adf 9fbe b2b5 ae3d
00000100: 519b 003e 5eba 6bbb 96cf 723e 8943 853e
00000110: a9a3 0e3f 2e22 c5be d038 063f e90d 343d
00000120: 4b7c 9fbc e561 5cbd 8d20 5ebe ad30 ed3e
00000130: 165f 023f 6c3c e9bd 6f8d 1c3e 572e bcbd
00000140: 0eb5 e0bd 8c62 29bd f0d3 933e 7e6a 6a3e
00000150: a9ed 283e 59d1 98be 56e2 e43d 55ed fb3e
00000160: 0e3c f9bd f0f8 f13c 82e4 943e c852 7cbe
00000170: 9907 203f 0ddb f43e da99 f8be 2608 163f
00000180: d914 6ebe c9c2 9d3e 71b8 10bc f786 213e
00000190: 2ebf 4e3e 398c 1bbe 2362 1d3f 55ac aa3e
000001a0: a207 08be b76e c73d 8c52 8dbe 9a81 833e
000001b0: 0ad1 ff3d e382 1d3e 92b3 8a3e 03a3 81be
000001c0: b608 dcbe 646a 4f3e 6bfb c8be 967c 3c3d
000001d0: faff 1cbe 6822 67be a76b be3e e7dd 343d
000001e0: f2f1 b73e fecc 0ebe 5408 08bd 334f b4bc
000001f0: 8da2 1b3e 3225 1a3e d361 f43d be97 36be
00000200: 44cb 19bf f069 10bf 6bf6 a73d 4469 a93e
00000210: 8297 843f 8487 12bf b494 f2be d664 af3d
00000220: 6fd9 2f3f 16a8 b5be 83f3 67bf 031d 6b3f
00000230: 3692 bc3e 8bf9 0ebf 0165 5b3e 8c48 b5be
00000240: b509 083e ef80 1c3e b6a5 ec3e 62f0 863d
00000250: d41e 2bbe cc02 4b3f 860f d5be ba35 92bb
00000260: 030b 90be 9079 aa3e 0cfe e6be 805a a53d
00000270: ca76 5fbe 41da b23e 07db 89be 00ba 723f
00000280: b92c debd fd35 a4be 0081 0cbf 170b 363b
00000290: d9c7 dc3e df1a 71bc 1a52 cbbe 7a33 123f
000002a0: 12ef 9b3d 4417 513e 7536 d1bc 3df2 78be
000002b0: 2270 4b3f 1bf0 9fbe 7f40 01bf 158f 9a3e
000002c0: 8eb5 e53e 1c43 793e c06b 92be 962b bf3c
000002d0: 6971 64be 6b49 4c3e d7f0 2abf 2df2 20bf
000002e0: 124e 59bf bed4 443e 3039 50bb f552 223f
000002f0: 7032 683f 35b7 beba 3288 b93d 7a4d f9be
00000300: 496c aebe 9341 2abe 64b9 74bf b9a3 b13e
00000310: fe51 803f 60a5 d4be 1623 f53c 041d 2c3f
00000320: a8c2 a83d c237 4cbe 6354 bf3e d940 2dbe
00000330: 55ab 083f e88b a13e a794 1bbf 1c54 003f
00000340: d82a 4fbe 79fe 493e 513f 1fbf 7ce6 853e
00000350: 38ed 863e e379 803e fd11 0dbf 50f6 823c
00000360: 1f24 e4bd c0c1 16be d439 d93e 4393 983e
00000370: d3c5 89be 4ce1 83bd 4b97 d43e 6bfb d53d
00000380: 68d8 cc3d ff2a db3d d24d 613e aab7 ffbd
00000390: 06d3 7a3e 1dc0 4f3f 7e25 04bf 918d 923e
000003a0: d8a6 853e a90e 4cbf dbf0 4ebe 9b49 013e
000003b0: 662f 9ebe ad90 ec3d 2799 39bf 44f9 0e3e
000003c0: 6741 cc3e 924d 1b3e 76a4 48be 0e7c 87bd
000003d0: fde7 923f 5412 a23e 7bf9 2cbf 91f2 0d3f
000003e0: 6e69 63bd a8ae fc3c 0724 93bf aa58 e33e
000003f0: 68cb 8e3f bc06 89be 8667 c1be 11d1 783f

static_variable_selection.single_variable_grns.Manufacturing.gate_norm.glu.fc.bias f4 [32]
0.066491 -0.07793743 0.10699038 0.24444567 -0.07340249 0.02351184 0.008337332 -0.10246311
0.062073324 -0.19891632 -0.15312326 -0.42906663 -0.10192264 -0.062601656 0.09606939 0.047810134
-0.8226913 0.0017286345 -0.18108352 -0.46929836 -0.8186068 -0.35772964 -0.13815707 -0.6027973
-0.8937146 -0.20541488 -0.68097275 0.41759938 -0.44346434 -0.29724944 -0.90346444 -1.1935096
00000000: 6f2c 883d a99d 9fbd c61d db3d f74f 7a3e
00000010: 0b54 96bd e79b c03c 4e99 083c 2ed8 d1bd
00000020: 9940 7e3d b8b0 4bbe 58cc 1cbe 9fae dbbe
00000030: d1bc d0bd 4c35 80bd 07c0 c43d 8fd4 433d
00000040: e69b 52bf 5993 e23a f56d 39be e047 f0be
00000050: 3790 51bf 5728 b7be 0c79 0dbe ed50 1abf
00000060: 7bca 64bf 4758 52be 3b54 2ebf 96cf d53e
00000070: c20d e3be 1431 98be 7249 67bf ecc4 98bf

static_variable_selection.single_variable_grns.Manufacturing.gate_norm.add_norm.norm.weight f4 [16]
0.93464184 0.5811562 0.96685445 1.2488309 0.88017607 0.9005807 1.6488733 1.0008078
0.8666177 1.3855076 1.117623 1.4736834 0.28956038 1.0241113 0.23741393 0.31381446
00000000: b044 6f3f a7c6 143f c683 773f b1d9 9f3f
00000010: 3853 613f 758c 663f 480e d33f 781a 803f
00000020: a8da 5d3f 5058 b13f 450e 8f3f a8a1 bc3f
00000030: 4241 943e 1416 833f a31c 733e 4aac a03e

static_variable_selection.single_variable_grns.Manufacturing.gate_norm.add_norm.norm.bias f4 [16]
0.10890199 -0.036315158 -0.102577604 0.1053362 0.0652674 0.20444359 0.1818172 -0.045912787
0.108139284 -0.22410059 -0.19664928 -0.46807513 0.124539845 -0.05957587 -0.062174436 0.031042166
00000000: 0208 df3d 34bf 14bd 3514 d2bd 81ba d73d
00000010: eaaa 853d a959 513e 4a2e 3a3e 0c0f 3cbd
00000020: 2178 dd3d a07a 65be 6e5e 49be 8ba7 efbe
00000030: bf0e ff3d d405 74bd 9faa 7ebd 244c fe3c

static_variable_selection.prescalers.Manufacturing.weight f4 [8, 1]
-0.34697118 -0.761032 0.5761055 0.702206 -0.9352312 -0.19206358 -0.81164485 -0.11298788
00000000: 35a6 b1be fed2 42bf a67b 133f c6c3 333f
00000010: 506b 6fbf 51ac 44be f5c7 4fbf 3166 e7bd

static_variable_selection.prescalers.Manufacturing.bias f4 [8]
-0.10863972 0.44925943 0.6562958 0.38342395 -0.52324 -0.44179612 -0.2855929 0.02412709
00000000: 807e debd 5505 e63e 0003 283f 2550 c43e
00000010: 0ef3 05bf 1a33 e2be 3c39 92be 2da6 c53c

encoder_variable_selection.flattened_grn.resample_norm.mask f4 [3]
-1.029343 -0.14388996 0.4651129
00000000: 83c1 83bf e457 13be 4723 ee3e

encoder_variable_selection.flattened_grn.resample_norm.norm.weight f4 [3]
1.0159639 1.1476339 1.9638895
00000000: 1b0b 823f abe5 923f bb60 fb3f

encoder_variable_selection.flattened_grn.resample_norm.norm.bias f4 [3]
0.3534769 0.013985922 -0.49997318
00000000: edfa b43e 3525 653c 7cfc ffbe

encoder_variable_selection.flattened_grn.fc1.weight f4 [3, 24]
0.3674623 0.18547231 -0.112287164 0.26654798 -0.23558699 0.27021635 -0.42012677 -0.4448963
-0.50904524 -0.122490056 -0.3211134 -1.5925968 0.043712243 0.4380089 0.51519865 0.44503188
0.5366836 -0.74499506 0.27826223 0.022047915 0.13436641 -0.13451622 0.11203122 0.26394403
0.06247566 0.045935433 -0.28910637 -0.6433564 0.17904106 0.07550824 0.22038618 0.5819992
-0.696514 0.3243464 -0.5693429 -1.1809514 -0.19013493 0.040137254 0.20660666 0.2764683
-0.069934845 0.4552607 -0.2998008 -0.64961445 -0.44562507 -0.10646175 0.17939186 -0.061620787
-0.060243998 0.14476207 -0.5113268 0.5269067 -0.0066487133 0.4557571 -0.5065105 0.27655807
-0.6039701 0.011171719 -0.16621655 0.24611308 0.09188329 0.29596725 0.54546297 0.54227054
-0.22132339 0.40801343 0.265672 -0.059581436 -0.31104577 -0.5297468 -0.15017195 -0.40953267
00000000: 0524 bc3e 74ec 3d3e d0f6 e5bd fa78 883e
00000010: b73d 71be cc59 8a3e db1a d7be 73c9 e3be
00000020: ca50 02bf 11dc fabd fa68 a4be 36da cbbf
00000030: 9c0b 333d b442 e03e 0fe4 033f 38db e33e
00000040: 1964 093f ffb7 3ebf 6378 8e3e d49d b43c
00000050: 5997 093e 9fbe 09be a070 e53d ac23 873e
00000060: 7ae6 7f3d cb26 3c3d c005 94be 01b3 24bf
00000070: 8a56 373e 10a4 9a3d eaac 613e e6fd 143f
00000080: be4e 32bf bb10 a63e 75c0 11bf 6a29 97bf
00000090: bbb2 42be f666 243d b290 533e 418d 8d3e
000000a0: 003a 8fbd ee17 e93e 7e7f 99be 224d 26bf
000000b0: f828 e4be 9e08 dabd 80b2 373e 1466 7cbd
000000c0: 69c2 76bd 823c 143e 50e6 02bf 5ce3 063f
000000d0: 73dd d9bb ff58 e93e acaa 01bf 0599 8d3e
000000e0: c99d 1abf 9609 373c ac34 2abe 1105 7c3e
000000f0: 4e2d bc3d 0589 973e 76a3 0b3f 3ed2 0a3f
00000100: 99a2 62be 23e7 d03e 2906 883e aa0b 74bd
00000110: 6441 9fbe 7c9d 07bf adc6 19be 44ae d1be

encoder_variable_selection.flattened_grn.fc1.bias f4 [3]
-0.20835602 -0.3824534 -0.12310893
00000000: 485b 55be efd0 c3be 8920 fcbd

encoder_variable_selection.flattened_grn.context.weight f4 [3, 16]
-0.12616341 -0.016613474 -0.106360964 -0.10124673 -0.23907575 -0.13096477 -0.0039486606 0.042919714
0.18185462 0.16756622 -0.11395338 0.024130253 -0.03183484 -0.025070107 -0.040918965 -0.023714859
0.5782262 -0.2787783 0.6138644 -0.5256305 -0.53317946 0.6426886 0.1295531 -0.11050621
0.3769259 0.41572568 -0.32673144 -0.036368966 -0.34815565 -0.020404281 0.008620561 0.15077263
0.52234715 0.008229568 0.65545243 0.0649601 0.005266934 0.95971596 -0.25550392 -0.49422085
-0.929115 -0.081871845 -0.54971874 -0.21092714 -0.0030376534 -0.48770982 0.12245939 0.41195703
00000000: fb30 01be fb18 88bc c7d3 d9bd 725a cfbd
00000010: 46d0 74be a11b 06be c463 81bb 95cc 2f3d
00000020: 1938 3a3e 7b96 2b3e 6460 e9bd cfac c53c
00000030: 4065 02bd d35f cdbc a59a 27bd aa45 c2bc
00000040: a206 143f 08bc 8ebe 3826 1d3f b88f 06bf
00000050: 737e 08bf 3d87 243f 91a9 043e 1451 e2bd
00000060: 6efc c03e ffd9 d43e 5849 a7be a0f7 14bd
00000070: 7541 b2be e126 a7bc 413d 0d3c 2464 1a3e
00000080: 8bb8 053f 4fd5 063c bbcb 273f cd09 853d
00000090: 3f96 ac3b f2af 753f 69d1 82be 840a fdbe
000000a0: 7bda 6dbf 6dac a7bd 5eba 0cbf 49fd 57be
000000b0: 5e13 47bb 1ab5 f9be fdcb fa3d 08ec d23e

encoder_variable_selection.flattened_grn.fc2.weight f4 [3, 3]
-0.9057452 -0.89211625 -0.0204783 -0.1705442 -1.0607277 -0.21160105 -0.2940168 -0.6462809
-0.54917943
00000000: ebde 67bf bb61 64bf 1cc2 a7bc 24a3 2ebe
00000010: edc5 87bf f2ad 58be 5f89 96be aa72 25bf
00000020: 0697 0cbf

encoder_variable_selection.flattened_grn.fc2.bias f4 [3]
0.011919355 0.09774549 -0.34969056
00000000: 6649 433c ca2e c83d a40a b3be

encoder_variable_selection.flattened_grn.gate_norm.glu.fc.weight f4 [6, 3]
0.47388992 -0.25562212 0.39268723 -0.10314027 -0.23077142 0.51749593 -0.010978157 -0.25929937
0.03220243 -0.29773968 -1.017699 0.5992745 0.6183214 -0.47523203 -0.7442674 0.62648445
0.36027536 0.28812322
00000000: b3a1 f23e e7e0 82be 4d0e c93e 353b d3bd
00000010: 584f 6cbe 9d7a 043f badd 33bc e3c2 84be
00000020: b2e6 033d 5671 98be f643 82bf 0e6a 193f
00000030: 504a 1e3f 9d51 f3be 4f88 3ebf 4961 203f
00000040: 0376 b83e e384 933e

encoder_variable_selection.flattened_grn.gate_norm.glu.fc.bias f4 [6]
0.28948566 -0.000842182 -0.4156815 -0.75219834 -0.6401281 0.1491665
00000000: 7737 943e e1c5 5cba 35d4 d4be 1290 40bf
00000010: 6fdf 23bf 1abf 183e

encoder_variable_selection.flattened_grn.gate_norm.add_norm.norm.weight f4 [3]
0.014882256 0.364267 0.18576859
00000000: b5d4 733c 3481 ba3e 1f3a 3e3e

encoder_variable_selection.flattened_grn.gate_norm.add_norm.norm.bias f4 [3]
0.14207822 -0.50040513 0.61043495
00000000: f47c 113e 8d1a 00bf 7745 1c3f

encoder_variable_selection.single_variable_grns.SinWeekly.resample_norm.mask f4 [16]
0.31892452 0.039513625 0.027053844 -0.49502653 -0.19189753 -0.3225236 0.30500913 -1.243568
-0.82270265 -0.21356644 -0.5771659 -0.13283257 0.16151708 0.37265918 0.44716245 0.3430948
00000000: 134a a33e 0ad9 213d 06a0 dd3c 1e74 fdbe
00000010: c980 44be d021 a5be 282a 9c3e 3c2d 9fbf
00000020: a49c 52bf 29b1 5abe 25c1 13bf 4305 08be
00000030: bc64 253e 2fcd be3e 7af2 e43e 1faa af3e

encoder_variable_selection.single_variable_grns.SinWeekly.resample_norm.norm.weight f4 [16]
0.4735684 0.6676161 1.6476873 0.71452254 0.7126661 0.8884673 1.754414 0.35378706
0.06506901 0.78312796 0.9722974 1.2676972 0.7776982 1.4499172 1.5860108 1.2731502
00000000: 8f77 f23e e4e8 2a3f 6be7 d23f f3ea 363f
00000010: 4971 363f 9872 633f a390 e03f 9423 b53e
00000020: e742 853d 137b 483f 7be8 783f e743 a23f
00000030: 3b17 473f e396 b93f 6702 cb3f 96f6 a23f

encoder_variable_selection.single_variable_grns.SinWeekly.resample_norm.norm.bias f4 [16]
0.05364247 -0.05471022 -0.23262677 0.040886313 0.06456767 -0.2720536 -0.45270368 -0.2678633
0.033903774 -0.05723752 0.017788416 0.4975181 0.24322553 -0.049034398 0.17887433 0.041838612
00000000: 35b8 5b3d d317 60bd b635 6ebe 6878 273d
00000010: 0e3c 843d 9c4a 8bbe c7c8 e7be 6125 89be
00000020: afde 0a3d e471 6abd 03b9 913c b1ba fe3e
00000030: 1d10 793e 4bd8 48bd d52a 373e f75e 2b3d

encoder_variable_selection.single_variable_grns.SinWeekly.fc1.weight f4 [8, 8]
0.82543886 -1.606644 -0.7379173 -2.6015122 -0.26578987 -0.06068475 0.37106758 0.47201315
0.037638284 0.37262988 -1.1377666 -0.22498989 -0.987641 1.4728427 -1.1734227 -1.8082105
-0.4312618 0.108079806 -0.5678296 0.30678508 -0.9289889 0.5215414 0.7792502 0.11407854
0.38381508 0.054444037 -0.41358203 0.05385738 0.3214167 0.21547313 0.26731467 0.48749602
-0.74401903 0.108716324 1.0250833 0.18608312 0.03798867 0.79770106 0.46791458 -1.1195428
0.696867 -0.20982234 -0.68991005 0.13080044 0.16996369 -0.3916898 -0.20871529 0.25992483
-0.4549388 -0.14035776 -1.7332367 0.46085638 -0.62029934 0.34311858 -0.9893127 -0.69381446
0.4157931 -0.082193844 -0.60867244 0.13627711 0.90341955 0.5085207 -0.040581077 0.42679206
00000000: f64f 533f 83a6 cdbf 26e8 3cbf 2d7f 26c0
00000010: 9c15 88be 9390 78bd 92fc bd3e b5ab f13e
00000020: 9a2a 1a3d 58c9 be3e 56a2 91bf c063 66be
00000030: 0ad6 7cbf 1c86 bc3f b732 96bf 7173 e7bf
00000040: 59ce dcbe f258 dd3d 485d 11bf ef12 9d3e
00000050: 37d2 6dbf bd83 053f f17c 473f 02a2 e93d
00000060: 6983 c43e b600 5f3d 06c1 d3be 8e99 5c3d
00000070: bb90 a43e fda4 5c3e 78dd 883e 1499 f93e
00000080: 0878 3ebf aaa6 de3d ee35 833f 938c 3e3e
00000090: 029a 1b3d 2336 4c3f 8092 ef3e 2e4d 8fbf
000000a0: e065 323f abdb 56be f29d 30bf 8df0 053e
000000b0: f60a 2e3e 918b c8be 76b9 55be de14 853e
000000c0: bded e8be f2b9 0fbe b3da ddbf 5ef5 eb3e
000000d0: f0cb 1ebf 3dad af3e 9943 7dbf d39d 31bf
000000e0: d5e2 d43e 3f55 a8bd f5d1 1bbf 3a8c 0b3e
000000f0: 8146 673f 6a2e 023f 5838 26bd 7d84 da3e

encoder_variable_selection.single_variable_grns.SinWeekly.fc1.bias f4 [8]
-0.318898 -0.31862548 -0.074887544 -0.24890542 -0.05395162 0.020707082 -0.30682617 -0.09412038
00000000: 9946 a3be e122 a3be a45e 99bd 10e1 7ebe
00000010: 60fc 5cbd e6a1 a93c 5218 9dbe 30c2 c0bd

encoder_variable_selection.single_variable_grns.SinWeekly.fc2.weight f4 [8, 8]
-0.99735403 0.30919388 -1.3665226 -0.17774063 -0.13349555 -0.09169876 0.33154815 0.010754372
-0.27217796 -0.020030476 0.22931115 0.0028206215 -0.22828948 0.38453278 0.6042174 0.104790635
0.6108624 -0.5761111 0.27883795 -0.06787943 0.17032965 -0.1964418 0.60999066 0.022125363
0.6602325 0.9442733 0.2650414 -0.04714186 0.021890447 -0.38489604 0.14698848 -0.17165108
-0.5964338 1.406863 -0.5462501 -0.008344663 0.06346941 0.20628417 0.070513256 -0.02319458
0.5136636 -0.3532348 -0.16645491 -0.077259205 -0.28348827 0.4454661 0.018482389 0.0076447735
-0.6275701 -0.4143616 -0.056857243 0.030146537 0.09273995 -0.20128374 -0.35804468 0.02920086
0.9053839 0.16460739 0.19763286 0.107296556 0.091191 -0.069055684 0.8208116 0.13448222
00000000: 9852 7fbf a94e 9e3e 36ea aebf a401 36be
00000010: 0fb3 08be 8fcc bbbd aec0 a93e 1b33 303c
00000020: e95a 8bbe f416 a4bc 8bd0 6a3e 2dda 383b
00000030: b8c4 69be 7be1 c43e fead 1a3f 799c d63d
00000040: 7a61 1c3f 047c 13bf d9c3 8e3e 5f04 8bbd
00000050: e56a 2e3e 0a28 49be 5928 1c3f 4040 b53c
00000060: ff04 293f e5bb 713f 82b3 873e d317 41bd
00000070: 9853 b33c 1811 c5be 2684 163e 4dc5 2fbe
00000080: e3af 18bf 1614 b43f 0cd7 0bbf 0eb8 08bc
00000090: 40fc 813d 283c 533e 4169 903d 8f02 bebc
000000a0: 757f 033f 31db b4be 2873 2abe 133a 9ebd
000000b0: 6025 91be 2214 e43e 6168 973c 0281 fa3b
000000c0: 6fa8 20bf 3427 d4be 24e3 68bd dff5 f63c
000000d0: 71ee bd3d 531d 4ebe a251 b7be a436 ef3c
000000e0: 3dc7 673f d78e 283e 4560 4a3e 4cbe db3d
000000f0: 59c2 ba3d 116d 8dbd b620 523f b5b5 093e

encoder_variable_selection.single_variable_grns.SinWeekly.fc2.bias f4 [8]
0.05329956 -0.26724666 0.103770785 0.1493029 -0.16250062 -0.005910437 -0.27293268 0.25382367
00000000: a450 5a3d 8ed4 88be c785 d43d dce2 183e
00000010: 9066 26be 57ac c1bb d5bd 8bbe 2df5 813e

encoder_variable_selection.single_variable_grns.SinWeekly.gate_norm.glu.fc.weight f4 [32, 8]
0.45724165 -0.015889384 -0.28541273 0.039424695 0.008037386 -0.47288826 -0.17551558 0.08156783
0.4375536 0.38736483 -0.6075143 -0.4428825 0.29564795 -0.37437558 0.5670233 -0.37641472
0.32635424 0.5344364 -0.05502258 0.7147921 0.5146416 -0.2818928 -0.71535665 0.6800457
-0.1628273 -0.27853224 -0.4536324 -0.13889939 0.044745278 0.2611836 -0.048470348 0.3937958
0.2249686 0.08533519 0.11278941 0.37107235 0.12742054 -0.22538845 0.14698143 -0.06572817
-0.021803277 -0.29667225 -0.16634583 -0.08106887 -0.37292135 0.21115877 0.24994244 0.0043146834
0.74653697 0.30224934 -0.8351198 -0.48492175 0.36454633 -0.76645994 0.85145414 -0.81611484
-0.48295283 -0.20516387 0.45286468 0.07109659 -0.07887473 0.18851824 -0.176302 0.42026663
0.21475416 0.4297465 -0.033789787 0.771938 0.66127014 -0.43761823 -0.527883 0.5641767
0.17618078 -0.29442745 -0.04721872 -0.033040963 0.23681474 -0.2826029 -0.14994955 0.13515212
0.21280181 0.03868726 0.15623178 -0.15611435 0.16812754 0.0022863997 -0.18180786 0.113963224
0.29879692 0.5132803 -0.3042517 0.67262244 0.6108876 -0.6003237 -0.6473476 0.90011096
0.5133877 0.22958888 -0.17315862 -0.41674566 0.43532345 -0.57967126 0.7510507 -0.55909497
-0.08654039 -0.36380428 0.40281734 -0.32427856 -0.26425967 0.17394212 0.23690405 0.02945806
-0.30564985 -0.39780173 0.3590528 -0.21722408 -0.2950242 0.34967667 -0.15687515 0.06868745
0.27531472 -0.33150837 -0.3806522 -0.27853084 -0.19885273 -0.31886277 0.31181207 -0.2075965
0.077771656 0.013535618 0.32141218 0.8379761 0.30359066 -0.024535809 -0.08431981 -0.526887
-0.41563526 -1.0979916 0.2370768 -0.13110389 -0.6191925 0.45126113 -0.12714408 -0.08960838
0.3435964 0.08018837 -0.34772947 0.062100153 0.22140771 -0.2058885 -0.0037030405 0.017857991
0.09861379 -0.41182566 0.14601335 0.122002974 0.32548678 0.5081519 -0.6239038 -0.01194459
0.10536221 0.33197546 -0.3125049 -0.46500343 -0.02908915 -0.09612203 0.15899087 0.14476155
0.21929255 0.4739299 -0.08111951 0.5812556 0.5268333 -0.33636138 -0.08021447 -0.11659174
-0.41671032 -0.673836 0.61004823 -0.007660908 -0.6811133 0.5092553 0.032506265 0.35222673
-0.6505654 0.39473674 0.5612379 0.7386014 0.14440681 0.0869518 -0.69063395 0.73157966
0.4905376 0.4826667 -0.56938326 0.392172 0.7948467 -0.5437138 -0.10353951 0.15618281
-0.12219695 -0.1518124 -0.17651218 0.21699792 0.65530425 -0.24096322 -0.24871798 -0.11303538
0.017098501 0.1224459 -0.22047965 -0.1716146 0.57841516 0.17031518 -0.25150377 -0.33998597
0.5771251 0.5284189 -0.6644957 0.20271881 0.4896438 -0.5947122 -0.054401804 0.14215204
-0.30155537 -0.33984694 0.11210285 0.36552382 0.13641949 0.23386621 -0.21792553 0.529168
-0.067274265 0.3058272 -0.46435058 0.27089417 0.6479036 0.019427145 -0.48519912 0.11516777
-0.90609896 -0.58816475 0.37650737 -0.21498077 -0.6605637 0.26063883 -0.20310026 0.38673767
0.44326124 0.08738257 -0.4716608 -0.35270122 -0.12490646 -0.262724 0.31860292 -0.63572526
00000000: 941b ea3e 742a 82bc 9e21 92be ca7b 213d
00000010: 3eaf 033c 691e f2be 5bba 33be 090d a73d
00000020: 0707 e03e af54 c63e 0f86 1bbf 7fc1 e2be
00000030: 2b5f 973e 28ae bfbe 7028 113f 6eb9 c0be
00000040: e717 a73e d3d0 083f 5b5f 61bd 9dfc 363f
00000050: 8dbf 033f 4154 90be 9d21 37bf 7a17 2e3f
00000060: 33bc 26be c79b 8ebe 8242 e8be a43b 0ebe
00000070: d346 373d dbb9 853e d888 46bd 9a9f c93e
00000080: 2b5e 663e 37c4 ae3d 22fe e63d 32fd bd3e
00000090: 887a 023e 3bcc 66be 4d82 163e 7e9c 86bd
000000a0: c99c b2bc 6de5 97be 9056 2abe 7007 a6bd
000000b0: 8cef bebe 013a 583e e9f0 7f3e 3062 8d3b
000000c0: 0c1d 3f3f 6dc0 9a3e 69ca 55bf aa47 f8be
000000d0: d1a5 ba3e b836 44bf e6f8 593f e7ec 50bf
000000e0: 9845 f7be 7a16 52be e1dd e73e 179b 913d
000000f0: 1389 a1bd ed0a 413e 8388 34be 302d d73e
00000100: 84e8 5b3e bc07 dc3e 2967 0abd bb9d 453f
00000110: 0049 293f 7f0f e0be 5723 07bf e26d 103f
00000120: bc68 343e 32bf 96be 6b68 41bd f655 07bd
00000130: 907f 723e 54b1 90be 608c 19be 5165 0a3e
00000140: b8e8 593e 8876 1e3d 39fb 1f3e 71dc 1fbe
00000150: a029 2c3e 6cd7 153b d72b 3abe 8d65 e93d
00000160: e9fb 983e 5666 033f e1c6 9bbe fc30 2c3f
00000170: 2163 1c3f d0ae 19bf 93b8 25bf ac6d 663f
00000180: 606d 033f 5919 6b3e 7e50 31be b05f d5be
00000190: b7e2 de3e 5665 14bf dc44 403f d920 0fbf
000001a0: 173c b1bd 8e44 babe 133e ce3e d707 a6be
000001b0: 0b4d 87be e21d 323e fa96 723e 0852 f13c
000001c0: 237e 9cbe abac cbbe c5d5 b73e fd6f 5ebe
000001d0: 690d 97be d208 b33e e1a3 20be 01ac 8c3d
000001e0: 0df6 8c3e 77bb a9be d8e4 c2be 989b 8ebe
000001f0: 0da0 4bbe fb41 a3be d5a5 9f3e 2d94 54be
00000200: bf46 9f3d 7fc4 5d3c 2390 a43e 9a85 563f
00000210: 3c70 9b3e 52ff c8bc ddaf acbd 11e2 06bf
00000220: 25ce d4be fd8a 8cbf 43c4 723e 1940 06be
00000230: 6683 1ebf b30b e73e 0f32 02be 9984 b7bd
00000240: deeb af3e cd39 a43d 9909 b2be bb5c 7e3d
00000250: b4b8 623e 6fd4 52be b6ae 72bb ec4a 923c
00000260: 07f6 c93d d0da d2be 8684 153e b2dc f93d
00000270: 34a6 a63e 3e16 023f 29b8 1fbf 3eb3 43bc
00000280: 24c8 d73d b0f8 a93e a400 a0be ee14 eebe
00000290: 5e4c eebc a0db c4bd 81ce 223e 5f3c 143e
000002a0: 3a8e 603e f1a6 f23e fc21 a6bd 2bcd 143f
000002b0: 8cde 063f 8f37 acbe 7c47 a4bd a6c7 eebd
000002c0: 0e5b d5be 8480 2cbf 1f2c 1c3f 5b08 fbbb
000002d0: 715d 2ebf 8e5e 023f 4a25 053d 1057 b43e
000002e0: 748b 26bf ef1a ca3e 49ad 0f3f fb14 3d3f
000002f0: 61df 133e c913 b23d 63cd 30bf ce48 3b3f
00000300: bf27 fb3e 1720 f73e 1ac3 11bf c5ca c83e
00000310: 137b 4b3f d430 0bbf 860c d4bd 63ee 1f3e
00000320: 6542 fabd b674 1bbe 9cbf 34be b434 5e3e
00000330: 05c2 273f 10bf 76be edaf 7ebe 187f e7bd
00000340: 2812 8c3c ebc4 fa3d 6bc5 61be bdbb 2fbe
00000350: 0413 143f 1a67 2e3e 1ac5 80be a412 aebe
00000360: 78be 133f 7646 073f 641c 2abf 8595 4f3e
00000370: 98b2 fa3e 0f3f 18bf 6dd4 5ebd 4e90 113e
00000380: 7765 9abe 6b00 aebe 2e96 e53d f025 bb3e
00000390: 8db1 0b3e a07a 6f3e df27 5fbe 8e77 073f
000003a0: 17c7 89bd 6295 9c3e 5cbf edbe a4b2 8a3e
000003b0: 03dd 253f ad25 9f3c 056c f8be 14dd eb3d
000003c0: 1af6 67bf f791 16bf 93c5 c03e eb23 5cbe
000003d0: b41a 29bf 7472 853e 84f9 4fbe 7b02 c63e
000003e0: 23f3 e23e a2f5 b23d 867d f1be 4195 b4be
000003f0: f5ce ffbd c383 86be ec1f a33e e4be 22bf

encoder_variable_selection.single_variable_grns.SinWeekly.gate_norm.glu.fc.bias f4 [32]
0.17778863 0.0004924666 -0.028163103 -0.09793662 0.1146686 -0.35074717 -0.5237346 -0.49107334
0.065377824 -0.010679734 0.13296573 0.6077631 0.48512378 -0.19755849 0.17765446 0.028094547
-0.50701123 0.6548987 0.2837753 -1.1825812 -0.5089654 -0.28289735 0.64095014 -0.24565078
0.17922893 -1.2684095 -1.3329877 -0.059036117 -0.9163748 -0.8567637 0.04289066 -0.030072872
00000000: 390e 363e e018 013a 4fb6 e6bc ff92 c8bd
00000010: 5fd7 ea3d 2295 b3be 7913 06bf f76d fbbe
00000020: cfe4 853d 0dfa 2ebc 2b28 083e 5d96 1b3f
00000030: 2562 f83e c64c 4abe 0deb 353e 8926 e63c
00000040: 7dcb 01bf 71a7 273f ff4a 913e d25e 97bf
00000050: 8e4b 02bf ecd7 90be 4f15 243f e18b 7bbe
00000060: ca87 373e 3e5b a2bf 579f aabf dbcf 71bd
00000070: 8a97 6abf de54 5bbf 1eae 2f3d 625b f6bc

encoder_variable_selection.single_variable_grns.SinWeekly.gate_norm.add_norm.norm.weight f4 [16]
-0.0772565 0.80002964 2.0362225 0.14208601 0.33394524 0.73715645 1.6763793 0.3372083
0.8839779 0.5811081 0.9487652 1.6724223 0.97608006 1.1805131 0.9002624 1.339796
00000000: a838 9ebd bece 4c3f 7851 0240 ff7e 113e
00000010: dffa aa3e 49b6 3c3f 9993 d63f 91a6 ac3e
00000020: 604c 623f 80c3 143f 47e2 723f ef11 d63f
00000030: 62e0 793f 0e1b 973f 9977 663f 6f7e ab3f

encoder_variable_selection.single_variable_grns.SinWeekly.gate_norm.add_norm.norm.bias f4 [16]
0.015632953 0.06596713 0.029770361 0.27545246 0.09038005 -0.1661602 -0.3823889 -0.087929636
-0.051544562 -0.07837121 -0.22269408 0.16069235 0.07336253 0.054789547 0.15323605 0.18578343
00000000: ae10 803c c619 873d f9e0 f33c 1b08 8d3e
00000010: 2d19 b93d e625 2abe 7ac8 c3be 7414 b4bd
00000020: 6420 53bd 1681 a0bd eb09 64be 898c 243e
00000030: 183f 963d 016b 603d e9e9 1c3e 033e 3e3e

encoder_variable_selection.single_variable_grns.VaccinationFull.resample_norm.mask f4 [16]
-0.83511156 -0.052816823 0.28388724 -0.93375176 0.7695256 -0.43214875 -1.0085279 0.69867504
-0.033508904 -0.7570388 -0.22962533 0.3942873 0.30404422 0.48411098 0.37706462 -0.20681089
00000000: dfc9 55bf 7456 58bd ab59 913e 5b0a 6fbf
00000010: a1ff 443f 9a42 ddbe 7117 81bf 5edc 323f
00000020: a240 09bd 4bcd 41bf e722 6bbe 06e0 c93e
00000030: afab 9b3e 65dd f73e 9d0e c13e 3cc6 53be

encoder_variable_selection.single_variable_grns.VaccinationFull.resample_norm.norm.weight f4 [16]
0.48000938 1.0271099 1.4510059 0.39845887 1.9237087 0.63096535 -0.089164056 1.8996644
1.218539 0.43494204 0.83845013 1.409374 1.2751584 1.4860098 1.249278 0.77725124
00000000: cac3 f53e 5678 833f 90ba b93f cd02 cc3e
00000010: 163c f63f f286 213f a59b b6bd 3428 f33f
00000020: 16f9 9b3f b9b0 de3e aba4 563f 5e66 b43f
00000030: 6438 a33f 9235 be3f 57e8 9f3f f0f9 463f

encoder_variable_selection.single_variable_grns.VaccinationFull.resample_norm.norm.bias f4 [16]
-0.04754645 0.15887192 0.4313299 0.17962894 0.0017611432 -0.33702567 -0.5470001 0.3093457
-0.11745942 -0.039026793 0.0064726705 0.16230226 0.11572918 -0.23535722 0.074487336 0.13883828
00000000: 11c0 42bd 52af 223e 46d7 dc3e a6f0 373e
00000010: 29d6 e63a a18e acbe 3308 0cbf 8f62 9e3e
00000020: 908e f0bd 8fda 1fbd b218 d43b 9032 263e
00000030: 6c03 ed3d 7c01 71be d18c 983d 9f2b 0e3e

encoder_variable_selection.single_variable_grns.VaccinationFull.fc1.weight f4 [8, 8]
0.2983158 -0.7608576 -1.0266854 -0.10248858 1.1096117 0.23997779 -0.5476745 -0.016095556
0.12377115 -0.46135527 -1.1818253 -1.1699257 0.20305887 0.45058787 1.5875181 0.512731
-0.08442963 -0.6720561 -0.47893256 -0.6386418 -0.3236342 1.1431795 0.8778975 0.22983348
-0.060947042 -0.83329725 -0.58692646 0.23341759 -0.77282965 0.7816838 0.2860727 0.0782242
0.18909632 0.5914338 0.06649947 0.4418805 0.006611588 0.3631658 0.53001964 0.7568374
-0.035561066 0.9097893 0.42838907 -0.12604402 -0.5677275 -0.948398 -0.9089294 -1.8009286
-0.71059203 -0.1420693 -0.30337325 0.17127922 1.3017317 0.09602232 0.34351152 0.29762062
0.30762553 0.11796337 -0.5137711 -0.14956273 -0.4559736 -1.1774732 -0.3074615 -1.4971288
00000000: d9bc 983e 90c7 42bf 6d6a 83bf 88e5 d1bd
00000010: c207 8e3f bdbc 753e 6534 0cbf d4da 83bc
00000020: bb7b fd3d c236 ecbe 0d46 97bf 20c0 95bf
00000030: aaee 4f3e 74b3 e63e cb33 cb3f 5742 033f
00000040: 71e9 acbd de0b 2cbf a636 f5be 077e 23bf
00000050: 62b3 a5be b553 923f e4bd 603f 7859 6b3e
00000060: 9ba3 79bd f852 55bf d040 16bf 0505 6f3e
00000070: 2ad8 45bf 6e1c 483f 1f78 923e 0234 a03d
00000080: 77a2 413e 3568 173f e030 883d 293e e23e
00000090: 05a6 d83b def0 b93e 5eaf 073f 19c0 413f
000000a0: 7ba8 11bd f4e7 683f d055 db3e af11 01be
000000b0: 9756 11bf 36ca 72bf 99af 68bf d484 e6bf
000000c0: 5ce9 35bf 9d7a 11be bd53 9bbe d263 2f3e
000000d0: 259f a63f 5aa7 c43d bee0 af3e bb61 983e
000000e0: 1881 9d3e c896 f13d 8186 03bf f926 19be
000000f0: 5f75 e9be 71b7 96bf 986b 9dbe eba1 bfbf

encoder_variable_selection.single_variable_grns.VaccinationFull.fc1.bias f4 [8]
0.54877466 0.20370488 0.028971747 0.019339802 0.03389069 -0.42016828 0.23961946 -0.14877494
00000000: 7f7c 0c3f 0398 503e 2856 ed3c 816e 9e3c
00000010: f7d0 0a3d 4c20 d7be ce5e 753e 7558 18be

encoder_variable_selection.single_variable_grns.VaccinationFull.fc2.weight f4 [8, 8]
-0.54314667 0.30803224 -0.007921113 -0.45492002 -0.6539522 0.48311418 -0.8237498 0.2610196
1.0515816 -1.0536188 -0.7477954 -0.15761657 -0.48988745 -0.8353375 0.49910837 -0.25446653
-2.1077545 0.1772957 0.04276685 0.344912 -0.14191881 0.4639561 -0.12579739 0.53396976
0.15196301 0.360478 0.6102747 -0.4088666 0.51540995 -0.76191884 -0.16353413 -0.14707647
-0.52047706 -0.08023049 0.39721942 -0.23857708 0.44298694 0.5988724 -1.0743884 0.96278614
-0.3397309 0.9089465 0.9549514 0.35368198 0.116829604 0.21680859 -0.2018444 -0.8498028
0.714791 0.05935132 0.0644669 0.760301 0.1499405 -0.7321318 -0.14928456 0.03755094
-0.4056613 0.8939375 0.73804355 0.2713172 -0.50489223 -0.24896374 -0.11153922 -0.20957819
00000000: a90b 0bbf 67b6 9d3e 8ec7 01bc 47eb e8be
00000010: 6969 27bf be5a f73e 44e1 52bf 5ca4 853e
00000020: 3a9a 863f fbdc 86bf 856f 3fbf 3d66 21be
00000030: 87d2 fabe aed8 55bf 228b ff3e 7049 82be
00000040: 73e5 06c0 018d 353e 4b2c 2f3d 4e98 b03e
00000050: 2a53 11be a78b ed3e 08d1 00be 3eb2 083f
00000060: 319c 1b3e 9390 b83e f63a 1c3f f756 d1be
00000070: e8f1 033f 1d0d 43bf 7e75 27be 379b 16be
00000080: fc3d 05bf e24f a4bd 5860 cb3e 8d4d 74be
00000090: 2fcf e23e b44f 193f 8f85 89bf 2779 763f
000000a0: 35f1 adbe b8b0 683f b277 743f ce15 b53e
000000b0: 5c44 ef3d 1203 5e3e 4cb0 4ebe ad8c 59bf
000000c0: 8bfc 363f 5f1a 733d 3907 843d 16a3 423f
000000d0: 018a 193e fd6c 3bbf 0dde 18be 04cf 193d
000000e0: d7b2 cfbe 17d9 643f 6cf0 3c3f 17ea 8a3e
000000f0: 9e40 01bf 5af0 7ebe ad6e e4bd aa9b 56be

encoder_variable_selection.single_variable_grns.VaccinationFull.fc2.bias f4 [8]
-0.3762557 0.40275654 -0.5504473 -0.18853693 -0.164742 -0.06155097 0.32164928 -0.121666275
00000000: 96a4 c0be 1b36 ce3e 1dea 0cbf d30f 41be
00000010: 20b2 28be df1c 7cbd 37af a43e 2b2c f9bd

encoder_variable_selection.single_variable_grns.VaccinationFull.gate_norm.glu.fc.weight f4 [32, 8]
-0.5228549 0.9722185 -0.21455689 0.40979195 -0.5215306 0.29278186 0.14205386 -0.01604179
-0.20019804 0.72845614 -0.38770363 -0.53211755 0.4044579 -0.6435827 -0.2213677 -0.7731475
0.027216837 0.057156693 0.37169063 -0.005713415 0.0714959 0.22537918 -0.14569499 0.0053598424
-1.3619679 1.0477493 -1.289741 0.7865997 -1.1712117 0.6135654 0.8910542 0.56130147
1.1925273 -0.7329619 1.2765925 -1.7139069 1.5594647 -1.8535445 -1.3481417 -1.7240739
0.1044985 -0.015651606 0.46920183 -0.15773393 -0.3049303 -0.067860685 -0.22588326 0.097924866
-0.33560246 0.018947834 0.20547725 0.42977673 -0.08366787 0.52962196 0.32487077 0.3763497
-0.42922086 0.9355526 -0.31584668 -0.32711768 0.08773866 -0.3703639 0.32474583 -0.43929538
-0.58364147 1.0045979 -0.39822862 0.12318074 -0.41891226 -0.0072992556 0.50414485 0.12489303
0.34870017 0.27049735 0.18067317 -0.8057197 0.3459076 -0.549965 -0.6591389 -0.6535618
0.12671456 -0.5979041 0.2625634 -0.27943948 0.32559595 0.062493876 0.11998435 0.10555145
-0.17887548 0.17294022 0.028151125 0.24543177 -0.044621173 0.002543774 -0.022604054 0.11019776
-0.13623047 0.015349988 -0.27562118 -0.10974123 -0.17243671 -0.07440741 0.08565024 -0.13505536
0.115099646 -1.0802008 0.22674924 0.37390998 -0.02181574 0.36422792 0.25855207 0.16412671
-0.4088201 0.3411496 -0.1213987 0.049730133 -0.35603508 0.2099356 0.077318236 0.23638423
-0.36323732 0.17865688 0.097260565 0.03320924 0.068474144 0.020633396 0.3021708 0.12590006
0.39302492 -0.22815453 0.10293698 -0.821092 0.2820799 -0.14453489 -0.3259199 -0.8050188
0.37672594 -0.16255136 0.3989068 -0.406011 0.88247275 -0.33869198 -1.3099866 -0.27568933
-0.2530207 0.6313305 -0.76901716 0.30563375 -0.60148627 0.10016121 0.9611902 0.38112524
0.31057325 -0.04944708 0.18689477 0.012073658 0.28740323 -0.03553966 -0.25895357 -0.06569886
-0.21631862 -0.29668 0.031134743 0.8671902 -0.09499922 1.0837921 0.09485934 1.7640504
0.4504017 -0.5330249 0.51347965 0.05613361 -0.11437481 0.23736854 -0.51755434 0.0077577084
-0.14563625 0.894277 -0.3454112 -0.06450148 0.001063453 -0.21965691 -0.22564872 -0.31088486
-0.2312232 0.46222213 0.204142 -0.099152155 -0.34505257 -1.2304565 -0.38981718 -0.5553486
-0.24413007 0.7063853 -0.46338153 -0.026661644 -0.14733987 -0.31157154 0.4929223 -0.29650968
0.14404011 -0.07086538 0.28088453 -1.0284772 1.1030824 -0.29419318 -1.1279329 -0.5441428
0.05018113 -0.094738655 0.15620582 -0.99796206 0.711776 -0.31849343 -0.37137154 -0.43006814
0.4194821 0.009324363 0.36953834 0.4533558 0.07726868 0.18199202 -0.30329043 0.04462937
0.6231225 -0.02682108 0.20009121 0.35387036 0.53612363 0.6122334 -0.54861873 -0.023779647
0.71922237 -1.068848 0.6810236 -0.14787102 0.3975742 -0.18161203 -0.6580542 -0.064033285
0.17517303 0.19944818 -0.2239759 0.068280645 -0.29950354 -0.920652 0.16255973 -0.5077699
0.007979445 1.0239439 0.24056016 0.58463883 -0.7460907 -0.5630095 0.25250843 -0.24663903
00000000: d2d9 05bf 50e3 783f cdb4 5bbe 40d0 d13e
00000010: 0883 05bf 81e7 953e 9176 113e 126a 83bc
00000020: b700 4dbe 1a7c 3a3f 1781 c6be db38 08bf
00000030: 1b15 cf3e d6c1 24bf 37ae 62be ffec 45bf
00000040: d8f5 de3c 231d 6a3d 3c4e be3e 9937 bbbb
00000050: 716c 923d cdc9 663e 1131 15be 9ea1 af3b
00000060: f754 aebf a61c 863f 3c16 a5bf 995e 493f
00000070: 44ea 95bf 9f12 1d3f 211c 643f 74b1 0f3f
00000080: bca4 983f 64a3 3bbf 6267 a33f 4d61 dbbf
00000090: 8a9c c73f f240 edbf e88f acbf 74ae dcbf
000000a0: 4f03 d63d cc37 80bc 393b f03e 0185 21be
000000b0: d31f 9cbe 8bfa 8abd f14d 67be d58c c83d
000000c0: 16d4 abbe 7d38 9b3c a168 523e b20b dc3e
000000d0: 0f5a abbd 4e95 073f 7655 a63e e8b0 c03e
000000e0: d6c2 dbbe 6080 6f3f a8b6 a1be f87b a7be
000000f0: 54b0 b33d 56a0 bdbe 1645 a63e 53eb e0be
00000100: 8769 15bf aa96 803f 9fe4 cbbe 2f46 fc3d
00000110: ab7b d6be 982e efbb a30f 013f ebc7 ff3d
00000120: d488 b23e a17e 8a3e 6302 393e a543 4ebf
00000130: cd1a b13e 82ca 0cbf 54bd 28bf d34f 27bf
00000140: 76c1 013e 3e10 19bf b66e 863e b112 8fbe
00000150: 83b4 a63e 94f9 7f3d 5bba f53d 5c2b d83d
00000160: 222b 37be 3e17 313e 309d e63c 7752 7b3e
00000170: b1c4 36bd 72b5 263b 232c b9bc 5daf e13d
00000180: 0080 0bbe 847e 7b3c 381e 8dbe 03c0 e0bd
00000190: 4093 30be ea62 98bd 6569 af3d f44b 0abe
000001a0: 5db9 eb3d 0544 8abf f430 683e 2171 bf3e
000001b0: ecb6 b2bc 157c ba3e f060 843e d510 283e
000001c0: de50 d1be 29ab ae3e e29f f8bd d3b1 4b3d
000001d0: 3b4a b6be 5cf9 563e 0659 9e3d b50e 723e
000001e0: 3efa b9be d4f1 363e 8c30 c73d 6906 083d
000001f0: 2c3c 8c3d 5e07 a93c 22b6 9a3e f2eb 003e
00000200: 903a c93e 57a1 69be a0d0 d23d 1633 52bf
00000210: c76c 903e f400 14be f9de a6be b615 4ebf
00000220: 39e2 c03e dd73 26be 833d cc3e ace0 cfbe
00000230: bce9 613f 0969 adbe a4ad a7bf 2727 8dbe
00000240: ee8b 81be e09e 213f 4fde 44bf 077c 9c3e
00000250: 01fb 19bf 5221 cd3d 9010 763f d922 c33e
00000260: 7503 9f3e 0589 4abd 5861 3f3e 98d0 453c
00000270: 8426 933e 0992 11bd 9095 84be 208d 86bd
00000280: a182 5dbe 71e6 97be 4a0e ff3c 2d00 5e3f
00000290: f38e c2bd b3b9 8a3f 9d45 c23d 67cc e13f
000002a0: 0d9b e63e 5274 08bf 6773 033f 5bec 653d
000002b0: 573d eabd bd10 733e 717e 04bf 6034 fe3b
000002c0: ab21 15be 56ef 643f bdd9 b0be 5a19 84bd
000002d0: 9063 8b3a beed 60be 7510 67be 4d2c 9fbe
000002e0: c6c5 6cbe 61a8 ec3e 9a0a 513e 4910 cbbd
000002f0: bbaa b0be 997f 9dbf 1e96 c7be 532b 0ebf
00000300: 3cfd 79be abd5 343f 5840 edbe 8569 dabc
00000310: 43e0 16be 4e86 9fbe 5060 fc3e 1ed0 97be
00000320: 407f 133e de21 91bd 19d0 8f3e 24a5 83bf
00000330: ce31 8d3f 7da0 96be 1b60 90bf f14c 0bbf
00000340: bb8a 4d3d 5706 c2bd 6bf4 1f3e 717a 7fbf
00000350: f436 363f 9211 a3be 6924 bebe e431 dcbe
00000360: 5cc6 d63e 37c5 183c 2134 bd3e 401e e83e
00000370: 0b3f 9e3d 1e5c 3a3e e248 9bbe 49cd 363d
00000380: f584 1f3f e2b7 dbbc b6e4 4c3e 7f2e b53e
00000390: 663f 093f 54bb 1c3f 4772 0cbf 89cd c2bc
000003a0: f51e 383f 03d0 88bf 9057 2e3f 806b 17be
000003b0: d88e cb3e 81f8 39be 3d76 28bf e223 83bd
000003c0: 8f60 333e 253c 4c3e f059 65be b9d6 8b3d
000003d0: 8758 99be d9af 6bbf 0f76 263e 35fd 01bf
000003e0: 38bc 023c 9810 833f 6755 763e e4aa 153f
000003f0: cdff 3ebf 6421 10bf c948 813e f18e 7cbe

encoder_variable_selection.single_variable_grns.VaccinationFull.gate_norm.glu.fc.bias f4 [32]
0.23590632 0.9421308 -0.6240426 -0.10338461 -1.0814655 -0.33658814 -0.23403224 0.4738816
0.32107565 0.6214568 -0.1164871 0.057532217 -0.16450787 -0.6766294 -0.18284526 0.07915882
-0.09805898 0.44259542 0.22429803 -0.016704097 -0.41267064 -1.1759908 1.1425148 0.3076064
0.71627253 0.56528896 -0.055854235 -1.5501572 -1.0433099 -0.5007437 0.1249091 0.2849924
00000000: 6d91 713e 7c2f 713f 41c1 1fbf 4fbb d3bd
00000010: 766d 8abf 4855 acbe 26a6 6fbe 9ca0 f23e
00000020: 0764 a43e cb17 1f3f ca90 eebd e7a6 6b3d
00000030: c074 28be 9637 2dbf ca3b 3bbe 051e a23d
00000040: 26d3 c8bd de9b e23e 62ae 653e 08d7 88bc
00000050: 9149 d3be de86 96bf ed3d 923f 967e 9d3e
00000060: a35d 373f c7b6 103f 69c7 64bd 8d6b c6bf
00000070: 2e8b 85bf bd30 00bf 58d0 ff3d 86ea 913e

encoder_variable_selection.single_variable_grns.VaccinationFull.gate_norm.add_norm.norm.weight f4 [16]
0.49597934 1.3813812 0.5681077 0.9839166 1.1371963 0.4637618 0.6837493 1.384904
1.0981026 0.8529632 -0.22777995 0.9263434 0.5031913 0.88497025 0.75732833 0.24613027
00000000: 01f1 fd3e 19d1 b03f 826f 113f f5e1 7b3f
00000010: a68f 913f 3072 ed3e 320a 2f3f 8944 b13f
00000020: a08e 8c3f cc5b 5a3f 263f 69be d724 6d3f
00000030: 25d1 003f 698d 623f 45e0 413f 9309 7c3e

encoder_variable_selection.single_variable_grns.VaccinationFull.gate_norm.add_norm.norm.bias f4 [16]
-0.09570816 0.13908324 0.31346902 0.25449878 0.005561562 -0.19234012 -0.22873522 -0.20154174
-0.043676782 -0.0039256117 -0.18639208 0.37762704 0.0077244616 0.03093514 0.07263653 0.22364391
00000000: a402 c4bd d66b 0e3e 037f a03e aa4d 823e
00000010: c33d b63b cff4 44be 9139 6abe f560 4ebe
00000020: 6de6 32bd 6ba2 80bb 91dd 3ebe 5558 c13e
00000030: 7b1d fd3b b16b fd3c 76c2 943d e902 653e

encoder_variable_selection.single_variable_grns.Cases.resample_norm.mask f4 [16]
0.5106593 0.018000696 -2.1445756 -0.23789786 -0.31876934 0.58698386 0.04200581 -0.78078234
-1.6823808 0.6002357 0.3289677 -0.09801179 -0.89383817 -0.45921504 0.5392483 -0.08769613
00000000: 91ba 023f 3276 933c ba40 09c0 7f9b 73be
00000010: bc35 a3be 9344 163f 490e 2c3d 5ae1 47bf
00000020: 4158 d7bf 0ca9 193f 746e a83e 68ba c8bd
00000030: 94d2 64bf 3c1e ebbe 2d0c 0a3f 079a b3bd

encoder_variable_selection.single_variable_grns.Cases.resample_norm.norm.weight f4 [16]
1.4569265 1.4954273 0.58088213 1.25366 0.9158353 1.6597724 1.5004526 1.0356303
0.50232536 1.8924717 1.4588286 0.884714 0.40341175 0.7714685 1.988375 1.1962057
00000000: 917c ba3f 296a bf3f b1b4 143f ee77 a03f
00000010: 2f74 6a3f 6c73 d43f d50e c03f 898f 843f
00000020: 6598 003f 833c f23f e5ba ba3f 9e7c 623f
00000030: fc8b ce3e f67e 453f 1283 fe3f 451d 993f

encoder_variable_selection.single_variable_grns.Cases.resample_norm.norm.bias f4 [16]
0.31212434 0.26485842 -0.37511906 -0.2665609 0.13927574 -0.23653735 -0.45324013 0.0060469615
-0.14684315 0.023085756 0.13011257 -0.1049777 -0.103817895 -0.24612743 0.10105115 0.61534876
00000000: c3ce 9f3e 869b 873e 9b0f c0be ac7a 88be
00000010: 4d9e 0e3e d936 72be 170f e8be 9725 c63b
00000020: 0d5e 16be 571e bd3c 3b3c 053e 8cfe d6bd
00000030: 7a9e d4bd d408 7cbe e8f3 ce3d 7f87 1d3f

encoder_variable_selection.single_variable_grns.Cases.fc1.weight f4 [8, 8]
-0.08232974 1.6919805 0.23561332 -0.73642176 -0.70352095 0.40057728 -0.22614005 -0.5361526
0.444626 0.7116395 -0.17214713 -2.5096717 -1.2955855 0.09542744 0.18602683 -0.12354097
1.2578173 0.010891296 -0.13220726 0.05094532 0.02198958 0.027194487 -0.88711053 0.6499882
-0.65319663 0.07804341 0.85294724 0.20208117 0.61631936 -0.06674384 0.30173147 0.69493073
-0.2676394 -0.21686016 0.16671337 0.12060784 0.19289142 0.059174806 0.1330755 0.29121637
-0.12104967 0.20498736 0.15357645 -1.8452592 -0.7491876 0.55034184 0.009058735 0.7484019
0.24845685 0.19017863 0.07040319 0.5955032 -1.2168607 0.044964906 0.36219904 -0.3144223
-0.1791393 -0.42779523 -0.48272285 -0.7316177 -0.11597949 -0.012520885 -0.6895983 1.6873044
00000000: 7f9c a8bd d192 d83f 9e44 713e 2386 3cbf
00000010: f319 34bf 7718 cd3e 4291 67be 4c41 09bf
00000020: 05a6 e33e 022e 363f 5647 30be 769e 20c0
00000030: bfd5 a5bf 766f c33d d17d 3e3e 0c03 fdbd
00000040: 2800 a13f 6871 323c 5761 07be 0aac 503d
00000050: 7e23 b43c f9c6 de3c ad19 63bf a065 263f
00000060: e537 27bf 39d5 9f3d c05a 5a3f 5eee 4e3e
00000070: 1bc7 1d3f ffb0 88bd 8c7c 9a3e fbe6 313f
00000080: 0808 89be 9710 5ebe e9b6 2a3e 3e01 f73d
00000090: 5485 453e 4861 723d f244 083e 501a 953e
000000a0: e4e8 f7bd 35e8 513e 2543 1d3e 7431 ecbf
000000b0: c2ca 3fbf 34e3 0c3f 176b 143c 4497 3f3f
000000c0: 796b 7e3e 30be 423e 8c2f 903d e672 183f
000000d0: 17c2 9bbf 1f2d 383d 2772 b93e f6fb a0be
000000e0: 4b70 37be fa07 dbbe 7327 f7be 4c4b 3bbf
000000f0: a886 edbd 6624 4dbc 8489 30bf 97f9 d73f

encoder_variable_selection.single_variable_grns.Cases.fc1.bias f4 [8]
-0.34250098 -0.2956486 0.007180575 -0.49560177 -0.25884357 -0.26938003 -0.4066342 -0.20522156
00000000: 4a5c afbe 415f 97be 074b eb3b 84bf fdbe
00000010: 2587 84be 2eec 89be 5c32 d0be 9a25 52be

encoder_variable_selection.single_variable_grns.Cases.fc2.weight f4 [8, 8]
0.10194533 1.1389272 0.23963669 -0.34332174 0.48252237 0.04178253 0.86545706 0.21021949
-0.3090354 0.15895121 -0.33077365 -0.13774736 -0.01984181 0.23060074 -0.03751346 -1.0603232
-0.22395018 -0.5243376 -0.87591887 0.10883353 0.5251073 -0.29287603 -0.46768966 0.85707
-0.4428459 -0.8390241 -0.43823567 -0.48387653 0.38888535 -0.84477454 -0.5186743 -0.17282447
0.46003044 0.49864325 0.33472562 0.3270163 0.51524806 -0.3561689 -0.0068144775 0.3768939
0.53425735 0.15895791 0.7961942 0.20575127 -0.38080606 0.14003548 0.15145294 0.043637928
-0.701376 -0.40694532 -0.49611372 0.34748748 -0.06563938 -0.31196037 0.6014414 0.1736573
0.55877686 0.8719441 0.17849657 -0.12978162 0.0657706 0.05143724 -0.12183939 0.18566501
00000000: b7c8 d03d 5ec8 913f 5263 753e dec7 afbe
00000010: 2c0d f73e 2824 2b3d 988e 5d3f c743 573e
00000020: e339 9ebe 1bc4 223e 2a5b a9be a50d 0dbe
00000030: 4b8b a2bc 9a22 6c3e b7a7 19bd acb8 87bf
00000040: 3253 65be fd3a 06bf 383c 60bf 1de4 de3d
00000050: 6f6d 063f d9f3 95be 0575 efbe f168 5b3f
00000060: b3bc e2be 49ca 56bf 6d60 e0be aabe f7be
00000070: fb1b c73e 2543 58bf d7c7 04bf e6f8 30be
00000080: 1c89 eb3e 2b4e ff3e 2861 ab3e ae6e a73e
00000090: 4ce7 033f c55b b6be fb4b dfbb 3df8 c03e
000000a0: 17c5 083f ddc5 223e 62d3 4b3f 76b0 523e
000000b0: 03f9 c2be 7665 0f3e 7b16 1b3e afbd 323d
000000c0: 618d 33bf 235b d0be 9e02 febe e1e9 b13e
000000d0: f06d 86bd 45b9 9fbe 10f8 193f 38d3 313e
000000e0: 000c 0f3f bb37 5f3f cec7 363e 79e5 04be
000000f0: bdb2 863d dbaf 523d ee86 f9bd f81e 3e3e

encoder_variable_selection.single_variable_grns.Cases.fc2.bias f4 [8]
-0.23455082 -0.04815826 0.10864358 0.27245808 0.089881785 -0.059843823 0.07777947 -0.10635933
00000000: 172e 70be 9841 45bd 8680 de3d a07f 8b3e
00000010: f113 b83d cc1e 75bd d84a 9f3d ecd2 d9bd
