Archives/TFT-pytorch/results/age_subgroup_old/AGE5064/checkpoints/best-epoch=0.ckpt (torch, 702583 bytes, 506 tensors)

prescalers.AGE5064.weight f4 [8, 1]
-0.069348246 -0.3873216 0.3525794 0.31774184 -0.51562357 -0.14233534 -0.61296564 0.19807568
00000000: 7406 8ebd 044f c6be 4a85 b43e 0faf a23e
00000010: e8ff 03bf 5bc0 11be 51eb 1cbf 5ad4 4a3e

prescalers.AGE5064.bias f4 [8]
-0.248349 0.5176033 0.8408413 0.20805049 -0.4747297 -0.6459527 -0.2980302 -0.03170987
00000000: 334f 7ebe a681 043f 6041 573f 300b 553e
00000010: c50f f3be 285d 25bf 6a97 98be 35e2 01bd

prescalers.SinWeekly.weight f4 [8, 1]
0.18907769 -1.0442506 0.9006525 -0.9612523 0.67096454 -0.27353835 0.73328424 0.45959145
00000000: 959d 413e 01aa 85bf 2a91 663f a114 76bf
00000010: 55c4 2b3f 380d 8cbe 84b8 3b3f 924f eb3e

prescalers.SinWeekly.bias f4 [8]
0.100675136 0.05154108 0.7301197 0.3081258 0.5301289 -0.72564125 0.6281204 0.38111874
00000000: c42e ce3d bd1c 533d 20e9 3a3f aac2 9d3e
00000010: 87b6 073f a0c3 39bf 80cc 203f ff21 c33e

prescalers.VaccinationFull.weight f4 [8, 1]
0.36239937 0.11266759 0.69235003 0.87405705 -0.23595339 -0.74445784 -0.52339554 -0.57767093
00000000: 698c b93e 44be e63d da3d 313f 34c2 5f3f
00000010: c49d 71be ca94 3ebf 40fd 05bf 3ee2 13bf

prescalers.VaccinationFull.bias f4 [8]
0.57021004 -0.47655073 -0.4607924 1.1320838 0.9351526 0.061209805 -0.18643834 0.07127911
00000000: 49f9 113f 75fe f3be fbec ebbe 1fe8 903f
00000010: 2966 6f3f 22b7 7a3d b1e9 3ebe c8fa 913d

prescalers.Cases.weight f4 [8, 1]
0.6257505 -1.0569632 -0.8878687 0.60552007 1.2286439 0.042540867 -0.6512619 0.2672309
00000000: 2f31 203f 924a 87bf 5d4b 63bf 5d03 1b3f
00000010: 3444 9d3f 553f 2e3d 1ab9 26bf 7dd2 883e

prescalers.Cases.bias f4 [8]
-0.5783185 -0.05743219 0.52439696 0.30409393 -0.008238289 -0.15303521 0.47678638 -0.93093693
00000000: ae0c 14bf 043e 6bbd e13e 063f 33b2 9b3e
00000010: e3f9 06bc 43b5 1cbe 581d f43e e251 6ebf

static_variable_selection.single_variable_grns.AGE5064.resample_norm.mask f4 [16]
-0.20110554 -0.26574215 -0.21400687 0.0046838336 0.120656386 0.16588607 0.2518503 -0.079584606
0.12825671 0.03402697 -0.108807765 0.08932283 0.14329113 0.10615987 -0.13772872 -0.17088215
00000000: 9cee 4dbe 5b0f 88be 9e24 5bbe d87a 993b
00000010: b21a f73d 0ade 293e 86f2 803e 41fd a2bd
00000020: ba55 033e dd5f 0b3d 9bd6 debd e3ee b63d
00000030: e9ba 123e 596a d93d c208 0dbe bbfb 2ebe

static_variable_selection.single_variable_grns.AGE5064.resample_norm.norm.weight f4 [16]
0.7947847 0.7763782 0.90390724 1.0554355 1.1806785 1.2076131 1.2045056 1.0073605
1.1287872 1.0657487 1.0042202 1.1357946 1.1307352 1.1517649 0.8484193 0.90497243
00000000: 0377 4b3f b9c0 463f 7766 673f 8318 873f
00000010: 7920 973f 1193 9a3f 3d2d 9a3f 30f1 803f
00000020: 197c 903f 746a 883f 4a8a 803f b861 913f
00000030: eebb 903f 086d 933f 0232 593f 46ac 673f

static_variable_selection.single_variable_grns.AGE5064.resample_norm.norm.bias f4 [16]
0.12796476 -0.22441359 -0.063836835 0.087856025 0.074227266 0.11507549 0.055017468 -0.043065317
-0.077309504 -0.038997374 -0.03825269 -0.1565355 -0.045717467 -0.2107569 0.07342662 0.14234145
00000000: 3209 033e adcc 65be e3bc 82bd dced b33d
00000010: 7704 983d b3ac eb3d ff59 613d 4265 30bd
00000020: 7254 9ebd b6bb 1fbd daae 1cbd d84a 20be
00000030: 3d42 3bbd a8d0 57be b260 963d f5c1 113e

static_variable_selection.single_variable_grns.AGE5064.fc1.weight f4 [8, 8]
0.39018798 -0.45518547 -0.55686134 -0.48326233 -0.20329416 -1.434101 0.26183987 -0.53257555
-0.6471875 -0.7557107 -0.19110508 0.389066 -0.0041287146 -0.45669624 0.9256066 -0.18689455
0.24079919 0.18892506 0.62150264 -0.018844996 -0.10651856 -0.18826254 0.07303607 -0.11053765
-0.56880426 -0.06978204 -0.10014823 -0.4731349 -0.17782505 0.19554831 -0.07224948 0.5977237
-0.32076925 0.41236374 -0.3329137 -0.28374135 -0.15647727 1.0658135 0.41041183 0.08076888
0.33558849 -0.13064176 -0.16549692 0.1132835 0.3345687 -0.4302653 0.011773382 -0.15115614
-0.14518575 -0.57446766 -0.32847428 -0.011605077 0.6336039 1.2853334 0.6163397 -0.25501907
-0.71221846 -0.50598073 -0.17031337 0.36343417 0.09502321 -0.42033905 0.39545015 0.034962
00000000: b8c6 c73e 120e e9be 778e 0ebf 296e f7be
00000010: 582c 50be 9f90 b7bf e00f 863e df56 08bf
00000020: 14ae 25bf 4276 41bf 0db1 43be a933 c73e
00000030: 2b4a 87bb 17d4 e9be 8ef4 6c3f 4961 3fbe
00000040: 1094 763e 9275 413e cc1a 1f3f d260 9abc
00000050: 6726 dabd e5c7 40be ef93 953d 9061 e2bd
00000060: 289d 11bf e3e9 8ebd 841a cdbd bd3e f2be
00000070: c517 36be d13d 483e 89f7 93bd 6c04 193f
00000080: de3b a4be 5721 d33e aa73 aabe 8c46 91be
00000090: 943b 20be 946c 883f 8021 d23e 286a a53d
000000a0: 41d2 ab3e f4c6 05be 0678 29be 2e01 e83d
000000b0: 974c ab3e bc4b dcbe 25e5 403c adc8 1abe
000000c0: 93ab 14be 5010 13bf c82d a8be 3923 3ebc
000000d0: dd33 223f ce85 a43f 70c8 1d3f dc91 82be
000000e0: f353 36bf f487 01bf a166 2ebe 0b14 ba3e
000000f0: 879b c23d ae36 d7be 7178 ca3e 5034 0f3d

static_variable_selection.single_variable_grns.AGE5064.fc1.bias f4 [8]
-0.059527922 0.11247772 -0.12021062 0.0070258477 -0.07304047 0.018033998 0.10895727 0.016447246
00000000: 8dd3 73bd b85a e63d fc30 f6bd 1539 e63b
00000010: 3e96 95bd 09bc 933c fd24 df3d 60bc 863c

static_variable_selection.single_variable_grns.AGE5064.fc2.weight f4 [8, 8]
-0.07487147 0.5990106 0.20086113 -0.3655824 0.36372983 -0.264475 0.710372 0.73608
-0.4931435 -0.45918256 0.15603852 0.16007166 0.11409429 -0.2978919 0.3693359 0.32492417
-0.1541118 0.34564772 -0.07587913 0.19627853 0.12816282 -0.19682732 -0.2779045 0.49683002
0.7046164 -0.07870718 0.5467606 -0.37000006 -0.012673966 -0.09208838 0.5511405 -0.6706541
0.2875084 -0.26994792 0.15314542 0.14638947 0.49432215 0.2657338 0.63084775 -0.012475697
0.24413261 -0.07721164 -0.45828274 -0.056405883 0.31930226 -0.014790229 -0.6227249 0.024858428
-0.71878654 0.14515252 -0.023168607 0.08605339 0.26424745 0.15600488 -0.3761396 -0.16754593
0.22983718 0.22001281 -0.59380937 -0.25950488 0.10413363 0.17843917 0.24297799 -0.51989985
00000000: 3756 99bd c258 193f 8aae 4d3e 9e2d bbbe
00000010: cc3a ba3e 4469 87be f0da 353f bd6f 3c3f
00000020: 4e7d fcbe fa19 ebbe 90c8 1f3e d3e9 233e
00000030: 44aa e93d 4a85 98be 9819 bd3e 765c a63e
00000040: 7ccf 1dbe bdf8 b03e 8466 9bbd 3dfd 483e
00000050: 1d3d 033e 1a8d 49be 8049 8ebe 8160 fe3e
00000060: be61 343f 3b31 a1bd 81f8 0b3f a670 bdbe
00000070: 77a6 4fbc d598 bcbd 8b17 0d3f fdaf 2bbf
00000080: 4d34 933e 9d36 8abe 27d2 1c3e 1fe7 153e
00000090: cb17 fd3e 430e 883e 3d7f 213f de66 4cbc
000000a0: e6fd 793e 2321 9ebd 09a4 eabe db09 67bd
000000b0: 967b a33e b752 72bc e66a 1fbf e7a3 cb3c
000000c0: 6502 38bf dda2 143e 17cc bdbc c23c b03d
000000d0: 714b 873e bebf 1f3e 5f95 c0be 2991 2bbe
000000e0: 705a 6b3e 0a4b 613e e403 18bf d3dd 84be
000000f0: 0344 d53d c2b8 363e 39cf 783e 2818 05bf

static_variable_selection.single_variable_grns.AGE5064.fc2.bias f4 [8]
0.10929644 -0.018962093 -0.025675422 -2.9663659e-05 -0.02356419 -0.0619506 -0.010677987 0.07721719
00000000: d0d6 df3d 6456 9bbc 4355 d2bc 39d6 f8b7
00000010: b009 c1bc eabf 7dbd b9f2 2ebc 0c24 9e3d

static_variable_selection.single_variable_grns.AGE5064.gate_norm.glu.fc.weight f4 [32, 8]
-0.053929564 0.62657523 -0.3016626 -0.10339828 0.22369862 -0.3227869 -0.07745236 -0.08683138
-0.002117084 0.045047183 0.101429336 0.13594587 -0.3233677 0.35298184 -0.09291402 0.014813685
0.55025744 0.014505175 -0.119106986 -0.2594917 0.025735335 -0.19925864 0.0042515136 0.23555239
-0.11984826 0.1489923 -0.37593636 -0.36092782 0.06848957 -0.27927125 -0.120718725 0.10445551
-0.2713257 -0.28510904 0.29002342 -0.3512923 -0.018175676 -0.24202263 -0.29068163 0.023990626
0.24360418 -0.028636554 -0.34934068 0.14788765 -0.18322589 -0.27954674 0.15203048 0.09895961
-0.38218474 -0.011888678 0.10946026 -0.003874737 -0.25521472 -0.019944215 0.27643982 0.15995236
0.24433306 0.35894138 -0.05107133 0.024850678 0.07649217 -0.058804914 0.04355315 0.10418418
-0.1808878 -0.28518793 0.2540098 0.24458756 0.43395212 0.15116566 0.20403327 0.30879796
0.28711107 -0.16785878 0.06601796 0.15944774 0.040953107 -0.02931955 -0.14723921 -0.21586636
-0.10013983 0.027088933 0.2816135 -0.20784052 -0.17638525 -0.03947564 0.07033901 0.11904676
-0.18299083 -0.1062232 0.2475663 -0.27027392 0.2315906 -0.06552209 -0.2149706 0.5231738
-0.24925727 0.3430624 0.29170942 0.1278774 0.18835057 -0.06434118 0.16769293 0.09957746
-0.22291094 -0.065778695 0.063670024 0.27249563 0.07051841 -0.03109092 0.2170319 0.17984372
-0.32020357 0.0987209 -0.06617423 -0.06744633 -0.37997007 0.19977716 0.23315874 -0.04624367
-0.24262479 0.04507525 -0.34296423 0.36202937 0.1631931 0.3368789 0.067574225 -0.4395393
-0.053286415 -0.32887295 0.22601728 0.41540778 0.3543224 -0.16426028 -0.25731346 -0.12222266
0.5272931 -0.5964169 -0.31228542 0.06667695 0.18349676 -0.12127958 -0.26432416 -0.056815825
0.0932379 0.22889742 -0.1936313 0.21272664 -0.14986046 0.3111868 0.088496685 0.17889003
0.10513892 0.049791124 -0.07923037 -0.41482016 -0.19780299 0.38067964 -0.38832536 0.6284183
0.20262747 -0.075038016 -0.13235097 -0.019564893 0.19804128 -0.2113386 -0.048377346 0.35223827
0.4926989 -0.12504946 0.2623613 -0.101351924 0.51260155 0.05576488 -0.33124295 0.49624568
0.2404294 0.25100008 -0.22264014 -0.11449896 -0.182552 -0.1246696 -0.088320345 -0.023802025
0.079602174 0.25190413 0.36151415 0.1347897 0.21799773 -0.0046940204 -0.092697695 -0.15570606
0.13449717 0.19018577 0.07906937 0.0045759585 0.24047804 0.26793757 -0.23112273 0.51563275
-0.11076233 -0.037500672 0.52102876 -0.42758143 0.369872 -0.16391173 -0.09289587 0.61210525
0.3489794 -0.42210495 0.27207652 0.012349227 -0.29034895 -0.14376076 0.17418335 -0.14555405
-0.027955528 0.06870883 0.3096424 0.26570976 -0.058077384 0.25149164 0.07934843 -0.05741302
-0.0828923 -0.054497484 0.36918932 -0.36567533 0.10106003 0.39733735 0.008954523 0.48821363
0.20812105 -0.3346451 -0.31740975 -0.3572551 0.16913192 0.13528283 0.03198514 0.19264416
0.54478276 -0.065382145 -0.09356906 -0.07572859 0.38428718 -0.31494415 -0.1737586 0.3083711
-0.069856964 -0.29190618 -0.22404842 -0.35722196 0.12713516 -0.21418063 -0.25253692 0.33122846
00000000: 3fe5 5cbd 3c67 203f 8573 9abe 7ac2 d3bd
00000010: 4011 653e 5344 a5be 589f 9ebd a7d4 b1bd
00000020: c7be 0abb 6583 383d 2fba cf3d 6535 0b3e
00000030: 7490 a5be 09ba b43e b549 bebd 19b5 723c
00000040: acdd 0c3f 1da7 6d3c 5dee f3bd 19dc 84be
00000050: e9d2 d23c 750a 4cbe 4850 8b3b a534 713e
00000060: 0173 f5bd 7091 183e bb7a c0be 88cb b8be
00000070: 4244 8c3d a4fc 8ebe 613b f7bd c5ec d53d
00000080: 34eb 8abe d0f9 91be f37d 943e 96dc b3be
00000090: 28e5 94bc c8d4 77be 39d4 94be fd87 c43c
000000a0: 6073 793e 3597 eabc c8dc b2be dc6f 173e
000000b0: 919f 3bbe c020 8fbe e1ad 1b3e 56ab ca3d
000000c0: b8ad c3be bbc8 42bc b32c e03d 4def 7dbb
000000d0: 81ab 82be 0d62 a3bc 8589 8d3e 8dca 233e
000000e0: 7232 7a3e 2ac7 b73e 2c30 51bd a693 cb3c
000000f0: eda7 9c3d 6cdd 70bd ca64 323d 845e d53d
00000100: a73a 39be 2704 92be 930d 823e 2975 7a3e
00000110: f92e de3e 2ccb 1a3e 19ee 503e c41a 9e3e
00000120: 3900 933e 2ce3 2bbe 6d34 873d 4546 233e
00000130: 72be 273d 8e2f f0bc e0c5 16be 120c 5dbe
00000140: 1c16 cdbd 9ce9 dd3c a52f 903e 25d4 54be
00000150: 569e 34be 35b1 21bd e60d 903d cace f33d
00000160: f361 3bbe 8d8b d9bd 0582 7d3e 5861 8abe
00000170: 1626 6d3e 7230 86bd 4121 5cbe b8ee 053f
00000180: 4c3d 7fbe e0a5 af3e f05a 953e 4bf2 023e
00000190: f9de 403e 4fc5 83bd b2b7 2b3e 44ef cb3d
000001a0: c442 64be fbb6 86bd 6e65 823d 8c84 8b3e
000001b0: f56b 903d 63b2 febc 9c3d 5e3e f428 383e
000001c0: b9f1 a3be 2f2e ca3d 5b86 87bd 4d21 8abd
000001d0: 708b c2be 6292 4c3e 2ac1 6e3e 016a 3dbd
000001e0: a272 78be d3a0 383d 0299 afbe ea5b b93e
000001f0: 181c 273e 647b ac3e 5b64 8a3d 4c0b e1be
00000200: db42 5abd 0962 a8be 1371 673e 54b0 d43e
00000210: bf69 b53e d933 28be 97be 83be e04f fabd
00000220: aefc 063f c7ae 18bf e0e3 9fbe ed8d 883d
00000230: 93e6 3b3e 6e61 f8bd 7f55 87be b6b7 68bd
00000240: 83f3 be3d 1664 6a3e 4947 46be 03d5 593e
00000250: 0575 19be e053 9f3e c03d b53d f32e 373e
00000260: 1353 d73d c7f1 4b3d 8843 a2bd 4f63 d4be
00000270: de8c 4abe 71e8 c23e 95d2 c6be 06e0 203f
00000280: 937d 4f3e 88ad 99bd 0387 07be 8e46 a0bc
00000290: 55cb 4a3e 2569 58be 5327 46bd 9358 b43e
000002a0: 0843 fc3e f70c 00be 3854 863e 9991 cfbd
000002b0: db39 033f b769 643d ad98 a9be ea13 fe3e
000002c0: 2033 763e 1583 803e c7fb 63be 6e7e eabd
000002d0: e9ee 3abe c652 ffbd 4ce1 b4bd 77fc c2bc
000002e0: 7706 a33d 94f9 803e 6218 b93e 5006 0a3e
000002f0: cc3a 5f3e 4cd0 99bb 4ad8 bdbd 6971 1fbe
00000300: a0b9 093e 0fc0 423e 1fef a13d ecf1 953b
00000310: e03f 763e 1d2f 893e 70ab 6cbe 8200 043f
00000320: 5cd7 e2bd 4e9a 19bd 2462 053f f4eb dabe
00000330: dd5f bd3e 7ad8 27be 3140 bebd eeb2 1c3f
00000340: 6ead b23e 241e d8be 9d4d 8b3e 6a54 4a3c
00000350: 9ea8 94be 0536 13be 1f5d 323e 1f0c 15be
00000360: fe02 e5bc 37b7 8c3d 7389 9e3e 1c0b 883e
00000370: 8de2 6dbd 83c3 803e 6e81 a23d ea29 6bbd
00000380: 70c3 a9bd c138 5fbd 6206 bd3e cc39 bbbe
00000390: 90f8 ce3d cd6f cb3e feb5 123c 23f7 f93e
000003a0: af1d 553e 9a56 abbe 8883 a2be 24ea b6be
000003b0: eb30 2d3e 9587 0a3e da02 033d 8344 453e
000003c0: e276 0b3f 13e7 85bd 23a1 bfbd 9717 9bbd
000003d0: 4ac1 c43e 5c40 a1be c6ed 31be d1e2 9d3e
000003e0: 2b11 8fbd ba74 95be f36c 65be cce5 b6be
000003f0: b82f 023e 2b52 5bbe 854c 81be c796 a93e

static_variable_selection.single_variable_grns.AGE5064.gate_norm.glu.fc.bias f4 [32]
0.11456208 -0.21545607 -0.056987736 0.054908823 0.08707496 0.11965242 0.06092641 -0.02723273
-0.056087926 -0.039108004 -0.022627888 -0.13546523 -0.050090138 -0.21838836 0.059727903 0.13644856
-0.19443126 -0.28537726 0.06185549 -0.48598763 -0.20397188 -0.20259579 -0.124853246 -0.2023677
-0.13198079 -0.28232163 -0.29963547 0.050220013 -0.29791364 -0.16932575 -0.18697295 0.015110053
00000000: 869f ea3d 84a0 5cbe f96b 69bd 13e8 603d
00000010: 5b54 b23d 540c f53d f98d 793d 2d17 dfbc
00000020: 74bc 65bd b72f 20bd 1f5e b9bc 66b7 0abe
00000030: 512b 4dbd 33a1 5fbe 3fa5 743d 2cb9 0b3e
00000040: fd18 47be f81c 92be 2f5c 7d3d 5fd3 f8be
00000050: 01de 50be 4575 4fbe 0fb3 ffbd 7a39 4fbe
00000060: f925 07be 768c 90be d269 99be 80b3 4d3d
00000070: 2388 98be bb63 2dbe d675 3fbe 2890 773c

static_variable_selection.single_variable_grns.AGE5064.gate_norm.add_norm.norm.weight f4 [16]
0.6674997 0.79772115 0.9798454 1.0914142 1.1759403 1.123463 1.1228515 0.89814186
1.0750524 1.0237175 0.96855575 1.1338794 1.0462799 1.1576085 0.68101573 0.8434162
00000000: 43e1 2a3f 7437 4c3f 26d7 7a3f 76b3 8b3f
00000010: 3685 963f a3cd 8f3f 99b9 8f3f a0ec 653f
00000020: 519b 893f 2d09 833f 45f3 773f f622 913f
00000030: 80ec 853f 842c 943f 0c57 2e3f 20ea 573f

static_variable_selection.single_variable_grns.AGE5064.gate_norm.add_norm.norm.bias f4 [16]
0.13043447 -0.17389935 0.016558383 0.14483486 0.10140918 0.14220229 0.076138906 -0.036824405
-0.068296194 -0.03911614 -0.020685775 -0.17877063 -0.031265642 -0.18587214 0.079443425 0.15739143
00000000: 9d90 053e ac12 32be 72a5 873c 974f 143e
00000010: 9eaf cf3d 7a9d 113e b7ee 9b3d 30d5 16bd
00000020: e0de 8bbd 3f38 20bd 3775 a9bc a60f 37be
00000030: 6710 00bd 4455 3ebe 3cb3 a23d 382b 213e

static_variable_selection.prescalers.AGE5064.weight f4 [8, 1]
-0.069348246 -0.3873216 0.3525794 0.31774184 -0.51562357 -0.14233534 -0.61296564 0.19807568
00000000: 7406 8ebd 044f c6be 4a85 b43e 0faf a23e
00000010: e8ff 03bf 5bc0 11be 51eb 1cbf 5ad4 4a3e

static_variable_selection.prescalers.AGE5064.bias f4 [8]
-0.248349 0.5176033 0.8408413 0.20805049 -0.4747297 -0.6459527 -0.2980302 -0.03170987
00000000: 334f 7ebe a681 043f 6041 573f 300b 553e
00000010: c50f f3be 285d 25bf 6a97 98be 35e2 01bd

encoder_variable_selection.flattened_grn.resample_norm.mask f4 [3]
-0.44756842 0.119456396 0.21620363
00000000: b027 e5be 8ea5 f43d 7c64 5d3e

encoder_variable_selection.flattened_grn.resample_norm.norm.weight f4 [3]
0.85565186 0.93561125 1.5256034
00000000: 000c 5b3f 3884 6f3f f946 c33f

encoder_variable_selection.flattened_grn.resample_norm.norm.bias f4 [3]
0.25133017 -0.021283122 -0.57590604
00000000: 59ae 803e f159 aebc 946e 13bf

encoder_variable_selection.flattened_grn.fc1.weight f4 [3, 24]
0.46229547 -0.22476357 0.17488919 0.015529493 0.06695303 0.062246684 -0.15221795 -0.15582633
-0.4439095 0.09283704 0.029680956 -1.1890969 -0.07108481 0.042091336 0.10639806 0.07614926
0.5688519 -0.7982095 0.21994908 0.054416537 0.19360246 -0.07041397 0.040808108 0.3375753
0.101097174 0.1328294 -0.34379542 -0.343638 0.14354041 0.08512214 0.10912171 0.61426055
-0.32197237 0.15204804 -0.6644074 -0.38964295 0.007375611 0.046512675 0.06859632 0.25104085
-0.05313887 0.1149274 -0.3936192 -0.27565894 -0.12755094 0.24313404 0.07089917 -0.064165965
0.3185057 -0.41161704 -0.0761019 0.07617017 0.4121683 0.40251103 -0.022727327 0.42947307
-0.39746466 0.13199723 0.031269472 0.2907172 0.05121075 0.07668962 0.34149238 0.3021041
-0.055278983 0.45137113 0.16721527 -0.13151275 -0.33424678 -0.2935442 -0.24592267 -0.0036268695
00000000: feb1 ec3e 6c28 66be 2716 333e 6a6f 7e3c
00000010: ac1e 893d 61f6 7e3d 06df 1bbe f090 1fbe
00000020: 1b48 e3be 5921 be3d 7a25 f33c 5434 98bf
00000030: ea94 91bd f767 2c3d 3ae7 d93d 25f4 9b3d
00000040: 47a0 113f 7557 4cbf 553a 613e e0e3 5e3d
00000050: b93f 463e 3335 90bd 6726 273d abd6 ac3e
00000060: 090c cf3d 6e04 083e f405 b0be 52f1 afbe
00000070: 42fc 123e 8454 ae3d 347b df3d 2e40 1d3f
00000080: 90d9 a4be 7bb2 1b3e 9a16 2abf 487f c7be
00000090: 1caf f13b 1384 3e3d 3a7c 8c3d 6d88 803e
000000a0: 25a8 59bd 0f5f eb3d 7588 c9be 2b23 8dbe
000000b0: b79c 02be 21f8 783e 9633 913d 7269 83bd
000000c0: 2e13 a33e 78bf d2be 50db 9bbd 1bff 9b3d
000000d0: b907 d33e ed15 ce3e a92e babc e5e3 db3e
000000e0: 7d80 cbbe 482a 073e 6b14 003d e3d8 943e
000000f0: 5dc2 513d 730f 9d3d 17d8 ae3e 63ad 9a3e
00000100: 376c 62bd 1e1a e73e 7b3a 2b3e 47ab 06be
00000110: 6522 abbe 6d4b 96be 27d3 7bbe c6b0 6dbb

encoder_variable_selection.flattened_grn.fc1.bias f4 [3]
-0.09625093 -0.13202026 -0.09225665
00000000: 351f c5bd 5230 07be 0ef1 bcbd

encoder_variable_selection.flattened_grn.context.weight f4 [3, 16]
-0.34287277 -0.27816027 -0.066276625 -0.14426757 0.21672037 -0.23332745 -0.0062036067 -0.11810347
-0.33430785 -0.016071457 -0.124297075 0.16604641 0.24699834 0.016994832 -0.38951266 -0.46526843
0.3215582 -0.16112386 0.60450417 -0.5061821 -0.4805671 0.68223864 -0.046828028 -0.51703894
0.024999682 -0.11799893 -0.35080683 0.16959958 0.110797085 -0.05431665 -0.5021953 -0.20780016
0.2512885 -0.13012165 0.48125806 -0.24413292 -0.14446694 0.4306795 0.32361296 0.04158043
-0.41048405 0.22258507 -0.18687229 0.029175393 -0.0030818488 -0.07644458 -0.25132844 0.41330448
00000000: 058d afbe 066b 8ebe 0abc 87bd e1ba 13be
00000010: f2eb 5d3e 64ed 6ebe a047 cbbb 3be0 f1bd
00000020: 662a abbe 4aa8 83bc 778f febd 1208 2a3e
00000030: 22ed 7c3e bf38 8b3c 346e c7be aa37 eebe
00000040: 47a3 a43e a7fd 24be c9c0 1a3f 2695 01bf
00000050: e40c f6be 31a7 2e3f bfce 3fbd aa5c 04bf
00000060: 22cc cc3c 6ca9 f1bd f49c b3be 83ab 2d3e
00000070: 95e9 e23d 237b 5ebd df8f 00bf 91c9 54be
00000080: e3a8 803e 9c3e 05be 7567 f63e fbfd 79be
00000090: 24ef 13be 0682 dc3e 99b0 a53e 3e50 2a3d
000000a0: f72a d2be 57ed 633e 735b 3fbe 3c01 ef3c
000000b0: d8f8 49bb fa8e 9cbd 1fae 80be a59c d33e

encoder_variable_selection.flattened_grn.fc2.weight f4 [3, 3]
-0.80353504 -1.248746 -0.26189205 -0.25391173 -1.0317582 -0.18904547 -0.3604232 -0.90532565
-0.81350935
00000000: 79b4 4dbf e9d6 9fbf b716 86be b800 82be
00000010: a710 84bf 2395 41be 6489 b8be 6cc3 67bf
00000020: 2642 50bf

encoder_variable_selection.flattened_grn.fc2.bias f4 [3]
0.15709294 -0.07697857 -0.08396623
00000000: f9dc 203e f1a6 9dbd 7df6 abbd

encoder_variable_selection.flattened_grn.gate_norm.glu.fc.weight f4 [6, 3]
0.5184967 -0.18448222 0.7007743 -0.13234645 -0.41865033 0.71549875 -0.24074142 -0.392079
-0.3741341 -0.4669542 -0.5652952 0.6485732 0.9082272 -0.0052231806 -0.46819523 0.6729005
0.56196654 0.6147136
00000000: 33bc 043f e8e8 3cbe f265 333f d485 07be
00000010: 5659 d6be ed2a 373f eb84 76be 94be c8be
00000020: 818e bfbe 9f14 efbe 30b7 10bf e508 263f
00000030: 9481 683f 3727 abbb 49b7 efbe 3543 2c3f
00000040: 0add 0f3f df5d 1d3f

encoder_variable_selection.flattened_grn.gate_norm.glu.fc.bias f4 [6]
0.1459429 -0.12768154 -0.53375477 -0.085310206 0.248488 0.3735334
00000000: 0e72 153e f3be 02be 27a4 08bf 1eb7 aebd
00000010: a373 7e3e c53f bf3e

encoder_variable_selection.flattened_grn.gate_norm.add_norm.norm.weight f4 [3]
0.5768065 0.23873773 0.23851444
00000000: 97a9 133f aa77 743e 213d 743e

encoder_variable_selection.flattened_grn.gate_norm.add_norm.norm.bias f4 [3]
0.06997459 -0.46395475 0.5994407
00000000: d64e 8f3d 7a8b edbe f274 193f

encoder_variable_selection.single_variable_grns.SinWeekly.resample_norm.mask f4 [16]
-0.27894613 0.120203055 -0.019659689 -0.067964934 -0.14502572 -0.02994505 0.2557338 -0.5040321
-0.5143741 -0.10552494 -0.13187525 0.0049092337 -0.4605079 0.07506357 0.14645894 0.31563446
00000000: 07d2 8ebe 052d f63d 5b0d a1bc 3331 8bbd
00000010: 9f81 14be 524f f5bc 8aef 823e 3f08 01bf
00000020: 05ae 03bf 761d d8bd 4e0a 07be a3dd a03b
00000030: b1c7 ebbe eeba 993d 55f9 153e d79a a13e

encoder_variable_selection.single_variable_grns.SinWeekly.resample_norm.norm.weight f4 [16]
0.7527319 0.8188311 1.0654523 0.99886334 0.9057213 1.0097986 1.3093138 0.4838285
0.4516013 0.8607064 0.9552834 1.0967144 0.89161754 1.0831693 1.424572 1.2875148
00000000: 0ab3 403f ea9e 513f be60 883f 82b5 7f3f
00000010: 5add 673f 1541 813f 9897 a73f 5fb8 f73e
00000020: 4938 e73e 4157 5c3f 748d 743f 2361 8c3f
00000030: 0c41 643f 4ba5 8a3f 6058 b63f 49cd a43f

encoder_variable_selection.single_variable_grns.SinWeekly.resample_norm.norm.bias f4 [16]
0.006970474 0.12740298 -0.12555455 0.11431022 -0.014469672 0.00980808 -0.051591106 -0.2348425
-0.08856794 -0.04015762 0.0029031658 0.10386032 -0.0014878049 0.008737519 -0.1065943 0.1196566
00000000: 9368 e43b ed75 023e 5f91 00be 7a1b ea3d
00000010: 3412 6dbc 12b2 203c 3251 53bd 8d7a 70be
00000020: 1c63 b5bd 517c 24bd 0a43 3e3b b8b4 d43d
00000030: 7302 c3ba d027 0f3c 1d4e dabd 850e f53d

encoder_variable_selection.single_variable_grns.SinWeekly.fc1.weight f4 [8, 8]
1.0286506 -1.456015 -0.76422805 -1.5608072 -0.2886921 -0.13888009 0.35452753 0.5106724
-0.27022976 0.38579938 -0.40893292 -0.12527257 -0.4105771 0.80736756 -0.5578724 -0.48162088
-0.31079817 0.06653606 -0.6649615 0.3676993 -1.0734949 0.49623594 0.7031553 0.03189827
0.28857285 0.12851112 -0.3630242 0.21980724 0.32431778 0.098893575 0.29880673 0.57873195
-0.65918523 -0.052041616 1.1139458 0.075133055 0.11063516 0.7281817 0.5446357 -1.0005875
0.72775054 -0.39507866 -0.6550401 -0.06887566 0.24935721 -0.32845744 -0.12582006 0.259473
-1.0399952 -0.12950855 -1.5325406 0.5215101 -0.59878606 0.119085945 -0.91821057 -0.529459
0.40857738 0.010953574 -0.6939001 0.22990383 0.84043056 0.4500979 -0.12253245 0.40787175
00000000: d3aa 833f b35e babf 73a4 43bf 88c8 c7bf
00000010: 73cf 93be 9536 0ebe a284 b53e 6dbb 023f
00000020: 8e5b 8abe 7f87 c53e a85f d1be 7447 00be
00000030: 2937 d2be a4af 4e3f bad0 0ebf 0397 f6be
00000040: f020 9fbe 0f44 883d eb3a 2abf 1543 bc3e
00000050: 4868 89bf a312 fe3e fc01 343f c3a7 023d
00000060: d2bf 933e 6b98 033e 4fde b9be 2615 613e
00000070: fb0c a63e b788 ca3d 32fd 983e c727 143f
00000080: 5dc0 28bf 9729 55bd c795 8e3f 5cdf 993d
00000090: b094 e23d 1e6a 3a3f 3f6d 0b3f 4013 80bf
000000a0: dc4d 3a3f c047 cabe b5b0 27bf af0e 8dbd
000000b0: 7f57 7f3e 932b a8be f9d6 00be a5d9 843e
000000c0: 901e 85bf e49d 04be 4a2a c4bf b081 053f
000000d0: 0b4a 19bf 55e3 f33d d90f 6bbf a08a 07bf
000000e0: 0e31 d13e 9f76 333c 70a3 31bf e96b 6b3e
000000f0: 7526 573f 3b73 e63e 4bf2 fabd 91d4 d03e

encoder_variable_selection.single_variable_grns.SinWeekly.fc1.bias f4 [8]
-0.088876285 0.022408433 -0.0009029383 -0.050596572 0.01551221 -0.05583741 -0.15850261 -0.016226856
00000000: c504 b6bd e491 b73c 2ab3 6cba 5a3e 4fbd
00000010: ed26 7e3c c5b5 64bd 824e 22be 2fee 84bc

encoder_variable_selection.single_variable_grns.SinWeekly.fc2.weight f4 [8, 8]
-1.1056964 0.1044386 -1.2155497 -0.6641509 -0.6505643 0.11960799 0.4211846 -0.29886037
-0.117623374 -0.29512516 0.35709152 0.09514551 -0.113545455 0.4904936 0.6785916 0.1766501
0.80632246 -0.37375173 0.007050386 -0.4226194 0.6893115 -0.20289628 0.58719784 0.4912725
0.30700997 1.0778327 0.55258155 0.109781206 0.056023315 -0.5068191 0.30877942 -0.37497702
-0.8011274 1.1037358 -0.44489992 -0.082929574 0.046747938 0.49997902 0.27627075 -0.3262374
0.5260541 -0.44696417 -0.5028747 0.00824152 -0.50873387 0.17663851 -0.30178276 -0.2619434
-0.39891425 0.16036089 0.22592467 -0.032312453 0.13370319 -0.32066673 0.35619563 0.40081784
0.7437153 0.11517247 0.50387746 0.64192146 0.56425333 -0.22807634 0.9901902 -0.44868663
00000000: 7687 8dbf e8e3 d53d 2297 9bbf cb05 2abf
00000010: 628b 26bf 09f5 f43d 82a5 d73e 3a04 99be
00000020: 86e4 f0bd a51a 97be b3d4 b63e a6db c23d
00000030: 858a e8bd fa21 fb3e 2eb8 2d3f c4e3 343e
00000040: 266b 4e3f 635c bfbe ed06 e73b 9261 d8be
00000050: b876 303f 0bc4 4fbe 9952 163f 1288 fb3e
00000060: 6930 9d3e 6cf6 893f fc75 0d3f f8d4 e03d
00000070: b478 653d e6be 01bf 5618 9e3e fdfc bfbe
00000080: af16 4dbf 3747 8d3f ecc9 e3be fbd6 a9bd
00000090: c47a 3f3d 40fd ff3e 5c73 8d3e 9708 a7be
000000a0: 7bab 063f 7dd8 e4be 65bc 00bf 7107 073c
000000b0: 623c 02bf bae0 343e 4583 9abe 721d 86be
000000c0: 7d3e ccbe a535 243e cc58 673e 105a 04bd
000000d0: 7de9 083e 6e2e a4be 465f b63e ff37 cd3e
000000e0: 2064 3e3f 8bdf eb3d 1dfe 003f f754 243f
000000f0: e872 103f d88c 69be 1b7d 7d3f 41ba e5be

encoder_variable_selection.single_variable_grns.SinWeekly.fc2.bias f4 [8]
-0.063308105 -0.119946994 0.012843972 0.004688565 0.08518428 0.003493867 0.13771552 0.047698904
00000000: aea7 81bd c5a6 f5bd 866f 523c 89a2 993b
00000010: 1975 ae3d 5df9 643b 4c05 0d3e ed5f 433d

encoder_variable_selection.single_variable_grns.SinWeekly.gate_norm.glu.fc.weight f4 [32, 8]
0.3025664 -0.037404798 0.0127747115 -0.27264848 0.061248988 -0.31514016 -0.061088867 0.1713428
-0.07614454 0.0065432684 -0.1274356 -0.37694216 0.05339296 0.14710756 0.20670912 -0.29815212
0.32656434 0.117096625 0.3329975 0.41378114 0.49043116 -0.2578865 -0.040208846 0.6181075
-0.24167655 -0.23363674 -0.07979834 -0.009870801 0.047202982 0.25322953 -0.05674594 0.3898478
0.22180687 0.09272767 0.16525486 0.39857548 0.21713148 -0.19185434 0.20551018 0.0014791152
0.167367 -0.25343022 -0.09476418 0.106841594 -0.29972497 -0.23748246 -0.15627487 -0.033764463
0.24821939 0.11522725 -0.88262933 -0.21698518 0.045740884 -0.52247256 0.25221837 -0.56770045
-0.46314275 0.1529706 0.43781668 -0.09859687 -0.32248428 0.07626308 -0.19271795 0.12282706
0.32406327 0.36588606 -0.24258803 0.61797965 0.27670598 -0.50692147 0.50560474 0.40787533
-0.08874009 -0.38612413 0.0815066 -0.11327193 -0.14750324 0.020453624 0.039263822 0.096250296
0.20391615 0.16012807 -0.004466305 -0.120112196 0.09484942 0.04841284 0.022448536 0.35091093
0.16339223 0.30963153 -0.13398297 0.33018807 0.10967473 -0.6094789 0.5462344 0.63636905
0.459836 0.28005067 -0.0010000005 0.2651069 0.53842443 -0.4010427 0.16940235 -0.22218971
0.09434447 -0.39819947 0.036761694 -0.05199198 0.00047424127 0.26772034 -0.32727107 -0.538838
-0.5908701 -0.54510635 0.63984185 -0.19427828 -0.3977263 0.53632706 -0.6394265 0.25420874
0.038454577 -0.50984323 -0.2840842 -0.34375876 -0.2820461 -0.116199344 0.13135749 -0.09755942
0.0852099 -0.09697832 0.174746 0.41991434 0.022734758 -0.19876584 0.055867825 -0.67180496
0.23246755 -0.2622385 -0.11223167 -0.19342725 0.30387267 0.15757856 -0.2743139 -0.6584289
0.40335238 0.06305066 -0.1398949 0.30276456 0.1626099 -0.5445894 0.1064872 0.4097709
0.044685468 -0.18094756 0.65345424 -0.19250178 -0.6605835 0.15198116 -0.23973617 0.13007863
0.31660414 0.40807337 -0.301423 0.21022907 0.19854115 -0.4020359 0.5027282 0.2547358
0.17794569 -0.18039547 0.13829209 0.19719526 -0.074319415 -0.2766779 0.39174706 -0.4026441
-0.14473027 -0.46748298 0.11778513 -0.49262795 -0.2668898 0.33420926 -0.29088822 0.16281897
-0.31600767 0.2747724 0.28600585 -0.31010228 -0.041816633 0.27255884 -0.33784327 -0.25630426
0.093149014 -0.0541765 -0.13539864 -0.22463991 0.29691935 -0.105566375 0.25734589 -0.10585601
-0.12981495 -0.12290218 0.019753793 0.37428215 0.12011366 0.07982152 -0.17696899 0.3222451
0.024352962 -0.11102271 -0.32546276 0.010378562 0.12027493 0.1912823 -0.100417584 -0.40618968
0.29907587 0.119577706 0.09510612 0.5578776 0.29400867 -0.11488945 0.3921708 0.18532373
-0.23480622 -0.07983309 0.1367714 0.17954351 0.019822963 0.10477302 0.21456076 0.5460546
-0.082907274 0.41204292 -0.33983117 0.4717437 0.42637557 -0.40623844 0.09886162 0.25485677
-0.3904967 -0.22014193 0.030453745 -0.16117488 -0.15171896 0.01755172 -0.22628714 0.1361225
0.22227353 0.38681144 -0.24862537 0.09966244 0.0397 -0.13471119 -0.08964415 -0.4682825
00000000: fce9 9a3e c635 19bd 064d 513c 9598 8bbe
00000010: 38e0 7a3d 0d5a a1be 5238 7abd 7d74 2f3e
00000020: abf1 9bbd ea68 d63b 7a7e 02be 90fe c0be
00000030: 94b2 5a3d 5da3 163e 8eab 533e 65a7 98be
00000040: 7133 a73e 5bd0 ef3d a67e aa3e 1fdb d33e
00000050: cb19 fb3e b309 84be 08b2 24bd 4b3c 1e3f
00000060: 0f7a 77be 783e 6fbe 506d a3bd 24b9 21bc
00000070: ea57 413d 4da7 813e 6e6e 68bd 219a c73e
00000080: 5721 633e 01e8 bd3d 9238 293e 1612 cc3e
00000090: b757 5e3e 7775 44be 4371 523e dfde c13a
000000a0: 4162 2b3e 9bc1 81be b913 c2bd c4cf da3d
000000b0: 8d75 99be 9a2e 73be 8506 20be 9b4c 0abd
000000c0: 392d 7e3e 44fc eb3d fff3 61bf 5d31 5ebe
000000d0: cb5a 3b3d c3c0 05bf c422 813e d154 11bf
000000e0: 0c21 edbe 53a4 1c3e 8229 e03e 28ed c9bd
000000f0: a91c a5be d12f 9c3d db57 45be c18c fb3d
00000100: 9feb a53e 6b55 bb3e ff68 78be ea33 1e3f
00000110: 68ac 8d3e 9bc5 01bf 506f 013f 09d5 d03e
00000120: 5dbd b5bd 10b2 c5be efec a63d 1dfb e7bd
00000130: 170b 17be 5c8e a73c 1ad3 203d e01e c53d
00000140: 65cf 503e 9df8 233e 155a 92bb 62fd f5bd
00000150: 6a40 c23d 8b4c 463d fee5 b73c 99aa b33e
00000160: 4b50 273e 0688 9e3e d532 09be 690e a93e
00000170: 259d e03d cf06 1cbf 05d6 0b3f 15e9 223f
00000180: a06f eb3e cd62 8f3e 7312 83ba 17bc 873e
00000190: 2fd6 093f 7855 cdbe cf77 2d3e b385 63be
000001a0: ac37 c13d cde0 cbbe 6e93 163d 8bf5 54bd
000001b0: 96a3 f839 a412 893e 1390 a7be 4af1 09bf
000001c0: 4343 17bf 178c 0bbf adcc 233f e3f0 46be
000001d0: c8a2 cbbe bb4c 093f 75b1 23bf a627 823e
000001e0: 8c82 1d3d 1685 02bf 7c73 91be 2601 b0be
000001f0: 5968 90be ecf9 edbd 9482 063e 3ccd c7bd
00000200: 8782 ae3d 929c c6bd 9ef0 323e 03ff d63e
00000210: 3e3e ba3c 4689 4bbe a9d5 643d 69fb 2bbf
00000220: f90b 6e3e 2044 86be b8d9 e5bd cb11 46be
00000230: 3395 9b3e 465c 213e df72 8cbe cc8e 28bf
00000240: 3484 ce3e b420 813d 9c40 0fbe f503 9b3e
00000250: 3683 263e 366a 0bbf f615 da3d 7ecd d13e
00000260: 1c08 373d 514a 39be c748 273f 301f 45be
00000270: 001c 29bf f3a0 1b3e 667d 75be 5533 053e
00000280: f019 a23e feee d03e 1e54 9abe 4a46 573e
00000290: 5f4e 4b3e a6d7 cdbe ccb2 003f bb6c 823e
000002a0: 6537 363e 97b9 38be 719c 0d3e 8eed 493e
000002b0: c734 98bd baa8 8dbe 1293 c83e 5e27 cebe
000002c0: 2c34 14be ee59 efbe 5539 f13d bb39 fcbe
000002d0: c8a5 88be 7a1d ab3e 4def 94be 04ba 263e
000002e0: c2cb a1be f8ae 8c3e 5c6f 923e bac5 9ebe
000002f0: eb47 2bbd d58c 8b3e cbf9 acbe 503a 83be
00000300: e9c4 be3d 2de8 5dbd f1a5 0abe 0108 66be
00000310: d005 983e 2f33 d8bd d7c2 833e 09cb d8bd
00000320: 36ee 04be 23b4 fbbd b5d2 a13c e9a1 bf3e
00000330: 27fe f53d 7779 a33d 5c37 35be 4ffd a43e
00000340: dd7f c73c e05f e3bd 0ea3 a6be d80a 2a3c
00000350: b452 f63d 82df 433e bca7 cdbd 18f8 cfbe
00000360: 7920 993e 28e5 f43d ffc6 c23d 11d1 0e3f
00000370: 4e88 963e 294b ebbd 9cca c83e 81c5 3d3e
00000380: 0b71 70be 887f a3bd cd0d 0c3e 41da 373e
00000390: c463 a23c 3d93 d63d d1b5 5b3e 3cca 0b3f
000003a0: 4acb a9bd 4af7 d23e 5afe adbe 6488 f13e
000003b0: e64d da3e 7cfe cfbe f677 ca3d 967c 823e
000003c0: 2fef c7be e36c 61be 227a f93c 070b 25be
000003d0: 375c 1bbe a0c8 8f3c d1b7 67be b263 0b3e
000003e0: ac9b 633e 260c c63e a697 7ebe d21b cc3d
000003f0: 789c 223d bbf1 09be 5a97 b7bd b9c2 efbe

encoder_variable_selection.single_variable_grns.SinWeekly.gate_norm.glu.fc.bias f4 [32]
0.14062972 0.17014 -0.06139094 0.060260087 0.032541282 -0.033255074 0.022147825 -0.27895522
-0.026454322 -0.015198235 -0.023097385 0.11640254 0.027001174 0.0070690624 -0.02141557 0.08593271
-0.068142526 -0.20760553 -0.018927116 -0.43415436 0.016412681 -0.17975445 0.21076556 0.26753572
0.26319852 -0.058108598 -0.33256721 -0.19587837 0.33490637 -0.10066853 0.359533 -0.03969431
00000000: 3d01 103e 2e39 2e3e 1175 7bbd 48d3 763d
00000010: 024a 053d 7936 08bd 5b6f b53c 38d3 8ebe
00000020: bcb6 d8bc 0502 79bc ba36 bdbc 7464 ee3d
00000030: 9131 dd3c 98a3 e73b b56f afbc 7dfd af3d
00000040: 4f8e 8bbd 8b96 54be 0a0d 9bbc 7b49 debe
00000050: e373 863c 8d11 38be edd2 573e 71fa 883e
00000060: f5c1 863e 4803 6ebd 4046 aabe 5794 48be
00000070: d978 ab3e 4d2b cebd b614 b83e 8096 22bd

encoder_variable_selection.single_variable_grns.SinWeekly.gate_norm.add_norm.norm.weight f4 [16]
0.66646403 0.77244174 1.3224015 0.7847609 0.8205739 0.93222445 1.4443381 0.59044915
1.0845213 0.92994195 0.9206149 1.2505176 0.9500737 1.1834924 1.3298831 1.3351401
00000000: 639d 2a3f bebe 453f 7444 a93f 17e6 483f
00000010: 2211 523f 43a6 6e3f 12e0 b83f ad27 173f
00000020: 98d1 8a3f ad10 6e3f 6bad 6b3f f610 a03f
00000030: 0838 733f ae7c 973f 9c39 aa3f dfe5 aa3f

encoder_variable_selection.single_variable_grns.SinWeekly.gate_norm.add_norm.norm.bias f4 [16]
-0.06485535 0.0652511 0.04537347 0.25126615 -0.014627101 0.0113555305 -0.17765339 -0.07340563
0.031678658 -0.049228355 -0.04908923 0.25836256 0.030925827 0.019982008 0.015852338 0.03628005
00000000: e2d2 84bd 5ea2 853d 88d9 393d f5a5 803e
00000010: 82a6 6fbc 8c0c 3a3c c5ea 35be b155 96bd
00000020: 7bc1 013d aca3 49bd ca11 49bd 1948 843e
00000030: 2958 fd3c 4fb1 a33c c3dc 813c 649a 143d

encoder_variable_selection.single_variable_grns.VaccinationFull.resample_norm.mask f4 [16]
-0.15786204 -0.07547677 0.09955521 -0.63068706 0.3722845 0.16967842 -0.15012012 0.33955872
0.0021719646 -0.3537 -0.14558165 0.34115598 -0.15483302 0.3248718 -0.27685863 -0.19904913
00000000: 96a6 21be 9193 9abd 9ae3 cb3d b574 21bf
00000010: 139c be3e 2ec0 2d3e 17b9 19be a4da ad3e
00000020: 8557 0e3b 2b18 b5be 5b13 15be ffab ae3e
00000030: 8c8c 1ebe 9955 a63e 6ac0 8dbe 89d3 4bbe

encoder_variable_selection.single_variable_grns.VaccinationFull.resample_norm.norm.weight f4 [16]
0.7707109 0.87055135 1.181032 0.63671523 1.5045296 1.0972459 0.64917904 1.2846923
0.97764313 0.73344225 0.8936576 1.4012693 0.78696406 1.3635998 0.4881215 0.7478764
00000000: 4f4d 453f 74dc 5e3f 0e2c 973f c5ff 223f
00000010: 6d94 c03f 8e72 8c3f 9930 263f cc70 a43f
00000020: d246 7a3f dfc2 3b3f bfc6 643f cb5c b33f
00000030: 7a76 493f 708a ae3f 10eb f93e d474 3f3f

encoder_variable_selection.single_variable_grns.VaccinationFull.resample_norm.norm.bias f4 [16]
-0.06114502 0.21655741 -0.15935563 0.19371761 -0.09181891 0.07015319 0.049443495 0.104359776
-0.11885572 -0.25612757 -0.068273656 -0.018912844 0.13969068 -0.21302107 0.28928947 0.15227406
00000000: 3373 7abd 3ac1 5d3e 1f2e 23be e95d 463e
00000010: 8d0b bcbd 7aac 8f3d 4385 4a3d 94ba d53d
00000020: a16a f3bd 2723 83be 0fd3 8bbd 1cef 9abc
00000030: 130b 0f3e 3222 5abe c01d 943e bbed 1b3e

encoder_variable_selection.single_variable_grns.VaccinationFull.fc1.weight f4 [8, 8]
0.48550764 -0.33237138 -0.7909716 -0.1931539 0.77409184 0.19884935 -0.55476946 0.02228084
0.02780067 -0.1774418 -0.8080684 -1.0811217 -0.042006053 -0.07794013 1.0438251 -0.04652861
-0.17866936 -0.46603483 -0.14164975 -0.56023633 -0.47840524 0.56244963 0.22347784 -0.37777653
-0.1879323 -0.91421986 -0.3590593 0.33090955 -0.7010939 0.77974045 0.25063694 0.16858685
0.29431242 0.520998 0.11281071 0.39611223 0.06402735 0.42437863 0.61238146 0.7990805
-0.15426497 0.47408924 0.14225022 -0.1247469 -0.27288905 -0.8305111 -0.8300071 -1.7568421
-0.47478208 0.12005447 -0.019132437 0.23721075 1.1944989 -0.045980375 0.20129107 0.2285059
0.3166731 0.2303741 -0.5028917 -0.13850006 -0.4136566 -1.2465227 -0.3572479 -1.6175697
00000000: 7594 f83e 952c aabe 1d7d 4abf 23ca 45be
00000010: e22a 463f 2a9f 4b3e 5f05 0ebf 4f86 b63c
00000020: 3bbe e33c 4eb3 35be 92dd 4ebf 3262 8abf
00000030: 8a0e 2cbd 139f 9fbd 109c 853f c994 3ebd
00000040: 1af5 36be 1e9c eebe a20c 11be a66b 0fbf
00000050: 88f1 f4be b3fc 0f3f 60d7 643e ed6b c1be
00000060: 5371 40be 500a 6abf 9fd6 b7be fa6c a93e
00000070: e47a 33bf 129d 473f 7c53 803e 08a2 2c3e
00000080: 1eb0 963e 2060 053f 4d09 e73d 39cf ca3e
00000090: c520 833d 2848 d93e 08c5 1c3f 8a90 4c3f
000000a0: a3f7 1dbe d3bb f23e 0baa 113e 4d7b ffbd
000000b0: 1db8 8bbe 609c 54bf 587b 54bf 34e0 e0bf
000000c0: a316 f3be 1edf f53d a1bb 9cbc 60e7 723e
000000d0: 57e5 983f eb55 3cbd 3f1f 4e3e 73fd 693e
000000e0: fa22 a23e 30e7 6b3e 83bd 00bf f6d2 0dbe
000000f0: ccca d3be 0e8e 9fbf 32e9 b6be 860c cfbf

encoder_variable_selection.single_variable_grns.VaccinationFull.fc1.bias f4 [8]
0.19310571 -0.0007530055 -0.09283844 0.050980452 0.06841301 -0.15338558 0.09507266 -0.054280106
00000000: 81bd 453e 5865 45ba 1422 bebd e1d0 503d
00000010: 1f1c 8c3d 1c11 1dbe 74b5 c23d d154 5ebd

encoder_variable_selection.single_variable_grns.VaccinationFull.fc2.weight f4 [8, 8]
-0.27137676 0.06956866 -0.15637703 -0.5167343 -1.0066849 0.29008785 -0.81104016 0.18394394
0.8213258 -0.5368885 -0.44148555 -0.39609337 -0.40987703 -0.51320475 0.39188173 -0.059127446
-1.7995298 0.06541697 -0.06994651 0.6314467 -0.31429031 0.36005422 0.08379484 0.52758664
0.23519468 -0.3000819 0.22305356 -0.1708596 0.6940295 -0.92245466 0.020227257 -0.22261247
-0.5080672 -0.08156356 0.41107416 -0.14281347 0.39220768 0.37820432 -1.2586316 0.86665887
-0.47423205 0.45991805 0.85359424 0.40669513 0.067681186 0.032179765 -0.28624457 -0.9508718
0.9522876 -0.18241362 -0.2142906 0.84972364 0.3876696 -0.5336375 0.24583173 0.15443817
-0.18881375 0.39850307 0.4050378 0.4840004 -0.47658953 -0.62944347 0.13056125 -0.454634
00000000: e5f1 8abe 037a 8e3d 4d21 20be b348 04bf
00000010: 0ddb 80bf 6586 943e 54a0 4fbf cd5b 3c3e
00000020: 6842 523f 8671 09bf 650a e2be c0cc cabe
00000030: 67db d1be 6361 03bf b9a4 c83e 9f2f 72bd
00000040: fe56 e6bf 55f9 853d 1e40 8fbd 7ea6 213f
00000050: a9ea a0be 0759 b83e a19c ab3d eb0f 073f
00000060: e0d6 703e 56a4 99be 2768 643e d2f5 2ebe
00000070: ebab 313f fd25 6cbf a2b3 a53c 86f4 63be
00000080: b110 02bf cc0a a7bd 5078 d23e b23d 12be
00000090: 72cf c83e ffa3 c13e d71a a1bf 5bdd 5d3f
000000a0: 8bce f2be 617a eb3e 2785 5a3f 583a d03e
000000b0: 6f9c 8a3d eece 033d a68e 92be 566c 73bf
000000c0: 1fc9 733f a3ca 3abe ff6e 5bbe 7d87 593f
000000d0: a17c c63e 789c 08bf 50bb 7b3e 0a25 1e3e
000000e0: 6458 41be 9808 cc3e 1d61 cf3e e7ce f73e
000000f0: 8b03 f4be 3523 21bf d9b1 053e cac5 e8be

encoder_variable_selection.single_variable_grns.VaccinationFull.fc2.bias f4 [8]
-0.12925841 0.134468 -0.14677751 -0.04317021 -0.0986189 -0.11258151 0.295274 -0.0058534956
00000000: 515c 04be fbb1 093e d84c 16be 3fd3 30bd
00000010: b5f8 c9bd 2291 e6bd 272e 973e aece bfbb

encoder_variable_selection.single_variable_grns.VaccinationFull.gate_norm.glu.fc.weight f4 [32, 8]
0.105466135 0.329133 0.28973484 0.13442902 -0.29480156 0.15697518 -0.042725906 -0.2951436
-0.342373 0.07421181 -0.3537939 0.0092195785 0.184561 -0.21339886 0.093637206 -0.36376047
-0.06761923 0.09417816 0.18765767 -0.024506783 -0.09530015 0.5383533 -0.45613173 0.31135193
-0.87341255 0.15658998 -0.3843712 0.67880243 -0.7425092 0.4552888 0.6376632 0.44113636
0.47278926 -0.25939465 0.54075986 -0.6315129 0.48789757 -0.13749287 -0.6484948 -0.51539624
0.34223625 -0.0049892636 0.4725383 -0.28570658 0.03912812 -0.09445188 -0.36903736 0.27091292
-0.23102354 0.42341763 -0.09779966 0.09044851 -0.24951097 0.12724756 0.44908372 0.18798009
-0.21095072 0.34322417 0.12374465 -0.36892217 0.45759153 -0.34457016 0.4069457 -0.53863853
-0.12075443 0.23786078 -0.1632915 -0.1674848 -0.37664226 0.47213933 0.111054584 0.31058547
0.31907672 -0.08656676 0.27353743 -0.46133515 -0.00894388 -0.32265764 -0.6805479 -0.3354279
0.09577983 -0.19415416 0.16926499 -0.41290456 0.27628505 0.08937133 -0.08962912 -0.0647604
-0.48002157 -0.46451154 -0.2079702 0.31132758 -0.20600528 0.24909988 -0.083234124 0.4174908
-0.32396892 0.38369715 -0.34852347 -0.38905686 -0.009453095 -0.20860335 -0.2141105 -0.14933074
0.22871488 -0.5928953 0.11851224 0.22252935 0.28404278 0.28346017 -0.017475413 -0.17407387
-0.36190462 0.34880257 -0.27339593 0.21098945 -0.15112145 -0.04709615 0.02576135 0.07969158
-0.2865217 -0.15533188 0.08208181 -0.10077635 0.1649603 -0.2069651 0.3293544 -0.10116961
0.23183714 -0.19731195 0.38669994 0.10474789 0.069790766 0.30408987 -0.2733663 -0.44167408
0.0046517034 -0.22004288 0.29609317 0.021451764 -0.01859789 0.40118438 -0.20936014 0.055184703
0.3291108 0.4576002 0.08816609 0.43479535 0.04715777 0.41347146 0.085300006 0.3964285
0.26627856 0.020761076 0.28993618 0.08846716 0.21481204 -0.04777813 -0.33590528 -0.16277319
-0.30029833 -0.1654387 -0.007848101 0.5956911 -0.14109758 0.5523114 0.12541512 0.8443806
0.15352106 -0.54211825 0.54711163 -0.19398157 -0.09064549 0.1563285 -0.69371027 0.26527777
0.023824919 0.6150755 -0.30972588 0.5771315 -0.33637232 0.019344695 -0.140984 0.09723966
-0.045538735 0.33632812 0.32837823 0.18129902 -0.2091647 -0.5182543 -0.4663054 -0.15086961
0.16206379 0.10296487 0.0039967676 -0.04194838 -0.33268785 -0.03599172 0.10624895 -0.16647016
0.3014376 -0.33588135 0.45558152 -0.10385071 0.45908967 0.031035468 -0.1214128 0.18579389
-0.049923744 -0.056586433 0.38640705 -0.41687807 0.28310144 -0.63225067 -0.02181176 -0.5888698
-0.021970987 0.27457482 0.32651073 -0.094467856 -0.02192162 -0.45626095 -0.33634725 -0.6585451
0.38944513 0.18318671 -0.2542643 0.18300842 0.2756608 0.18340735 -0.4982137 0.08708619
-0.04408118 -0.6811934 -0.075147115 -0.3301496 0.33830673 0.108059 -0.30114505 0.044712808
0.4373971 0.016292894 -0.05737633 0.1659519 -0.15651776 -0.559413 0.07991773 -0.44810987
-0.3012029 0.7265001 0.16078372 0.43413126 -0.22040127 -0.33559263 0.5208252 -0.22110271
00000000: a1fe d73d 1f84 a83e 2058 943e c3a7 093e
00000010: 3bf0 96be 1abe 203e 5c01 2fbd 101d 97be
00000020: 844b afbe 5dfc 973d 7924 b5be b70d 173c
00000030: 8ffd 3c3e 3b85 5abe ddc4 bf3d d03e babe
00000040: f37b 8abd 7be0 c03d 5529 403e 73c2 c8bc
00000050: ba2c c3bd 86d1 093f 198a e9be 8569 9f3e
00000060: f797 5fbf 2059 203e 4dcc c4be ffc5 2d3f
00000070: 1515 3ebf 9d1b e93e e53d 233f a0dc e13e
00000080: 6f11 f23e 60cf 84be 3d6f 0a3f d4aa 21bf
00000090: b6cd f93e eeca 0cbe c103 26bf 02f1 03bf
000000a0: 9739 af3e fa7c a3bb 8af0 f13e 2248 92be
000000b0: cf44 203d fd6f c1bd 77f2 bcbe 19b5 8a3e
000000c0: 6f91 6cbe 32ca d83e 304b c8bd 123d b93d
000000d0: ce7f 7fbe 2f4d 023e 4dee e53e da7d 403e
000000e0: 7703 58be 14bb af3e d66d fd3d 5ee3 bcbe
000000f0: 7049 ea3e 806b b0be 305b d03e 37e4 09bf
00000100: 194e f7bd c791 733e e335 27be 2381 2bbe
00000110: 41d7 c0be 3fbc f13e 9670 e33d 0f05 9f3e
00000120: 065e a33e ea49 b1bd 190d 8c3e 1f34 ecbe
00000130: 5a89 12bc 6233 a5be 6338 2ebf 35bd abbe
00000140: 3728 c43d 59d0 46be cd53 2d3e 3a68 d3be
00000150: 3c75 8d3e 5108 b73d 798f b7bd 1aa1 84bd
00000160: 63c5 f5be 75d4 edbe 24f6 54be 5466 9f3e
00000170: 0cf3 52be 0a14 7f3e a776 aabd 5bc1 d53e
00000180: 41df a5be f473 c43e ab71 b2be 7632 c7be
00000190: 27e1 1abc 1e9c 55be c83f 5bbe 28ea 18be
000001a0: 3c34 6a3e fdc7 17bf 8cb6 f23d bcde 633e
000001b0: 0e6e 913e b121 913e 9928 8fbc 6c40 32be
000001c0: 904b b9be 4096 b23e 8dfa 8bbe 9e0d 583e
000001d0: 95bf 1abe e5e7 40bd 7709 d33c 5735 a33d
000001e0: f9b2 92be 520f 1fbe 821a a83d d563 cebd
000001f0: 5aeb 283e a9ee 53be 24a1 a83e 0332 cfbd
00000200: b766 6d3e 250c 4abe 89fd c53e 1086 d63d
00000210: 76ee 8e3d abb1 9b3e abf6 8bbe 1b23 e2be
00000220: 516d 983b ec52 61be 8699 973e 9cbb af3c
00000230: 9a5a 98bc 0a68 cd3e 8162 56be 5b09 623d
00000240: 3681 a83e 934a ea3e 6c90 b43d 7f9d de3e
00000250: 8128 413d 88b2 d33e c5b1 ae3d adf8 ca3e
00000260: aa55 883e 2213 aa3c 8472 943e 452e b53d
00000270: b0f7 5b3e 00b3 43bd c7fb abbe 04ae 26be
00000280: b4c0 99be c368 29be 5295 00bc 367f 183f
00000290: e27b 10be 4864 0d3f d26c 003e 5429 583f
000002a0: a034 1d3e 43c8 0abf 820f 0c3f 1ba3 46be
000002b0: 58a4 b9bd 9414 203e ff96 31bf 7dd2 873e
000002c0: 7a2c c33c 9775 1d3f 6494 9ebe e4be 133f
000002d0: fe38 acbe c478 9e3c 1c5e 10be 9625 c73d
000002e0: d386 3abd 3333 ac3e 3121 a83e 73a6 393e
000002f0: 452f 56be 50ac 04bf 95bf eebe 907d 1abe
00000300: 0df4 253e 3fdf d23d 51f7 823b 11d2 2bbd
00000310: 1056 aabe 0e6c 13bd 0d99 d93d 2777 2abe
00000320: 0756 9a3e a4f8 abbe fb41 e93e aeaf d4bd
00000330: cd0d eb3e 183e fe3c 46a7 f8bd c140 3e3e
00000340: d77c 4cbd 2dc7 67bd 25d7 c53e 0b71 d5be
00000350: acf2 903e 2edb 21bf 93ae b2bc 2cc0 16bf
00000360: 80fc b3bc 1295 8c3e 6a2c a73e 5d78 c1bd
00000370: f894 b3bc 099b e9be b535 acbe 6996 28bf
00000380: 5a65 c73e 4c95 3b3e ee2e 82be 8f66 3b3e
00000390: 6a23 8d3e 23cf 3b3e de15 ffbe 3f5a b23d
000003a0: 788e 34bd b162 2ebf bbe6 99bd 5e09 a9be
000003b0: 8a36 ad3e 094e dd3d af2f 9abe c724 373d
000003c0: 83f2 df3e ad78 853c 7103 6bbd 4bef 293e
000003d0: 3146 20be b135 0fbf e8ab a33d a86e e5be
000003e0: 4437 9abe e9fb 393f 7da4 243e 7446 de3e
000003f0: dfb0 61be ccd2 abbe cd54 053f c068 62be

encoder_variable_selection.single_variable_grns.VaccinationFull.gate_norm.glu.fc.bias f4 [32]
0.056293674 0.056270774 -0.25521803 -0.053174827 -0.32459912 0.10982536 0.23680657 0.17316844
-0.056168366 -0.038939267 0.043799043 -0.32381016 0.082223855 -0.18371755 0.2578761 0.11455501
-0.15638593 -0.13743888 -0.100094154 0.16004859 0.05086075 -0.39057755 0.3590245 0.06289008
0.23232818 -0.14070925 0.06630379 0.38114813 -0.08024814 -0.39152345 -0.016568353 0.20642123
00000000: 3294 663d 2f7c 663d f0ab 82be d9cd 59bd
00000010: db31 a6be 1eec e03d 6c7d 723e 1153 313e
00000020: cd10 66bd c87e 1fbd a066 333d 72ca a5be
00000030: fb64 a83d 7420 3cbe 5608 843e d19b ea3d
00000040: a223 20be c7bc 0cbe 2afe ccbd c7e3 233e
00000050: 5d53 503d c8f9 c7be 0fd2 b73e 84cc 803d
00000060: 70e7 6d3e 1616 10be 48ca 873d d925 c33e
00000070: 2359 a4bd c375 c8be 5bba 87bc 1660 533e

encoder_variable_selection.single_variable_grns.VaccinationFull.gate_norm.add_norm.norm.weight f4 [16]
0.51995766 0.73421437 1.0114785 0.9703369 1.0266703 0.988676 0.8055202 0.8714567
0.81298155 0.8340386 0.7969055 1.1915424 0.76136404 0.9400514 0.828911 0.40656894
00000000: f21b 053f 79f5 3b3f 2178 813f 0068 783f
00000010: ef69 833f df19 7d3f 9236 4e3f c917 5f3f
00000020: 8f1f 503f 8e83 553f 0002 4c3f 7684 983f
00000030: c1e8 423f 35a7 703f 8333 543f ce29 d03e

encoder_variable_selection.single_variable_grns.VaccinationFull.gate_norm.add_norm.norm.bias f4 [16]
-0.012266298 0.23203914 0.09655815 0.20027326 0.028349962 0.049637433 -0.113440715 -0.1918591
-0.17606662 -0.14696383 -0.025183905 0.060582563 0.14445819 -0.1141584 0.0739346 0.13510197
00000000: 95f8 48bc ab9b 6d3e 48c0 c53d 6f14 4d3e
00000010: 2e3e e83c 9f50 4b3d 9b53 e8bd b676 44be
00000020: cf4a 34be b07d 16be 7a4e cebc 6c25 783d
00000030: d9ec 133e e1cb e9bd 066b 973d 2c58 0a3e

encoder_variable_selection.single_variable_grns.Cases.resample_norm.mask f4 [16]
0.11817062 0.1930735 -0.8331185 -0.109053105 -0.024410041 0.34487164 -0.101273745 -0.39373317
-0.7673446 0.2901758 0.35540375 -0.24450767 -0.45000568 -0.040073343 0.27532366 0.120592915
00000000: 7003 f23d 0fb5 453e 4147 55bf 3c57 dfbd
00000010: 91f7 c7bc 0493 b03e 9c68 cfbd 6597 c9be
00000020: b270 44bf ec91 943e 7bf7 b53e 3860 7abe
00000030: 2567 e6be f223 24bd 39f7 8c3e 6bf9 f63d

encoder_variable_selection.single_variable_grns.Cases.resample_norm.norm.weight f4 [16]
1.0659361 1.2659045 0.6217089 0.9928966 0.9901307 1.3371496 1.0953981 0.86712676
0.5943013 1.3763105 1.351387 0.83088404 0.5795513 0.9842794 1.34193 1.1740415
00000000: 9870 883f 2909 a23f 5128 1f3f 792e 7e3f
00000010: 3579 7d3f b827 ab3f 0136 8c3f 05fc 5d3f
00000020: 2124 183f f12a b03f 40fa ac3f d1b4 543f
00000030: 795d 143f bcf9 7b3f 5dc4 ab3f fe46 963f

encoder_variable_selection.single_variable_grns.Cases.resample_norm.norm.bias f4 [16]
0.26313668 0.08027337 -0.11487642 -0.08312274 -0.0936413 -0.08036716 -0.20212013 -0.14085108
-0.08904474 0.10960721 -0.020859985 0.077629894 0.016722733 0.055772077 -0.05118197 0.22630458
00000000: dab9 863e 5d66 a43d 5444 ebbd 413c aabd
00000010: 03c7 bfbd 8a97 a4bd 94f8 4ebe 443b 10be
00000020: 175d b6bd bf79 e03d 8fe2 aabc 6cfc 9e3d
00000030: 1dfe 883c 4371 643d 2fa4 51bd 63bc 673e

encoder_variable_selection.single_variable_grns.Cases.fc1.weight f4 [8, 8]
0.020157939 1.456383 0.13703464 -0.31395394 -0.47581053 0.5030035 -0.30810127 -0.48224145
0.5229501 0.5050421 -0.2561332 -1.772156 -1.0773219 0.36871713 0.11578309 -0.09939492
1.2373085 0.05944268 -0.08067805 -0.00562592 -0.039948743 -0.2130786 -0.9095593 0.59394574
-0.565592 -0.13011229 0.74295485 0.45236298 0.81179917 0.02905599 0.13977788 0.5541918
-0.25498417 -0.33327523 0.12827435 0.29388428 0.2939232 0.25281596 0.1038743 0.26266307
-0.17231272 0.2114143 0.20727089 -1.3637046 -0.7390293 0.67828864 0.08581466 0.7004346
0.16743584 0.33658642 0.16058679 0.5830818 -1.3401537 0.29651096 0.4910526 -0.33747
-0.28381667 -0.39623722 -0.3830765 -0.75178087 -0.16435096 -0.2662394 -0.66733193 1.3763824
00000000: 4322 a53c c26a ba3f cf52 0c3e 92be a0be
00000010: 709d f3be d6c4 003f 73bf 9dbe 5ae8 f6be
00000020: 0fe0 053f 704a 013f e423 83be 02d6 e2bf
00000030: afe5 89bf 7ec8 bc3e af1f ed3d 908f cbbd
00000040: 2060 9e3f 2b7a 733d 893a a5bd a359 b8bb
00000050: 4ba1 23bd 4731 5abe e1d8 68bf d40c 183f
00000060: a3ca 10bf 283c 05be 4a32 3e3f 1f9c e73e
00000070: 12d2 4f3f d406 ee3c ef21 0f3e 84df 0d3f
00000080: 498d 82be 0da3 aabe 5a5a 033e 0078 963e
00000090: 1a7d 963e 1871 813e 0dbc d43d c67b 863e
000000a0: bf72 30be fe7c 583e d23e 543e df8d aebf
000000b0: 0631 3dbf 53a4 2d3f 99bf af3d af4f 333f
000000c0: 4d74 2b3e 0e55 ac3e dd70 243e d944 153f
000000d0: 288a abbf 49d0 973e 3f6b fb3e dec8 acbe
000000e0: 6b50 91be 9bdf cabe 9a22 c4be b674 40bf
000000f0: 9e4b 28be 8850 88be 44d6 2abf 4c2d b03f

encoder_variable_selection.single_variable_grns.Cases.fc1.bias f4 [8]
-0.2856829 -0.20992315 0.08632471 -0.06701645 0.12125442 -0.14306419 -0.3554296 -0.0024544706
00000000: 0745 92be 18f6 56be 02cb b03d ec3f 89bd
00000010: 3d54 f83d 6b7f 12be defa b5be 2fdb 20bb

encoder_variable_selection.single_variable_grns.Cases.fc2.weight f4 [8, 8]
-0.16116676 0.8221066 0.06823304 -0.40268505 0.4847191 -0.075293384 0.8397779 0.04763652
-0.14111397 0.15690885 -0.11337162 -0.640221 0.19620612 0.32316372 0.19053474 -1.1471198
-0.11097407 -0.4598983 -1.0233394 0.26953343 0.53797215 -0.3823786 -0.59288615 0.7897066
-0.30036736 -0.5444814 -0.5675225 -0.9998765 0.40258196 -0.7944924 -0.49142152 -0.31167096
0.45683402 0.7525763 0.1286974 0.3278184 0.28721243 0.07907781 0.23165524 0.55363315
0.28839773 0.06253243 0.9666914 0.6027712 -0.38060653 0.09962088 0.055341132 0.28009215
-0.57174003 -0.31305033 -0.5592594 0.2921896 -0.1360731 -0.32702094 0.5272205 -0.06479727
0.49685416 0.66733825 0.002960795 -0.17941639 0.088695295 0.084983446 0.011413209 0.007037129
00000000: e608 25be 9475 523f c4bd 8b3d bc2c cebe
00000010: 1a2d f83e 6b33 9abd affb 563f 831e 433d
00000020: 2e80 10be b7ac 203e 612f e8bd 86e5 23bf
00000030: 42ea 483e b775 a53e 8a1b 433e d2d4 92bf
00000040: 6046 e3bd ca77 ebbe c9fc 82bf 4900 8a3e
00000050: 8bb8 093f 21c7 c3be 63c7 17bf 362a 4a3f
00000060: c0c9 99be 2263 0bbf 2849 11bf e8f7 7fbf
00000070: 391f ce3e db63 4bbf 9a9b fbbe 5693 9fbe
00000080: 26e6 e93e d7a8 403f 40c9 033e d0d7 a73e
00000090: 820d 933e 8cf3 a13d 0837 6d3e e7ba 0d3f
000000a0: dea8 933e 0111 803d 1679 773f 374f 1a3f
000000b0: dcde c2be 0806 cc3d 62ad 623d 3d68 8f3e
000000c0: 8e5d 12bf 2248 a0be a02b 0fbf e099 953e
000000d0: bf56 0bbe 4a6f a7be ecf7 063f 6eb4 84bd
000000e0: ab63 fe3e aed6 2a3f e609 423b eeb8 37be
000000f0: e1a5 b53d cd0b ae3d 78fe 3a3c b797 e63b

encoder_variable_selection.single_variable_grns.Cases.fc2.bias f4 [8]
-0.24837081 -0.053348124 0.1208069 0.20397194 -0.05500568 0.04658138 0.008894966 -0.026972614
00000000: eb54 7ebe 9083 5abd 9c69 f73d 05de 503e
00000010: a34d 61bd 1ecc 3e3d 31bc 113c acf5 dcbc
