Archives/TFT-pytorch/results/age_subgroup_old/AGE5064/checkpoints/latest-epoch=3.ckpt (torch, 703031 bytes, 506 tensors)

prescalers.AGE5064.weight f4 [8, 1]
0	0xbe85ad04	-0.26108563
1	0xbeaa5a0e	-0.3327183
2	0x3ef7993a	0.4835909
3	0x3ec103c6	0.3769819
4	0xbf19240e	-0.5982064
5	0xbeb4bfbc	-0.35302532
6	0xbf14b09d	-0.5808199
7	0xbd0c1886	-0.034203075

prescalers.AGE5064.bias f4 [8]
0	0xbd933671	-0.07188118
1	0x3f039307	0.5139622
2	0x3f629894	0.88514066
3	0x3e82f7d7	0.25579712
4	0xbf09681b	-0.5367448
5	0xbf13c2a8	-0.57718897
6	0xbeeaaee7	-0.45836565
7	0x3de19ae1	0.11015869

prescalers.SinWeekly.weight f4 [8, 1]
0	0x3d8d1549	0.068888254
1	0xbf9b10a4	-1.2114453
2	0x3f7f049f	0.99616426
3	0xbf8cfadc	-1.1014056
4	0x3f1cbfad	0.61229974
5	0xbe94c464	-0.29056084
6	0x3f62af09	0.8854833
7	0x3efd6655	0.49492136

prescalers.SinWeekly.bias f4 [8]
0	0x3e618ebd	0.22027107
1	0xbd62cb20	-0.055369496
2	0x3f442020	0.7661152
3	0x3edee3af	0.43533084
4	0x3f03aca2	0.5143529
5	0xbf28ae4b	-0.6589095
6	0x3f3a9c7e	0.7289504
7	0x3ede22f1	0.43386033

prescalers.VaccinationFull.weight f4 [8, 1]
0	0x3e4fa779	0.2027873
1	0x3ed6d2e9	0.41957787
2	0x3f52a72f	0.8228635
3	0x3f27f568	0.65608835
4	0xbf000a1b	-0.5001542
5	0xbf570a83	-0.84000415
6	0xbf2f39c2	-0.68447506
7	0xbf178c8f	-0.5919885

prescalers.VaccinationFull.bias f4 [8]
0	0x3ef89704	0.48552716
1	0xbf214813	-0.630006
2	0xbf097a1b	-0.53701943
3	0x3f6ebe4f	0.9325914
4	0x3f7f27e6	0.99670255
5	0x3e8a5b1d	0.2702264
6	0xbc70e4c2	-0.014702978
7	0x3e92d607	0.28678915

prescalers.Cases.weight f4 [8, 1]
0	0x3f10b4ef	0.5652608
1	0xbf8a2fc3	-1.0795826
2	0xbf4d1c38	-0.80121183
3	0x3f253291	0.64530283
4	0x3fad029b	1.351642
5	0x3d2a2981	0.041543487
6	0xbf117b7c	-0.5682905
7	0x3ea15b1e	0.3151483

prescalers.Cases.bias f4 [8]
0	0xbf4f017b	-0.80861634
1	0xbdf21c19	-0.118217655
2	0x3f2acd21	0.6671925
3	0x3ecd52d3	0.40102252
4	0x3d7b0e72	0.061293073
5	0xbe90ee0a	-0.2830661
6	0x3f2e7c08	0.68158007
7	0xbf8dca2a	-1.107732

static_variable_selection.single_variable_grns.AGE5064.resample_norm.mask f4 [16]
0	0xbec8ebde	-0.39242452
1	0xbed751b8	-0.42054534
2	0xbe1b4b5c	-0.15165466
3	0x3c655469	0.013997176
4	0x3e809371	0.2511249
5	0x3f094de2	0.53634465
6	0x3ec160e8	0.37769246
7	0xbf015872	-0.5052558
8	0x3e904977	0.2818105
9	0x3dcee294	0.1010181
10	0x3dbf90d4	0.09353796
11	0x3d1680af	0.036743816
12	0x3e3b2614	0.18276244
13	0x3bd8e449	0.0066190106
14	0xbd0dec2b	-0.034649055
15	0xbf2c6103	-0.6733553

static_variable_selection.single_variable_grns.AGE5064.resample_norm.norm.weight f4 [16]
0	0x3ec7e87f	0.39044568
1	0x3f546dca	0.82980025
2	0x3f99816f	1.1992625
3	0x3f9afde5	1.2108732
4	0x3fc3232f	1.5245112
5	0x3fdc751d	1.722324
6	0x3fb29130	1.3950558
7	0x3f32e1a6	0.6987556
8	0x3fad5b83	1.3543552
9	0x3f96ee1c	1.1791415
10	0x3f8920c4	1.0713124
11	0x3fa0c5c6	1.2560356
12	0x3f97a894	1.1848321
13	0x3f8a6aa8	1.0813799
14	0x3f2f1f45	0.6840709
15	0x3f3a821e	0.72854793

static_variable_selection.single_variable_grns.AGE5064.resample_norm.norm.bias f4 [16]
0	0x3ed172b0	0.40907812
1	0xbe925dfe	-0.28587335
2	0xbb5e1331	-0.003388595
3	0x3e2fa040	0.17150974
4	0x3cfee2a7	0.031113936
5	0x3e1345af	0.14382051
6	0xbd6a4788	-0.057197124
7	0x3db2a40f	0.08722698
8	0xbe053644	-0.13008982
9	0xbd9b8754	-0.07594171
10	0x3e0dcc4d	0.13847466
11	0xbe2bac90	-0.16765046
12	0xbc98bbf1	-0.018644305
13	0xbe8ce570	-0.27518797
14	0xbd19d55a	-0.037556984
15	0x3e8cad8a	0.2747615

static_variable_selection.single_variable_grns.AGE5064.fc1.weight f4 [8, 8]
0	0x3e5c44d3	0.2151063
1	0xbf05e602	-0.5230409
2	0xbf1ae23c	-0.60501456
3	0xbef244a7	-0.47318003
4	0xbe81e0b5	-0.2536675
5	0xbfb2efd9	-1.3979446
6	0x3e7d6fc7	0.24749671
7	0xbec04b0c	-0.37557256
8	0xbf0c546a	-0.54816306
9	0xbf10c58c	-0.5655143
10	0xbd955578	-0.072916925
11	0x3e7825f3	0.24233226
12	0x3e1902a5	0.14942415
13	0xbf189ddb	-0.5961587
14	0x3f8e3b29	1.1111804
15	0x3c85dbf5	0.016340235
16	0x3e06f75c	0.13180298
17	0x3dff44a5	0.12464265
18	0x3f0e1cca	0.5551268
19	0x3db6e3da	0.08930178
20	0xbe38f916	-0.18063769
21	0xbe48986e	-0.19589397
22	0x3c66ff48	0.01409895
23	0xbe95c87a	-0.29254514
24	0xbec0b62f	-0.37638995
25	0xbda56f3c	-0.08077857
26	0xbe453f2a	-0.19262376
27	0xbf0257a9	-0.5091501
28	0xbe218933	-0.15774994
29	0x3e91f0a8	0.2850392
30	0xbd97a321	-0.07404161
31	0x3f003cbe	0.50092685
32	0xbede2471	-0.43387178
33	0x3edbaca2	0.42905146
34	0xbec51d7c	-0.38499057
35	0xbe230421	-0.15919544
36	0xbe77abe4	-0.24186665
37	0x3f67b0ac	0.90503955
38	0x3eac920c	0.33705175
39	0xbe7dfb56	-0.24802908
40	0x3e42ce5a	0.1902403
41	0xbe2d5b67	-0.16929398
42	0xbde5efcd	-0.11227379
43	0x3ea9b2b6	0.33144158
44	0x3da8e76c	0.08247265
45	0xbefda62c	-0.49540842
46	0xbe5d7265	-0.2162567
47	0xbd94cd82	-0.0726576
48	0xbe98a52a	-0.2981351
49	0xbf0691b3	-0.5256607
50	0xbebe2f12	-0.37145287
51	0x3d021924	0.031762257
52	0x3f1886c5	0.5958064
53	0x3f9212d1	1.1411992
54	0x3f1ca469	0.6118837
55	0xbed2fcba	-0.4120844
56	0xbef944a1	-0.48685172
57	0xbec8211d	-0.39087763
58	0xbe1091f1	-0.14118172
59	0x3dd8eaa3	0.105916284
60	0x3eaa91b0	0.33314276
61	0xbee9df78	-0.45678306
62	0x3f229c4f	0.6351976
63	0xbe80c127	-0.25147364

static_variable_selection.single_variable_grns.AGE5064.fc1.bias f4 [8]
0	0xbdce233f	-0.100653164
1	0x3e787ba8	0.24265921
2	0xbe662f0b	-0.22478883
3	0xbb359d1a	-0.0027712048
4	0xbdd9db5b	-0.10637542
5	0x3d2f98c6	0.042870305
6	0x3dfa4d85	0.12221817
7	0x3e08ea52	0.13370636

static_variable_selection.single_variable_grns.AGE5064.fc2.weight f4 [8, 8]
0	0x3d87bb8e	0.0662757
1	0x3f006208	0.50149584
2	0x3e4a74c8	0.19771111
3	0xbe85f096	-0.26160115
4	0x3e5c9bf2	0.21543863
5	0xbe20ea80	-0.15714455
6	0x3ed96d87	0.42466375
7	0x3e2c0bed	0.16801424
8	0xbed7eb00	-0.42171478
9	0xbe82d66b	-0.25554213
10	0x3e57f80d	0.21090718
11	0x3db6fac2	0.08934547
12	0x3e1f57b7	0.15560804
13	0x3e2d993a	0.16952983
14	0x3ea37c99	0.31930998
15	0x3e5fbe3d	0.21849914
16	0xbe2feba7	-0.17179738
17	0x3d3b5c13	0.045742106
18	0x3c4a9142	0.012363734
19	0x3ddc43c2	0.10755111
20	0x3e0ef453	0.1396039
21	0x3e32f706	0.17477044
22	0xbe57b219	-0.21064033
23	0x3e5748ba	0.21023837
24	0x3e95313d	0.29139128
25	0x3ce023ba	0.027360786
26	0x3efaea67	0.4900696
27	0x3d6e7b06	0.058222793
28	0x3d880eb3	0.06643429
29	0xbddd7b02	-0.108144775
30	0x3ebc1009	0.36730984
31	0xbe53fe93	-0.20702581
32	0x3efe1ad4	0.49629843
33	0xbe259c9f	-0.16173027
34	0x3e51c658	0.20485818
35	0x3cd06987	0.025440944
36	0x3e677d1c	0.22606319
37	0x3e923e82	0.28563315
38	0x3e92b033	0.28650054
39	0xbdc21684	-0.09476951
40	0x3e4da6c9	0.20083155
41	0xbe5e1448	-0.21687424
42	0xbebd4172	-0.36963993
43	0xbd2fb8d0	-0.04290086
44	0x3ebc6fbe	0.36804003
45	0xbdf88f42	-0.12136699
46	0xbef85cdf	-0.48508355
47	0x3e8373e3	0.25674352
48	0xbf08d9c0	-0.5345726
49	0x3cb21cd5	0.021742264
50	0x3db851a8	0.0899995
51	0xbe22e1f1	-0.15906502
52	0x3ebb6016	0.36596745
53	0x3e20806d	0.1567399
54	0xbeb47a99	-0.35249785
55	0xbea19720	-0.31560612
56	0x3ec9304e	0.39294666
57	0x3df9b72c	0.121931404
58	0xbf021d0f	-0.5082559
59	0xbea06134	-0.3132416
60	0xbdca0f82	-0.09866239
61	0x3e10e2c2	0.14149001
62	0xbd9813a7	-0.074256234
63	0xbf1ca33c	-0.61186576

static_variable_selection.single_variable_grns.AGE5064.fc2.bias f4 [8]
0	0x3e3efcc3	0.18651108
1	0x3e288a0a	0.16458908
2	0xbd7693fd	-0.060199726
3	0xbd2aa848	-0.04166439
4	0xbc82abae	-0.015951004
5	0xbd4a5049	-0.049392972
6	0x3e4b9f9e	0.19885108
7	0xbcd7ff0e	-0.026366737

static_variable_selection.single_variable_grns.AGE5064.gate_norm.glu.fc.weight f4 [32, 8]
0	0x3ebe4839	0.37164477
1	0x3ed35d79	0.4128225
2	0xbf01c2ed	-0.5068806
3	0x3d272d14	0.040814474
4	0x3eb32f8f	0.34997222
5	0xbf253a67	-0.6454224
6	0xbe879b64	-0.2648574
7	0xbe8e56c4	-0.27800572
8	0xbe3bbf08	-0.18334591
9	0xbe917e12	-0.28416497
10	0x3eb7fe8f	0.359364
11	0x3dc19a53	0.09453263
12	0xbf1c7a92	-0.6112453
13	0x3ef3389a	0.4750412
14	0x3d959c37	0.07305186
15	0xbc1e4f3b	-0.009662445
16	0x3ed6145b	0.41812405
17	0x3dac819a	0.08423157
18	0x3d5261d2	0.05136282
19	0xbebfb3bd	-0.37441817
20	0xbe5ab413	-0.21357755
21	0xbe02476b	-0.12722556
22	0x3e8887de	0.26666158
23	0x3e10616c	0.14099663
24	0xbe46f205	-0.1942826
25	0x3e8690c7	0.2628233
26	0xbe8465dc	-0.25858963
27	0xbeabac72	-0.33530003
28	0x3cbc9cd0	0.023023993
29	0xbe9ec79e	-0.3101167
30	0x3daeccfa	0.0853519
31	0x3db8028e	0.08984862
32	0xbe8d37fa	-0.2758177
33	0xbe39af11	-0.18133189
34	0x3ea12a31	0.31477502
35	0xbdc96fb3	-0.09835758
36	0x3d2b9cf6	0.041897736
37	0xbe18bf08	-0.14916623
38	0xbe0f51be	-0.13996026
39	0xbbacad0f	-0.0052696536
40	0x3d964f99	0.07339401
41	0xbd76cce5	-0.060253996
42	0xbe9bf758	-0.30462146
43	0x3ea78826	0.3272106
44	0xbc936f5f	-0.017997442
45	0xbe190e72	-0.14946917
46	0x3e7a2cc8	0.24431145
47	0x3df5739f	0.119849436
48	0xbed9118a	-0.42396194
49	0xbd8a57e0	-0.06755042
50	0x3e0942e3	0.13404422
51	0x3d221d7a	0.039578892
52	0x3c9c13b2	0.01905236
53	0x3c43708c	0.011928689
54	0x3e2e0c9d	0.16996999
55	0x3dc33c51	0.09532989
56	0x3e9bdf86	0.30443972
57	0x3e955eca	0.2917388
58	0xbe6fd76f	-0.23422025
59	0x3df9793d	0.121813275
60	0x3e8d10b7	0.27551815
61	0xbdc0d3e9	-0.09415419
62	0x3e66a3d0	0.22523427
63	0xbd6c96d5	-0.057761032
64	0xbe37bd52	-0.17943314
65	0xbeffe64a	-0.49980384
66	0x3e275bab	0.16343562
67	0x3e0ce2e2	0.13758424
68	0x3e7d60af	0.24743913
69	0x3ebd0acd	0.36922303
70	0xbc7ff8ff	-0.01562333
71	0x3ed6354b	0.41837534
72	0x3e4a2ccf	0.19743656
73	0xbeae3f78	-0.34032798
74	0x3e057be1	0.13035537
75	0xbe928784	-0.28619015
76	0xbe62ad6d	-0.22136469
77	0xbd9f7101	-0.07785226
78	0xbe26f46d	-0.16304179
79	0xbe0ec1e7	-0.13941155
80	0x3e18c0ac	0.14917248
81	0x3e286e77	0.16448389
82	0x3de941de	0.11389516
83	0xbe095946	-0.13412961
84	0x3ded6afb	0.115926705
85	0xbcd806bc	-0.026370399
86	0xbe00cc1f	-0.12577866
87	0x3e83b9fc	0.25727832
88	0xbaab56f2	-0.0013072176
89	0xbd09f72e	-0.033682995
90	0x3d4bb889	0.049736533
91	0xbd63cc9a	-0.055615045
92	0x3ed20188	0.41016793
93	0xbd14b495	-0.03630503
94	0xbecb65bb	-0.39726052
95	0x3ed77105	0.42078415
96	0xbe6bf14c	-0.23041266
97	0x3e71935d	0.23591371
98	0x3e6927a3	0.22769026
99	0xbd83faba	-0.06444307
100	0xbe2b01a5	-0.16699846
101	0xbe10fdd8	-0.14159334
102	0x3e819b46	0.25313777
103	0x3caa07d1	0.02075568
104	0xbe8c40b3	-0.27393112
105	0xbce0f5dc	-0.027460985
106	0x3d28ea78	0.04123923
107	0x3dd7c7aa	0.1053613
108	0xbec5fd83	-0.38669977
109	0xbdeb846a	-0.11499865
110	0x3db47b90	0.0881263
111	0x3e1d6463	0.15370326
112	0xbeb1cd49	-0.34726933
113	0xbd73811a	-0.059449293
114	0x3e423fa7	0.18969594
115	0xbe9dadde	-0.30796713
116	0xbeab97c5	-0.33514228
117	0x3e0906e5	0.13381536
118	0x3e0ca8a2	0.13736203
119	0xbe474489	-0.19459738
120	0xbdd9d58b	-0.10636433
121	0x3ec8beda	0.39208108
122	0xbe9cce51	-0.30626157
123	0x3e9e69f1	0.30940202
124	0x3ed3f48f	0.4139752
125	0x3e6f656b	0.23378532
126	0x3d35a862	0.044350035
127	0xbec5e17f	-0.38648602
128	0x3ee39859	0.4445217
129	0xbe9dba2f	-0.3080611
130	0x3eaaded8	0.3337314
131	0x3eba2d8f	0.36362883
132	0x3ee187be	0.44048876
133	0xbed9a5bd	-0.4250926
134	0xbef751db	-0.48304638
135	0xbe26cdd6	-0.16289458
136	0x3f54627d	0.8296278
137	0xbeaa8007	-0.33300802
138	0xbf1a9a0b	-0.603913
139	0x3e2b30d5	0.16717847
140	0x3edfd7c4	0.43719304
141	0xbe1c0505	-0.1523629
142	0xbe02656f	-0.12734006
143	0xb973c7df	-0.00023248744
144	0x3e98f997	0.29877922
145	0x3e2106f9	0.15725316
146	0xbe40a6e8	-0.1881367
147	0x3e23de57	0.16002785
148	0xbea8130c	-0.32827032
149	0x3e958326	0.2920162
150	0xbe792e3c	-0.24334043
151	0x3e3e6d34	0.18596345
152	0x3e2117ba	0.15731707
153	0xbd52bf9a	-0.051452257
154	0x3cf00732	0.029300306
155	0xbebfd1f7	-0.37464878
156	0xbead4e18	-0.33848643
157	0x3e58cff0	0.21173072
158	0xbf1fbd90	-0.62398624
159	0x3f336f05	0.7009128
160	0x3ed588fa	0.41706067
161	0xbed27278	-0.41102958
162	0xbe844aa0	-0.25838184
163	0x3dcc4c98	0.099755466
164	0x3e7b1e2e	0.24523231
165	0xbe45adf2	-0.19304636
166	0xbf79c064	-0.9755919
167	0x3f40a164	0.7524626
168	0x3dddfe09	0.10839469
169	0xbf284252	-0.65726197
170	0x3e63bd1e	0.22240111
171	0xbe0b707f	-0.13617133
172	0x3e9254b1	0.2858024
173	0xbd81323c	-0.063084096
174	0xbf3fc7f2	-0.7491447
175	0x3f5d85a1	0.86532027
176	0x3ed7a1f3	0.42115745
177	0x3d1e00fe	0.038575165
178	0xbde4b707	-0.11167722
179	0xbd72b125	-0.05925097
180	0xbe57edae	-0.21086761
181	0xbe00e05c	-0.12585586
182	0xbed3faef	-0.41402385
183	0x3ecada7f	0.39619824
184	0x3e6c2197	0.23059689
185	0x3e5cbbd1	0.21556021
186	0xbd089815	-0.03334816
187	0x3d965d57	0.07342022
188	0x3e897ed9	0.2685459
189	0xbd65b0a3	-0.056076657
190	0xbd42c14d	-0.047547627
191	0xbe758e40	-0.23980045
192	0x3e9ddb42	0.30831343
193	0x3e08b541	0.13350393
194	0xbd1b0700	-0.037848473
195	0xbb0abb46	-0.0021168753
196	0x3dea9c5b	0.11455604
197	0xbd9fb842	-0.07798816
198	0xbe4bba2a	-0.19895235
199	0x3f2b47b3	0.6690628
200	0xbd2437be	-0.040092222
201	0xbe47c4c0	-0.19508648
202	0x3ebb68e5	0.36603466
203	0xbf17e57d	-0.59334546
204	0x3f07605c	0.5288141
205	0xbe3005ba	-0.17189685
206	0xbe472d7b	-0.19450943
207	0x3f8dbf67	1.1074036
208	0x3e2f7ffd	0.17138667
209	0xbf83bc7a	-1.0291893
210	0x3ec1660a	0.37773162
211	0xbe0c8109	-0.13721098
212	0xbf1c372f	-0.61021703
213	0x3c8b61a8	0.01701434
214	0x3cc462ac	0.023972832
215	0x3cb28ef4	0.021796681
216	0x3c5feea4	0.013667736
217	0xbe748797	-0.23879848
218	0x3eef26ac	0.46709192
219	0xbdc82b20	-0.097738504
220	0xbe74131d	-0.23835416
221	0x3e9d4dfd	0.30723563
222	0x3d96673c	0.07343909
223	0x3dea11e6	0.11429195
224	0xbecf36d6	-0.40471524
225	0xbf13ee97	-0.57785934
226	0x3eebba58	0.46040606
227	0xbefcb089	-0.49353436
228	0xbe00b9ef	-0.12570928
229	0x3ec96f35	0.39342657
230	0xbf47f25e	-0.781042
231	0x3f8caf31	1.0990964
232	0x3e92f752	0.28704315
233	0xbf16b9e3	-0.5887739
234	0xbe355be5	-0.17710836
235	0xbe4be9bd	-0.19913383
236	0x3ee7b445	0.45254722
237	0x3eba3e92	0.36375862
238	0xbc148a09	-0.009066113
239	0x3ed29428	0.4112866
240	0x3f456378	0.771049
241	0xbcfc67f7	-0.030811293
242	0xbcf33d3a	-0.029692281
243	0xbe5d7e26	-0.21630153
244	0x3f167ddc	0.58785796
245	0xbe9bd705	-0.30437484
246	0xbea96282	-0.33082968
247	0x3f6bb975	0.9207986
248	0x3be08c11	0.0068526347
249	0xbe5b3aed	-0.21409197
250	0xbe84b5ee	-0.2592005
251	0xbe282de1	-0.16423751
252	0x3e6085c2	0.21926025
253	0xbd9d93b3	-0.07694187
254	0xbe82d52f	-0.2555327
255	0x3f2fe676	0.6871103

static_variable_selection.single_variable_grns.AGE5064.gate_norm.glu.fc.bias f4 [32]
0	0x3ec25be1	0.37960723
1	0xbe84d411	-0.25943044
2	0x3d2291cd	0.039689828
3	0x3dc469c0	0.09590483
4	0x3cc27d14	0.023741283
5	0x3d477f5e	0.04870545
6	0xbdbaae27	-0.09115248
7	0x3dd0e258	0.10199422
8	0xbd8d3d04	-0.068964034
9	0xbc8165dc	-0.01579564
10	0x3e2b64ef	0.16737722
11	0xbe03219c	-0.1280579
12	0x3c924ff0	0.017860383
13	0xbe7280b5	-0.2368191
14	0xbc90b08d	-0.017662311
15	0x3e62cc4e	0.22148249
16	0xbe8e85bb	-0.27836403
17	0xbe8ca7c8	-0.27471757
18	0xbefcbfbc	-0.49365032
19	0xbfa05fb7	-1.252921
20	0xbf7fdbbc	-0.99944663
21	0xbf872436	-1.0557926
22	0xbf1835ad	-0.594569
23	0xbea0700d	-0.31335488
24	0xbec80973	-0.3906971
25	0xbf55fa82	-0.8358537
26	0xbf6240b7	-0.88379997
27	0xbe823afb	-0.25435624
28	0xbfa22ac0	-1.2669296
29	0xbf02728a	-0.5095602
30	0xbf1d151a	-0.61360323
31	0xbe7aed58	-0.24504602

static_variable_selection.single_variable_grns.AGE5064.gate_norm.add_norm.norm.weight f4 [16]
0	0x3f2b2eb3	0.6686813
1	0x3f11fddd	0.5702799
2	0x3f99a65c	1.2003894
3	0x3f9ef3b9	1.2418128
4	0x3fb610fb	1.4223932
5	0x3fc21c9f	1.5164984
6	0x3fa63d2f	1.2987422
7	0x3efb546f	0.49087855
8	0x3f8a580b	1.0808119
9	0x3f83d273	1.0298599
10	0x3f7b53c6	0.98174703
11	0x3f9c9370	1.2232494
12	0x3f5d66e3	0.8648512
13	0x3f86e11a	1.0537446
14	0x3ee2d552	0.44303375
15	0x3e904ae7	0.28182146

static_variable_selection.single_variable_grns.AGE5064.gate_norm.add_norm.norm.bias f4 [16]
0	0x3ef84469	0.48489693
1	0xbe6eee68	-0.23333132
2	0x3dd10a37	0.102070265
3	0x3e8fba98	0.28072047
4	0x3d9c62e1	0.07636047
5	0x3e248608	0.16066754
6	0xbd3dca26	-0.046335362
7	0x3b14d84f	0.0022711938
8	0xbe0cee01	-0.13762666
9	0xbd96fee9	-0.07372839
10	0x3e1301a9	0.14356102
11	0xbe7b9c1d	-0.24571271
12	0x3d12ba14	0.03582199
13	0xbe6beb43	-0.23038964
14	0xbda07ee8	-0.078367054
15	0x3ea04e6c	0.3130983

static_variable_selection.prescalers.AGE5064.weight f4 [8, 1]
0	0xbe85ad04	-0.26108563
1	0xbeaa5a0e	-0.3327183
2	0x3ef7993a	0.4835909
3	0x3ec103c6	0.3769819
4	0xbf19240e	-0.5982064
5	0xbeb4bfbc	-0.35302532
6	0xbf14b09d	-0.5808199
7	0xbd0c1886	-0.034203075

static_variable_selection.prescalers.AGE5064.bias f4 [8]
0	0xbd933671	-0.07188118
1	0x3f039307	0.5139622
2	0x3f629894	0.88514066
3	0x3e82f7d7	0.25579712
4	0xbf09681b	-0.5367448
5	0xbf13c2a8	-0.57718897
6	0xbeeaaee7	-0.45836565
7	0x3de19ae1	0.11015869

encoder_variable_selection.flattened_grn.resample_norm.mask f4 [3]
0	0xbf1f0ce3	-0.6212904
1	0xbe3c1352	-0.18366745
2	0x3f16e633	0.58945006

encoder_variable_selection.flattened_grn.resample_norm.norm.weight f4 [3]
0	0x3f7a6615	0.97812015
1	0x3f67ed98	0.90596914
2	0x400ea5c0	2.2288666

encoder_variable_selection.flattened_grn.resample_norm.norm.bias f4 [3]
0	0x3e9a93e0	0.30190945
1	0x3da8dc10	0.082450986
2	0xbf4424bd	-0.7661856

encoder_variable_selection.flattened_grn.fc1.weight f4 [3, 24]
0	0x3eaa8016	0.33300847
1	0x3bcfcc6b	0.006341507
2	0x3c8846a4	0.016635247
3	0x3e5f8e58	0.21831644
4	0xbda1afd5	-0.078948654
5	0x3e5eb3f4	0.21748334
6	0xbe98789f	-0.29779527
7	0xbea528ab	-0.3225759
8	0xbf229472	-0.6350776
9	0xbd2e9772	-0.0426249
10	0xbe469e4d	-0.19396324
11	0xbfb4bcc5	-1.4120108
12	0x3ccf361a	0.025294352
13	0x3e93f296	0.28896016
14	0x3eba8046	0.3642599
15	0x3ea269dd	0.31721392
16	0x3f24216a	0.64113486
17	0xbf5380e8	-0.8261857
18	0x3e15c660	0.14626455
19	0x3da37d27	0.07982855
20	0x3e7207a1	0.23635723
21	0x3e67d81b	0.22641031
22	0xbd05a1f9	-0.032625172
23	0x3f200614	0.62509274
24	0x3e71d384	0.23615843
25	0xbdd790fb	-0.105257
26	0xbe324bb6	-0.17411694
27	0xbf17aa43	-0.59244174
28	0x3e9b0893	0.3027998
29	0x3cda37f3	0.026638007
30	0x3e87b7b9	0.26507357
31	0x3f44a690	0.76816654
32	0xbeddc55e	-0.43314642
33	0x3df52cb8	0.1197142
34	0xbf3a21b7	-0.72707695
35	0xbf0c2343	-0.54741305
36	0x3cb1204e	0.02162185
37	0x3e2655ec	0.16243714
38	0x3e72b3f8	0.23701465
39	0x3eb53eaf	0.35399386
40	0xbec4549e	-0.38345808
41	0x3eba7bf9	0.3642271
42	0xbce93e88	-0.0284722
43	0xbec306a2	-0.38090998
44	0xbecc33a8	-0.3988316
45	0x3e415446	0.18879804
46	0x3ed5e8ed	0.4177927
47	0xbe4d9acc	-0.20078582
48	0x3e74761f	0.23873185
49	0xbe2a8eff	-0.16656111
50	0xbe93d855	-0.28875986
51	0x3e9a2c7b	0.3011206
52	0x3e46de1d	0.19420667
53	0x3f0b40e4	0.5439589
54	0xbe759de5	-0.23986013
55	0x3e5e787c	0.21725649
56	0xbf0e67f6	-0.5562738
57	0x3e222581	0.15834619
58	0xbd33f815	-0.04393776
59	0x3e1e084e	0.15432855
60	0xbb9d5c76	-0.004802282
61	0x3e5de31d	0.21668668
62	0x3f057e24	0.521456
63	0x3ed8af9a	0.42321473
64	0xbe0f1201	-0.13971712
65	0x3f45093b	0.7696721
66	0x3eaac703	0.3335496
67	0xbef72a45	-0.48274437
68	0xbf268cb4	-0.65058446
69	0xbe7ff33a	-0.24995127
70	0xbe02e581	-0.12782861
71	0x3d1cf7a4	0.038322106

encoder_variable_selection.flattened_grn.fc1.bias f4 [3]
0	0xbe739701	-0.23788072
1	0xbe25759b	-0.16158144
2	0xbe59bb61	-0.21262886

encoder_variable_selection.flattened_grn.context.weight f4 [3, 16]
0	0xbd46f211	-0.048570696
1	0xbe0cbc19	-0.13743629
2	0xbdccafd2	-0.099944726
3	0xbe529b71	-0.20567109
4	0x3dc44e2c	0.095852226
5	0xbcd66c1f	-0.026174603
6	0xbda21b61	-0.07915378
7	0xbdeb720c	-0.11496362
8	0xbe7a2ba9	-0.24430718
9	0xbe181da6	-0.1485506
10	0xbdba4134	-0.09094468
11	0xbccfcd20	-0.025366366
12	0x3c2aae77	0.010417572
13	0xbd296bbd	-0.041362513
14	0xbe3b8cc3	-0.18315415
15	0xbe82686a	-0.25470287
16	0x3cf3a612	0.029742274
17	0xbe4b885a	-0.19876233
18	0x3ec0b9a0	0.3764162
19	0xbed4bb60	-0.41549206
20	0xbf2f664e	-0.6851548
21	0x3ef3b85b	0.4760159
22	0x3e018fb3	0.12652473
23	0xbe0e9984	-0.13925749
24	0x3e4a01ac	0.197272
25	0xbe0edd47	-0.13951598
26	0x3e3440a1	0.17602779
27	0xbdbc859b	-0.09205171
28	0x3d571701	0.052512173
29	0x3ecbd96c	0.39814317
30	0xbf16d537	-0.5891909
31	0xbea35886	-0.31903476
32	0x3e18712a	0.14886919
33	0xbe20a2ca	-0.15687099
34	0x3eaef9b3	0.3417488
35	0xbeacdffd	-0.3376464
36	0xbe9992c1	-0.29994777
37	0x3f2a3838	0.66492033
38	0x3e3e6028	0.18591368
39	0x3d39a979	0.045327637
40	0xbec7d981	-0.3903313
41	0x3de0679c	0.10957262
42	0xbe41fccc	-0.1894409
43	0x3d2d886b	0.042366426
44	0x3c896533	0.016771888
45	0x3dce6c34	0.10079232
46	0xbebb0b9f	-0.36532304
47	0x3e2a3df8	0.16625202

encoder_variable_selection.flattened_grn.fc2.weight f4 [3, 3]
0	0xbf3dbe62	-0.74118626
1	0xbf8f56b9	-1.1198341
2	0xbe9b5170	-0.3033557
3	0xbf128824	-0.57238984
4	0xbf6c1a32	-0.9222747
5	0xbe7ff7d3	-0.24996881
6	0xbebfe9c4	-0.37483037
7	0xbf7848c2	-0.9698602
8	0xbf2cd067	-0.67505497

encoder_variable_selection.flattened_grn.fc2.bias f4 [3]
0	0x3e840524	0.25785172
1	0xbcd1ed55	-0.025625864
2	0xbe401c64	-0.1876083

encoder_variable_selection.flattened_grn.gate_norm.glu.fc.weight f4 [6, 3]
0	0x3e44154d	0.1914875
1	0xbe83b464	-0.25723565
2	0x3f175be6	0.591246
3	0x3dcd29e8	0.100177586
4	0xbeb1e795	-0.34746996
5	0x3ee83412	0.45352226
6	0xbf6a3d31	-0.9149962
7	0xbf89f62d	-1.0778252
8	0xbf060dda	-0.52364886
9	0xbe76400f	-0.24047874
10	0xbea9e06d	-0.33179036
11	0x3f4aede6	0.79269254
12	0x3f0e3968	0.55556345
13	0xbec099e7	-0.37617418
14	0xbe8f15c2	-0.27946287
15	0x3f841b63	1.0320858
16	0x3f45e3a2	0.77300465
17	0x3f127012	0.57202256

encoder_variable_selection.flattened_grn.gate_norm.glu.fc.bias f4 [6]
0	0x3e55ab6a	0.2086617
1	0x3ae2188f	0.0017249751
2	0xbf429433	-0.76007384
3	0xbea0cbd9	-0.31405523
4	0xbe905e68	-0.28197026
5	0x3ea29688	0.3175547

encoder_variable_selection.flattened_grn.gate_norm.add_norm.norm.weight f4 [3]
0	0x3ee30cb8	0.4434564
1	0x3dec74b1	0.115456946
2	0x3e3806cb	0.17971341

encoder_variable_selection.flattened_grn.gate_norm.add_norm.norm.bias f4 [3]
0	0x3d1abdd5	0.037778694
1	0xbeb7fcb6	-0.3593499
2	0x3f142101	0.5786286

encoder_variable_selection.single_variable_grns.SinWeekly.resample_norm.mask f4 [16]
0	0xbe2f8e75	-0.17144187
1	0x3ebca415	0.36843935
2	0x3e2882b2	0.16456106
3	0xbd0872ff	-0.033312794
4	0xbeda0155	-0.4257914
5	0xbe9d40e3	-0.30713567
6	0x3f2d64af	0.67731756
7	0xbf2c81b1	-0.67385393
8	0xbf765798	-0.9622741
9	0xbe043d8b	-0.12914102
10	0xbec09527	-0.37613794
11	0xbe170555	-0.14748128
12	0xbe5a7cbf	-0.2133665
13	0xbd088918	-0.033333868
14	0x3f150f74	0.58226705
15	0x3e2b6c01	0.16740419

encoder_variable_selection.single_variable_grns.SinWeekly.resample_norm.norm.weight f4 [16]
0	0x3f197580	0.59944916
1	0x3f55e0f1	0.8354636
2	0x3fabdd37	1.3426884
3	0x3f90f084	1.13234
4	0x3f5c032a	0.8594233
5	0x3f6f480c	0.9346931
6	0x3fdd3035	1.7280337
7	0x3e73917a	0.23785964
8	0x3c1a07b9	0.009401255
9	0x3f46d34e	0.77666175
10	0x3f7b918f	0.9826898
11	0x3f9ef0ea	1.2417271
12	0x3f81b707	1.013398
13	0x3f8f9351	1.1216832
14	0x40127f8a	2.2890344
15	0x3f855ba3	1.041859

encoder_variable_selection.single_variable_grns.SinWeekly.resample_norm.norm.bias f4 [16]
0	0x3d70a2ad	0.05874889
1	0x3df4221d	0.11920569
2	0xbe271a6c	-0.16318673
3	0x3e697a0a	0.2280046
4	0x3caee482	0.021349195
5	0xbe4ecbae	-0.20194885
6	0xbe371fb0	-0.17883182
7	0xbe8e64f3	-0.27811393
8	0xbbeb71de	-0.007185205
9	0x3bda5562	0.0066630105
10	0xbc923585	-0.017847786
11	0x3e81d5a5	0.2535831
12	0xbca76645	-0.020434508
13	0x3cc1f442	0.023676042
14	0xbd4f09e5	-0.050546546
15	0x3e05e532	0.13075712

encoder_variable_selection.single_variable_grns.SinWeekly.fc1.weight f4 [8, 8]
0	0x3f4e27b2	0.8052932
1	0xbfce070f	-1.6095904
2	0xbf5ba393	-0.8579647
3	0xc005f1ac	-2.0928755
4	0xbebfd764	-0.37469018
5	0x3d8a2d1f	0.067468874
6	0x3e766de5	0.24065359
7	0x3ec4b5fc	0.38420093
8	0xbe86d197	-0.2633178
9	0x3ea97d92	0.33103615
10	0xbf3ae2e2	-0.73002446
11	0xbe5b83a4	-0.21436936
12	0xbf2f9fe9	-0.6860338
13	0x3f93d114	1.154818
14	0xbf802a71	-1.0012952
15	0xbf64a5c2	-0.89315426
16	0xbe55a18c	-0.20862406
17	0x3d764445	0.0601237
18	0xbf228fb0	-0.635005
19	0x3ec4ff73	0.38476142
20	0xbf77278a	-0.96544707
21	0x3ede7c07	0.43454
22	0x3f3069aa	0.6891123
23	0x3da4aa96	0.08040349
24	0x3eb1b1ef	0.34706065
25	0x3d79b928	0.060967594
26	0xbeb94d7b	-0.36191925
27	0x3e223ccd	0.15843506
28	0x3eae7952	0.34076935
29	0x3e1487f5	0.14504988
30	0x3e8dd1ba	0.2769907
31	0x3f11efc9	0.5700651
32	0xbf078b9d	-0.5294741
33	0xbdd8ef29	-0.10592491
34	0x3f98c72b	1.1935781
35	0x3dc2f2ec	0.0951899
36	0x3e596133	0.21228485
37	0x3f247ce5	0.64253074
38	0x3f1c803e	0.6113318
39	0xbf694ac8	-0.9112973
40	0x3f38d19e	0.7219485
41	0xbe8fa397	-0.28054497
42	0xbf2bf149	-0.67165047
43	0x3d3e1247	0.04640415
44	0x3e5f8061	0.21826316
45	0xbeabd676	-0.33562058
46	0xbe02a0f2	-0.12756708
47	0x3e80ec8c	0.2518047
48	0xbfa372ad	-1.2769371
49	0xbdff233a	-0.12457891
50	0xc005ca4b	-2.090472
51	0x3ef43a04	0.47700512
52	0xbf8c9ead	-1.0985924
53	0x3f0dbf78	0.55370283
54	0xbfd6f7be	-1.6794355
55	0xbfab93cf	-1.3404483
56	0x3e962a33	0.2932907
57	0xbcb81b7d	-0.022474045
58	0xbf2ff571	-0.6873389
59	0x3e1a3384	0.15058714
60	0x3f59175f	0.84801286
61	0x3f17b750	0.5926409
62	0xbddd7bf6	-0.10814659
63	0x3ed8ad09	0.42319515

encoder_variable_selection.single_variable_grns.SinWeekly.fc1.bias f4 [8]
0	0xbeb9fcc9	-0.36325672
1	0xbe4cd107	-0.20001613
2	0x3d35aa36	0.04435178
3	0xbde5dee9	-0.11224157
4	0x3dd65831	0.1046604
5	0xbc268e77	-0.010165802
6	0xbed0a8ff	-0.40753934
7	0xbe390480	-0.18068123

encoder_variable_selection.single_variable_grns.SinWeekly.fc2.weight f4 [8, 8]
0	0xbf7325de	-0.94979656
1	0x3e21a1dd	0.15784402
2	0xbf9947b9	-1.1975013
3	0xbe801ae4	-0.25020516
4	0xbe8fc9bf	-0.28083608
5	0xba9f6aa0	-0.0012162514
6	0x3f3593d7	0.7092871
7	0xbe9dba16	-0.30806035
8	0x3e19134e	0.1494877
9	0xbe640ec9	-0.22271265
10	0x3d52cc07	0.051464107
11	0xbd0b4659	-0.034002636
12	0x3e3b5f62	0.18298104
13	0x3e1cebbb	0.15324299
14	0x3f497f6b	0.7871005
15	0x3e0c9f47	0.13732634
16	0x3f18c7bb	0.59679765
17	0xbe59b45b	-0.21260206
18	0x3d79f0c8	0.061020643
19	0xbe97f7f5	-0.29681364
20	0x3eda105d	0.4259061
21	0x3cbd9846	0.023143899
22	0x3f5b84ef	0.85749716
23	0x3edd3c8a	0.4321025
24	0x3f13e3d6	0.57769525
25	0x3f72ed8e	0.9489373
26	0x3ea699e9	0.325393
27	0x3dcbafa1	0.09945608
28	0x3e813610	0.2523656
29	0xbdaaf882	-0.0834818
30	0x3ed9a121	0.42505744
31	0xbe5ff006	-0.21868905
32	0xbf618f96	-0.8810972
33	0x3f7c6b6f	0.9860143
34	0xbf128e5f	-0.5724849
35	0x3e2c9708	0.16854489
36	0x3e56021f	0.20899247
37	0x3e8ae2ac	0.27126062
38	0x3ea58abe	0.32332414
39	0xbea5d7e2	-0.32391268
40	0x3f357e8b	0.70896214
41	0xbed2af43	-0.4114934
42	0xbebd3ef2	-0.36962086
43	0xbe9adf98	-0.30248713
44	0xbf276fa3	-0.6540472
45	0x3e8390e2	0.25696474
46	0xbedb2893	-0.42804393
47	0xbe1d7ff6	-0.15380844
48	0xbf3944fd	-0.7237089
49	0x3e3761e5	0.17908438
50	0x3e4d97ad	0.20077391
51	0xbe1d3750	-0.15353131
52	0x3e180a97	0.1484779
53	0x3d008e19	0.031385515
54	0x3efa5f78	0.48900962
55	0x3ec145b6	0.37748498
56	0x3f22278a	0.6334158
57	0x3cfcdfde	0.030868467
58	0x3eb8f0e1	0.36121276
59	0x3e96c199	0.29444578
60	0x3f0dea9f	0.5543613
61	0x3db03db9	0.08605523
62	0x3f8e984a	1.1140225
63	0xbe90f1d6	-0.28309506

encoder_variable_selection.single_variable_grns.SinWeekly.fc2.bias f4 [8]
0	0x3c439a0d	0.011938584
1	0xbddaa12b	-0.106752716
2	0x3dc25342	0.094885364
3	0x3e6fc3cd	0.23414536
4	0x3e138d31	0.14409329
5	0xbd7bb0fb	-0.06144808
6	0x3e5c1162	0.21491006
7	0x3ec2b606	0.38029498

encoder_variable_selection.single_variable_grns.SinWeekly.gate_norm.glu.fc.weight f4 [32, 8]
0	0x3ef444d2	0.47708756
1	0xbc86cbce	-0.016454604
2	0x3e472a8f	0.19449829
3	0xbd6b1c52	-0.057400055
4	0x3dfcd837	0.12345927
5	0xbec529dc	-0.385085
6	0xbda80709	-0.08204467
7	0x3de002cd	0.10938034
8	0xbc99465f	-0.018710313
9	0x3e19f54a	0.15034977
10	0xbdbe9a48	-0.093067706
11	0xbe71ffb0	-0.23632693
12	0x3d126ae3	0.035746466
13	0x3c1c9377	0.009556643
14	0x3e3f047c	0.18654054
15	0xbe47600c	-0.19470233
16	0x3f10cbb7	0.56560844
17	0x3e8c1c12	0.27365166
18	0x3ed3031e	0.41213316
19	0x3f05704f	0.52124494
20	0x3f007f88	0.501946
21	0xbf1eab13	-0.6197979
22	0x3e8e7203	0.2782136
23	0x3f032b2f	0.5123777
24	0xbe048c15	-0.12944062
25	0xbd8c804f	-0.068604104
26	0xbd85c183	-0.0653105
27	0xbd9bc058	-0.07605046
28	0xbccc6abc	-0.024953239
29	0x3e126090	0.14294648
30	0xbd42d46e	-0.04756587
31	0x3f00f403	0.5037233
32	0x3ee4e6c1	0.447073
33	0x3ee56bf5	0.44808927
34	0xbd73cbf6	-0.059520684
35	0x3eb530b8	0.35388732
36	0x3e5adf55	0.21374257
37	0xbf011140	-0.50416946
38	0x3f0b907c	0.5451734
39	0x3eb6c478	0.3569677
40	0x3d85d046	0.06533866
41	0xbe7eedde	-0.24895427
42	0xbe5c1f2e	-0.21496269
43	0xbc37769f	-0.011197715
44	0xbe84633d	-0.25856963
45	0xbdc0bb1f	-0.094106905
46	0xbe4bb1ae	-0.19891998
47	0x3d82bee2	0.06384064
48	0x3ed1f162	0.41004473
49	0xbe7f6e53	-0.24944429
50	0xbf6db9fd	-0.9286192
51	0xbf3c444d	-0.7354172
52	0x3e8c5640	0.27409554
53	0xbef6089f	-0.48053452
54	0x3ee0b248	0.43886018
55	0xbf3d0c70	-0.73847103
56	0xbf0de298	-0.5542388
57	0x3e376858	0.17910898
58	0x3ea5f7da	0.32415658
59	0xbe24da95	-0.16099007
60	0xbe921246	-0.28529567
61	0x3e693941	0.22775747
62	0xbe6efa8f	-0.23337768
63	0x3e3fe542	0.18739799
64	0x3ef91433	0.48648223
65	0x3f1b662d	0.6070278
66	0x3ec73be1	0.3891287
67	0x3f3ad21a	0.7297684
68	0x3f294b07	0.6613011
69	0xbf335cb6	-0.7006334
70	0x3f209ddb	0.6274087
71	0x3f0b2fae	0.5436963
72	0x3c36f76c	0.011167388
73	0xbe79bb5a	-0.24387875
74	0x3d5b97ee	0.05361169
75	0xbe2768e3	-0.16348605
76	0xbde20984	-0.11036971
77	0xbd0f25ec	-0.034948274
78	0x3dec7c8d	0.11547194
79	0x3e3293f0	0.17439246
80	0x3e0666f2	0.13125208
81	0x3e0b1447	0.13581954
82	0x3c761064	0.015018556
83	0x3c6c9b03	0.014441255
84	0x3d8a19ef	0.06743228
85	0xbd78d343	-0.06074835
86	0xbd91b26b	-0.07114109
87	0x3ea96fcb	0.33093104
88	0x3f0ac057	0.5419974
89	0x3f1b5a7c	0.60684943
90	0x3f10653c	0.5640447
91	0x3f4d210e	0.8012856
92	0x3f099c00	0.5375366
93	0xbf4abdf9	-0.79196125
94	0x3f40ecd4	0.7536137
95	0x3f5381d8	0.8262
96	0x3f0681cf	0.5254182
97	0x3e925546	0.28580683
98	0xbe0123a5	-0.12611254
99	0x3d89a4f8	0.067209184
100	0x3f126d95	0.5719846
101	0xbee7b95a	-0.452586
102	0x3ed29f8b	0.41137347
103	0xbe374a0e	-0.17899343
104	0xbe087790	-0.1332686
105	0xbf1bea8a	-0.60904753
106	0xbeb4269a	-0.351857
107	0xbf1194d4	-0.5686772
108	0xbe9e893d	-0.3096408
109	0x3ec89ba7	0.39181253
110	0xbeb1f45d	-0.34756747
111	0xbf249ab2	-0.64298546
112	0xbeff7e9f	-0.49901292
113	0xbf124f09	-0.5715185
114	0x3f2f57b6	0.6849321
115	0xbe95b320	-0.29238224
116	0xbede8c4b	-0.4346641
117	0x3f38c5d7	0.7217688
118	0xbf34b73f	-0.7059211
119	0x3e95e5b5	0.29276815
120	0xbe0197dd	-0.12655587
121	0xbeeb229c	-0.45924842
122	0xbec24a24	-0.3794719
123	0xbe7da443	-0.24769692
124	0xbe53756b	-0.2065026
125	0x3d7f3644	0.06230761
126	0xbe55050c	-0.20802706
127	0xbea092cc	-0.31361997
128	0x3ee22c71	0.4417453
129	0x3d685f24	0.05673136
130	0x3e1d7a77	0.15378748
131	0x3ee2b27d	0.442768
132	0x3e772c60	0.24138021
133	0xbedfd6e3	-0.43718633
134	0x3e22724e	0.15863916
135	0xbeafa0e4	-0.34302437
136	0x3ebd14c4	0.36929905
137	0xbe7ef8af	-0.24899553
138	0xbe5ea604	-0.21743017
139	0xbe3c1a5c	-0.1836943
140	0x3ec3747c	0.38174808
141	0x3d502c4f	0.050823506
142	0xbe0c466d	-0.1369874
143	0xbf10729a	-0.5642487
144	0x3f34f5ac	0.70687366
145	0x3e96564a	0.29362708
146	0xbca66b6a	-0.02031489
147	0x3e91c43a	0.2847002
148	0x3e8e4a7a	0.27791196
149	0xbf34dad3	-0.706464
150	0x3e964d1e	0.2935571
151	0x3ecb8d00	0.39756012
152	0xbed9e886	-0.42560214
153	0xbedde920	-0.43341923
154	0x3f38e201	0.72219855
155	0xbcca0c05	-0.024663934
156	0xbf6ccc36	-0.924991
157	0x3f1b300d	0.60620195
158	0xbe2e1640	-0.17000675
159	0x3f4a7527	0.7908501
160	0x3eee892f	0.46589038
161	0x3f37dc93	0.71820945
162	0xbe0f3ad9	-0.13987292
163	0x3edb0439	0.4277666
164	0x3eea5745	0.45769706
165	0xbf4be899	-0.7965179
166	0x3f82a1b1	1.0205594
167	0x3ec66f69	0.38756874
168	0x3de6efcd	0.11276207
169	0xbe012bf3	-0.12614422
170	0xbde63c69	-0.11241991
171	0x3e5ea46a	0.21742406
172	0x3da77f35	0.0817856
173	0x3d678569	0.056523714
174	0x3e81b1cb	0.25330958
175	0xbf4490d2	-0.7678348
176	0xbe318ad6	-0.17338118
177	0xbec89ae5	-0.39180675
178	0x3e9ffcf5	0.31247678
179	0x3d5d8022	0.054077275
180	0xbe7a049d	-0.24415822
181	0x3dda14df	0.10648512
182	0xbe68ae9a	-0.22722855
183	0x3eeab783	0.45843133
184	0xbf3a116d	-0.7268284
185	0x3c8bfbfe	0.017087933
186	0x3e940551	0.28910306
187	0xbde72662	-0.11286618
188	0xbe70248c	-0.23451442
189	0x3ee24224	0.44191086
190	0xbeddcaae	-0.43318695
191	0x3d311c34	0.043239787
192	0x3eb4f75b	0.35344967
193	0x3e171f76	0.14758095
194	0x3ca7ac98	0.020468041
195	0x3d82e281	0.063908584
196	0x3f148f8c	0.58031535
197	0xbf08bd06	-0.53413427
198	0x3f344f53	0.7043354
199	0x3e0f6c54	0.14006168
200	0xbb7ec79e	-0.0038876305
201	0x3e0d4e07	0.13799296
202	0xbe4c56f4	-0.19955045
203	0x3e936ac0	0.2879238
204	0x3e8481e8	0.2588036
205	0xbddeed1e	-0.1088507
206	0x3d9da96c	0.0769833
207	0x3d823313	0.06357398
208	0x3e182519	0.14857902
209	0xbdfedee8	-0.1244486
210	0xbf055d7d	-0.52095777
211	0xbd8ee330	-0.06976926
212	0x3e896dcb	0.26841578
213	0x3d8d1335	0.06888429
214	0xbdf17b8d	-0.117911436
215	0xbee50e04	-0.44737256
216	0x3edfcf84	0.4371301
217	0x3ed5a0f0	0.41724348
218	0x3e188b9f	0.14897011
219	0x3ed082c8	0.40724778
220	0x3f50a2d9	0.81498486
221	0xbf2273a9	-0.63457733
222	0x3f29a46a	0.662665
223	0x3e6900c1	0.22754194
224	0xbdf0a272	-0.11749734
225	0x3eb6712c	0.35633218
226	0x3e38f503	0.18062215
227	0x3f9589cf	1.1682681
228	0x3e4c9423	0.19978385
229	0xbdc07ea7	-0.09399157
230	0x3e5df978	0.21677196
231	0x3f0a0be3	0.5392439
232	0x3e93c644	0.28862202
233	0x3f2dd25c	0.6789911
234	0xbe8d13fe	-0.27554315
235	0x3f224245	0.6338237
236	0x3f3f1ce3	0.7465345
237	0xbeebd7c2	-0.46063048
238	0x3f03dce8	0.5150895
239	0x3e9c8ddc	0.3057698
240	0xbe950c82	-0.29111105
241	0xbe73c0b3	-0.23803978
242	0x3ddbff3a	0.1074204
243	0xbe495563	-0.19661479
244	0xbe64df69	-0.22350849
245	0x3ddd056f	0.10792052
246	0xbe270893	-0.16311865
247	0x3ebcd18f	0.3687863
248	0x3ed5e586	0.41776675
249	0x3f29a3da	0.6626564
250	0xbe247eb0	-0.16063952
251	0x3e9f2115	0.31079927
252	0x3efe6a6f	0.49690577
253	0xbf3c00ca	-0.73438704
254	0x3f173a5e	0.59073436
255	0xbdca78cf	-0.09886324

encoder_variable_selection.single_variable_grns.SinWeekly.gate_norm.glu.fc.bias f4 [32]
0	0x3e9b2bd2	0.3030687
1	0x3e23765c	0.1596312
2	0x3e8715cd	0.2638382
3	0x3dfa54a1	0.12223173
4	0x3e8fb803	0.28070077
5	0xbe5be86f	-0.21475385
6	0x3c9bfa10	0.019040138
7	0xbe98be71	-0.29832795
8	0x3e0c3e01	0.13695528
9	0xbcdf9198	-0.027291104
10	0xbbfe544f	-0.007761515
11	0x3ebd58fb	0.3698195
12	0x3e75b223	0.23993735
13	0xbe95cfa0	-0.29259968
14	0x3e20dcf2	0.15709284
15	0x3d8e4561	0.06946827
16	0xbeaff97b	-0.34370026
17	0xbf087e8d	-0.533181
18	0x3ec22b64	0.3792373
19	0xbf21c0d5	-0.63184863
20	0xbd2f896a	-0.042855658
21	0xbf6733d8	-0.9031348
22	0x3e1a30a8	0.15057623
23	0x3e1d57b2	0.15365484
24	0x3ed39d3c	0.41330898
25	0xbf0815bf	-0.5315818
26	0xbf6466e5	-0.89219505
27	0xbe8563a1	-0.26052573
28	0x3e9877ad	0.29778805
29	0xbe528916	-0.20560107
30	0x3f316bb1	0.6930495
31	0x3b8d2180	0.004306972

encoder_variable_selection.single_variable_grns.SinWeekly.gate_norm.add_norm.norm.weight f4 [16]
0	0xbb1f9358	-0.0024349298
1	0x3eb7baa9	0.35884598
2	0x3fa8e4f4	1.3194871
3	0x3ebeb2b7	0.37245724
4	0x3f2c6894	0.67347074
5	0x3f3fca4e	0.7491807
6	0x3fcbe8a0	1.5930367
7	0x3edccbca	0.4312423
8	0x3f95d7a3	1.1706432
9	0x3efeaa06	0.49739093
10	0x3f6f32fa	0.9343716
11	0x3fcdf59f	1.6090583
12	0x3f2586a8	0.64658594
13	0x3fa5990d	1.2937332
14	0x3fa9bbb3	1.3260406
15	0x3f947dd7	1.1600903

encoder_variable_selection.single_variable_grns.SinWeekly.gate_norm.add_norm.norm.bias f4 [16]
0	0xbdd6597c	-0.104662865
1	0x3e0cafd3	0.13738947
2	0x3d9c6eed	0.07638345
3	0x3ec25428	0.3795483
4	0x3dace25c	0.08441612
5	0xbe03c2ce	-0.12867281
6	0xbe721336	-0.23640141
7	0xbde910e3	-0.11380174
8	0x3e1b2225	0.15149744
9	0xbc8eb905	-0.017422209
10	0xbe16a5e3	-0.14711718
11	0x3eb9f245	0.3631765
12	0xbc32cec9	-0.010913559
13	0xbd106ee3	-0.035262
14	0xbca1f9ef	-0.019772498
15	0x3dd39c81	0.10332585

encoder_variable_selection.single_variable_grns.VaccinationFull.resample_norm.mask f4 [16]
0	0xbf398ee6	-0.7248367
1	0xbe660ecb	-0.2246658
2	0x3eec683e	0.4617328
3	0xbfa8fa4f	-1.3201388
4	0x3f3d028a	0.73832
5	0xbdcb14ac	-0.09916052
6	0xbf70653d	-0.9390448
7	0x3ed523fd	0.4162902
8	0xbe220843	-0.15823464
9	0xbf2f302c	-0.6843288
10	0xbe92f73e	-0.28704256
11	0x3f42dadd	0.7611521
12	0xbf0f01e9	-0.5586229
13	0x3ee139d6	0.43989438
14	0xbdf9d0d7	-0.12198036
15	0xbd7f4a2e	-0.062326603

encoder_variable_selection.single_variable_grns.VaccinationFull.resample_norm.norm.weight f4 [16]
0	0x3e9a4025	0.30127063
1	0x3f4821c3	0.78176516
2	0x3fcc0e4e	1.5941865
3	0x3ea8a19d	0.329358
4	0x3ff00bfe	1.875366
5	0x3f81de41	1.0145952
6	0xbc9a5132	-0.018837545
7	0x3fd1b84d	1.6384369
8	0x3f792238	0.9731784
9	0x3ef61cb5	0.48068777
10	0x3f369e97	0.7133574
11	0x3feca1d9	1.8486892
12	0x3e290c72	0.16508654
13	0x3fc5e7de	1.5461385
14	0x3f2794fc	0.6546171
15	0x3f793f61	0.97362334

encoder_variable_selection.single_variable_grns.VaccinationFull.resample_norm.norm.bias f4 [16]
0	0xbe1512cf	-0.14557956
1	0x3f0882b6	0.5332445
2	0x3e04b359	0.1295904
3	0x3e755419	0.23957862
4	0x3e58087f	0.21096991
5	0xbe29c2b7	-0.16578184
6	0xbe4fd754	-0.20296985
7	0x3e284f89	0.1643659
8	0xbeb9a961	-0.36262038
9	0xbeda54db	-0.42642865
10	0x3e1544f7	0.14577089
11	0xbe87bd1c	-0.26511467
12	0x3eded70b	0.4352344
13	0xbefc8b9a	-0.49325258
14	0x3ee319fe	0.44355768
15	0x3e889a0a	0.26680022

encoder_variable_selection.single_variable_grns.VaccinationFull.fc1.weight f4 [8, 8]
0	0x3f0696c4	0.525738
1	0xbf1e4c21	-0.61834913
2	0xbf68aa65	-0.90885
3	0xbde8226a	-0.11334689
4	0x3f8fb3c5	1.1226736
5	0x3e5a6e6e	0.21331188
6	0xbf0baeb2	-0.5456344
7	0x3c920430	0.017824262
8	0x3e6b12b9	0.22956361
9	0xbeecf1d1	-0.4627824
10	0xbf8ecbe2	-1.115597
11	0xbf63e893	-0.89026755
12	0x3e794689	0.24343313
13	0x3e90a3aa	0.28249866
14	0x3fae932e	1.3638666
15	0x3ea4c227	0.32179376
16	0xbd4fa614	-0.050695494
17	0xbf47aee7	-0.78001255
18	0xbf0834ba	-0.53205454
19	0xbeee0fae	-0.46496338
20	0xbe30536e	-0.17219326
21	0x3f896be9	1.0736057
22	0x3f3ecffa	0.745361
23	0x3df91198	0.12161559
24	0xbe986a9f	-0.29768845
25	0xbf7e37d6	-0.9930395
26	0xbf1ce808	-0.6129155
27	0x3e50203e	0.203248
28	0xbf228bc4	-0.63494515
29	0x3fa7b190	1.3101063
30	0x3f39bcea	0.72553885
31	0x3f206e7d	0.6266859
32	0x3e8be42f	0.27322528
33	0x3ecbf3ba	0.39834386
34	0xbde6d3df	-0.1127088
35	0x3ecf70e2	0.4051581
36	0x3e13f4df	0.1444888
37	0x3efcde77	0.49388477
38	0x3f25f132	0.6482116
39	0x3f5d8ee5	0.86546165
40	0xbe52d4ae	-0.20588943
41	0x3f592ea1	0.84836775
42	0x3e8bf11c	0.2733239
43	0xbe5a8fcd	-0.21343918
44	0xbf45947c	-0.77179694
45	0xbf57700a	-0.84155333
46	0xbf5409a5	-0.82827216
47	0xbfe017d5	-1.7507273
48	0xbef4715e	-0.47742742
49	0xbd8eca43	-0.06972172
50	0xbe07d5ab	-0.13265102
51	0x3e8bc2dc	0.27297103
52	0x3fb805d5	1.437678
53	0xbca224c1	-0.019792916
54	0x3e695d95	0.22789605
55	0x3e6c8111	0.2309611
56	0x3e974ecc	0.29552305
57	0x3e1e7b9f	0.15476845
58	0xbf08570f	-0.5325784
59	0xbe4c2d36	-0.19939122
60	0xbee88027	-0.45410272
61	0xbf95a4e6	-1.1690948
62	0xbe974fab	-0.2955297
63	0xbfc0f6bc	-1.5075297

encoder_variable_selection.single_variable_grns.VaccinationFull.fc1.bias f4 [8]
0	0x3eda7a35	0.42671362
1	0x3e812fcd	0.25231782
2	0x3e18f477	0.14937006
3	0x3d31e8ef	0.043435033
4	0x3e1881c5	0.14893253
5	0xbed27b72	-0.41109806
6	0x3e84d91e	0.25946897
7	0xbe24e0af	-0.16101335

encoder_variable_selection.single_variable_grns.VaccinationFull.fc2.weight f4 [8, 8]
0	0xbea603f2	-0.32424885
1	0x3d9c7b58	0.076407135
2	0xbddee347	-0.108831935
3	0xbf05d391	-0.5227595
4	0xbf69f971	-0.9139624
5	0x3f02cd92	0.51094925
6	0xbf573c38	-0.8407626
7	0x3e9f2c5d	0.31088534
8	0x3f821c18	1.0164824
9	0xbf5e09a5	-0.86733466
10	0xbf2d29e4	-0.67642045
11	0xbf25312a	-0.64528143
12	0xbef16fe8	-0.4715569
13	0xbf385c00	-0.7201538
14	0x3f0fcced	0.56172067
15	0xbe43ae78	-0.19109523
16	0xbfeb730e	-1.8394487
17	0x3de26102	0.11053659
18	0xbd02a2d7	-0.031893577
19	0x3f1564d6	0.5835699
20	0xbec79651	-0.3898187
21	0x3f0ba27b	0.545448
22	0x3d2a3656	0.041555725
23	0x3f268bd4	0.6505711
24	0x3efeeea6	0.4979145
25	0x3e575c0e	0.2103121
26	0x3f02531d	0.5090807
27	0x3e879664	0.26481926
28	0x3f5b90d7	0.85767883
29	0xbf1bb1e7	-0.6081833
30	0x3e8b3f8f	0.2719693
31	0x3cf7694d	0.030201579
32	0xbed101a8	-0.40821576
33	0xbc9c4a74	-0.01907847
34	0x3ee7d67a	0.4528082
35	0xbdf16012	-0.11785902
36	0x3eee805e	0.4658231
37	0x3ef3bd3f	0.4760532
38	0xbf8708ae	-1.0549524
39	0x3f6892e9	0.9084917
40	0xbeb98075	-0.36230817
41	0x3f1ee8c8	0.62073946
42	0x3f54dab0	0.8314619
43	0x3f1335c6	0.57503927
44	0x3e16c50d	0.14723606
45	0x3e586937	0.21133886
46	0xbe47d54b	-0.19514959
47	0xbf58e034	-0.84717107
48	0x3f82c19b	1.0215334
49	0xbe9fe4b0	-0.31229162
50	0xbeb14064	-0.3461944
51	0x3f575306	0.8411106
52	0x3ec65f1d	0.3874444
53	0xbf370b31	-0.7150145
54	0x3e80f124	0.25183976
55	0x3d1ef734	0.03880997
56	0xbe4fef42	-0.20306113
57	0x3f4d41d7	0.8017859
58	0x3f1f9485	0.62336
59	0x3f2f364f	0.68442243
60	0xbf01d59d	-0.50716573
61	0xbda0b7aa	-0.07847531
62	0x3d9c38d0	0.076280236
63	0xbd55afa7	-0.05216947

encoder_variable_selection.single_variable_grns.VaccinationFull.fc2.bias f4 [8]
0	0xbe71b92b	-0.23605792
1	0x3ec828dc	0.39093673
2	0xbe89264f	-0.2678704
3	0x3e6e7a9c	0.2328896
4	0xbe2bf4a0	-0.16792536
5	0xbd29dacd	-0.04146843
6	0x3ef1403e	0.47119325
7	0x3cae23c4	0.021257289

encoder_variable_selection.single_variable_grns.VaccinationFull.gate_norm.glu.fc.weight f4 [32, 8]
0	0xbaa30049	-0.0012435998
1	0x3ec16183	0.37769708
2	0x3ec32a9a	0.3811844
3	0x3ebcab8f	0.3684964
4	0xbeab86b9	-0.33501223
5	0x3e823ca0	0.25436878
6	0x3d653234	0.05595608
7	0x3c04a0aa	0.008094946
8	0xbf047fc0	-0.5175743
9	0x3f0a3ab9	0.53995854
10	0xbeb6028f	-0.35548827
11	0x3e059f0f	0.13048957
12	0xbdada2db	-0.08478328
13	0x3ddf3a5e	0.108998045
14	0x3d836f27	0.06417685
15	0xbe6fefba	-0.23431292
16	0x3e82a494	0.25516188
17	0xbefffd2e	-0.49997848
18	0x3ee9c122	0.4565516
19	0xbeba9a8f	-0.36446044
20	0x3eab9539	0.33512285
21	0x3eb7a414	0.3586737
22	0xbefa51dd	-0.48890582
23	0x3d90fdf5	0.070796885
24	0xbf9d5294	-1.2290826
25	0x3e75b9a2	0.23996595
26	0xbf81f5a3	-1.0153087
27	0x3f6c46fc	0.92295814
28	0xbf8c90b7	-1.0981663
29	0x3f240aad	0.6407879
30	0x3f8f69dd	1.1204182
31	0x3ed95c8d	0.42453423
32	0x3f855c07	1.041871
33	0xbf041fc3	-0.51610965
34	0x3f8667c3	1.0500416
35	0xbf8ecb6b	-1.1155828
36	0x3f810d44	1.0082173
37	0xbf496d6e	-0.786826
38	0xbf99303c	-1.1967845
39	0xbfa0ff7b	-1.2577966
40	0x3ef99f5b	0.4875439
41	0xbbed02b7	-0.0072329897
42	0x3e94256c	0.289348
43	0xbeed34ae	-0.46329254
44	0x3e518453	0.20460634
45	0xbe7d2eb5	-0.24724849
46	0xbe5e0ffb	-0.21685784
47	0xbd6345e7	-0.055486586
48	0xbea92a55	-0.3304011
49	0xbe2db0cc	-0.16961974
50	0xbea2e573	-0.3181568
51	0x3e8cc2c9	0.2749236
52	0xbed84f54	-0.42248023
53	0x3e736eec	0.23772782
54	0x3ec7415c	0.38917053
55	0x3eb24584	0.3481866
56	0xbe4e2761	-0.2013221
57	0x3f533226	0.82498395
58	0xbe435980	-0.1907711
59	0xbe8c04c5	-0.2734739
60	0x3df23ff1	0.11828602
61	0xbea328db	-0.31867108
62	0x3eb58381	0.35451892
63	0xbeb81626	-0.35954398
64	0xbebb29cb	-0.36555323
65	0x3ed0a068	0.4074738
66	0xbec3da77	-0.38252613
67	0x3e94d85e	0.29071325
68	0xbf033b56	-0.51262414
69	0x3edab29c	0.42714393
70	0x3ea6ccfe	0.32578272
71	0x3e98b568	0.29825902
72	0xbdd2befa	-0.10290332
73	0xbd7b050b	-0.061284106
74	0x3dd1734e	0.10227071
75	0xbe7c819b	-0.24658816
76	0xbd752e0c	-0.059858367
77	0xbe8cf766	-0.275325
78	0xbf0dd789	-0.55407006
79	0xbd8b7d1a	-0.068109706
80	0x3daa9ab0	0.083302855
81	0x3d9a91cb	0.07547339
82	0x3e4d53d9	0.20051517
83	0xbe5e646e	-0.21717998
84	0x3e27621f	0.16346024
85	0x3cb5b6e9	0.022181945
86	0xbe371420	-0.17878771
87	0xbda7657c	-0.081736535
88	0xbf151116	-0.58229196
89	0xbf433846	-0.7625774
90	0xbe36396f	-0.17795347
91	0x3ef7ec0a	0.4842227
92	0xbe697283	-0.22797589
93	0x3f24a64e	0.6431626
94	0x3e78b0ad	0.24286146
95	0x3f1b6958	0.60707617
96	0xbdee93d4	-0.1164929
97	0x3ed51b29	0.41622284
98	0xbdf0aab5	-0.1175131
99	0xbeb29fd6	-0.3488757
100	0x3e6fe627	0.2342764
101	0xbef4e882	-0.4783364
102	0xbe75e074	-0.24011403
103	0xbf12027b	-0.57035035
104	0xbc0a1bb6	-0.008429458
105	0xbfb3f545	-1.4059225
106	0x3e252eff	0.16131209
107	0x3e34beb6	0.17650875
108	0x3e909d2b	0.2824491
109	0x3e8e0970	0.27741575
110	0xbd6db41c	-0.058033094
111	0x3de82bcc	0.113364786
112	0xbeb6159f	-0.3556337
113	0x3eb1720b	0.3465732
114	0xba1f0b1c	-0.0006067024
115	0x3e9c6bbe	0.3055095
116	0xbdb012c3	-0.085973285
117	0x3e9d697f	0.3074455
118	0x3cb2621f	0.021775303
119	0x3e6965b5	0.22792704
120	0xbede06c7	-0.43364546
121	0xbe64a4b4	-0.22328454
122	0xbd44018c	-0.047853038
123	0x3ba6b58e	0.005087561
124	0xbd6cfdef	-0.057859357
125	0x3cfebc83	0.031095749
126	0x3eb4033a	0.35158712
127	0x3e2398a7	0.15976201
128	0x3ef6b0da	0.48181802
129	0x3df2d8ca	0.118577555
130	0x3e5fc8e1	0.21853973
131	0xbe2d5b29	-0.16929306
132	0x3e94de14	0.29075682
133	0x3c8ec1a0	0.017426312
134	0xbf041f3d	-0.51610166
135	0xbf427716	-0.7596296
136	0x3ebf8249	0.37404087
137	0xbee7d845	-0.45282188
138	0x3f1acfd1	0.6047335
139	0xbe723010	-0.23651147
140	0x3e4adb28	0.19810164
141	0x3e12b890	0.14328218
142	0xbeb90049	-0.3613303
143	0xbe28ff21	-0.16503574
144	0xbe3002a8	-0.17188513
145	0x3ed6f3d9	0.41982916
146	0xbe3371ab	-0.1752383
147	0x3fc142ed	1.5098549
148	0xbebef936	-0.37299508
149	0x3ed34d14	0.41269743
150	0x3f2669ec	0.65005374
151	0x3f11078b	0.56652135
152	0x3eca1d81	0.39475635
153	0x3d63b371	0.05559105
154	0x3e243b41	0.16038229
155	0xbe555bad	-0.20835753
156	0x3d92c402	0.07166292
157	0xbd2dc36f	-0.042422708
158	0xbdca5ae0	-0.09880614
159	0xbe0c4c70	-0.13701034
160	0xbe73ca1e	-0.2380757
161	0xbeb3c229	-0.3510907
162	0x3cf236db	0.029567173
163	0x3f06fb69	0.5272737
164	0xbd8cc477	-0.0687341
165	0x3fb35b4d	1.4012238
166	0xbe062db4	-0.13103372
167	0x40179111	2.3682292
168	0x3f05d8f4	0.5228417
169	0xbf634cb1	-0.88788897
170	0x3f9091a8	1.1294451
171	0xbece5f82	-0.40307242
172	0x3e9dac87	0.3079569
173	0xbd001fa9	-0.031280193
174	0xbf3531ab	-0.7077891
175	0xbd35199e	-0.044213884
176	0xbba95b84	-0.00516838
177	0x3f8832a4	1.0640454
178	0xbeae65a4	-0.3406192
179	0x3ee48073	0.4462925
180	0xbec0caeb	-0.37654814
181	0xbe1f956f	-0.15584348
182	0x3ce0e2c3	0.027451878
183	0xbe255548	-0.16145813
184	0x3dc0843b	0.09400221
185	0x3ed9ad13	0.42514858
186	0x3ec743de	0.38918966
187	0xbe9fc4ed	-0.3120493
188	0x3c548ce7	0.012973047
189	0xbf39f164	-0.7263396
190	0xbee34851	-0.4439111
191	0xbf65aaed	-0.8971394
192	0x3de6d9bb	0.112719975
193	0x3fa9a332	1.3252928
194	0xbe1a6917	-0.15079151
195	0x3d614ab3	0.05500288
196	0xbc0899b8	-0.008337431
197	0xbeb22652	-0.3479486
198	0x3ec426e8	0.38310933
199	0xbd50dc88	-0.050991565
200	0xbd68604b	-0.056732457
201	0x3e01e4b5	0.12684901
202	0x3cac00e8	0.020996526
203	0xbe52addc	-0.20574135
204	0x3e99fa63	0.30073842
205	0xbe82ff74	-0.2558552
206	0xbe8d27e7	-0.27569506
207	0x3e03100b	0.12799089
208	0x3e2307e4	0.15920979
209	0x3e076f99	0.13226165
210	0x3e6d98eb	0.23202865
211	0xbf343faa	-0.70409644
212	0x3e871d93	0.2638975
213	0xbf34a2b9	-0.70560795
214	0x3dd0eb26	0.10201101
215	0xbfaedfb2	-1.3662016
216	0x3e38186a	0.17978063
217	0x3def4a10	0.11684048
218	0x3ebcfd6e	0.36912102
219	0xbf84838e	-1.0352647
220	0x3d27742a	0.040882267
221	0xbeff9929	-0.4992154
222	0xbf199433	-0.5999176
223	0xbf6fdd5f	-0.9369716
224	0x3eec7a3e	0.46187013
225	0x3eaef45b	0.34170803
226	0xbe9a8127	-0.3017666
227	0x3e41f6ce	0.18941805
228	0x3e4ebf12	0.20190075
229	0xbe37c849	-0.17947496
230	0xbf51d1f5	-0.81960994
231	0xbe671bf0	-0.22569251
232	0x3e610c44	0.21977335
233	0xbf3db8db	-0.7411019
234	0x3e9a2c68	0.30112004
235	0xbe831520	-0.25602055
236	0x3f55c852	0.8350879
237	0x3d446695	0.047949392
238	0xbf3ce1cc	-0.7378204
239	0xbe374388	-0.17896855
240	0x3ebefb65	0.37301174
241	0x3de178c9	0.11009366
242	0x3de3e3f5	0.11127464
243	0xbd9fa476	-0.0779504
244	0xbd970e0a	-0.073757246
245	0xbf5e06a6	-0.86728895
246	0xbe1dd960	-0.15414953
247	0xbef86c88	-0.48520303
248	0xbe6109eb	-0.2197644
249	0x3f9fda69	1.2488528
250	0xbe295149	-0.16534914
251	0x3e7ba3fa	0.24574271
252	0xbec0095d	-0.37507144
253	0xbeddca52	-0.4331842
254	0x3f10c0a2	0.56543934
255	0xbe944b21	-0.2896357

encoder_variable_selection.single_variable_grns.VaccinationFull.gate_norm.glu.fc.bias f4 [32]
0	0x3d2f8c27	0.04285827
1	0x3e687755	0.22701772
2	0xbf3a5009	-0.72778374
3	0xbeaaef89	-0.33385876
4	0xbf4f5fa9	-0.8100534
5	0x3d865ce3	0.065606855
6	0x3e3423d8	0.17591798
7	0x3ef988c8	0.48737168
8	0xbefa7172	-0.48914677
9	0xbdd308a6	-0.10304384
10	0x3e98d1bf	0.29847524
11	0xbf78f566	-0.9724945
12	0x3e9c1834	0.30487216
13	0xbf13499b	-0.5753419
14	0x3e06814d	0.13135262
15	0x3d5ae9f3	0.053445768
16	0xbd40b230	-0.047044933
17	0xbf23f2f7	-0.6404261
18	0xbd31e9fa	-0.043436028
19	0x3da2a999	0.079425044
20	0xbe992743	-0.29912767
21	0xbef64e97	-0.48106834
22	0x3fa2654d	1.2687165
23	0x3ea0389b	0.31293187
24	0x3f109e0c	0.5649116
25	0xbc5eef3a	-0.013606841
26	0x3e8107a1	0.25201133
27	0x3f030b51	0.5118914
28	0x3e38a12c	0.18030232
29	0xbf1c49fb	-0.61050385
30	0xbdeec0ac	-0.11657843
31	0x3f1865f5	0.59530574

encoder_variable_selection.single_variable_grns.VaccinationFull.gate_norm.add_norm.norm.weight f4 [16]
0	0x3e660100	0.22461319
1	0x3f8c879e	1.0978887
2	0x3fc25aab	1.518392
3	0x3fa5c501	1.2950746
4	0x3f8b4428	1.0880175
5	0x3f6fc55d	0.9366053
6	0x3f2ee674	0.68320394
7	0x3fbf1e16	1.4931056
8	0x3f366837	0.7125277
9	0x3f09e3f8	0.5386348
10	0x3ef9769a	0.48723298
11	0x3fba0617	1.4533108
12	0x3f119d1d	0.5688036
13	0x3f801979	1.0007774
14	0x3f48d948	0.78456545
15	0x3e8879d1	0.2665544

encoder_variable_selection.single_variable_grns.VaccinationFull.gate_norm.add_norm.norm.bias f4 [16]
0	0x3cce1ec5	0.025161156
1	0x3ed450ef	0.41467997
2	0x3df4ffdf	0.11962866
3	0x3e8aed13	0.27133998
4	0x3e8f0205	0.27931228
5	0xbd9ef8cf	-0.077623
6	0xbe25fa5b	-0.16208784
7	0xbe877cf0	-0.26462507
8	0xbe17a397	-0.14808498
9	0xbe81c128	-0.2534268
10	0xbd87b634	-0.06626549
11	0x3d895d5a	0.067072585
12	0x3dc3d8ac	0.09562811
13	0xbeb29cf8	-0.34885383
14	0x3e261d53	0.16222124
15	0x3e87214a	0.26392585

encoder_variable_selection.single_variable_grns.Cases.resample_norm.mask f4 [16]
0	0x3ec336b2	0.38127667
1	0x3e842f0f	0.25817153
2	0xbfe040af	-1.751974
3	0xbea1b1c9	-0.31580952
4	0xbeb3807b	-0.3505896
5	0x3f106495	0.56403476
6	0xbedf5fe1	-0.43627837
7	0xbf0fb23f	-0.56131357
8	0xbfd4a165	-1.6611754
9	0x3ee33a6e	0.44380516
10	0x3ed0bc1d	0.4076852
11	0xbed954cd	-0.4244751
12	0xbf10a08c	-0.56494975
13	0xbd9f9e3a	-0.07793851
14	0x3edd7936	0.4325654
15	0x3e80263c	0.2502917

encoder_variable_selection.single_variable_grns.Cases.resample_norm.norm.weight f4 [16]
0	0x3faacc48	1.3343592
1	0x3fc4357c	1.5328822
2	0x3f0ad388	0.5422902
3	0x3f8769ea	1.0579197
4	0x3f4aa744	0.7916148
5	0x3fca17dc	1.5788531
6	0x3f93d237	1.1548527
7	0x3f8d9843	1.1062092
8	0x3ee22f95	0.44176927
9	0x3fdc3f1a	1.7206757
10	0x3fb40d4c	1.4066558
11	0x3f45f9f0	0.773345
12	0x3f206626	0.62655866
13	0x3f82cc54	1.0218606
14	0x3fd7c757	1.6857709
15	0x3fb68b0d	1.4261185

encoder_variable_selection.single_variable_grns.Cases.resample_norm.norm.bias f4 [16]
0	0x3ed2d31b	0.41176686
1	0x3e6d3b41	0.23167135
2	0xbe1b24ef	-0.15150808
3	0xbe20aa6e	-0.15690014
4	0x3d7587dd	0.059944022
5	0xbe6f302f	-0.23358224
6	0xbe39bcdc	-0.1813845
7	0xbe8af311	-0.2713857
8	0xbd1b2d22	-0.03788484
9	0x3c1d4540	0.00959903
10	0xbdbc0bf9	-0.09181971
11	0x3dfa4a85	0.12221245
12	0xbe45294d	-0.19254036
13	0xbe03cd0d	-0.1287119
14	0x3c9d0ba7	0.019170595
15	0x3ef51351	0.478663

encoder_variable_selection.single_variable_grns.Cases.fc1.weight f4 [8, 8]
0	0xbd3b71b1	-0.04576272
1	0x3fd39495	1.6529719
2	0x3e5931b5	0.21210368
3	0xbf3b4537	-0.7315249
4	0xbf2bf00f	-0.67163175
5	0x3ef58ca0	0.4795885
6	0xbe82ed24	-0.2557155
7	0xbefb22ff	-0.49050137
8	0x3eff7863	0.49896535
9	0x3f3cc3d8	0.73736334
10	0xbe562c0f	-0.20915245
11	0xc036a868	-2.8540287
12	0xbfa61ad7	-1.2976941
13	0x3ec489ab	0.38386282
14	0x3e04b233	0.12958603
15	0xbd354443	-0.044254553
16	0x3fa2580b	1.2683119
17	0x3c45b1fb	0.01206636
18	0xbe179921	-0.14804508
19	0x3d6ae710	0.057349265
20	0x3ca3ca01	0.019993784
21	0xbdd7d7d6	-0.10539214
22	0xbf6e7407	-0.93145794
23	0x3f31fa7c	0.69522834
24	0xbf19ab5a	-0.60027087
25	0x3ce929b2	0.028462265
26	0x3f4f33c8	0.80938387
27	0x3e8f59cc	0.27998197
28	0x3f29e06d	0.6635807
29	0x3e859a24	0.26094162
30	0x3e63d1d4	0.22248012
31	0x3f3f40db	0.74708337
32	0xbe81c693	-0.25346813
33	0xbe7f08b4	-0.24905664
34	0x3e162f59	0.14666499
35	0x3e43d7ff	0.19125365
36	0x3e5fd18e	0.21857283
37	0x3ebda666	0.37041014
38	0x3dd87b8e	0.10570441
39	0x3eb8b2c4	0.36073887
40	0xbe3e8855	-0.18606694
41	0x3ed4b4f5	0.4154431
42	0x3e78e0fc	0.24304575
43	0xc0188c0c	-2.3835478
44	0xbf6f4cb8	-0.9347644
45	0x3f318fda	0.69360125
46	0x3db7a4ee	0.08967005
47	0x3f42a10e	0.76027
48	0x3e309da1	0.1724763
49	0x3efebbc6	0.49752635
50	0x3e2cf8de	0.1689181
51	0xbae559f2	-0.0017498119
52	0xbfbee226	-1.4912765
53	0x3eb4d088	0.35315347
54	0x3ef0df92	0.4704557
55	0xbe8adea1	-0.27122977
56	0xbe2f4ceb	-0.17119186
57	0xbef400ad	-0.47656766
58	0xbf010508	-0.503983
59	0xbf29965a	-0.66245043
60	0xbd92ca57	-0.071674995
61	0xbe2095fa	-0.15682212
62	0xbf3f609d	-0.74756795
63	0x3fd6303b	1.6733469

encoder_variable_selection.single_variable_grns.Cases.fc1.bias f4 [8]
0	0xbeaa917e	-0.33314127
1	0xbeaa0de2	-0.33213717
2	0x3b1aff07	0.0023650543
3	0xbec3d2ff	-0.38246915
4	0xbd9a2ef2	-0.07528485
5	0xbe888eba	-0.26671392
6	0xbef5d64b	-0.48015055
7	0xbd7fe8a9	-0.06247774

encoder_variable_selection.single_variable_grns.Cases.fc2.weight f4 [8, 8]
0	0xbe096bac	-0.1341998
1	0x3f60e409	0.87847954
2	0x3df64be9	0.120261975
3	0xbea78288	-0.32716775
4	0x3f07d66c	0.53061557
5	0xbd285c55	-0.04110368
6	0x3f5673fd	0.83770734
7	0x3bf0852e	0.007340095
8	0xbe844601	-0.2583466
9	0x3e7be168	0.24597704
10	0xbe000e9b	-0.12505572
11	0xbec9efef	-0.39440867
12	0x3e28128f	0.1641333
13	0x3eba2e81	0.36363605
14	0xbc2c454e	-0.01051457
15	0xbf7e8b20	-0.9943104
16	0xbe0dc632	-0.13845137
17	0xbf2230b8	-0.6335559
18	0xbf732155	-0.94972736
19	0x3e72bdc4	0.23705202
20	0x3f0b6e95	0.5446561
21	0xbef69c04	-0.48165905
22	0xbf13b0ba	-0.5769154
23	0x3f4e2576	0.8052591
24	0xbeb4e2d2	-0.353293
25	0xbf13367c	-0.5750501
26	0xbf0a4190	-0.5400629
27	0xbf12e558	-0.573812
28	0x3ebe5e58	0.37181354
29	0xbf42f6e4	-0.76157975
30	0xbf09119c	-0.53542495
31	0xbe874479	-0.26419428
32	0x3ee1bf3c	0.44091213
33	0x3f332dca	0.69991744
34	0x3e5248d6	0.20535597
35	0x3e812500	0.2522354
36	0x3ed996f4	0.4249798
37	0xbc806ef7	-0.015677912
38	0x3e5ef2f9	0.21772374
39	0x3edb4b5d	0.42830935
40	0x3ee3a3e4	0.44460976
41	0x3df5d89a	0.12004204
42	0x3f522fd2	0.8210422
43	0x3e8cd2d3	0.27504596
44	0xbed59c95	-0.41721025
45	0x3e2552d5	0.16144879
46	0x3e8657c0	0.26238823
47	0x3ccca0eb	0.024979075
48	0xbf0f87bc	-0.5606649
49	0xbea5e84a	-0.32403785
50	0xbf195cb6	-0.5990709
51	0x3ecef6f5	0.40422788
52	0xbe3dfc06	-0.1855317
53	0xbeb24ae1	-0.34822753
54	0x3f0288a4	0.5098975
55	0x3d95233f	0.07282113
56	0x3f185f66	0.59520566
57	0x3f4a598c	0.7904289
58	0x3dab9d8e	0.083796605
59	0xbbd0b4d5	-0.006369213
60	0x3e317964	0.17331463
61	0x3e13fc23	0.14451651
62	0x3d907e91	0.070553906
63	0x3d18b15b	0.037278514

encoder_variable_selection.single_variable_grns.Cases.fc2.bias f4 [8]
0	0xbe3d69e5	-0.18497427
1	0x3b845aab	0.004039129
2	0x3e1e0802	0.15432742
3	0x3e1dba4d	0.154031
4	0x3dad38c0	0.0845809
5	0x3c84c90a	0.016209144
6	0x3dc507d7	0.09620636
7	0x3dce1b24	0.100637704
