TFT-pytorch/results/age_subgroup_cs_server/AGE80PLUS/checkpoints/best-epoch=1.ckpt (torch, 702647 bytes, 506 tensors)

prescalers.AGE80PLUS.weight f4 [8, 1]
0	0xbd5f8f86	-0.054580234
1	0xbee55c4a	-0.44796973
2	0x3ee6419d	0.44971934
3	0x3ec0427f	0.37550732
4	0xbf230420	-0.6367817
5	0xbe83c925	-0.257394
6	0xbf2e009e	-0.6796969
7	0x3ec24591	0.379437

prescalers.AGE80PLUS.bias f4 [8]
0	0xbe621d75	-0.2208155
1	0x3ec83fc5	0.39111152
2	0x3f489cbc	0.7836416
3	0x3e4b39a9	0.19846214
4	0xbeef8a1c	-0.46785057
5	0xbf24edf1	-0.6442557
6	0xbe866a83	-0.26253137
7	0x3d84c0d4	0.064820915

prescalers.SinWeekly.weight f4 [8, 1]
0	0x3d940ecf	0.07229387
1	0xbfa6706d	-1.300306
2	0x3f8240d1	1.017603
3	0xbf7c6d24	-0.98604035
4	0x3f5deffd	0.8669432
5	0xbe64170b	-0.22274415
6	0x3f2cd36d	0.6751011
7	0x3eec76ee	0.46184486

prescalers.SinWeekly.bias f4 [8]
0	0x3d84fb0c	0.06493196
1	0x3d8bfa57	0.06834858
2	0x3f16510e	0.5871743
3	0x3eaecc51	0.34140256
4	0x3f01950e	0.50618064
5	0xbf1541df	-0.58303636
6	0x3f3c1985	0.7347644
7	0x3ee6d4ac	0.4508413

prescalers.VaccinationFull.weight f4 [8, 1]
0	0x3dbdc8db	0.09266826
1	0xbd64b863	-0.055839907
2	0x3f7100f7	0.941421
3	0x3f4e101b	0.80493325
4	0xbe6bdc04	-0.23033148
5	0xbf1a7462	-0.60333836
6	0xbf2ed0ac	-0.6828716
7	0xbf124594	-0.5713742

prescalers.VaccinationFull.bias f4 [8]
0	0x3f1faaea	0.6237017
1	0xbefe220a	-0.49635345
2	0xbed7c987	-0.4214594
3	0x3f88f001	1.0698243
4	0x3f58a11c	0.84620833
5	0x3de545e1	0.11194969
6	0xbc322a52	-0.010874348
7	0x3e74dfbe	0.23913476

prescalers.Cases.weight f4 [8, 1]
0	0x3f1ddcd6	0.61665094
1	0xbf82a3e6	-1.0206268
2	0xbf69ac0c	-0.9127815
3	0x3f1943e7	0.59869236
4	0x3fa0f3ab	1.2574362
5	0x3d5c6200	0.053804398
6	0xbf32b644	-0.69809365
7	0x3e4be4b5	0.19911464

prescalers.Cases.bias f4 [8]
0	0xbf4beadd	-0.7965525
1	0xbdea6cae	-0.1144651
2	0x3f174b8c	0.5909965
3	0x3ea42dae	0.320661
4	0x3d94943e	0.072548375
5	0xbe2910ad	-0.16510268
6	0x3f036687	0.5132832
7	0xbf6cf1a1	-0.92556196

static_variable_selection.single_variable_grns.AGE80PLUS.resample_norm.mask f4 [16]
0	0xbec22e0d	-0.3792576
1	0xbe839ea6	-0.25706977
2	0xbe8ed260	-0.27894878
3	0x3da5af4b	0.08090075
4	0x3d8304e2	0.06397416
5	0x3ea28edb	0.31749615
6	0x3cd0145a	0.02540033
7	0xbdac630b	-0.084173284
8	0x3e5d759a	0.21626893
9	0x3e6dfb6d	0.23240443
10	0xbebdfb66	-0.37105864
11	0x3e3bd45d	0.18342729
12	0x3ead1f05	0.3381273
13	0x3d1e4069	0.038635645
14	0xbe45a867	-0.19302522
15	0xbd15708b	-0.036484282

static_variable_selection.single_variable_grns.AGE80PLUS.resample_norm.norm.weight f4 [16]
0	0x3f4627b1	0.77404314
1	0x3f563809	0.8367925
2	0x3f7aef80	0.980217
3	0x3f97a79a	1.1848023
4	0x3f96361a	1.173526
5	0x3fb2166f	1.3913096
6	0x3f8bf624	1.0934491
7	0x3f89db13	1.0769981
8	0x3f9a009b	1.2031435
9	0x3f9fc6e6	1.2482574
10	0x3f5c7b51	0.86125666
11	0x3fa399e8	1.2781343
12	0x3fa0ce62	1.2562983
13	0x3f8b65a3	1.0890392
14	0x3f812592	1.008959
15	0x3f8b77b2	1.0895903

static_variable_selection.single_variable_grns.AGE80PLUS.resample_norm.norm.bias f4 [16]
0	0x3e21bbae	0.1579425
1	0xbe31249f	-0.17299126
2	0xbdd27deb	-0.10277923
3	0x3e81b158	0.25330615
4	0x3cef8e63	0.0292427
5	0x3d35015d	0.044190753
6	0x3cb58a21	0.022160592
7	0xbd9543e6	-0.07288341
8	0xbd5809c6	-0.052743696
9	0xbdf71588	-0.12064654
10	0x3df26449	0.11835534
11	0xbe7faff5	-0.24969466
12	0xbd9110b2	-0.070832625
13	0xbdcc648c	-0.09980115
14	0x3d84f632	0.064922705
15	0x3e501cd6	0.203235

static_variable_selection.single_variable_grns.AGE80PLUS.fc1.weight f4 [8, 8]
0	0x3ea6c688	0.32573342
1	0xbf1147ad	-0.56749994
2	0xbeeaf705	-0.45891586
3	0xbea1d1b9	-0.31605318
4	0xbf005229	-0.50125366
5	0xbfb6a778	-1.4269857
6	0x3d0c107e	0.034195416
7	0xbed08fb7	-0.40734646
8	0xbf3256a6	-0.69663465
9	0xbf51b9dc	-0.81924224
10	0xbdb3f365	-0.08786658
11	0x3f029ab3	0.510173
12	0xbe77c5b5	-0.24196513
13	0xbef78106	-0.48340625
14	0x3f413dff	0.75485224
15	0xbda6e1b6	-0.0814852
16	0x3eda457b	0.42631134
17	0x3d8db945	0.06920103
18	0x3f01e1fa	0.5073544
19	0xbca5b9aa	-0.020230133
20	0xbcc5b1ea	-0.024132688
21	0xbd99ae02	-0.075038925
22	0x3d9ac18a	0.07556446
23	0xbd1dfea7	-0.038572934
24	0xbf269c7c	-0.65082526
25	0x3d799e9a	0.06094227
26	0xbe0fada6	-0.14031085
27	0xbf208139	-0.6269718
28	0x3da92d8a	0.08260639
29	0x3e387666	0.18013915
30	0x3e23e738	0.16006172
31	0x3edf67b0	0.43633795
32	0xbeb2ac01	-0.34896854
33	0x3ef4e623	0.4783183
34	0xbe88758b	-0.26652178
35	0xbe792585	-0.24330719
36	0xbe62f40e	-0.22163412
37	0x3f809f18	1.0048552
38	0x3ed2e172	0.41187626
39	0x3d739019	0.059463594
40	0x3eb14f51	0.34630826
41	0xbda95314	-0.08267799
42	0xbe99eee4	-0.30065072
43	0xbb10d1d9	-0.0022097735
44	0x3f149e2a	0.5805384
45	0xbec3af9f	-0.38219926
46	0x3e2d5a50	0.16928983
47	0xbe5d9324	-0.21638161
48	0xbe616655	-0.22011693
49	0xbf0649ff	-0.5245666
50	0xbdaecb70	-0.085348964
51	0x3dea8750	0.1145159
52	0x3ed936e1	0.42424682
53	0x3f92efc3	1.147942
54	0x3f0597ad	0.52184564
55	0xbe80036c	-0.2500261
56	0xbf29d4df	-0.6634044
57	0xbec8543e	-0.39126772
58	0xbe73d958	-0.23813379
59	0x3e66a4ab	0.22523753
60	0x3e90d696	0.28288716
61	0xbecddb95	-0.4020659
62	0x3f1cd3c9	0.6126066
63	0xbd764fbc	-0.060134634

static_variable_selection.single_variable_grns.AGE80PLUS.fc1.bias f4 [8]
0	0xbda818ff	-0.082078926
1	0x3df34aef	0.11879527
2	0xbe5d6e3c	-0.21624082
3	0x3cdba047	0.026809825
4	0xbcd98c4a	-0.026556153
5	0xbba96d3e	-0.0051704934
6	0x3e69d527	0.22835217
7	0x3c830de0	0.015997827

static_variable_selection.single_variable_grns.AGE80PLUS.fc2.weight f4 [8, 8]
0	0xbd7beb88	-0.061503917
1	0x3f18c5c4	0.59676766
2	0x3c09afb2	0.008403705
3	0xbec3038a	-0.38088638
4	0x3e1d8e04	0.15386206
5	0xbe9c00d6	-0.30469388
6	0x3f1de26c	0.6167362
7	0x3f0c6fc6	0.5485805
8	0xbef58b8b	-0.47958025
9	0xbe7169b2	-0.23575476
10	0x3de8ffd4	0.1137692
11	0x3d0b8953	0.03406651
12	0x3de39e94	0.11114231
13	0xbd2a8d13	-0.041638445
14	0x3ebad667	0.364917
15	0xbc0455a7	-0.008077062
16	0xbde96408	-0.113960326
17	0x3e966425	0.2937328
18	0x3d98032f	0.07422482
19	0xbd85745e	-0.06516336
20	0x3df8e51f	0.121530764
21	0xbea41f8d	-0.3205532
22	0xbed8dd7f	-0.42356488
23	0x3ebdff8c	0.3710903
24	0x3f38779d	0.72057515
25	0xbd1b25cc	-0.037877843
26	0x3efb5b55	0.49093118
27	0xbe762595	-0.24037774
28	0xbe962d2e	-0.29331344
29	0xbebcbf59	-0.36864737
30	0x3f04684e	0.51721656
31	0xbf30e147	-0.69093746
32	0x3e08a0e1	0.1334262
33	0xbe9ca743	-0.3059636
34	0x3e5b167c	0.21395296
35	0x3d1da7f9	0.03849027
36	0x3ef3bd16	0.476052
37	0x3e904787	0.2817957
38	0x3f08247f	0.5318069
39	0xbe0763e5	-0.132217
40	0x3dd14689	0.10218532
41	0xbdfcd0ee	-0.12344538
42	0xbeebebb0	-0.46078253
43	0x3da1c76a	0.07899363
44	0x3e5b8831	0.21438672
45	0xbde24b3f	-0.11049508
46	0xbf162c75	-0.58661586
47	0x3e0e299d	0.13883062
48	0xbf12de3c	-0.5737035
49	0x3e127db6	0.14305767
50	0xbd821553	-0.063517235
51	0x3e36e0ff	0.17859267
52	0x3e284979	0.16434278
53	0x3da36d51	0.07979835
54	0xbec50b82	-0.38485342
55	0xbecea2bb	-0.40358528
56	0x3b4377b0	0.0029825978
57	0x3d3ef9ab	0.04662482
58	0xbef7e556	-0.48417157
59	0xbda048fd	-0.078264214
60	0x3e337edf	0.17528866
61	0x3e0c35e3	0.13692431
62	0x3e7e1719	0.24813499
63	0xbed727ec	-0.42022645

static_variable_selection.single_variable_grns.AGE80PLUS.fc2.bias f4 [8]
0	0x3da10a40	0.07863283
1	0x3b80df09	0.003932838
2	0xbc2957e5	-0.010335897
3	0xbcf6c9eb	-0.030125579
4	0x3baadeb9	0.005214539
5	0xbe69148b	-0.22761743
6	0xbc64b30b	-0.013958703
7	0x3d7e6d1f	0.062115785

static_variable_selection.single_variable_grns.AGE80PLUS.gate_norm.glu.fc.weight f4 [32, 8]
0	0x3db64ff3	0.08901968
1	0x3e9dee6d	0.30845967
2	0xbce6bd5e	-0.02816647
3	0xbe93cbc2	-0.28866392
4	0xbd0513d4	-0.032489613
5	0xbde55844	-0.11198476
6	0xbe11f124	-0.14252144
7	0x3aae41c0	0.0013294742
8	0x3e70e5c8	0.23525155
9	0x3d356a30	0.04429072
10	0x3e385e83	0.18004803
11	0x3df4f7de	0.119613394
12	0xbeccd9b4	-0.40009844
13	0x3d6db73c	0.058036074
14	0xbe10f812	-0.14157131
15	0x3e1ffbe2	0.1562343
16	0x3ebd4ca2	0.3697253
17	0x3c8333c5	0.016015897
18	0xbe58867d	-0.21145053
19	0xbe996b4b	-0.2996467
20	0x3dfb46c7	0.12269359
21	0xbea8ea14	-0.32991087
22	0x3cf65e56	0.03007428
23	0x3e6038ce	0.2189667
24	0xbe3e7919	-0.18600883
25	0x3e6022f9	0.21888341
26	0xbe92815f	-0.28614327
27	0xbed72f64	-0.42028344
28	0x3e5fe910	0.2186625
29	0xbeb97c21	-0.36227515
30	0xbcdda680	-0.027056932
31	0xbcac3423	-0.021020954
32	0xbe2c8311	-0.16846873
33	0xbe0f43a2	-0.13990644
34	0x3e83d8ca	0.25751334
35	0xbe3d4d43	-0.18486504
36	0x3e76a8ca	0.24087825
37	0xbdd46bb9	-0.10372109
38	0xbe978cde	-0.2959966
39	0x3d470113	0.04858501
40	0x3e59c87a	0.21267882
41	0xbe0108b3	-0.12600975
42	0xbe9a9282	-0.30189902
43	0x3e4d8c35	0.20073016
44	0x3e2e47ce	0.17019579
45	0xbd76e55e	-0.060277335
46	0x3dc5135c	0.09622833
47	0x3e2c214e	0.1680958
48	0xbdd81e27	-0.10552626
49	0x3d792980	0.060830593
50	0x3eb25879	0.34833124
51	0x3de4a262	0.111637846
52	0xbda0b1d3	-0.07846417
53	0xbe5cdc48	-0.21568406
54	0x3e960e02	0.29307562
55	0x3e51d014	0.20489532
56	0x3eab274d	0.33428422
57	0x3e356cea	0.17717329
58	0x3dd5fcd8	0.10448617
59	0x3cdac5e5	0.026705692
60	0xbd9eabb5	-0.07747594
61	0xbddca715	-0.10774056
62	0x3db1dc1a	0.08684559
63	0x3d5e2092	0.05423028
64	0xbe988a10	-0.29792833
65	0xbe19c0c0	-0.15014935
66	0x3dd44725	0.10365132
67	0x3d91ea52	0.07124771
68	0x3e789fd2	0.24279717
69	0x3c1c6c98	0.009547375
70	0x3e30c61c	0.17263073
71	0x3deca9a9	0.115557976
72	0x3e89f5c1	0.26945308
73	0x3e52e21b	0.20594065
74	0xbdbac262	-0.09119107
75	0xbd9a48e7	-0.07533436
76	0x3e002ee5	0.12517889
77	0xbde3feda	-0.111325935
78	0xbe0877a4	-0.1332689
79	0xbd9743d4	-0.07385984
80	0xbedf178b	-0.4357265
81	0x3dcf19fb	0.10112377
82	0x3e89461f	0.2681131
83	0xbd59a463	-0.053135287
84	0xbef0a416	-0.47000188
85	0xbe71ebd2	-0.23625115
86	0x3e577a1d	0.21042676
87	0x3d250c99	0.040295217
88	0xbe3eaebf	-0.18621348
89	0xbd7c2ebc	-0.061568007
90	0x3e170eb3	0.14751701
91	0xbdd6974a	-0.10478075
92	0x3e69aebb	0.2282056
93	0xbdff0618	-0.12452334
94	0xbd51d1dd	-0.05122553
95	0x3e6daffd	0.23211665
96	0xbe106f24	-0.14104897
97	0x3e850a41	0.25984386
98	0x3cff6e05	0.031180391
99	0xbccc8d61	-0.024969758
100	0x3e5c6ecb	0.21526639
101	0xbd49f61b	-0.04930697
102	0x3e4ce612	0.2000964
103	0x3e1c2b3a	0.15250865
104	0xbeb6e281	-0.35719684
105	0xbd4a9537	-0.04945871
106	0xbe93f38a	-0.28896743
107	0x3e5ba01d	0.21447797
108	0x3e15b2b8	0.14618957
109	0x3e1bdf5e	0.15221927
110	0xbca0690e	-0.019581344
111	0x3dd7c3c4	0.10535386
112	0xbe04ff2f	-0.1298797
113	0x3e711adb	0.23545401
114	0x3cd37464	0.025812335
115	0xbd058475	-0.032597024
116	0xbebdef9e	-0.37096876
117	0x3e05218e	0.13001081
118	0x3ebc31eb	0.36756834
119	0xbd6a841f	-0.057254907
120	0xbead4cfa	-0.3384779
121	0xbe4c0982	-0.19925502
122	0x3cf58e3f	0.029975055
123	0x3ef3a3f8	0.47586036
124	0xbe6b79df	-0.22995709
125	0x3e9c2228	0.3049481
126	0x3d9f0c28	0.077659905
127	0xbe98df29	-0.29857758
128	0x3da4f740	0.08054972
129	0xbe406da7	-0.18791829
130	0x3f1afb2f	0.60539526
131	0x3da97abb	0.08275362
132	0x3effed15	0.49985567
133	0xbe87fc08	-0.26559472
134	0xbf0f5f3e	-0.56004703
135	0x3e675f6c	0.22594994
136	0x3e857775	0.260677
137	0xbe968a3f	-0.29402348
138	0xbeb21c57	-0.34787247
139	0x3e96a0e1	0.29419616
140	0x3e655885	0.22397049
141	0xbe1a1f0d	-0.15050907
142	0xbec05a88	-0.3756907
143	0xbefba7de	-0.4915151
144	0x3db7b1d2	0.089694634
145	0xbe061254	-0.13092929
146	0xbe1112bf	-0.14167307
147	0x3f10be08	0.56539965
148	0xbe5dcc90	-0.21660066
149	0x3e9d8372	0.30764347
150	0xbd914bd6	-0.07094543
151	0x3ea8075f	0.32818124
152	0x3e6e9f06	0.2330285
153	0x3ecacae7	0.39607927
154	0xbe5be36a	-0.2147347
155	0xbeddaff2	-0.43298298
156	0x3d8c7ee5	0.06860141
157	0x3e3904c0	0.18068218
158	0xbe82c21f	-0.25538728
159	0x3eb89fb6	0.3605935
160	0x3f0ac04f	0.5419969
161	0xbe1f9279	-0.15583219
162	0x3e258395	0.16163476
163	0xbd397be6	-0.045284174
164	0xbd22c803	-0.039741527
165	0xbe847b0f	-0.25875136
166	0x3c588bba	0.013216907
167	0x3ead57e4	0.33856118
168	0x3f19cc87	0.6007771
169	0x3b048984	0.0020223567
170	0x3f086884	0.5328448
171	0xbc94e589	-0.018175857
172	0x3ee5e782	0.4490319
173	0x3e8337e8	0.2562859
174	0xbeb8211f	-0.3596277
175	0x3ee44801	0.44586185
176	0x3eedfae0	0.46480465
177	0x3f239781	0.6390305
178	0xbdb03970	-0.08604705
179	0xbd9a9d67	-0.07549553
180	0xbd8617a5	-0.065474786
181	0xbdf5f2a5	-0.120091714
182	0x3d92a5ea	0.07160552
183	0xbe193f84	-0.14965636
184	0x3e342a62	0.17594293
185	0x3f21ee10	0.6325388
186	0x3f01d32f	0.50712866
187	0xbd7ca437	-0.061680045
188	0x3f1167f5	0.5679925
189	0xbd1774ef	-0.03697675
190	0xbdc68d63	-0.09694936
191	0xbe534e34	-0.20635301
192	0x3ea73c13	0.3266302
193	0x3efccaca	0.49373466
194	0x3e88ab48	0.26693177
195	0xbac4aa14	-0.00150043
196	0x3ea939f5	0.3305203
197	0x3ef0d669	0.47038582
198	0xbd75904b	-0.05995206
199	0x3f46c51f	0.7764453
200	0xbe914860	-0.2837553
201	0xbe9e7b5f	-0.309535
202	0x3e9305d3	0.2871538
203	0x3e283f46	0.16430387
204	0x3e0158b1	0.1263149
205	0xbe494fb7	-0.19659315
206	0xbebddb6d	-0.3708147
207	0x3ea68156	0.3252055
208	0x3e7b7be3	0.24558978
209	0xbe07179c	-0.131926
210	0x3e0ae8dc	0.13565391
211	0x3ce421c0	0.027848125
212	0xbec97f05	-0.3935472
213	0x3d200229	0.03906456
214	0x3af87ddf	0.0018958411
215	0xbe8d819a	-0.2763794
216	0x3e11499b	0.14188235
217	0x3de9c680	0.11414814
218	0x3eb51de7	0.35374376
219	0xba7820f5	-0.000946536
220	0xbdd520f9	-0.1040668
221	0x3ed5fc22	0.41793925
222	0x3e08eb06	0.13370904
223	0x3d58b594	0.05290754
224	0xbdaba584	-0.08381179
225	0x3d30a90f	0.043129977
226	0x3e899db2	0.26878124
227	0xbd461eb6	-0.048369132
228	0xbdf686f7	-0.12037461
229	0x3edb5240	0.4283619
230	0xbc7b6eba	-0.0153462235
231	0x3f3c12f1	0.734664
232	0x3de25fe7	0.11053448
233	0xbd6ce655	-0.05783685
234	0xbe50d8ac	-0.20395154
235	0xbd7e336b	-0.062060755
236	0x3dc7a69c	0.09748575
237	0x3dc73f59	0.097288795
238	0xbbe9ee54	-0.0071390066
239	0x3ed32439	0.41238573
240	0x3f4e8c7c	0.8068311
241	0x3ee27f90	0.44237947
242	0xbdb7e29b	-0.089787684
243	0xbe910142	-0.28321272
244	0x3f19b81d	0.6004656
245	0xbec62cd9	-0.3870609
246	0xbe857957	-0.26069137
247	0x3e8ee4c7	0.27908918
248	0x3b4c9367	0.0031215788
249	0xbf1f5c43	-0.62250155
250	0xbcb58d6e	-0.022162165
251	0xbe193b11	-0.14963938
252	0xbe5fab37	-0.21842657
253	0xbec8689c	-0.3914231
254	0xbea8438b	-0.3286403
255	0x3eb89ebc	0.36058605

static_variable_selection.single_variable_grns.AGE80PLUS.gate_norm.glu.fc.bias f4 [32]
0	0x3e067e9d	0.13134237
1	0xbe11b4a2	-0.14229062
2	0xbdb43abd	-0.08800266
3	0x3e64677b	0.223051
4	0x3c1d1a78	0.00958883
5	0x3d8f2d3b	0.06991049
6	0x3d1d40ab	0.03839175
7	0xbc18e770	-0.009332523
8	0xbdaa0733	-0.083021544
9	0xbda7c415	-0.081916966
10	0x3dcba524	0.099436074
11	0xbe5d81ec	-0.21631593
12	0xbd7254db	-0.059162956
13	0xbdcbc5d0	-0.09949839
14	0x3d2559db	0.040368896
15	0x3e4729ea	0.19449583
16	0xbf013d62	-0.5048429
17	0xbe5dbc91	-0.21653964
18	0xbe12ff17	-0.14355122
19	0xbe985c8c	-0.29758108
20	0xbf26a72d	-0.6509884
21	0xbf2e8d2c	-0.6818416
22	0xbf019847	-0.5062298
23	0xbefc9320	-0.49330997
24	0xbf5de0f5	-0.8667138
25	0xbeada733	-0.33916625
26	0xbd8f4b68	-0.069968045
27	0xbe79d267	-0.24396668
28	0xbf1916b3	-0.5980026
29	0xbee96b36	-0.45589608
30	0xbec05da6	-0.37571448
31	0xbc73bd17	-0.0148766255

static_variable_selection.single_variable_grns.AGE80PLUS.gate_norm.add_norm.norm.weight f4 [16]
0	0x3f1d42ad	0.61429864
1	0x3f3c3313	0.73515433
2	0x3f7f74a5	0.9978736
3	0x3fa07b19	1.2537566
4	0x3f97c5e0	1.1857262
5	0x3fa1479b	1.2599977
6	0x3f7a6089	0.9780355
7	0x3f6a354d	0.9148758
8	0x3f838b82	1.027695
9	0x3f91a00e	1.137697
10	0x3f34e1b6	0.7065691
11	0x3fa221e0	1.2666588
12	0x3f8e89cd	1.1135803
13	0x3f815716	1.0104702
14	0x3f1c307a	0.6101147
15	0x3f84db84	1.0379491

static_variable_selection.single_variable_grns.AGE80PLUS.gate_norm.add_norm.norm.bias f4 [16]
0	0x3e218e87	0.15777026
1	0xbdf0a77d	-0.11750696
2	0xbcd84f2c	-0.02640494
3	0x3ea75add	0.3268651
4	0x3dcf8698	0.101330936
5	0x3dd03d94	0.10167995
6	0x3d8965f0	0.06708896
7	0xbd2fda20	-0.04293263
8	0xbd88cda2	-0.06679846
9	0xbe1ea0e9	-0.1549107
10	0x3e0c226b	0.13685004
11	0xbe95547e	-0.29166025
12	0xbdd0fc05	-0.10204319
13	0xbd9a68ac	-0.07539496
14	0x3dd6b640	0.1048398
15	0x3e7639c4	0.24045473

static_variable_selection.prescalers.AGE80PLUS.weight f4 [8, 1]
0	0xbd5f8f86	-0.054580234
1	0xbee55c4a	-0.44796973
2	0x3ee6419d	0.44971934
3	0x3ec0427f	0.37550732
4	0xbf230420	-0.6367817
5	0xbe83c925	-0.257394
6	0xbf2e009e	-0.6796969
7	0x3ec24591	0.379437

static_variable_selection.prescalers.AGE80PLUS.bias f4 [8]
0	0xbe621d75	-0.2208155
1	0x3ec83fc5	0.39111152
2	0x3f489cbc	0.7836416
3	0x3e4b39a9	0.19846214
4	0xbeef8a1c	-0.46785057
5	0xbf24edf1	-0.6442557
6	0xbe866a83	-0.26253137
7	0x3d84c0d4	0.064820915

encoder_variable_selection.flattened_grn.resample_norm.mask f4 [3]
0	0xbf52b02e	-0.8230008
1	0x3e8049fa	0.2505644
2	0x3e1b9027	0.15191709

encoder_variable_selection.flattened_grn.resample_norm.norm.weight f4 [3]
0	0x3f62613d	0.88429624
1	0x3f747962	0.95497715
2	0x3fcd1727	1.602269

encoder_variable_selection.flattened_grn.resample_norm.norm.bias f4 [3]
0	0x3ea507c4	0.32232487
1	0x3dac6e7f	0.08419513
2	0xbf68459e	-0.9073123

encoder_variable_selection.flattened_grn.fc1.weight f4 [3, 24]
0	0x3f079c83	0.5297319
1	0xbec1489f	-0.37750718
2	0x3e5dcbf7	0.21659838
3	0xbe15c5f8	-0.146263
4	0x3dd164bf	0.10224294
5	0x3de45706	0.11149411
6	0xbe2d21de	-0.1690745
7	0xbe172e5b	-0.14763777
8	0xbee9f7a4	-0.45696747
9	0x3e5b25d9	0.21401156
10	0x3dcbf459	0.09958715
11	0xbf956e78	-1.1674337
12	0xbe1b7beb	-0.1518399
13	0xbc8828c6	-0.016621005
14	0x3d9640e8	0.07336599
15	0x3c98104b	0.018562457
16	0x3f1ad085	0.60474426
17	0xbf507fd0	-0.81445026
18	0x3e463fbc	0.1936025
19	0x3d8af10e	0.06784259
20	0x3e59d91c	0.21274227
21	0xbd38b0a6	-0.04509034
22	0x3c87ba0d	0.016568208
23	0x3edc42b8	0.43019652
24	0x3e8f149b	0.27945408
25	0xbe12ead2	-0.1434739
26	0xbe659b95	-0.22422631
27	0xbf2dd79b	-0.6790711
28	0x3e8593b5	0.26089254
29	0x3d9d2ead	0.07674918
30	0x3e28fa9b	0.16501848
31	0x3f349d29	0.7055231
32	0xbed924e5	-0.4241096
33	0x3e68de24	0.2274099
34	0xbf2b9f31	-0.6703978
35	0xbf04a8b5	-0.51819927
36	0xbcf40fea	-0.029792745
37	0x3db6ed8f	0.089320295
38	0x3e19970b	0.14999025
39	0x3ea13c2e	0.31491226
40	0x3b86a11a	0.0041085603
41	0x3d62110b	0.055192035
42	0xbee36678	-0.44414115
43	0xbe771a19	-0.24131049
44	0xbd90b609	-0.070659705
45	0x3e90abe8	0.28256154
46	0x3c96b335	0.018396
47	0xbbb6762c	-0.0055682864
48	0x3e893035	0.26794592
49	0xbecd9350	-0.40151453
50	0xbe1392e9	-0.1441151
51	0x3cf25e7f	0.029586075
52	0x3eaeaa89	0.34114483
53	0x3f15a0da	0.58448565
54	0xbe211cc7	-0.15733634
55	0x3ea6bf43	0.32567796
56	0xbf32cda9	-0.6984506
57	0x3efcaddd	0.49351397
58	0x3e2efe98	0.17089307
59	0xbcb843e8	-0.022493318
60	0xbe412cc3	-0.18864731
61	0x3cea3492	0.02858952
62	0x3ed2d57c	0.411785
63	0x3e87654a	0.26444465
64	0xbcf26b2b	-0.029592117
65	0x3f20087e	0.6251296
66	0x3e395493	0.18098669
67	0xbed9a3d6	-0.4250781
68	0xbef6c4e4	-0.4819709
69	0xbe60827b	-0.21924774
70	0xbe75c7c7	-0.2400199
71	0x3cbe014d	0.02319398

encoder_variable_selection.flattened_grn.fc1.bias f4 [3]
0	0xbe2368fb	-0.15958016
1	0xbe39668e	-0.18105528
2	0xbea625bb	-0.3245066

encoder_variable_selection.flattened_grn.context.weight f4 [3, 16]
0	0xbe6b83e0	-0.22999525
1	0xbcca00e6	-0.024658632
2	0xbd7ecd0f	-0.062207278
3	0xbe32d5d4	-0.17464381
4	0x3da2b1a1	0.07944036
5	0xbe08bec4	-0.13354021
6	0xbcb19d14	-0.021681346
7	0x3d9e9295	0.07742802
8	0xbcc922e7	-0.024552776
9	0x3c2fbdd0	0.010726407
10	0xbcec74e8	-0.028864339
11	0x3dbcae3e	0.092129216
12	0xbd548f79	-0.05189464
13	0x3cc47894	0.023983277
14	0xbe4aedf9	-0.19817342
15	0xbe3f7fa9	-0.18701042
16	0x3eb22bb9	0.34798983
17	0x3d78a93a	0.060708262
18	0x3f1f4d9e	0.6222781
19	0xbf05a4f8	-0.5220485
20	0xbf14ce8f	-0.58127683
21	0x3f3bdb0d	0.7338112
22	0xbd3f0e05	-0.04664423
23	0xbea051fd	-0.31312552
24	0x3dd456f6	0.10368149
25	0xbc153734	-0.0091074
26	0xbe01c2d5	-0.12671979
27	0x3e35d554	0.1775716
28	0xbde53cdd	-0.111932494
29	0x3c6d10c9	0.014469334
30	0xbe99864a	-0.29985267
31	0xbe35df8e	-0.1776106
32	0x3cd7118c	0.026253484
33	0xbe483f5e	-0.19555423
34	0x3eca0d50	0.39463282
35	0xbedf9707	-0.43669912
36	0xbe8f56fb	-0.27996048
37	0x3f1f2fff	0.6218261
38	0x3e8b1729	0.27166107
39	0x3ee6cbff	0.45077512
40	0xbedabe6f	-0.42723414
41	0x3ea7c442	0.3276692
42	0xbde23414	-0.11045089
43	0x3e0e459e	0.13893744
44	0xbd24888d	-0.040169287
45	0x3d6ac9b9	0.057321284
46	0xbe656db7	-0.22405134
47	0x3f09b8da	0.53797686

encoder_variable_selection.flattened_grn.fc2.weight f4 [3, 3]
0	0xbf338832	-0.7012969
1	0xbf8b4a70	-1.0882092
2	0xbe4c07a6	-0.19924793
3	0xbcd637da	-0.026149679
4	0xbf8b2549	-1.0870754
5	0xbe72a54c	-0.23695868
6	0xbe7e9052	-0.24859741
7	0xbf5c2d9c	-0.86007094
8	0xbf57442f	-0.84088415

encoder_variable_selection.flattened_grn.fc2.bias f4 [3]
0	0x3dfa7205	0.12228779
1	0xbcef3325	-0.029199192
2	0xbd1866f8	-0.037207574

encoder_variable_selection.flattened_grn.gate_norm.glu.fc.weight f4 [6, 3]
0	0x3ec4f676	0.38469285
1	0xbe8ba637	-0.2727525
2	0x3f20b8be	0.62781894
3	0xbddc1fe9	-0.10748274
4	0xbe93cb8e	-0.28866237
5	0x3f2f2efb	0.6843106
6	0xbe64e72d	-0.22353812
7	0xbedff02b	-0.4373792
8	0xbea1d331	-0.3160644
9	0xbe9d5682	-0.30730063
10	0xbf04e1b1	-0.5190688
11	0x3f2e0d1d	0.6798876
12	0x3f49549c	0.7864473
13	0xbec30197	-0.3808715
14	0xbf075a6d	-0.52872354
15	0x3ec8451a	0.3911522
16	0x3f4746f5	0.77842647
17	0x3f1b6a5a	0.60709155

encoder_variable_selection.flattened_grn.gate_norm.glu.fc.bias f4 [6]
0	0x3e71572b	0.23568408
1	0xbc4d05b2	-0.012513565
2	0xbf59c313	-0.85063285
3	0xbdd49dba	-0.103816465
4	0x3e0b9e89	0.13634695
5	0x3f71b9dc	0.94424224

encoder_variable_selection.flattened_grn.gate_norm.add_norm.norm.weight f4 [3]
0	0x3ee65c51	0.44992307
1	0x3e6753d9	0.22590579
2	0x3e897e76	0.26854295

encoder_variable_selection.flattened_grn.gate_norm.add_norm.norm.bias f4 [3]
0	0x3d359a87	0.044336822
1	0xbf00ef6a	-0.50365317
2	0x3f23d733	0.6400024

encoder_variable_selection.single_variable_grns.SinWeekly.resample_norm.mask f4 [16]
0	0xbe02f151	-0.12787367
1	0x3e96ba26	0.29438895
2	0x3d928fe0	0.07156348
3	0xbe5b792e	-0.21432945
4	0xbd4f0a92	-0.05054719
5	0xbe495f17	-0.1966518
6	0x3ed53bc0	0.41647148
7	0xbf0c9a78	-0.549232
8	0xbf51ab82	-0.81902325
9	0x3d8c6dc0	0.06856871
10	0xbeae4817	-0.34039375
11	0xbd88da71	-0.066822894
12	0xbf442f77	-0.76634926
13	0xbd496ca9	-0.049175892
14	0xbce30f76	-0.027717333
15	0x3f04a46c	0.5181339

encoder_variable_selection.single_variable_grns.SinWeekly.resample_norm.norm.weight f4 [16]
0	0x3f77888e	0.9669274
1	0x3f6a003e	0.9140662
2	0x3f9491e1	1.1607019
3	0x3f5c83f5	0.8613885
4	0x3fa03711	1.2516805
5	0x3f6fc065	0.93652946
6	0x3fc33f4b	1.525369
7	0x3ed8468c	0.42241323
8	0x3d8c5942	0.06852962
9	0x3f86a4f0	1.0519085
10	0x3f6982f3	0.9121544
11	0x3f952e88	1.1654825
12	0x3f04b6a0	0.51841164
13	0x3f87496b	1.056928
14	0x3f9525c5	1.1652151
15	0x3fbd60d0	1.479517

encoder_variable_selection.single_variable_grns.SinWeekly.resample_norm.norm.bias f4 [16]
0	0x3d43e51a	0.04782591
1	0x3d18b421	0.03728116
2	0xbdc71dbb	-0.097224675
3	0xbb587f8e	-0.0033035013
4	0xbdfd32cc	-0.12363204
5	0xbdd8a23d	-0.105778195
6	0xbe10dae4	-0.14146
7	0xbe89c6ce	-0.26909488
8	0xbc3d6eca	-0.011562059
9	0xbc8648e6	-0.016392183
10	0x3db65f2c	0.08904871
11	0x3e4c8612	0.19973019
12	0x3e087d82	0.13329127
13	0xbd337e08	-0.043821365
14	0x3cbbefee	0.022941556
15	0x3dda028d	0.10645018

encoder_variable_selection.single_variable_grns.SinWeekly.fc1.weight f4 [8, 8]
0	0x3f8f52c2	1.1197131
1	0xbfd87cc7	-1.6913079
2	0xbf34d3b0	-0.7063551
3	0xbff18946	-1.8870018
4	0xbe76ef22	-0.2411466
5	0xbddc6de0	-0.107631445
6	0x3ea99607	0.33122274
7	0x3f061ed7	0.5239081
8	0xbcf9231d	-0.030412251
9	0x3eb3592e	0.35028976
10	0xbf048e3e	-0.51779544
11	0xbe34947b	-0.17634766
12	0xbf0c6e5c	-0.54855895
13	0x3f88cafc	1.0686946
14	0xbfbb3598	-1.462573
15	0xbf645239	-0.8918796
16	0xbe1ede04	-0.1551438
17	0xbb670a4d	-0.0035253942
18	0xbf121743	-0.57066745
19	0x3e95fd48	0.292948
20	0xbf76dfde	-0.96435344
21	0x3f16bf66	0.588858
22	0x3f3a5ac8	0.7279477
23	0x3dcd9b89	0.100394316
24	0x3eb9f170	0.36317015
25	0x3d4b4ac8	0.049631864
26	0xbeab26d3	-0.33428058
27	0x3e0238bc	0.12716955
28	0x3ebbfa82	0.3671456
29	0x3e1cf61d	0.1532826
30	0x3e8abc71	0.27096894
31	0x3f17fec4	0.59373116
32	0xbf0af557	-0.5428061
33	0xbe1b1e43	-0.15148263
34	0x3f99349c	1.196918
35	0xbc284860	-0.010271162
36	0x3e52b713	0.2057765
37	0x3f28bfdd	0.6591776
38	0x3f1ef84d	0.62097627
39	0xbf6a26c6	-0.91465414
40	0x3f224ae6	0.63395536
41	0xbe9e757a	-0.30949003
42	0xbf39f9ad	-0.726466
43	0xba0786c9	-0.0005169926
44	0x3e121155	0.14264424
45	0xbe94df59	-0.2907665
46	0xbe6033f6	-0.21894822
47	0x3e411691	0.18856265
48	0xbf680f1b	-0.9064805
49	0xbe117bc0	-0.14207363
50	0xbfc77d7a	-1.5585167
51	0x3efea412	0.4973455
52	0xbf27d1b7	-0.65554374
53	0x3e942d89	0.2894099
54	0xbfc63156	-1.5483806
55	0xbf5c6201	-0.8608704
56	0x3ebf9828	0.37420774
57	0xbdc3739a	-0.095435336
58	0xbf1edada	-0.6205269
59	0x3dfd56e8	0.12370092
60	0x3f68ce50	0.9093981
61	0x3f0a245c	0.5396173
62	0xbdb0dcdc	-0.086358756
63	0x3edb8bf7	0.42880222

encoder_variable_selection.single_variable_grns.SinWeekly.fc1.bias f4 [8]
0	0xbe14ff19	-0.14550437
1	0xbe2bcdbc	-0.167777
2	0xbddf4f73	-0.109038256
3	0xbdf73eda	-0.12072535
4	0x3d87ef40	0.0663743
5	0xbd9493d9	-0.07254762
6	0xbe8b25de	-0.27177328
7	0xbe060ec1	-0.13091566

encoder_variable_selection.single_variable_grns.SinWeekly.fc2.weight f4 [8, 8]
0	0xbf7acb3a	-0.9796635
1	0x3ea6a60f	0.32548568
2	0xbf945b29	-1.159032
3	0xbf0b7a06	-0.5448307
4	0xbf172165	-0.5903533
5	0x3cca33d8	0.024682924
6	0x3f25af97	0.64721054
7	0xbdfbe94f	-0.123003595
8	0xbe9a4c2c	-0.3013624
9	0xbe29c004	-0.16577154
10	0x3ebdb5cc	0.37052763
11	0x3dbf0a6a	0.09328158
12	0xbe252706	-0.16128168
13	0x3eaef43a	0.34170705
14	0x3f387120	0.72047615
15	0x3eaa9c1b	0.33322224
16	0x3f33eb26	0.70280683
17	0xbeae2aec	-0.34017122
18	0x3dec5601	0.115398414
19	0xbed34d65	-0.41269985
20	0x3f0888a9	0.53333527
21	0xbceee6f1	-0.029162856
22	0x3f2c45f6	0.6729425
23	0x3eed6f72	0.4637409
24	0x3f0f88e3	0.5606825
25	0x3f8110d0	1.0083256
26	0x3eb5e4e5	0.35526195
27	0x3e77d8c4	0.24203783
28	0x3ebd8e26	0.37022513
29	0xbed795cf	-0.42106482
30	0x3eab6105	0.33472458
31	0xbeac895f	-0.33698556
32	0xbf76028a	-0.96097624
33	0x3f88ecf7	1.0697316
34	0xbf059ffe	-0.52197254
35	0xbca9cf3d	-0.020728702
36	0x3c843116	0.016136687
37	0x3ea525c2	0.3225537
38	0x3e483c0c	0.19554156
39	0xbe2594e6	-0.16170081
40	0x3edc2521	0.42997077
41	0xbf152579	-0.58260304
42	0xbeb8a33c	-0.36062038
43	0x3d253eb3	0.040342998
44	0xbf32a0e5	-0.69776756
45	0x3def7f73	0.11694231
46	0xbeb52ee4	-0.35387337
47	0xbedd6abd	-0.43245497
48	0xbe8944c6	-0.26810282
49	0xbe75fd9e	-0.24022529
50	0xbd985e36	-0.07439844
51	0xbe1d4354	-0.15357715
52	0x3eaea011	0.34106496
53	0xbe8cbb2c	-0.2748655
54	0xbe77403c	-0.24145597
55	0x3d752b57	0.059855785
56	0x3f5428de	0.8287486
57	0x3e803b3d	0.25045195
58	0x3ef33e3e	0.47508425
59	0x3f07b6fa	0.53013575
60	0x3f13ac36	0.5768465
61	0xbda66d40	-0.081263065
62	0x3f82f807	1.0231942
63	0xbe5c12da	-0.21491566

encoder_variable_selection.single_variable_grns.SinWeekly.fc2.bias f4 [8]
0	0xbd1ada4f	-0.03780585
1	0xbe499511	-0.1968577
2	0x3e1065a1	0.14101268
3	0x3e43f058	0.19134653
4	0x3dc9c6ad	0.098523475
5	0x3e1e4a82	0.1545811
6	0xbde1e062	-0.11029126
7	0x3db2faa8	0.08739215

encoder_variable_selection.single_variable_grns.SinWeekly.gate_norm.glu.fc.weight f4 [32, 8]
0	0x3ee0f538	0.43937087
1	0x3cb49a7b	0.022046318
2	0x3e5dcfc8	0.21661294
3	0x3e24000b	0.16015641
4	0x3e1dccc6	0.15410146
5	0xbef4b77b	-0.47796234
6	0xbee9178a	-0.4552577
7	0x3eb8ff97	0.361325
8	0xbd21cbb2	-0.0395009
9	0x3e854409	0.2602847
10	0xbe521923	-0.20517401
11	0xbe88179b	-0.2658051
12	0x3de22e1e	0.110439524
13	0x3db003f9	0.08594508
14	0x3ec5c32a	0.3862546
15	0xbe4a55fd	-0.19759364
16	0x3eb042fc	0.34426105
17	0xbd191e91	-0.037382666
18	0x3dbfe7d1	0.09370387
19	0x3e6c3896	0.23068461
20	0x3eabd5f9	0.33561686
21	0xbe0ef6fb	-0.13961403
22	0xbe3b57b9	-0.18295182
23	0x3e48d7bc	0.19613546
24	0xbd3fe36c	-0.046847746
25	0xbe0f371d	-0.13985868
26	0xbe933739	-0.2875307
27	0xbe881bea	-0.26583797
28	0x3e8610c2	0.2618466
29	0x3e87ef5e	0.2654981
30	0xbe1f7355	-0.1557134
31	0x3e3913d7	0.18073975
32	0x3ea56430	0.32303
33	0x3e44bdcc	0.19213027
34	0x3ee03b2b	0.43795142
35	0x3f1ad2ff	0.60478204
36	0x3e1fc8e0	0.15603971
37	0xbebecba2	-0.37264735
38	0xbe21a32d	-0.15784903
39	0x3edd3e65	0.43211666
40	0x3dede198	0.11615294
41	0xbe048d18	-0.12944448
42	0xbca95ec4	-0.02067507
43	0xbe07cf54	-0.13262683
44	0xbe503cfd	-0.20335765
45	0xbe6b3e08	-0.22972882
46	0xbcd4c0da	-0.025970865
47	0x3d9a9c4c	0.075493425
48	0x3eb6f6dc	0.35735214
49	0x3e8bd514	0.27311003
50	0xbf6fbef1	-0.9365073
51	0xbee42c43	-0.4456502
52	0x3eab443c	0.33450496
53	0xbedb4ccd	-0.42832032
54	0x3e41c83c	0.1892404
55	0xbf3cc7b1	-0.73742205
56	0xbe7750e4	-0.24151951
57	0x3db91a5d	0.090382315
58	0x3be3da4f	0.0069535146
59	0xbeeedc1a	-0.466523
60	0xbe1b877f	-0.15188406
61	0xbd9ed792	-0.077559605
62	0x3e24e26c	0.16101998
63	0x3d539e59	0.051664684
64	0x3ee8f959	0.45502737
65	0x3f158933	0.58412474
66	0xbe135bdb	-0.14390509
67	0x3f2bfefd	0.67185956
68	0x3ee67939	0.4501436
69	0xbf48d87c	-0.7845533
70	0xbeda1284	-0.4259225
71	0x3ebd9d42	0.3703404
72	0xbe5cecc3	-0.21574692
73	0xbec305b4	-0.3809029
74	0x3e1f71c7	0.15570746
75	0xbe64ea11	-0.22354914
76	0xbe6c55b5	-0.2307957
77	0x3ddc111d	0.107454516
78	0x3df646df	0.12025236
79	0x3e44d00b	0.19219987
80	0x3e77540e	0.24153158
81	0xbd19cff9	-0.037551854
82	0xbc7f57e8	-0.015584923
83	0x3d49a20b	0.0492268
84	0x3e33ade2	0.175468
85	0x3d30c8fc	0.043160424
86	0x3c712a19	0.0147195095
87	0x3eb54623	0.35405073
88	0x3e8e767d	0.27824774
89	0x3e5b0926	0.21390209
90	0x3e1f8871	0.15579392
91	0x3eed822c	0.46388376
92	0x3e2b7986	0.16745576
93	0xbf1ec88f	-0.6202478
94	0xbe5d4edf	-0.21612118
95	0x3f4e68d7	0.8062872
96	0x3f318c87	0.6935505
97	0x3f172b3f	0.59050363
98	0xbefb16ea	-0.4904092
99	0xbce92b72	-0.0284631
100	0x3f482257	0.781774
101	0xbf1cdab3	-0.6127121
102	0xbd638d82	-0.055554874
103	0xbf355326	-0.7083
104	0xbe13e8e6	-0.14444312
105	0xbebeee4c	-0.3729118
106	0x3d94a0df	0.07257246
107	0xbe17f9f0	-0.14841437
108	0xbe0c4472	-0.13697985
109	0x3e17a661	0.14809562
110	0x3e4d4f4d	0.20049782
111	0xbf095112	-0.5363933
112	0xbe78e580	-0.24306297
113	0xbe8a7e60	-0.2704954
114	0x3e82b4cf	0.2552857
115	0xbd4cd5db	-0.050008636
116	0xbe13c583	-0.14430813
117	0x3e7f3d7e	0.24925801
118	0xbe8b6ca3	-0.2723132
119	0x3e5d9995	0.21640618
120	0xbdd6512d	-0.10464702
121	0xbf3067b4	-0.6890824
122	0xbe8cffd1	-0.27538922
123	0xbeb361ba	-0.35035497
124	0xbebe226d	-0.3713564
125	0x3e73bae4	0.23801762
126	0x3f4c5351	0.7981463
127	0xbea0a885	-0.3137857
128	0x3ef27b71	0.47359803
129	0x3e37a678	0.17934597
130	0x3d4197ff	0.047264095
131	0x3f0fde76	0.56198823
132	0x3eb422df	0.35182855
133	0xbedf811d	-0.43653193
134	0xbc74078b	-0.0148943765
135	0xbeb727f1	-0.3577266
136	0x3e9d0ad0	0.30672312
137	0xbe83b1eb	-0.25721678
138	0xbe845082	-0.25842673
139	0xbe27e551	-0.16396071
140	0x3eb37c7c	0.35055912
141	0xbdd212d5	-0.10257498
142	0xbea28d04	-0.3174821
143	0xbf214262	-0.6299192
144	0x3e9ee909	0.31037167
145	0xbec9bd9d	-0.39402476
146	0xbd32fa94	-0.043696
147	0xbe1e7cf3	-0.15477352
148	0x3e53072e	0.20608208
149	0xbe086dac	-0.13323087
150	0xbd39396f	-0.04522079
151	0x3daaacde	0.08333753
152	0x3e862088	0.26196694
153	0xbe590f6d	-0.2119729
154	0x3ecca347	0.3996832
155	0xbbf0a625	-0.0073440247
156	0xbdfb3534	-0.12266007
157	0x3e910bca	0.28329307
158	0xbd95061a	-0.072765544
159	0x3eadfde7	0.33982775
160	0x3f54f7fc	0.83190894
161	0x3f62d552	0.8860675
162	0xbef2f504	-0.47452557
163	0x3e1d5efc	0.15368265
164	0x3ec027e3	0.3753043
165	0xbf02a3e8	-0.5103135
166	0xbe09da04	-0.13462073
167	0x3e259f84	0.16174132
168	0x3dc1800a	0.0944825
169	0x3e37e7d7	0.17959534
170	0x3e59aef1	0.21258141
171	0x3e2c5ff0	0.16833472
172	0x3dbc3a71	0.09190834
173	0xbe4eda2f	-0.20200418
174	0x3e03aed1	0.12859656
175	0xbee83d86	-0.4535944
176	0xbe7a5b3d	-0.24448867
177	0xbe96ad2a	-0.2942899
178	0x3f3d2a9e	0.73893154
179	0x3d7a31ce	0.061082654
180	0xbe663ac3	-0.22483353
181	0x3e9ee04d	0.31030503
182	0x3dd7cb20	0.1053679
183	0x3f34fc1f	0.70697206
184	0xbdfd9c56	-0.12383334
185	0x3eff2714	0.49834502
186	0xbdb6e2ff	-0.08930015
187	0xbe8d5a6b	-0.27608046
188	0x3e8236c7	0.25432417
189	0x3c0a57f6	0.008443823
190	0x3dac312a	0.08407815
191	0xbf0f9d2f	-0.5609922
192	0x3e52db4d	0.20591469
193	0x3df33dbd	0.1187701
194	0xbd025106	-0.03181555
195	0x3def2bec	0.11678299
196	0x3eafc4ae	0.34329742
197	0xbe951d86	-0.29124087
198	0xbdaac1dd	-0.08337758
199	0x3e4d1869	0.20028843
200	0xbe7eb76c	-0.24874657
201	0xbd5ab90a	-0.053399123
202	0x3d37911a	0.044816114
203	0x3ebf2afc	0.37337482
204	0x3d8fce5e	0.07021783
205	0x3c928348	0.017884865
206	0xbed43d8b	-0.41453204
207	0x3ee47696	0.44621724
208	0x3e442b4a	0.19157138
209	0xbdfcbc2d	-0.12340579
210	0xbe60507f	-0.21905707
211	0xbdbb8d12	-0.091577664
212	0x3e309562	0.17244485
213	0x3e7f07dc	0.24905342
214	0xbedbe1d0	-0.4294572
215	0xbef23977	-0.47309467
216	0x3f01d580	0.507164
217	0x3e66431d	0.22486539
218	0xbe3eb7d0	-0.18624806
219	0x3f1d9386	0.6155323
220	0x3ec303a2	0.3808871
221	0xbf058f44	-0.5217173
222	0xbdf4e7e9	-0.11958296
223	0x3eaa6d5a	0.33286554
224	0xbd130cd4	-0.035900906
225	0xbd9a82d2	-0.07544483
226	0x3e7bb120	0.24579287
227	0x3edd5e72	0.4323612
228	0x3d0d0d7c	0.034436688
229	0xbded834f	-0.11597311
230	0xbe463df7	-0.19359575
231	0x3f07a48c	0.52985454
232	0x3d8bff51	0.06835807
233	0x3ee24642	0.44194227
234	0xbda1a813	-0.07893386
235	0x3ec4498e	0.38337368
236	0x3f35872a	0.7090937
237	0xbeb4f821	-0.35345557
238	0xbf30414a	-0.68849623
239	0x3e4224cd	0.18959351
240	0xbe810d52	-0.25205475
241	0xbec0d11f	-0.37659547
242	0xbd8e9ef3	-0.06963911
243	0xbdd4f732	-0.10398711
244	0xbeb345d3	-0.3501421
245	0xbe0013c5	-0.12507541
246	0x3ee83ece	0.45360416
247	0x3d902187	0.07037645
248	0x3e76c9d9	0.24100436
249	0x3ec155fb	0.3776091
250	0xbeb97ae6	-0.36226577
251	0x3ec29731	0.38005975
252	0x3e1c874f	0.15285991
253	0xbec065e3	-0.37577733
254	0xbde9a7c4	-0.11408952
255	0xbe1350c2	-0.14386275

encoder_variable_selection.single_variable_grns.SinWeekly.gate_norm.glu.fc.bias f4 [32]
0	0x3e162890	0.14663911
1	0x3df5e72a	0.12006982
2	0xbdaba36a	-0.08380778
3	0xbdb07c10	-0.08617413
4	0xbda77159	-0.08175916
5	0xbe0797d3	-0.1324151
6	0xbe8f47a3	-0.27984342
7	0xbebab545	-0.36466423
8	0x3e2dd17f	0.16974448
9	0x3c8924ee	0.016741242
10	0x3da08a29	0.07838852
11	0x3e816e16	0.252793
12	0x3d265458	0.04060778
13	0xbdfd7ccd	-0.123773195
14	0x3d016e11	0.031599108
15	0xbdad8d0c	-0.08474168
16	0x3c81fad4	0.015866674
17	0xbe272cc5	-0.16325672
18	0xbe0a047b	-0.13478272
19	0xbf17ee72	-0.59348214
20	0x3ca95516	0.020670455
21	0xbf011a58	-0.5043082
22	0x3b2d66b5	0.0026458923
23	0xbd8aefba	-0.067840055
24	0x3eae2c54	0.34018195
25	0x3e9cf617	0.30656502
26	0xbf2a6e85	-0.6657489
27	0xbdb55e26	-0.08855848
28	0x3e7bb3b9	0.24580278
29	0xbe5988b7	-0.21243559
30	0x3d1aac8b	0.037762206
31	0x3ea7bbe9	0.32760552

encoder_variable_selection.single_variable_grns.SinWeekly.gate_norm.add_norm.norm.weight f4 [16]
0	0x3f65605b	0.8960015
1	0x3f5d9cb9	0.86567265
2	0x3fa7ab74	1.3099198
3	0x3ef7549f	0.48306748
4	0x3f993cb7	1.1971654
5	0x3f384191	0.71975046
6	0x3fcc749f	1.597309
7	0x3ea71ae5	0.32637706
8	0x3f97664c	1.1828094
9	0x3f8420ec	1.0322547
10	0x3f737e70	0.95114803
11	0x3fbc85d6	1.4728343
12	0x3f64fb64	0.8944609
13	0x3f8e884e	1.1135347
14	0x3f8110d8	1.0083265
15	0x3fc1d25b	1.514232

encoder_variable_selection.single_variable_grns.SinWeekly.gate_norm.add_norm.norm.bias f4 [16]
0	0x3ca9c433	0.020723438
1	0x3de7a90f	0.11311542
2	0x3e3dce54	0.18535739
3	0x3e5091ff	0.20368193
4	0xbbf49a23	-0.0074646636
5	0xbd9d0dd6	-0.076686546
6	0xbe401af0	-0.18760276
7	0xbd974654	-0.07386461
8	0x3cfbcd88	0.030737653
9	0xbd77d26b	-0.060503405
10	0xbd769fcf	-0.060211
11	0x3e7ab8a2	0.24484494
12	0x3e06ce72	0.1316469
13	0xbd87b252	-0.06625809
14	0x3dce1653	0.10062852
15	0x3da0e68f	0.078564756

encoder_variable_selection.single_variable_grns.VaccinationFull.resample_norm.mask f4 [16]
0	0xbe50f2da	-0.2040514
1	0xbeffdbb3	-0.49972305
2	0x3e074cb6	0.13212857
3	0xbf1e07da	-0.6173073
4	0x3f10a263	0.5649778
5	0x3e26d503	0.16292195
6	0xbf0724f4	-0.5279076
7	0x3e908a1e	0.28230375
8	0xbe995b77	-0.29952595
9	0xbec5e1b1	-0.3864875
10	0xbe52f0f5	-0.2059973
11	0x3e6702f0	0.22559714
12	0x3ea59b22	0.3234492
13	0x3e955431	0.29165795
14	0x3a9d19e2	0.0011985863
15	0xbe00442d	-0.12526007

encoder_variable_selection.single_variable_grns.VaccinationFull.resample_norm.norm.weight f4 [16]
0	0x3f4f7d5f	0.81050676
1	0x3f1331a4	0.5749762
2	0x3fa93cee	1.3221719
3	0x3f295d9b	0.66158456
4	0x3fdd57e1	1.7292444
5	0x3f95a6e9	1.1691562
6	0x3f1aec98	0.60517263
7	0x3fb5f084	1.4214025
8	0x3f566bf0	0.8375845
9	0x3f3ef2f4	0.7458947
10	0x3f438fd6	0.7639135
11	0x3fa30d1d	1.2738377
12	0x3fa86e90	1.3158741
13	0x3fa9d30d	1.3267533
14	0x3f3c9b10	0.73674107
15	0x3f4f79a2	0.8104497

encoder_variable_selection.single_variable_grns.VaccinationFull.resample_norm.norm.bias f4 [16]
0	0x3d5f23be	0.054477446
1	0x3e7bbf07	0.2458459
2	0xbe829941	-0.25507548
3	0x3de0a2a9	0.10968525
4	0xbd9ea0a0	-0.077454805
5	0xbe06d5ac	-0.13167447
6	0xbe550e8c	-0.2080633
7	0x3df95a76	0.12175457
8	0xbdf8032f	-0.12109982
9	0xbe349188	-0.17633641
10	0x3ca2ea97	0.019887252
11	0xbd63edf2	-0.055646844
12	0x3da514fa	0.080606416
13	0xbe960c5b	-0.293063
14	0x3ed4394d	0.41449967
15	0x3e7d8042	0.24755958

encoder_variable_selection.single_variable_grns.VaccinationFull.fc1.weight f4 [8, 8]
0	0x3ec79cab	0.38986716
1	0xbe290ea2	-0.16509488
2	0xbf277cd8	-0.6542487
3	0xbe7f059b	-0.24904482
4	0x3f1ae17c	0.6050031
5	0x3e06275e	0.13100955
6	0xbf0f2e39	-0.55929905
7	0xbd14a74d	-0.036292363
8	0xbc781744	-0.015142266
9	0xbe317080	-0.17328072
10	0xbf660878	-0.8985667
11	0xbf9b714d	-1.2143952
12	0xbc9e6df6	-0.019339543
13	0x3cfd66e4	0.030932851
14	0x3f97f3fe	1.1871336
15	0x3d880573	0.06641664
16	0x3d77d51e	0.06050598
17	0xbf0bc8fb	-0.54603547
18	0xbdb79ea2	-0.08965804
19	0xbe7cf6c3	-0.24703507
20	0xbed2a6e2	-0.41142946
21	0x3ec342aa	0.38136798
22	0xbdfe4f43	-0.12417462
23	0xbf057416	-0.5213026
24	0xbe2a8c0d	-0.16654988
25	0xbf576751	-0.84142023
26	0xbe855fec	-0.26049745
27	0x3ecaeb48	0.3963263
28	0xbf44e8f0	-0.76917934
29	0x3f18d6ef	0.5970296
30	0x3dca9d22	0.09893252
31	0x3cf0efdc	0.029411249
32	0x3e7a88d9	0.24466266
33	0x3f09e549	0.53865486
34	0x3c7b49f8	0.01533746
35	0x3eaed7fd	0.3414916
36	0x3d3a850a	0.045537032
37	0x3f031585	0.5120471
38	0x3f344908	0.70423937
39	0x3f666978	0.9000468
40	0xbe7b1784	-0.24520689
41	0x3ef84e17	0.48497078
42	0x3df4fdd1	0.11962474
43	0xbe4d3443	-0.20039468
44	0xbef6aad5	-0.4817721
45	0xbf519a22	-0.81875813
46	0xbf51deb8	-0.81980467
47	0xbfe30026	-1.773442
48	0xbf2c1f3b	-0.67235154
49	0x3ec903db	0.39260754
50	0x3e38b13d	0.18036361
51	0x3df5e13c	0.12005851
52	0x3f5c4354	0.86040235
53	0xbe05672d	-0.1302764
54	0x3e5cb24d	0.21552391
55	0x3e1f55c4	0.1556006
56	0x3ea653d0	0.3248582
57	0x3e31c7a0	0.17361307
58	0xbf2ebc7b	-0.6825635
59	0xbe3b8f8c	-0.18316478
60	0xbe9ecab4	-0.31014025
61	0xbf9103f9	-1.1329337
62	0xbe8f989f	-0.28046128
63	0xbfc31b0c	-1.5242629

encoder_variable_selection.single_variable_grns.VaccinationFull.fc1.bias f4 [8]
0	0x3d94a7b4	0.07258549
1	0x3c862626	0.016375612
2	0x3c44c5d5	0.012010057
3	0xbb0a8b0d	-0.002114001
4	0x3cf56204	0.029953964
5	0xbeaf8034	-0.342775
6	0xbe356854	-0.1771558
7	0x3b859079	0.0040760604

encoder_variable_selection.single_variable_grns.VaccinationFull.fc2.weight f4 [8, 8]
0	0xbe6d9c4f	-0.23204158
1	0x3da5d2b9	0.08096833
2	0xbd83d10e	-0.064363584
3	0xbecef149	-0.4041846
4	0xbf676f90	-0.90404606
5	0x3e96b4d9	0.2943485
6	0xbecc81ec	-0.39942873
7	0x3e03ada5	0.12859209
8	0x3f018a78	0.5060191
9	0xbf17003d	-0.5898474
10	0xbe1ed1dd	-0.15509744
11	0xbe7c35c8	-0.24629891
12	0xbf146fd7	-0.57983154
13	0xbf31b13d	-0.6941107
14	0x3da939bd	0.08262966
15	0xbe291daa	-0.16515222
16	0xbfca70b9	-1.581565
17	0x3e80836c	0.25100267
18	0xbde696b4	-0.11259213
19	0x3f08c8dc	0.5343149
20	0xbe8270dd	-0.25476733
21	0x3eb01df3	0.3439785
22	0x3ecec20a	0.40382415
23	0x3ef17a57	0.4716365
24	0x3d974289	0.073857374
25	0xbf0d8c34	-0.5529206
26	0x3d8bdda1	0.06829382
27	0xbed8d25a	-0.42347986
28	0x3ef18391	0.4717069
29	0xbf2f7617	-0.68539566
30	0xbd38b12e	-0.045090847
31	0x3d33b40f	0.04387289
32	0xbe0a4d0c	-0.13505954
33	0xbe311f03	-0.17296986
34	0x3e52875a	0.20559445
35	0xbcd7bcab	-0.026335081
36	0x3f12e423	0.5737936
37	0x3ea3a600	0.31962585
38	0xbf33e49e	-0.7027072
39	0x3f4552b8	0.77079344
40	0xbebe3893	-0.37152538
41	0x3f488fb9	0.78344303
42	0x3f30d3c8	0.6907315
43	0x3e6ddabd	0.23227973
44	0x3e55c6c6	0.20876607
45	0xbd158865	-0.03650703
46	0xbe18ff97	-0.1494125
47	0xbf8683c9	-1.0508968
48	0x3f05940a	0.52179015
49	0xbe8fc6a7	-0.28081247
50	0xbd578c22	-0.052623875
51	0x3f2f2a17	0.684236
52	0x3ddf37a7	0.10899287
53	0xbf2a0595	-0.6641477
54	0xbdde36fa	-0.1085033
55	0x3dc6ff55	0.097166695
56	0xbe9ab942	-0.30219465
57	0xbd3f14cc	-0.046650693
58	0x3e3ef504	0.18648154
59	0x3e44f8ae	0.19235489
60	0xbf29cecf	-0.6633119
61	0xbf0b5536	-0.54426897
62	0xbe118740	-0.1421175
63	0xbe73bf22	-0.2380338

encoder_variable_selection.single_variable_grns.VaccinationFull.fc2.bias f4 [8]
0	0xbe53e49b	-0.20692675
1	0xbd2335c5	-0.0398462
2	0xbe21fc39	-0.15818872
3	0xbca14cf3	-0.019690013
4	0x3e481877	0.19540583
5	0xbe0f9336	-0.14021
6	0x3e0c8d09	0.13725676
7	0x3e21c83b	0.15799038

encoder_variable_selection.single_variable_grns.VaccinationFull.gate_norm.glu.fc.weight f4 [32, 8]
0	0x3e12e3d6	0.14344725
1	0x3f074338	0.5283694
2	0x3d983801	0.07432557
3	0x3eaf3ef5	0.3422772
4	0xbec04343	-0.37551317
5	0x3e7a3af3	0.2443655
6	0x3e410a01	0.18851472
7	0xbe2ee9eb	-0.1708142
8	0xbf11de51	-0.5697985
9	0x3d959309	0.07303435
10	0xbefcbce4	-0.49362862
11	0x3d6173cf	0.055042084
12	0xbdd7b2d8	-0.105321586
13	0x3d15a31f	0.036532518
14	0x3ed747ef	0.42047068
15	0xbe7888a3	-0.24270873
16	0x3d9cc69f	0.076550715
17	0x3dba31f4	0.09091559
18	0x3e39cc51	0.18144347
19	0x3ca1ca5a	0.019749809
20	0xbda25240	-0.07925844
21	0x3f1ba1aa	0.60793555
22	0xbe3bc0f5	-0.18335326
23	0x3e4171fb	0.18891136
24	0xbf81ee4a	-1.0150845
25	0x3f0f757a	0.5603863
26	0xbf09710f	-0.5368814
27	0x3f64d61c	0.89389205
28	0xbf3fa3ba	-0.748592
29	0x3f187f4f	0.5956926
30	0x3f50896f	0.8145971
31	0x3f1630ce	0.5866822
32	0x3f19656e	0.59920394
33	0xbe84edf8	-0.25962806
34	0x3f07bf44	0.53026223
35	0xbf37981e	-0.7171649
36	0x3f051626	0.5198692
37	0xbe848956	-0.2588603
38	0xbf15ac55	-0.5846608
39	0xbe55dc4e	-0.20884821
40	0x3e3957bd	0.18099876
41	0x3eeb0e71	0.45909455
42	0x3e55d46e	0.20881817
43	0xbe710592	-0.23537281
44	0xbe0f7632	-0.14009932
45	0x3dc46199	0.09588928
46	0xbe09a0a2	-0.13440183
47	0x3ec33f73	0.38134345
48	0xbdd9d93e	-0.10637139
49	0xbdf2c590	-0.11854088
50	0x3e01b8a7	0.12668096
51	0xbe8704cd	-0.2637085
52	0x3cd6d0c0	0.026222587
53	0x3ee6387f	0.44964978
54	0x3e030fdb	0.12799017
55	0x3d5c1189	0.05372766
56	0xbef21f6a	-0.47289592
57	0x3f660344	0.8984873
58	0xbeb244d8	-0.3481815
59	0x3e0fe79a	0.14053193
60	0x3e4b0a8f	0.19828247
61	0xbe18d52a	-0.14925066
62	0x3f361f5d	0.71141607
63	0xbd89cf88	-0.067290366
64	0xbd3eca08	-0.04657939
65	0xbc09c38d	-0.008408439
66	0x3dc4a074	0.096009165
67	0xbebfdf31	-0.3747497
68	0xbdf7484d	-0.12074337
69	0x3e670b24	0.22562844
70	0xbb3676a1	-0.0027841704
71	0x3e54a8bd	0.20767494
72	0x3e1423ef	0.14466833
73	0xbe45eecf	-0.1932938
74	0x3e3a66bb	0.18203251
75	0xbe097bad	-0.13426085
76	0xbe333145	-0.17499264
77	0xbe43de12	-0.19127682
78	0xbf262acb	-0.64909047
79	0xbe359df5	-0.17736037
80	0x3dcf25fc	0.10114667
81	0x3cffb331	0.031213375
82	0xbd5a7c8e	-0.05334144
83	0xbdd4313d	-0.10360954
84	0x3e845651	0.25847104
85	0x3d0f6c79	0.035015557
86	0x3e4fa5fd	0.20278163
87	0x3d7f254e	0.062291436
88	0xbeff5a5b	-0.49873623
89	0xbf185767	-0.59508365
90	0x3d9bcf65	0.07607917
91	0x3e40d442	0.1883097
92	0xbe13d585	-0.1443692
93	0x3dbc04aa	0.09180577
94	0xbe248b8c	-0.16068858
95	0x3e87c2d7	0.26515839
96	0xbedd0c48	-0.43173432
97	0x3e74c6f2	0.23904017
98	0xbefa8192	-0.4892698
99	0xbde3f9d8	-0.11131638
100	0xbe35781e	-0.17721602
101	0x3e1568ee	0.14590809
102	0xbe05f9f7	-0.13083635
103	0xbea77443	-0.32705888
104	0xbbec0533	-0.007202768
105	0xbf1c2aba	-0.61002696
106	0x3cf3cec9	0.029761689
107	0x3e801112	0.25013024
108	0x3e5dd98e	0.21665022
109	0x3ecf3d67	0.40476534
110	0xbe58f6c1	-0.21187879
111	0xbe964a9e	-0.29353803
112	0xbe864f0f	-0.26232192
113	0x3edab8e0	0.42719173
114	0xbe8f57af	-0.27996585
115	0x3e7ca00e	0.24670431
116	0xbeaed99e	-0.34150404
117	0x3d6e8b9a	0.058238603
118	0x3d92af9e	0.071624026
119	0x3e0fb276	0.14032921
120	0xbdd99844	-0.106247455
121	0xbda968e4	-0.082719594
122	0x3bec18ee	0.0072051203
123	0xbd502035	-0.050811965
124	0x3e3812ea	0.17975965
125	0xbdefb831	-0.117050536
126	0x3ec59ee4	0.38597786
127	0x3b42edcf	0.0029743796
128	0x3ead2fbf	0.3382549
129	0xbec86b16	-0.391442
130	0x3f0fadce	0.5612458
131	0xbe73743d	-0.2377481
132	0x3d88f207	0.06686788
133	0x3eccc753	0.39995822
134	0xbe6892ee	-0.22712299
135	0xbe94b284	-0.29042447
136	0xbe9a887b	-0.3018225
137	0xbecf296d	-0.40461293
138	0x3ded5b45	0.11589674
139	0xbcb470ec	-0.022026502
140	0xbdf41603	-0.11918261
141	0x3f8434a8	1.032857
142	0x3d014c47	0.031566884
143	0xbd0f22c6	-0.034945272
144	0x3e693525	0.2277418
145	0x3eed06f3	0.46294364
146	0x3c36adce	0.011149837
147	0x3e9ff1ab	0.31239066
148	0xbdb147d9	-0.08656282
149	0x3ed5d3f0	0.41763258
150	0xbc8c84cb	-0.017153164
151	0x3f2065b9	0.62655216
152	0x3ec29e2c	0.380113
153	0xbdc6d571	-0.097086795
154	0x3f02f601	0.5115662
155	0xbeb87f82	-0.3603478
156	0x3ec7409a	0.38916475
157	0xbe72fd9c	-0.23729557
158	0xbf0aeb6d	-0.5426548
159	0xbeb4b3b1	-0.35293344
160	0xbcdc8417	-0.026918454
161	0xbe25c097	-0.16186748
162	0x3d7204a2	0.05908645
163	0x3de87eac	0.11352286
164	0x3e8e5044	0.27795613
165	0xbe8c7f4e	-0.27440876
166	0x3cad9d2c	0.02119311
167	0xbec49973	-0.38398322
168	0xbd456590	-0.04819256
169	0xbdb8d013	-0.09024062
170	0x3e9aeb47	0.30257627
171	0x3d4e2dbc	0.050336584
172	0xbec9e00c	-0.39428747
173	0x3f06fba1	0.52727705
174	0xbec021f5	-0.37525907
175	0x3e604ff9	0.21905507
176	0x3e8f9a70	0.28047514
177	0x3e869f7c	0.26293552
178	0xbd13b0da	-0.03605733
179	0x3efe02ba	0.49611455
180	0xbebd09d3	-0.36921558
181	0x3bf7f31c	0.0075668227
182	0xbebc4828	-0.367738
183	0x3e3f4e71	0.18682267
184	0x3e13c9e3	0.14432482
185	0x3e97258d	0.29520836
186	0x3ec60f2c	0.3868345
187	0xbe291464	-0.16511685
188	0x3eada0b0	0.33911657
189	0xbf91df38	-1.1396246
190	0xbf0b14a5	-0.54328376
191	0xbe42fc10	-0.19041467
192	0x3e5e8626	0.21730861
193	0x3df01907	0.117235236
194	0x3de4b630	0.11167562
195	0xbdcc539a	-0.09976883
196	0xbe97f82f	-0.29681537
197	0x3eba2287	0.36354467
198	0x3d865558	0.06559247
199	0x3de73845	0.112900294
200	0x3d29e4e8	0.041478068
201	0xbeda288b	-0.42609057
202	0x3e561938	0.20908058
203	0x3dc8718c	0.09787282
204	0x3e49d058	0.19708383
205	0x3df4aac8	0.119466364
206	0xbe671f8e	-0.22570631
207	0x3ed1bd72	0.40964848
208	0x3e4cfea9	0.2001902
209	0xbecaa2b0	-0.39577246
210	0x3f362894	0.7115567
211	0xbefe4130	-0.4965911
212	0x3f11f3ea	0.5701281
213	0xbd98e92b	-0.07466348
214	0xbdf23577	-0.11826604
215	0xba15c295	-0.0005712894
216	0x3ec4ffb3	0.38476333
217	0x3e9957af	0.2994971
218	0x3ee08c6b	0.4385713
219	0xbe5cbb0d	-0.21555729
220	0x3efb5ea2	0.49095637
221	0xbee25ba8	-0.44210553
222	0xbedec1a7	-0.4350712
223	0xbf7699a6	-0.963282
224	0x3dc0d7e7	0.0941618
225	0x3e0d7091	0.13812472
226	0xbf07c17e	-0.5302962
227	0x3f2177c9	0.630734
228	0xbed69dda	-0.41917306
229	0x3f896eec	1.0736976
230	0xbe73c268	-0.23804629
231	0x3f407e9d	0.75193197
232	0x3e3e3b7f	0.18577383
233	0xbf667d65	-0.90035087
234	0x3de741bc	0.11291835
235	0xbee94a38	-0.45564437
236	0x3ec3a169	0.38209084
237	0xbcbadf57	-0.022811575
238	0xbec7a408	-0.38992333
239	0xbd68b9d2	-0.056817837
240	0x3ea5749f	0.32315537
241	0xbe0705e5	-0.13185842
242	0xbc17bef4	-0.009261835
243	0x3dbae41e	0.09125541
244	0xbe2f0dd2	-0.17095116
245	0xbeeeabfa	-0.46615583
246	0xbbef40a3	-0.0073014065
247	0xbee1334e	-0.43984455
248	0x3e541b9e	0.2071366
249	0xbe4cec53	-0.20012026
250	0x3f89324f	1.0718478
251	0xbe864e7b	-0.2623175
252	0x3e4af45f	0.19819783
253	0xbec36484	-0.38162625
254	0xbe6bfbc0	-0.23045254
255	0xbf355621	-0.7083455

encoder_variable_selection.single_variable_grns.VaccinationFull.gate_norm.glu.fc.bias f4 [32]
0	0x3e840fd5	0.2579333
1	0x3e2f14d4	0.17097789
2	0xbe3bd45d	-0.18342729
3	0xbe53d593	-0.20686941
4	0xbded5cdc	-0.11589977
5	0x3d0a1055	0.03370698
6	0xbe996341	-0.29958537
7	0x3d54a4aa	0.05191485
8	0xbdc1025a	-0.09424277
9	0xbe026f3d	-0.12737747
10	0x3e865c53	0.26242313
11	0xbe947e62	-0.29002672
12	0x3db81084	0.08987525
13	0xbe97db45	-0.29659477
14	0x3e8cdbc9	0.27511433
15	0x3e6bc726	0.23025188
16	0xbed086a7	-0.40727732
17	0x3d3d7477	0.046253648
18	0xbe2ce068	-0.16882479
19	0x3e873e02	0.26414496
20	0x3f4f33ee	0.80938613
21	0xbe8ad19a	-0.27113038
22	0x3cdff788	0.027339712
23	0xbda1a167	-0.07892113
24	0xbebe959a	-0.37223512
25	0xbeb8b16f	-0.3607287
26	0x3b069999	0.0020538329
27	0x3e82472e	0.2544493
28	0xbe831be4	-0.25607216
29	0xbeea5774	-0.45769846
30	0xbc061c5d	-0.008185473
31	0x3ceaf219	0.028679894

encoder_variable_selection.single_variable_grns.VaccinationFull.gate_norm.add_norm.norm.weight f4 [16]
0	0x3f0c1179	0.5471416
1	0x3f376471	0.71637636
2	0x3f96fb3a	1.1795418
3	0x3f877522	1.0582621
4	0x3f8d678a	1.1047223
5	0x3f6c5b36	0.92326677
6	0x3eb9e96e	0.36310905
7	0x3fa09ec0	1.2548447
8	0x3f015291	0.5051661
9	0x3eccabb0	0.39974737
10	0x3efb753b	0.49112877
11	0x3f8a1eb2	1.0790617
12	0x3f8a23df	1.0792197
13	0x3f6394a5	0.8889869
14	0x3f811e2e	1.0087335
15	0x3f051988	0.5199208

encoder_variable_selection.single_variable_grns.VaccinationFull.gate_norm.add_norm.norm.bias f4 [16]
0	0x3d5f976e	0.054587774
1	0x3e825a37	0.25459453
2	0xbc096711	-0.008386389
3	0x3e307f99	0.17236175
4	0x3e494512	0.19655254
5	0xbc6adc20	-0.014334708
6	0xbd488d69	-0.048962984
7	0xbe351958	-0.17685449
8	0xbe19cf8a	-0.15020576
9	0xbe2857b9	-0.16439714
10	0xbcf4a4c9	-0.029863732
11	0x3c82c316	0.015962165
12	0x3dc5c265	0.096562184
13	0xbe55b6f1	-0.20870568
14	0x3e79ccc1	0.24394514
15	0x3e75c8e3	0.24002413

encoder_variable_selection.single_variable_grns.Cases.resample_norm.mask f4 [16]
0	0x3e7f78b2	0.24948385
1	0x3eb0d749	0.3453925
2	0xbfa965b8	-1.3234167
3	0xbde7bb3e	-0.113150105
4	0xbe83c673	-0.25737342
5	0x3ed23874	0.41058695
6	0x3d40aefc	0.047041878
7	0xbf435991	-0.7630854
8	0xbf7a8efb	-0.9787442
9	0x3ec4565f	0.38347146
10	0x3ea961fd	0.33082572
11	0xbeaa91dd	-0.3331441
12	0xbf72721b	-0.9470536
13	0xbe5239ae	-0.20529816
14	0x3ef03ea0	0.4692278
15	0x3d512c8b	0.05106787

encoder_variable_selection.single_variable_grns.Cases.resample_norm.norm.weight f4 [16]
0	0x3f986325	1.1905257
1	0x3fbafc07	1.4608163
2	0x3eccfe92	0.40037972
3	0x3f8e34c3	1.1109852
4	0x3f5db2cf	0.86600965
5	0x3fb54b3c	1.4163585
6	0x3faa4533	1.3302368
7	0x3f35a05f	0.7094783
8	0x3f1dfae2	0.6171094
9	0x3fc842ea	1.564542
10	0x3fac8082	1.3476717
11	0x3f5a321a	0.852327
12	0x3e2c6f70	0.16839385
13	0x3f66542c	0.89972186
14	0x3fc8e920	1.5696144
15	0x3f93810b	1.1523756

encoder_variable_selection.single_variable_grns.Cases.resample_norm.norm.bias f4 [16]
0	0x3e3670d5	0.1781648
1	0x3d8225bf	0.06354856
2	0xbd482678	-0.04886481
3	0xbc68e5c6	-0.0142149385
4	0xbd660290	-0.056154788
5	0xbe100400	-0.14064026
6	0xbe404096	-0.18774638
7	0xbdcc7e69	-0.09985048
8	0xbd67a167	-0.05655041
9	0x3d8fb539	0.07016987
10	0xbde28635	-0.11060754
11	0x3de2ee74	0.110806376
12	0xbe0dc545	-0.13844784
13	0x3b4376f8	0.002982555
14	0x3e128ed7	0.14312302
15	0x3eba5197	0.36390373

encoder_variable_selection.single_variable_grns.Cases.fc1.weight f4 [8, 8]
0	0x3d0079b8	0.03136608
1	0x3fc16209	1.5108043
2	0x3e10636c	0.14100426
3	0xbed7bc5a	-0.42135888
4	0xbf08dc7c	-0.5346143
5	0x3eea8f81	0.4581261
6	0xbe979bc6	-0.29611033
7	0xbeebd0d6	-0.46057767
8	0x3f082900	0.5318756
9	0x3f125930	0.5716734
10	0xbe79d6eb	-0.24398391
11	0xc001eeb1	-2.0301936
12	0xbf937c13	-1.152224
13	0x3eaa179d	0.3322114
14	0x3e09cfdd	0.134582
15	0xbd9a713b	-0.07541128
16	0x3fa36dd0	1.2767887
17	0x3d08e6a9	0.0334231
18	0xbdf8e97c	-0.121539086
19	0x3cb9f41c	0.022699408
20	0xbbdaa106	-0.0066720275
21	0x3c89770e	0.016780403
22	0xbf70a566	-0.9400238
23	0x3f36e5e8	0.7144456
24	0xbf24cbe2	-0.643736
25	0x3cbe87cd	0.023258114
26	0x3f5ef7b8	0.8709674
27	0x3e8e30af	0.27771518
28	0x3f284e47	0.6574444
29	0x3df5dcee	0.120050296
30	0x3e852b3c	0.26009548
31	0x3f17790b	0.5916907
32	0xbe5803dd	-0.21095224
33	0xbea913c3	-0.3302289
34	0x3dcf4438	0.101204336
35	0x3e8dea5b	0.27717862
36	0x3e9860ea	0.2976144
37	0x3ea37b0b	0.31929812
38	0x3d9cc8e5	0.07655505
39	0x3ea80c5a	0.32821923
40	0xbe2703b3	-0.16310005
41	0x3e62c881	0.22146799
42	0x3e560384	0.20899779
43	0xbfb49f58	-1.4111128
44	0xbf42f308	-0.76152086
45	0x3f0feb0b	0.5621802
46	0x3db9920f	0.090610616
47	0x3f361d32	0.711383
48	0x3e226cd0	0.15861821
49	0x3ee39a38	0.44453597
50	0x3e48509d	0.19562002
51	0x3eb7a45b	0.3586758
52	0xbfb977a0	-1.4489632
53	0x3e978dee	0.2960047
54	0x3f05c73c	0.5225713
55	0xbea63889	-0.32465008
56	0xbea2220f	-0.3166661
57	0xbed99478	-0.42496085
58	0xbec7759b	-0.38956913
59	0xbf332916	-0.6998457
60	0xbe072009	-0.13195814
61	0xbec41e2d	-0.38304272
62	0xbf284636	-0.65732133
63	0x3f9bbd9c	1.2167239

encoder_variable_selection.single_variable_grns.Cases.fc1.bias f4 [8]
0	0xbea87ff5	-0.32910123
1	0xbe846447	-0.25857756
2	0x3cf48ddd	0.029852802
3	0xbe2d5669	-0.16927494
4	0xbc87f773	-0.016597485
5	0xbe2b8ded	-0.16753359
6	0xbec9e926	-0.3943569
7	0x3d91bf62	0.071165815

encoder_variable_selection.single_variable_grns.Cases.fc2.weight f4 [8, 8]
0	0xbde2bca6	-0.11071138
1	0x3f5bfc7d	0.8593214
2	0x3dfc5964	0.123217374
3	0xbf059f31	-0.5219603
4	0x3f05ed00	0.5231476
5	0xbda6429a	-0.08118172
6	0x3f6bdcac	0.92133594
7	0x3db5c0bd	0.088746525
8	0xbe1175df	-0.1420512
9	0x3dbea78d	0.093093015
10	0xbe4402f8	-0.19141757
11	0xbeddf646	-0.43351954
12	0x3e3d4399	0.18482818
13	0x3e69ed5e	0.22844455
14	0x3e4ee92b	0.20206134
15	0xbf957b19	-1.1678191
16	0xbe33ff1b	-0.17577784
17	0xbf1aad5d	-0.6042078
18	0xbf89e2a7	-1.0772294
19	0x3ecd46de	0.4009313
20	0x3ee7bff7	0.45263645
21	0xbed8de44	-0.42357075
22	0xbf2b43fd	-0.66900617
23	0x3f38812f	0.7207212
24	0xbe765c08	-0.24058545
25	0xbef87ee2	-0.48534304
26	0xbef4d5f5	-0.47819486
27	0xbf60862b	-0.87704724
28	0x3ef02557	0.46903488
29	0xbf33bd09	-0.7021032
30	0xbeef07ce	-0.46685642
31	0xbe95c14a	-0.2924903
32	0x3ed04a23	0.40681562
33	0x3f4740e3	0.77833384
34	0x3ddf546d	0.10904775
35	0x3ea21adb	0.31661114
36	0x3e902d6a	0.28159648
37	0xbd16827c	-0.036745533
38	0x3e5b0708	0.21389401
39	0x3f11919b	0.568628
40	0x3ecacf8f	0.3961148
41	0x3dfcb9e1	0.12340141
42	0x3f80116a	1.0005314
43	0x3f1b0c07	0.6056523
44	0xbea45754	-0.32097876
45	0x3de440df	0.11145186
46	0x3e308544	0.17238337
47	0x3dd901d5	0.105960526
48	0xbf0a93a9	-0.5413156
49	0xbe90cd0d	-0.2828144
50	0xbf1261f6	-0.57180727
51	0x3ea77212	0.32704216
52	0xbe319450	-0.17341733
53	0xbe94fcb9	-0.29099062
54	0x3f0baeff	0.545639
55	0x3d32fe45	0.04369952
56	0x3f176267	0.59134525
57	0x3f3fca55	0.7491811
58	0x3dd8f128	0.10592872
59	0xbe889a25	-0.26680103
60	0x3e4589fb	0.19290917
61	0x3d82af26	0.06381063
62	0x3dfd5323	0.12369373
63	0x3da5da87	0.080983214
