TFT-pytorch/results/TFT_split_3/checkpoints/latest-epoch=4.ckpt (torch, 911843 bytes, 815 tensors)

prescalers.AgeDist.weight f4 [8, 1]
0.16108836 -0.5886353 0.7842553 0.14526023 -0.79566276 -0.37467486 -0.67598855 -0.19600101
00000000: 59f4 243e ceb0 16bf f5c4 483f 19bf 143e
00000010: 8eb0 4bbf 62d5 bfbe 960d 2dbf 7db4 48be

prescalers.AgeDist.bias f4 [8]
0.2186573 0.04647906 0.723792 0.44475502 -0.7778378 -0.2998177 -0.38029754 -0.18173169
00000000: b3e7 5f3e d460 3e3d 6f4a 393f eeb6 e33e
00000010: 6120 47bf b581 99be 5cb6 c2be df17 3abe

prescalers.HealthDisp.weight f4 [8, 1]
0.6344831 -0.6939251 1.450592 -0.6773362 0.72289073 -0.010456521 0.42649907 0.77670145
00000000: 7c6d 223f 13a5 31bf 00ad b93f e865 2dbf
00000010: 5e0f 393f d451 2bbc 165e da3e e8d5 463f

prescalers.HealthDisp.bias f4 [8]
-0.4311091 0.46141875 0.38372874 0.7215956 0.38450715 0.027737938 0.531514 -0.18314195
00000000: 55ba dcbe 143f ec3e 1878 c43e 7dba 383f
00000010: 1fde c43e ac3a e33c 4d11 083f 9089 3bbe

prescalers.SinWeekly.weight f4 [8, 1]
0.65421236 0.77500457 0.20086683 1.2156705 -0.30404535 -0.90158373 -0.29285344 -1.0362825
00000000: 767a 273f b366 463f 09b0 4d3e 179b 9b3f
00000010: d5ab 9bbe 31ce 66bf e3f0 95be e8a4 84bf

prescalers.SinWeekly.bias f4 [8]
0.23738444 -0.36287314 -0.16881861 0.96604884 0.6171027 0.10215283 -0.43411335 0.097829305
00000000: e814 733e 82ca b9be c9de 2cbe fa4e 773f
00000010: 71fa 1d3f 8135 d13d 1b44 debe bb5a c83d

prescalers.CosWeekly.weight f4 [8, 1]
0.83341277 -0.477616 -0.66302854 1.296028 0.8154206 -0.03480913 -0.7334277 -0.60976887
00000000: 8a5a 553f 168a f4be 3dbc 29bf 3fe4 a53f
00000010: 68bf 503f 0594 0ebd ebc1 3bbf d019 1cbf

prescalers.CosWeekly.bias f4 [8]
-0.29546788 -0.31388038 0.16025828 0.444378 0.32897615 0.016228328 0.27658066 -0.72297263
00000000: 9147 97be eeb4 a0be bf1a 243e 8385 e33e
00000010: 906f a83e 45f1 843c fb9b 8d3e bc14 39bf

prescalers.DiseaseSpread.weight f4 [8, 1]
-0.3011898 0.07000272 -1.0668175 -0.49997374 0.70198864 1.1367195 -0.089344844 -0.38799122
00000000: 8d35 9abe 965d 8f3d 7a8d 88bf 8ffc ffbe
00000010: 87b5 333f 0680 913f 6efa b6bd c9a6 c6be

prescalers.DiseaseSpread.bias f4 [8]
0.42572972 -0.62280804 0.04100353 1.0008096 -0.33580574 -0.11174788 0.06791564 0.10712867
00000000: 3ff9 d93e 5970 1fbf 51f3 273d 871a 803f
00000010: bbee abbe 13dc e4bd 5b17 8b3d 4766 db3d

prescalers.Transmission.weight f4 [8, 1]
0.7234739 -1.0347927 -0.71898586 -0.71256423 -0.90341806 -0.56984246 0.962688 0.6366782
00000000: 9635 393f 1674 84bf 750f 38bf 9c6a 36bf
00000010: 6846 67bf 32e1 11bf b972 763f 58fd 223f

prescalers.Transmission.bias f4 [8]
-0.30174217 0.6354566 -0.6776655 -1.0359724 0.19597687 0.23715283 -0.88277555 -0.75556433
00000000: f37d 9abe 49ad 223f 7c7b 2dbf be9a 84bf
00000010: 29ae 483e 31d8 723e 94fd 61bf aa6c 41bf

prescalers.VaccinationFull.weight f4 [8, 1]
-0.521206 0.7135289 -0.1881104 1.1231505 -0.10925363 -0.49837062 -0.30240363 -0.286449
00000000: c26d 05bf d4a9 363f 03a0 40be 65c3 8f3f
00000010: 5ec0 dfbd 6f2a ffbe a6d4 9abe 71a9 92be

prescalers.VaccinationFull.bias f4 [8]
0.045647997 -1.1163445 0.6177249 -0.6022914 -0.14817485 0.63900757 -0.01835469 0.4152861
00000000: 65f9 3a3d 60e4 8ebf 3823 1e3f c52f 1abf
00000010: 26bb 17be 0096 233f 935c 96bc 61a0 d43e

prescalers.SocialDist.weight f4 [8, 1]
0.3676326 0.6257109 -0.49069226 -0.10814996 -0.5012178 -0.14045796 -0.64075816 0.61203295
00000000: 573a bc3e 972e 203f 043c fbbe ba7d ddbd
00000010: cf4f 00bf 36d4 0fbe ba08 24bf 31ae 1c3f

prescalers.SocialDist.bias f4 [8]
-0.2864648 -0.34101218 0.4032984 0.07232666 0.43979836 0.06669843 -0.8158499 -0.4795116
00000000: 84ab 92be 2699 aebe 217d ce3e 0020 943d
00000010: 402d e13e 3099 883d 8adb 50bf 8b82 f5be

prescalers.Cases.weight f4 [8, 1]
0.4883232 0.82942826 -0.86845106 -0.47771493 -1.1780521 0.7770407 0.91638577 0.2855906
00000000: 8005 fa3e 6955 543f cf52 5ebf 0d97 f4be
00000010: 69ca 96bf 24ec 463f 4298 6a3f ee38 923e

prescalers.Cases.bias f4 [8]
-0.32229233 0.47401914 0.8511193 -0.21147187 -0.6085947 0.44179597 0.13529849 0.21931015
00000000: 8003 a5be a3b2 f23e f4e2 593f 158c 58be
00000010: ddcc 1bbf 1533 e23e b08b 0a3e d792 603e

static_variable_selection.flattened_grn.resample_norm.mask f4 [2]
-0.12845558 0.13659409
00000000: dc89 03be 52df 0b3e

static_variable_selection.flattened_grn.resample_norm.norm.weight f4 [2]
0.70522606 0.7052045
00000000: b289 343f 4888 343f

static_variable_selection.flattened_grn.resample_norm.norm.bias f4 [2]
0.424178 -0.42417464
00000000: dc2d d93e 6b2d d9be

static_variable_selection.flattened_grn.fc1.weight f4 [2, 16]
0.5365558 0.11438001 -0.4160102 -1.1526293 -0.08221214 -0.21387447 -0.25612798 1.610115
0.1254108 -0.07300245 -0.39186934 -0.03107947 -0.8081245 0.584514 -0.7912298 0.28113407
-0.39310297 0.4635132 -0.3678575 -0.5846033 0.10148038 0.61761767 -0.15947174 -0.16449985
-0.20964195 -0.6022441 -0.16554268 -0.11992168 -0.23301007 0.26388258 -0.74126035 -0.07658623
00000000: b95b 093f 1140 ea3d 4aff d4be 5b89 93bf
00000010: d75e a8bd e901 5bbe 3523 83be 4018 ce3f
00000020: b06b 003e 4f82 95bd 19a3 c8be 5f9a febc
00000030: 3fe1 4ebf b6a2 153f 098e 4abf cef0 8f3e
00000040: cb44 c9be 9a51 ed3e d157 bcbe 90a8 15bf
00000050: f2d4 cf3d 311c 1e3f 8f4c 23be a672 28be
00000060: 61ac 56be ab2c 1abf 0584 29be 7f99 f5bd
00000070: 319a 6ebe 9e1b 873e 3dc3 3dbf 3ed9 9cbd

static_variable_selection.flattened_grn.fc1.bias f4 [2]
-0.29006746 -0.32973555
00000000: b983 94be 19d3 a8be

static_variable_selection.flattened_grn.fc2.weight f4 [2, 2]
-1.5373032 -1.0701393 -1.229465 -0.5023519
00000000: 5ac6 c4bf 53fa 88bf 1c5f 9dbf 229a 00bf

static_variable_selection.flattened_grn.fc2.bias f4 [2]
0.44999358 -0.050127946
00000000: 8f65 e63e f652 4dbd

static_variable_selection.flattened_grn.gate_norm.glu.fc.weight f4 [4, 2]
1.018625 -0.122953765 0.26678845 -0.4175525 0.006511479 -0.26707244 -0.8327674 -0.9148442
00000000: 4e62 823f 2fcf fbbd 7f98 883e 71c9 d5be
00000010: 3f5e d53b b8bd 88be 3f30 55bf 3b33 6abf

static_variable_selection.flattened_grn.gate_norm.glu.fc.bias f4 [4]
0.41986424 -0.4320576 0.38371062 -0.30573133
00000000: 72f8 d63e a736 ddbe b875 c43e d188 9cbe

static_variable_selection.flattened_grn.gate_norm.add_norm.norm.weight f4 [2]
0.05851446 0.058514774
00000000: dcac 6f3d 30ad 6f3d

static_variable_selection.flattened_grn.gate_norm.add_norm.norm.bias f4 [2]
-0.020703051 0.02070296
00000000: 7299 a9bc 4199 a93c

static_variable_selection.single_variable_grns.AgeDist.resample_norm.mask f4 [16]
-0.7107547 -0.41515929 0.51839834 -0.69384503 0.08917774 -0.4269278 0.9324469 -0.21491314
0.8532873 0.1140389 -0.75728184 -0.979642 0.0074952906 -1.135646 0.62042534 -0.48189205
00000000: 05f4 35bf c28f d4be c1b5 043f d49f 31bf
00000010: d2a2 b63d 4896 dabe d7b4 6e3f 3112 5cbe
00000020: 0971 5a3f 3a8d e93d 39dd 41bf d1c9 7abf
00000030: 0e9b f53b d95c 91bf 32d4 1e3f 8eba f6be

static_variable_selection.single_variable_grns.AgeDist.resample_norm.norm.weight f4 [16]
0.7711185 0.9331023 1.857494 0.62688637 1.4439185 0.72011334 1.589502 0.53353983
2.121237 0.87086314 0.761265 0.64962655 0.71196455 0.32109144 1.0398 1.24377
00000000: 0668 453f cbdf 6e3f 5dc2 ed3f a07b 203f
00000010: 52d2 b83f 5959 383f cd74 cb3f 1196 083f
00000020: 59c2 0740 e3f0 5e3f 43e2 423f ed4d 263f
00000030: 4f43 363f 1966 a43e 2b18 853f db33 9f3f

static_variable_selection.single_variable_grns.AgeDist.resample_norm.norm.bias f4 [16]
0.0046538603 -0.0063090413 0.28704843 -0.31588557 -0.3053772 -0.28505188 0.63437265 -0.11745956
-0.1126656 0.02778987 -0.015234073 0.2978361 0.50091296 -0.4142671 -0.11641304 -0.4472713
00000000: 697f 983b 13bc cebb 03f8 923e c1bb a1be
00000010: 665a 9cbe 52f2 91be 3f66 223f a38e f0bd
00000020: 39bd e6bd 95a7 e33c 5598 79bc f97d 983e
00000030: d53b 003f d11a d4be f669 eebd be00 e5be

static_variable_selection.single_variable_grns.AgeDist.fc1.weight f4 [8, 8]
-0.8245623 -0.12132077 -0.25724605 -0.012680197 -0.43446308 -0.42126578 0.35513732 0.50777256
-0.0045783087 0.6807846 0.5849913 -0.06662009 -0.67498744 -0.29067853 -1.3679256 0.38074413
0.6068045 1.7064884 -0.8634616 0.1294986 1.5998417 0.96844333 -0.30769503 -0.16185455
1.3241255 -1.4181905 1.0103526 0.80226636 -0.6637811 0.028604938 -1.4493089 -0.19404341
0.038829576 0.053771462 0.46329606 0.0025882788 -0.7345939 -0.0042669275 0.8406173 -0.75788283
0.33295214 -0.22052847 0.9344815 0.8066305 -1.271272 -0.26096603 -0.7478576 -0.040266164
-0.55405724 0.38606024 -0.85637105 0.18044785 0.48055926 0.19134781 -0.016240919 -0.20529346
-0.27613097 -0.09655495 -0.8183166 -0.07166019 1.5741651 -0.10079501 0.27862006 -0.054366697
00000000: 8416 53bf 0677 f8bd c1b5 83be 9ac0 4fbc
00000010: f271 debe 26b0 d7be 8fd4 b53e 62fd 013f
00000020: a305 96bb e647 2e3f fdc1 153f 1d70 88bd
00000030: facb 2cbf d1d3 94be 3018 afbf e5f0 c23e
00000040: 8a57 1b3f 366e da3f d20b 5dbf 489b 043e
00000050: 9dc7 cc3f e7eb 773f 348a 9dbe 33bd 25be
00000060: f27c a93f 4487 b5bf 3c53 813f 5461 4d3f
00000070: 8fed 29bf e754 ea3c f482 b9bf 51b3 46be
00000080: c30b 1f3d 773f 5c3d 2435 ed3e 1da0 293b
00000090: 590e 3cbf 95d1 8bbb b232 573f 9c04 42bf
000000a0: b478 aa3e 37d2 61be 2e3a 6f3f 567f 4e3f
000000b0: 0ab9 a2bf 579d 85be 9873 3fbf 22ee 24bd
000000c0: b2d6 0dbf b0a9 c53e 223b 5bbf 52c7 383e
000000d0: dd0b f63e aef0 433e ad0b 85bc 7338 52be
000000e0: 0a61 8dbe 9abe c5bd 327d 51bf 94c2 92bd
000000f0: 3e7e c93f 9d6d cebd 4aa7 8e3e 9daf 5ebd

static_variable_selection.single_variable_grns.AgeDist.fc1.bias f4 [8]
0.28878337 0.07303705 -0.31348342 -0.10903193 -0.2760664 0.012057107 -0.19352564 -0.27407554
00000000: 6adb 933e 7394 953d e680 a0be 224c dfbd
00000010: 9358 8dbe 2c8b 453c 962b 46be a153 8cbe

static_variable_selection.single_variable_grns.AgeDist.fc2.weight f4 [8, 8]
0.3685099 0.5247189 0.5160421 -1.0377036 0.012118755 -0.7275382 -0.405164 -1.3590181
0.22947015 0.052914716 -0.17786467 -1.1671753 0.059594944 0.1427445 0.28139603 -1.5616634
0.5304683 -0.68507475 0.81247276 -0.261281 -0.26066458 -0.97335845 0.39510113 1.1287687
-0.14673077 -0.7507929 1.0746742 0.057106175 -0.03697399 -0.38384795 -0.28203848 0.46450308
-0.24692054 -0.6289912 1.2272979 0.8226001 0.09035265 0.10225403 0.22503886 -0.7548449
-0.1459996 -0.28110814 0.4200338 -0.8085709 -0.47604215 -0.4239045 0.22267382 -0.081271894
0.46531865 -0.07749751 0.880958 0.5144546 0.022988027 -0.07454141 0.89485925 0.49780247
0.4044138 -0.24671362 -0.31909716 0.41512722 -0.60002077 0.44238228 -0.021879267 -0.3012368
00000000: 54ad bc3e fa53 063f 561b 043f 79d3 84bf
00000010: be8d 463c f23f 3abf a871 cfbe 4ef4 adbf
00000020: 39fa 6a3e 1abd 583d 2822 36be 0066 95bf
00000030: d419 743d 9d2b 123e 2413 903e 96e4 c7bf
00000040: c5cc 073f 0f61 2fbf 37fe 4f3f a0c6 85be
00000050: d475 85be 052e 79bf b24a ca3e 7e7b 903f
00000060: 9740 16be f733 40bf ed8e 893f 2ae8 693d
00000070: 0a72 17bd b887 c4be 5967 90be 59d3 ed3e
00000080: bdd8 7cbe 9105 21bf 1918 9d3f ec95 523f
00000090: cf0a b93d 906a d13d 9670 663e 843d 41bf
000000a0: eb80 15be 68ed 8fbe ac0e d73e 81fe 4ebf
000000b0: ccbb f3be 030a d9be 9b04 643e e171 a6bd
000000c0: 3f3e ee3e 04b7 9ebd 7786 613f 4cb3 033f
000000d0: 6351 bc3c 2ba9 98bd 7f15 653f f7df fe3e
000000e0: 530f cf3e 7fa2 7cbe b460 a3be 8e8b d43e
000000f0: f69a 19bf ee7f e23e 263c b3bc b63b 9abe

static_variable_selection.single_variable_grns.AgeDist.fc2.bias f4 [8]
0.008836901 0.5334677 -0.013693043 -0.031739596 -0.21636602 -0.071915716 -0.19547388 -0.19070892
00000000: a6c8 103c 5791 083f c958 60bc 6101 02bd
00000010: 0e8f 5dbe 8c48 93bd 4e2a 48be 3349 43be

static_variable_selection.single_variable_grns.AgeDist.gate_norm.glu.fc.weight f4 [32, 8]
0.12268253 0.1000698 -0.41964847 -0.2303146 -0.72161347 0.5248418 -0.2072653 0.3100754
-0.16212736 0.045410864 -0.05721832 -0.43311173 -0.29421884 -0.10426873 -0.058291987 0.3170384
1.0240444 0.33568665 0.5285517 0.38941276 -0.3238252 0.70668125 0.56871873 -1.0280815
0.14089233 -0.49177098 -0.15919231 0.19190826 0.2218276 -0.5233309 0.10599302 0.09499435
-0.74416727 -0.44721115 0.053251825 -0.054694608 0.1856599 0.22983725 0.35556695 0.14384362
-0.32538685 -0.010385018 -0.06399603 -0.08518991 -0.16906938 -0.12904473 0.21987793 0.05759329
0.41033998 0.8284447 -0.40757602 -0.25202873 -0.24387461 -0.38416916 -0.17339927 -0.40289885
-0.017796962 0.049972635 0.21178493 0.15301152 0.16454959 0.10579261 -0.086822145 -0.31559435
-0.31586885 -0.47867155 0.5181226 0.44105786 0.21633096 0.2840945 0.01026478 -0.32504925
0.12015291 -0.17779893 0.18677735 0.62021136 0.104034714 0.3449827 -0.82962406 -0.18820955
-0.2847439 0.9447008 -0.76533073 -0.9710983 -0.30758533 -0.38707706 -0.7102589 0.5083038
0.13235329 0.04144725 -0.15682916 -0.7340435 -0.4743351 -0.2598149 -0.54508525 0.14252745
0.53030753 0.58417034 -0.13526256 -0.37664685 -0.45386562 0.046924114 -0.17152305 0.07760755
-0.020479672 0.16788703 -0.6207182 -0.551771 -0.4124471 -0.65811104 -0.47232404 0.5104956
-0.40397143 -0.16264947 1.0759677 0.71341723 0.017497024 0.8754986 0.8787894 -0.5321381
-0.39646655 -0.17593537 -0.10966548 -0.07440487 0.067094244 -0.23028708 -0.113000795 0.11052866
-0.034791894 0.029704424 0.27713755 -0.67092425 -0.07066317 -1.1177608 -0.68444103 0.2088049
0.08991178 -0.4593385 0.4139621 0.5960545 0.60371065 -0.06412056 0.019016586 0.1279795
0.29406375 -0.41221207 0.4939465 0.85191995 0.22195014 1.4003413 0.42668167 -1.1047764
-0.09720992 -0.10540855 -0.04363604 -0.54224056 0.0841302 -0.6047325 -0.21313931 0.66407865
-0.034283053 -0.19595018 0.84301156 0.15908217 0.43364435 0.4568131 0.59530115 -0.2542012
-0.053969808 0.031056266 -0.36153463 -0.19197504 -0.3113335 0.12915641 -0.07736992 0.49370444
0.06784558 0.55660284 -0.78301406 -0.69653714 -0.7143649 -0.42583933 -0.103491634 -0.07853617
-0.044225078 0.4122807 -0.46197203 -0.44155687 -0.2795274 -0.1719159 -0.09010989 -0.0620362
-0.21638073 -0.043635543 -0.87936324 -0.4397859 0.2956421 -0.964554 -0.47984096 0.71425927
-0.47699535 0.2074849 -0.49254757 -0.3784324 -0.17218554 -0.17638117 0.18152465 0.16310458
-0.6893058 -1.4104252 0.034547936 0.095118664 0.09079394 -0.25383726 0.55045897 -0.23433827
-0.7128661 -1.1799397 0.3090809 0.41492438 0.38548604 -0.4019072 0.45579013 0.34684053
0.33877182 0.015994309 0.1358131 0.42894742 0.56203294 0.641162 -0.049869478 -0.25527564
-0.7763226 0.26046506 -0.41412812 -0.6197496 -0.19991897 -0.3115713 -0.08834962 0.39212096
-0.30372638 -0.1210294 -0.9697792 -0.9630228 -0.4154122 -0.42526197 -0.7404075 0.8811184
0.020645356 0.062895894 -0.12039635 0.02758002 -0.38355425 0.44482487 -0.1492042 0.24885172
00000000: fa40 fb3d 65f1 cc3d 2adc d6be 97d7 6bbe
00000010: a9bb 38bf 085c 063f 5b3d 54be 34c2 9e3e
00000020: b704 26be be00 3a3d c25d 6abd d2c0 ddbe
00000030: daa3 96be d88a d5bd 94c3 6ebd db52 a23e
00000040: e313 833f 1fdf ab3e 2a4f 073f 1c61 c73e
00000050: 6bcc a5be 10e9 343f 8d97 113f 2d98 83bf
00000060: 1446 103e 68c9 fbbe 4f03 23be 9983 443e
00000070: c626 633e 04f9 05bf de12 d93d 668c c23d
00000080: bf81 3ebf dcf8 e4be 961e 5a3d 7407 60bd
00000090: a11d 3e3e 755a 6b3e df0c b63e be4b 133e
000000a0: 1b99 a6be ec25 2abc 5a10 83bd 0c78 aebd
000000b0: 8620 2dbe 4d24 04be ae27 613e f1e6 6b3d
000000c0: 1518 d23e f414 543f cead d0be e909 81be
000000d0: 44ba 79be d2b1 c4be 948f 31be c248 cebe
000000e0: efca 91bc 1bb0 4c3d 26de 583e 0daf 1c3e
000000f0: b07f 283e cca9 d83d cfcf b1bd 9595 a1be
00000100: 90b9 a1be 7014 f5be afa3 043f 56d2 e13e
00000110: dd85 5d3e d674 913e 9c2d 283c db6c a6be
00000120: bb12 f63d ec10 36be 9042 3f3e 2cc6 1e3f
00000130: 2710 d53d 93a1 b03e 3e62 54bf 01ba 40be
00000140: f4c9 91be e9d7 713f b7ec 43bf e699 78bf
00000150: d37b 9dbe f72e c6be 87d3 35bf 3320 023f
00000160: 9f87 073e 97c4 293d d397 20be 46ea 3bbf
00000170: 0ddc f2be 7506 85be b58a 0bbf b7f2 113e
00000180: 3cc2 073f 308c 153f 4582 0abe dbd7 c0be
00000190: 1361 e8be 8033 403d bda3 2fbe b5f0 9e3d
000001a0: fcc4 a7bc 94ea 2b3e 63e7 1ebf dd40 0dbf
000001b0: 442c d3be f779 28bf 75d4 f1be d7af 023f
000001c0: 58d5 cebe 958d 26be 4fb9 893f 83a2 363f
000001d0: eb55 8f3c ad20 603f 58f8 603f 343a 08bf
000001e0: aafd cabe 6728 34be 4c98 e0bd 9561 98bd
000001f0: b568 893d 60d0 6bbe f66c e7bd da5c e23d
00000200: f281 0ebd b156 f33c f9e4 8d3e b1c1 2bbf
00000210: dab7 90bd c912 8fbf 8737 2fbf f4d0 553e
00000220: ab23 b83d 6a2e ebbe d7f2 d33e 0797 183f
00000230: c88c 1a3f a451 83bd acc8 9b3c 0f0d 033e
00000240: 868f 963e 760d d3be 8ee6 fc3e 6d17 5a3f
00000250: e646 633e 623e b33f 0576 da3e 5069 8dbf
00000260: ff15 c7bd 70e0 d7bd b4bb 32bd 47d0 0abf
00000270: 744c ac3d c0cf 1abf 3141 5abe 0f01 2a3f
00000280: 636c 0cbd 2aa7 48be 9bcf 573f 70e6 223e
00000290: a206 de3e 68e3 e93e a865 183f a926 82be
000002a0: 720f 5dbd b669 fe3c 111b b9be 1b95 44be
000002b0: 1b67 9fbe 9441 043e 1f74 9ebd d4c6 fc3e
000002c0: a0f2 8a3d 867d 0e3f 9c73 48bf 4250 32bf
000002d0: 9ee0 36bf 9d07 dabe 6cf3 d3bd 92d7 a0bd
000002e0: 5b25 35bd 7516 d33e 9987 ecbe be13 e2be
000002f0: 371e 8fbe b90a 30be 898b b8bd ac19 7ebd
00000300: e992 5dbe 2fbb 32bd f31d 61bf 9e2b e1be
00000310: 675e 973e 03ed 76bf b7ad f5be b2d9 363f
00000320: bc38 f4be ec76 543e 322f fcbe e4c1 c1be
00000330: 6851 30be 449d 34be 99e1 393e e304 273e
00000340: 5876 30bf d088 b4bf 2382 0d3d 93cd c23d
00000350: 2cf2 b93d f5f6 81be e1ea 0c3f 5ff6 6fbe
00000360: 657e 36bf 4408 97bf da3f 9e3e f870 d43e
00000370: 6d5e c53e c8c6 cdbe 535d e93e 1595 b13e
00000380: 8073 ad3e 7f06 833c 9712 0b3e ff9e db3e
00000390: 64e1 0f3f 3123 243f f043 4cbd 7db3 82be
000003a0: 14bd 46bf ad5b 853e 9a08 d4be e9a7 1ebf
000003b0: 8fb7 4cbe 4686 9fbe a5f0 b4bd 14c4 c83e
000003c0: 0682 9bbe 43de f7bd 7343 78bf aa88 76bf
000003d0: e8b0 d4be f0bb d9be 598b 3dbf fa90 613f
000003e0: 7320 a93c 90cf 803d 5d92 f6bd 7eef e13c
000003f0: 3961 c4be 16c0 e33e fcc8 18be fcd2 7e3e

static_variable_selection.single_variable_grns.AgeDist.gate_norm.glu.fc.bias f4 [32]
-0.28555185 0.028790314 1.0371777 0.00023261062 -0.29345804 0.029067442 0.8078481 0.048460882
-0.45493764 0.06684511 0.030049428 0.24446687 0.43183362 -0.3595574 -0.21221353 -0.46983716
-0.23909147 -0.3871464 0.26501298 -0.56270176 -0.020816844 -0.50230414 -0.06226865 -0.09099107
-0.42471862 -0.5932563 0.033240296 -0.4915987 0.25584885 -0.11453342 -0.25277713 0.084550336
00000000: da33 92be aad9 eb3c 3dc2 843f f0e8 7339
00000010: 2240 96be d81e ee3c 22cf 4e3f eb7e 463d
00000020: 96ed e8be 17e6 883d 382a f63c 8655 7a3e
00000030: 4c19 dd3e e817 b8be 814e 59be 7f8e f0be
00000040: 65d4 74be 0e38 c6be c8af 873e 390d 10bf
00000050: 1688 aabc 0197 00bf 690d 7fbd 8759 babd
00000060: b874 d9be a5df 17bf fa26 083d d3b2 fbbe
00000070: 9ffe 823e 7f90 eabd 016c 81be ba28 ad3d

static_variable_selection.single_variable_grns.AgeDist.gate_norm.add_norm.norm.weight f4 [16]
1.0156566 0.5288672 1.6034479 0.72466624 1.3100129 0.5800092 1.7103063 0.0008195208
1.6514553 0.91744953 1.5317397 0.877585 0.8774459 1.4133657 1.5372579 0.99423313
00000000: 0901 823f d763 073f c83d cd3f ba83 393f
00000010: 81ae a73f 7c7b 143f 51eb da3f 1cd5 563a
00000020: e362 d33f f9dd 6a3f 0c10 c43f 69a9 603f
00000030: 4ba0 603f 2be9 b43f dec4 c43f 1086 7e3f

static_variable_selection.single_variable_grns.AgeDist.gate_norm.add_norm.norm.bias f4 [16]
0.16037038 0.04266152 0.22763824 -0.081754975 0.078924656 -0.025376298 0.43423754 -0.08393428
-0.014411868 -0.13110137 -0.36872792 0.08267036 0.1956252 -0.009212381 -0.14915101 -0.29977113
00000000: 2238 243e d9bd 2e3d 001a 693e 276f a7bd
00000010: 40a3 a13d f4e1 cfbc 6254 de3e bce5 abbd
00000020: c11f 6cbc 703f 06be e8c9 bcbe 144f a93d
00000030: f951 483e 87ef 16bc 0bbb 18be 9a7b 99be

static_variable_selection.single_variable_grns.HealthDisp.resample_norm.mask f4 [16]
0.41746473 -0.6015423 0.27036485 -0.16856192 0.19503188 -0.7075258 0.39541882 0.8425863
-0.3980679 -0.4406662 -0.16038701 -0.95032424 -0.095473096 -0.594496 -0.26497847 0.16799036
00000000: f0bd d53e adfe 19bf 436d 8a3e 7f9b 2cbe
00000010: 70b6 473e 6920 35bf 5674 ca3e bcb3 573f
00000020: 8ecf cbbe 009f e1be 7e3c 24be 7348 73bf
00000030: 6687 c3bd e430 18bf 42ab 87be aa05 2c3e

static_variable_selection.single_variable_grns.HealthDisp.resample_norm.norm.weight f4 [16]
1.830863 0.62300575 1.4586384 1.2860523 1.6767664 0.76631445 1.6399972 1.7452918
0.75840193 0.5398919 0.95002043 0.9292991 0.7532141 0.8312104 0.92499804 1.2478492
00000000: b859 ea3f 4e7d 1f3f aab4 ba3f 5d9d a43f
00000010: 48a0 d63f 2f2d 443f 6eeb d13f b965 df3f
00000020: a126 423f 5b36 0a3f 8a34 733f 8ce6 6d3f
00000030: a4d2 403f 34ca 543f accc 6c3f 86b9 9f3f

static_variable_selection.single_variable_grns.HealthDisp.resample_norm.norm.bias f4 [16]
-0.09779174 0.2751627 0.22260082 -0.05160182 0.30253175 -0.13401729 0.1318339 0.25275242
-0.1701984 -0.31214043 -0.15522401 0.117813215 -0.07468421 -0.12516242 -0.13892834 0.057398986
00000000: 0947 c8bd 20e2 8c3e 78f1 633e 6e5c 53bd
00000010: 71e5 9a3e d43b 09be 77ff 063e c468 813e
00000020: 7d48 2ebe dfd0 9fbe 0bf3 1ebe 0e48 f13d
00000030: 09f4 98bd 942a 00be 3b43 0ebe 331b 6b3d

static_variable_selection.single_variable_grns.HealthDisp.fc1.weight f4 [8, 8]
-0.39118233 0.45278755 -0.9751403 -1.0955377 -0.16936088 0.5688851 0.18183668 -0.93909425
-0.62816626 0.383136 -2.0848868 -0.073880605 -1.1484358 -0.1188781 -1.4158217 -0.826852
0.08265928 0.35233554 0.7835417 0.20378925 0.3729882 -0.34559646 -0.41759515 0.78610486
0.3683892 0.15207922 -1.6066809 0.89808714 -0.5514656 0.1465807 -0.44345385 -0.8827178
-0.21929926 -0.12633328 0.343817 -0.067864664 -0.40869728 -0.46284753 -0.34248534 -0.3938198
-0.32131916 -0.21751183 -0.5119328 -0.28253335 -0.2671061 0.5939863 0.7240234 -0.5837108
0.5744173 0.3763011 -0.36118737 -0.43835828 -1.4519962 0.39954 0.40390494 -0.53643864
-1.2514586 -0.6328304 0.008365522 -0.33365837 0.05381021 0.089492045 -0.30302766 0.14452377
00000000: 0d49 c8be c5d3 e73e cba2 79bf 943a 8cbf
00000010: f06c 2dbe 74a2 113f 6533 3a3e 7b68 70bf
00000020: 81cf 20bf 672a c43e c96e 05c0 b74e 97bd
00000030: f2ff 92bf 5c76 f3bd a539 b5bf 93ac 53bf
00000040: 4549 a93d 5365 b43e 3096 483f 21ae 503e
00000050: 4ff8 be3e 05f2 b0be 08cf d5be 2b3e 493f
00000060: 829d bc3e a8ba 1b3e b8a7 cdbf 0ae9 653f
00000070: d92c 0dbf 4019 163e 620c e3be cbf9 61bf
00000080: fc8f 60be 835d 01be c808 b03e a1fc 8abd
00000090: c540 d1be 5afa ecbe 3d5a afbe c0a2 c9be
000000a0: f283 a4be 6cbb 5ebe 070e 03bf 36a8 90be
000000b0: 21c2 88be 7c0f 183f 9959 393f 126e 15bf
000000c0: 030d 133f 8aaa c03e 8ded b8be 7f70 e0be
000000d0: 03db b9bf 8290 cc3e a1cc ce3e 0b54 09bf
000000e0: cc2f a0bf 2c01 22bf 8b0f 093c 45d5 aabe
000000f0: 1868 5c3d 9b47 b73d 7126 9bbe 0afe 133e

static_variable_selection.single_variable_grns.HealthDisp.fc1.bias f4 [8]
-0.28404635 0.08526425 -0.6745713 0.08903851 -0.12850828 -0.17477602 0.2751712 -0.00019749964
00000000: 866e 91be 069f ae3d b4b0 2cbf d359 b63d
00000010: ad97 03be 7cf8 32be 3de3 8c3e e817 4fb9

static_variable_selection.single_variable_grns.HealthDisp.fc2.weight f4 [8, 8]
0.2687132 0.17401193 0.6698912 0.783064 -0.28682554 0.45495754 0.5757003 0.66890925
-0.3550647 0.31323865 -0.20873737 0.16192055 -0.10499172 0.1549577 0.13676222 -0.2207493
-1.0296408 -1.0201166 -0.46434096 -0.38074154 -0.31004643 -0.26096824 0.3031922 0.276755
0.052154757 -1.1705443 0.292886 0.14705577 -0.35511556 -0.05123558 -0.6940749 -0.07423565
0.5483047 -1.2156433 -0.057711784 -0.24597207 0.11032956 0.38116056 0.028747926 -0.24590117
-0.38350618 0.6316798 -0.3856116 0.6958271 -0.3878182 -0.07400406 0.051057205 0.04373225
-1.386739 -0.59377205 -0.54943097 -0.07631245 0.18764977 -0.25810322 0.105410166 -0.0061636027
0.7198267 0.4228987 -0.10298546 0.55374116 -0.17307703 0.30781838 -0.5757573 -0.5756294
00000000: c794 893e 2f30 323e fd7d 2b3f e276 483f
00000010: ccda 92be 32f0 e83e 1861 133f a33d 2b3f
00000020: 0acb b5be d160 a03e 40bf 55be 80ce 253e
00000030: e605 d7bd 3bad 1e3e 650b 0c3e 1b0c 62be
00000040: 45cb 83bf 2e93 82bf 19be edbe 8ef0 c2be
00000050: 68be 9ebe a19d 85be 023c 9b3e d5b2 8d3e
00000060: 3aa0 553d 65d4 95bf 27f5 953e ca95 163e
00000070: b5d1 b5be 66dc 51bd e5ae 31bf dc08 98bd
00000080: b25d 0c3f 339a 9bbf 3163 6cbd 1ae0 7bbe
00000090: 77f4 e13d 7a27 c33e c580 eb3c 84cd 7bbe
000000a0: ec5a c4be c4b5 213f e26e c5be ba21 323f
000000b0: 1b90 c6be 718f 97bd 5c21 513d 9620 333d
000000c0: aa80 b1bf 7201 18bf 82a7 0cbf b449 9cbd
000000d0: 4327 403e 1b26 84be 49e1 d73d 0cf8 c9bb
000000e0: 9046 383f 2e86 d83e 0aea d2bd fbc1 0d3f
000000f0: 1b3b 31be 5f9a 9d3e d564 13bf 735c 13bf

static_variable_selection.single_variable_grns.HealthDisp.fc2.bias f4 [8]
-0.20872925 0.11375522 0.1881518 -0.21791682 0.06623699 -0.111323245 0.4752496 -0.06174739
00000000: 1fbd 55be 7ff8 e83d deaa 403e 9625 5fbe
00000010: 42a7 873d 71fd e3bd ea53 f33e d5ea 7cbd

static_variable_selection.single_variable_grns.HealthDisp.gate_norm.glu.fc.weight f4 [32, 8]
0.5897817 0.031260367 -0.63144886 -0.4263823 -0.40716073 0.39006442 -0.3899414 0.4784705
-0.0017465304 -0.39129186 0.11069897 -0.3797847 -0.21255057 0.17661887 0.09947832 -0.6939521
-0.04304679 -0.5250189 0.24271296 0.1086743 0.31928074 -0.4379229 0.017074233 -0.28534976
0.12243892 0.31954968 -0.09313406 -0.33257055 -0.022003602 0.4116274 0.0508476 -0.07947646
0.062222626 -0.2510488 -0.14464751 0.06908072 0.07361951 0.010403279 -0.13711138 -0.3966619
-0.26239288 -0.44248173 0.06931486 -0.070526354 0.19535168 0.2185897 -0.23360172 -0.16298175
0.03419645 0.4895944 0.048062053 -0.17637469 -0.072007276 0.44678605 0.47042474 0.13405065
-0.46431106 -0.23270796 0.37008187 0.4508309 0.72169113 -0.39285246 0.4811101 -0.36218855
0.32452053 0.005688014 0.15113187 -0.058370113 -0.105437316 0.12480397 -0.30948755 0.023189088
0.14405274 0.14157136 0.036384974 -0.19618334 0.026980676 0.042114023 -0.119224414 -0.14378254
0.30945942 -0.20000122 -0.38952416 0.056060214 -0.3013184 -0.29030252 -0.3481868 -0.1665639
-0.34549773 -0.06124442 -0.32994807 0.34758902 -0.0043832213 0.0022786483 0.123036884 0.24835894
0.20764364 0.24174137 -0.19767582 -0.6948439 -0.4124885 0.60345834 -0.17012878 0.121337816
0.111976534 0.40999722 0.004338131 -0.30422506 0.17249863 0.08246685 -0.044226605 0.114332676
-0.2787041 -0.32194406 0.7196587 0.40092406 0.89941615 -0.2875587 -0.39016527 -0.7687781
-0.3026802 -0.37219334 0.25507873 0.15447001 0.1465041 -0.2999896 0.17461509 0.023225745
0.083089605 0.5342595 0.014619984 -0.9848028 -0.52012795 0.8568014 -0.41591612 0.34315875
-0.45563096 -0.46298525 0.32676142 -0.06788526 -0.34410608 0.12182514 0.48770732 0.114618115
0.30485928 1.268263 -0.012842803 -0.2654069 0.06418828 0.74063754 -0.43209925 1.0942829
0.14518465 0.27722317 0.004851496 -0.05904032 -0.26196334 -0.2813274 -1.117524 -0.014096797
0.033806104 -0.15881339 -0.20207994 -0.31745926 -0.28646797 0.12613775 -0.33328363 -0.033677742
0.4675951 0.44662946 -0.7613145 -0.34666517 -0.2971507 0.30808878 0.1606477 -0.33347782
0.68342483 0.4603231 -0.6726549 -0.28192845 -0.60197556 0.5017526 -0.0022292566 0.27951285
-0.335427 0.5294091 0.027392391 -0.31848207 -0.14275943 0.47074243 0.09451001 0.60538965
0.11555014 1.1781235 -0.44978252 -0.44362774 -0.10703363 0.052855074 -0.36879352 0.6092901
0.14809085 0.17326254 -0.5732748 -0.57861125 0.2910216 -0.09497014 -0.45810527 0.44179702
0.8343016 -0.15657721 -0.72812706 -0.16255316 -1.0980523 -0.09103981 -0.97553873 0.30718926
0.01697289 0.59115136 0.0798505 -0.5946314 0.0033583303 0.38186792 -1.2330716 0.37586316
0.52609617 0.3304803 -1.3847021 -0.21349908 -0.084834464 -0.34026822 -0.6294585 0.19504343
0.43074384 0.18725404 -0.2831897 0.16119917 -0.055201147 -0.13666178 -0.41028753 0.07859466
0.3078421 1.0032995 -0.34104884 -1.3128316 -0.12895668 0.5740954 0.029205514 1.4233233
-0.054905824 0.60099524 0.060761057 -0.029920366 0.21140076 0.29734254 -0.75256056 0.6969409
00000000: effb 163f df0a 003d a2a6 21bf c84e dabe
00000010: 5f77 d0be 86b6 c73e 66a6 c7be 16fa f43e
00000020: d6eb e4ba 6857 c8be 24b6 e23d 2473 c2be
00000030: dba6 59be 94db 343e 4abb cb3d d8a6 31bf
00000040: d551 30bd a367 06bf bf89 783e a290 de3d
00000050: c478 a33e 6e37 e0be 43df 8b3c 5d19 92be
00000060: 42c1 fa3d 049c a33e 12bd bebd b046 aabe
00000070: e640 b4bc d4c0 d23e 9345 503d 8ec4 a2bd
00000080: 27dd 7e3d 7889 80be 7a1e 14be 317a 8d3d
00000090: d3c5 963d 8472 2a3c ed66 0cbe 4517 cbbe
000000a0: 5c58 86be f78c e2be f3f4 8d3d 1f70 90bd
000000b0: 450a 483e fad5 5f3e 4a35 6fbe b0e4 26be
000000c0: 9411 0c3d 1eac fa3e b7dc 443d 919b 34be
000000d0: 8d78 93bd 24c1 e43e 83db f03e 9344 093e
000000e0: 2eba edbe ff4a 6ebe 5f7b bd3e 4fd3 e63e
000000f0: c0c0 383f f523 c9be 1054 f63e c770 b9be
00000100: 8e27 a63e 8562 ba3b 50c2 1a3e 8015 6fbd
00000110: 85ef d7bd 3999 ff3d 2775 9ebe 0bf7 bd3c
00000120: 9082 133e 15f8 103e 6908 153d 49e4 48be
00000130: 9406 dd3c c17f 2c3d ee2b f4bd bb3b 13be
00000140: 7771 9e3e 1fcd 4cbe b66f c7be 659f 653d
00000150: 6846 9abe 88a2 94be 8a45 b2be ba8f 2abe
00000160: 14e5 b0be 6edb 7abd f4ee a8be 30f7 b13e
00000170: 20a1 8fbb 6055 153b c3fa fb3d ce51 7e3e
00000180: 89a0 543e 0d8b 773e 886b 4abe 4ae1 31bf
00000190: b131 d3be 3f7c 1a3f 3d36 2ebe f67f f83d
000001a0: f453 e53d 28eb d13e e126 8e3b 63c3 9bbe
000001b0: 7ba3 303e 61e4 a83d f526 35bd 4027 ea3d
000001c0: 4eb2 8ebe dad5 a4be 8d3b 383f eb45 cd3e
000001d0: 2340 663f e53a 93be bec3 c7be a4ce 44bf
000001e0: e6f8 9abe 2090 bebe ae99 823e 632d 1e3e
000001f0: 2c05 163e 3d98 99be 4cce 323e eb43 be3c
00000200: e22a aa3d 3bc5 083f a888 6f3c 091c 7cbf
00000210: 1b27 05bf 5657 5b3f f5f2 d4be 81b2 af3e
00000220: 7648 e9be 670c edbe 464d a73e 6d07 8bbd
00000230: ac2e b0be 767f f93d c6b4 f93e e7bc ea3d
00000240: 8416 9c3e 7156 a23f 9f6a 52bc 6ae3 87be
00000250: 2575 833d 6c9a 3d3f 1d3c ddbe 7611 8c3f
00000260: 49ab 143e 32f0 8d3e 4cf9 9e3b 43d4 71bd
00000270: 0f20 86be 250a 90be 070b 8fbf 41f6 66bc
00000280: 4578 0a3d fa9f 22be 0bee 4ebe 058a a2be
00000290: eeab 92be 412a 013e 27a4 aabe acf1 09bd
000002a0: a068 ef3e 9eac e43e 82e5 42bf 197e b1be
000002b0: 2324 98be d0bd 9d3e d580 243e 9bbd aabe
000002c0: eef4 2e3f 78af eb3e 1d33 2cbf ed58 90be
000002d0: 121b 1abf dc72 003f b818 12bb 4f1c 8f3e
000002e0: 16bd abbe 5b87 073f 0266 e03c 1510 a3be
000002f0: 872f 12be 2705 f13e 778e c13d d1fa 1a3f
00000300: 8da5 ec3d c0cc 963f e549 e6be 2d23 e3be
00000310: 7334 dbbd 907e 583d 81d2 bcbe 70fa 1b3f
00000320: 21a5 173e bc6b 313e 23c2 12bf de1f 14bf
00000330: c800 953e b47f c2bd c68c eabe 3833 e23e
00000340: ca94 553f c755 20be 8966 3abf 5674 26be
00000350: fa8c 8cbf 1473 babd e8bc 79bf e947 9d3e
00000360: bb0a 8b3c b255 173f a988 a33d c339 18bf
00000370: 6f17 5c3b 3184 c33e 4ad5 9dbf 2371 c03e
00000380: 3dae 063f b734 a93e eb3d b1bf 819f 5abe
00000390: b1bd adbd a337 aebe 3124 21bf 77b9 473e
000003a0: 758a dc3e 86bf 3f3e 3efe 90be 6511 253e
000003b0: 991a 62bd 11f1 0bbe 3511 d2be 3df6 a03d
000003c0: 7b9d 9d3e 1e6c 803f f49d aebe de0a a8bf
000003d0: 380d 04be ebf7 123f 6740 ef3c 752f b63f
000003e0: eee4 60bd d3da 193f 96e0 783d 8e1b f5bc
000003f0: 7179 583e 483d 983e cfa7 40bf b86a 323f

static_variable_selection.single_variable_grns.HealthDisp.gate_norm.glu.fc.bias f4 [32]
-0.22492394 0.39778185 -0.28180405 0.19026165 0.39503512 0.2219378 0.74739605 -0.10837644
-0.21431613 -0.45793357 -0.2943793 -0.1291823 -0.19400062 0.03134446 -0.76779354 -0.23781806
-0.34822586 0.05028018 0.14453585 -0.52908295 -0.6419328 -0.28698707 -0.0950191 0.015701827
-0.42021877 -0.84569085 -0.7204217 -1.0638953 -0.17989747 -0.327657 0.13118501 -0.7329637
00000000: 7652 66be 10aa cb3e 9f48 90be f3d3 423e
00000010: 0b42 ca3e aa43 633e 5955 3f3f 78f4 ddbd
00000020: b075 5bbe 4576 eabe e2b8 96be 5d48 04be
00000030: 19a8 46be 0c63 003d 1e8e 44bf 9486 73be
00000040: a94a b2be 97f2 4d3d 3501 143e fb71 07bf
00000050: b555 24bf f8ef 92be 6099 c2bd 1ea1 803c
00000060: ea26 d7be 327f 58bf 8e6d 38bf b92d 88bf
00000070: 0b37 38be a9c2 a7be 5d55 063e 82a3 3bbf

static_variable_selection.single_variable_grns.HealthDisp.gate_norm.add_norm.norm.weight f4 [16]
1.8861234 0.26220185 1.361862 0.65225494 1.887449 0.65335745 1.3781619 1.5564243
0.20776016 0.09555446 1.1416506 1.0173844 1.4136534 0.13270979 1.8289388 1.1953293
00000000: 7e6c f13f 523f 863e 7e51 ae3f 2efa 263f
00000010: ee97 f13f 6f42 273f 9c67 b03f e938 c73f
00000020: 14bf 543e 0fb2 c33d 9b21 923f a739 823f
00000030: 98f2 b43f 13e5 073e ab1a ea3f 8d00 993f

static_variable_selection.single_variable_grns.HealthDisp.gate_norm.add_norm.norm.bias f4 [16]
-0.033927515 0.27604952 0.16466986 0.19359653 0.44035387 0.110010214 0.20961386 0.25516126
-0.0090556005 -0.2553763 -0.2811549 -0.013985857 0.16943942 0.12851846 -0.15648186 0.081356
00000000: 94f7 0abd 5d56 8d3e 379f 283e 2b3e 463e
00000010: 1076 e13e 094d e13d 04a5 563e 7fa4 823e
00000020: f15d 14bc afc0 82be 89f3 8fbe f024 65bc
00000030: 8781 2d3e 589a 033e c83c 20be f99d a63d

static_variable_selection.prescalers.AgeDist.weight f4 [8, 1]
0.16108836 -0.5886353 0.7842553 0.14526023 -0.79566276 -0.37467486 -0.67598855 -0.19600101
00000000: 59f4 243e ceb0 16bf f5c4 483f 19bf 143e
00000010: 8eb0 4bbf 62d5 bfbe 960d 2dbf 7db4 48be

static_variable_selection.prescalers.AgeDist.bias f4 [8]
0.2186573 0.04647906 0.723792 0.44475502 -0.7778378 -0.2998177 -0.38029754 -0.18173169
00000000: b3e7 5f3e d460 3e3d 6f4a 393f eeb6 e33e
00000010: 6120 47bf b581 99be 5cb6 c2be df17 3abe

static_variable_selection.prescalers.HealthDisp.weight f4 [8, 1]
0.6344831 -0.6939251 1.450592 -0.6773362 0.72289073 -0.010456521 0.42649907 0.77670145
00000000: 7c6d 223f 13a5 31bf 00ad b93f e865 2dbf
00000010: 5e0f 393f d451 2bbc 165e da3e e8d5 463f

static_variable_selection.prescalers.HealthDisp.bias f4 [8]
-0.4311091 0.46141875 0.38372874 0.7215956 0.38450715 0.027737938 0.531514 -0.18314195
00000000: 55ba dcbe 143f ec3e 1878 c43e 7dba 383f
00000010: 1fde c43e ac3a e33c 4d11 083f 9089 3bbe

encoder_variable_selection.flattened_grn.resample_norm.mask f4 [7]
0.10554514 -1.337928 -0.34699962 1.097951 -0.2950243 0.020215573 -0.14406984
00000000: 0d28 d83d 3a41 abbf efa9 b1be a989 8c3f
00000010: 6d0d 97be 219b a53c 0b87 13be

encoder_variable_selection.flattened_grn.resample_norm.norm.weight f4 [7]
1.5213095 0.5568328 0.9935854 2.213591 1.1995494 1.7874228 1.169072
00000000: 45ba c23f 988c 0e3f 9d5b 7e3f 7aab 0d40
00000010: d68a 993f 45ca e43f 27a4 953f

encoder_variable_selection.flattened_grn.resample_norm.norm.bias f4 [7]
0.25590026 0.059397083 -0.07158882 -1.1555238 -0.12772228 -0.40392366 0.6968778
00000000: 5c05 833e 5b4a 733d 299d 92bd 34e8 93bf
00000010: a1c9 02be 15cf cebe 9566 323f

encoder_variable_selection.flattened_grn.fc1.weight f4 [7, 56]
0.18191178 -0.15707444 -0.07592255 -0.4162413 -0.18617053 0.43131125 0.092414 0.27292284
0.03354743 -0.4370339 -0.06739491 0.25879177 0.068442605 -0.12534584 -0.24348764 0.21022701
-0.30113772 -0.15714596 0.012751227 -0.019663239 0.21384156 0.3722478 -0.3183325 0.1445605
-0.4141168 0.3235851 0.55127656 0.4763526 0.59410304 0.5905818 -0.24671526 -0.37003553
-0.10997366 0.25803274 0.1363197 -0.0041526738 -0.26783562 -0.35539886 -0.01584099 -0.34944227
-0.31095585 -0.36529458 -0.07628037 0.10835845 0.29119626 0.371539 0.38874146 -0.4331606
0.6257026 0.32941562 -0.9451467 -0.17225075 -0.797515 0.4464892 0.3116525 0.25611714
0.26375082 0.42580828 0.3772438 0.1739851 -0.14030918 0.075412594 0.06129362 -0.1611201
0.41364026 0.16632323 0.25812966 -0.044034872 -0.06972271 -0.0057069208 -0.20320904 0.034945574
0.19005707 0.27985722 0.45940423 0.08967714 -0.49144378 -0.71596175 0.096564956 0.48963174
-0.10521591 0.19088805 0.038301934 0.26459664 0.015922476 0.07313739 -0.20887002 0.14408965
-0.3832475 1.2867573 -0.25565478 0.563411 -0.21369351 -0.6770949 -0.42193946 -1.0019718
0.17223205 0.48618084 -0.16820963 0.027799224 -0.5908621 -0.22711116 -0.05634245 0.52244234
0.34210184 0.1102565 -0.081559345 0.18020958 -0.08436072 0.12792131 0.2608049 0.23743296
0.13285767 0.49549514 0.29869068 -0.3118336 -0.4557385 -0.38541323 -0.11953043 -0.49838847
-0.11389851 0.5216554 0.100589104 -0.6446881 -0.34738663 -0.17655437 -0.16475414 0.3126065
-0.4308247 0.15102012 0.5316196 -0.42983547 0.23749867 -0.032050256 -0.47817385 -0.10446096
-0.632347 0.6672731 0.5638608 0.56180596 0.4598469 0.1977084 -0.50031376 -0.5116421
-0.09585698 0.20375808 0.14838798 -0.15387557 0.4778356 -0.36019784 0.0906427 0.20602484
0.23863706 0.37031773 -0.12643568 -0.10573816 -0.3344838 0.011136201 0.2806967 0.5065369
1.3623517 0.68275166 -1.4747256 -0.33224896 -0.72737026 0.7910961 0.94803804 0.53981215
0.43565273 0.24312599 0.48862872 0.39558816 -0.51946557 -0.49726984 0.038569566 -0.7268061
0.32045612 -0.24676436 0.021641247 0.39244863 0.43453124 -0.10768368 -0.58015454 0.05227008
0.04470937 -0.23572156 -0.23953262 -0.2823087 -0.021023203 0.153911 -0.16575989 -0.290105
-0.64809495 0.3654327 0.60844105 0.59045804 0.58185214 0.9681703 -0.5958783 -0.51820916
-0.27632067 0.18704653 0.05133577 -0.13592497 -0.21509278 -0.24087973 -0.20433691 0.049237814
0.074496485 0.21600935 -0.25504935 0.039513167 -0.42789993 0.023727816 0.15119816 0.35522306
0.00020779068 0.007504438 -0.29662713 -0.38523343 -0.12298737 0.10367273 0.13997981 0.2820512
0.055261098 -0.10066769 0.04698376 0.2843713 -0.20195471 -0.13274883 -0.4360104 -0.39616466
-0.22565344 0.1732301 0.30085015 -0.13945526 -0.18420726 0.06406991 0.072287224 -0.030067837
0.26461455 0.04544371 0.39299095 0.5670219 -0.33546436 -0.2755178 -0.0385111 0.49407277
-0.2189449 0.5897302 -0.028236518 0.12187355 0.2136805 0.18875337 -0.45820162 -0.28839445
00000000: 1547 3a3e 1fd8 20be 487d 9bbd 941d d5be
00000010: 7da3 3ebe d4d4 dc3e 8d43 bd3d 8bbc 8b3e
00000020: 0869 093d e8c2 dfbe 5806 8abd 5b80 843e
00000030: a32b 8c3d a95a 00be d354 79be c045 573e
00000040: b92e 9abe dfea 20be 86ea 503c cd14 a1bc
00000050: 48f9 5a3e 4397 be3e 7afc a2be ab07 143e
00000060: 1e07 d4be f2ac a53e 7620 0d3f 7de4 f33e
00000070: 2317 183f 5e30 173f eda2 7cbe 4c75 bdbe
00000080: df39 e1bd de1c 843e 6497 0b3e 2713 88bb
00000090: c021 89be d7f6 b5be f7c4 81bc 19ea b2be
000000a0: 9b35 9fbe e407 bbbe e238 9cbd 09eb dd3d
000000b0: ad17 953e 5c3a be3e 1f09 c73e 3ac7 ddbe
000000c0: 0c2e 203f 2aa9 a83e 22f5 71bf 8062 30be
000000d0: f129 4cbf 3c9a e43e eb90 9f3e c921 833e
000000e0: 590a 873e 8b03 da3e 1926 c13e 2629 323e
000000f0: 36ad 0fbe eb71 9a3d 050f 7b3d abfc 24be
00000100: a8c8 d33e a350 2a3e 9229 843e e95d 34bd
00000110: c8ca 8ebd 1f01 bbbb 0816 50be 1723 0f3d
00000120: 529e 423e 7249 8f3e 0837 eb3e a6a8 b73d
00000130: 859e fbbe 4549 37bf d9c3 c53d 03b1 fa3e
00000140: 707b d7bd 2878 433e 7de2 1c3d 3679 873e
00000150: da6f 823c 0ec9 953d 06e2 55be 3d8c 133e
00000160: 0439 c4be 77b4 a43f 2fe5 82be b43b 103f
00000170: 79d2 5abe 1756 2dbf 7308 d8be 9d40 80bf
00000180: 995d 303e b2ec f83e 253f 2cbe 33bb e33c
00000190: bd42 17bf d48f 68be 57c7 66bd c8be 053f
000001a0: f927 af3e 29ce e13d 9608 a7bd dc88 383e
000001b0: 50c5 acbd cefd 023e 3888 853e a021 733e
000001c0: d70b 083e 8ab1 fd3e fced 983e a7a8 9fbe
000001d0: 8f56 e9be e254 c5be 5fcc f4bd c62c ffbe
000001e0: 9f43 e9bd 358b 053f a901 ce3d 480a 25bf
000001f0: a9dc b1be abca 34be 4fb5 28be f60d a03e
00000200: 0e95 dcbe 05a5 1a3e 3918 083f 6513 dcbe
00000210: da32 733e 2147 03bd 34d3 f4be a1ef d5bd
00000220: 7ee1 21bf 69d2 2a3f 2e59 103f 84d2 0f3f
00000230: 0e71 eb3e 1274 4a3e 9014 00bf fafa 02bf
00000240: aa50 c4bd f5a5 503e 05f3 173e 8f91 1dbe
00000250: dea6 f43e da6b b8be e1a2 b93d 2df8 523e
00000260: 465d 743e 499a bd3e 5b78 01be 408d d8bd
00000270: 7641 abbe 9d74 363c 7ab7 8f3e 67ac 013f
00000280: 8a61 ae3f d0c8 2e3f cfc3 bcbf 891c aabe
00000290: f034 3abf 4685 4a3f 9fb2 723f 2131 0a3f
000002a0: e00d df3e 05f6 783e 8b2d fa3e 888a ca3e
000002b0: b2fb 04bf 279a febe 1ffb 1d3d f70f 3abf
000002c0: d312 a43e ccaf 7cbe fc48 b13c 07ef c83e
000002d0: e17a de3e 4389 dcbd 0285 14bf 2719 563d
000002e0: 2c21 373d fe60 71be 0a48 75be c48a 90be
000002f0: da38 acbc d89a 1d3e f6bc 29be a488 94be
00000300: 8de9 25bf ff19 bb3e cbc2 1b3f 4228 173f
00000310: 43f4 143f 02da 773f 7b8b 18bf 5ba9 04bf
00000320: e779 8dbe 2089 3f3e 7545 523d ea2f 0bbe
00000330: 4841 5cbe 2da9 76be b23d 51be 97ad 493d
00000340: 9d91 983d 8e31 5d3e d495 82be 8fd8 213d
00000350: b315 dbbe d660 c23c b1d3 1a3e ccdf b53e
00000360: 63e2 5939 cae7 f53b 83df 97be 513d c5be
00000370: cde0 fbbd 5e52 d43d de56 0f3e 0469 903e
00000380: 7659 623d dd2a cebd 0b72 403d 1d99 913e
00000390: 37cd 4ebe 4fef 07be c13c dfbe 18d6 cabe
000003a0: b211 67be 3b63 313e 0809 9a3e 5ccd 0ebe
000003b0: d4a0 3cbe 1637 833d 530b 943d d350 f6bc
000003c0: 8f7b 873e 2f23 3a3d 1c36 c93e 5928 113f
000003d0: fcc1 abbe ab10 8dbe d1bd 1dbd 1bf7 fc3e
000003e0: 1833 60be 8ff8 163f 4550 e7bc d798 f93d
000003f0: 10cf 5a3e 9048 413e 6799 eabe 70a8 93be

encoder_variable_selection.flattened_grn.fc1.bias f4 [7]
-0.19235206 -0.16501017 -0.30536392 -0.10122642 0.09394723 -0.19663805 -0.36270848
00000000: f0f7 44be 6df8 28be a958 9cbe cc4f cfbd
00000010: 6867 c03d 7c5b 49be edb4 b9be

encoder_variable_selection.flattened_grn.context.weight f4 [7, 16]
0.039482318 0.0133211985 0.14915013 0.06876375 -0.0696078 0.030326173 -0.25443503 0.51620287
0.64980006 -0.06469193 -0.43584326 -0.52828723 -0.13952495 0.03356516 0.33165553 0.047749083
-0.21576692 0.15616114 -0.38567978 0.4197303 -0.48876828 -0.084898055 -0.08280157 0.20371589
0.42427704 -0.1990286 -0.08695882 -0.1037735 0.06620919 -0.06579125 0.1846187 0.047282
-0.31045675 -0.008645895 -0.43017972 -0.038295623 -0.14070567 0.009587564 -0.49976832 -0.11693442
-0.19630338 -0.28687176 -0.18930568 -0.26795486 0.17773443 -0.0012455427 0.18663709 -0.3336785
-0.36493808 0.06736992 -0.3267069 0.46995515 -0.79932183 -0.08612777 0.36587036 0.39797628
-0.14401415 -0.42763013 0.5731296 0.6571009 0.12674971 0.16697794 -0.25629577 -0.69336706
0.42874315 0.0024343776 -0.40215468 0.0282376 -0.34628266 0.0018973504 0.47129536 -0.43502522
-0.60281754 0.016287481 0.17528184 0.63129896 0.05324237 -0.05018514 -0.36582077 0.03432715
0.2159721 0.0022825678 -0.25123703 -0.22041328 0.33488828 -0.019410089 0.21612254 0.14758188
-0.055065755 -0.15506113 -0.17340252 0.5995862 0.26223636 -0.1978049 0.16700204 0.17305489
-0.0451616 0.30655253 -0.72244745 0.38589197 -0.80382067 0.100756764 -0.4032234 -0.14368196
0.672278 0.16327347 0.40972462 0.6804207 -0.1259592 -0.3574102 0.28700235 0.1744722
00000000: 36b8 213d 2841 5a3c d0ba 183e 02d4 8c3d
00000010: 898e 8ebd 986e f83c 4f45 82be df25 043f
00000020: 4c59 263f 347d 84bd d926 dfbe d53d 07bf
00000030: a1df 0ebe 9f7b 093d c1ce a93e 8b94 433d
00000040: 01f2 5cbe b5e8 1f3e d277 c5be e4e6 d63e
00000050: d63f fabe 08df adbd df93 a9bd e69a 503e
00000060: d73a d93e 27ce 4bbe 7717 b2bd 3387 d4bd
00000070: af98 873d 90bd 86bd af0c 3d3e c5aa 413d
00000080: 30f4 9ebe 83a7 0dbc 8440 dcbe dfdb 1cbd
00000090: 2615 10be 2815 1d3c a2e1 ffbe 507b efbd
000000a0: c103 49be dbe0 92be 59d9 41be 6131 89be
000000b0: 0400 363e 7a41 a3ba cb1d 3f3e e9d7 aabe
000000c0: 2ad9 babe 3ef9 893d 2046 a7be f69d f03e
000000d0: 5ba0 4cbf c263 b0bd 5c53 bb3e 8cc3 cb3e
000000e0: 7278 13be 56f2 dabe 9fb8 123f c437 283f
000000f0: adca 013e 44fc 2a3e 3339 83be 8180 31bf
00000100: 3984 db3e 148a 1f3b 38e7 cdbe 8a52 e73c
00000110: f64b b1be 84b0 f83a a04d f13e a0bb debe
00000120: 4052 1abf 536d 853c 157d 333e cf9c 213f
00000130: ac14 5a3d ef8e 4dbd dc4c bbbe a09a 0c3d
00000140: ca27 5d3e 2297 153b 24a2 80be 05b4 61be
00000150: 7a76 ab3e e801 9fbc 3a4f 5d3e b41f 173e
00000160: a18c 61bd 58c8 1ebe 6e90 31be 7b7e 193f
00000170: d843 863e 5e8d 4abe 9502 2b3e 4d35 313e
00000180: 5ffb 38bd 74f4 9c3e 51f2 38bf a293 c53e
00000190: 31c7 4dbf 9059 ce3d 4c73 cebe 5d21 13be
000001a0: 691a 2c3f 2931 273e 6dc7 d13e 0d30 2e3f
000001b0: 73fb 00be 78fe b6be f9f1 923e d7a8 323e

encoder_variable_selection.flattened_grn.fc2.weight f4 [7, 7]
-0.1412995 0.21368694 -0.052348055 -0.00469783 0.61815506 -0.43096855 -0.4203241 0.102471605
-0.035678502 0.5505158 0.104309075 -0.4471599 0.27587777 -0.25444368 0.3441969 -0.0404838
0.8065625 0.4166313 -0.23644127 0.028582232 0.26857537 -0.46539107 -0.10944914 -0.8611836
0.10462919 0.004824816 0.17899805 -0.120865695 0.16320215 0.131569 -0.8780923 0.18073463
-0.47088933 0.04731352 0.98275 -0.5077089 0.52649254 -0.04174477 -0.5824434 -0.32362258
0.30387557 0.3662649 0.53026825 0.46523404 0.88259625 0.23716591 0.03559397 -0.06984108
-0.038693342
00000000: d1b0 10be c0d0 5a3e ea6a 56bd 41f0 99bb
00000010: 693f 1e3f e9a7 dcbe b834 d7be a2dc d13d
00000020: 9f23 12bd 9aee 0c3f ff9f d53d 24f2 e4be
00000030: da3f 8d3e 7146 82be 933a b03e 57d2 25bd
00000040: e17a 4e3f b350 d53e a91d 72be 4925 ea3c
00000050: b682 893e bd47 eebe df26 e0bd 8776 5cbf
00000060: d447 d63d 7d19 9e3b 444b 373e 6f88 f7bd
00000070: 771e 273e 06ba 063e a8ca 60bf 8012 393e
00000080: 6818 f1be d2cb 413d 8195 7b3f 36f9 01bf
00000090: 37c8 063f 90fc 2abd 031b 15bf dcb1 a5be
000000a0: 9495 9b3e 1387 bb3e a9bf 073f 2833 ee3e
000000b0: d4f1 613f 9fdb 723e fcca 113d d708 8fbd
000000c0: e97c 1ebd

encoder_variable_selection.flattened_grn.fc2.bias f4 [7]
-0.18199356 -0.36162037 -0.20463245 -0.33897 -0.10274164 0.13525373 0.18248221
00000000: 855c 3abe 4e26 b9be 2b8b 51be 7a8d adbe
00000010: 356a d2bd f47f 0a3e 9edc 3a3e

encoder_variable_selection.flattened_grn.gate_norm.glu.fc.weight f4 [14, 7]
0.32749894 -0.13737419 -0.04407207 0.20440863 -0.033367246 -0.35341936 0.19531594 -0.0726674
-0.14570203 -0.42804688 0.029104175 0.11379563 0.17667715 0.17654979 0.5833194 -0.14218897
0.14762895 -0.31320903 -0.18000351 -0.14650826 0.519111 -0.45357051 0.4346164 0.41203728
-0.04670322 0.05441106 -0.03428961 0.22388273 0.04368711 -0.0057526105 0.047343627 0.20805743
0.047151726 -0.32078984 0.113224864 -0.5035638 -1.0535543 -1.4570915 1.637876 0.74201936
0.80431974 -1.5824963 0.38933626 -0.2986845 -0.115092956 -0.012148013 -0.1838451 -0.28270265
-0.0036962635 0.27837172 -0.4550608 0.1314614 -0.31161708 0.3783934 -0.7205042 -0.27335382
-0.030903487 -0.38231713 0.55627185 0.04496698 0.714269 0.25037315 -0.22484362 -0.40554047
0.46286246 -0.054630253 -0.03825353 0.28635025 0.5707715 -0.5558366 0.3241678 -0.09152046
0.0946808 0.060603123 -0.9253501 -0.2023006 0.11512031 0.13311379 -0.20537736 0.10045062
-0.23770729 0.92528415 0.48279005 -0.18394528 0.092007354 0.40418696 0.45282912 -0.23593989
-0.022868698 -0.18149064 0.41955057 0.75377977 -0.76876193 -0.41164622 -0.31315735 -0.45740813
-0.6542528 -0.52457106
00000000: f1ad a73e d2ab 0cbe ea84 34bd 7f50 513e
00000010: 18ac 08bd 62f3 b4be e700 483e a5d2 94bd
00000020: ea32 15be f628 dbbe e16b ee3c af0d e93d
00000030: dbea 343e 78c9 343e 6c54 153f fc99 11be
00000040: 0b2c 173e ef5c a0be d752 38be 4306 16be
00000050: 75e4 043f 653a e8be 0a86 de3e 8df6 d23e
00000060: e04b 3fbd 22de 5e3d 4373 0cbd 8441 653e
00000070: 41f1 323d 6580 bcbb 64eb 413d 020d 553e
00000080: 2b22 413d 913e a4be 70e2 e73d 8fe9 00bf
00000090: deda 86bf f981 babf eca5 d13f fbf4 3d3f
000000a0: e6e7 4d3f 3d8f cabf 1557 c73e 2ded 98be
000000b0: dbb5 ebbd 7608 47bc e441 3cbe 67be 90be
000000c0: 033d 72bb bd86 8e3e bbfd e8be d19d 063e
000000d0: 468c 9fbe c8bc c13e f772 38bf 08f5 8bbe
000000e0: 4f29 fdbc 12bf c3be d567 0e3f 4c2f 383d
000000f0: 55da 363f e930 803e 683d 66be 00a3 cfbe
00000100: 4ffc ec3e f9c3 5fbd bcaf 1cbd 809c 923e
00000110: 151e 123f 4f4b 0ebf 52f9 a53e 146f bbbd
00000120: 02e8 c13d fb3a 783d bfe3 6cbf e327 4fbe
00000130: 32c4 eb3d fb4e 083e 714e 52be 0eb9 cd3d
00000140: 8a69 73be 6cdf 6c3f 4230 f73e 275c 3cbe
00000150: 5a6e bc3d 98f1 ce3e 38d9 e73e 3a9a 71be
00000160: 2357 bbbc afd8 39be 55cf d63e b6f7 403f
00000170: 95cd 44bf 4bc3 d2be 2956 a0be 6631 eabe
00000180: 1d7d 27bf 4a4a 06bf

encoder_variable_selection.flattened_grn.gate_norm.glu.fc.bias f4 [14]
0.0728845 0.27779874 -0.10704656 -0.8609124 -0.14775562 -0.9173478 0.71953005 -0.92241716
-1.4445592 -0.3751445 0.8559619 -1.2930626 -0.14352266 0.5815029
00000000: 7844 953d a33b 8e3e 3a3b dbbd c164 5cbf
00000010: 404d 17be 4ed7 6abf 1f33 383f 8823 6cbf
00000020: 51e7 b8bf f112 c0be 5220 5b3f 1383 a5bf
00000030: 9bf7 12be 60dd 143f

encoder_variable_selection.flattened_grn.gate_norm.add_norm.norm.weight f4 [7]
0.33522034 0.084245965 0.5542339 1.0189877 0.6055444 1.4063427 0.56611186
00000000: 00a2 ab3e 2689 ac3d 46e2 0d3f 306e 823f
00000010: f504 1b3f 0a03 b43f b5ec 103f

encoder_variable_selection.flattened_grn.gate_norm.add_norm.norm.bias f4 [7]
-0.10894198 -0.07808452 -0.02322595 -0.18346395 -0.008721659 -0.18031196 0.22872818
00000000: f91c dfbd c7ea 9fbd 5944 bebc f9dd 3bbe
00000010: 4ae5 0ebc b3a3 38be b837 6a3e

encoder_variable_selection.single_variable_grns.SinWeekly.resample_norm.mask f4 [16]
0.20550951 -0.21700957 0.5858219 -0.44449347 -0.3158555 -0.2235538 -0.7781847 -0.074226715
0.28204003 0.10809607 -0.6479189 -0.6697863 -0.38960624 -0.5268707 1.1391046 0.058032773
00000000: 1671 523e c237 5ebe 6df8 153f a694 e3be
00000010: d0b7 a1be 4aeb 64be 1d37 47bf 2d04 98bd
00000020: 8d67 903e 7961 dd3d 03de 25bf 1d77 2bbf
00000030: 787a c7be 00e1 06bf 2ece 913f c6b3 6d3d

encoder_variable_selection.single_variable_grns.SinWeekly.resample_norm.norm.weight f4 [16]
1.2838464 1.3827375 1.190139 -0.041859437 0.71993315 0.7125526 0.18560159 1.0702391
1.0807694 0.9424211 -0.10617899 0.0033573208 0.8523368 0.67286336 2.0048993 0.85825086
00000000: 1455 a43f 8bfd b03f 7a56 983f cd74 2bbd
00000010: 8a4d 383f d969 363f 580e 3e3e 98fd 883f
00000020: a756 8a3f 8242 713f 5f74 d9bd 7f06 5c3b
00000030: bf32 5a3f c640 2c3f 4550 0040 54b6 5b3f

encoder_variable_selection.single_variable_grns.SinWeekly.resample_norm.norm.bias f4 [16]
-0.20056856 -0.4362179 0.4429683 0.6003949 0.14976463 -0.07585231 -0.23132141 -0.31569234
-0.053683974 -0.15547791 -0.3590675 -0.13538282 -0.06412309 0.23329596 0.08084408 0.5014105
00000000: d861 4dbe f457 dfbe becc e23e 7bb3 193f
00000010: e65b 193e 7558 9bbd 85df 6cbe 6da2 a1be
00000020: bae3 5bbd 9a35 1fbe b2d7 b7be cba1 0abe
00000030: f752 83bd 23e5 6e3e 9591 a53d 705c 003f

encoder_variable_selection.single_variable_grns.SinWeekly.fc1.weight f4 [8, 8]
0.604914 0.14440592 -0.014874476 -0.020945925 -0.2108994 0.38471052 -0.47228733 -0.025330057
-0.101009 -0.3929082 0.97552496 0.31488958 0.03307318 -0.2963312 0.30524564 -0.17121387
0.084318586 0.26677778 1.3486156 -0.28493953 0.65429723 -1.7214444 -0.53908956 -1.6266996
0.18772684 0.6596506 -0.1817908 0.07150774 -0.36045334 -0.6873125 -0.52236253 -1.1803819
1.442543 -0.20579025 -0.24320696 -0.30427814 -0.8267221 -0.03524208 -0.6961653 0.6347059
-0.2663353 0.409476 0.5888327 0.21779667 0.74221116 -1.9605407 0.11030645 -0.34768903
-0.3627219 1.3337021 0.019652702 0.49968013 -0.5093397 -0.7006487 0.11460085 -0.91311896
-1.1948103 -0.38310698 0.26703194 -3.5420604 -0.22068109 0.10330448 2.745975 1.0123638
00000000: a5db 1a3f 25df 133e 13b4 73bc ca96 abbc
00000010: 03f6 57be c7f8 c43e a5cf f1be fb80 cfbc
00000020: cedd cebd 432b c9be 01bc 793f 3539 a13e
00000030: be77 073d b9b8 97be 2849 9c3e b052 2fbe
00000040: 39af ac3d 1997 883e 709f ac3f 98e3 91be
00000050: 0680 273f 4a58 dcbf c601 0abf b137 d0bf
00000060: 773b 403e ddde 283f 5e27 3abe a672 923d
00000070: 578d b8be b6f3 2fbf 8db9 05bf c116 97bf
00000080: 40a5 b83f aeba 52be 3f0b 79be 58ca 9bbe
00000090: 0fa4 53bf 005a 10bd e437 32bf 167c 223f
000000a0: 1a5d 88be d7a6 d13e bdbd 163f 1706 5f3e
000000b0: 8d01 3e3f fff2 fabf 59e8 e13d 4c04 b2be
000000c0: afb6 b9be c0b6 aa3f b4fe a03c 13d6 ff3e
000000d0: 1664 02bf b75d 33bf dab3 ea3d 2ac2 69bf
000000e0: 8bef 98bf 9926 c4be 69b8 883e 1eb1 62c0
000000f0: 39fa 61be 4d91 d33d 0ebe 2f40 2395 813f

encoder_variable_selection.single_variable_grns.SinWeekly.fc1.bias f4 [8]
-0.09256762 0.004754001 0.041875433 -0.1146979 -0.10244799 0.10029627 -0.08895117 -0.34803578
00000000: 1894 bdbd 73c7 9b3b 9385 2b3d bce6 eabd
00000010: 40d0 d1bd 2168 cd3d 082c b6bd bf31 b2be

encoder_variable_selection.single_variable_grns.SinWeekly.fc2.weight f4 [8, 8]
-0.47160932 -0.23157673 -0.25702718 0.31336057 -0.42092812 0.10654285 -0.05517292 1.4994328
0.0679352 -0.32982004 0.011802755 -0.3350381 -0.38569975 -0.6295407 -0.487368 -1.628926
-0.24840374 -0.35516915 -0.28904736 -0.42515883 -0.005177815 -0.41511542 -0.27075753 0.6739697
-0.03867503 0.021856502 1.010195 0.5794188 -0.0215884 0.52067584 0.2701952 0.70602864
0.23623621 0.0134674115 -0.0981398 -0.24500135 -0.29370534 0.510115 -0.7161811 1.2691623
-0.26065493 0.11637108 -0.64906216 0.5052409 -0.18953662 0.06949794 0.43798795 -1.4242887
-0.35715646 -0.1292412 -0.7716016 -0.48910978 0.064420156 -0.43955368 -1.2514455 -0.4898808
0.33054057 0.044473257 -1.0007696 -0.29249597 -0.26308674 -0.6828766 -1.1428581 -0.31991404
00000000: c776 f1be 7322 6dbe 1199 83be cc70 a03e
00000010: e483 d7be 2333 da3d 00fd 61bd 6aed bf3f
00000020: 9c21 8b3d 2cde a8be 5860 413c 1d8a abbe
00000030: 707a c5be 9429 21bf 4c88 f9be a680 d0bf
00000040: 8d5d 7ebe bbd8 b5be 04fe 93be 6bae d9be
00000050: a9aa a9bb 028a d4be bba0 8abe 4789 2c3f
00000060: b569 1ebd 680c b33c 124e 813f ca54 143f
00000070: 28da b0bc 034b 053f 0657 8a3e 4bbe 343f
00000080: e8e7 713e 6ba6 5c3c 85fd c8bd a2e1 7abe
00000090: 8c60 96be e696 023f a557 37bf e973 a23f
000000a0: 9074 85be f653 ee3d f028 26bf 7857 013f
000000b0: e315 42be f054 8e3d f53f e03e 184f b6bf
000000c0: 36dd b6be ce57 04be af87 45bf 996c fabe
000000d0: b7ee 833d 2e0d e1be 5e2f a0bf a8d1 fabe
000000e0: 9d3c a93e 9729 363d 3819 80bf 08c2 95be
000000f0: 4eb3 86be 00d1 2ebf 2d49 92bf c6cb a3be

encoder_variable_selection.single_variable_grns.SinWeekly.fc2.bias f4 [8]
-0.3867004 -0.1136743 -0.13520865 0.0044517275 0.049689986 0.0052022864 -0.07884259 0.01787949
00000000: 98fd c5be 12ce e8bd 2374 0abe ccdf 913b
00000010: ba87 4b3d f177 aa3b 3978 a1bd 0278 923c
