Archives/TFT-pytorch/results/industry_subgroup/Retail Trade/checkpoints/latest-epoch=7.ckpt (torch, 703223 bytes, 506 tensors)

state_dict f4 [8, 1]
000000 0e 0a d9 3e 9a 2e d0 be c3 15 82 3f 7a 4b 86 3f
       0.42390484 -0.40660554 1.0162891 1.0491784
000010 be c7 a2 bf e4 e1 5e 3d d1 62 5b bf 49 cd 55 3f
       -1.2717206 0.054414645 -0.85697657 0.83516365

state_dict f4 [8]
000000 6e 3c e1 bd 81 8d 9d 3e 21 b1 e3 3e c6 8b f9 3d
       -0.10997854 0.3077202 0.44471076 0.12184863
000010 bf 51 07 bf 8a 4a d2 be e8 f7 40 3c 25 e0 70 3d
       -0.5285911 -0.41072494 0.011777855 0.05880751

prescalers.SinWeekly.weight f4 [8, 1]
000000 84 3a 56 3e 10 f1 c1 bf 41 0b 7c 3f 00 e7 96 bf
       0.2092076 -1.5151691 0.9845467 -1.1789246
000010 fe d9 33 3f fe 42 52 be cc 05 5c 3f 83 ab d7 3e
       0.70254505 -0.20533368 0.85946345 0.4212304

prescalers.SinWeekly.bias f4 [8]
000000 d7 00 85 3e 04 46 3e be 4a ee 48 3f 68 37 ef 3e
       0.25977203 -0.18581396 0.784886 0.4672196
000010 46 bf f7 3e af b0 1d bf 01 6b 7f 3f 6d 37 08 3f
       0.48388118 -0.6159772 0.9977265 0.53209573

prescalers.VaccinationFull.weight f4 [8, 1]
000000 a9 4e 1a bd 87 fe bd 3e cf a1 75 3f 98 81 27 3f
       -0.037672672 0.3710825 0.95950025 0.6543212
000010 65 48 1b bf c3 a6 39 bf 20 67 58 bf 15 40 1e bf
       -0.6065734 -0.72520083 -0.84532356 -0.6181653

prescalers.VaccinationFull.bias f4 [8]
000000 99 b2 36 3e 03 1b f7 be 68 cb 39 bf b6 65 82 3f
       0.17841567 -0.48262796 -0.72576 1.018729
000010 23 f8 81 3f 64 d2 b0 3e eb 61 b1 3d e5 a3 c6 3e
       1.015385 0.34535515 0.086612545 0.38796917

prescalers.Cases.weight f4 [8, 1]
000000 ff 04 2e 3f f2 16 95 bf d4 46 21 bf c4 6f 52 3f
       0.67976373 -1.1647627 -0.629987 0.8220179
000010 5d a8 c6 3f 62 03 13 3d bf 11 01 bf f2 1e ae 3e
       1.552013 0.035891898 -0.50417703 0.34007984

prescalers.Cases.bias f4 [8]
000000 1f 91 70 bf 2d 86 83 be 28 a1 18 3f d5 ff 09 3f
       -0.9397144 -0.25688305 0.59620905 0.53905994
000010 38 6d 2c 3e b0 82 fb bd 41 42 4f 3f 3a bb 90 bf
       0.16838539 -0.12280786 0.8096047 -1.1307137

prescalers.Cases.bias f4 [16]
000000 ec f4 5e bf f5 8a 22 bf 6f ad e9 be 7c ef 59 be
       -0.8709247 -0.6349328 -0.45640132 -0.21282762
000010 2d 52 84 be fb 84 e8 3e d5 2e 72 be a6 12 2c bf
       -0.25843945 0.45413956 -0.23650678 -0.67215955
000020 df e0 39 bf 1d 6f 9f 3f 26 ea 0c bf 85 e6 01 bd
       -0.7260875 1.2455784 -0.5504478 -0.03171398
000030 9d 7d c3 be 3e c1 56 be 7d 76 b8 bf 78 41 08 bf
       -0.38181773 -0.20972154 -1.441116 -0.532249

prescalers.Cases.bias f4 [16]
000000 ed 80 5d 3f 4e 04 86 3f 15 dd 9b 3f 5f 9b a5 3f
       0.8652485 1.0470064 1.2176844 1.293804
000010 0a 8c 91 3f db 83 c9 3f c3 f1 80 3f 4c d4 80 3f
       1.1370862 1.5743364 1.007378 1.0064788
000020 a9 3e a3 3e b0 bd 01 40 27 ea 79 3f 43 6f a7 3f
       0.31883743 2.0272026 0.97622913 1.3080829
000030 d4 f5 4d 3f 26 f3 8a 3f 92 ad 10 3e 13 63 77 3f
       0.8045323 1.0855453 0.14128712 0.9663555

prescalers.Cases.bias f4 [16]
000000 92 df b8 3d b0 36 7c 3e 95 10 19 3e 0f 19 b3 3e
       0.09027018 0.24630237 0.14947732 0.34980056
000010 c6 24 46 3e 3e bc 76 3e a0 09 b4 3d eb b9 5b 3e
       0.19349965 0.24095246 0.08790898 0.21457641
000020 fc 8b c6 3e 28 3c 6c be 23 79 30 be 16 29 02 bf
       0.38778675 -0.23069823 -0.1723371 -0.5084394
000030 86 14 7c 3e eb 75 d3 bc 9d 65 5d 3e 38 61 62 3e
       0.24617204 -0.025813064 0.21620794 0.22107399

prescalers.Cases.bias f4 [8, 8]
000000 1f b7 f9 3e 01 f1 f7 be 4d 0d 25 bf 58 42 e4 be
       0.48772523 -0.4842606 -0.6447342 -0.44581866
000010 8a 4b ed 3d c1 3c aa bf 86 e0 cc 3e 7b 67 6a be
       0.115866736 -1.3299791 0.40015048 -0.22891037
000020 b7 e5 0b be 86 f9 8e bf 11 92 6b bd 16 50 94 3f
       -0.13661848 -1.1169899 -0.057512347 1.158694
000030 bb 19 29 bf e2 6f 8c be 0c f0 18 bf 19 4d 1d 3f
       -0.66054887 -0.2742911 -0.5974128 0.61445767
000040 88 e9 c7 3e 2f 02 57 3e f2 54 d3 3e 2d b8 a5 be
       0.39045358 0.20996927 0.41275746 -0.32367077
000050 8d e4 bd 3e 1f fc af bd 31 5e 95 3e 89 5a 84 3d
       0.37088433 -0.0859301 0.29173425 0.06462581
000060 e2 65 4b bf 83 e4 0f be 73 4c 98 bd 0c a2 dc be
       -0.79452336 -0.14052014 -0.074364565 -0.43092382
000070 13 ec b3 be 47 09 37 3e c5 95 6b be 15 df cc 3e
       -0.35141048 0.17874633 -0.23006351 0.40013948
000080 43 a3 29 bf 65 0c 6a 3f a2 54 44 be a2 69 2e bf
       -0.6626474 0.9142516 -0.1917291 -0.6812993
000090 c8 f3 de 3e 28 b7 28 3f 10 c8 81 3f 23 9e e1 bc
       0.43545365 0.65904474 1.0139179 -0.027541226
0000a0 97 fd ac 3e d7 15 0f bd 2b c2 9c bc d5 e3 85 3e
       0.33787224 -0.034932937 -0.019135555 0.26150385
0000b0 d9 b5 cb 3e c3 25 0a bf 99 ed 34 3d 95 57 95 3e
       0.39787176 -0.5396387 0.044171903 0.29168382
0000c0 08 3a 77 3e 8a d5 36 bf 29 c2 d2 3e c7 85 90 3f
       0.24143231 -0.71419585 0.41163757 1.1290826
0000d0 f4 c3 04 bf de b5 8d 3f 3c 21 8e bf e8 3e 77 3f
       -0.518615 1.1071126 -1.1103892 0.9658036
0000e0 19 8c 4a bf b7 57 5d be ee 49 a0 be bc 80 91 bd
       -0.7912002 -0.21615492 -0.31306404 -0.07104632
0000f0 c4 db 53 3f 1e 36 0f bf fc 89 6d 3f 84 04 f8 3d
       0.8275721 -0.5594195 0.9278867 0.12110236

prescalers.Cases.bias f4 [8]
000000 41 a2 0d be e5 23 7f bd 23 9e 3d be 14 14 59 bd
       -0.13831426 -0.06229009 -0.18517356 -0.052997664
000010 94 51 b4 3e 31 cb 22 3e 96 fc 9c 3e 3e 08 16 3e
       0.3521849 0.15897824 0.30661458 0.14651582

prescalers.Cases.bias f4 [8, 8]
000000 7e c0 a9 be 1e fe 37 3f af 4c cb bd 53 74 94 bd
       -0.33154672 0.7187213 -0.099267356 -0.072487496
000010 05 62 47 3e 9c 43 8c 3d c7 2d 6d 3f 26 3c 91 3e
       0.19470985 0.06848833 0.92647976 0.28366202
000020 8c 03 ea bc 38 6a df bd a4 7c a6 3e 58 da 9b bc
       -0.028566144 -0.109089315 0.32516968 -0.019025013
000030 75 9d a3 3d 02 e1 1a 3e c8 91 e7 3e c6 fc 6b 3d
       0.07989017 0.15124896 0.4522841 0.05761411
000040 92 27 26 be a5 b6 4a be 9d 1a 00 bd 78 7a 8d bd
       -0.16226032 -0.19796236 -0.03127538 -0.06908125
000050 5a a2 02 3f fc 1e 4d be 51 50 15 bf b5 64 48 3f
       0.5102898 -0.20031351 -0.5832568 0.78278667
000060 83 91 2a 3f 8f 5b 0f bf ac a8 0f 3f ce f0 d9 bd
       0.66628283 -0.5599908 0.5611675 -0.10641633
000070 d6 e6 16 3f f8 f0 98 3d cd 67 f3 3d 63 33 c4 bd
       0.5894598 0.07467836 0.11885033 -0.09580114
000080 72 54 eb bc e4 50 a1 bd d9 15 a0 be 5e 28 b8 3d
       -0.02872679 -0.07876757 -0.31266668 0.089920744
000090 93 b5 dd 3e 49 6e a7 3e 02 ad e6 3e 38 f4 58 be
       0.43302593 0.32701328 0.4505387 -0.21186912
0000a0 1d da 29 3e b8 36 97 be 84 36 ba be 0c 55 dc bd
       0.1658711 -0.29533935 -0.36369717 -0.10758409
0000b0 79 94 49 3f 7d f3 16 3e 20 36 7e bf 65 e4 dd 3e
       0.78742176 0.14741321 -0.9930134 0.43338314
0000c0 e3 ce 9b be 78 65 b0 be 9a 8f b9 3c 59 7f 8e bd
       -0.3043128 -0.34452415 0.022651482 -0.069578834
0000d0 e6 6e 0a 3f a3 d5 3f 3e 0b 4d 49 bf 8c 97 8a 3a
       0.5407547 0.1873384 -0.78633183 0.0010573729
0000e0 e2 eb 9b 3e cc 9c dd 3e 53 e2 90 be d7 c7 1a be
       0.30453402 0.4328369 -0.28297672 -0.15115295
0000f0 97 e0 16 bf a0 f9 8c be 16 43 07 3f 35 31 58 bf
       -0.58936447 -0.275342 0.5283674 -0.84450084

prescalers.Cases.bias f4 [8]
000000 6e 60 80 3e a2 0c 04 be 2d 94 74 be d9 b5 8c 3e
       0.2507357 -0.12895444 -0.2388465 0.2748249
000010 ff ea 8e bd 6e 6c 46 bb 98 0d 77 3e 89 03 08 3d
       -0.06978416 -0.0030277031 0.2412628 0.033206496

prescalers.Cases.bias f4 [32, 8]
000000 56 3c 7d 3e 0c 98 22 3f 3a 10 05 bf 25 5f c4 bd
       0.24730048 0.63513255 -0.51977885 -0.0958846
000010 f3 b7 e5 3d 66 46 7f bf ad c7 15 bf 82 c1 d2 3e
       0.11216726 -0.99716794 -0.58507806 0.4116326
000020 89 4d 7e bd c0 e5 55 be 5b cb 50 3e 5b 0c e7 3e
       -0.062085662 -0.20888424 0.20390074 0.45126614
000030 6d 59 97 bd 38 4b f0 bd d0 62 a8 3e b5 52 0e be
       -0.073901035 -0.11733097 0.32887888 -0.13898738
000040 7b cf 33 be 2b e6 2a bd df 28 15 3e 9c 50 86 be
       -0.17559616 -0.04172341 0.14566372 -0.26233375
000050 82 18 22 be 9d 04 c2 bd 5b d6 14 be a3 c2 fa be
       -0.15829661 -0.09473536 -0.14534895 -0.4897662
000060 f1 c3 ba bd 1b 21 ea 3c 9b 97 5b be 8e 9f 85 be
       -0.09119404 0.028580239 -0.21444552 -0.26098293
000070 3a 21 56 3e 6d 8a ea 3c a4 b6 f3 bd a0 72 a4 3e
       0.20911112 0.02863046 -0.1190007 0.32118702
000080 77 48 ff be e1 49 1f be 7f a6 a2 3d 62 76 d6 be
       -0.49859974 -0.15555526 0.07941913 -0.41887194
000090 3f 0c 1f 3e 88 e2 6a 3e 49 43 88 3e e0 86 77 3d
       0.15532015 0.22937977 0.26613835 0.06043136
0000a0 cf 06 ab 3f 2c a2 56 3f 75 3d ae bf 5b 36 b6 be
       1.3361453 0.83841205 -1.3612505 -0.35588345
0000b0 59 09 2c be 47 93 d3 bf e0 ec 9c bf b1 40 b6 3f
       -0.16800441 -1.652932 -1.2259789 1.4238492
0000c0 d0 81 5f be 43 41 99 be 2c 87 c8 3e 37 51 e2 3e
       -0.21826863 -0.29932603 0.39165628 0.44202587
0000d0 c5 87 02 bd ec 02 6d bd 67 5b ec 3e bf 08 12 bd
       -0.03186776 -0.057864115 0.46163484 -0.035652872
0000e0 eb 06 bc 3e 17 5b 42 3d 5f 44 f0 be 60 4f 2f be
       0.36724028 0.04745015 -0.46927163 -0.17120123
0000f0 13 e5 7a bd f1 68 17 3e 31 0e da bd fe 42 e6 3d
       -0.06125362 0.14786126 -0.10647238 0.112432465
000100 cb 47 2b bf ee 9b 17 be 66 c2 74 bc 8a cf ea bd
       -0.6690642 -0.14805576 -0.014938926 -0.11465366
000110 24 d4 5b be 77 fe ab be db 1b 26 3e 38 1a 61 3e
       -0.21467644 -0.3359258 0.16221564 0.21982658
000120 14 d8 47 3e 06 c1 16 3e dc c8 ac be aa 9f 5b 3e
       0.19516021 0.1472207 -0.33746994 0.21447626
000130 bf 4c cd 3d 66 db 32 be 94 9a e6 bd 16 7a 88 3b
       0.10024404 -0.17466506 -0.11259952 0.0041649444
000140 8b f4 3a 3e 7b 97 c5 3d 04 97 e9 bd cd b0 95 be
       0.18257348 0.09648033 -0.11405757 -0.2923645
000150 70 49 d1 be a8 fa 73 be d4 7e 2e 3e 4c 99 1a 3e
       -0.4087634 -0.23826087 0.17040569 0.1509754
000160 65 67 06 be 4f 8e 80 bd 29 76 cb be 5c 8f c9 be
       -0.1312538 -0.06277143 -0.39738587 -0.39367187
000170 c1 fe a0 3d 5c f2 0a bf 76 d5 81 be 06 d6 0a 3f
       0.078610905 -0.5427606 -0.2535817 0.54232824
000180 cd 0b 9b 3e 31 62 08 3f 92 0d 12 3e 85 10 b6 be
       0.3028244 0.5327483 0.14262989 -0.35559478
000190 6a 49 d0 be 01 c7 7a be ca 3c 3d 3e 44 8f 00 be
       -0.4068101 -0.24489976 0.1848022 -0.12554651
0001a0 b6 f9 1a bf 6d 0f cd be 28 08 3b 3f 37 f3 3f 3f
       -0.6053728 -0.4005083 0.7305932 0.7498049
0001b0 40 c7 e0 bc 32 98 63 3f 88 38 3e 3f d0 50 64 bf
       -0.02743876 0.88904107 0.7430501 -0.8918581
0001c0 74 d8 c6 be 83 ce 85 3f 0f 3c f2 be 9a 3c 4e 3e
       -0.38837016 1.0453647 -0.47311446 0.20140305
0001d0 00 c9 12 bf ec 1f 0c be 9e af 90 3e 10 5b 23 3e
       -0.5733795 -0.13684052 0.28258985 0.15952706
0001e0 2e 23 a1 bd 09 b4 04 bd 24 52 e8 bd b5 99 25 3d
       -0.07868038 -0.032398257 -0.11343792 0.04042979
0001f0 c6 ac 81 be 25 21 3e 3e 7e 8d 0f 3f d2 17 4c be
       -0.25327128 0.18567331 0.56075275 -0.19930962
000200 7c 8e 18 be e6 62 9a be ad 4b 2c bf eb d7 c4 bd
       -0.14898103 -0.3015358 -0.6730297 -0.096114956
000210 bc 76 7a be 1b 22 66 bf a2 6b 96 bf 9e a3 8c 3f
       -0.24459356 -0.8989579 -1.1751597 1.0987432
000220 4a e5 29 3f 37 08 94 be 93 3e 2c be 78 46 11 bf
       0.6636549 -0.28912517 -0.16820745 -0.5674815
000230 1f 87 51 3d 03 71 00 bf ed fc ae be ff 43 8a 3d
       0.051154252 -0.5017244 -0.34177342 0.067512505
000240 09 ec cd 3e 9e cb 8b be 24 eb 84 be ec bf dd 3d
       0.40219143 -0.27303785 -0.25960648 0.10827622
000250 be 63 a7 3e 7a cf 85 3e 0a d7 1a be 9e 18 57 3f
       0.32693285 0.26134855 -0.15121093 0.8402194
000260 bf 83 e0 be a7 14 27 3f 45 bb e0 be 18 b2 53 bf
       -0.43850514 0.6526589 -0.43892875 -0.82693624
000270 29 17 4c be 6d b8 2f 3c 0d bd 12 bf 7d 4f 0c 3f
       -0.1993071 0.010725123 -0.5731972 0.5480879
000280 c9 61 39 3f 6c 70 d0 be 5d ad fd 3d 17 87 17 be
       0.72414833 -0.4071077 0.12386582 -0.14797626
000290 17 19 45 be ea 91 95 bd 5d 99 28 bf ce 64 78 3e
       -0.19247852 -0.073032215 -0.65859014 0.24257204
0002a0 7c 79 4f 3f 2d 5e 8c 3f d6 f4 32 bf 53 7c 09 bf
       0.81044745 1.096624 -0.6990484 -0.5370533
0002b0 c5 f8 54 3d 88 06 8e bf 92 a1 a7 bf d2 cc a2 3f
       0.051995058 -1.1095743 -1.3096182 1.2718756
0002c0 3a ea b9 3e 12 b7 cb 3d 23 9e 56 be da b4 a2 3d
       0.36311513 0.09947027 -0.20958762 0.07944651
0002d0 dd d0 73 3e 07 79 be bd 09 ba 45 bf df e7 70 3e
       0.23810144 -0.09300428 -0.7723699 0.23525952
0002e0 39 dd 2d be 2d 03 d1 3e 65 d3 19 3e 8c 22 07 bf
       -0.16978921 0.40822735 0.15022047 -0.5278709
0002f0 f1 33 45 be e8 06 56 bf d6 70 27 be 3c 7b d6 3e
       -0.19258095 -0.8360429 -0.16351637 0.41890895
000300 84 9c 70 be db 03 1c 3e 7a 65 4e be 86 39 48 3e
       -0.23497206 0.15235846 -0.20155898 0.19553193
000310 7a f8 f0 3e 2e ea 00 3f 6b 58 d7 be 17 7e a3 3e
       0.47064573 0.5035733 -0.42059645 0.31932136
000320 c4 fb 7b 3e ff 24 2f 3f 1a 6d 50 3e 66 9d bf be
       0.2460776 0.68415827 0.20354119 -0.37424773
000330 1c bc e5 3e 70 a1 2f be e8 4a a2 be 77 f5 c4 3e
       0.4487008 -0.17151427 -0.31697774 0.38468525
000340 b1 4b 80 3e 1f 83 31 bf fc 8f 3c 3f a2 58 18 3f
       0.25057748 -0.693407 0.736572 0.5951024
000350 ca 9b 8c 3e 4b 68 cb 3e 46 71 71 3d 88 91 24 bf
       0.27462608 0.39728007 0.058945917 -0.64284563
000360 89 5a c7 3e d3 44 0d be b0 22 21 3f 11 65 83 3e
       0.3893626 -0.13795786 0.62943554 0.25663045
000370 36 59 0c 3f 31 90 2d 3f 15 d0 2e 3e 12 d3 6e be
       0.54823625 0.67798144 0.17071564 -0.23322704
000380 4f 0e 10 3f cd 12 08 3f 58 81 ad 3e 74 e2 9b bd
       0.56271833 0.5315369 0.33887744 -0.07611552
000390 39 bf 99 3f b9 32 09 3f 74 04 0a bf 96 e4 3d 3f
       1.2011482 0.5359302 -0.53913045 0.7417692
0003a0 77 9c 2d 3f a4 06 e0 bd a3 eb a0 bf 07 af 16 be
       0.6781687 -0.109387666 -1.2571911 -0.14715205
0003b0 2d 49 bb 3e 31 2d 18 be 6f 93 d5 be e9 3f 92 3f
       0.36579266 -0.14860989 -0.41714045 1.1425754
0003c0 c2 ba d4 3e 3f 72 53 3f 63 eb 1a bf 40 4c 76 bf
       0.41548735 0.825962 -0.6051542 -0.962101
0003d0 d7 5d 29 be d6 3f 21 bf a7 b0 30 bf b3 8b 31 3f
       -0.16539703 -0.6298803 -0.6901955 0.6935379
0003e0 57 1f 85 3e 55 33 41 3d 32 0f 8e be 10 66 2b bf
       0.26000473 0.047168095 -0.27745968 -0.6695261
0003f0 85 b1 02 bf 92 08 99 be ef 01 84 bc 05 ba 25 3f
       -0.51052123 -0.2988935 -0.016114203 0.6473697

prescalers.Cases.bias f4 [32]
000000 af 8f 90 3e 28 00 45 3e 29 02 f9 3d 51 21 b8 bd
       0.28234622 0.19238341 0.12158615 -0.089907296
000010 4d 4a 2c 3e 57 1e 17 3f 31 75 01 bd 2b 7c b6 3e
       0.16825218 0.5903067 -0.031605903 0.35641608
000020 7a 87 ec 3e 18 7c 29 be 4d b0 e0 be 50 d3 06 bf
       0.4619711 -0.16551244 -0.43884507 -0.5266619
000030 2d 37 51 3e 5d 81 29 be 35 de 6d 3e d9 de c9 3e
       0.20431204 -0.16553254 0.23229297 0.39427832
000040 66 a2 22 be 02 f0 ca be 7f ca 73 bf 7a 8f d6 bf
       -0.15882263 -0.39636236 -0.9523086 -1.6762536
000050 27 56 f6 be 2a 9f 4b bf eb fc 6a bf bd db 8a bf
       -0.48112604 -0.7953974 -0.9179217 -1.0848309
000060 87 d2 97 be 12 5a 06 bf f2 79 08 3f 64 0e e8 3d
       -0.29652807 -0.52481186 0.53311074 0.1133087
000070 1e f9 3f bf c3 4c c9 be 97 72 59 be 99 1b fe be
       -0.749895 -0.39316377 -0.21235119 -0.4963043

prescalers.Cases.bias f4 [16]
000000 49 58 37 3f ae 70 37 bc f7 38 7b 3f 92 42 a5 3f
       0.7161909 -0.0111962985 0.98133796 1.2910941
000010 89 8a 2e 3f 70 cb c2 3f 81 e9 25 3f 6c 7e cc 3d
       0.6818014 1.5218334 0.64809424 0.099850506
000020 65 c9 d1 bd d6 32 da 3f 7f d7 86 3f 57 8a db 3f
       -0.10243491 1.7046764 1.0534514 1.7151593
000030 af 64 83 3e 04 de 65 3f 93 37 e3 3d ed dd b4 be
       0.25662753 0.89791894 0.11094584 -0.35325566

prescalers.Cases.bias f4 [16]
000000 63 39 4f 3c ce 1e 0f bd bf 4f 65 3e 93 db 0f 3f
       0.012647959 -0.034941487 0.22393702 0.5619442
000010 cd 3e ec 3d 9e ea c7 3d 6b 80 2c 3c dc 66 78 bd
       0.11535416 0.097615466 0.010528664 -0.06064497
000020 c9 9c a4 bd 40 ec 7e 3d a6 7f 99 be 1e 90 62 bf
       -0.08037717 0.062237024 -0.299802 -0.88501155
000030 54 bc 1e be 5a fe 0e bd 7e 41 55 3d 96 59 e0 3b
       -0.15501529 -0.034910537 0.05206441 0.006846617

prescalers.Cases.bias f4 [8, 1]
000000 0e 0a d9 3e 9a 2e d0 be c3 15 82 3f 7a 4b 86 3f
       0.42390484 -0.40660554 1.0162891 1.0491784
000010 be c7 a2 bf e4 e1 5e 3d d1 62 5b bf 49 cd 55 3f
       -1.2717206 0.054414645 -0.85697657 0.83516365

prescalers.Cases.bias f4 [8]
000000 6e 3c e1 bd 81 8d 9d 3e 21 b1 e3 3e c6 8b f9 3d
       -0.10997854 0.3077202 0.44471076 0.12184863
000010 bf 51 07 bf 8a 4a d2 be e8 f7 40 3c 25 e0 70 3d
       -0.5285911 -0.41072494 0.011777855 0.05880751

encoder_variable_selection.flattened_grn.resample_norm.mask f4 [3]
000000 9c 82 1c bf 00 c6 b2 3d e0 b1 c8 3e
       -0.61136794 0.08729172 0.39198208

encoder_variable_selection.flattened_grn.resample_norm.norm.weight f4 [3]
000000 57 66 7d 3f 7c 10 9e 3f 8e e4 12 40
       0.98984283 1.2348781 2.2951999

encoder_variable_selection.flattened_grn.resample_norm.norm.bias f4 [3]
000000 b3 3e 0f 3e eb 8b a4 3e 3f 0e 30 bf
       0.13988762 0.32138 -0.6877174

encoder_variable_selection.flattened_grn.fc1.weight f4 [3, 24]
000000 b3 92 ee 3e 7c a1 21 be 87 06 1e 3e fe 9f 0b 3c
       0.46596298 -0.15784258 0.15432177 0.008522032
000010 b3 a6 23 3d f8 03 8f 3e 7b 62 68 be 46 8a 7e be
       0.0399539 0.27932715 -0.22693817 -0.24857435
000020 2e 52 9c be a0 ef b1 3d 36 1e f8 bd 8c 0a ce bf
       -0.30531448 0.08688283 -0.12115137 -1.6096969
000030 d2 83 7b bd 7e b3 96 3e 7c 3e 05 3f e3 30 aa 3e
       -0.06140501 0.29433817 0.5204847 0.33240423
000040 9b 28 43 3f 6c 61 62 bf d1 ce 6a 3d 7e ad 11 3e
       0.76233834 -0.88429904 0.05732614 0.14226338
000050 89 c4 99 3e 59 29 a5 3d 49 d4 fc bd ae 4f 3b 3f
       0.30032757 0.08064527 -0.12345178 0.73168457
000060 d0 7e da be 7b 26 9d 3e e0 54 52 bf 4a 88 8c be
       -0.42674875 0.3069342 -0.8216076 -0.2744773
000070 22 a5 95 be 02 1c d2 3e 3f 2d 4a bf 03 1d b4 be
       -0.2922755 0.41036993 -0.7897529 -0.35178384
000080 46 9e 05 bf b5 31 81 3e 7e 7b 1a bf 68 19 88 bf
       -0.5219463 0.25233236 -0.60344684 -1.0632753
000090 23 b9 12 be 71 19 5e 3d da 48 94 3e a9 65 89 3e
       -0.14328437 0.05422348 0.2896183 0.26835373
0000a0 f2 2a 8e be 53 2f 60 3f 76 4e 90 bd 89 34 0d c0
       -0.2776714 0.8757221 -0.07046215 -2.2063315
0000b0 4b b5 54 bf c5 ba cc 3e 09 ec a6 3e e1 01 1b be
       -0.8308913 0.39986244 0.32601956 -0.15137435
0000c0 85 00 cf 3e 26 03 b4 be b8 82 31 bd a0 12 b1 3d
       0.40430084 -0.35158652 -0.043337554 0.086461306
0000d0 63 c6 ce 3e c9 50 20 3f af 31 95 ba 1c 03 c9 3e
       0.40385732 0.6262327 -0.0011382605 0.39260185
0000e0 3a 7e 32 bf 88 cd 96 3e 44 1d 4b 3b 56 e5 36 be
       -0.69723856 0.29453683 0.0030992785 -0.17860922
0000f0 ea dd f2 bd 5e 8d 8a 3e 9b e9 37 3f 8d 97 f4 3e
       -0.11858733 0.2706098 0.7184083 0.47771874
000100 53 7b 34 be 3b 35 9d 3f 06 1e c0 3e 16 17 24 c0
       -0.1762517 1.228187 0.37522906 -2.563909
000110 8e 88 84 bf 9d 1c 98 bd bd 2f 02 be 44 9b d3 bd
       -1.0354173 -0.074273326 -0.12713523 -0.10332349

encoder_variable_selection.flattened_grn.fc1.bias f4 [3]
000000 7c f5 bb be 59 5d c5 be 16 5a cf be
       -0.36710727 -0.3854778 -0.40498418

encoder_variable_selection.flattened_grn.context.weight f4 [3, 16]
000000 4b 3b 96 bd 8c 88 87 3d 4e fe 23 3d 68 6e f0 bd
       -0.07335528 0.06617841 0.040037446 -0.11739808
000010 0d c7 1f 3d 88 f8 fe 3d cd 17 26 b9 88 50 06 3d
       0.03900819 0.12449747 -0.0001583986 0.032791644
000020 ec 19 6e bd c1 93 44 3d ab 1d 4d bd e2 5c 6a bd
       -0.05813019 0.04799247 -0.05007712 -0.057217486
000030 1d b6 d5 3c a5 c5 db 3d a6 12 6e 3d a8 0e 75 3d
       0.026087815 0.10731057 0.058123253 0.05982843
000040 82 da fa 3b c2 66 36 bc 27 32 8a bc e7 8d 0a bf
       0.0076554427 -0.011132898 -0.016869618 -0.54122776
000050 da 9b a6 bc 3b ee 45 3f f8 45 ec 3b f8 e1 af bc
       -0.020337988 0.77316636 0.0072104894 -0.021470055
000060 d4 6d 06 3d 00 3f 0e be 79 3e dc 3b a1 a5 6f 3c
       0.032819584 -0.1389122 0.0067213145 0.014626891
000070 bc c1 17 bb 47 17 82 bd 96 00 9c bc 55 cd 8d bd
       -0.0023156246 -0.06352096 -0.019043248 -0.069239296
000080 48 f1 4e bd 3f b1 2f 3d da 2e 45 3c d5 55 a9 be
       -0.050523072 0.042893644 0.012035096 -0.33073297
000090 78 75 f1 3a 2b d9 0b 3f d4 b5 30 bd ab a8 56 3d
       0.0018421849 0.5462825 -0.043142155 0.052406948
0000a0 c9 ae b4 bd c2 38 b4 3e 19 68 64 bd 61 4b c4 bd
       -0.088224 0.35199553 -0.055763338 -0.0958469
0000b0 4d 3f 6e bc ba e9 ac 3d e1 b1 28 3d 39 af 2d 3e
       -0.014541459 0.08443017 0.041185264 0.16961373

encoder_variable_selection.flattened_grn.fc2.weight f4 [3, 3]
000000 d4 01 0b bf 39 1d ad bf 58 d1 a0 be 1c c9 05 bf
       -0.54299664 -1.3524543 -0.31409717 -0.52259994
000010 a3 41 8c bf 20 da 8b be 39 72 dc be c3 43 67 bf
       -1.0957531 -0.27314854 -0.43055895 -0.9033777
000020 aa 36 3d bf
       -0.73911536

encoder_variable_selection.flattened_grn.fc2.bias f4 [3]
000000 dd 07 aa 3e 47 94 0f 3c 2f d3 27 3c
       0.33209124 0.008763379 0.010243221

encoder_variable_selection.flattened_grn.gate_norm.glu.fc.weight f4 [6, 3]
000000 43 a1 06 3d 3a 33 b9 3d d7 e7 25 3f f6 52 e4 3d
       0.032868635 0.09042974 0.64806885 0.11148636
000010 73 5f a6 be 9b 35 29 3e fe 71 e9 be f7 59 76 bf
       -0.32494697 0.16524355 -0.45594782 -0.96231025
000020 91 13 38 bf 45 07 18 bf b2 97 0b bf 78 5f 15 3f
       -0.71904856 -0.5938609 -0.54528344 0.583488
000030 7a 7b 0a 3f ab fb fd be b0 36 b9 be 91 49 8f 3f
       0.5409466 -0.4960607 -0.36174536 1.1194326
000040 87 58 78 3f d6 59 4c 3f
       0.9701008 0.7982458

encoder_variable_selection.flattened_grn.gate_norm.glu.fc.bias f4 [6]
000000 f0 0e 16 3e e8 7c c7 3e b2 dd 29 bf a8 65 24 bf
       0.14654136 0.38962483 -0.66353905 -0.64217615
000010 6a 2b 82 bf 36 7a b5 3e
       -1.0169499 0.35444802

encoder_variable_selection.flattened_grn.gate_norm.add_norm.norm.weight f4 [3]
000000 e0 aa 93 3e d0 5c 58 bd 03 31 41 3e
       0.28841305 -0.052822888 0.18866353

encoder_variable_selection.flattened_grn.gate_norm.add_norm.norm.bias f4 [3]
000000 27 70 63 3d 3a a3 b3 be ed ee 1a 3f
       0.05552688 -0.3508547 0.6052082

encoder_variable_selection.single_variable_grns.SinWeekly.resample_norm.mask f4 [16]
000000 79 48 af 3d 9d 02 e3 3e e5 23 df 3e 8d d1 43 be
       0.08558745 0.4433793 0.43582073 -0.19122906
000010 eb 98 94 be 3f 6f 0f bf 7d b8 f3 3e de 96 7b bf
       -0.29022917 -0.56029123 0.4760169 -0.9827708
000020 c4 30 1f bf fe d4 2d be 43 ae 01 bf e5 42 17 be
       -0.62183785 -0.16975781 -0.5065653 -0.14771612
000030 e6 88 db 3e 87 f8 0e be 33 92 39 3f b4 c3 3d be
       0.42877883 -0.13961993 0.7248871 -0.18531686

encoder_variable_selection.single_variable_grns.SinWeekly.resample_norm.norm.weight f4 [16]
000000 5c f1 06 3f 6f 34 2f 3f d8 96 de 3f cf e6 2a 3f
       0.52712035 0.6843938 1.7389784 0.66758436
000010 60 2e 9a 3f 94 7a 7b 3f 60 e9 e4 3f 75 78 3e 3d
       1.2045403 0.98233914 1.788372 0.046501596
000020 c4 b3 f8 bc f0 32 18 3f 1e 56 90 3f 15 ad b0 3f
       -0.030359156 0.59452724 1.1276281 1.380282
000030 bf 71 97 3f 6f 4e 8e 3f 8f 9f 13 40 e0 be 0c 3f
       1.1831588 1.1117686 2.3066137 0.5497875

encoder_variable_selection.single_variable_grns.SinWeekly.resample_norm.norm.bias f4 [16]
000000 bc b7 25 3d 94 14 99 3d ca af a3 be c8 9a 19 3e
       0.040458426 0.07474628 -0.31970054 0.1500045
000010 25 74 f7 3d 72 46 92 be 23 d6 46 be 89 ee 24 be
       0.120827 -0.2856937 -0.19417624 -0.16106619
000020 5a a4 75 be a7 00 21 3d 2a 36 7d 3d f8 3a 02 3f
       -0.23988476 0.039307263 0.061819233 0.5087123
000030 33 cc 78 be 42 3e 4b 3e 09 a9 1b be 9a 9e 0b be
       -0.24296646 0.19847968 -0.152012 -0.1363472

encoder_variable_selection.single_variable_grns.SinWeekly.fc1.weight f4 [8, 8]
000000 ea 8c 18 3f 37 1f e9 bf 54 72 59 bf d3 3c 32 c0
       0.5959002 -1.8212651 -0.84940076 -2.7849624
000010 f4 0d a1 be bf 33 8b 3e d2 0e 0d 3e 7c 10 a2 3e
       -0.31455958 0.27187917 0.13775185 0.31653202
000020 a6 f6 c8 be 48 9c c0 3e c6 ec 48 bf b4 48 5b be
       -0.39250678 0.37619233 -0.7848629 -0.21414453
000030 de 14 1b bf 45 b9 b0 3f 63 de 48 c0 f4 e1 be bf
       -0.60578716 1.380654 -3.1385734 -1.4912705
000040 eb dc 96 bd 99 76 6f 3e f2 30 45 bf 19 3c fc 3e
       -0.073663555 0.23385085 -0.7702781 0.492646
000050 27 71 8f bf f6 99 fa 3e 3a f0 2e 3f 60 1b 66 3e
       -1.1206406 0.48945588 0.68335307 0.2247138
000060 ca 11 28 3e 3a f7 89 3d db 12 e2 be 75 63 48 3d
       0.16413036 0.06736608 -0.4415501 0.048922975
000070 bc 82 92 3e 0d 11 9e 3e 4f e5 25 3e 34 ca 05 3f
       0.28615367 0.30872384 0.16200756 0.5226166
000080 de 71 f9 be 50 ee 71 be 26 f3 9d 3f 6f 68 d2 bd
       -0.48719686 -0.23626065 1.2339828 -0.102738254
000090 16 28 8c 3e 5c e2 20 3f 09 9a 25 3f f0 e8 53 bf
       0.27374333 0.62845397 0.64688164 -0.8277731
0000a0 86 53 24 3f 2f 7a 71 be 42 b3 2c bf 60 09 1e 3d
       0.64189947 -0.23581766 -0.67461026 0.03858316
0000b0 2d 49 41 3e 06 4e 87 be 6c 45 28 be f1 bc 59 3e
       0.1887557 -0.26426715 -0.16432732 0.21263482
0000c0 87 51 66 bf c3 ea 96 bd 83 99 f8 bf 9e 72 00 3f
       -0.8996815 -0.07368996 -1.9421848 0.5017489
0000d0 55 e2 57 bf fa e8 1e 3f 7a 70 4f c0 c6 85 aa bf
       -0.8432973 0.62074244 -3.24124 -1.3322074
0000e0 ce c4 d0 3e 2e 1e 95 3c 9c a0 12 bf 0c 8e 51 3e
       0.4077515 0.018202867 -0.5727632 0.20464343
0000f0 a2 34 60 3f 5b b3 15 3f 45 a9 ae bc 7f 55 ff 3e
       0.8758031 0.584768 -0.021320948 0.49869916

encoder_variable_selection.single_variable_grns.SinWeekly.fc1.bias f4 [8]
000000 e7 82 27 bf 7d ad be be 4f db e5 3b da e0 95 be
       -0.65434116 -0.37241736 0.007014669 -0.2927311
000010 2b 43 a4 3d 1b d2 b4 bd ca 96 ff be d0 7a 25 be
       0.08020624 -0.08829137 -0.4991973 -0.1616013

encoder_variable_selection.single_variable_grns.SinWeekly.fc2.weight f4 [8, 8]
000000 89 6f a3 bf 81 ad 9d 3e 1e ca 89 bf 1b c4 41 3e
       -1.2768413 0.30796435 -1.0764806 0.18922465
000010 b0 47 e9 be 8f 3f 1c 3e cd 09 87 3f 6e 92 fe 39
       -0.45562506 0.1525862 1.0549866 0.00048555754
000020 ee ba c7 be 4d 18 62 be 4a c9 13 3e 21 23 6a 3d
       -0.39009804 -0.22079583 0.14432254 0.057162408
000030 7d 69 66 be 2c 37 8a 3d 6e 23 41 3f 07 96 9a 3d
       -0.22501178 0.067488045 0.75444686 0.07548147
000040 d8 20 54 3f 75 11 97 be d0 64 69 3e 17 0b 4d 3d
       0.82862616 -0.29505506 0.22792363 0.050059404
000050 e4 e9 c5 3e eb db 9c 3c 76 28 25 3f f3 80 48 3e
       0.38655007 0.019147834 0.64514863 0.1958044
000060 30 50 1a 3f 66 54 18 3f 57 e2 1a 3f 79 79 1c bd
       0.60278606 0.5950378 0.6050162 -0.038201783
000070 8d 0e 2f 3e e3 9d 62 bc 84 5c b6 3e 75 2a 4a be
       0.17095394 -0.013831588 0.3561746 -0.19742759
000080 8d cb 8d bf 02 69 8a 3f 3b ee 18 bf a7 f7 96 3c
       -1.1077744 1.0813296 -0.5973851 0.018428637
000090 19 c4 5d 3e 86 a0 9b 3d 74 e9 e2 3e 7a 80 0d be
       0.21656837 0.07598977 0.44318736 -0.13818541
0000a0 cb c3 87 3f be d5 13 bf fa e4 65 be 7a dc ab 3c
       1.0606626 -0.5774802 -0.22450629 0.020979155
0000b0 e6 af 0d bf 0e 66 8c 3d d1 ec 06 bf 49 f1 8b be
       -0.55346525 0.06855403 -0.52705103 -0.27332523
0000c0 ab 3a 4e 3e 22 90 4c 3e 8f 09 ca 3e 1f 4d 74 bd
       0.20139568 0.19976857 0.39460418 -0.05964386
0000d0 fa 1c c1 3e 3c c5 b8 bd 38 ad 58 3f 39 d1 20 3e
       0.3771742 -0.090219945 0.8463931 0.15704812
0000e0 56 9a 62 3f bd 32 74 bd cd 47 ff 3e ad c3 08 3d
       0.8851675 -0.0596187 0.49859467 0.033389736
0000f0 da e3 15 3f 94 39 4e 3d 8c 3c 77 3f 7a 33 ca bd
       0.585508 0.05034788 0.9657676 -0.098730996

encoder_variable_selection.single_variable_grns.SinWeekly.fc2.bias f4 [8]
000000 d0 d7 e3 3d 83 58 52 be b2 56 65 3e f0 5d 0d 3f
       0.11125147 -0.20541577 0.22396353 0.5522146
000010 50 7d 68 3e ca d9 c6 3d 27 ac d5 3e 70 6b c1 3e
       0.22704053 0.09709509 0.41732904 0.3777728

encoder_variable_selection.single_variable_grns.SinWeekly.gate_norm.glu.fc.weight f4 [32, 8]
000000 ac d8 d6 3e bc ac a1 3d f5 f3 1c bb f2 12 fc 3d
       0.41962183 0.078942746 -0.002394912 0.12308301
000010 36 b8 81 3e 8c c9 19 bf 89 1b 22 be 1d 3b b0 3c
       0.25335854 -0.6007316 -0.15830816 0.021512562
000020 95 6c 3e 3e 43 60 b0 3d 49 e0 d0 be e1 b2 a6 be
       0.18596108 0.086121105 -0.40796116 -0.3255835
000030 61 59 03 3f 01 7b b5 3d 68 ad a4 3d 52 a0 e1 be
       0.51308256 0.08861352 0.08040887 -0.44067627
000040 49 c2 94 3e 5a e8 65 3e c1 2f e3 3d 16 49 96 3d
       0.29054478 0.22451916 0.11093093 0.07338159
000050 9b 64 01 3d 4d 9b 94 bd af 79 22 3e 11 4b 81 3e
       0.031590085 -0.07256184 0.15866731 0.25252584
000060 31 cb 8d 3c 55 7e 9a 3b fa 55 e0 bd 36 ff d8 bd
       0.017308803 0.004714767 -0.10953899 -0.105955526
000070 5e 0d 2f 3e 5d 78 8f be 18 64 91 bd 1d 8b d4 3e
       0.17094943 -0.28021517 -0.070991695 0.41512385
000080 f4 1f 0f 3f 21 4e 07 3f 86 79 68 3e 11 ce 41 3f
       0.5590813 0.5285359 0.22702608 0.7570506
000090 ec 46 16 3f 0f 76 27 bf 24 85 79 3f a1 65 0c 3f
       0.5870197 -0.6541452 0.9746878 0.54842573
0000a0 27 55 2e 3e 8b 84 b9 be 85 95 66 be ef 9c f3 bb
       0.1702467 -0.36233935 -0.22517975 -0.0074344794
0000b0 98 36 71 be 18 3e 46 bd d9 40 35 be 5c 6a 21 3e
       -0.23555982 -0.04839906 -0.17700519 0.15763229
0000c0 c9 d1 3d 3f fd 43 31 3f 0e ab 61 bf 90 32 3c bf
       0.7414823 0.69244367 -0.88151634 -0.7351465
0000d0 e7 2d 27 3f db aa 79 bf ad 87 c6 be 33 b8 52 bf
       0.65304416 -0.9752633 -0.38775387 -0.82312316
0000e0 a1 16 69 3e 05 9e d5 bb aa ae 31 3d 74 db 16 bf
       0.22762538 -0.0065190815 0.043379463 -0.5892861
0000f0 27 ce 9c 3e 64 1a ca be e4 bd e9 bc 7e c1 b3 bd
       0.30626032 -0.3947326 -0.02853293 -0.0877714
000100 13 b0 45 3f e6 bb ff 3e ca 07 0f 3f 27 3b 54 3f
       0.7722179 0.49948043 0.5587126 0.8290276
000110 df 2d 05 3f 9d 66 45 bf 7b 25 d6 3e a7 86 be 3e
       0.5202312 -0.771097 0.4182547 0.37212107
000120 21 63 35 3c ca da aa bd 3b 11 0d 3e 65 5d 46 3d
       0.011070997 -0.08342512 0.13776104 0.04842891
000130 34 a2 1d 3e cf 6a 26 bf 0f 61 be 3d ce 66 10 bd
       0.15393907 -0.65006727 0.09295856 -0.035254292
000140 40 e1 e8 3d 4b 5e 20 3e 55 c5 00 3f fb ee 81 3e
       0.11371088 0.1566097 0.50301105 0.2537764
000150 02 f1 a7 3d f6 db 12 bb be 9a 2a 3e af 47 8f 3e
       0.082002655 -0.002240894 0.16660592 0.27984378
000160 18 51 d6 3e 03 12 99 3e 53 70 39 3f a6 49 2b 3f
       0.41858745 0.29896554 0.7243702 0.66909254
000170 87 59 c6 3e 12 ec 01 bf 98 fc 38 3f e1 f9 57 3f
       0.3874018 -0.5075084 0.7226043 0.8436566
000180 0b 65 84 3f db 8b 8d 3f f1 6e 62 bf 57 37 af be
       1.0343336 1.1058306 -0.88450533 -0.34221908
000190 05 d0 78 3f 7b ad 79 bf e4 2e 65 3d 7e bb 72 bf
       0.9719241 -0.97530335 0.05595292 -0.9481734
0001a0 31 1b 92 be d3 a3 0f bf 6a b9 d0 be 7a be 25 bf
       -0.2853637 -0.5610935 -0.4076646 -0.6474377
0001b0 bf 46 e9 be 93 11 1d 3f 96 7c 28 bf d3 5d 1f bf
       -0.45561787 0.6135494 -0.65815103 -0.6225254
0001c0 4d 3e dd be d7 9f 31 bf 0b dc a4 3e ea 08 1f bf
       -0.43211594 -0.6938452 0.3219913 -0.62122977
0001d0 c2 98 a6 be 49 04 3d 3f 76 f9 97 bf 10 52 d2 be
       -0.3253842 0.73834664 -1.1873004 -0.41078234
0001e0 5a fd 87 3c 32 d4 f2 be 3f 15 10 be 7f 27 b3 be
       0.0166003 -0.47427517 -0.14070605 -0.3499107
0001f0 ef b8 86 be a4 fc ac be c2 67 b8 3c 9a e9 73 be
       -0.26312968 -0.337865 0.022510413 -0.2381958
000200 db 63 c9 3b 3f cb c5 be dc 93 06 be 66 10 ff 3e
       0.006145937 -0.38631627 -0.13142341 0.498172
000210 e6 b7 78 3e 3a 52 ee be 8e 10 d6 be bc ff 38 bf
       0.24288902 -0.4654711 -0.41809505 -0.7226522
000220 6f 99 84 3d 6d c8 17 bf d9 d2 0d bf 36 c8 10 bf
       0.06474578 -0.592902 -0.55399853 -0.565555
000230 ec 00 0b 3d 86 9c 39 3e 64 ce 30 bf 55 55 49 bf
       0.033936426 0.18126115 -0.6906493 -0.7864583
000240 0d 8c 16 3e 99 a9 2b be 14 e9 35 bd 8e 2f e1 be
       0.14701863 -0.16763915 -0.044411734 -0.43981594
000250 98 69 a3 3d 86 33 61 be 5a 63 57 3e 4f 10 4a be
       0.07979125 -0.21992311 0.21033993 -0.19732784
000260 43 94 bd 3e aa 31 dc 3e bb 8d a0 3b ba 0e c7 be
       0.37027177 0.4300664 0.004899708 -0.38878423
000270 74 9b aa be e9 7c 5e 3e 34 11 e8 bc b7 b5 cb be
       -0.33321726 0.21727337 -0.028328516 -0.39787075
000280 a5 51 1c 3f 54 13 95 3f ed 64 da be 2c 43 c3 3e
       0.6106208 1.1646523 -0.42655125 0.38137186
000290 f5 3a 0e 3f d1 0f 08 bf ec df 60 3f 3d f1 1c 3d
       0.5555871 -0.53149134 0.8784168 0.038316
0002a0 ae af 87 3d 8f e9 af 3e 57 5c 82 3e c2 0b 17 3e
       0.06625305 0.3435788 0.25461075 0.14750579
0002b0 8b 8e c6 3e c6 46 8e be e6 8d b7 3e 1d f6 f8 be
       0.38780627 -0.2778837 0.35850447 -0.4862527
0002c0 a2 3d 68 bf 77 5e 18 bf ba b7 a7 3e f7 e5 2f 3e
       -0.90719044 -0.5951914 0.3275736 0.17177568
0002d0 90 3b 25 bf 73 84 87 3f 2a 91 1f bd 33 74 c1 3e
       -0.6454401 1.0587295 -0.0389568 0.37783965
0002e0 9a e7 92 bd 1c ce 43 3d 75 2b e7 bd ed a0 f0 be
       -0.07173081 0.047803983 -0.11287586 -0.46997777
0002f0 0c a7 e2 3c 71 66 28 be 96 6f b6 bd db 8d 9d be
       0.027667545 -0.16445328 -0.08908002 -0.3077229
000300 cd 67 b1 3e b8 63 b2 3d 82 e9 58 3e 95 2f 39 bc
       0.34649506 0.08710426 0.21182826 -0.011302848
000310 f5 f8 a8 3e 4f f3 97 be ea c3 f1 3c c6 24 10 3e
       0.3300244 -0.29677817 0.029512364 0.14076528
000320 d7 d2 84 3e d5 38 cd be 68 80 47 be 80 62 22 3e
       0.25942108 -0.40082422 -0.19482577 0.15857887
000330 f4 d6 6a 3e d9 6d 1c bd 3b ea e4 bd 78 8b e3 3d
       0.2293356 -0.038190696 -0.111774884 0.11110586
000340 fe a7 00 3f aa e1 b4 3b bf 83 1b bf e9 f0 35 bf
       0.50256336 0.0055200653 -0.60747904 -0.71070725
000350 80 36 10 3f 97 72 b2 3d 75 7f 39 bf c4 2f e6 be
       0.5633316 0.087132625 -0.7246011 -0.44958317
000360 1f 69 b6 3e de e4 36 3d e9 22 18 be 5f 61 b0 3d
       0.35627076 0.04465186 -0.14857067 0.08612322
000370 1f 0c fd 3e 69 f9 ff be 5d 53 a0 3d 66 f6 8f bd
       0.4942331 -0.49994972 0.078284 -0.07029419
000380 86 1c 85 bf 5f c6 53 bf 4a e3 74 3f f9 e9 be 3e
       -1.039933 -0.82724565 0.95659316 0.37287882
000390 97 96 8f bf 2c a3 89 3f 68 bc 8c be cb 3b 94 3f
       -1.1217831 1.0752921 -0.27487493 1.1580747
0003a0 ff e9 c0 3d b6 a8 86 3f 7c b7 b3 be 43 17 fc 3e
       0.09419631 1.0520236 -0.35100925 0.49236497
0003b0 52 40 13 3f 21 fe 8b be 73 e1 cc 3e 10 0a 83 3e
       0.5752002 -0.27342322 0.40015754 0.25593615
0003c0 53 5f ed bc 77 08 14 3f 2d 10 c4 3d fd 57 de 3e
       -0.028976118 0.57825416 0.09573398 0.43426505
0003d0 58 ea 07 be 77 51 03 bf e8 c4 57 3f 9e aa c2 3f
       -0.13272989 -0.5129618 0.8428483 1.5208318
0003e0 d1 cf 66 3e 90 ef 3f 3f b5 fe c2 be ea cf 27 3e
       0.22540213 0.7497492 -0.3808495 0.16387907
0003f0 b8 9c e1 3e 4e b5 ac bc a5 28 49 3d bb 6c 4c be
       0.4406488 -0.021082547 0.049111027 -0.19963352

encoder_variable_selection.single_variable_grns.SinWeekly.gate_norm.glu.fc.bias f4 [32]
000000 cd 99 a1 3e 58 35 a7 3e 92 28 a9 be ad 8d 8e 3e
       0.31562653 0.32657886 -0.33038765 0.27842465
000010 2d 66 fe 3e de 8c 40 be eb 8b c5 be 8f 9b 2b bd
       0.4968733 -0.18803737 -0.3858331 -0.0418964
000020 e3 2a 7d bd d6 c5 be bc cf 70 0e be 2c af fb 3e
       -0.061808478 -0.023287695 -0.1391022 0.49157083
000030 46 47 4f bf 00 da 01 bf 95 6b 5e bf 31 9e 19 be
       -0.8096813 -0.50723267 -0.8688291 -0.15001751
000040 f6 5d f9 bf 09 59 d7 3d f4 99 26 3e 81 99 12 c0
       -1.94818 0.10515029 0.16269666 -2.2906191
000050 c0 7d ed 3e 46 14 90 bf 36 5b 39 3e ef 99 a8 be
       0.46385002 -1.1256187 0.181012 -0.32929942
000060 7b f1 cd 3e 0d 9b 15 c0 d9 15 08 bf e3 16 0c be
       0.40223297 -2.3375885 -0.53158337 -0.13680606
000070 ca 53 3d bf 40 16 be 3e ba d0 63 3f c5 2b 6d be
       -0.73955977 0.3712635 0.88990366 -0.23161228

encoder_variable_selection.single_variable_grns.SinWeekly.gate_norm.add_norm.norm.weight f4 [16]
000000 27 e2 6b 3d ee 3b 1c 3f 77 06 db 3f bd 24 9d 3e
       0.057588723 0.61028945 1.7111348 0.30692092
000010 66 7b 58 3f e0 41 9b 3e e9 59 b3 3f b9 5b 9d 3d
       0.8456329 0.30323696 1.4011813 0.0768351
000020 d5 aa 83 3f cd 4b 22 3e ed 62 9a 3f 76 e0 f1 3f
       1.0286509 0.15849228 1.206144 1.8896625
000030 15 7e 4f 3f e5 45 89 3f be 57 ba 3f 8d 7a 1c 3f
       0.8105176 1.0724455 1.4558027 0.611245

encoder_variable_selection.single_variable_grns.SinWeekly.gate_norm.add_norm.norm.bias f4 [16]
000000 5f 44 3f bd b0 c6 31 3e c3 03 e9 3d cc 5e b2 3e
       -0.046696063 0.1736095 0.113776706 0.3483795
000010 90 f1 76 ba c4 3d 9a be 33 94 54 3d f6 a2 bc bd
       -0.0009420151 -0.30125248 0.051899146 -0.0921077
000020 bb 92 8f 3d 5f 0d d7 bd 04 c3 b2 be c5 86 6f 3e
       0.070104085 -0.10500597 -0.3491441 0.23391254
000030 07 73 37 3e 70 64 03 3e 08 09 d0 bd d3 c9 0c 3e
       0.17914973 0.12831283 -0.101579726 0.13748865

encoder_variable_selection.single_variable_grns.VaccinationFull.resample_norm.mask f4 [16]
000000 03 52 4a bf 44 3f 8e bf 67 3b a5 3d 69 40 01 c0
       -0.7903139 -1.1113057 0.08067971 -2.0195563
000010 8b b2 bd 3f bd 56 91 be 20 34 b2 bf a8 a1 f6 3e
       1.4820112 -0.2838649 -1.3922157 0.4817021
000020 db b1 73 be c9 b5 7d bf 7b 38 20 bf 83 f9 2b 3f
       -0.23798315 -0.9910551 -0.6258618 0.671776
000030 0d 2f 03 bf dc 34 29 3f da 82 d9 be 79 ba af be
       -0.5124367 0.6609628 -0.42482644 -0.34321955

encoder_variable_selection.single_variable_grns.VaccinationFull.resample_norm.norm.weight f4 [16]
000000 ed a2 bb 3e 22 ca 53 3f ca b6 a1 3f 33 6b 5d be
       0.3664774 0.82730305 1.2633908 -0.21622925
000010 b0 41 34 40 e7 33 8d 3f ee e3 fb be ab ed f8 3f
       2.8165092 1.1031464 -0.49197334 1.944753
000020 35 0d 85 3f de 1c ce 3d 6c c1 96 3d b5 87 ed 3f
       1.0394655 0.100641 0.07361111 1.855704
000030 65 08 22 3f 55 8c e3 3f 94 f9 ca 3e c3 07 69 3f
       0.6329406 1.7777201 0.39643538 0.9102747

encoder_variable_selection.single_variable_grns.VaccinationFull.resample_norm.norm.bias f4 [16]
000000 0c 81 63 bd 8c da 76 3d 81 06 09 3f 70 56 82 3e
       -0.05554299 0.060267016 0.5352555 0.25456572
000010 fc d1 39 3e 1a 07 3e be f9 a5 05 bf 9b 84 73 3e
       0.18146509 -0.18557397 -0.5220638 0.23781054
000020 b9 8a 85 bd 6e 71 a6 be 0c 8b 2e 3e 5b 03 5d be
       -0.065206 -0.32508415 0.1704523 -0.21583311
000030 e9 f3 a2 3e d3 89 1a bf 63 ed 31 3f 53 a2 e4 3d
       0.31826714 -0.60366553 0.6950285 0.111637734

encoder_variable_selection.single_variable_grns.VaccinationFull.fc1.weight f4 [8, 8]
000000 16 eb 40 3e b9 d0 0a be f5 da 62 bf 7e 10 fe bd
       0.18839678 -0.13556184 -0.8861535 -0.124054894
000010 00 1b 8c 3f 4c 5a fe 3d 59 7a 12 bf e7 2a da bd
       1.094574 0.124195665 -0.5721794 -0.10652714
000020 c1 83 8b 3d 18 97 a9 be e6 b8 67 bf 43 ff 85 bf
       0.068122394 -0.33123088 -0.9051651 -1.0468525
000030 8d 73 91 3d fd a0 81 3c 4b a5 9c 3f 9a c6 79 3d
       0.07102118 0.015823836 1.2237943 0.060980417
000040 9b bf 42 3e 4b bf 4d bf ea 3a e8 bd 73 a4 33 be
       0.19018404 -0.80370015 -0.11339362 -0.17543201
000050 0c 1c 60 be 18 88 c2 3e 4e 08 70 be d1 5d 01 bf
       -0.21885699 0.37994456 -0.23440668 -0.5053378
000060 61 78 b1 be 1d ae 42 bf fb 14 13 bf c4 30 85 3e
       -0.34662154 -0.76046926 -0.5745389 0.26013768
000070 9f 16 3a bf 80 f2 34 3f 68 72 52 3e 52 8a 8c 3d
       -0.7269077 0.70682526 0.20551455 0.0686232
000080 f3 7f f9 bd f2 00 f3 3e 32 69 86 be b8 bb dd bd
       -0.121826075 0.4746166 -0.26252133 -0.1082682
000090 1a 6d 8c 3d 5f 7e a7 3f 60 6f d8 3f 1e e3 d0 3f
       0.06856747 1.308544 1.6908989 1.6319311
0000a0 73 1b eb bd eb e3 49 3f 4b 86 f5 3e 0f 8a 7b be
       -0.11479845 0.788634 0.4795402 -0.24564384
0000b0 99 b6 bd bf 15 dc 67 bf 79 90 5e bf d0 1f e2 bf
       -1.4821349 -0.90570194 -0.869392 -1.7665958
0000c0 d5 08 4c bf 78 b2 bf 3e 4f 15 fd bd 95 8b 19 3e
       -0.79700977 0.37440848 -0.1235758 0.14994653
0000d0 c9 1e a7 3f 36 f3 f8 bc 16 ef 9e 3e 35 da 54 3e
       1.305627 -0.03038941 0.31041783 0.20786364
0000e0 f9 62 bb 3e 3e ea aa bd d4 f1 27 bf 25 ef a5 be
       0.36598948 -0.083454594 -0.65603375 -0.32409015
0000f0 bc 97 da be f1 df 7a bf 60 79 14 be 36 e9 aa bf
       -0.4269389 -0.9799796 -0.14499426 -1.335242

encoder_variable_selection.single_variable_grns.VaccinationFull.fc1.bias f4 [8]
000000 8b ae d6 3e 4b 96 b2 3d 12 1a 33 bc ce c7 60 bc
       0.4193004 0.08720072 -0.010931509 -0.013719512
000010 c8 7f f1 bd 00 3d 1b bf da 7a e6 3d dd 37 83 be
       -0.117919505 -0.60639954 0.11253901 -0.25628558

encoder_variable_selection.single_variable_grns.VaccinationFull.fc2.weight f4 [8, 8]
000000 71 48 99 be cb 91 2f be 5e c6 2f 3e 2d 1e ac be
       -0.2993808 -0.1714546 0.17165515 -0.33616772
000010 37 de 94 bf bd 8a fe 3e 77 61 25 bf 33 85 d1 bd
       -1.1630315 0.49715224 -0.64601845 -0.10230484
000020 06 b0 48 3f 93 b5 8c bf fa f5 57 3d e0 41 c9 bd
       0.7839359 -1.0992912 0.052724816 -0.09827018
000030 1c 5b 80 bf e1 bb 38 bf 9f 0b 91 3e 56 c8 b1 bd
       -1.0027804 -0.7216168 0.2832918 -0.08680789
000040 9d d4 b2 bf 3b 5c 63 3d aa 47 cb bd 92 0e 02 3f
       -1.3971134 0.05550788 -0.09925778 0.5080348
000050 54 c7 ba be a4 b6 40 3f 8d ed ae 3e 3b e7 bf 3e
       -0.364802 0.7527869 0.34165612 0.37481102
000060 87 83 16 3e 72 5e 95 3e 74 29 0e bd aa 58 e3 be
       0.14698611 0.2917362 -0.0347075 -0.44403583
000070 a2 48 b0 3f 80 09 ac be 5b 63 d5 bd fc 48 85 3d
       1.3772166 -0.33600998 -0.10419341 0.06508061
000080 9a 4c 0b be f2 d5 24 be f7 b7 e1 3d 3c 43 30 3a
       -0.1360344 -0.16097239 0.11021417 0.0006723886
000090 01 0d d1 3e 99 2a 41 3f 0c 30 2e bf 47 9a 25 3f
       0.40830234 0.75455624 -0.68042064 0.64688534
0000a0 46 2a b6 bd cb 99 8c 3f f7 af 17 3e f7 2f bb 3e
       -0.08894782 1.0984434 0.14813219 0.36560032
0000b0 38 ab 73 3f ab 25 ae 3e ab 3a 5e 3d a6 eb 28 bf
       0.95183134 0.34013113 0.05425517 -0.6598457
0000c0 62 14 03 3f 80 37 50 be b7 bc 45 3e 04 01 20 3f
       0.51202977 -0.20333672 0.1931027 0.6250155
0000d0 99 18 80 3e 30 ce 50 bf 4f a2 22 be d7 82 5c 3e
       0.25018767 -0.8156462 -0.15882228 0.21534286
0000e0 b0 ca 38 3e 67 7e ec bd be 14 02 3d b6 bb ee 3e
       0.18046069 -0.11547547 0.031758063 0.46627587
0000f0 18 b9 24 bf be 4e 56 bf 62 92 4d 3e 9c d9 35 be
       -0.6434493 -0.837139 0.20075372 -0.17758793

encoder_variable_selection.single_variable_grns.VaccinationFull.fc2.bias f4 [8]
000000 26 ab 9e be cb ad 1c 3f f7 4d 28 be 8d 9a a0 bd
       -0.3098995 0.6120269 -0.16435991 -0.07841978
000010 6d 56 9a bd 74 7e c3 bd 03 33 02 3f a7 63 10 3f
       -0.07536016 -0.095456034 0.5085909 0.5640206

encoder_variable_selection.single_variable_grns.VaccinationFull.gate_norm.glu.fc.weight f4 [32, 8]
000000 2c 41 8c be 5d e9 4b 3f 8b 10 28 bd 23 c4 6e 3e
       -0.27393472 0.7965296 -0.0410314 0.23317008
000010 22 cb 24 bf 8b c8 c9 3e 97 eb 05 3f 66 69 6a 3e
       -0.64372456 0.39410815 0.52312607 0.22891769
000020 c2 a8 1d bf 64 f2 ed 3d 91 48 33 bf 7c 8c 00 3f
       -0.6158563 0.11618498 -0.700326 0.5021436
000030 bb e4 35 be 7b e8 10 3f fe b5 19 3f f4 78 88 bd
       -0.17763035 0.5660474 0.60043323 -0.06663695
000040 ab be c3 3e ac 72 53 3e ec 58 ac 3e 58 c1 de bd
       0.38231406 0.20649213 0.33661592 -0.10876721
000050 13 a5 98 3c 61 bb db bd 62 a2 c0 be 8a 83 88 3e
       0.018633401 -0.10729099 -0.37623888 0.26662856
000060 c6 3a a7 bf 56 b6 b3 3e 5b f3 94 bf 6a d8 6a 3f
       -1.3064811 0.3510005 -1.1636766 0.9173647
000070 d6 aa a2 bf 99 41 29 3f 54 9e a9 3f bd b9 86 3f
       -1.2708385 0.6611572 1.3251443 1.0525433
000080 7e 1f 94 3f 63 85 a3 3e 0c e3 86 3f 77 81 c1 bf
       1.1572111 0.31937703 1.0538039 -1.5117635
000090 9b d3 24 3f 5f 0f 81 bf 10 fb 78 bf 9f bc 1e 3e
       0.64385384 -1.0082816 -0.9725809 0.1550164
0000a0 f7 9a eb 3e 82 9f 3d 3e 8a 7c 14 3f 3c f6 c8 be
       0.46016666 0.18517879 0.5800253 -0.39250362
0000b0 58 31 9a 3e 51 7a c8 be 28 a2 0a bf 70 d2 1d 3e
       0.3011577 -0.3915582 -0.5415368 0.15412307
0000c0 1d 29 cc be 49 5a c5 be d1 9f 30 be a1 a2 d3 3e
       -0.39875117 -0.38545445 -0.17248465 0.41335014
0000d0 33 ef b0 bd 63 71 58 3f bc 5a e2 3d d3 20 c8 3b
       -0.08639374 0.84548014 0.110524625 0.0061074286
0000e0 f3 24 31 be 81 e8 52 3f c3 10 e5 bd 96 31 de be
       -0.17299251 0.8238602 -0.11184838 -0.43397206
0000f0 10 1f 57 3e fa 21 23 bf e5 81 a4 3e c1 16 61 3e
       0.21007943 -0.6372372 0.32130352 0.21981336
000100 a4 6a 13 bf 76 6d 75 3f 1d f1 13 bf c2 fd c9 3e
       -0.57584596 0.9587015 -0.57789785 0.39451414
000110 c6 4c 78 bf d9 47 17 3d cf 3c 6e 3f 5e b6 89 3f
       -0.96992147 0.036933754 0.93061537 1.0758779
000120 69 e2 1e bb 52 5f 10 3f 66 4e 95 bc 45 96 a4 be
       -0.0024243838 0.5639545 -0.01822586 -0.32145897
000130 66 22 58 be 2f f3 90 be 6f 4f 54 be 0e 5b 3e 3e
       -0.21106872 -0.28310534 -0.20733427 0.18589422
000140 f2 c6 e4 3c 91 8b de 3e 96 0b 9e 3e 71 99 0b bd
       0.027926896 0.43465856 0.30868214 -0.03408188
000150 57 7e d9 3e fe 58 1c be 4b 16 dc 3d 6c 7c 4d 3e
       0.42479202 -0.15268323 0.107464395 0.20066994
000160 ee cc cf be 1f 1b 4d bf 05 29 29 3e a7 0e 2a 3e
       -0.40586036 -0.8011951 0.16519554 0.16607152
000170 97 93 4d 3e a6 0c d7 3e 6d f5 54 bd eb b8 80 be
       0.20075832 0.42001837 -0.05199187 -0.2514108
000180 9d 34 b4 be 24 de 2b 3f 2b 59 c0 be 77 34 a5 be
       -0.3519639 0.67135835 -0.3756803 -0.3226659
000190 44 1a 1c be 8a f9 a3 be 31 fe 97 3e 6c 48 cc 3e
       -0.15244395 -0.3202632 0.2968612 0.39899004
0001a0 94 17 98 be 2a 9d d4 bf 90 ae 0b bd 2d 68 f4 3e
       -0.2970549 -1.6610463 -0.034102023 0.4773573
0001b0 72 67 64 bd e5 94 1e 3f 87 d6 37 3d a9 9d 2f be
       -0.055762716 0.61945945 0.044882324 -0.17149986
0001c0 c0 c7 23 bf 03 46 5d 3f b5 a4 cc be 1a 12 e9 3e
       -0.6397667 0.86434954 -0.39969411 0.45521623
0001d0 47 04 04 bf 93 84 f5 bb 46 45 08 3f ff a8 69 3f
       -0.51569027 -0.0074926107 0.532307 0.9127349
0001e0 27 7a 3f be 7e 67 11 bf d3 8a 22 3e 94 21 f8 3d
       -0.18698941 -0.5679854 0.1587327 0.121157795
0001f0 d9 a7 3d 3e 10 06 38 be af 63 9d 3d ee 35 bd be
       0.1852106 -0.17971063 0.07685029 -0.36955208
000200 8d 42 2c 3f a3 ad 2c 3e 9c 28 8d 3f e6 8c 90 be
       0.6728905 0.16863112 1.1028018 -0.28232497
000210 e1 fa 42 bd 9b 15 c9 be d7 92 6f bf d3 1f 1e bf
       -0.047602538 -0.39274296 -0.93583435 -0.6176731
000220 0a 6e ab bd 2c 03 0f c0 91 b8 62 3e 1f 5b 8b 3e
       -0.08370598 -2.2345686 0.22140719 0.27217957
000230 c8 c7 fe 3d 02 89 5a 3f 66 3a 73 be 10 92 23 bf
       0.12440449 0.8536531 -0.23752746 -0.6389475
000240 56 32 b3 be 71 7e df be ca 46 2c be 91 4a 27 3f
       -0.3499934 -0.43651155 -0.16823879 0.65348154
000250 10 77 00 be 93 c4 9e 3f 3a 83 f6 3e e9 ac b7 3e
       -0.12545419 1.240374 0.48146993 0.35874107
000260 6b 08 e0 3e 62 2f 27 3e e4 f3 8f 3e b4 ba 81 bf
       0.43756422 0.16326669 0.2811576 -1.0135102
000270 4b 1b 97 3e 72 32 19 bf c9 4e a2 be 77 9e 44 be
       0.2951301 -0.598426 -0.31700733 -0.19201075
000280 07 48 0f bf 33 ac 0a be b0 65 ac be 83 45 00 40
       -0.5596928 -0.13542251 -0.3367133 2.0042427
000290 ff ff e4 be a3 35 ad 3f a3 ad d9 3d b1 3b 2d 3e
       -0.4472656 1.3531994 0.10628822 0.16917302
0002a0 7e 09 d7 3e 61 07 72 be 22 1a bb 3f 2f c4 20 bf
       0.4199943 -0.23635627 1.461735 -0.6279935
0002b0 f2 a5 52 3f 17 2c bb be de ec b2 bf 2e 5f 8b be
       0.8228446 -0.36557075 -1.3978536 -0.27221054
0002c0 47 50 a1 3f dc 18 b3 3e 1f 53 da bd 72 55 ac bd
       1.2602624 0.34979904 -0.10660385 -0.08414735
0002d0 dd 37 7b 3e e1 df d7 bb cf 2a b5 bd 23 cf a5 be
       0.24533029 -0.0065879677 -0.08846056 -0.32384595
0002e0 38 c2 94 3e 4a 44 07 3f 14 23 89 3e 88 4d 96 be
       0.29054427 0.52838576 0.26784575 -0.29356027
0002f0 33 7e 76 be 95 97 f8 bf fe 6d 14 3d 9c 45 25 3e
       -0.24071579 -1.9421259 0.03623771 0.16139835
000300 6d 84 ac 3c 9f 61 43 be d0 ca 6b 3f 35 93 4a be
       0.02105924 -0.19080208 0.9210634 -0.19782718
000310 77 15 37 3f 47 ca d3 be f5 84 8d be b7 06 46 bf
       0.7151713 -0.41365263 -0.276405 -0.77353996
000320 a4 ba 55 3f 2d bb 50 be c1 f3 65 3f c5 79 d2 be
       0.83487916 -0.20383902 0.89825064 -0.41108528
000330 a0 b7 37 3f 3b 73 5f be 9a 01 6c bf 25 ff 41 be
       0.71764565 -0.218213 -0.92189944 -0.18944986
000340 74 cf 76 3f b2 7a 90 3d 62 5b c1 3f 68 8d 07 bf
       0.964103 0.07054652 1.5106013 -0.52950144
000350 bf e9 bf 3f 72 ce 9d be d7 60 da bf 62 f6 48 bf
       1.4993209 -0.30821568 -1.7060803 -0.7850095
000360 5d 91 54 3f 08 f4 72 3e a2 9d b4 3e f0 70 b6 bf
       0.83034307 0.23725903 0.35276514 -1.4253216
000370 09 6b fa 3d 5f 1d 9e bf 11 9e bb be b9 63 a9 be
       0.122274466 -1.2352713 -0.36644033 -0.33083895
000380 90 e8 fb 3e ff 79 6b 3f 19 64 46 3d 3b 2d cb 3e
       0.4920087 0.91983026 0.048435304 0.39682946
000390 7a e0 19 bf ea 28 0a be a4 61 b0 bd 52 7a 2d 3f
       -0.6010815 -0.1349217 -0.086123735 0.6776477
0003a0 d9 d1 04 3f 81 98 0e bf 0f f9 14 3f d2 e2 92 be
       0.518827 -0.5570145 0.58192533 -0.28688675
0003b0 47 3a 01 3f 8e e1 de be 53 97 8e bf e9 cf fb be
       0.5047955 -0.4353146 -1.113993 -0.4918206
0003c0 45 78 da 3e e0 c3 18 bf 68 af 0e 3e 1c af 9b bd
       0.42669883 -0.5967388 0.139341 -0.07601759
0003d0 d1 3d 66 3e ce f0 9d be bc 33 9c be 97 7c 03 bf
       0.22484519 -0.30847782 -0.3050822 -0.51361984
0003e0 d1 a1 97 be 16 f9 93 bc 28 1d 04 3f 5c 7e 13 3f
       -0.29615644 -0.01806311 0.5160699 0.57614684
0003f0 d2 03 06 3e 8e 08 47 3e 95 ee 79 3d b6 0a 88 bf
       0.13087395 0.19436857 0.061018545 -1.0628269

encoder_variable_selection.single_variable_grns.VaccinationFull.gate_norm.glu.fc.bias f4 [32]
000000 d6 e4 78 3e 62 89 44 3f 21 d5 d0 be 35 e4 3e bf
       0.24306044 0.7677213 -0.40787604 -0.74566966
000010 08 b9 77 bf 26 de 18 3e b6 ca f8 be 1e 25 1c 3f
       -0.9676671 0.14928493 -0.48592156 0.60994136
000020 6a 38 04 be 0f ca 8b 3e fb 62 79 3f c0 b5 3c bf
       -0.12912145 0.27302596 0.9741666 -0.7371483
000030 42 24 97 3d ef b7 ad bf 4a d4 8f 3e f2 48 10 be
       0.073799625 -1.3571757 0.2809165 -0.14090326
000040 91 65 4c bf e6 99 b9 bd 3e 69 1b bf cb fd 24 3f
       -0.7984248 -0.09062557 -0.6070746 0.6444976
000050 a6 d4 d3 be bb 3f 2c bf 2c 5b 86 3e e6 4e fd 3e
       -0.41373175 -0.67284745 0.26241434 0.49474257
000060 61 e1 5e be e6 39 0c 3f 31 ef 83 3e e4 c5 0b 3f
       -0.21765663 0.54775846 0.25768426 0.5459883
000070 16 0a 16 bf 46 fd 3a bf 90 4a bf be 65 4b e9 be
       -0.5860914 -0.73042715 -0.37361574 -0.45565334

encoder_variable_selection.single_variable_grns.VaccinationFull.gate_norm.add_norm.norm.weight f4 [16]
000000 65 04 95 3e 10 82 71 3f 54 8e 94 3f 13 03 a2 3f
       0.29104915 0.94339085 1.1605935 1.2657188
000010 6b df a2 3f 6a f8 61 3f 94 6b 2c 3f 37 d5 c2 3f
       1.2724432 0.88269675 0.6735165 1.5221318
000020 89 cc 91 3f a0 ec e8 3d 77 3f 50 bd 43 84 93 3f
       1.1390544 0.11373258 -0.050841775 1.1524738
000030 07 2f 64 3f 11 6c a1 3f 01 12 90 3f fb be 86 3e
       0.8913426 1.2611104 1.1255494 0.26317582

encoder_variable_selection.single_variable_grns.VaccinationFull.gate_norm.add_norm.norm.bias f4 [16]
000000 9b 32 f5 3c 3a 5c a6 3e 2c 7d 34 3e e1 fb b5 3e
       0.029931357 0.32492238 0.17625874 0.3554373
000010 e2 6c 86 3e ce 02 55 be d8 77 40 be a8 81 19 be
       0.26254946 -0.20801851 -0.18795717 -0.14990866
000020 56 24 06 be 4f 66 b2 be dd 3e 3e be 11 3d 91 3e
       -0.13099799 -0.3484368 -0.18578668 0.28366902
000030 a9 16 d8 3d 5a 04 1f be 88 21 24 3e 6e 33 29 3e
       0.10551197 -0.15529004 0.16028416 0.16523525

encoder_variable_selection.single_variable_grns.Cases.resample_norm.mask f4 [16]
000000 77 6e 07 3f c8 49 ed 3e 94 0f 1f c0 02 e2 8f be
       0.5290293 0.46345353 -2.4853258 -0.28102118
000010 d4 85 08 bf dc 92 b0 3e bd c6 ba 3c 73 91 94 bf
       -0.53329206 0.34487045 0.022799844 -1.1606888
000020 c8 a8 18 c0 de bd 44 3f 69 e8 90 3e ee 51 d2 be
       -2.3853016 0.76852214 0.28302315 -0.41078132
000030 a9 26 51 bf 1b be 07 3d 43 3c 15 3f 89 11 07 3e
       -0.81699616 0.033140283 0.5829508 0.13190283

encoder_variable_selection.single_variable_grns.Cases.resample_norm.norm.weight f4 [16]
000000 b3 33 c6 3f b8 80 07 40 3c 16 b3 3e a4 27 9d 3f
       1.5484527 2.1172314 0.349779 1.2277722
000010 66 0c 3f 3f 50 6e c3 3f 5e 76 f3 3f 13 8f 66 3f
       0.74628294 1.526804 1.9020498 0.90062064
000020 cd 24 8b bc 79 c4 0b 40 5b 47 aa 3f 5a 10 64 3f
       -0.016985321 2.1838667 1.3303026 0.8908745
000030 cc fe 06 3f 03 37 99 3f 31 17 08 40 a0 43 ca 3f
       0.5273254 1.1969913 2.1264155 1.5801888

encoder_variable_selection.single_variable_grns.Cases.resample_norm.norm.bias f4 [16]
000000 12 47 ea 3e 4b eb 2d 3e 99 83 d8 be be cf 89 be
       0.45757347 0.16984288 -0.422879 -0.26916307
000010 48 52 72 3e b1 25 d3 be 4c 1d 00 be e7 f4 d7 bc
       0.236642 -0.41239694 -0.12511176 -0.026361896
000020 06 17 39 be 17 34 0e be 7f bb 0d 3e 5a 77 6f bd
       -0.18075189 -0.13887058 0.13841055 -0.058463432
000030 58 ef 44 3c 3b 6b ae bd 19 4d 56 3e d3 7c c5 3e
       0.012019955 -0.08516546 0.20927848 0.38571796
