Archives/TFT-pytorch/results/age_subgroup_old_cs_server/AGE6579/checkpoints/latest-epoch=3.ckpt (torch, 702903 bytes, 506 tensors)

prescalers.AGE6579.weight f4 [8, 1]
00000000: a62a 37be 0727 b1be 1a39 063f 0982 d63e
00000010: bb2c 3fbf 9f10 4fbe b877 febe 7f17 ee3d
-0.17887363 -0.34600088 0.5243088 0.41896084 -0.7467763 -0.20221184 -0.49700713 0.11625575

prescalers.AGE6579.bias f4 [8]
00000000: b5f6 81bd fa55 d23e 85d2 523f 0ad4 723e
00000010: 54ed 18bf 2037 06bf 8ef4 89be dd52 c73d
-0.06345884 0.4108122 0.8235248 0.23713699 -0.59737134 -0.52427864 -0.26944393 0.09732602

prescalers.SinWeekly.weight f4 [8, 1]
00000000: cd85 c03c f9d6 aebf 5d2a 813f c18c 76bf
00000010: cd03 3d3f 09c8 66be 4997 283f 9bfa df3e
0.023501301 -1.3659354 1.0091053 -0.96308523 0.73833925 -0.22537245 0.6585584 0.43745884

prescalers.SinWeekly.bias f4 [8]
00000000: 3260 863c 72d5 3bbd e04b 2c3f 3ff3 f43e
00000010: 0115 f33e d504 0fbf 7e51 4b3f 8cac 013f
0.016403291 -0.045857854 0.67303276 0.47841832 0.47476962 -0.5586675 0.7942122 0.5065391

prescalers.VaccinationFull.weight f4 [8, 1]
00000000: f62d e9bb e50c 853e bd0b 813f 5e8f d93e
00000010: c463 f1be ed51 3fbf a7e9 1cbf 15a4 1ebf
-0.0071160747 0.259864 1.0081707 0.42492193 -0.47146428 -0.74734384 -0.61294025 -0.6196912

prescalers.VaccinationFull.bias f4 [8]
00000000: 6eed 2a3f f435 05bf 7a6d d1be bfef 6c3f
00000010: 150c 623f 89db 303e 2d00 883c b4be 923e
0.6676854 -0.5203545 -0.40903836 0.92553324 0.88299686 0.17271246 0.016601646 0.2866112

prescalers.Cases.weight f4 [8, 1]
00000000: 6717 193f 256b 81bf 4b69 67bf 550b 0e3f
00000010: 2534 ae3f 76a0 183d 59f2 1cbf 6966 423e
0.59801334 -1.0110823 -0.9039504 0.5548604 1.3609663 0.037262402 -0.61307293 0.18984379

prescalers.Cases.bias f4 [8]
00000000: f7e9 63bf 6e09 3fbe 17a6 243f 438f af3e
00000010: b9a9 dd3d 9c59 45bd 0710 1d3f 2e91 84bf
-0.8902888 -0.18655941 0.64315933 0.34288988 0.10823388 -0.04818116 0.6135258 -1.0356805

static_variable_selection.single_variable_grns.AGE6579.resample_norm.mask f4 [16]
00000000: ed74 6abf f75a f9be aaac 78be a83b 8ebe
00000010: f6ce 023e d6c0 b03e 0b73 4e3e dd6e d4be
00000020: fbee 403f fff7 f53e 42d2 cd3b 3995 93bd
00000030: db89 f03d 6ad3 14be b2b4 8bbe 5a46 27bf
-0.91584665 -0.48702213 -0.24284616 -0.2777989 0.12774262 0.34522122 0.20161073 -0.41490832
0.75364655 0.48040769 0.006281168 -0.07206196 0.11745044 -0.14533773 -0.27286297 -0.6534172

static_variable_selection.single_variable_grns.AGE6579.resample_norm.norm.weight f4 [16]
00000000: 1960 683f 0f36 4e3f b474 983f 0303 7c3f
00000010: 2b4e ad3f 667d b93f c3f7 b23f 36d2 6a3f
00000020: 9e26 e53f 6d03 c13f 0410 9c3f 75a0 a23f
00000030: 3df2 753f 48e6 613f 25eb 153f 1092 7c3f
0.90771633 0.80551237 1.1910615 0.98442096 1.353948 1.4491394 1.3981861 0.91727006
1.790241 1.507917 1.2192388 1.2705218 0.9607275 0.88242006 0.5856193 0.98660374

static_variable_selection.single_variable_grns.AGE6579.resample_norm.norm.bias f4 [16]
00000000: ea7f 403e bfb8 4d3c a5ce a83e ecce a03d
00000010: 26f9 c2bc 8c6e e93c 1e2f a53c 28ed f53d
00000020: 49a5 30be 4694 fcbd 7608 b23c f773 c2be
00000030: c3a2 683c d4fe 41bd 5dfe e83c 296f 1d3e
0.18798795 0.012556254 0.32970157 0.07851967 -0.023800444 0.028495096 0.020164069 0.120081246
-0.17250551 -0.123329684 0.02173255 -0.379791 0.014198962 -0.047362164 0.028441602 0.15374435

static_variable_selection.single_variable_grns.AGE6579.fc1.weight f4 [8, 8]
00000000: 973e 773e 9849 e8be f003 20bf 1c04 b5be
00000010: de30 c1bd e870 adbf c633 b63e 5b1f dbbd
00000020: 7e57 32bf 94e7 a3bf 5843 0cbc c178 5e3f
00000030: 8eda 06bf 3ca3 f2be e83e b33e f8b2 3c3d
00000040: d270 563e f64b 1a3f 8ada 023f 3f07 99be
00000050: ea02 943e b290 82be 2d16 e23e 7ba5 88be
00000060: 1b8b 28bf 9d84 a0bd b742 4cbe 3134 dbbe
00000070: 2402 b7bd b8f9 673e f7cc 93bc d0e6 223f
00000080: e56f fabe 2f53 143f c8e7 27be 7007 53be
00000090: 8c53 8bbe bb5d 743f 3555 ca3e 8388 1f3e
000000a0: ac5b a43d bce1 af3c c33d 40be 938b ba3d
000000b0: d321 063f ea1b fbbe e405 ec3d 7871 2f3e
000000c0: f92a bdbe f428 d8be 0026 803d ac10 bc3e
000000d0: 71b9 cd3e f7cd 823f 4b11 073f 613e 853e
000000e0: 602b e9be e48b 0dbf 66e5 8fbe 958d e93e
000000f0: 04cd 7e3b be50 3ebe 9ebe a63e 94cf e53c
0.2414497 -0.45368648 -0.6250601 -0.35354698 -0.09433149 -1.3550081 0.35586375 -0.1069934
-0.6966475 -1.2805047 -0.008560978 0.86903006 -0.5267724 -0.47390163 0.3500893 0.046069115
0.20941475 0.6027216 0.51114714 -0.2988834 0.28908473 -0.2550102 0.44157544 -0.26688752
-0.6583726 -0.07837794 -0.19947325 -0.42813256 -0.08935955 0.22653854 -0.01804207 0.6363344
-0.48913494 0.5793943 -0.16397011 -0.20608306 -0.2721218 0.9545552 0.39518133 0.15579419
0.080252975 0.021469943 -0.1877356 0.09108653 0.5239536 -0.49044734 0.11524561 0.17133129
-0.36946848 -0.42218745 0.06257248 0.3673147 0.40180543 1.0219105 0.5276076 0.26024154
-0.45540905 -0.5529158 -0.28104705 0.4561583 0.0038879523 -0.18585488 0.32567304 0.028053083

static_variable_selection.single_variable_grns.AGE6579.fc1.bias f4 [8]
00000000: 322b 40be 4786 6c3c 755c 813d 262e f7bd
00000010: a6ab b93d 795e fe3d bd97 c13e 86ef 83be
-0.18766478 0.014436311 0.06316463 -0.12069349 0.090659425 0.12420363 0.3781108 -0.2576868

static_variable_selection.single_variable_grns.AGE6579.fc2.weight f4 [8, 8]
00000000: d708 04be cbdf fe3e 5821 823e ca44 98be
00000010: 6699 823e 230d a7be 4666 343f 2f26 053f
00000020: b919 55be 1fed 3dbf a9fe cc3e a237 86bb
00000030: ead3 d03e 1ff5 083e e605 cf3e f3f4 d43d
00000040: f93e 5cbb db8d fb3e 62f9 21be b432 dd3d
00000050: ae47 183e 455e c1be 4003 efbd 614f 173f
00000060: 9006 ca3e 3b36 4fbe 47f0 133f 944d b0be
00000070: 6104 d93d 47c3 90bc e128 103f 8cb7 2fbf
00000080: 7fe0 bf3d 7e3c 4cbf b886 763e ebd8 47be
00000090: 0d56 193f 33f3 e43e 782e 293f 92d1 9fbd
000000a0: 4247 473e e770 01bf 3310 9ebe 6ca3 273d
000000b0: 47c2 0f3f 1a3f 853e 0c76 f0be aeb4 923d
000000c0: 0e43 80be 7017 8dbd a06f 093e d42c b8bd
000000d0: 5a17 dd3e 716b 8f3e 2aea aebe c052 d4be
000000e0: ee1c 1ebe d37a 093f 0b37 3ebf 2a1f 6bbe
000000f0: d5c0 4ebe 62fc 3cbe 6694 423e 85f2 bbbe
-0.12893997 0.49780115 0.25416064 -0.29739982 0.2550766 -0.3262721 0.70468557 0.5201139
-0.20810594 -0.74189943 0.4003804 -0.0040959874 0.40786678 0.13374756 0.40434188 0.10398283
-0.003360687 0.49131665 -0.15817788 0.108006865 0.14871094 -0.37767234 -0.11670542 0.591055
0.39458132 -0.20235531 0.5778851 -0.34434187 0.10596538 -0.01767124 0.56312376 -0.68639445
0.09368991 -0.79779804 0.24074829 -0.19516341 0.5989693 0.44716796 0.6608653 -0.07803644
0.19460776 -0.505629 -0.30871734 0.040927336 0.5615582 0.26024705 -0.46965063 0.07163368
-0.2505116 -0.06889236 0.13421488 -0.08992925 0.43181878 0.2801166 -0.34163028 -0.41469383
-0.15440723 0.5370304 -0.7430274 -0.22961107 -0.20190747 -0.18455651 0.19001922 -0.36708465

static_variable_selection.single_variable_grns.AGE6579.fc2.bias f4 [8]
00000000: 02c4 f23c d1eb 533e 329c 93be 3f76 5a3d
00000010: c9a6 0ebe 84ba 8ebe d898 633e faa2 13bd
0.02963448 0.20695426 -0.28830105 0.053335425 -0.13930811 -0.27876675 0.22226274 -0.0360441

static_variable_selection.single_variable_grns.AGE6579.gate_norm.glu.fc.weight f4 [32, 8]
00000000: e86d eabd 1e27 7d3e 3787 cc3c 7248 c2be
00000010: fd18 933d fb7e a7be 8e3e 6dbe 3ee3 c03e
00000020: 80e3 0d3e 958a 9fbd 87f8 433e 3640 8c3e
00000030: e296 1ebe 0499 513e fed8 2f3c efbe a83d
00000040: 357c b73e 9b8b 34be 72de 3bbe 266d 8fbe
00000050: bc38 663e f494 b5be f75f ac3e a5f6 b83e
00000060: e4ce 1a3d a997 233e 6b95 31be dd38 9bbe
00000070: 07f6 2b3e f278 6abe 12c0 a7be 5eb0 923b
00000080: e60c 52be c0c3 1fbd 8bd8 8c3d ed32 963d
00000090: 69cb 093f e393 96be 22a9 54be c4e1 6fbe
000000a0: 2e77 f23d 634e a83e aaa0 06bf e55b 8c3e
000000b0: bd78 b13d 84e8 913d 6af8 003c caf1 abbd
000000c0: 2620 45be a5b5 6bbd 40bd cb3d 61c5 9e3e
000000d0: c9be b03b a0d9 0ebd 0d4d 5e3e e631 3c3e
000000e0: 36f4 bfbd 1093 e23e bd49 073d 04a3 98bc
000000f0: a983 30be f0fd af3b a8e2 9d3e 4f40 05be
00000100: f485 c5bd 738e a9bc c6d6 bcbd 6669 ba3e
00000110: c72e 503f e364 bc3e 9621 4b3e c518 a83c
00000120: a603 603e abe8 b9be 42fb 36bd 9335 ecbd
00000130: c0ce 45be 4f03 82be d1fe ffbe 2fa7 1c3e
00000140: ad0c b6bd 65dc bdbe fe02 d53e 29d1 40be
00000150: 8584 4fbf 2b8f b1be 847a bf3d 4654 cc3e
00000160: 73ea abba 1cb2 abbe fe62 053f 02bf 32be
00000170: c0b5 043e cf96 0f3d df26 afbd bf5f ee3e
00000180: e151 67be 4002 f1be 24c1 143f a3f0 f5be
00000190: 34fb 8ebd bdcf 0bbf 0906 2a3d 2884 313f
000001a0: 5654 aebe 9cfc bd3d a7cb f43b f2a5 393e
000001b0: 567e 80be df6f 5a3d eb90 f63e 2f38 8d3e
000001c0: 6f95 85be ae2f 033f 2308 e8bd fdba b43c
000001d0: 89f0 95be 95da 10bd b786 d63e 6054 9d3e
000001e0: c897 f33d 6df1 49be ffd5 46be 8608 e43d
000001f0: a24b d8bd 74ad c73c 9f70 e13e 4626 5abe
00000200: 0b8d 173e def5 44bf 39a7 3a3d a4a6 843e
00000210: b639 a53e 527d 333e b8d8 40bf f81e a33e
00000220: a6c8 d93e d705 c3be 420c 06bf 8679 2abe
00000230: 70e9 b13e 7f45 9c3e c2d3 5abf dd07 7dbe
00000240: 386f 2b3f 71ed 9dbf 8de0 b73e 023e c2be
00000250: e32e 17bf 3496 4b3e 58b0 dabe 67cf 973f
00000260: 7c4c b63d e21e 7ebe 117d 86be 948d d4be
00000270: b078 1f3e 08cf 853f 24ee 4bbf e29b de3d
00000280: ad72 c83e 45ae 2fbf 647b 293e 6c49 dfbe
00000290: 05f6 2bbe b038 bb3e 5c1d 1fbf 4fa7 bf3e
000002a0: 1862 583f 93ce 41bf 0f52 643f 97b6 03bf
000002b0: 9951 f83e d3cc f63e 28cd 5cbf a1d1 463f
000002c0: a982 253f b6a9 03bf 912a a23d 82a0 b7be
000002d0: bd6e 4fbe 6f66 d23e 512b 26bf 6f27 c13e
000002e0: c828 56be f8b8 ed3c b9be 223f 0b5f 5abe
000002f0: 1d31 a13e 65ef 053f 5d11 853e 6cb6 06be
00000300: d662 b83e d4ed 0bbf 912f 153f 2d23 12bf
00000310: 5c50 21be 1b70 063f 2da9 10bf 911d 933f
00000320: b86e 233f 3382 e4be d6bc 4b3f c043 57bf
00000330: ced8 d33e d4e2 833e f359 1cbf f279 703f
00000340: 6401 9b3e 77af 6abf d48e fe3e 5d70 a1be
00000350: 32b0 13bf 0462 b83e 9e16 ecbe 5cfc 733e
00000360: 21ee 89be 4bce 013f cdd5 6dbe 7bd4 cf3e
00000370: 39c9 da3e f096 1e3f e67e 1abe 416f cdbe
00000380: 000d 933d 68ef 58bf 3312 623f 7b89 57bf
00000390: 1606 77be b3d3 353c c396 29bf 7dfa 0c3f
000003a0: 6520 723e 3ac2 d3be 4b9e fbbe 7c4a e3be
000003b0: 4fd5 ac3e 86b1 3a3f 7247 23bf 8150 60bd
000003c0: 361b 213f 76d1 03bf e790 6c3e 59af 08bf
000003d0: f1a3 57bd 4432 9cbe 2cbf 09be 12a1 083f
000003e0: c71b d33e e596 f4be 4b25 a3be a460 3ebe
000003f0: fc9e 0b3f 009a 59bc 20da 6dbe 6e40 e43e
-0.11446744 0.24721953 0.02496682 -0.37945896 0.071825005 -0.32714066 -0.23168394 0.37673372
0.13856316 -0.07790104 0.19137774 0.2739274 -0.15487245 0.20468527 0.010732887 0.08239543
0.3583695 -0.1763138 -0.18346575 -0.2801296 0.2248258 -0.35465205 0.33666965 0.36125675
0.037794963 0.15975823 -0.17342155 -0.3031682 0.1679307 -0.228977 -0.32763726 0.004476591
-0.20512733 -0.03900504 0.0687724 0.07333932 0.53826004 -0.29409704 -0.20767644 -0.23425967
0.11839138 0.32872304 -0.52588904 0.2741386 0.08665607 0.07124427 0.0078717265 -0.08395727
-0.19250545 -0.057546277 0.09948206 0.31009963 0.005393837 -0.034875512 0.2170908 0.1837841
-0.093727514 0.44252825 0.033029307 -0.01863242 -0.17237724 0.005370848 0.30836987 -0.13012813
-0.0964469 -0.020697808 -0.09220652 0.36408538 0.81321377 0.3679572 0.19837031 0.020519624
0.21876392 -0.36310324 -0.044673212 -0.11533656 -0.1931715 -0.2539315 -0.49999097 0.1529815
-0.088891365 -0.3708221 0.41603845 -0.18829788 -0.81061584 -0.3467954 0.0934954 0.39908046
-0.0013116136 -0.33534324 0.52104175 -0.17455676 0.12959957 0.03505593 -0.08552336 0.46557423
-0.22589828 -0.4707203 0.5810721 -0.48035154 -0.06981507 -0.5461386 0.04150966 0.6934228
-0.34048718 0.09276697 0.0074705663 0.1812971 -0.25096387 0.053329345 0.4815744 0.27581927
-0.2609057 0.5124463 -0.11329677 0.02206182 -0.29285076 -0.035364706 0.41899654 0.30728436
0.11894184 -0.19721003 -0.1941757 0.11134438 -0.10561301 0.024374701 0.44031236 -0.21303663
0.14799897 -0.76937664 0.045569632 0.25908387 0.32270592 0.17528275 -0.75330687 0.31859565
0.42535895 -0.38090393 -0.52362454 -0.1664792 0.3474841 0.3052177 -0.85479367 -0.24710031
0.6696658 -1.2338086 0.35913506 -0.37937933 -0.5905592 0.19881517 -0.42712665 1.1860169
0.08901307 -0.24816468 -0.26267293 -0.41514266 0.15573382 1.0453806 -0.7966025 0.10869576
0.3914999 -0.6862529 0.16550976 -0.43610704 -0.16793068 0.36566687 -0.62154174 0.37432334
0.8452468 -0.7570583 0.8918771 -0.51450485 0.48499754 0.48203143 -0.86250544 0.7766362
0.64652497 -0.51430833 0.07918275 -0.35864645 -0.20257087 0.41093776 -0.64909846 0.37725398
-0.20913994 0.029018864 0.6357227 -0.21325319 0.31482783 0.5231841 0.2598981 -0.13155526
0.36012906 -0.5465977 0.58275706 -0.57084924 -0.15753311 0.5251481 -0.5650814 1.1493398
0.6384082 -0.44630584 0.79585016 -0.84087753 0.41376346 0.25758994 -0.6107475 0.93936074
0.30274498 -0.9167399 0.49718344 -0.3153104 -0.5769073 0.3601228 -0.46111006 0.23826736
-0.2693949 0.50705403 -0.2322609 0.40591797 0.42731646 0.6194906 -0.1508747 -0.40123942
0.07180214 -0.84740305 0.8830902 -0.84194154 -0.24123415 0.011097836 -0.6624567 0.55069715
0.2364517 -0.4135912 -0.49144205 -0.44392765 0.33756492 0.7292713 -0.6378089 -0.054764275
0.62932146 -0.5149149 0.23102151 -0.5339256 -0.05264658 -0.305071 -0.13451833 0.53370774
0.4123213 -0.47771373 -0.3186439 -0.18591553 0.54539466 -0.013281345 -0.2322774 0.44580406

static_variable_selection.single_variable_grns.AGE6579.gate_norm.glu.fc.bias f4 [32]
00000000: 9fb3 ee3d e459 babc f075 8e3e 97ac a43d
00000010: 3fe1 793d ceb4 7dbd aac2 2cbd 8317 a63d
00000020: ae48 28be 1c57 d43d 6d6c 49b9 957c 8ebe
00000030: 88ff 083e a862 1ebe d3e5 25bd 018a b03d
00000040: 2e25 4dbf 9243 1ebf 7342 8bbe de14 7bbf
00000050: 27fa 16bf 5caa 3fbf be13 77bf bea8 e7be
00000060: a118 5abf a02b 4dbf 8692 2dbf 74fe 6dbd
00000070: e82a b0be 21cc 57bf b9d9 79be 07f4 2dbe
0.11655354 -0.022747941 0.27824354 0.080407314 0.061005827 -0.061940007 -0.042177834 0.08109953
-0.16433975 0.10368177 -0.00019209246 -0.27829424 0.13378727 -0.15467322 -0.04050238 0.08620072
-0.80134857 -0.61821854 -0.27199134 -0.98078716 -0.5897545 -0.7486932 -0.965145 -0.45245928
-0.8519383 -0.8014469 -0.678017 -0.058103994 -0.34407735 -0.8429585 -0.24399461 -0.1698762

static_variable_selection.single_variable_grns.AGE6579.gate_norm.add_norm.norm.weight f4 [16]
00000000: fbf7 0d3f 9d3c f73e 472a aa3f 53bb 843f
00000010: 89b8 9b3f cf32 9c3f dd9d 873f d736 ec3e
00000020: 4add c13f e73e a73f daa2 9c3f 5ea3 c53f
00000030: 0d17 883f f65b 183f c1fe 403d 358c 8e3e
0.55456513 0.48288432 1.3294152 1.0369667 1.2165691 1.2203006 1.0595051 0.4613559
1.5145657 1.3066071 1.2237198 1.5440481 1.0632035 0.5951532 0.047117952 0.27841344

static_variable_selection.single_variable_grns.AGE6579.gate_norm.add_norm.norm.bias f4 [16]
00000000: 61a7 c83d 1b09 38bc abe4 f73e 0091 123e
00000010: a47e 693c 0b96 f73c bc33 833d 920d 923c
00000020: 4198 76be e2fe 38be 8fc0 76bd 33d7 22bf
00000030: 86ff 68bd 3566 15be 6c46 d7bc 1cc9 bb3d
0.0979755 -0.01123264 0.48416647 0.14313126 0.014251385 0.030222913 0.06406352 0.017828736
-0.24081518 -0.1806598 -0.060242232 -0.6360962 -0.05688431 -0.1458977 -0.026278697 0.09169218

static_variable_selection.prescalers.AGE6579.weight f4 [8, 1]
00000000: a62a 37be 0727 b1be 1a39 063f 0982 d63e
00000010: bb2c 3fbf 9f10 4fbe b877 febe 7f17 ee3d
-0.17887363 -0.34600088 0.5243088 0.41896084 -0.7467763 -0.20221184 -0.49700713 0.11625575

static_variable_selection.prescalers.AGE6579.bias f4 [8]
00000000: b5f6 81bd fa55 d23e 85d2 523f 0ad4 723e
00000010: 54ed 18bf 2037 06bf 8ef4 89be dd52 c73d
-0.06345884 0.4108122 0.8235248 0.23713699 -0.59737134 -0.52427864 -0.26944393 0.09732602

encoder_variable_selection.flattened_grn.resample_norm.mask f4 [3]
00000000: 5284 80bf 258f fabd 012f 1b3f
-1.0040381 -0.12234334 0.606186

encoder_variable_selection.flattened_grn.resample_norm.norm.weight f4 [3]
00000000: 1fe2 843f f7fa 663f ff59 0f40
1.0381507 0.9022669 2.239868

encoder_variable_selection.flattened_grn.resample_norm.norm.bias f4 [3]
00000000: b004 e03e 84be 30bd f12d 95bf
0.43753576 -0.04315044 -1.1654645

encoder_variable_selection.flattened_grn.fc1.weight f4 [3, 24]
00000000: b36b 613f 7ed4 68bf c1b9 103f 2a79 33bf
00000010: 7a37 ed3e ef4c 24bb 2e3b ad3d acb0 f93d
00000020: 92fa f0be 3fc9 a43d 3f20 16be 5525 9fbf
00000030: 242d fe3c 27cd 533e ef62 8b3e e452 803e
00000040: 0573 043f 6e1a 42bf 43d7 853e ce15 003c
00000050: 9d04 1d3e b614 25be 69e1 ba3d 2c89 a93d
00000060: 1953 423d 09f4 833e a325 10bf 5391 a0be
00000070: 44d2 b2bd 3928 943e 1125 3fbe b4cc bb3e
00000080: 5a30 e7be a537 803e 9b01 24bf b3fd 0dbf
00000090: 18a2 95bd 3ed5 873d c3ce 503e 1b4c 883e
000000a0: 7c82 80be 6b79 863e e5cf 2ebe be25 bfbe
000000b0: e881 9abe 2eb4 893e a2ac 933e d7a3 43bc
000000c0: 5c41 243e b5a7 87be dd48 8bbe 66c5 f03d
000000d0: 49ae 483e 3630 453f 6b4f 98be 14b9 733e
000000e0: a8bb 3bbf 3435 083f a922 023e a702 9ebd
000000f0: 917a 52be cf30 d43d bd54 f33e fbed 993e
00000100: 9921 073e 2195 093f e945 213d d044 02bf
00000110: 37a3 c2be c512 20bd 9c28 cfbe 7c34 893e
0.8805496 -0.9094924 0.5653344 -0.70106757 0.46331388 -0.002507027 0.08458553 0.121919006
-0.4706617 0.08046197 -0.14660738 -1.2433268 0.031027384 0.20683728 0.27223918 0.2506324
0.51738006 -0.7582158 0.26140794 0.007817699 0.15333791 -0.16121182 0.09125025 0.082781166
0.04744253 0.25772122 -0.5630743 -0.31360874 -0.08731511 0.28936937 -0.18666483 0.36679614
-0.45154077 0.25042453 -0.6406495 -0.5546524 -0.073063076 0.066324696 0.20391373 0.26620564
-0.25099552 0.2626451 -0.17071493 -0.37333483 -0.30177236 0.2689528 0.28842646 -0.011940918
0.16040558 -0.26495138 -0.27204028 0.11756401 0.19597735 0.7702669 -0.2974809 0.2380107
-0.73333216 0.5320618 0.12708534 -0.0771535 -0.20554568 0.10360872 0.47525588 0.30064377
0.1319641 0.5374318 0.039373312 -0.5088625 -0.38015148 -0.0390804 -0.4046067 0.26797855

encoder_variable_selection.flattened_grn.fc1.bias f4 [3]
00000000: 5647 2fbe 708f 83be 5c34 debe
-0.17117056 -0.25695372 -0.43399322

encoder_variable_selection.flattened_grn.context.weight f4 [3, 16]
00000000: 4c74 b8bd 6eb6 fdbc 8cce 2cbd b83b 27be
00000010: 0aa3 39be 5fb6 26be 37f6 adbd 3f8e b1bd
00000020: df40 ad3b 69c2 5cbd 056a 3a3d 6106 883e
00000030: c7a6 563b 79e8 1a3e e05e 10be b43b 0fbe
00000040: ab62 4b3e b9f3 49bd 5bfb 093f 74f9 03bf
00000050: 69cc e6be 4f22 5a3f c05f c4bd f7fb 27be
00000060: c1c0 b53e e058 023d c064 17be ef44 b2bd
00000070: ec94 733d b1cc 42bd c242 eebe 0aeb 77bc
00000080: 0c61 033e 30d2 72be 42c4 bc3e 5d88 f5be
00000090: 2203 7abe e504 ec3e a9a2 a13e de02 903e
000000a0: d296 a3be 6843 033e 41f9 c63d 0e93 c2bc
000000b0: 99e3 f73d aee7 003c 724e 40bf c1a4 d93e
-0.09006557 -0.030970778 -0.042189166 -0.16331375 -0.181286 -0.16280507 -0.084942274 -0.086697094
0.0052872743 -0.05389634 0.045511264 0.26567367 0.0032753216 0.15127744 -0.14098692 -0.13987619
0.19861858 -0.049304698 0.53899163 -0.5155251 -0.45077828 0.852086 -0.09588575 -0.1640471
0.35498622 0.03182304 -0.14784527 -0.08704554 0.059468195 -0.04755849 -0.46535307 -0.015131721
0.12829989 -0.23712993 0.36868483 -0.479556 -0.24415258 0.46097484 0.31569412 0.28127187
-0.31951004 0.12818682 0.0971551 -0.023751762 0.12103958 0.007867737 -0.751197 0.4250851

encoder_variable_selection.flattened_grn.fc2.weight f4 [3, 3]
00000000: 9abe 14bf 8e2d 7fbf 2d41 4fbe e073 46be
00000010: 4d98 94bf 29a4 f2be d714 8fbe e9c8 55bf
00000020: 57b4 32bf
-0.58103335 -0.99678886 -0.20239706 -0.1938014 -1.1608979 -0.4739087 -0.27945587 -0.8350969
-0.69806427

encoder_variable_selection.flattened_grn.fc2.bias f4 [3]
00000000: fd4c ad3d 8d96 403e 358d 05be
0.0846195 0.1880743 -0.13042147

encoder_variable_selection.flattened_grn.gate_norm.glu.fc.weight f4 [6, 3]
00000000: cf8d a03e f3d6 43be bbc9 0b3f 4730 32be
00000010: 6af4 6cbe fbad 353f 8b3a a3be c1f8 eabe
00000020: a214 5fbf 983a 9bbe 364b 48bf 03af 103f
00000030: e89e 213f e764 27bf 5bdd cbbe c7dc ff3e
00000040: 34c2 473f 5ac8 a13f
0.3135819 -0.19124965 0.5460469 -0.17401229 -0.23140112 0.709686 -0.31880602 -0.4589291
-0.8714086 -0.3031814 -0.7823976 0.56517047 0.63133097 -0.6538834 -0.39817318 0.49973127
0.78030705 1.2639267

encoder_variable_selection.flattened_grn.gate_norm.glu.fc.bias f4 [6]
00000000: fb20 af3e d11d 02be 54a8 91bf 79be 9ebe
00000010: 1387 99bd 0335 923f
0.3420485 -0.12706687 -1.1379495 -0.31004694 -0.074964665 1.1422428

encoder_variable_selection.flattened_grn.gate_norm.add_norm.norm.weight f4 [3]
00000000: eca2 c53e 1f0a 883e 474e 753e
0.38600862 0.26570222 0.23955642

encoder_variable_selection.flattened_grn.gate_norm.add_norm.norm.bias f4 [3]
00000000: fbb1 203d 57b5 05bf 9ecf 2d3f
0.039232235 -0.5222983 0.67894924

encoder_variable_selection.single_variable_grns.SinWeekly.resample_norm.mask f4 [16]
00000000: bc77 e6be 2d9a e73e 2362 093f 33ca 88bd
00000010: 5ceb 66be 944d 97be 56c6 293f a054 1abf
00000020: 3cd2 5dbf 8e64 c9bd efc6 b5be 3db0 5bbe
00000030: 736f 80bf b970 52bd 96d2 a03d 5b4a fd3e
-0.45013225 0.45234814 0.5366537 -0.066791914 -0.2255072 -0.29551375 0.6631826 -0.6028538
-0.8664892 -0.098336324 -0.35503337 -0.21453948 -1.0034012 -0.051377032 0.07852666 0.4947079

encoder_variable_selection.single_variable_grns.SinWeekly.resample_norm.norm.weight f4 [16]
00000000: 5b69 803f 1cde 863f 82a5 d23f f45a 673f
00000010: b56a 863f 8b2b 653f 8d36 e23f 76ce 2c3f
00000020: e7a7 963d 245e 793f 3ca9 813f fb9e 8f3f
00000030: 88f1 133f 3870 903f 2d00 a83f b7cc bc3f
1.0032152 1.0536532 1.6456759 0.9037316 1.0501314 0.89519566 1.7672898 0.67502534
0.073562436 0.9740927 1.0129771 1.1220392 0.5779042 1.1284246 1.3125054 1.4749974

encoder_variable_selection.single_variable_grns.SinWeekly.resample_norm.norm.bias f4 [16]
00000000: f358 56bd 6746 3a3e 6b25 88bd 2305 023e
00000010: 77ae bf39 9319 26be 43e5 43be 1a3b 5dbe
00000020: 8121 183b 5427 59bd fa55 fdbc 2127 453e
00000030: c927 b3bb e0de fcbc 1cd2 c33d 69fa cc3d
-0.052330922 0.18190919 -0.06647762 0.12697272 0.00036560345 -0.16220693 -0.19130425 -0.21604577
0.002321333 -0.05301602 -0.030924786 0.19253208 -0.0054673892 -0.030867994 0.095615596 0.100086994

encoder_variable_selection.single_variable_grns.SinWeekly.fc1.weight f4 [8, 8]
00000000: 0486 7e3f bc84 d0bf a5ee 44bf e292 06c0
00000010: 1dcb 85be 79de f9bc ae43 873e 0aa8 e83e
00000020: 6da6 3d3e 998f c03e 5dc9 18bf 9cf9 3abe
00000030: ba59 1bbf 5245 923f 3ffa febf a7bf 9abf
00000040: da7b d53d da9d 4e3d 109c 1cbf 368f af3e
00000050: b4d3 79bf 1b5f 263f 29af 2a3f cbfe 203e
00000060: ef83 ad3e 709d 9c3c 80db b8be c776 813d
00000070: 85cc b03e 79fa 803e 6c77 6c3e 0a1f 043f
00000080: 1099 0ebf 48d2 81be 36ef 953f 8906 1bbe
00000090: 4c74 473e 8d1c 3e3f bc37 0e3f d07a 71bf
000000a0: b799 3b3f 7bb9 93be 79d8 1ebf 3c23 183d
000000b0: 7fb4 7d3e 054b b7be dd14 0ebe 1a23 9f3e
000000c0: 0ee1 19bf b13c ebbd 845e dcbf 4d59 f83e
000000d0: 0c99 42bf 821d e03e fae5 03c0 5b04 9ebf
000000e0: 7165 e03e ce82 1f3c 205e 26bf 79d5 6c3e
000000f0: ba30 603f e36b ff3e b1f7 f1bd 62ca f73e
0.9942324 -1.6290507 -0.7692664 -2.102715 -0.26131526 -0.030501591 0.26418823 0.45440704
0.18520518 0.37609556 -0.59682256 -0.18259281 -0.60683787 1.1427405 -1.9920119 -1.2089738
0.104240134 0.050443508 -0.6117563 0.3428895 -0.9758866 0.6498887 0.66673523 0.15722196
0.3388972 0.01911804 -0.36104965 0.06321483 0.34531036 0.25191095 0.23092431 0.5160986
-0.55702305 -0.25355744 1.1713626 -0.15139212 0.19477957 0.74262315 0.55553794 -0.9432802
0.73281425 -0.28852448 -0.6204906 0.037142977 0.24775885 -0.35799423 -0.13875146 0.31081468
-0.6010903 -0.11486185 -1.7216344 0.4850563 -0.7601478 0.43772513 -2.0609117 -1.2345079
0.43827394 0.009735776 -0.64987373 0.23128308 0.8757435 0.49887 -0.118148215 0.48396593

encoder_variable_selection.single_variable_grns.SinWeekly.fc1.bias f4 [8]
00000000: 8365 73be 0a9a 5dbe 97aa 22be a256 68be
00000010: e100 febc ba40 fabc f116 bebe a527 a7bd
-0.23769192 -0.21640792 -0.15885387 -0.22689298 -0.031006278 -0.030548442 -0.37126878 -0.081618585

encoder_variable_selection.single_variable_grns.SinWeekly.fc2.weight f4 [8, 8]
00000000: 0c0d 8abf 8489 ce3e d421 78bf 1615 96bd
00000010: 1a50 1ebf 4854 23be dace 653f 9451 31be
00000020: c672 c9be 4e2b f4bd fd10 a53e 471d 32bd
00000030: b507 55be a855 0d3e 918b 4b3f 9d4b 9c3e
00000040: f935 ff3e 75b3 9dbd d3a4 823e f1d9 7fbe
00000050: a5f7 a43e 4132 b93d ce24 6c3f 844e bd3e
00000060: d60a 083f 4436 783f 0a4c b93e 0c71 0a3e
00000070: 3942 a13e 46fe 89be 87a7 c83e ac00 acbe
00000080: 0012 87bf d4b5 883f 5f5e cabe 49ce 04bd
00000090: 8f79 6b3d ff32 583e ac5c c23e c43d 02bd
000000a0: 2121 4a3f 5111 03bf 9a2e 8ebe d0b3 99bd
000000b0: ae7d 0abf b968 d8bb fdc2 9ebe ec8c 91be
000000c0: aa8c e13e 121b c63e 1beb 823e 3ed9 13be
000000d0: 1955 ff3e 641f db3c dd1b 103f cf13 6c3e
000000e0: d1be 323f 8fae 1f3e 4b84 db3e 0a6d 593e
000000f0: 8e78 073f 3a0d a53d 5350 633f bc49 81be
-1.0785232 0.4033929 -0.9692662 -0.073282406 -0.61840975 -0.1595012 0.89768755 -0.17316276
-0.39345378 -0.11922322 0.32239524 -0.043484952 -0.20803721 0.13802207 0.79509836 0.30526438
0.49845865 -0.07700244 0.25516376 -0.24985482 0.32220188 0.09042788 0.9224366 0.36973965
0.53141534 0.969578 0.36190826 0.13519686 0.31495836 -0.26951808 0.39190313 -0.33594263
-1.0552368 1.068049 -0.39525124 -0.03242329 0.057488974 0.21113203 0.37961328 -0.031797186
0.789568 -0.511983 -0.2776993 -0.07505 -0.5409802 -0.006604281 -0.3100814 -0.28427827
0.4405263 0.38692528 0.25569996 -0.1443834 0.49869612 0.026748367 0.56292516 0.23054431
0.6982241 0.15593933 0.4287437 0.21233001 0.52918327 0.080591634 0.8879444 -0.25251567

encoder_variable_selection.single_variable_grns.SinWeekly.fc2.bias f4 [8]
00000000: 5a68 a2bd cb5e 51be bb4f e13d edb0 8e3e
00000010: 1483 bc3d 88fc ed3d 951b 423e ffef d03d
-0.0793006 -0.20446317 0.110015355 0.2786936 0.09204689 0.11620432 0.18955834 0.102020256

encoder_variable_selection.single_variable_grns.SinWeekly.gate_norm.glu.fc.weight f4 [32, 8]
00000000: b79c f13e fe5d 653e 9cf3 b23e 90a0 9e3e
00000010: 280f ec3e b7ab 08bf 9487 cf3e bcc8 a93e
00000020: b4ed 91bc 2455 893e 44a5 37be 4f0b 8cbe
00000030: e319 3f3e f0fd 1f3e 842a 7a3d 82f1 2abd
00000040: 74d1 323f 3fbb ab3e 6449 e73d c386 b43e
00000050: 6830 c63e cd1b 6bbe 5796 05be 3b35 d63d
00000060: e6c4 aebd ea5e d5bd 5a25 c7bd 4720 75be
00000070: 1f54 4c3e 8a32 1ebd 062f debd 4107 fd3e
00000080: 7eb9 f93e e319 4f3e e991 213f d6f6 0f3f
00000090: 6740 f93e 4fc2 fbbe 216a 3f3f 0cdf a43e
000000a0: 9e46 58bb d494 2fbe 78d0 8ebe 97cd 31bd
000000b0: 7c09 25be eed4 a9bd 911b 93be 21d5 653d
000000c0: f8be b03e 2282 a73e 6143 5fbf 1f6f ebbe
000000d0: 8b24 ba3e 2edb abbe 9e29 71bf ea1a 84bf
000000e0: 5219 b5bc 8e9e 4b3d 344a 0d3e ec39 ba3d
000000f0: 817f bf3c cb09 18be 4917 7b3c a4b3 e83d
00000100: 3be4 303f fea1 e53e b9c8 0f3f 9074 3e3f
00000110: 4e96 eb3e 2050 e4be 27af 1e3f 5e82 193f
00000120: 579d 4f3d 6e0f 64be ff6e 763d 4771 383d
00000130: 080f 9dbd c35c 4abe d38a 563e 9a5f 2d3e
00000140: 77f2 203e 7a89 92bd 1356 f9bd 6933 613c
00000150: bab5 8c3d e8c6 64bd 6af0 d53d f0c4 903d
00000160: 054b be3e 91db a83e 0eb1 193e 3bfe f83e
00000170: df4d 8c3e f56c 31bf 04c1 2c3f 91b4 ec3e
00000180: e2fd 593f d059 323f fc59 02be 6120 e73e
00000190: 5709 3e3f fc9e 62bf 200d a4be 1a1e 95be
000001a0: 3705 b5be 173d 27bf 93d5 f0be 5ddc 0cbf
000001b0: c8b6 c3be 7753 fa3e 3e87 dbbe 89b0 eabe
000001c0: 4f05 093c f099 923c 3895 993e d2a4 173e
000001d0: 814b aa3d db49 08bd 0ab5 09bf e82d b23d
000001e0: 7907 b7be e6fa 4fbf c047 d7be 848e 11bf
000001f0: c03e 09bf 3392 cc3e 80ea 59be 861f 5dbe
00000200: 9c5c 1e3f e81c a63e 2c41 34be aec8 173f
00000210: 3a7e 133f 2369 d2be 4a77 ae3e ee35 2e3d
00000220: d7dd ea3e 112c d4bd b86f a4be 1929 973c
00000230: dca3 903e e880 b2bd 208f b8be 9582 a3be
00000240: a83d 413d d914 82be 0c8f f1be d55b 47bf
00000250: 9014 6d3c 085e 3cbc 76f7 b6be 0519 c3be
00000260: 80b3 753e fa08 983c 6be5 2fbd 4412 70bd
00000270: d35f a03d 3f16 033e 6462 c8be e3fe 463e
00000280: 78c8 083f b0fe 3f3f 05dc a1bd 796b 843e
00000290: cff7 e63e 7584 0ebf dd0a c83c b69b 753e
000002a0: 176f 523e 6ee7 703e a5b6 7bbb e29e 073f
000002b0: 27d2 ea3d 4fc9 b0be 64dd 493e b647 e9be
000002c0: 9b52 ffbd 19e3 37be ff65 d93e 93d8 653d
000002d0: ddf8 3dbe 223d ca3d e214 a53e 9add 8f3e
000002e0: b869 c6bd 423c 943e 5ecd 8a3d 7001 53bd
000002f0: 6cb9 683e 3b72 00be 8518 bdbd 9712 fdbe
00000300: 2593 153f fcee e93e 37a4 5f3d 0b25 ef3c
00000310: a0c3 033f e705 dabe 0117 d23d 27ca a93d
00000320: 0731 fabc 7761 cdbd 7cc1 91bd 5ba3 f83c
00000330: a792 3a3e b8c8 a5be 4c9c 05bf 4e7b a3bc
00000340: bfbe bc3d 5607 e2bb 3e55 9abd feef 503e
00000350: 61b9 5b3e 2ca3 98bd 2f42 0ebc fdf7 8abe
00000360: 0875 df3e a10b 223e eb60 953e 774d 0c3f
00000370: 4673 3f3e 3eca 8ebe 3f49 a83e 6b23 143e
00000380: 774f 313d 5920 15bd 4fcf 253f 85d5 1e3f
00000390: 7aca 343e d5b9 76be fd35 053f d028 423f
000003a0: 24ab 213f a5e7 8b3f 0e9a fcbc 9b11 fc3e
000003b0: cedc 323f 5180 38bf 48da 2c3e 304b e43e
000003c0: 13a3 8abd a123 163e 9f4c f43d 1c16 493e
000003d0: 4cf0 e63d 881b 1cbf ebaf adbe c4d0 44bd
000003e0: ba20 053f 8535 123f ce86 c9bd b22a ca3e
000003f0: d043 153f 6322 11bf 665f d7bd 1c48 233e
0.47189876 0.22399136 0.34951484 0.30981874 0.46105313 -0.53387016 0.40533125 0.3316096
-0.017813541 0.2682277 -0.17934138 -0.27352378 0.18662219 0.15624213 0.061075702 -0.041734226
0.6985085 0.33541295 0.11293295 0.35259065 0.38708806 -0.22959824 -0.13045631 0.10459372
-0.08533649 -0.10418494 -0.09723921 -0.23938094 0.19953965 -0.038622417 -0.10848813 0.49419597
0.48774332 0.20224719 0.63113266 0.56236017 0.48681948 -0.49171683 0.74771315 0.3220142
-0.0033001075 -0.17146617 -0.27893424 -0.043408956 -0.16116899 -0.08292566 -0.2873197 0.05611146
0.34520698 0.3271647 -0.8721219 -0.45983216 0.36356005 -0.33565658 -0.9420413 -1.0320714
-0.0221068 0.049711756 0.13797837 0.09093079 0.023376228 -0.14847486 0.015325376 0.11362389
0.6909825 0.44850153 0.56165653 0.7439661 0.4601311 -0.4459238 0.6198601 0.5996455
0.05068716 -0.22271511 0.060164448 0.045029905 -0.076688826 -0.19761948 0.20951395 0.16931
0.15717493 -0.07155128 -0.121746205 0.013745167 0.06870599 -0.055853754 0.10446246 0.07068813
0.3716661 0.32980016 0.15008947 0.48631462 0.2740316 -0.6930688 0.6748202 0.4623151
0.8515302 0.69668293 -0.12729639 0.4514189 0.74233 -0.8852384 -0.32041264 -0.29124528
-0.3535554 -0.6532759 -0.47037944 -0.5502375 -0.3822539 0.48891804 -0.4287662 -0.4583781
0.008363082 0.017895669 0.29996657 0.14808968 0.083151825 -0.03327356 -0.5379187 0.08700162
-0.3574789 -0.81242216 -0.42046928 -0.56858087 -0.53611374 0.3995529 -0.21280861 -0.21594056
0.6186006 0.3244393 -0.17602986 0.5929059 0.5761448 -0.41095838 0.34075385 0.0425319
0.45872375 -0.103599675 -0.32116485 0.018452214 0.28250015 -0.08715993 -0.36046696 -0.31935564
0.04717794 -0.2540653 -0.4717945 -0.778745 0.0144702345 -0.011497028 -0.35735673 -0.38105026
0.23994255 0.018558968 -0.0429434 -0.05861117 0.07830777 0.12801455 -0.39137566 0.19433169
0.5343089 0.74998 -0.079032935 0.25863245 0.45110938 -0.55670863 0.024419243 0.2398518
0.2055019 0.23525783 -0.0038408425 0.5297681 0.11465865 -0.34528586 0.1971336 -0.45562524
-0.124669276 -0.17957725 0.4246063 0.056114744 -0.18551965 0.098749414 0.32242495 0.28098756
-0.09688133 0.28952223 0.06777452 -0.051515043 0.22726983 -0.12543575 -0.09233192 -0.49428245
0.5842765 0.45690143 0.054599967 0.029192468 0.51470375 -0.42582628 0.10258294 0.082905106
-0.030540956 -0.100283556 -0.07116982 0.030351331 0.18220006 -0.323797 -0.52191615 -0.019956257
0.092160694 -0.006897847 -0.0753579 0.2040405 0.21457435 -0.074529976 -0.008682772 -0.27142325
0.43643975 0.15824749 0.29175505 0.548057 0.18696317 -0.27888674 0.32868382 0.14466636
0.043288674 -0.036407802 0.6476945 0.62044555 0.17655364 -0.24094327 0.52035505 0.75843525
0.63151765 1.0930067 -0.030835178 0.49232182 0.6986817 -0.72070795 0.16880143 0.44588614
-0.06769385 0.14662029 0.11928677 0.1963734 0.11276302 -0.6097951 -0.33923277 -0.048050657
0.5200306 0.57112914 -0.09840165 0.394857 0.583066 -0.56693095 -0.10516243 0.15945476

encoder_variable_selection.single_variable_grns.SinWeekly.gate_norm.glu.fc.bias f4 [32]
00000000: 4e31 b93e a572 0b3e fe32 eebd dcaa 0d3d
00000010: c392 0f3e 7743 84be 2aec d8be 2901 93be
00000020: 62e5 4e3e 7fe9 35bd d7a3 b13d c193 913e
00000030: 3ba4 f93e 732a f4be 61d2 04bc e959 abbe
00000040: ead4 913e 2f3c e7be e5df e63d fb8a 52bf
00000050: dd23 733e 72ff 4fbf 91bc 053f 167d 79bf
00000060: c008 823e f03c 56bf 6e85 aabf d84e f4be
00000070: 487d cd3e 99bb 00bd fcf5 c0bf b396 c83e
0.3617043 0.13617952 -0.1163082 0.034586772 0.14020829 -0.25832722 -0.4236768 -0.28711823
0.2020469 -0.044412132 0.08673828 0.2843304 0.4875811 -0.47688636 -0.008106799 -0.33467034
0.28482753 -0.45163104 0.11273173 -0.8224332 0.2374415 -0.81249154 0.52240855 -0.9745649
0.253973 -0.83686733 -1.332197 -0.47716403 0.40134645 -0.031428907 -1.5075068 0.39177474

encoder_variable_selection.single_variable_grns.SinWeekly.gate_norm.add_norm.norm.weight f4 [16]
00000000: a163 893f 1dab af3e 5b8e bb3f 2633 da3e
00000010: e928 6d3f 18eb 3f3f 097c cb3f 6ccd c33d
00000020: 5975 943f 1179 303f 118c 713f 1191 ba3f
00000030: ea8c 5b3f 597e b93f 3be7 993f eb89 d73f
1.0733529 0.34310237 1.4652818 0.42617148 0.9264055 0.749681 1.5897228 0.095606655
1.1598312 0.6893473 0.9435435 1.4575521 0.8576189 1.4491683 1.2023691 1.6838964

encoder_variable_selection.single_variable_grns.SinWeekly.gate_norm.add_norm.norm.bias f4 [16]
00000000: 0a61 233d f929 be3e c8b6 503e c969 9c3e
00000010: b9fe 183e 3efb 2abe 4869 27be bde0 24be
00000020: fbd1 523d 3bc5 4cbe cd2c 58be 22d1 1f3e
00000030: d1cf 563e 13bb e3bd 0278 6e3e 827d 013e
0.039887466 0.37141398 0.20382226 0.30549458 0.14940919 -0.16697404 -0.16348755 -0.16101356
0.051469784 -0.19997112 -0.2111084 0.15607122 0.20977713 -0.11119666 0.23287967 0.12645534

encoder_variable_selection.single_variable_grns.VaccinationFull.resample_norm.mask f4 [16]
00000000: 4184 30bf d6d1 b3be 8661 3b3e e74b 6bbf
00000010: 5d85 6b3f 993a 6e3d c43c 11bf 0345 e33e
00000020: 4d0f 84bd bf21 3abf 1006 c1be d37e be3e
00000030: e4e5 8d3e b55e 683e 6fd2 d9bc c935 97bd
-0.68951803 -0.3512103 0.18298921 -0.9191269 0.9200037 0.05816135 -0.56733346 0.4438859
-0.06448231 -0.7270774 -0.37699938 0.37206134 0.27714455 0.22692378 -0.0265896 -0.073833056

encoder_variable_selection.single_variable_grns.VaccinationFull.resample_norm.norm.weight f4 [16]
00000000: 0da6 3c3e 525a 813e 92cf b43f 8677 073f
00000010: 90ca 0240 255a 8c3f b74c b7bd 48b4 ce3f
00000020: 5941 983f a18b f43e 537a 253f e31e ac3f
00000030: aa86 9c3f af57 933f 4a14 9d3e 0c6c 463f
0.18422718 0.2526422 1.4125845 0.52916753 2.0436134 1.096501 -0.08950179 1.6148767
1.1894943 0.47762778 0.64639777 1.3446926 1.2228596 1.1511134 0.30679542 0.77508616

encoder_variable_selection.single_variable_grns.VaccinationFull.resample_norm.norm.bias f4 [16]
00000000: b03f 19be c39b 293f 2248 9abd 4d63 a43e
00000010: 91d4 383d 323e 8cbe 9e2f 02be b90f 663e
00000020: 6204 b5bd 773d efbe bc42 77be 7038 cebd
00000030: b237 113c a044 4fbe c20c e93e 3c7f 223e
-0.14965701 0.662533 -0.075332895 0.3210701 0.045124594 -0.273912 -0.12713477 0.22466935
-0.088387266 -0.4672658 -0.24146551 -0.10069358 0.008863376 -0.20241022 0.45517546 0.15868849

encoder_variable_selection.single_variable_grns.VaccinationFull.fc1.weight f4 [8, 8]
00000000: fbd4 013f b323 64be 1cc7 2cbf c464 dabd
00000010: bab2 6b3f e87b aa3d 7de1 1bbf 1025 a6bd
00000020: 4422 3b3e ecc1 d2be d961 94bf a403 76bf
00000030: f8dc 613e 52dc a63e c6b7 b83f aca8 9e3e
00000040: d641 f53d 812c 12bf 3bcd ebbd 9bd5 3bbe
00000050: 4837 bcbe f093 c13e b9c4 4bbe ba14 15bf
00000060: 83ca 4abe 7514 67bf 46a9 2cbf 4971 a83e
00000070: faf2 19bf c5f8 723f 6cff 9b3e d8b6 853e
00000080: 7b6b 443e abe6 073f 8af3 54bc 2018 a73e
00000090: 4e03 cb3d 8b2c f63e d562 293f 2f85 5e3f
000000a0: 5655 93be f73e 273f afe9 3c3e c6a7 83be
000000b0: 39f7 83bf ab55 5fbf f791 58bf f97e e7bf
000000c0: 3142 30bf c92b 013f 3722 5c3e cf2e 033e
000000d0: 09a1 573f 1615 42be dbbf 2f3e 8376 a33d
000000e0: 7ae1 ba3e cd69 d33d 9148 14bf 3f03 14be
000000f0: 4e34 9ebe f35f 98bf db14 9cbe f821 c6bf
0.5071561 -0.22279243 -0.67491317 -0.10663751 0.9206959 0.083244145 -0.6089094 -0.08112538
0.1827479 -0.41163576 -1.1592361 -0.96099305 0.22056949 0.32589966 1.4431083 0.3098806
0.11975448 -0.5709916 -0.11513754 -0.18343203 -0.36760926 0.3780818 -0.19899262 -0.5823475
-0.19803815 -0.9026559 -0.6744579 0.3289893 -0.6013638 0.9491084 0.3046831 0.2611606
0.19181626 0.53086346 -0.012997517 0.32635593 0.0991274 0.4808086 0.6616643 0.8692197
-0.28776044 0.6533045 0.18448518 -0.25713938 -1.0309821 -0.87240094 -0.84597725 -1.8085624
-0.68851 0.50457436 0.21497427 0.12810825 0.84230095 -0.18953356 0.17163031 0.07981589
0.3650015 0.10322914 -0.5792323 -0.14454363 -0.3089928 -1.1904281 -0.3048466 -1.5479116

encoder_variable_selection.single_variable_grns.VaccinationFull.fc1.bias f4 [8]
00000000: df19 9c3e e027 333e 4f03 9c3d 1a26 8b3d
00000010: 9707 c33b b528 e5be 6811 25be 5440 18bd
0.30488488 0.1749568 0.076178186 0.06794377 0.0059518325 -0.4475762 -0.16119921 -0.037170723

encoder_variable_selection.single_variable_grns.VaccinationFull.fc2.weight f4 [8, 8]
00000000: a006 bfbe 5158 de3d 10d3 dfbc f99b 28bf
00000010: 6117 82bf 4448 023f a475 b4be c8af 793e
00000020: c922 353f 3be8 81bf 59a3 053d be48 babe
00000030: 07e5 13bf bfcf 32bf ef0e 1b3e ebba eabd
00000040: b10b d9bf 4aa6 c73e c2cf 60bd b583 173f
00000050: 60ab 7bbe 6344 033f e0db c63e 5f28 1b3f
00000060: 78aa 8b3e 10d3 1cbd 96b0 413d 7bf6 e6bd
00000070: 6989 413f f6ca 8fbf 23f5 3fbe c6ca c0be
00000080: c4ea 3dbe b8b8 fcbe 93aa 6c3e 0dc3 2bbe
00000090: a7b6 af3e ec5e 793e 8585 25bf 9c35 653f
000000a0: 3e80 a0be c911 123f 0e0a 8e3c 6873 a73e
000000b0: d6df 5d3e bda8 123e 3606 8cbe 7329 6cbf
000000c0: 0c25 483f 3149 0dbf 3fb3 02be 4c53 3e3f
000000d0: be2d db3d 657e 23bf 5c4f b9bc 4df2 283e
000000e0: 2660 59be 6e21 083f 39a8 933d f8b9 0d3f
000000f0: 32af abbe 7229 d4be 04b1 1dbe b136 d2be
-0.37309742 0.10856689 -0.027322322 -0.65862995 -1.0163385 0.5089152 -0.35246003 0.24383461
0.707562 -1.0148996 0.032626484 -0.36383623 -0.57771343 -0.69848245 0.15142415 -0.11461433
-1.6956693 0.38994056 -0.054885633 0.59185344 -0.24577093 0.51276225 0.38839626 0.60608476
0.27278495 -0.038287222 0.047287546 -0.11277481 0.75600296 -1.1233814 -0.18745856 -0.37654704
-0.18546587 -0.4935968 0.23111944 -0.16773625 0.3431904 0.24352616 -0.6465686 0.89534926
-0.3134784 0.5705839 0.017338779 0.32705235 0.21667418 0.14322181 -0.2734849 -0.92250746
0.7818153 -0.55189806 -0.1276369 0.7434585 0.10702084 -0.6386474 -0.02262085 0.1649868
-0.21228084 0.5317601 0.0720982 0.5536189 -0.335321 -0.4143787 -0.15399557 -0.4105735

encoder_variable_selection.single_variable_grns.VaccinationFull.fc2.bias f4 [8]
00000000: 1261 85be 5973 8c3e b2ec 99be 8d1f 57bd
00000010: b856 893e 0942 c4bc 87a2 033f dc05 f6bc
-0.2605062 0.27431753 -0.30063397 -0.052520324 0.26823974 -0.02395727 0.5141987 -0.03003209

encoder_variable_selection.single_variable_grns.VaccinationFull.gate_norm.glu.fc.weight f4 [32, 8]
00000000: b03f 7f3e ad67 cd3e d7bd 003f 0958 dd3e
00000010: 4ce7 55be 256f 943e a452 29bd 095b cfbe
00000020: 1806 17bf 5a18 953f 6c36 65bf 87fe 0d3f
00000030: e804 c3bd b909 b83e 43c0 263f 650a 28bb
00000040: 0657 833e 5b6c 51bc af55 9a3e 2dd6 77be
00000050: ecf2 0b3e 577a 923e f6d0 a0be 94e3 d03d
00000060: 20a3 79bf 9294 b33f 4cc7 53bf 858c 843f
00000070: 370a 43bf 5e65 363f 89aa 823f cfd2 4a3f
00000080: 44e7 773f 7739 c6be 4a92 563f 635b 91bf
00000090: 8749 9f3f c413 8fbf 34bf 7cbf 3974 87bf
000000a0: bc75 7a3e a489 463f 1f4f 08bd f29b 3bbe
000000b0: 964d 9f3d 8cf3 ac3c 5a9d f4bd 0498 1f3e
000000c0: 780b 7cbe a9f8 053d ff16 883d 0ecf 893e
000000d0: 33fb bbbe cf19 213f 6d35 483e 841c e73e
000000e0: ca0e 08bf 5b61 223f 45bf aebe a1a4 853d
000000f0: e70b bb3e 9278 09be dc19 e73e 9315 21be
00000100: ff6d 94be 9dc7 373e dee3 03be b6db e73e
00000110: 5007 03bf bfb8 cb3e 366f 183e 1af7 e23e
00000120: b56a 593e d5f1 ca3e 05cc 11be bb00 bdbe
00000130: 549d d13c 3a7c 05bf 7d12 9ebe e615 9ebe
00000140: bfde cb3e 1c11 53be c8d7 023f ea5a debe
00000150: ea76 d73e 9ac4 b6bd 3a93 92be 6a25 56be
00000160: 31e3 64bf 77af 58bf 8ead 85be d6b1 dd3e
00000170: 7abe 22bf fd9c 073f 009f fdbd bb65 113f
00000180: bf00 593e 8310 d63c bac3 89be 6569 a4be
00000190: 36d1 b5bc 6d5c c6be 30c6 4fbe 3e13 d4bd
000001a0: 6397 acbd 0ec6 d2be a34c 02be 3868 fb3e
000001b0: 65ae 4dbd 2ea7 c33e 0395 0e3e 0c62 f53d
000001c0: 266a f43d d41f e33e fc42 2dbe 66fe 1abe
000001d0: d38e 363c 2343 fb3d 6083 ebbd cd51 023e
000001e0: 154c 2dbe ea77 b13d a584 25bb 20cc 35be
000001f0: 465d 053e 9347 003e c9c9 bf3e 6120 143c
00000200: e969 263f 98eb 18bf 52af 073e 219f 1bbe
00000210: 1572 353e 8778 afbc f20d febe 8572 c6bf
00000220: a4da 833d 5b86 39bf b75b d83e 60b2 1bbe
00000230: 3d55 44bd 77b2 bfbb e9ac 2fbe 8af5 143c
00000240: ad0a 75be 5b4c 4f3f 69d0 bfbe 4e84 2b3f
00000250: ff17 48be 5304 dd3e 6fdf c93e 2992 dc3e
00000260: 64eb e13e af23 5bbf 61cb a23d f801 a5bb
00000270: 9482 71bd c1ad 4a3e 8145 04bf 1601 07bc
00000280: b0ac 98be 7105 9dbe ae09 b4bd 6f09 513f
00000290: c4b1 d1bf b073 8c3f 646c a9bd c0af 0140
000002a0: c56b b2bd 9d4b ddbe c079 d03e 2919 0a3e
000002b0: 206a 8abe 08a8 c73e 8b05 0fbf c923 e43e
000002c0: d2ee 493d eda3 173f aa57 62be a100 febd
000002d0: 1d91 70bd 9a64 00be 5a18 b3be ab8d 96be
000002e0: 775e 72bd df42 3d3f 20e1 703e a21c 83bd
000002f0: 6344 463e a832 84bf 9bf5 ecbe 7ac6 2ebf
00000300: 0597 293f 404e 22be e51f 163e bd09 fdbe
00000310: 05e1 393e 2c13 b8bb 69cf e6bd 3b0e aabe
00000320: 6a86 163f 1435 29bf 239a 303f 4a21 40bf
00000330: b89d 143f d8ea eebe 5f47 13bf 106a 22be
00000340: 76ca dc3e 3f62 11be 7b17 a43e ad1b 36bf
00000350: f418 8b3f ec02 00bf 4b1a 28bd cd95 36bf
00000360: 0c76 a03f bd4a e2be 8751 e63e 2f35 a3bf
00000370: 93bb 383f 2269 f9be f008 39bf c4bf 30bf
00000380: 805d 593f 0e13 cfbe 8476 623e 1afb 93be
00000390: e67a 893e 5dae aa3d a623 62bf 9b96 68be
000003a0: 172c b53e 3918 96bf 5780 cf3e c633 1bbe
000003b0: 5b1e ce3e a93a cc3d 47f5 53bf 7bf6 e9be
000003c0: 2b4e 9f3e f42c 923d 5bd5 87bd 5b14 b23e
000003d0: 3525 98be 2448 13be 06fb d13d f58d e1bd
000003e0: 5637 153f 0336 90be 0a8d 263f 7369 a5bf
000003f0: 0364 543f c18d 27bf 53fa dcbe e837 36bf
0.24926639 0.4011816 0.5028967 0.43231228 -0.20889014 0.28991047 -0.041338578 -0.40499142
-0.58993673 1.1648057 -0.89536166 0.554665 -0.0952242 0.35944918 0.6513712 -0.0025640961
0.2565233 -0.012782182 0.30143496 -0.24202795 0.13666886 0.28608963 -0.31409425 0.10199657
-0.97514534 1.4029715 -0.8272598 1.0355383 -0.7618746 0.71248424 1.0208293 0.7922792
0.9683726 -0.38715717 0.8381697 -1.1356014 1.2444314 -1.1177907 -0.9872925 -1.0582343
0.24458975 0.7755377 -0.03327858 -0.18321207 0.0777847 0.021112226 -0.11944075 0.15585333
-0.2461375 0.032707844 0.06645011 0.26915783 -0.36715087 0.62930006 0.1955163 0.45138943
-0.53147566 0.634298 -0.34130302 0.06525541 0.36532518 -0.134249 0.45136917 -0.15730886
-0.2899017 0.1794724 -0.12879893 0.45284814 -0.51183033 0.39789388 0.14886174 0.4432915
0.21232112 0.39637628 -0.14237984 -0.3691462 0.025587715 -0.5214268 -0.3087348 -0.30876082
0.3981838 -0.20611995 0.51110506 -0.43428737 0.42082912 -0.089242175 -0.2862795 -0.2091271
-0.89409167 -0.8464274 -0.26108974 0.4329974 -0.63571894 0.5297392 -0.123838425 0.56795853
0.21191691 0.02613092 -0.2690714 -0.3211166 -0.022194486 -0.3874239 -0.20290446 -0.10355233
-0.08427312 -0.4116673 -0.12724547 0.4910295 -0.050215144 0.38213485 0.13924031 0.119815916
0.11934309 0.4436022 -0.16920084 -0.15136108 0.01114245 0.12268665 -0.11499667 0.12726517
-0.16923554 0.0866545 -0.0025256064 -0.17753649 0.13023862 0.12527303 0.37458637 0.009040923
0.65005356 -0.5973449 0.13250473 -0.15197422 0.177193 -0.021419777 -0.49620014 -1.5503699
0.06438187 -0.72470635 0.42257473 -0.15204763 -0.047932852 -0.005850132 -0.17155804 0.009091744
-0.23929854 0.80975884 -0.37463692 0.66998756 -0.19540404 0.43167362 0.3942828 0.4308026
0.441249 -0.85601324 0.07948948 -0.005035635 -0.05896242 0.19792844 -0.51668555 -0.008240005
-0.2981925 -0.30668214 -0.08790909 0.8165502 -1.6382375 1.0972805 -0.08272627 2.026352
-0.08711962 -0.4322175 0.40717888 0.1348616 -0.27034092 0.38995385 -0.5586783 0.44558552
0.049300022 0.59234506 -0.22103754 -0.12402464 -0.05873214 -0.12538376 -0.34979516 -0.2940496
-0.05917212 0.7393016 0.23523378 -0.06401946 0.19362025 -1.0327959 -0.46281132 -0.682716
0.6624606 -0.15850163 0.14660604 -0.49421492 0.18152244 -0.00561752 -0.11270029 -0.33213982
0.5879885 -0.66096616 0.68985194 -0.75050795 0.5805316 -0.46663547 -0.5753078 -0.15860772
0.43123215 -0.14197634 0.32049164 -0.7113598 1.086699 -0.5000446 -0.0410407 -0.7132233
1.2536025 -0.44197646 0.44984075 -1.2750605 0.72161216 -0.48713022 -0.7227926 -0.6904261
0.84908295 -0.40444225 0.22115523 -0.28902513 0.26851577 0.083340384 -0.88335645 -0.22713701
0.353852 -1.1726142 0.40527603 -0.15156469 0.40257534 0.09972126 -0.8279614 -0.45695862
0.31114325 0.071374804 -0.06632491 0.34781155 -0.29715887 -0.14382988 0.10252957 -0.11013404
0.5828756 -0.28166208 0.6505896 -1.2922806 0.82965106 -0.65450674 -0.43159732 -0.71179056

encoder_variable_selection.single_variable_grns.VaccinationFull.gate_norm.glu.fc.bias f4 [32]
00000000: 0553 983e c1b2 053f 9c31 c8be 5899 543d
00000010: 75e5 19bf 17d7 96bd 37f6 ff3c 1f40 5d3e
00000020: 53ee ccbe 2910 3b3d 3452 8e3e e205 a3bf
00000030: b548 8c3e 0092 e6be 94f5 803e 853d b63e
00000040: 5f00 83be 326a 86be e57c 2a3e 4f27 d9be
00000050: 2aed 52be 192a 13bf 2641 993e 5e82 bc3e
00000060: 3446 643e 9ed1 3dbd 3969 753e 4c16 013e
00000070: 9c0f 9dbe 2ec9 02bf 1a97 c9be faa7 5dbe
0.2975084 0.5222588 -0.3910035 0.051904052 -0.6011575 -0.07365244 0.031245334 0.21606492
-0.40025577 0.04566971 0.2779709 -1.273617 0.2739922 -0.45033264 0.2518736 0.3559381
-0.2558622 -0.26252896 0.16649206 -0.42412803 -0.20598283 -0.5748611 0.29932517 0.36818212
0.22292405 -0.046342485 0.2396592 0.12606162 -0.30675972 -0.51088226 -0.39373094 -0.21646109

encoder_variable_selection.single_variable_grns.VaccinationFull.gate_norm.add_norm.norm.weight f4 [16]
00000000: a169 b43e d0be 993f 9fcf 9a3f 770e 963f
00000010: 6dc1 8f3f 40cb 183f 612c f93e 1282 b03f
00000020: 88e8 653f 7839 d23e b3d7 2a3f 3f6a ac3f
00000030: 0868 733f 386e 043f 61da 3c3f cbd7 9a3e
0.35236838 1.2011356 1.2094611 1.1723164 1.1230904 0.59685135 0.4866667 1.3789694
0.8980794 0.4105947 0.6673538 1.3469924 0.95080614 0.5173068 0.7377072 0.30242762

encoder_variable_selection.single_variable_grns.VaccinationFull.gate_norm.add_norm.norm.bias f4 [16]
00000000: 7854 113d 00c3 d73e d85f 7d3e 0c1d 723e
00000010: e2e4 923e 34df a5bd 0804 40be 0ea5 4bbe
00000020: 2b5f 04be 588d b3be dcd9 4abe bc92 c23d
00000030: 8bfb 3b3e bee5 8bbe 8c9e de3e 74b9 4a3e
0.035480946 0.4214096 0.24743593 0.23643893 0.2869025 -0.08099213 -0.18751538 -0.19887182
-0.12926929 -0.35068774 -0.1980967 0.095006436 0.18357675 -0.27323717 0.43480337 0.19797307

encoder_variable_selection.single_variable_grns.Cases.resample_norm.mask f4 [16]
00000000: cd69 f53e 1c8a 903e 787e fcbf 2069 17bf
00000010: 2768 16bf 34fb 033f 00a5 58be b9f5 89bf
00000020: 2ac2 d5bf b0f3 043f 274f 7b3e d55d 92bd
00000030: 860b 82bf 6fff 62be a863 d83e a546 2b3e
0.47932282 0.2823037 -1.9726095 -0.59144783 -0.58752674 0.5155518 -0.21156693 -1.0778114
-1.6699879 0.5193434 0.24541913 -0.07146803 -1.0159767 -0.22167753 0.42263532 0.16726168

encoder_variable_selection.single_variable_grns.Cases.resample_norm.norm.weight f4 [16]
00000000: 5c23 bb3f 66f0 bb3f a7a8 da3e 0ecd 7a3f
00000010: a983 313f 1c8f c93f 67bc a83f 11e4 423f
00000020: 9892 0e3f 09ae e93f 1b9f a53f 0069 ad3f
00000030: 54d9 8a3e 90e1 7a3f fb70 ce3f 0288 af3f
1.4620166 1.4682739 0.42706797 0.9796914 0.6934152 1.5746799 1.3182496 0.7612925
0.55692434 1.8256236 1.293918 1.3547668 0.27118933 0.9800043 1.6128229 1.3713381

encoder_variable_selection.single_variable_grns.Cases.resample_norm.norm.bias f4 [16]
00000000: 96f5 543e 3dc5 a13d c1fd 03be e443 3abe
00000010: 206a bd3d 9b50 56be 8ef4 f0bd 17e4 eebd
00000020: 7934 93bd 1ce1 4bbc 91bf 77be 4fd2 033e
00000030: 9a93 32be a17f e7bd 94bd b53e e12f d23e
0.20796809 0.07898948 -0.12889768 -0.1818996 0.09248757 -0.20929186 -0.11765395 -0.116645984
-0.07187743 -0.012443807 -0.2419417 0.12873195 -0.17439118 -0.1130364 0.354962 0.41052154

encoder_variable_selection.single_variable_grns.Cases.fc1.weight f4 [8, 8]
00000000: f7e0 c1bb 4acc d93f 52e1 503e 2c69 1abf
00000010: 9fae 31bf 27b5 bf3e 8a2e 8cbe 5b14 eebe
00000020: 17e9 053f 39b8 3e3f 6279 51be 1f45 1dc0
00000030: 8562 a5bf fd51 293e 75d2 073e f16a 17bd
00000040: 0323 a63f 576c 6f3b 22ce 1ebe e1e2 7b3d
00000050: 801a dc3c fbc2 423e 27dd 70bf 627a 363f
00000060: aaaf 1abf b236 953d 8d2d 5c3f 7827 473e
00000070: ce35 1e3f 22e7 e13e c979 743e fbbc 4d3f
00000080: cf3a 7fbe 1afb 8cbe 31f4 133e e94d 693e
00000090: 2d38 7d3e e280 a73e ebe2 e13d 32d5 ab3e
000000a0: eeff 08be 34ae 973e fa52 503e 1faf cdbf
000000b0: 606c 53bf b7f4 c53e a94d 4e3d 587f 453f
000000c0: b1e6 4e3e e221 163f fd47 3b3e 4d43 88bd
000000d0: 02fb c5bf 02da 4a3e e513 ef3e a6ad 77be
000000e0: 7f19 43be 369e f3be 65a8 f3be 742e 26bf
000000f0: e275 95bd 1373 09be 008d 38bf 3500 aa3f
-0.0059167105 1.7015469 0.20398453 -0.6031673 -0.69407076 0.37442896 -0.27379256 -0.46499905
0.5230879 0.7449985 -0.2045646 -2.4573438 -1.2920691 0.16535182 0.13263877 -0.03696722
1.2979435 0.0036533081 -0.15508321 0.061495665 0.026868105 0.19019692 -0.9408745 0.7128049
-0.6042429 0.07285823 0.86007005 0.1944865 0.6180085 0.44121653 0.23874582 0.80366486
-0.24924777 -0.27535325 0.1444862 0.22783627 0.2472846 0.32715517 0.11029609 0.33561093
-0.1337888 0.29625094 0.20344153 -1.6069068 -0.8258724 0.38663265 0.05036703 0.77147436
0.2020519 0.5864545 0.1828918 -0.066534616 -1.5467227 0.19809726 0.46694866 -0.24187335
-0.19052695 -0.47581643 -0.47589412 -0.6491463 -0.07297875 -0.13422804 -0.7209015 1.3281313

encoder_variable_selection.single_variable_grns.Cases.fc1.bias f4 [8]
00000000: b00f b1be 3941 a3be 079b fabc adbe e7be
00000010: bc19 04bd 6ff6 78be 1ec6 01bf f3bf 3fbd
-0.3458228 -0.31885698 -0.0305915 -0.45262662 -0.032251105 -0.24312757 -0.5069293 -0.046813916

encoder_variable_selection.single_variable_grns.Cases.fc2.weight f4 [8, 8]
00000000: bcc6 f8bd 9917 6c3f 3db2 483e 4a3e edbe
00000010: 9de2 f93e 177d 8bbd d230 613f 6de5 4b3e
00000020: 17f7 78be 7b64 103c e289 adbd 3840 e6be
00000030: 096c 643e e179 0c3e 275a 973d c10a 7fbf
00000040: aa90 55be b730 19bf c5b9 73bf b5a3 aa3e
00000050: a60e e43e 2d1d babe 352a 30bf 1bde 4f3f
00000060: b04c adbe d88c 17bf c33f 01bf 1e89 3ebf
00000070: e89e d23e c543 36bf 77a5 0abf 23eb 8cbe
00000080: a772 e63e e367 233f 7a18 543e 8c8e 473e
00000090: 809b d43e 56e4 3abe d3f1 803e 9bf5 013f
000000a0: 5b07 073f 91cb 593e 8df5 6e3f 3210 cb3e
000000b0: 7272 acbe 1d21 333e 2295 913e 6e1f ba3d
000000c0: bb17 20bf 666c abbe 1b72 1dbf c266 fe3e
000000d0: a951 38be 409a b6be 8f31 de3e 613a 933d
000000e0: c69e 213f 63ca 393f ea96 183e f848 4abe
000000f0: dbb0 5c3e 9d7d 23ba 904d 113e af55 0c3e
-0.121472806 0.9222351 0.19599243 -0.46336585 0.48805705 -0.06810968 0.8796512 0.19911738
-0.24313007 0.008813019 -0.08473565 -0.4497087 0.22306837 0.13718368 0.07390242 -0.99625784
-0.20855966 -0.5983996 -0.95205337 0.33328024 0.44542426 -0.36350384 -0.688144 0.8119828
-0.3384757 -0.59199286 -0.5048792 -0.74427974 0.4113686 -0.7119716 -0.5415873 -0.27523145
0.45009348 0.63830394 0.20712462 0.19487971 0.41524887 -0.18251166 0.25184497 0.5076539
0.527456 0.2126906 0.9334343 0.39660794 -0.33681065 0.174931 0.28434092 0.09088026
-0.6253621 -0.3348114 -0.61502236 0.49687773 -0.17999901 -0.35664558 0.43397185 0.07188869
0.63132894 0.7257444 0.14901319 -0.19754398 0.2155184 -0.00062366744 0.14189744 0.1370456

encoder_variable_selection.single_variable_grns.Cases.fc2.bias f4 [8]
00000000: 51b8 9abe 0774 fe3d 305e 4a3e 2685 673e
00000010: 9507 4f3d 2b2f 633d 1bad 1c3e b0fa ba3d
-0.30218747 0.12424474 0.19762492 0.22609386 0.05054434 0.055464905 0.1530041 0.09129846
