TFT-pytorch/results/age_subgroup/AGE6579/checkpoints/best-epoch=0.ckpt (torch, 702583 bytes, 506 tensors)

prescalers.AGE6579.weight f4 [8, 1]
000000 5b 60 19 be f4 6b 1b bf 71 0c c4 3e 9f 41 d1 3e
       -0.14978163 -0.607116 0.38290742 0.40870377
000010 ce 5f 1d bf 77 a7 4c bc 30 07 05 bf 9a e0 7f 3e
       -0.6147431 -0.012491099 -0.5196409 0.24988022

prescalers.AGE6579.bias f4 [8]
000000 be bf 82 be 20 93 1a 3f 5e 5a 3b 3f ed df 57 3e
       -0.25536913 0.60380745 0.73184764 0.21081515
000010 83 5e cd be 46 30 26 bf ba 38 1e be 63 04 ec bd
       -0.4011117 -0.6491741 -0.15451327 -0.11524274

prescalers.SinWeekly.weight f4 [8, 1]
000000 3d bd 3c 3e d9 40 8e bf 15 11 79 3f bf d9 65 bf
       0.18431564 -1.111354 0.9729169 -0.8978538
000010 e8 8e 50 3f 88 9f 5d be a4 a4 1d 3f 97 d2 e0 3e
       0.8146806 -0.21642888 0.61579347 0.43910667

prescalers.SinWeekly.bias f4 [8]
000000 a4 6a 53 3d ad 35 66 3d 3f 4c 2c 3f cc 99 9c 3e
       0.051615372 0.056203533 0.6730384 0.30586088
000010 6a 9a 0b 3f e5 a4 2c bf 2a cf 2f 3f bf 2b bd 3e
       0.5453249 -0.6743911 0.6867548 0.36947438

prescalers.VaccinationFull.weight f4 [8, 1]
000000 a2 78 6e 3e 2b ea 3b bc 9c 62 42 3f 5e a5 41 3f
       0.23288205 -0.011469404 0.75931716 0.75642955
000010 3d c9 b7 be e4 17 26 bf a6 12 05 bf a9 0a 14 bf
       -0.3589572 -0.64880204 -0.5198158 -0.57828766

prescalers.VaccinationFull.bias f4 [8]
000000 10 f7 1c 3f 83 15 fd be 19 a0 d3 be 19 bb 8f 3f
       0.6131449 -0.49430475 -0.41333082 1.1228973
000010 a5 7f 5c 3f 08 f8 6f 3d e6 fb 5c be 0f 43 04 3d
       0.8613227 0.05858615 -0.21580467 0.032290515

prescalers.Cases.weight f4 [8, 1]
000000 50 c3 24 3f 53 67 83 bf cc 8d 75 bf cc 63 04 3f
       0.64360523 -1.0265907 -0.9591949 0.5171478
000010 d4 91 9c 3f 0f c4 58 3c de 68 2e bf ca 64 83 3e
       1.2232003 0.013230338 -0.68128765 0.25662833

prescalers.Cases.bias f4 [8]
000000 53 ae 30 bf 31 93 b8 bd 43 5c 0e 3f f7 ed 81 3e
       -0.69016 -0.090124495 0.5560953 0.25376865
000010 48 9a 37 bb 92 1c 37 bd d3 e4 f9 3e b0 2a 65 bf
       -0.0028015543 -0.04470498 0.48807392 -0.8951826

static_variable_selection.single_variable_grns.AGE6579.resample_norm.mask f4 [16]
000000 d3 49 4a be 04 95 55 bd 83 98 05 bb 9d 56 0b 3d
       -0.19754724 -0.052144065 -0.0020385094 0.034018148
000010 ae 4b 20 bd ad 78 5e 3e 36 07 c9 3d f2 61 02 be
       -0.039134674 0.21725722 0.098158285 -0.12732676
000020 b3 65 0a 3c f7 11 01 3e 58 27 b8 bd e4 c5 33 3e
       0.008447099 0.1260451 -0.08991879 0.17555958
000030 44 0a 0b 3e 2f 56 12 be 26 a2 fe bd e3 0d 1e be
       0.13578135 -0.14290689 -0.12433271 -0.15434985

static_variable_selection.single_variable_grns.AGE6579.resample_norm.norm.weight f4 [16]
000000 34 04 4d 3f e1 ad 76 3f 78 fe 8d 3f 1e 9d 8a 3f
       0.8008454 0.9635907 1.1093283 1.0829198
000010 2c bb 82 3f 1a af a1 3f fa 5f 90 3f bc c5 6f 3f
       1.021337 1.2631562 1.127929 0.93661094
000020 e7 54 73 3f 49 a9 92 3f a5 00 78 3f de 4b a4 3f
       0.95051426 1.1457912 0.96875983 1.2835653
000030 a7 6c 8d 3f 61 03 53 3f 2a 89 83 3f db c8 66 3f
       1.1048783 0.8242703 1.0276234 0.9015023

static_variable_selection.single_variable_grns.AGE6579.resample_norm.norm.bias f4 [16]
000000 91 70 c8 3d 02 2a e1 bd 1d eb 1a 3d 43 74 12 3e
       0.09787095 -0.109943405 0.037821878 0.14302163
000010 d7 c1 92 bd 56 f6 69 3d 69 e2 d4 bc 93 94 0a 3d
       -0.07165878 0.05711969 -0.025986867 0.033833098
000020 af 34 a0 3d 50 4e 86 bd da 8c d2 3d 33 c1 9c be
       0.078225486 -0.06557906 0.102807716 -0.3061615
000030 1d 19 5b bd 23 10 29 bd 41 bd 6c 3b 18 89 0d 3e
       -0.053490747 -0.041275155 0.0036123546 0.13821828

static_variable_selection.single_variable_grns.AGE6579.fc1.weight f4 [8, 8]
000000 50 7f f5 3e c6 01 05 bf 8d 91 48 bf f2 f7 1e bf
       0.47948694 -0.5195583 -0.7834709 -0.62097085
000010 09 44 89 bd 08 95 9e bf 64 56 ba 3e dc e5 fa be
       -0.0670243 -1.2389231 0.36394036 -0.49003494
000020 2d a9 30 bf aa 36 63 bf 99 26 18 be 07 7b 1c 3f
       -0.6900814 -0.88755286 -0.14858474 0.61125225
000030 3d 36 61 be af 68 f3 be 34 66 32 3f e9 45 76 bc
       -0.21993347 -0.47540805 0.696872 -0.015031316
000040 47 0c a0 3e f6 0c cd 3e eb d4 04 3f 75 4e 99 be
       0.31259367 0.4004895 0.5188739 -0.2994267
000050 f4 c2 02 3e 3a 61 30 be d5 00 b7 3e e5 44 c2 be
       0.12769681 -0.17224589 0.35742822 -0.37943187
000060 39 c8 28 bf 5b d5 0f bd a1 8d 19 be ca 2c 14 bf
       -0.65930516 -0.03511558 -0.14995433 -0.5788084
000070 cd 34 a5 bc 1f a7 4c 3e aa 8c 17 3d 03 b1 16 3f
       -0.020166779 0.19985627 0.036999382 0.5886385
000080 ce eb ea be 81 09 d6 3e a2 bf 3b bc 5b 21 a7 bd
       -0.4588303 0.41804126 -0.011459263 -0.08160659
000090 f1 3a 09 bf 28 da 6a 3f ca 1c 47 3e 1a 0f e2 3d
       -0.5360556 0.9173913 0.19444576 0.11038037
0000a0 80 f0 b6 3e 4e 49 33 be a8 eb 55 be 41 ff d8 3d
       0.35730362 -0.17508432 -0.20890677 0.10595561
0000b0 94 35 b7 3e fc e0 b4 be ab 04 ba bb ad 4a d8 bd
       0.35783064 -0.353279 -0.005676826 -0.10561118
0000c0 25 b4 06 be ec e8 11 bf 00 d5 8a be 62 f2 5c 3d
       -0.13154657 -0.56996036 -0.2711563 0.05394209
0000d0 2b f4 0d 3f df 5f a3 3f b1 70 09 3f 5e de 81 be
       0.55450696 1.2763633 0.5368758 -0.25364965
0000e0 30 5d 3e bf 08 3a e3 be be 56 87 be 91 3d 55 3e
       -0.7436094 -0.44380212 -0.26433367 0.20824267
0000f0 16 ae 89 3e 60 2f ce be f2 3e 08 3f 0e c3 de 3b
       0.2689063 -0.4027052 0.53221047 0.0067981547

static_variable_selection.single_variable_grns.AGE6579.fc1.bias f4 [8]
000000 c4 41 6b be e2 cf 13 3e b0 40 a0 bd 0e 3d ae bc
       -0.22974306 0.1443477 -0.07824838 -0.021269348
000010 41 84 61 3d 0d cd 83 bd 6c d0 00 3e 07 dd 27 3b
       0.055057768 -0.06435595 0.12579507 0.002561392

static_variable_selection.single_variable_grns.AGE6579.fc2.weight f4 [8, 8]
000000 4b 3c 0f be ae d7 2f 3f 1e f5 20 3e 47 41 e2 be
       -0.13987844 0.68688476 0.15718505 -0.44190428
000010 81 9f 98 3e f2 cf c5 be 6d df 24 3f 69 dd 0c 3f
       0.29809192 -0.38635212 0.6440342 0.55025345
000020 da c0 32 be c4 87 0b bf 97 3d 9d 3e 12 3b 44 bd
       -0.1745638 -0.54504037 0.30711052 -0.047907896
000030 f5 68 51 3e 5f b8 82 bc ce 0c ad 3e 5f e6 c3 3d
       0.20450194 -0.015957056 0.33798832 0.09565424
000040 d2 86 f3 be 36 d3 b6 3e 11 d8 ca bd 8f cb b5 3d
       -0.47563797 0.35708016 -0.09904493 0.08876716
000050 d1 90 38 3e 2d 9e a2 be b0 ec b3 be 47 c1 03 3f
       0.18023993 -0.31761304 -0.35141516 0.5146679
000060 e4 b7 37 3f 6a 38 85 3d 79 da 00 3f 60 c4 6c be
       0.7176497 0.06504901 0.5033336 -0.23121786
000070 1b 51 ce bc 93 40 ab bd ab e4 2e 3f 42 f7 fe be
       -0.025185158 -0.08361926 0.6831767 -0.49798018
000080 91 4b 13 3e 4c 84 ce be c7 00 17 3e 84 34 1e 3e
       0.14384295 -0.4033531 0.1474639 0.1544972
000090 44 15 ad 3e 0e c4 9a 3e 35 21 1a 3f ff 08 e7 bd
       0.33805287 0.30227703 0.6020692 -0.11281013
0000a0 45 ae 22 3d 32 8a 2d be 88 e0 00 bf 88 16 c2 bc
       0.039716978 -0.16947249 -0.5034261 -0.023692384
0000b0 37 b4 2a 3e 99 3f 3a be cf 7a 40 bf ce 30 01 3e
       0.16670309 -0.18188323 -0.7518739 0.12616274
0000c0 b4 98 3f bf 82 4d 0d 3e c5 53 fd 3b cb bb 3f bc
       -0.7484238 0.13799098 0.0077309334 -0.011702488
0000d0 3f 5f 67 3e f2 26 38 3d df 0e f2 be fb cb 66 be
       0.22594927 0.044959016 -0.4727697 -0.2253875
0000e0 65 b4 35 be 72 ed bd 3e 0b ae 24 bf 90 c8 a0 be
       -0.17744596 0.3709522 -0.6432807 -0.31403017
0000f0 c4 01 95 bd dd b6 de bd 69 fb 33 3e 70 b5 37 bf
       -0.072757274 -0.10874722 0.17576374 -0.71761227

static_variable_selection.single_variable_grns.AGE6579.fc2.bias f4 [8]
000000 58 91 0f 3e ed 95 97 3d ee fd 0b 3d 8a 29 bf bd
       0.14020288 0.07401643 0.034177713 -0.09334095
000010 ec c8 8b bd ce c8 a4 bc 02 a3 a6 3d 86 db d5 3d
       -0.06825432 -0.020115282 0.0813656 0.104422614

static_variable_selection.single_variable_grns.AGE6579.gate_norm.glu.fc.weight f4 [32, 8]
000000 c3 fc ab 3d 05 b9 d7 3e b6 ac 94 be a0 de 23 be
       0.0839782 0.42133346 -0.29038018 -0.16002893
000010 a6 32 8c 3e a1 32 9f be 1d 63 d8 be d4 c2 9a bc
       0.27382392 -0.31093314 -0.42263117 -0.01889173
000020 ec 5f 0b be 15 b8 09 3d 32 da 6d be 68 d7 a9 3e
       -0.1361081 0.03362282 -0.23227766 0.33172154
000030 21 c9 e5 bd c9 d8 6f 3e d7 ca 02 be c0 56 1b be
       -0.11220003 0.2342254 -0.1277269 -0.15169811
000040 d9 b1 9c 3d 1b 1d 8e 3e a2 ae cb be ce 08 09 bc
       0.07651109 0.2775658 -0.39781672 -0.008363916
000050 ba f3 81 3e 1c d2 42 be 51 df ec 3c 44 8c ff bb
       0.2538126 -0.19025463 0.02891508 -0.0077987034
000060 c6 0f fe bd d4 5a 75 3e 45 07 c9 be b3 e5 11 be
       -0.12405352 0.2396043 -0.3926336 -0.1424778
000070 7d e8 3c bd e0 a6 86 be c4 73 61 be f3 3e 2d bd
       -0.046120156 -0.2629919 -0.22016817 -0.04229636
000080 a6 32 ad be 53 0a c6 bd 6b ba f5 3d d1 5f 75 be
       -0.33827704 -0.09669938 0.11998447 -0.23962332
000090 d0 48 23 3e 9c 9e a2 be c9 51 13 be 57 fe c4 3d
       0.15945745 -0.31761634 -0.14386667 0.09618824
0000a0 ba 8e 38 3e 76 db e9 3c bf e3 2f be b2 25 35 3c
       0.18023196 0.02854703 -0.17176722 0.011056351
0000b0 12 7e 86 be 3d 1c 19 be 09 c3 c0 3e f9 95 a9 3e
       -0.2626806 -0.14952178 0.376488 0.33122233
0000c0 ad 06 9e bd ab c7 fa bd e9 ef 0b 3e 82 c4 f4 bd
       -0.07716117 -0.12245115 0.13665737 -0.119515434
0000d0 d3 21 73 bd 03 22 c1 bd 1e 81 11 3e da fe e3 3e
       -0.05935843 -0.09430315 0.1420941 0.44530374
0000e0 96 c4 a3 3d cc 93 90 3e 10 07 5e 3d cc bc e7 bd
       0.0799648 0.2823776 0.054205954 -0.11315307
0000f0 ff 48 ed bd 9a 56 a1 3d 01 5b 66 3e 9a c9 83 3d
       -0.115861885 0.07877846 0.22495653 0.06434937
000100 f5 76 44 bd 1d bd cf be b6 c4 ae 3e 4d 47 d3 bc
       -0.04796501 -0.4057397 0.34134454 -0.025790835
000110 18 b8 85 3e ec 64 a8 3e dc 9c 8b 3e 08 e2 8b 3e
       0.26117015 0.32889497 0.27268112 0.27320886
000120 24 50 bc 3e 30 b1 23 be cc 1d 20 3d 13 c3 97 3e
       0.36779892 -0.1598556 0.039090917 0.29641017
000130 42 02 53 3d 1b dd 60 be 6f 68 ca be fe 8c 8a be
       0.051515825 -0.21959345 -0.39532802 -0.27060694
000140 8a 10 c2 bb 1f ea ff 3c a2 02 a0 3e 15 c0 70 be
       -0.0059223818 0.031239567 0.3125201 -0.23510773
000150 ce 24 e4 be 3f 51 97 be 01 0a 09 3e 0e 32 5d 3d
       -0.4455933 -0.29554173 0.13382722 0.054002814
000160 72 5a 39 be 1d 88 9c be 8c 25 9e 3e 84 6e a3 be
       -0.18100908 -0.30572596 0.3088802 -0.31920254
000170 82 16 d0 3e b4 af a0 3b d2 53 18 be d7 b5 0c 3f
       0.40642172 0.004903758 -0.14875725 0.54964966
000180 de fd 4d be 9f 64 a1 3e 29 97 a7 3e 70 ca ce 3d
       -0.20116374 0.3152208 0.32732514 0.10097206
000190 d5 6c 6f 3e ec ff 52 bc 81 9f b8 3d e1 5d 39 3d
       0.2338136 -0.012878399 0.09014798 0.045255546
0001a0 a1 42 01 bf a1 0a 4a be c3 d1 31 3d c1 d8 fe 3c
       -0.5049229 -0.19730617 0.043412935 0.031109216
0001b0 a0 d7 05 be 5c c6 89 3d 8c a3 8f 3e 10 7f 1b 3e
       -0.13070536 0.06727287 0.28054464 0.15185189
0001c0 5d 71 1b be 9d 2e d4 3e fd 24 1b be c6 b3 e9 3d
       -0.15179963 0.41441813 -0.15150829 0.11411242
0001d0 a2 f2 0e be dd 58 af 3d b0 84 3c 3e b2 d5 ea 3d
       -0.13959745 0.08561871 0.18409991 0.114665404
0001e0 81 6a 36 bc f2 1b f5 3d e1 df 86 be 5e 1d ad 3e
       -0.011133791 0.11968221 -0.2634268 0.33811468
0001f0 7e 3c a8 3d 1a 9f bb 3e 7f a3 e6 3d 13 05 bb be
       0.08214663 0.36644822 0.11261653 -0.3652731
000200 48 14 0e be ca 77 02 bf fb c3 8a 3e 23 03 e4 3e
       -0.13874924 -0.50964034 0.27102646 0.44533643
000210 0a 4a 8c 3e 52 69 fd bd 0d cb e5 be 8b 7e 6d 3d
       0.27400237 -0.12373604 -0.44881478 0.05798201
000220 15 16 39 3f 22 34 3e bf 05 3c 12 be 51 fe e5 bd
       0.7229932 -0.742983 -0.14280708 -0.11230148
000230 de 78 9e 3d df c3 e9 bd 12 7b 3b be b3 16 5a 3d
       0.07737897 -0.114143126 -0.18308666 0.053244304
000240 81 09 c4 3e b7 25 20 bf 97 73 3e 3c 4e 71 25 3e
       0.382885 -0.6255755 0.011624238 0.16156504
000250 3e b2 84 be 6a 32 ce 3e a8 1a ae be c7 7d 0b 3f
       -0.25917238 0.40272838 -0.34004712 0.54488796
000260 9d ab 9e 3c 73 ee dd 3d 3b 62 49 be 99 6a b3 be
       0.019368941 0.10836496 -0.19666378 -0.35042265
000270 0f 6a 20 be eb 3d a7 3e 7c 25 fe be a5 9e 10 3f
       -0.15665458 0.32664427 -0.49637973 0.5649207
000280 c2 80 e1 3e a2 70 93 be 92 12 a1 bd 68 44 f9 3b
       0.44043547 -0.2879687 -0.0786487 0.0076070316
000290 9b 03 2a 3e 36 ce 4f be cf ff 90 be 20 e0 82 3d
       0.16602938 -0.20293507 -0.28320166 0.06390405
0002a0 ac fa 19 3f 13 e2 18 be 6a c4 1d 3f 0c 81 c7 be
       0.6014812 -0.1492999 0.6162783 -0.38965642
0002b0 a0 3e cb 3e cc 5d a1 bd d2 6e b9 be 8d 8c ff 3e
       0.39696217 -0.078792185 -0.36217362 0.4991192
0002c0 b3 b9 80 3e c7 12 55 3e 81 75 af be c9 92 ce bd
       0.25141677 0.20807944 -0.34269336 -0.10086591
0002d0 8c 77 82 be f4 e9 00 be f2 9d fd bd 53 8e 2d be
       -0.25481832 -0.12589246 -0.12383641 -0.16948824
0002e0 00 72 87 bd 32 83 09 3d 57 51 e3 3e 38 e2 0d be
       -0.06613541 0.033572383 0.44397995 -0.13855827
0002f0 02 4f 31 3e ca b0 a8 3e f6 d2 f1 bc 80 84 0d 3e
       0.17315295 0.3294738 -0.02951954 0.13820076
000300 d7 54 f4 bc 09 b2 c2 3c 1d 4a 5a 3e 48 c9 3c 3e
       -0.029825611 0.023766534 0.21317334 0.18436158
000310 57 07 67 3e 4e fe f8 3e b4 29 82 bd 76 01 14 3f
       0.22561394 0.4863152 -0.063556105 0.5781473
000320 93 fb 2f 3d c2 22 58 3c 14 a0 69 3e c8 f9 d5 be
       0.04296453 0.013191881 0.22814971 -0.4179213
000330 73 26 f7 3e fc 17 29 be 80 c7 25 be 52 20 c3 3e
       0.48271522 -0.16513056 -0.16189384 0.38110596
000340 2f 34 a2 3e d9 83 1c bf f1 05 ae 3e e8 00 a0 bd
       0.31680438 -0.61138684 0.33988908 -0.07812673
000350 4e 42 16 bf e0 51 28 3e cf 4d 84 be d4 5d 00 bd
       -0.5869492 0.16437483 -0.25840613 -0.03133948
000360 22 a1 26 be f1 01 63 3e cc a6 88 3e a1 d0 5b 3e
       -0.16272405 0.2216871 0.26689756 0.21466304
000370 85 b7 36 be b2 91 11 3e df a8 6b 3c ee b2 05 be
       -0.17843445 0.14215735 0.014383524 -0.13056538
000380 85 3b 3e be ed f3 6b be 4f cd b1 3e ac ce c0 be
       -0.18577392 -0.23042269 0.3472695 -0.37657678
000390 50 a1 c4 bd dd e7 64 3e 8c 90 50 be 06 2b d4 3e
       -0.096010804 0.22354074 -0.2036764 0.41439074
0003a0 ea 7a 2c 3d 68 2a 80 be 6e 5d 6a be bc f1 33 be
       0.042109407 -0.25032353 -0.22887203 -0.17572683
0003b0 b1 fa 07 3e b9 2f 65 3e e9 ff 8e bd a9 30 03 3e
       0.13279225 0.22381486 -0.06982405 0.12811531
0003c0 21 6c f3 3e 06 2c 5d 3d 4c b5 1b be c2 e0 f8 bc
       0.47543433 0.053997062 -0.15205878 -0.03038061
0003d0 87 21 50 3e ce 50 86 be 6b 0b 02 be 5a 4d 55 3e
       0.2032529 -0.26233524 -0.12699668 0.20830289
0003e0 b6 1c a4 3c e2 ff 88 be 13 57 a0 be e0 a9 9f be
       0.020033222 -0.26757723 -0.31316432 -0.31184292
0003f0 c3 b9 b3 3e 02 14 eb be 3b 03 9e be 79 d1 be 3e
       0.35102662 -0.45913702 -0.3086184 0.3726919

static_variable_selection.single_variable_grns.AGE6579.gate_norm.glu.fc.bias f4 [32]
000000 3e d5 f5 3d 4c fb 00 be 41 0b 84 bc c8 e1 a4 3d
       0.12003563 -0.12595862 -0.016118648 0.08050877
000010 03 8c 96 bd 82 e5 07 3e 6a bf 16 bd d1 b3 3a 3d
       -0.07350924 0.13271144 -0.03680364 0.045581643
000020 e4 ee 07 3e 43 d5 b5 bd 82 5c df 3d 82 dd 92 be
       0.13274723 -0.08878567 0.10906316 -0.28684622
000030 cd 73 32 bd 0f 1b a1 bc 67 77 58 3b e4 de 08 3e
       -0.043567467 -0.019666223 0.0033030154 0.13366276
000040 69 10 41 be 2e fb 6d be 84 21 97 be 5f 2d 9b be
       -0.18853916 -0.23240349 -0.29517758 -0.30308053
000050 da 19 35 be 99 b2 2e be 35 da 62 bc 1f 4e de be
       -0.17685643 -0.17060317 -0.01384597 -0.43418977
000060 15 d7 d1 bd c3 a2 d5 bc 29 bc 79 be 9f 23 57 3e
       -0.10246102 -0.026078587 -0.24388184 0.21009682
000070 a1 3d c3 be 7c 24 a2 bd 4b 1f 23 be ab a7 dc bd
       -0.38132957 -0.07917115 -0.15929906 -0.107741676

static_variable_selection.single_variable_grns.AGE6579.gate_norm.add_norm.norm.weight f4 [16]
000000 8d 9f 41 3f bd de 74 3f 13 81 93 3f 01 51 91 3f
       0.7563408 0.9565237 1.1523765 1.1352845
000010 a7 85 85 3f 15 9f 9a 3f f4 ff 8b 3f 6c c6 52 3f
       1.0431412 1.2079798 1.0937486 0.8233402
000020 95 62 66 3f 66 09 92 3f 1f 99 7c 3f d8 ec aa 3f
       0.89994174 1.1409118 0.98671144 1.3353529
000030 00 a6 86 3f f8 44 3b 3f b6 4a 3c 3f 6a d2 48 3f
       1.0519409 0.7315211 0.735515 0.78446066

static_variable_selection.single_variable_grns.AGE6579.gate_norm.add_norm.norm.bias f4 [16]
000000 71 a7 92 3d f2 76 9f bd 68 c9 ce 3d 16 ac 60 3e
       0.07160843 -0.07786359 0.10097009 0.21940646
000010 fe ec cf bb bd 4b cf 3d 4b ce 84 bb 91 f3 10 3d
       -0.0063453903 0.10121868 -0.0040529124 0.035388533
000020 09 7c 58 3d 1b e2 c8 bd ee 19 b9 3d a7 5e c0 be
       0.052852664 -0.09808751 0.09038149 -0.37572214
000030 50 41 b9 bd 05 44 34 bd 9a 6a aa 3b a0 13 14 3e
       -0.090456605 -0.04401018 0.005200696 0.14460611

static_variable_selection.prescalers.AGE6579.weight f4 [8, 1]
000000 5b 60 19 be f4 6b 1b bf 71 0c c4 3e 9f 41 d1 3e
       -0.14978163 -0.607116 0.38290742 0.40870377
000010 ce 5f 1d bf 77 a7 4c bc 30 07 05 bf 9a e0 7f 3e
       -0.6147431 -0.012491099 -0.5196409 0.24988022

static_variable_selection.prescalers.AGE6579.bias f4 [8]
000000 be bf 82 be 20 93 1a 3f 5e 5a 3b 3f ed df 57 3e
       -0.25536913 0.60380745 0.73184764 0.21081515
000010 83 5e cd be 46 30 26 bf ba 38 1e be 63 04 ec bd
       -0.4011117 -0.6491741 -0.15451327 -0.11524274

encoder_variable_selection.flattened_grn.resample_norm.mask f4 [3]
000000 9b 6b 0c bf f1 2e e7 3d 56 95 6c 3e
       -0.5485169 0.1128825 0.23103842

encoder_variable_selection.flattened_grn.resample_norm.norm.weight f4 [3]
000000 c3 85 5b 3f 49 51 6f 3f 9a 24 c6 3f
       0.8575098 0.93483406 1.547992

encoder_variable_selection.flattened_grn.resample_norm.norm.bias f4 [3]
000000 74 8d 8b 3e ed 01 93 bc b4 cf 29 bf
       0.27256358 -0.017945254 -0.66332555

encoder_variable_selection.flattened_grn.fc1.weight f4 [3, 24]
000000 17 b0 08 3f a3 69 aa be 46 9a 55 3e f0 6c c2 bd
       0.5339369 -0.3328372 0.20859632 -0.094934344
000010 32 8e d8 3d 99 69 b9 3d 62 c3 21 be 11 09 13 be
       0.105739966 0.09053344 -0.15797189 -0.14358927
000020 65 7e dc be e9 da 46 3e ad 72 e6 3d ed 2c 95 bf
       -0.4306518 0.19419445 0.112523414 -1.1654335
000030 c5 1a e1 bd a1 2f 0d bd b8 41 80 3d 2f 63 8a bb
       -0.10991434 -0.03446925 0.06262535 -0.0042232494
000040 34 1c 07 3f 82 8f 42 bf 5f 38 84 3e f2 5a ec 3b
       0.5277741 -0.76000226 0.25824258 0.00721299
000050 8d 96 1e 3e e3 da eb bd 89 02 a4 3d a8 c4 94 3e
       0.15487118 -0.11516359 0.08008296 0.29056287
000060 b7 86 9b 3e d3 af cd bd eb 3c 48 be 93 50 1a bf
       0.30376217 -0.100433014 -0.19554488 -0.60279197
000070 a7 fb 98 3e 91 65 ee 3a 01 1d 5f 3e 9c d5 3e 3f
       0.29879496 0.0018188228 0.21788408 0.7454469
000080 07 ec 95 be 84 d0 ef 3d 56 4f 3d bf 29 ca ba be
       -0.29281637 0.11709693 -0.7394918 -0.3648236
000090 c5 7f 9e 3d f5 2b 14 3e 56 b2 86 3e 17 3a bc 3e
       0.07739214 0.14469893 0.26307935 0.3676307
0000a0 d2 46 4e bd 58 eb 95 3d 08 f2 d0 be ab f8 64 be
       -0.05036051 0.07320279 -0.40809655 -0.22360484
0000b0 e6 98 c6 bd 02 20 75 3e b1 21 74 3d f9 8f ea bd
       -0.09697132 0.23937991 0.059602443 -0.11453242
0000c0 db 53 79 3e 6e 19 c5 be 6d 7e 34 be 67 b6 27 3d
       0.24348395 -0.38495964 -0.17626353 0.040945437
0000d0 c8 ee 9e 3e 74 d5 13 3f 3c e0 36 be 09 d3 93 3e
       0.3104155 0.5774758 -0.17858976 0.28871945
0000e0 ba 40 12 bf 75 dc da 3e 4b 61 e4 3d d9 af f1 3d
       -0.57130015 0.4274632 0.1115137 0.118011184
0000f0 4b 7f b7 bd e8 b1 db 3d 19 f1 ea 3e 45 8e ae 3e
       -0.08959826 0.10727292 0.45887068 0.34092918
000100 6b 13 1d 3d 67 f1 f9 3e 99 64 c9 3d 6d dd 80 be
       0.038348597 0.48816988 0.098336406 -0.25168934
000110 15 a5 b4 be 01 ab 2f be 6a 83 a5 be b2 66 06 3e
       -0.35282198 -0.17155077 -0.32326823 0.13125113

encoder_variable_selection.flattened_grn.fc1.bias f4 [3]
000000 5b 41 11 be 7f cf a1 bd 70 cb 8a be
       -0.14185087 -0.07900905 -0.27108335

encoder_variable_selection.flattened_grn.context.weight f4 [3, 16]
000000 33 d0 70 be 57 a3 bf bd 68 ec 81 be c4 6a 5a be
       -0.23516922 -0.093573265 -0.25375676 -0.2132979
000010 80 32 44 3e d4 05 58 be cd 05 3e 3d a4 ae 1e bc
       0.19159889 -0.21095973 0.04639225 -0.009685192
000020 85 60 4b be 23 88 fa 3c c4 10 9a 3d f5 e3 75 3e
       -0.19861038 0.030582493 0.07522729 0.2401274
000030 5e 0e df 3e 49 3c ae 3d 86 e0 85 be 26 98 86 be
       0.4356565 0.08507592 -0.2614786 -0.26287955
000040 f5 dd d6 3e 44 14 ce bb 61 75 11 3f b1 30 ea be
       0.41966215 -0.006289037 0.5681973 -0.45740274
000050 20 e0 fa be a0 f2 13 3f 9e 97 99 bd 41 8b a5 be
       -0.4899912 0.5779209 -0.07499622 -0.32332805
000060 e9 63 2c 3e f3 81 bd bd c6 81 87 be 0a 0c f2 3d
       0.16834988 -0.092533015 -0.26466197 0.118187025
000070 bc 92 7c 3e f6 9f de bd e8 da 8d be 56 89 ef bd
       0.2466535 -0.10870354 -0.27706075 -0.116961166
000080 c3 ce 93 3e 50 88 1a be 12 8a f2 3e 84 20 cf be
       0.28868684 -0.15091062 0.47370964 -0.40454495
000090 de 58 b6 be 3f 9d 12 3f fd e3 4e 3e 47 ef 30 3e
       -0.35614675 0.5727119 0.20204158 0.17278777
0000a0 1b 91 9c be 5b 56 d3 3e e1 20 1c be e0 ef f9 3d
       -0.30579457 0.41276821 -0.15246917 0.12203956
0000b0 1b 49 92 3e 51 ff 7d 3e 77 a9 77 be ca 4b 92 3e
       0.285714 0.24804427 -0.2418574 0.28573447

encoder_variable_selection.flattened_grn.fc2.weight f4 [3, 3]
000000 a6 f8 3a bf 17 bf 89 bf 2a 0a 88 be a0 5d 4d bd
       -0.7303566 -1.0761441 -0.26570255 -0.050138116
000010 0a 62 86 bf 22 2a 34 be 15 a7 94 be 14 61 73 bf
       -1.0498669 -0.17594197 -0.29033723 -0.95070004
000020 19 7a 5e bf
       -0.86905056

encoder_variable_selection.flattened_grn.fc2.bias f4 [3]
000000 09 ea 4f 3e 04 d0 af bd 00 77 94 bc
       0.20304121 -0.08584598 -0.01812315

encoder_variable_selection.flattened_grn.gate_norm.glu.fc.weight f4 [6, 3]
000000 1d 5d e9 3e 2d 39 85 be f0 4c 33 3f 0f 18 05 be
       0.45578852 -0.26020184 0.7003927 -0.12997459
000010 0b fe b4 be f2 c9 2b 3f 39 e3 24 be ff 31 c6 be
       -0.3535007 0.6710502 -0.16102304 -0.3871002
000020 c9 97 8d be 88 e9 b6 be 2c bd f4 be 80 5f 3e 3f
       -0.27654865 -0.35725045 -0.47800577 0.7436447
000030 42 ca 63 3f 79 78 bd bd 1c 99 f3 be 9d 66 1c 3f
       0.88980496 -0.09251494 -0.4757775 0.61094075
000040 2f 5c 34 3f a0 3c 40 3f
       0.7045316 0.75092506

encoder_variable_selection.flattened_grn.gate_norm.glu.fc.bias f4 [6]
000000 97 6c 3a 3e 2a c6 ab bd dd 2d 1a bf 22 1a bc bd
       0.18205486 -0.08387406 -0.6022623 -0.09184672
000010 d8 c5 22 3e 27 23 0a 3f
       0.15895784 0.5395989

encoder_variable_selection.flattened_grn.gate_norm.add_norm.norm.weight f4 [3]
000000 dc 34 10 3f 7a c3 7a 3e 4e a9 98 3e
       0.56330657 0.24488631 0.2981667

encoder_variable_selection.flattened_grn.gate_norm.add_norm.norm.bias f4 [3]
000000 27 a6 a3 3d 34 2a 08 bf 42 56 21 3f
       0.079906754 -0.53189397 0.63022244

encoder_variable_selection.single_variable_grns.SinWeekly.resample_norm.mask f4 [16]
000000 d9 60 54 be e6 ea 9b 3c 28 48 34 3e 06 bd 5d 3b
       -0.2074007 0.019032907 0.1760565 0.003383459
000010 97 7c 38 be 29 7e 52 bd 98 ef b5 3e a7 fb a6 be
       -0.18016277 -0.051389847 0.35534358 -0.3261387
000020 52 b8 e1 be 69 bc 92 3b a8 6e 1c be 12 5a 9f bd
       -0.44085938 0.0044780266 -0.15276587 -0.077808514
000030 31 80 13 bf 4b 4e 5b 3c 90 4c ec 3d b1 c0 b0 3e
       -0.5761748 0.013385366 0.11538041 0.34522012

encoder_variable_selection.single_variable_grns.SinWeekly.resample_norm.norm.weight f4 [16]
000000 4c 1e 7c 3f 63 83 4f 3f 74 4d 98 3f c7 5d 75 3f
       0.9848373 0.81059855 1.1898637 0.9584622
000010 33 d5 61 3f 6b 3e 7b 3f 7f a7 b4 3f 37 ef 33 3f
       0.8821594 0.9814212 1.4113616 0.7028689
000020 ea 4e 04 3f 2a 1b 82 3f d9 62 6c 3f d1 8c 81 3f
       0.51682913 1.016454 0.9233833 1.0121099
000030 46 0a 1a 3f f3 2e 85 3f fd 88 97 3f 47 44 af 3f
       0.60171926 1.0404953 1.183868 1.3692712

encoder_variable_selection.single_variable_grns.SinWeekly.resample_norm.norm.bias f4 [16]
000000 9b 41 82 bd 14 d7 c0 3d 3d f7 73 bd ab ad db 3d
       -0.063601695 0.09416023 -0.059561957 0.10726484
000010 5f 45 c2 bd de 5d 8e bc 3d a1 6e bd dc 7a 5d be
       -0.09485888 -0.017378744 -0.058259238 -0.21628898
000020 89 1d 86 bd 83 33 45 bd a1 d4 4e 3d c9 b8 1a 3e
       -0.06548602 -0.04814483 0.050495747 0.15109552
000030 11 5b 02 3e f0 9d 66 bd f2 b0 f8 3c 3d 11 ff 3c
       0.12730052 -0.056302965 0.030357812 0.03113615

encoder_variable_selection.single_variable_grns.SinWeekly.fc1.weight f4 [8, 8]
000000 45 1d 8b 3f 81 1c bd bf f4 f7 45 bf f0 54 c5 bf
       1.0868307 -1.4774324 -0.7733147 -1.5416546
000010 76 96 92 be 12 6d fe bd 43 1a 9f 3e e0 7f f8 3e
       -0.28630418 -0.12423147 0.31074724 0.4853506
000020 1f 47 3e be 4a 8f ac 3e 95 96 b3 be c6 58 34 be
       -0.18581818 0.3370307 -0.35075822 -0.1761199
000030 86 c6 c2 be 4a 85 60 3f bb ac 18 bf af 94 f0 be
       -0.38042086 0.8770338 -0.59638566 -0.46988437
000040 36 4d ac be 6a 7c 14 3e cf 76 44 bf 66 6e dd 3e
       -0.33652657 0.14500585 -0.7674379 0.4324829
000050 d5 24 99 bf a6 f9 14 3f a1 1f 21 3f c8 1e 87 bd
       -1.1964365 0.58193433 0.62938887 -0.06597668
000060 a9 86 b1 3e 97 3d 4d 3d 9a c0 ba be 40 5b d8 3d
       0.3467305 0.050107565 -0.36475068 0.105642796
000070 9b 17 a9 3e 09 f4 16 3e 79 ee 8d 3e b8 3a 12 3f
       0.33025822 0.1474153 0.27721003 0.5712085
000080 58 35 0c bf bb 67 63 be e6 7d 92 3f 7c 3a 08 be
       -0.54768896 -0.22207539 1.1444671 -0.1330356
000090 95 53 14 3e e3 1c 47 3f d6 99 09 3f b8 14 7d bf
       0.14485009 0.7777845 0.5375036 -0.9885974
0000a0 61 99 25 3f a8 61 9d be 2d 69 2c bf 69 1a ab 3c
       0.6468716 -0.30738568 -0.67347986 0.020886617
0000b0 e8 ad 5d 3e 6a 5e ad be ab 2e 24 be 6c 01 69 3e
       0.21648371 -0.33861095 -0.16033427 0.22754449
0000c0 47 1c 80 bf 9e f4 b1 bd 08 7b c2 bf ef 78 0f 3f
       -1.000863 -0.08689235 -1.5193796 0.56043905
0000d0 b0 a0 1a bf 52 70 c8 3d 92 0d 51 bf 75 d2 09 bf
       -0.6040144 0.097870484 -0.8166133 -0.53836757
0000e0 dd 1a ad 3e 57 93 83 3d 36 f4 39 bf de 25 94 3e
       0.33809558 0.06424587 -0.7263826 0.2893514
0000f0 96 56 4d 3f e1 4d e6 3e 58 24 07 be c8 03 cc 3e
       0.80210245 0.44981292 -0.13197458 0.39846635

encoder_variable_selection.single_variable_grns.SinWeekly.fc1.bias f4 [8]
000000 85 ed ba bd d2 74 66 bd d2 6f 90 bd c8 6b e2 bd
       -0.091273345 -0.056263752 -0.07052578 -0.11055714
000010 58 80 8f bd cc 34 ba bc 1d 1a 10 be aa 33 92 bb
       -0.070069015 -0.022730254 -0.14072461 -0.0044617252

encoder_variable_selection.single_variable_grns.SinWeekly.fc2.weight f4 [8, 8]
000000 e5 7d 8a bf 78 d5 19 3e 86 0f 9e bf 1b 6a 0c bf
       -1.081967 0.15022838 -1.2348487 -0.54849404
000010 2a 4a 29 bf 85 44 8d 3d 9f fb d9 3e c5 1c b0 be
       -0.6612879 0.06897835 0.42574784 -0.3439695
000020 89 28 87 be 6b 3c 8c be 4b 60 e2 3e 65 5d 47 3e
       -0.26398113 -0.27389845 0.4421409 0.19469221
000030 9e b5 2f be 45 62 e4 3e c9 7e 2f 3f f2 a4 87 3e
       -0.17159125 0.44606224 0.68552834 0.2649303
000040 c9 05 38 3f f3 7f 88 be ac 04 46 3e 83 d8 00 bf
       0.7188383 -0.26660118 0.1933772 -0.5033037
000050 a8 a6 1e 3f 9d 17 1b 3d 51 dc 4a 3f c4 d3 ee 3e
       0.6197305 0.037864316 0.79242426 0.4664594
000060 e0 69 8b 3e 93 38 81 3f 7f c5 0e 3f 8f fe 1a 3e
       0.27229214 1.009539 0.55770105 0.15136169
000070 c9 21 4f 3d 3d 79 f2 be 10 9f a1 3e b9 d9 cd be
       0.05056933 -0.47358122 0.31566668 -0.40205172
000080 00 5a 79 bf 07 4a 89 3f dd 55 b3 be df 4a 2c 3d
       -0.97402954 1.0725716 -0.35026446 0.04206359
000090 a0 7c 7a bd 19 6d df 3e 01 49 6e 3e 98 25 cb be
       -0.061154008 0.43637922 0.23270036 -0.3967712
0000a0 3e 1c c9 3e b5 e9 16 bf 55 a8 0f bf 16 48 15 3d
       0.3927936 -0.5895036 -0.5611623 0.0364457
0000b0 1b dc 10 bf 7d 24 aa 3b b7 7b bf be 6a 05 7f be
       -0.56585854 0.005192338 -0.37399074 -0.24904409
0000c0 bf b1 b2 3e ad cf 86 3e 66 2a 71 3e 31 42 60 bd
       0.34901235 0.2633032 0.2355133 -0.054750625
0000d0 64 b3 08 3f 99 af 87 bd e7 46 c7 3e fe 3f a9 3e
       0.5339873 -0.066252895 0.38921282 0.33056635
0000e0 95 0a 2e 3f eb 97 aa 3d 4f 60 02 3f 3b 69 23 3f
       0.67984897 0.08329757 0.50928205 0.63832444
0000f0 19 91 1d 3f 53 c6 26 be 20 65 5b 3f 11 6a 14 bf
       0.61549526 -0.16286592 0.8570118 -0.57974344

encoder_variable_selection.single_variable_grns.SinWeekly.fc2.bias f4 [8]
000000 c4 9c b4 bd 89 12 b5 bd c3 39 67 3d 31 fa 94 3d
       -0.08818963 -0.08841426 0.05645157 0.07274283
000010 77 b7 8c 3d 38 80 f8 3d cd 92 8d 3c c3 45 94 3c
       0.06870931 0.12133831 0.017281914 0.018099671

encoder_variable_selection.single_variable_grns.SinWeekly.gate_norm.glu.fc.weight f4 [32, 8]
000000 56 74 4b 3e 1f bb 18 3e 66 e9 ac 3e 1e ac 26 3e
       0.19868597 0.14915131 0.3377182 0.16276595
000010 b0 41 7f 3e e1 f9 ef be 9f 56 10 3e 88 67 f5 3e
       0.24927402 -0.4687033 0.14095543 0.4793055
000020 5e e8 39 be 12 d4 a4 3c 2c c6 2e be 40 a4 9f be
       -0.18155047 0.020120654 -0.17067784 -0.3118
000030 29 35 25 3e 3e c0 73 3e 3c d0 9d 3e 17 7b aa bd
       0.1613356 0.23803803 0.30822933 -0.08324259
000040 23 5d 28 3e 36 1f 22 be 08 d8 0a 3e 90 a5 89 3e
       0.16441779 -0.15832219 0.13558972 0.26884127
000050 b7 d9 d5 3e 82 b0 69 bd 2d 3d a6 bd 5c 1f 7f 3e
       0.41767666 -0.057053097 -0.08117137 0.24914306
000060 8d 26 32 be d8 38 5c be 8e fe 07 be 48 6b 4e be
       -0.17397518 -0.21506059 -0.13280699 -0.20158112
000070 c9 5a 53 3e f5 de 6d 3e 24 4c 1a 3d 9b 26 6a 3e
       0.206401 0.23229583 0.03767027 0.2286629
000080 e9 2b 8b 3e 3f 82 e2 3d b2 49 11 3f 6a f6 0c 3f
       0.27181938 0.11059999 0.56753075 0.550635
000090 8f bd 91 3e e0 7c cb be 0f 29 04 3f 82 94 5f 3e
       0.28464934 -0.3974371 0.5162515 0.21833995
0000a0 78 d0 2d 3e fd c7 15 be ce f8 53 bd fe 27 05 3e
       0.16974056 -0.1462707 -0.05175095 0.13003537
0000b0 e8 d7 55 be 3e 46 61 be b3 89 4d be 3b f8 0a bc
       -0.20883143 -0.21999452 -0.2007206 -0.008482034
0000c0 6b 6d a5 3e 63 30 52 3e d8 23 87 bf 44 f9 40 be
       0.32310042 0.2052627 -1.0557814 -0.18845087
0000d0 7d 51 f0 3d 6e 89 3f be 5e e8 ff be 9c da 23 bf
       0.11734293 -0.18704769 -0.4998197 -0.64005446
0000e0 1f ec f0 be ba c7 da bd 36 5c 88 3e b3 e6 4c be
       -0.47055146 -0.10682626 0.2663285 -0.2000988
0000f0 bb 0c 19 be b4 01 c7 bd 4a c3 22 be 9e a8 07 be
       -0.14946263 -0.09717122 -0.1589481 -0.13247916
000100 a4 b9 90 3e c8 1e b2 3e 39 90 29 3e 78 de 1e 3f
       0.28266633 0.3478911 0.16558923 0.6205821
000110 e8 41 2c 3e 04 73 0b bf 99 a6 0a 3f 73 0e cc 3e
       0.16822016 -0.54472375 0.5416046 0.39854774
000120 23 d8 70 bb af f9 db be da 79 57 3e 23 2e 8d bc
       -0.0036749921 -0.4296393 0.21042576 -0.017233914
000130 c7 95 f9 bd ed 9f 93 bd 44 2d d7 3d 70 d4 e8 3d
       -0.12186771 -0.07208238 0.105066806 0.11368644
000140 33 79 00 3e d0 6a 02 3d db 9e 6d 3d d8 2f f9 bd
       0.12546234 0.031840146 0.058012825 -0.121673286
000150 c3 58 39 3c 5c 47 dd 3d 01 55 79 3d 76 92 94 3e
       0.011312666 0.10804626 0.06087208 0.2901799
000160 6a b5 f3 3d 8a fa 4f 3e d6 eb 09 be ea e6 86 3e
       0.11899836 0.20310417 -0.1346887 0.26348048
000170 a5 fb e7 3c 5a 22 1d bf fd a0 15 3f aa 23 fe 3e
       0.028318236 -0.6138054 0.58448774 0.49636585
000180 10 18 4c 3f 9e 7a 38 3f 83 01 25 be 72 89 59 3e
       0.79724216 0.720621 -0.16113858 0.21243837
000190 9e f1 20 3f fb 4f 2e bf 09 ea 06 bf 09 51 12 bf
       0.6286868 -0.6809079 -0.5270086 -0.571549
0001a0 58 0a c6 3d 00 ad e5 be 93 9e 87 bd 20 d5 13 be
       0.09669942 -0.4485855 -0.066220425 -0.1443677
0001b0 1a 8d 54 bd af 76 73 3e f2 13 89 be 1a ce d7 be
       -0.051892377 0.23775743 -0.2677303 -0.4214943
0001c0 00 24 0d be 60 47 2b bb 06 3e 4d 3e 30 3c a4 bc
       -0.13783264 -0.0026135072 0.20043191 -0.02004823
0001d0 22 11 55 3d 18 db 32 3e bd 2b 03 bf 59 78 91 bd
       0.052018292 0.1746639 -0.51238614 -0.071030326
0001e0 1b 7c 55 bd b9 d6 11 bf b1 9a c6 be 56 3c 97 be
       -0.05212031 -0.56968266 -0.38789895 -0.2953822
0001f0 d8 2b b7 be 09 2a 2b 3d 77 4f bd bc 05 32 27 be
       -0.35775638 0.041788135 -0.02310918 -0.16327675
000200 91 8f c8 3e b7 4d 97 3e 83 fb b1 bd ed 71 2c 3f
       0.39172032 0.2955148 -0.0869055 0.67361337
000210 a7 78 a4 3e 1c 8a d1 be ac f9 c8 3e a5 6f b8 bd
       0.321233 -0.40925682 0.39252985 -0.090056695
000220 fc 76 6e 3e 7c f5 95 be 91 e3 af be f0 77 af bc
       0.23287576 -0.29288852 -0.34353307 -0.021419495
000230 06 af 60 3e 05 b6 46 3e 04 d7 cc be e1 15 a6 be
       0.21941766 0.19405372 -0.40007794 -0.32438567
000240 f5 2f 98 3e 77 63 a6 be e9 07 89 be 2a 30 25 be
       0.29724088 -0.3249776 -0.26763847 -0.16131654
000250 84 5a 76 bc c8 9b 32 3d 62 bc 73 be 5c 84 a2 3d
       -0.015036229 0.043605596 -0.23802331 0.07935402
000260 b3 ce 99 3d 4b 44 92 be f6 6a aa 3e 76 c7 c1 bd
       0.07510128 -0.28567728 0.3328473 -0.09461872
000270 fb 4c 04 bf 12 7e 93 3e af 87 34 3e 8f 1b d8 3d
       -0.5167996 0.28807122 0.17629884 0.105521314
000280 0e 08 82 3e 38 7b 92 3e c3 58 34 be 45 f0 f6 3d
       0.2539677 0.28609633 -0.17611985 0.120575465
000290 ac 8a 91 3e fd ff dc be 50 ab 52 3e 90 c5 45 3e
       0.2842611 -0.43164054 0.20573163 0.19313645
0002a0 21 59 5d 3e e4 5e 9e bd 8a 09 d1 3d d7 8a 99 3e
       0.21616031 -0.07732943 0.102068976 0.2998874
0002b0 72 c1 32 3d 67 86 57 be b2 7d 1a 3e 41 d6 c6 be
       0.043641515 -0.21047364 0.15087011 -0.38835338
0002c0 dc 42 2d be e8 ac 6f be 84 05 6c 3e 91 4b 69 be
       -0.16920036 -0.23405802 0.23048979 -0.22782733
0002d0 e0 56 d3 bd 67 40 80 bd d8 b4 8f 3e 71 5f 00 3f
       -0.103193045 -0.06262284 0.2806766 0.5014563
0002e0 39 38 07 be 49 64 2b 3f cf 57 04 3e 17 07 75 bc
       -0.13205041 0.669499 0.12924121 -0.014955304
0002f0 ce 0f 4e 3e 59 11 56 3c 43 ec 55 be 5e 4d df be
       0.20123217 0.013065659 -0.20890908 -0.43613714
000300 d2 d5 1a bb 73 e8 fa bb 4a 96 49 bc e3 48 e6 bd
       -0.0023625982 -0.0076571046 -0.012303898 -0.11244371
000310 9a 2f cd 3e 8c 5c 31 be 53 f9 ae bc 79 21 bd 3d
       0.4007538 -0.1732046 -0.021359121 0.092349
000320 d4 c5 10 3d 1d 33 5f bd a5 6a 82 b9 1e 7c 7e 3e
       0.035344914 -0.054492105 -0.0002487499 0.24852034
000330 04 88 6b 3e 45 e5 15 be 8f 6e ad be b2 77 b1 3d
       0.23001105 -0.1463824 -0.33873412 0.08665408
000340 67 49 88 3e 1b ab 25 be 66 75 99 bd 73 9b 0e 3e
       0.26618502 -0.16178553 -0.07493095 0.13926487
000350 c8 49 2b 3e d2 8a a4 3d f3 53 2a be bc ec 5d be
       0.16727364 0.080342904 -0.16633587 -0.21672338
000360 11 c9 e6 3e e7 77 d2 bc 21 a7 86 3e 1f 3e d2 3e
       0.45075276 -0.02569194 0.26299384 0.4106302
000370 ed 28 49 3e 75 10 08 be 55 d8 83 3e 22 48 74 3e
       0.19644518 -0.13287528 0.25750986 0.23855641
000380 10 1a 92 be e7 9f de bd d0 aa bb 3e 63 72 0c 3e
       -0.2853551 -0.10870343 0.36653757 0.1371551
000390 c9 06 a9 3b a4 9a 39 3d e9 13 e8 3e 8a 85 41 3f
       0.0051582796 0.045313492 0.4532769 0.7559439
0003a0 8a e8 50 be d5 9d ca 3e 75 e8 e7 bc b6 95 01 3f
       -0.20401207 0.3957354 -0.028309086 0.50619066
0003b0 8e 83 c0 3e 0a 22 eb be 3c 49 7e 3d 12 47 7f 3e
       0.37600368 -0.45924407 0.06208156 0.24929455
0003c0 7b c8 b3 bd 51 d4 06 3e 81 8f 8e be 8a 2c f2 3d
       -0.08778473 0.1316693 -0.2784386 0.118249014
0003d0 3e f6 e6 3c 51 02 85 be 2d ff be bc 63 3e f8 bc
       0.02819359 -0.2597833 -0.023315037 -0.030303186
0003e0 e1 dd 4c 3e 5a bf ac 3e 6f 2b 91 be 27 c5 c6 3e
       0.20006515 0.3373974 -0.2835345 0.3882229
0003f0 87 9a 11 3e c3 99 99 be e1 ab 25 be 8b 66 c2 bd
       0.14219104 -0.30000123 -0.16178848 -0.09492215

encoder_variable_selection.single_variable_grns.SinWeekly.gate_norm.glu.fc.bias f4 [32]
000000 ed 4c 90 3d 64 b4 a2 3d 5f df 99 bd 3f 75 81 3d
       0.070459224 0.07944563 -0.07513308 0.06321191
000010 89 17 1c bd f2 8c 7f bd db 5d d8 bd 8f b9 8f be
       -0.038108382 -0.062390275 -0.105647765 -0.28071257
000020 aa 1f e3 bc 07 cc 0e bd 73 1d 2f 3d 75 be 37 3e
       -0.02772506 -0.034862544 0.042752694 0.17943747
000030 86 3a 00 3d eb b3 9e bd d1 63 6e 3c 4a b5 2a be
       0.031305812 -0.077491604 0.014550165 -0.16670719
000040 dc ff a5 3e ca eb bb bd 66 22 f8 bd 17 88 9c be
       0.32421768 -0.091758326 -0.12115936 -0.30572578
000050 06 3f e6 3d b8 85 99 be fd 2a 7b 3e c4 7b 7a bd
       0.112424895 -0.29984832 0.24528117 -0.06115319
000060 87 9f 84 3e 4c be b7 bc 17 1e fb be 66 de 83 3d
       0.2590296 -0.022429608 -0.49046394 0.064389035
000070 bd 1a cc 3e d9 d3 11 be 60 73 86 be e5 54 91 3e
       0.3986415 -0.1424097 -0.262599 0.28385082

encoder_variable_selection.single_variable_grns.SinWeekly.gate_norm.add_norm.norm.weight f4 [16]
000000 b3 42 89 3f 5e e9 d3 3e 1f 41 a0 3f 1b 80 5e 3f
       1.072348 0.41388983 1.2519873 0.86914223
000010 02 b8 75 3f dd a5 62 3f ae 70 c7 3f a2 13 26 3f
       0.959839 0.8853434 1.5581262 0.6487371
000020 f0 d5 81 3f b9 a9 7e 3f 97 25 64 3f d0 b3 9d 3f
       1.0143414 0.99477726 0.8911986 1.23205
000030 56 50 8d 3f ce c6 95 3f bc 20 91 3f 4c a8 ae 3f
       1.1040142 1.1701295 1.1338115 1.364511

encoder_variable_selection.single_variable_grns.SinWeekly.gate_norm.add_norm.norm.bias f4 [16]
000000 e5 10 55 bd 5d 9c 31 3e 9e 83 d1 3c c0 d7 6d 3e
       -0.052018065 0.17344804 0.025575455 0.23226833
000010 6e f5 3f 3c 00 0d ce bb be cc bc bd ea 84 d9 bd
       0.01171623 -0.006288171 -0.09218739 -0.106210545
000020 18 d1 0f 3d 28 a9 c7 bd 8e 0e 3a bd 33 f5 36 3e
       0.035111517 -0.09749061 -0.045424037 0.17866974
000030 3a 20 c0 3d 1b f6 2a bd 31 d5 cb 3d 25 62 28 3d
       0.09381147 -0.04173861 0.099527724 0.041109223

encoder_variable_selection.single_variable_grns.VaccinationFull.resample_norm.mask f4 [16]
000000 6b 30 7f be 9f 7d f7 bd ea bd e9 3d aa f8 cd be
       -0.24920814 -0.12084507 0.11413176 -0.40228778
000010 89 5c d6 3e f8 76 e6 3d cd 12 8c bd 1e a0 81 3e
       0.41867474 0.1125316 -0.068395235 0.25317472
000020 85 3e 70 3c 49 26 aa be 9c 15 03 be c6 22 30 3e
       0.014663343 -0.33232334 -0.12801212 0.17200765
000030 44 81 07 3e c7 70 91 3e 03 ed 27 be 9b 40 52 be
       0.13232905 0.28406355 -0.16399007 -0.20532458

encoder_variable_selection.single_variable_grns.VaccinationFull.resample_norm.norm.weight f4 [16]
000000 b4 ac 30 3f 71 3e 27 3f 0c 9f 9a 3f ba 38 50 3f
       0.69013524 0.65329653 1.2079787 0.8133656
000010 b8 d7 c4 3f 0b 77 89 3f 1f 2f 3b 3f 4f e9 9f 3f
       1.5378332 1.0739454 0.73118776 1.2493075
000020 fc 06 87 3f 89 ab 44 3f 2d 58 66 3f 0f f9 94 3f
       1.0549006 0.7682424 0.89978296 1.1638507
000030 9a 93 93 3f ae 3f a8 3f ac ac fa 3e 23 ec 2e 3f
       1.152942 1.3144433 0.48959863 0.68329066

encoder_variable_selection.single_variable_grns.VaccinationFull.resample_norm.norm.bias f4 [16]
000000 e4 fc fa bd 65 b0 bb 3e e9 b3 5f be 52 ec 36 bc
       -0.12255266 0.36658016 -0.21845974 -0.011164742
000010 c5 e6 0d be 7d 33 86 3c 1d 8a 10 bc eb 13 26 3e
       -0.13857563 0.016381973 -0.008821991 0.16218536
000020 df da 19 bd 65 ca 5d be 76 a3 28 bd 55 13 a5 3d
       -0.037562247 -0.21659239 -0.041171513 0.08060328
000030 eb 02 61 bc d4 8d 57 be f5 44 a7 3e 2b b4 0a 3e
       -0.013733606 -0.21050197 0.32669798 0.13545291

encoder_variable_selection.single_variable_grns.VaccinationFull.fc1.weight f4 [8, 8]
000000 4d 69 db 3e db a0 49 be 0c 8e 31 bf 6e 62 69 be
       0.42853776 -0.19690268 -0.6935737 -0.22791454
000010 c3 3a 29 3f dc b6 19 3e 45 99 11 bf 97 68 58 bc
       0.6610529 0.15011162 -0.56874496 -0.01320853
000020 55 57 85 3d c1 13 1b be 38 51 46 bf 20 99 7b bf
       0.06510798 -0.15144254 -0.7746768 -0.98280525
000030 ab 17 4f bd fe e9 07 be 91 3c 75 3f c1 4f 01 be
       -0.05055968 -0.13272855 0.9579554 -0.1262808
000040 0f c6 f7 bb 7f d1 f3 be 24 e0 b6 bd 51 79 b0 be
       -0.007561452 -0.4762077 -0.0892947 -0.34467557
000050 2a 76 e6 be 13 83 cd 3e 68 bf b6 bd cb c5 0d bf
       -0.45012027 0.40139064 -0.089232266 -0.55379933
000060 92 fa 29 be 3b 63 5f bf 19 ca 90 be b3 20 bd 3e
       -0.16599491 -0.8726079 -0.28279188 0.3693901
000070 fd d4 39 bf 8d 13 21 3f a8 8a 02 3e 29 61 25 bb
       -0.7259062 0.6292046 0.12748206 -0.0025234914
000080 1d 41 a1 3e 0e ae 02 3f f5 a2 50 3e f5 0a e1 3e
       0.3149499 0.51046836 0.20374663 0.43953672
000090 27 f4 19 3d 70 3e ad 3e d0 0a 0e 3f 9a 96 3a 3f
       0.037586357 0.338367 0.5548525 0.7288605
0000a0 83 6c 15 be a8 29 bc 3e a2 c8 0c 3d 19 f8 e8 bd
       -0.14592175 0.3675053 0.034371026 -0.11375446
0000b0 f4 73 97 be b5 05 56 bf 63 d6 55 bf 32 77 e2 bf
       -0.29580653 -0.8360246 -0.83530253 -1.7692626
0000c0 1f ff 12 bf 40 2e ac 3e 4c 07 53 3e 6e 8b 2b 3e
       -0.57420534 0.33629036 0.20608252 0.16752407
0000d0 4b ef 72 3f f5 89 f6 bd 24 c6 57 3e 03 e0 35 3e
       0.9489638 -0.12038032 0.21071678 0.17761235
0000e0 3a ad af 3e 55 3c 3c 3e 7a f8 1e bf 0a 11 f9 bd
       0.3431185 0.1838239 -0.62097895 -0.12161453
0000f0 ee 07 ac be 6c 66 9d bf 71 be b0 be ec 5a ce bf
       -0.335998 -1.2296882 -0.34520295 -1.6121497

encoder_variable_selection.single_variable_grns.VaccinationFull.fc1.bias f4 [8]
000000 33 12 a1 3d 4b 61 13 bc fa 2c 0e bd 0a f2 1a 3d
       0.07864799 -0.008995364 -0.03471086 0.037828483
000010 53 1b 87 3d 39 5a ef bd 48 71 dc bd 41 49 5c 3c
       0.065970086 -0.116871305 -0.10763794 0.0134451995

encoder_variable_selection.single_variable_grns.VaccinationFull.fc2.weight f4 [8, 8]
000000 a7 8c 56 be d5 a1 15 ba 67 c6 81 be 98 d7 1b bf
       -0.20952092 -0.0005708014 -0.2534668 -0.60875845
000010 69 f5 6a bf 6b 21 82 3e c1 ef 2c bf 16 9e 1d 3e
       -0.91780716 0.2541612 -0.67553335 0.15392336
000020 99 e1 1b 3f c8 f8 d0 be a4 c2 1f be 21 4f 8f be
       0.6089111 -0.40814805 -0.15601593 -0.27990058
000030 38 68 0b bf 8d 86 f8 be 5a 90 56 3e 55 8a 40 bd
       -0.544559 -0.48540154 0.20953503 -0.047006924
000040 2f de ed bf cb 9c ae 3d 9b 0e 08 be d8 bb fa 3e
       -1.858343 0.08526 -0.13286822 0.48971438
000050 86 12 c9 be ef b5 f0 3e be 79 ae 3d 74 f5 1f 3f
       -0.39271945 0.47013804 0.08519314 0.62483907
000060 c9 8b 55 3e fa 06 c6 be fe 7e a7 3d 37 71 b3 be
       0.20854105 -0.38677198 0.08178519 -0.35047314
000070 4b 0d 27 3f 0b 2c 53 bf 62 7c e1 bb cf ee f1 bd
       0.6525466 -0.8248908 -0.0068812827 -0.11813127
000080 00 af 8a be c8 21 4f be 7b 4d 78 3e 9f 2e c9 bd
       -0.2708664 -0.2022773 0.24248306 -0.098233454
000090 85 58 04 3f 6b ff 80 3e 99 55 80 bf b7 73 46 3f
       0.5169757 0.25194868 -1.0026122 0.77520317
0000a0 e8 59 01 bf 2d 42 bb 3e fc e9 40 3f 35 62 de 3d
       -0.5052781 0.36573926 0.7535703 0.10858575
0000b0 25 eb 2e 3d c5 0b 98 3d 43 60 a8 be d8 0d 65 bf
       0.04270472 0.0742412 -0.32885942 -0.8947425
0000c0 3a 09 29 3f 4a 2a 69 be d7 b8 b8 bd eb 95 2a 3f
       0.66029704 -0.22770038 -0.090196304 0.66635007
0000d0 24 15 09 3e 9e c6 05 bf e0 88 54 bd 99 74 34 3e
       0.13386971 -0.5225619 -0.051888347 0.17622603
0000e0 23 09 13 be 29 74 81 3e 00 cd 9e 3e 22 f0 e6 3e
       -0.14358954 0.25283936 0.31015778 0.45105082
0000f0 5c 09 f1 be 8f 76 30 bf 75 62 24 3e 34 3e fb be
       -0.47077453 -0.68930906 0.16053183 -0.49070895

encoder_variable_selection.single_variable_grns.VaccinationFull.fc2.bias f4 [8]
000000 70 35 91 bd cc 18 da bd 2d 98 fe bd 97 a8 34 bd
       -0.070902705 -0.10649261 -0.12431369 -0.044106092
000010 a5 68 f7 3d a7 14 29 be c7 ab 1a 3e be 94 97 3d
       0.12080506 -0.16511784 0.1510459 0.07401417

encoder_variable_selection.single_variable_grns.VaccinationFull.gate_norm.glu.fc.weight f4 [32, 8]
000000 11 c3 4c 3e 78 2f 6d 3e d9 b8 d6 3e 7e 4c 5c 3d
       0.19996287 0.23162639 0.41937903 0.053783886
000010 2c 8f e6 bd ed 0f 56 3e dd d2 c0 bd e8 9a e8 be
       -0.112577766 0.20904513 -0.09415219 -0.45430684
000020 21 73 17 bf bf a1 0b 3f 91 7f 31 bf 22 5c b0 3e
       -0.5916005 0.5454368 -0.69335276 0.34445292
000030 0c 6e 81 bc 79 f1 56 bd 85 56 03 3f c2 8f dc bd
       -0.015799545 -0.05247638 0.51303893 -0.10769607
000040 ff 74 84 bc d1 3f 48 3e bc bc 4b 3e 0e db 65 3d
       -0.01616907 0.19555594 0.19896215 0.05611711
000050 5f 5b 48 be 15 e0 3b 3f 69 55 bd be 8d 86 d9 3e
       -0.19566105 0.733888 -0.36979225 0.42485467
000060 7d 03 2c bf 69 d5 1b 3e 25 88 8d be 88 1d 3c 3f
       -0.6719282 0.15218128 -0.27642933 0.7348256
000070 f3 f0 3b bf 5c f0 0e 3f 14 c6 72 3e 63 15 19 3f
       -0.73414534 0.5583551 0.23708373 0.5979826
000080 45 cb f3 3e ea cf 4b be e6 74 c6 3e b7 73 14 bf
       0.4761602 -0.19903532 0.3876106 -0.57989067
000090 b8 17 04 3f c1 90 47 be 65 de 11 bf 37 28 b6 bd
       0.5159869 -0.19488813 -0.5697997 -0.08894389
0000a0 3e 3e 89 3e c0 d9 a1 3e df b0 88 3e e2 29 54 be
       0.268053 0.31611443 0.26697442 -0.20719102
0000b0 33 e4 a3 bd 41 f9 eb 3d 67 ba 02 be a0 00 d3 3e
       -0.0800251 0.11522151 -0.1276642 0.41211414
0000c0 6e 8d 8f bd 7a e6 ad 3e 36 62 59 3d de 27 c3 bd
       -0.070093974 0.33964902 0.053072177 -0.095290884
0000d0 2d 98 08 be 76 56 87 3e 24 43 64 3e 9b 8a bc bd
       -0.133393 0.26433152 0.22291237 -0.092061244
0000e0 09 49 9e be 9d d8 80 3e 40 e4 9b 3d 7c b3 b2 be
       -0.30915096 0.25165263 0.076118946 -0.3490256
0000f0 b8 1c f8 3e 91 2d 95 be 25 ec d7 3e 11 b1 00 bf
       0.4845941 -0.29136327 0.4217235 -0.5027018
000100 bf 90 12 be eb 40 4f 3e de 17 99 bd 3b fb 1a be
       -0.14313029 0.20239608 -0.074752554 -0.151349
000110 24 b2 a9 be 87 50 c4 3e ad 7e 82 bd 61 7c cf 3e
       -0.33143723 0.38342687 -0.06371818 0.4052458
000120 24 9f 9a 3e 85 38 3d be 63 49 4b 3e c0 df c9 be
       0.3019954 -0.18478592 0.19852214 -0.3942852
000130 88 fc ab bd ff 0f 9a be 97 18 27 bf ae 1d 8f be
       -0.08397776 -0.3009033 -0.65271896 -0.2795233
000140 0c 15 cf 3d 42 74 59 be 47 23 2b 3c d7 e0 f4 be
       0.10111436 -0.21235755 0.0104454225 -0.4782779
000150 a9 c3 b5 3e 3e 2d 0a 3d 4e 7c 90 3c 14 91 36 bd
       0.3550084 0.033734553 0.017637398 -0.04457195
000160 69 e5 fc be fd 8f 2f be 3b 30 e3 bd 25 65 70 3e
       -0.49393776 -0.17144771 -0.110931836 0.23476084
000170 7f 2c f2 bd fb 94 2c 3e e2 e6 67 3d c7 17 ca 3e
       -0.11824893 0.16853707 0.05661667 0.39471266
000180 02 f4 9c be 78 44 a8 3e e9 dc 9f be 4b 1b 98 be
       -0.30654913 0.32864738 -0.3122323 -0.29708323
000190 9b eb 42 bd bd fb c7 3c c6 b1 60 be 63 6d 0c be
       -0.047587972 0.02441203 -0.21942815 -0.13713603
0001a0 9b e3 60 3e 48 79 9e be a2 29 8c 3d 16 25 9c 3e
       0.21961825 -0.30951905 0.06843878 0.30497044
0001b0 ad 37 25 3e 46 f9 ba 3e 29 8e 98 bc 79 25 a0 bd
       0.1613452 0.36518306 -0.018622475 -0.07819647
0001c0 6a 8e 77 be 69 78 39 3e 24 8b 4f be c4 c3 08 3e
       -0.2417542 0.18112339 -0.20267922 0.13355929
0001d0 c8 24 5c be 76 c2 13 be 4c 69 3a bd e0 1c 9f bd
       -0.21498406 -0.1442965 -0.045510575 -0.07769179
0001e0 26 7e 2f be 62 6e 24 be 1e 47 ff 3d 46 53 c9 bd
       -0.17137966 -0.16057733 0.124647364 -0.09830336
0001f0 56 27 81 3e 36 3a 94 be 6e 19 9e 3e 26 e8 ae bd
       0.25225323 -0.2895066 0.30878776 -0.085403726
000200 65 46 74 3e 18 c8 24 be 9d 53 99 3e 9b 72 c4 bd
       0.23854978 -0.16091955 0.29946604 -0.09592172
000210 0a 6f 02 3e 31 c9 74 3e e2 72 55 be a4 5e 62 bf
       0.1273767 0.23904873 -0.20844606 -0.8842566
000220 34 88 62 bc c6 98 89 be e9 a2 c7 3e b8 a8 e0 bd
       -0.013826419 -0.2687437 0.38991478 -0.109696805
000230 4a d1 16 3e f9 54 0c 3e 57 35 10 be 78 44 32 bd
       0.14728275 0.1370429 -0.14082848 -0.04352233
000240 6e 38 f5 3d 66 aa 27 3f 93 f3 27 be 67 f6 95 3e
       0.11973654 0.6549438 -0.1640151 0.29289553
000250 da 32 ab bd 94 2f 14 3e 61 ea 8e 3e ff 19 a7 3e
       -0.083593085 0.14471275 0.27913192 0.3263702
000260 64 ac 86 3e 09 d9 3a bd bf 0f a4 3e 85 62 cb 3c
       0.263034 -0.045617137 0.32043263 0.024827251
000270 c0 96 1a 3d 52 6a 1f bd b2 2a a7 be f4 41 09 be
       0.037741423 -0.038919754 -0.3264976 -0.13404065
000280 54 d2 b3 be 3d 0f 1a be 7e e5 14 bd fd 2d 0b 3f
       -0.35121405 -0.15044875 -0.036351673 0.5436705
000290 23 bf 06 be 0f e2 14 3e 3c f8 0d 3e 17 ed ee 3d
       -0.1315885 0.1453936 0.13864225 0.11666315
0002a0 4d f3 0d bd ab 96 f7 bc f7 8c 91 3e a5 42 69 3d
       -0.034655858 -0.030223211 0.2842786 0.056948323
0002b0 81 53 a0 be d4 84 1b 3f ea aa cf be 05 ac e5 3e
       -0.31313708 0.60749555 -0.40560085 0.44857803
0002c0 bf ad 7f 3e ee 78 70 3e 23 1f 92 be 4b da 20 3e
       0.24968623 0.23483631 -0.2853938 0.15708272
0002d0 1a fd 29 be 2d cd 04 3e 57 52 ef be d3 9b 74 3e
       -0.16600457 0.12968893 -0.46742508 0.23887567
0002e0 9c cd dc bd 2f 09 9e 3e e4 b0 de 3e 9b a6 1a 3d
       -0.107814044 0.30866382 0.43494332 0.037756544
0002f0 50 3a a7 3c af 33 ea be 2e 16 c5 be 71 3f 78 be
       0.020413548 -0.45742556 -0.38493484 -0.24242951
000300 8f 60 99 3e 36 49 80 3d 61 21 dc bd 4a ba 39 be
       0.2995648 0.06263964 -0.10748554 -0.1813747
000310 df 4d 70 be 7e 64 cc 3d bf 6b 22 3c 49 16 75 be
       -0.23467205 0.09980105 0.009913384 -0.23934282
000320 66 c4 43 3e ab 7b e8 be 20 fe af 3e a9 6c e6 bd
       0.19117889 -0.4540685 0.3437357 -0.11251194
000330 14 6b 8d 3e 5a 73 ec bc 42 9a 3a be ca ee 1a 3e
       0.27620757 -0.028863598 -0.18222907 0.15130153
000340 07 e5 13 bc ea 3f 44 be e6 28 f8 3e f0 46 a7 be
       -0.009026772 -0.19165006 0.48468703 -0.3267131
000350 08 e5 c0 3e a9 de 8f be 67 ee b0 bd 42 23 ae be
       0.37674737 -0.28099564 -0.08639222 -0.34011275
000360 07 4b 5e 3e 29 9f 3a bd c7 5f 1f 3f 96 d3 c1 be
       0.21708308 -0.045561943 0.6225552 -0.3785674
000370 73 87 8c 3e f1 60 f6 bd 6f f7 16 bf bc 5f c0 be
       0.2744709 -0.12030209 -0.58971304 -0.3757304
000380 87 dd c4 3e fa 5c 8e 3e 21 38 9e be b6 cc a7 3e
       0.38450262 0.2780531 -0.30902198 0.3277337
000390 8d bb d6 3d 76 79 39 3f 36 18 c8 be 07 b0 d1 3e
       0.10484991 0.7245096 -0.3908097 0.4095461
0003a0 a9 98 86 be 34 89 be be b5 21 81 be 67 dd 5c be
       -0.26288345 -0.37214053 -0.2522103 -0.21568833
0003b0 cb 4c 33 3e 31 71 1c bc 49 63 27 be f3 ab ed 3d
       0.17509763 -0.009548471 -0.16346468 0.11605062
0003c0 ec f5 da 3e d7 97 16 bd 68 17 7f bc f9 59 4d 3e
       0.42765749 -0.0367659 -0.015569545 0.20053853
0003d0 46 41 41 be bf 14 08 bf 49 f3 28 3e 5f fc a0 be
       -0.18872556 -0.53156656 0.16499056 -0.31442544
0003e0 5a 3d e1 3c e3 81 82 bd 87 1b 17 3f fe d2 d5 bd
       0.027495075 -0.0637243 0.5902638 -0.10440634
0003f0 78 44 4b 3e e7 d2 12 bf 04 90 04 be f1 30 18 bf
       0.19850338 -0.5735306 -0.12945563 -0.5944968

encoder_variable_selection.single_variable_grns.VaccinationFull.gate_norm.glu.fc.bias f4 [32]
000000 6d a1 c1 3c ac 7f 73 3e a1 79 4c be 30 45 0e be
       0.023636544 0.23779172 -0.19968273 -0.1389358
000010 9f cf a0 be e1 b8 f2 3d 24 1a f4 3c 9d 30 05 3e
       -0.31408402 0.11851669 0.029797621 0.13006826
000020 76 80 08 bd 85 cf 1c be 39 36 89 3d 26 bb 04 be
       -0.033325635 -0.15313537 0.06699795 -0.12962016
000030 52 c3 72 bd b8 54 08 be 4c 8b 98 3e 46 29 11 3e
       -0.059268303 -0.13313568 0.29793775 0.14175901
000040 2f c4 d9 bd 54 88 19 3d 4a 16 28 3e 24 f8 64 3e
       -0.10633122 0.03748353 0.16414753 0.22360283
000050 32 b6 6d 3e 1f e4 40 be ac 61 ce bc 65 73 18 3e
       0.23214033 -0.18837021 -0.025193058 0.1488777
000060 bb c4 c3 3d 4a 94 17 be 08 98 e7 3c fd 99 40 bd
       0.09559008 -0.14802662 0.028270736 -0.047021855
000070 85 21 46 be e8 6e 4e be 19 f2 02 3c cd c9 80 bd
       -0.19348724 -0.20159495 0.007992291 -0.062884904

encoder_variable_selection.single_variable_grns.VaccinationFull.gate_norm.add_norm.norm.weight f4 [16]
000000 73 2b e3 3e 32 f4 7d 3f 9d 81 85 3f 6d a8 58 3f
       0.44369087 0.9920074 1.043018 0.84632
000010 03 41 82 3f 5f 27 6f 3f ef 06 17 3f 11 86 54 3f
       1.017609 0.9341945 0.58994955 0.8301707
000020 5a c2 57 3f 63 55 31 3f 34 e0 4a 3f d4 46 87 3f
       0.8428093 0.69270915 0.79248357 1.056849
000030 47 b3 77 3f f5 4f 5f 3f d5 f8 5e 3f ae 60 16 3f
       0.9675793 0.8723138 0.8709844 0.5874127

encoder_variable_selection.single_variable_grns.VaccinationFull.gate_norm.add_norm.norm.bias f4 [16]
000000 da 0e 10 bd c4 48 74 3e 80 ae 88 3c 84 2d 27 3e
       -0.035170414 0.23855883 0.01668477 0.16325957
000010 6c eb b7 3d a2 16 b0 3c 1c fa 2c be c9 b3 27 be
       0.0898045 0.021495167 -0.16892284 -0.16377176
000020 77 08 2e be 11 b0 1a be 26 05 53 bc a9 f8 d1 3d
       -0.16995417 -0.15106227 -0.012879645 0.10252506
000030 0f 4c 9d 3d 63 0b 1c be 3e 39 84 3e ff a2 10 3e
       0.07680523 -0.15238719 0.25824922 0.14124678

encoder_variable_selection.single_variable_grns.Cases.resample_norm.mask f4 [16]
000000 ba b7 83 3e d8 38 38 3e bd a2 89 bf 7d 89 4e be
       0.2572611 0.17990434 -1.0752789 -0.20169635
000010 e4 a1 0b be 49 09 cc 3e d6 77 66 be cc 18 1b bf
       -0.13635975 0.39850834 -0.22506651 -0.6058471
000020 fa 1b 47 bf b5 e7 a1 3e e6 40 77 3e ca e4 fa 3d
       -0.77777064 0.3162209 0.2414585 0.12250669
000030 5a 8e 15 bf 28 02 ae bd d9 53 69 3e d9 e5 e4 3d
       -0.58420336 -0.08496505 0.22785892 0.111766525

encoder_variable_selection.single_variable_grns.Cases.resample_norm.norm.weight f4 [16]
000000 b9 fa 98 3f a2 f4 a1 3f 46 ad da 3e e0 a4 71 3f
       1.1951514 1.2652781 0.42710322 0.94392204
000010 f6 44 5f 3f 98 03 b2 3f b1 f3 87 3f 0e 5a 40 3f
       0.872146 1.3907347 1.0621244 0.7513741
000020 0c 94 1c 3f a3 83 b4 3f 4c 78 a0 3f 8f 99 a3 3f
       0.611634 1.4102672 1.2536712 1.2781237
000030 2a 47 e5 3e 7e 73 71 3f 6f 12 a2 3f e2 4f 95 3f
       0.44780856 0.9431685 1.2661875 1.1665003

encoder_variable_selection.single_variable_grns.Cases.resample_norm.norm.bias f4 [16]
000000 fe 7b d4 3d 60 96 b5 3c 98 8c 3b be 15 26 ec bd
       0.10375212 0.022166431 -0.18315351 -0.11530701
000010 a9 61 f4 bd a7 89 c0 bd 99 91 e7 bd 1d 11 f4 bd
       -0.1193269 -0.09401255 -0.113070674 -0.119173266
000020 b2 2c 80 bd d2 d4 52 3d 7c 90 1d bd 6a 86 af 3d
       -0.06258525 0.051472493 -0.03846787 0.08570559
000030 86 f9 22 bd ca d7 12 3d 71 0a 12 3e 14 39 8c 3e
       -0.039788745 0.035850324 0.14261796 0.27387297
