Archives/TFT-pytorch/results/age_subgroup_old_cs_server/AGE80PLUS/checkpoints/latest-epoch=4.ckpt (torch, 703031 bytes, 506 tensors)

prescalers.AGE80PLUS.weight f4 [8, 1]
0	0x3dc314a2	0.0952542
1	0xbe7b2c1b	-0.24528544
2	0x3f097e3d	0.5370825
3	0x3f170aa6	0.59000623
4	0xbf476fc6	-0.7790493
5	0xbecf6286	-0.40504855
6	0xbf4573d9	-0.77129894
7	0x3ec0c670	0.37651396

prescalers.AGE80PLUS.bias f4 [8]
0	0xbe059f66	-0.13049087
1	0x3e755893	0.2395957
2	0x3f45f7d0	0.77331257
3	0x3e2eb976	0.17062935
4	0xbed2faf9	-0.41207102
5	0xbf0c0923	-0.5470144
6	0xbe8d1b78	-0.2756002
7	0x3e804440	0.2505207

prescalers.SinWeekly.weight f4 [8, 1]
0	0xbbd0c296	-0.0063708527
1	0xbfb47832	-1.4099181
2	0x3f7e27d9	0.9927955
3	0xbf8ddf0b	-1.1083692
4	0x3f50346b	0.81329983
5	0xbe5ff495	-0.21870644
6	0x3f3468b4	0.70472264
7	0x3f0427fd	0.5162352

prescalers.SinWeekly.bias f4 [8]
0	0x3d7852d6	0.060625874
1	0x3d6cb2a3	0.05778755
2	0x3f169e17	0.58834976
3	0x3efde7cf	0.49590918
4	0x3efcb737	0.49358532
5	0xbf021ab7	-0.50822014
6	0x3f55f7ed	0.8358143
7	0x3f108248	0.56448793

prescalers.VaccinationFull.weight f4 [8, 1]
0	0xbdd6da9e	-0.10490917
1	0x3e411101	0.18854143
2	0x3f922b89	1.1419536
3	0x3f0cadc3	0.5495264
4	0xbed1fcf0	-0.41013288
5	0xbf23018e	-0.6367425
6	0xbf522042	-0.8208047
7	0xbf24d11b	-0.6438157

prescalers.VaccinationFull.bias f4 [8]
0	0x3f08e833	0.5347931
1	0xbeb676c8	-0.35637498
2	0xbec9659e	-0.3933534
3	0x3f9548c4	1.1662831
4	0x3f5e8991	0.8692866
5	0x3e86f0b7	0.26355526
6	0x3e1e61b8	0.15466964
7	0x3eee17fe	0.4650268

prescalers.Cases.weight f4 [8, 1]
0	0x3f141e0d	0.57858354
1	0xbf7f28ec	-0.99671817
2	0xbf5a6492	-0.8530971
3	0x3f2c39c0	0.6727562
4	0x3fab7801	1.3395997
5	0x3d886f63	0.0666187
6	0xbf275a42	-0.653721
7	0x3e4d5d00	0.20055008

prescalers.Cases.bias f4 [8]
0	0xbf7dd3c6	-0.99151266
1	0xbe506e83	-0.20354657
2	0x3f28bf99	0.65917355
3	0x3ed3e967	0.4138901
4	0x3e280999	0.16409911
5	0xbe81d14d	-0.25354996
6	0x3f21ee10	0.6325388
7	0xbf7fb15b	-0.9988

static_variable_selection.single_variable_grns.AGE80PLUS.resample_norm.mask f4 [16]
0	0xbf9dc23b	-1.23249
1	0xbee7501d	-0.4517831
2	0xbf0d4602	-0.5518495
3	0x3cf17058	0.029472515
4	0x3d02a9a4	0.031900063
5	0x3ee4ec34	0.4471146
6	0x3dfe1d3f	0.12407922
7	0xbe2a3bc3	-0.1662436
8	0x3ee6113b	0.4493502
9	0x3f06ffe6	0.5273422
10	0xbf683fcf	-0.90722364
11	0x3dbfeb6b	0.09371074
12	0x3ecc0f3d	0.39855376
13	0x3e131f72	0.14367464
14	0xbedd1a96	-0.43184346
15	0xbdce95f2	-0.100871935

static_variable_selection.single_variable_grns.AGE80PLUS.resample_norm.norm.weight f4 [16]
0	0x3f20250e	0.6255654
1	0x3f489479	0.7835155
2	0x3f75930e	0.9592751
3	0x3f9fa2ec	1.2471595
4	0x3fa89cd8	1.3172865
5	0x3ff70176	1.9297321
6	0x3fb587db	1.4182085
7	0x3f9d0c49	1.2269374
8	0x3fbbdd0c	1.4676833
9	0x3fe25a1b	1.7683748
10	0x3f334bf1	0.7003775
11	0x3fb04ba0	1.3773079
12	0x3fba7438	1.4566717
13	0x3f9ede2a	1.2411549
14	0x3f70c234	0.9404633
15	0x3f989603	1.192078

static_variable_selection.single_variable_grns.AGE80PLUS.resample_norm.norm.bias f4 [16]
0	0x3ea236d8	0.31682467
1	0xbde3f476	-0.111306116
2	0xbe2c4a3f	-0.16825198
3	0x3ea80eab	0.3282369
4	0x3e01f051	0.1268933
5	0x3d4d18d9	0.050072525
6	0x3cec5968	0.028851226
7	0xbe349d12	-0.17638043
8	0xbcc6f30e	-0.02428582
9	0xbda6f0a6	-0.08151369
10	0x3e4b061d	0.19826551
11	0xbea871b3	-0.32899246
12	0xbd2b3773	-0.041800927
13	0xbded115a	-0.11575575
14	0x3ca9460b	0.020663282
15	0x3e57343d	0.21016021

static_variable_selection.single_variable_grns.AGE80PLUS.fc1.weight f4 [8, 8]
0	0xbdb5f1eb	-0.08884033
1	0xbf0e711f	-0.5564136
2	0xbe94234c	-0.2893318
3	0xbdfc3b55	-0.12316004
4	0xbf4e6d86	-0.8063587
5	0xbfc429ae	-1.532522
6	0xbe4f127e	-0.20221898
7	0xbe662ef3	-0.22478847
8	0xbf423217	-0.7585768
9	0xbf52a9ce	-0.8229035
10	0xbe437702	-0.19088367
11	0x3ece90c9	0.40344837
12	0xbe21f0c3	-0.158145
13	0xbecc1b7b	-0.39864716
14	0x3f530cbb	0.824413
15	0xbe3476d8	-0.1762346
16	0x3e9c7d5e	0.30564398
17	0x399ed3e7	0.00030293988
18	0x3f02b1fa	0.5105282
19	0xb9bf8a1a	-0.00036533253
20	0xbd90533e	-0.07047127
21	0xbd2437c9	-0.040092263
22	0x3d6bb32b	0.057543915
23	0xbd060f41	-0.03272939
24	0xbf066d9c	-0.52511
25	0x3c52e81c	0.012872722
26	0xbea09506	-0.31363696
27	0xbefff208	-0.49989343
28	0x3d90a9fd	0.07063673
29	0x3eaa6f2d	0.33287945
30	0x3d663b26	0.056208752
31	0x3f13e461	0.57770354
32	0x3dc2b956	0.09508006
33	0x3e5bb088	0.2145406
34	0xbef0c75d	-0.47027102
35	0x3d832423	0.06403377
36	0xbec68b93	-0.38778362
37	0x3f9c23c0	1.219841
38	0x3e164500	0.14674759
39	0x3ecdfd2d	0.4023222
40	0x3f3129fa	0.69204676
41	0xbe247f23	-0.16064124
42	0xbef589a7	-0.47956583
43	0x3e37e98f	0.1796019
44	0x3efea4b3	0.4973503
45	0xbe45e2e0	-0.19324827
46	0x3ce9dc7f	0.028547524
47	0x3bc93123	0.0061398908
48	0x3d230931	0.039803687
49	0xbf1e209f	-0.61768526
50	0xbacdbc4f	-0.0015696379
51	0x3e881d89	0.26585034
52	0x3e699a98	0.22812879
53	0x3f8794db	1.0592302
54	0x3ece0f91	0.4024625
55	0xbd811da4	-0.063044816
56	0xbed4a757	-0.4153392
57	0xbeb5fa9a	-0.35542756
58	0xbe82576e	-0.2545733
59	0x3e916f92	0.28405434
60	0x3e669ac1	0.22519971
61	0xbee76e5b	-0.45201382
62	0x3f164671	0.58701235
63	0xbc1dea0d	-0.009638322

static_variable_selection.single_variable_grns.AGE80PLUS.fc1.bias f4 [8]
0	0xbcbae738	-0.022815332
1	0x3b73e73b	0.0037216682
2	0xbe84e900	-0.25959015
3	0xbcf79d79	-0.030226456
4	0xbe904d6f	-0.28184077
5	0xbddf23cc	-0.108954996
6	0x3e3f05b5	0.18654521
7	0xbc8418bd	-0.016125077

static_variable_selection.single_variable_grns.AGE80PLUS.fc2.weight f4 [8, 8]
0	0xbe1707cf	-0.14749072
1	0xbc89b681	-0.016810657
2	0xbd8fd120	-0.07022309
3	0xbe889eb6	-0.26683587
4	0x3dedf02c	0.11618075
5	0xbe4fb98e	-0.20285627
6	0x3f1ae18a	0.60500395
7	0x3f0ba458	0.54547644
8	0xbe48a224	-0.19593102
9	0xbdaf98eb	-0.08574089
10	0x3ed5c692	0.4175306
11	0xbe523ec1	-0.20531751
12	0xbdc1b014	-0.09457412
13	0xbeb69317	-0.35659096
14	0x3dfe8cb2	0.12429179
15	0xbe803eaf	-0.25047824
16	0x3d47d89f	0.04879057
17	0x3e4ac375	0.19801123
18	0x3e8135d4	0.2523638
19	0xbe27dd2a	-0.16392961
20	0x3e4ce6ba	0.2000989
21	0xbebf40c2	-0.37354094
22	0xbe8aef03	-0.27135476
23	0x3dd031dd	0.10165761
24	0x3f4f6235	0.8100923
25	0xbe477918	-0.19479787
26	0x3e6a5fad	0.2288806
27	0xbe275e25	-0.16344507
28	0xbeb44fc3	-0.35217103
29	0xbee1cfad	-0.44103757
30	0x3ece2988	0.4026606
31	0xbf23f3bb	-0.6404378
32	0x3e8e4150	0.27784204
33	0xbd83db24	-0.06438282
34	0x3ee8e251	0.45485166
35	0xbe1a5db3	-0.15074806
36	0x3f197825	0.5994895
37	0x3e65a2da	0.22425404
38	0x3f388ce7	0.7209
39	0xbebd6654	-0.36992133
40	0x3e306aa9	0.17228188
41	0x3d4720a0	0.048615098
42	0xbe92cd79	-0.28672388
43	0x39b07923	0.0003365959
44	0x3eafc282	0.34328085
45	0x3df722ae	0.120671615
46	0xbee0bd72	-0.43894535
47	0x3de89fab	0.11358579
48	0xbf409d12	-0.7523967
49	0x3e72919b	0.23688357
50	0xbe8424ec	-0.2580942
51	0x3e947b44	0.29000294
52	0x3e912573	0.28348884
53	0x3e0f9a3e	0.14023682
54	0xbe0bcf6d	-0.13653345
55	0xbe762ba0	-0.24040079
56	0xbe1d0cd0	-0.15336919
57	0x3e26145f	0.16218708
58	0xbf0e0e0e	-0.55490196
59	0x3cc4983d	0.023998374
60	0x3e1fbd52	0.15599564
61	0xbbe57b7e	-0.007003247
62	0x3e494c4e	0.19658014
63	0xbec9e99c	-0.39436042

static_variable_selection.single_variable_grns.AGE80PLUS.fc2.bias f4 [8]
0	0xbd085699	-0.03328571
1	0x3e5d6c35	0.21623309
2	0xbe91b395	-0.28457323
3	0x3d3cda6b	0.046106737
4	0xbea335c3	-0.31876954
5	0xbea739ed	-0.3266138
6	0xbdf7f448	-0.1210714
7	0x3d26beee	0.04070943

static_variable_selection.single_variable_grns.AGE80PLUS.gate_norm.glu.fc.weight f4 [32, 8]
0	0x3eba7000	0.36413574
1	0x3d4f28d3	0.050576042
2	0x3ebf23eb	0.3733209
3	0xbebfae8b	-0.37437853
4	0xbe192a0b	-0.14957444
5	0x3d3c3731	0.045951072
6	0xbeeda3f6	-0.46414155
7	0x3df0125b	0.11722251
8	0x3dfb66b4	0.122754484
9	0xbc5fde5c	-0.013663854
10	0x3e8e7b35	0.27828375
11	0xbb7f81ef	-0.0038987359
12	0xbea0e7ef	-0.3142695
13	0x3e22fd8c	0.15917033
14	0x3e241c57	0.16026436
15	0x3c89bcdd	0.01681369
16	0x3e9b1ad1	0.30293897
17	0x3d1552a5	0.03645577
18	0xbdbff2ec	-0.093725055
19	0xbf00eda4	-0.5036261
20	0x3e99ce5f	0.3004026
21	0xbdb2aad0	-0.08723986
22	0x3f054f8f	0.5207452
23	0x3edb82ee	0.4287333
24	0xbed81150	-0.42200708
25	0x3d65e2e2	0.056124575
26	0xbd45829c	-0.048220262
27	0xbea69522	-0.32535654
28	0x3f0a00db	0.53907555
29	0xbbfce67e	-0.0077179065
30	0x3e57a0f0	0.21057487
31	0x3dddd36e	0.10831343
32	0xbeabbad4	-0.33540976
33	0xbe0c9a15	-0.13730653
34	0x3e0f0ad8	0.1396898
35	0xbe2f0667	-0.17092286
36	0x3e44299b	0.19156496
37	0x3dd2c136	0.10290758
38	0xbe0fa9b8	-0.14029586
39	0xbd06c17c	-0.032899365
40	0x3e63d0fc	0.2224769
41	0x3c5b9a9f	0.013403564
42	0xbf28f581	-0.6599961
43	0xbd256ad0	-0.040385067
44	0x3dab0df7	0.08352273
45	0xbdc6c5eb	-0.097057186
46	0x3eb64012	0.35595757
47	0x3ed03642	0.40666395
48	0xbe83bb7d	-0.2572898
49	0x3e102108	0.140751
50	0x3dbc5cd8	0.09197396
51	0x3e611dd3	0.21984033
52	0x3cc09da8	0.023512676
53	0xbeaf4648	-0.34233308
54	0xbe1329be	-0.14371392
55	0x3ddd2cfa	0.10799594
56	0x3ed2418f	0.41065642
57	0x3e9cd604	0.3063203
58	0x3e6ed4c9	0.23323359
59	0x3da25dd7	0.07928055
60	0xbea7c19a	-0.32764894
61	0xbe746dc1	-0.23869993
62	0xbdf829f2	-0.121173754
63	0xbe017846	-0.12643537
64	0xbe3f590e	-0.18686315
65	0xbe48f55a	-0.19624844
66	0x3e8c84c7	0.2744505
67	0xbe103c69	-0.14085545
68	0x3e34f8ba	0.17673007
69	0xbe6a6e73	-0.22893696
70	0x3e9a57cc	0.3014511
71	0x3e2ca153	0.16858415
72	0x3e2ba246	0.16761121
73	0x3cd2252e	0.025652494
74	0xbe783d0a	-0.24242035
75	0x3cda4c97	0.026647849
76	0x3e0e0873	0.1387041
77	0xbdede6a4	-0.11616257
78	0xbe55752b	-0.20845477
79	0xbe4f2c53	-0.20231752
80	0xbdb26ef6	-0.0871257
81	0x3dfc0bd9	0.12306947
82	0x3f293363	0.66094035
83	0xbdec1588	-0.11527544
84	0xbf2a36ec	-0.66490054
85	0xbe5505ad	-0.20802946
86	0x3e3db0c9	0.1852447
87	0x3e3cf955	0.18454488
88	0x3dfbcbea	0.12294753
89	0x3e1b8d38	0.1519059
90	0xbd60b6aa	-0.054861702
91	0xbe639e13	-0.2222827
92	0x3d689fd3	0.056793045
93	0xbea8c123	-0.32959852
94	0xbe43eebf	-0.19134043
95	0x3e889f18	0.2668388
96	0xbde1b629	-0.110210724
97	0x3e7c0873	0.24612598
98	0x3e6515bb	0.22371571
99	0xbd8998be	-0.067185864
100	0x3e0d88f2	0.13821772
101	0xbe547397	-0.20747219
102	0x3c9e7fbc	0.019348018
103	0x3db4c5a1	0.08826757
104	0xbe8fabe6	-0.28060836
105	0xbeb153dd	-0.34634295
106	0x3cd42aa5	0.02589924
107	0x3e7757fe	0.2415466
108	0xbcb85c49	-0.022504942
109	0x3e8c743e	0.27432436
110	0x3d622fc3	0.05522133
111	0x3e26247b	0.16224854
112	0xbe9c9dc4	-0.30589116
113	0x3eac036d	0.33596364
114	0xbd8684ca	-0.06568296
115	0x3e935be3	0.28781042
116	0xbc9f40a5	-0.019440005
117	0xbd04d46c	-0.032429144
118	0x3eadc348	0.3393805
119	0x3e3f35d8	0.18672884
120	0xbe3827e0	-0.17983961
121	0x3e2377db	0.1596369
122	0xbe0c8d97	-0.13725887
123	0x3ef14ffa	0.4713133
124	0xbeb5b347	-0.3548834
125	0x3d7d0108	0.06176856
126	0x3da11d11	0.07866872
127	0xbe9517b6	-0.29119653
128	0x3f3607f7	0.71105903
129	0xbe4531d0	-0.19257283
130	0x3ef1c473	0.4722019
131	0xbe74ab92	-0.23893574
132	0x3f37fa95	0.7186673
133	0xbf5269de	-0.8219279
134	0xbf360046	-0.7109417
135	0x3e6d123c	0.23151487
136	0x3ef3a447	0.4758627
137	0xbe458fb0	-0.19293094
138	0xbedd2d02	-0.431984
139	0x3eb3668f	0.35039183
140	0x3f210167	0.62892765
141	0xbe884080	-0.2661171
142	0xbe17a6a3	-0.1480966
143	0xbeb099fe	-0.34492487
144	0x3df9d49d	0.12198756
145	0xbd51ce11	-0.05122191
146	0xbf1e222f	-0.6177091
147	0x3f48ecc9	0.78486305
148	0xbead8942	-0.33893782
149	0x3c831641	0.016001822
150	0xbe974bba	-0.29549962
151	0x3ef4cacb	0.4781097
152	0x3e9c6a3d	0.30549803
153	0x3f384c2d	0.71991235
154	0xbeedbc28	-0.46432614
155	0xbf09d249	-0.53836495
156	0x3f3408de	0.7032603
157	0x3e1fe92f	0.15616296
158	0xbe1a05eb	-0.1504132
159	0x3f541e96	0.8285917
160	0x3f447294	0.7673733
161	0xbe6e6cce	-0.23283693
162	0xbea7ee57	-0.32799026
163	0x3e7bbafc	0.24583048
164	0x3efa12fd	0.48842612
165	0xbdc8bcad	-0.09801612
166	0xbe30e0ed	-0.17273302
167	0x3e892965	0.26789394
168	0x3f1cd837	0.6126742
169	0xbdf91adc	-0.12163326
170	0x3e4f83ed	0.2026517
171	0x3eabea3f	0.33577153
172	0x3fae97bd	1.3640057
173	0x3ea3b5d3	0.31974658
174	0xbf194ba9	-0.59881073
175	0x3e99e682	0.30058676
176	0x3f5958b3	0.8490097
177	0x3f45d7fb	0.77282685
178	0xbe00caf7	-0.12577425
179	0x3df5081e	0.11964439
180	0x3ed45f57	0.4147899
181	0xbed2c621	-0.41166785
182	0x3d1bb9c8	0.03801897
183	0x3d9f1510	0.07767689
184	0x3e829626	0.2550518
185	0x3efcdc99	0.49387053
186	0x3ee3110a	0.44348937
187	0x3df1b9ea	0.118030384
188	0x3f22209f	0.63331026
189	0x3c228700	0.009919882
190	0xbdaa65e9	-0.08320219
191	0xbf1cdd1a	-0.61274874
192	0x3ed1b61b	0.40959248
193	0x3e70107b	0.23443787
194	0x3f1bdea3	0.6088659
195	0x3e5e6208	0.21717083
196	0x3ef84164	0.4848739
197	0x3f7a651e	0.9781054
198	0x3d8cbffd	0.06872556
199	0x3f1052b5	0.563762
200	0x3e6e3b72	0.23264864
201	0xbed3afdb	-0.41345105
202	0x3ef0c2be	0.47023576
203	0x3e818a79	0.2530096
204	0x3eb03353	0.34414157
205	0xbb54b0e5	-0.003245407
206	0xbe4a7cd7	-0.19774185
207	0x3e5d15b6	0.21590313
208	0x3ed5bb4f	0.41744468
209	0xbe777025	-0.24163873
210	0x3e945391	0.28970006
211	0xbb4d5e12	-0.0031336588
212	0xbf27ea95	-0.6559232
213	0xbe0567a7	-0.13027821
214	0x3d49e001	0.049285892
215	0xbe3a9e90	-0.1822455
216	0x3cdc53d3	0.02689544
217	0xbc81d468	-0.015848354
218	0x3ee7b136	0.4525239
219	0x3e92f92c	0.28705728
220	0x3dc8222c	0.09772143
221	0x3ef96e50	0.48716974
222	0x3eeceafd	0.46273032
223	0xbe1acada	-0.15116444
224	0x3ef3d70c	0.47625005
225	0xbed4e66e	-0.41582054
226	0x3efd7af9	0.49507883
227	0x3dc7dfb8	0.09759468
228	0x3da8e742	0.08247234
229	0x3f748ab1	0.95524126
230	0x3e0154d1	0.12630011
231	0x3f54dec6	0.83152425
232	0x3e832f99	0.25622252
233	0xbee48f46	-0.4464056
234	0x3d49b63a	0.04924605
235	0x3e0eb1bb	0.13934986
236	0x3ea5b8d5	0.32367578
237	0x3ee08ea5	0.4385883
238	0x3eba13fc	0.36343372
239	0x3eac677b	0.336727
240	0x3f2edb93	0.68303794
241	0x3f6c8514	0.9239056
242	0xbef3e51e	-0.4763574
243	0xbe4c5e83	-0.19957928
244	0x3f3200d2	0.695325
245	0xbecd0d28	-0.400491
246	0x3c85399f	0.016262827
247	0x3f2fc721	0.6866322
248	0x3e7ef460	0.24897909
249	0xbeb7fdeb	-0.35935912
250	0x3b0bc1c1	0.0021325203
251	0xbce8a56e	-0.028399196
252	0xbdbe1e1c	-0.09283087
253	0xbf2d31a7	-0.6765389
254	0xbf3edd49	-0.74556404
255	0x3e792614	0.24330932

static_variable_selection.single_variable_grns.AGE80PLUS.gate_norm.glu.fc.bias f4 [32]
0	0x3e831707	0.25603506
1	0xbd46f11a	-0.048569776
2	0xbe1aea5f	-0.15128468
3	0x3e58586f	0.21127485
4	0x3b9bd7fd	0.0047559724
5	0x3e0e3806	0.13888559
6	0xbbbd40ca	-0.0057755457
7	0xbd69f859	-0.05712161
8	0xbd0bbed9	-0.034117553
9	0xbdbaea94	-0.091267735
10	0x3e5e02e5	0.21680792
11	0xbe778f94	-0.24175864
12	0x3d3f2181	0.04666281
13	0xbd6e04f4	-0.058110192
14	0xbda055e4	-0.07828882
15	0x3e38f602	0.18062595
16	0xbf3f0319	-0.746141
17	0xbf823102	-1.0171206
18	0xbea13ae4	-0.31490242
19	0xbf25810f	-0.6465005
20	0xbfe5a39b	-1.7940553
21	0xbf7751db	-0.96609277
22	0xbfc84986	-1.5647438
23	0xbf6fc40f	-0.93658537
24	0xbfa06334	-1.2530274
25	0xbf82f7b8	-1.0231848
26	0xbc88b06c	-0.016685687
27	0xbf11b3fd	-0.56915265
28	0xbfa8b0c2	-1.3178942
29	0xbf5f3f0a	-0.87205565
30	0xbf591bfa	-0.84808314
31	0xbe91243c	-0.28347957

static_variable_selection.single_variable_grns.AGE80PLUS.gate_norm.add_norm.norm.weight f4 [16]
0	0x3e96d48d	0.29459038
1	0x3f169556	0.5882162
2	0x3f8e9b0b	1.1141065
3	0x3fb52158	1.4150801
4	0x3fac370a	1.3454297
5	0x3fd19ff1	1.6376935
6	0x3f88626e	1.0655038
7	0x3f6cd485	0.9251178
8	0x3f8bc8ec	1.0920691
9	0x3fc08aa2	1.5042307
10	0x3e8ef7f5	0.2792355
11	0x3fbe2497	1.4854916
12	0x3f9b88b7	1.2151097
13	0x3f86efe9	1.0541965
14	0x3eb2db5b	0.3493298
15	0x3f72efcd	0.94897157

static_variable_selection.single_variable_grns.AGE80PLUS.gate_norm.add_norm.norm.bias f4 [16]
0	0x3e8639d6	0.26216
1	0x3d1b80f7	0.037964787
2	0xbd8a496c	-0.06752285
3	0x3eeb7902	0.4599076
4	0x3e86c889	0.2632487
5	0x3e019f21	0.12658359
6	0x3d816e42	0.06319858
7	0xbe24b4f1	-0.16084649
8	0xbda2378c	-0.07920751
9	0xbe0a548b	-0.13508813
10	0x3e1f3dfa	0.15550986
11	0xbee57735	-0.4481751
12	0xbdc57426	-0.09641294
13	0xbd844bc9	-0.06459767
14	0x3d99b0d7	0.07504433
15	0x3e61213c	0.21985334

static_variable_selection.prescalers.AGE80PLUS.weight f4 [8, 1]
0	0x3dc314a2	0.0952542
1	0xbe7b2c1b	-0.24528544
2	0x3f097e3d	0.5370825
3	0x3f170aa6	0.59000623
4	0xbf476fc6	-0.7790493
5	0xbecf6286	-0.40504855
6	0xbf4573d9	-0.77129894
7	0x3ec0c670	0.37651396

static_variable_selection.prescalers.AGE80PLUS.bias f4 [8]
0	0xbe059f66	-0.13049087
1	0x3e755893	0.2395957
2	0x3f45f7d0	0.77331257
3	0x3e2eb976	0.17062935
4	0xbed2faf9	-0.41207102
5	0xbf0c0923	-0.5470144
6	0xbe8d1b78	-0.2756002
7	0x3e804440	0.2505207

encoder_variable_selection.flattened_grn.resample_norm.mask f4 [3]
0	0xbf61cae9	-0.8820024
1	0xbb99b9fb	-0.00469136
2	0x3ef3c69f	0.47612473

encoder_variable_selection.flattened_grn.resample_norm.norm.weight f4 [3]
0	0x3f8d7527	1.1051377
1	0x3f7e8337	0.9941897
2	0x3ff3e882	1.9055331

encoder_variable_selection.flattened_grn.resample_norm.norm.bias f4 [3]
0	0x3ec65699	0.38737944
1	0x3e1296c0	0.14315319
2	0xbf87846e	-1.0587289

encoder_variable_selection.flattened_grn.fc1.weight f4 [3, 24]
0	0x3e78840b	0.2426912
1	0xbf21d001	-0.63208014
2	0x3e9aa39a	0.30202943
3	0xbee75e09	-0.4518893
4	0x3e433977	0.1906489
5	0x3e900545	0.2812902
6	0xbe58fd63	-0.2119041
7	0xbe3b2a3d	-0.18277831
8	0xbf245b8c	-0.6420219
9	0x3ea39881	0.3195229
10	0xbd5bbe0b	-0.053648036
11	0xbfb89cb7	-1.4422826
12	0xbe99e4b9	-0.30057314
13	0x3dfe2d1e	0.12410949
14	0x3e8b2e4f	0.27183768
15	0x3db532b4	0.088475615
16	0x3f41bbbf	0.756771
17	0xbf57c57d	-0.8428572
18	0x3dd9a78d	0.10627661
19	0x3dae72f3	0.085180186
20	0x3e80aeec	0.25133455
21	0x3f22d4d5	0.63606006
22	0xbd8520d5	-0.06500403
23	0x3f8191d8	1.0122633
24	0x3e21cc04	0.15800482
25	0xbe72be9f	-0.23705529
26	0xbe4aae57	-0.19793068
27	0xbf4f2069	-0.8090883
28	0x3e8d9305	0.2765123
29	0x3e150d1f	0.14555787
30	0x3e0e0338	0.13868415
31	0x3f2f3508	0.68440294
32	0xbf10e037	-0.56592125
33	0x3eab5e5b	0.33470425
34	0xbf193582	-0.5984727
35	0xbf39616a	-0.7241427
36	0xbe15f719	-0.14645042
37	0x3ca4776b	0.020076474
38	0x3ddf3929	0.10899574
39	0x3e672eed	0.22576495
40	0xbe8e4b32	-0.27791744
41	0x3ecf66cb	0.40508112
42	0xbcca8c8f	-0.024725227
43	0xbef13046	-0.47107142
44	0xbee3f89b	-0.44525608
45	0x3e8d8717	0.27642128
46	0x3ecf0b36	0.4043824
47	0x3db4cd24	0.0882819
48	0x3f12445d	0.57135564
49	0xbe7836c3	-0.2423964
50	0xbdff0b9e	-0.12453388
51	0x3e8a401a	0.2700203
52	0x3eb3cfb3	0.351194
53	0x3ee93a27	0.4555218
54	0xbdb378c9	-0.08763272
55	0x3ec143c8	0.37747025
56	0xbf01c626	-0.50692976
57	0x3e6c5a44	0.23081309
58	0x3e4e5ae1	0.20151855
59	0x3de1e323	0.11029651
60	0x3d2b22f6	0.04178139
61	0xbcdf37bf	-0.027248261
62	0x3ea2b0cb	0.31775507
63	0x3e86c5fe	0.2632293
64	0xbe9ea4dc	-0.30985153
65	0x3f9c1a37	1.21955
66	0x3f055712	0.52085984
67	0xbfaff540	-1.3746719
68	0xbf859f37	-1.0439214
69	0xbee55816	-0.44793767
70	0x3da1a60f	0.07893001
71	0xbe3e2676	-0.18569359

encoder_variable_selection.flattened_grn.fc1.bias f4 [3]
0	0xbed54c6b	-0.41659865
1	0xbeac8172	-0.3369251
2	0xbe22c7de	-0.15896556

encoder_variable_selection.flattened_grn.context.weight f4 [3, 16]
0	0x3df0974d	0.11747608
1	0xbd9c46ea	-0.07630713
2	0xbdef4892	-0.116837636
3	0xbeca53ec	-0.39517152
4	0xbde3a52e	-0.1111549
5	0x3dfd7bfd	0.123771645
6	0xbe9f15eb	-0.3107141
7	0x3d897c97	0.06713217
8	0x3b5b15bf	0.003342971
9	0x3e1e696e	0.15469906
10	0xbdbe14a5	-0.092812814
11	0x3d832497	0.06403463
12	0xbd64478b	-0.05573229
13	0xbce4e225	-0.027939865
14	0xbc191c58	-0.009345137
15	0xbe4faec3	-0.2028151
16	0x3e88dd6d	0.26731434
17	0x3d8ff19b	0.070285045
18	0x3f2c70fe	0.6735991
19	0xbf0ca62c	-0.5494106
20	0xbf06ad9c	-0.52608657
21	0x3f816fa9	1.0112201
22	0xbd1d9e5f	-0.038481113
23	0xbefd22c3	-0.49440584
24	0x3eaf4dd9	0.3423908
25	0xbc07086c	-0.008241754
26	0x3dc29da6	0.09502725
27	0x3e28e1b7	0.16492353
28	0xbdd02199	-0.10162658
29	0xbe012699	-0.1261238
30	0x3c8d2d33	0.017233467
31	0xbe00a10d	-0.12561436
32	0xbd9869de	-0.074420676
33	0x3e0fb788	0.14034855
34	0xbe17383c	-0.14767545
35	0xbe66987a	-0.22519103
36	0xbd17b1c5	-0.03703477
37	0x3eacc144	0.337412
38	0x3f0ad064	0.5422423
39	0x3ef216b8	0.47282958
40	0xbe529512	-0.20564678
41	0xbe7bc823	-0.24588065
42	0x3d1f0a3e	0.038828127
43	0x3e04b148	0.12958252
44	0xbcb26369	-0.021775918
45	0x3e16a662	0.14711908
46	0xbd4319ba	-0.047631957
47	0x3f6f2546	0.9341625

encoder_variable_selection.flattened_grn.fc2.weight f4 [3, 3]
0	0xbf38deac	-0.7221477
1	0xbf86596f	-1.0496043
2	0xbf03fea5	-0.5156043
3	0xbf0d0a34	-0.55093694
4	0xbf549f74	-0.83055806
5	0xbcf791df	-0.030220924
6	0xbed939fd	-0.42427054
7	0xbf67085c	-0.9024713
8	0xbf1d18f5	-0.61366206

encoder_variable_selection.flattened_grn.fc2.bias f4 [3]
0	0x3e56f1f7	0.2099074
1	0x3d8638c0	0.06553793
2	0xbd1a7f12	-0.03771884

encoder_variable_selection.flattened_grn.gate_norm.glu.fc.weight f4 [6, 3]
0	0x3eb42c07	0.3518984
1	0xbddc883f	-0.107681744
2	0x3ef333f1	0.47500566
3	0xbe0d37ef	-0.13790868
4	0xbed0b667	-0.40764162
5	0x3ee14e88	0.44005227
6	0xbf702bc9	-0.9381681
7	0xbf8d203b	-1.1025461
8	0xbf7ccc0d	-0.98748857
9	0xbd289cfb	-0.041165333
10	0xbe885eee	-0.26634926
11	0x3f3af251	0.73025995
12	0x3f1ef9d4	0.6209996
13	0xbf51fde0	-0.8202801
14	0xbdaff04a	-0.085907534
15	0x3f6ea597	0.9322142
16	0x3f36bdb9	0.71383244
17	0x3f47c03d	0.7802771

encoder_variable_selection.flattened_grn.gate_norm.glu.fc.bias f4 [6]
0	0x3e8f27e3	0.2796012
1	0x3d87837c	0.066168755
2	0xbf960721	-1.1720926
3	0xbe556dcf	-0.2084267
4	0xbe840300	-0.2578354
5	0x3f64e669	0.8941408

encoder_variable_selection.flattened_grn.gate_norm.add_norm.norm.weight f4 [3]
0	0x3e947051	0.2899194
1	0x3e8e0bb4	0.27743304
2	0x3e5be678	0.21474636

encoder_variable_selection.flattened_grn.gate_norm.add_norm.norm.bias f4 [3]
0	0x3d3f34d3	0.046681236
1	0xbef8b4ab	-0.4857534
2	0x3f258e9a	0.6467072

encoder_variable_selection.single_variable_grns.SinWeekly.resample_norm.mask f4 [16]
0	0xbe98dc87	-0.2985575
1	0x3ebe10cb	0.37122187
2	0x3e279692	0.16366032
3	0xbea9fd44	-0.3320104
4	0x3c639fb6	0.0138930585
5	0xbe9bf0a5	-0.30457035
6	0x3f27346d	0.6531437
7	0xbf50da51	-0.81583124
8	0xbf46ea04	-0.7770083
9	0xbc26618d	-0.010155094
10	0xbf1805dd	-0.59383947
11	0xbda88deb	-0.08230194
12	0xbf23ff70	-0.6406164
13	0xbe0a81a3	-0.13526015
14	0xbdff7042	-0.12472583
15	0x3f28374f	0.65709394

encoder_variable_selection.single_variable_grns.SinWeekly.resample_norm.norm.weight f4 [16]
0	0x3f65afe5	0.8972152
1	0x3f7f255c	0.9966638
2	0x3fb9b323	1.4507793
3	0x3f4ff4b6	0.81232774
4	0x3fbbbd41	1.4667131
5	0x3f6a42e6	0.9150833
6	0x3ff87502	1.9410708
7	0x3f00a175	0.50246364
8	0xbdeb34d0	-0.114846826
9	0x3f82ecb7	1.022849
10	0x3f7cbed1	0.9872866
11	0x3fb38ee3	1.402798
12	0x3f0e652e	0.5562314
13	0x3f917ef5	1.1366869
14	0x3fa6766a	1.3004887
15	0x3fd7d6b8	1.6862402

encoder_variable_selection.single_variable_grns.SinWeekly.resample_norm.norm.bias f4 [16]
0	0x3dfb637a	0.12274833
1	0xbc02de19	-0.0079875225
2	0xbe2d45ef	-0.16921209
3	0xbd5723c7	-0.052524354
4	0xbdb7e52c	-0.08979258
5	0xbe320dcf	-0.1738808
6	0xbe4ff733	-0.20309143
7	0xbe652c8c	-0.22380275
8	0x3e284e1a	0.16436043
9	0xbc33e4e1	-0.010979862
10	0x3dbe9385	0.09305481
11	0x3e1771a2	0.14789441
12	0x3da420ac	0.08014044
13	0xbcf308a6	-0.02966721
14	0x3db0f7b9	0.08640999
15	0x3dfee4a8	0.124459565

encoder_variable_selection.single_variable_grns.SinWeekly.fc1.weight f4 [8, 8]
0	0x3f0b6c12	0.5446178
1	0xbfe56a2a	-1.7923024
2	0xbf46c206	-0.77639806
3	0xc014ef36	-2.3271003
4	0xbe9b3488	-0.30313516
5	0x3d914c8b	0.070946775
6	0x3e50fc57	0.2040876
7	0x3ece12e8	0.402488
8	0x3c70a6f0	0.0146882385
9	0x3e977136	0.2957856
10	0xbf142e21	-0.5788289
11	0xbe84c1f2	-0.2592922
12	0xbf1d99fa	-0.61563075
13	0x3fa99edd	1.3251606
14	0xc0364cbf	-2.8484342
15	0xbfd82eb5	-1.6889254
16	0xbd4a9022	-0.049453862
17	0xbdd56f79	-0.10421652
18	0xbeed0f83	-0.46300897
19	0x3e436c0a	0.19084182
20	0xbf4eaebd	-0.8073538
21	0x3f223b00	0.63371277
22	0x3f3ed955	0.7455037
23	0x3e503392	0.20332173
24	0x3e820249	0.25392368
25	0x3c9a63c7	0.018846406
26	0xbecb167f	-0.396656
27	0x3d7493c7	0.059711244
28	0x3e9a1f77	0.3010213
29	0x3e88a099	0.26685026
30	0x3e1bd9a3	0.1521974
31	0x3ef8d32d	0.48598614
32	0xbef5f41a	-0.48037797
33	0x3ace5b40	0.0015743747
34	0x3f86d640	1.0534134
35	0x3e19ea3c	0.1503076
36	0x3dcd6993	0.10029902
37	0x3f31190d	0.6917885
38	0x3f05ea78	0.52310896
39	0xbf808908	-1.0041819
40	0x3f4c5dd1	0.7983065
41	0xbe9c57a3	-0.30535612
42	0xbf1faa42	-0.6236917
43	0x3c0da92f	0.008646294
44	0x3e5deaf2	0.21671656
45	0xbebc1bf4	-0.36740077
46	0xbdf11951	-0.11772407
47	0x3eb3d5a3	0.3512393
48	0xbf3d4654	-0.7393544
49	0xbe4596d2	-0.19295815
50	0xbfcd95b5	-1.6061312
51	0x3ed6e177	0.4196889
52	0xbf341043	-0.70337313
53	0x3f03481f	0.51281923
54	0xc0147cf4	-2.3201265
55	0xbf96c707	-1.1779488
56	0x3f090a79	0.53531605
57	0xbd8f28ee	-0.069902286
58	0xbf12706e	-0.57202804
59	0x3e0d7347	0.13813506
60	0x3f795341	0.9739266
61	0x3f04a942	0.51820767
62	0xbca6c8bc	-0.02035939
63	0x3f09fca8	0.5390115

encoder_variable_selection.single_variable_grns.SinWeekly.fc1.bias f4 [8]
0	0xbec51071	-0.38489106
1	0xbebbf647	-0.36711332
2	0xbe467354	-0.19379932
3	0xbe8175a2	-0.2528506
4	0x3dc65675	0.09684459
5	0xbcf087a2	-0.02936155
6	0xbee55770	-0.44793272
7	0xbe1d138e	-0.15339491

encoder_variable_selection.single_variable_grns.SinWeekly.fc2.weight f4 [8, 8]
0	0xbf7d188a	-0.9886557
1	0x3ed98cb1	0.42490152
2	0xbf89c4b5	-1.0763155
3	0xbe98454c	-0.2974037
4	0xbedc6ea4	-0.43053162
5	0xbd19ecd8	-0.037579387
6	0x3f3e6c03	0.7438356
7	0x3985198d	0.00025386774
8	0xbf0c64e4	-0.54841447
9	0xbe512693	-0.20424871
10	0x3eb5619b	0.3542603
11	0x3dbf8782	0.09352018
12	0xbd738710	-0.059454978
13	0x3d47531c	0.048663244
14	0x3f308b27	0.6896233
15	0x3e214868	0.15750277
16	0x3f12755f	0.57210344
17	0xbe8d102f	-0.2755141
18	0x3d832a8f	0.06404602
19	0xbe25e259	-0.16199626
20	0x3e8b941e	0.27261442
21	0x3e3c4b23	0.18388037
22	0x3f2b5fbc	0.66942954
23	0x3e94d561	0.29069045
24	0x3f23d0e0	0.6399059
25	0x3f81f8f5	1.0154101
26	0x3e5644d5	0.20924695
27	0xbc7e285c	-0.015512552
28	0x3e8b601e	0.2722177
29	0xbd843ca2	-0.06456877
30	0x3ebc01b9	0.36720064
31	0xbdacc7bb	-0.08436533
32	0xbf934f55	-1.1508585
33	0x3f89c850	1.0764256
34	0xbec36509	-0.3816302
35	0x3de9dfe3	0.11419656
36	0x3dc27dd5	0.09496657
37	0x3e17bdff	0.14818572
38	0x3ec21250	0.37904596
39	0xbd345cbd	-0.044033755
40	0x3f1c90f7	0.611587
41	0xbf2c2da0	-0.6725712
42	0xbea9d195	-0.3316771
43	0xbe035092	-0.12823704
44	0xbf3f606f	-0.7475652
45	0xbe226ec3	-0.15862565
46	0xbee53316	-0.44765538
47	0xbe9ab417	-0.30215523
48	0xbeeb1d31	-0.4592071
49	0xbe7b6a22	-0.24552205
50	0xbdda831c	-0.106695384
51	0xbde323ce	-0.110908136
52	0x3ebb8245	0.36622825
53	0xbdedd7a3	-0.11613395
54	0xbea1a3ea	-0.3157037
55	0x3c0b9653	0.008519727
56	0x3f35dfa9	0.71044403
57	0x3d2c7cbd	0.042111147
58	0x3eb90d95	0.36143175
59	0x3e2bc92b	0.16775958
60	0x3eb18363	0.34670553
61	0xbd97abe5	-0.07405833
62	0x3f620002	0.8828126
63	0xbdee0f05	-0.116239585

encoder_variable_selection.single_variable_grns.SinWeekly.fc2.bias f4 [8]
0	0x3d2b562f	0.041830238
1	0xbde6c0c1	-0.11267234
2	0x3e7d652f	0.2474563
3	0x3e957630	0.29191732
4	0x3e800e82	0.2501107
5	0x3d9db90a	0.07701309
6	0xbe9b34cb	-0.30313715
7	0x3e8f23f0	0.27957106

encoder_variable_selection.single_variable_grns.SinWeekly.gate_norm.glu.fc.weight f4 [32, 8]
0	0x3f087c34	0.5331452
1	0x3dfc5772	0.12321366
2	0x3f2256e2	0.6341382
3	0x3f11302e	0.5671414
4	0x3efef4e5	0.49796215
5	0xbf34b3ed	-0.70587045
6	0xbf0aabc5	-0.5416835
7	0x3e835a54	0.25654852
8	0xbd9d805b	-0.076904975
9	0x3e5c5cd2	0.21519783
10	0xbe3157da	-0.17318669
11	0xbe512863	-0.20425563
12	0x3d5211e7	0.051286604
13	0xbdbb62e3	-0.091497205
14	0x3e599dea	0.21251646
15	0xbdc17c50	-0.09447539
16	0x3dbbf069	0.09176714
17	0xbe648a2f	-0.22318338
18	0x3c9cb3cb	0.0191287
19	0x3e0fd6d0	0.14046788
20	0x3e0b6589	0.13612951
21	0xbbb4b944	-0.0055152494
22	0xbe10144e	-0.14070246
23	0x3cb80f10	0.02246812
24	0x3e22d930	0.15903163
25	0xbdb918ca	-0.09037931
26	0xbe8af7b1	-0.271421
27	0xbded6750	-0.11591971
28	0x3dbc921e	0.09207557
29	0x3d34c087	0.04412892
30	0xbda2f1bd	-0.07956264
31	0x3eaa3b6f	0.3324847
32	0x3f09876c	0.5372226
33	0x3e8ae408	0.271271
34	0x3ec23c22	0.37936503
35	0x3ed4be4b	0.41551432
36	0x3f163de5	0.58688194
37	0xbec5a53f	-0.38602635
38	0xbeafbc1a	-0.34323198
39	0x3eeaeec0	0.45885277
40	0x3e8db3d9	0.27676275
41	0xbe4c3efc	-0.19945902
42	0xbe64ba68	-0.22336733
43	0xbdc0c68b	-0.09412869
44	0xbeb4aec4	-0.35289586
45	0xbe022ef9	-0.12713231
46	0x3d4f791f	0.05065262
47	0x3e998c9a	0.29990083
48	0x3f0208c0	0.507946
49	0x3ee2faa3	0.44331846
50	0xbf5496c0	-0.83042526
51	0xbef5175d	-0.47869387
52	0x3ee56d88	0.44810128
53	0xbf067764	-0.52525926
54	0x3e4cb25b	0.19989912
55	0xbf4195fb	-0.7561948
56	0xbbd72350	-0.006565489
57	0x3ea6cd4c	0.32578504
58	0x3bf2e93b	0.007413057
59	0xbebf94f9	-0.37418345
60	0xbd334996	-0.04377135
61	0xbdd73fc1	-0.10510207
62	0x3eb3b13e	0.35096163
63	0x3d3fdd8c	0.046842143
64	0x3ec906ce	0.39263004
65	0x3e4eb746	0.20187101
66	0x3c41571a	0.011800552
67	0x3f485b16	0.78263986
68	0x3ed797c5	0.42107978
69	0xbf0ab87d	-0.54187757
70	0xbea15911	-0.31513265
71	0x3f40a87c	0.75257087
72	0xbdf6ec2a	-0.120567635
73	0xbe8ab6fd	-0.27092734
74	0x3e76184b	0.24032705
75	0xbe6b2649	-0.22963823
76	0xbdf8b66f	-0.121441714
77	0x3dda762d	0.106670715
78	0x3e4e448d	0.20143338
79	0x3e410cdb	0.1885256
80	0x3e0d1930	0.1377914
81	0xbd609fe6	-0.05483999
82	0x3e240510	0.16017556
83	0x3cf57e97	0.02996759
84	0x3e80f9da	0.25190622
85	0x3e3551d5	0.17706998
86	0x3d800f1d	0.06252883
87	0x3d9be389	0.07611758
88	0x3f0416c7	0.51597255
89	0x3ebe652a	0.37186557
90	0x3e091bff	0.13389586
91	0x3f41454c	0.75496364
92	0x3eb21904	0.3478471
93	0xbf48240d	-0.7818001
94	0xbeb59066	-0.3546173
95	0x3f2afe07	0.66793865
96	0x3f4fb391	0.8113337
97	0x3f4da0ff	0.80323786
98	0xbf00056b	-0.5000827
99	0xbe0ffead	-0.14061995
100	0x3f56d564	0.8391936
101	0xbf74109b	-0.9533784
102	0xbe2b7144	-0.16742426
103	0xbed15458	-0.40884662
104	0xbe8d0137	-0.2753999
105	0xbf14e297	-0.5815825
106	0x3d6d5af3	0.057948064
107	0xbe72608e	-0.23669645
108	0xbee5b3d4	-0.4486376
109	0x3eaf4f82	0.34240347
110	0x3ef5e22e	0.48024124
111	0xbead813b	-0.33887658
112	0xbe7b8c56	-0.24565253
113	0xbebcad9e	-0.3685121
114	0x3e3cd1e4	0.18439442
115	0xbdf7d9af	-0.12102067
116	0xbe8e0c68	-0.2774384
117	0x3e2e6d19	0.17033805
118	0x3d72cb75	0.059276063
119	0x3e6d0c78	0.23149288
120	0xbef82e93	-0.48473033
121	0xbf4871c3	-0.78298587
122	0xbea486fe	-0.3213424
123	0xbf10df02	-0.5659028
124	0xbf0d4073	-0.55176467
125	0x3f16adec	0.58859134
126	0x3f7566cc	0.9585998
127	0xbef9a8c1	-0.48761562
128	0x3f128ed2	0.57249177
129	0x3ec3a0a1	0.38208488
130	0xbde7ff5c	-0.11328003
131	0x3f31eb1b	0.6949937
132	0x3f2978f9	0.66200215
133	0xbf168732	-0.5880004
134	0xbcf8e346	-0.03038181
135	0xbcd4c4df	-0.025972782
136	0x3ee760d9	0.45191076
137	0xbe9d23c7	-0.30691358
138	0xbeb87287	-0.36024877
139	0xbe186ae2	-0.14884523
140	0x3e86aea2	0.2630511
141	0xbd9f608b	-0.07782086
142	0xbeac08c3	-0.33600435
143	0xbf0b62fb	-0.5444791
144	0x3e52b414	0.20576507
145	0xbf0f3351	-0.5593768
146	0xbe507af8	-0.20359409
147	0xbe1bbf50	-0.15209699
148	0x3e0cb550	0.1374104
149	0x3b926f6b	0.0044688485
150	0x3ce9bd09	0.028532522
151	0xbe31518c	-0.17316264
152	0x3e86c1ef	0.26319835
153	0x3d26a468	0.040684134
154	0xbe7b0365	-0.24513014
155	0xbe94ba68	-0.29048467
156	0x3e35b8b3	0.17746238
157	0x3e0040d2	0.12524727
158	0xbb873518	-0.0041262023
159	0x3e09faef	0.1347463
160	0x3f83c7b0	1.0295315
161	0x3fac24d2	1.3448737
162	0xbeda8705	-0.42681137
163	0x3e31d615	0.17366822
164	0x3f91d854	1.1394143
165	0xbf4c6231	-0.7983733
166	0xbed9b493	-0.4252058
167	0x3e627475	0.22114737
168	0x3d8bd520	0.0682776
169	0x3ec43d63	0.38328084
170	0x3eba2de4	0.36363137
171	0x3ea1c8a7	0.31598398
172	0x3e467ae6	0.1938282
173	0xbeb9f3d1	-0.3631883
174	0xbe81db20	-0.25362492
175	0xbed22995	-0.4104735
176	0xbf0e352b	-0.5554988
177	0xbed77469	-0.42081
178	0x3f840586	1.0314186
179	0x3ef1b07b	0.47204956
180	0xbf19a785	-0.6002124
181	0x3f0ea15b	0.5571496
182	0xbe235480	-0.15950203
183	0x3f7c1f9d	0.9848574
184	0xbdbaf051	-0.09127868
185	0x3e9bf1a8	0.30457807
186	0xbda3b4c5	-0.079934634
187	0xbef40269	-0.4765809
188	0x3c4232b9	0.011852914
189	0xbe7699f5	-0.24082167
190	0xbca02431	-0.019548507
191	0xbe9084c4	-0.28226292
192	0x3d871991	0.06596673
193	0x3e0ec8a7	0.1394373
194	0x3e251469	0.16121067
195	0x3e4f4bf0	0.20243812
196	0x3ee00fd6	0.43762082
197	0xbe85de95	-0.2614638
198	0xbec81d48	-0.3908484
199	0x3ea30f1f	0.31847474
200	0xbf09a879	-0.53772694
201	0xbe48a1cf	-0.19592975
202	0x3ef0962f	0.4698958
203	0x3ef201f6	0.4726712
204	0xbddfd0fc	-0.109285325
205	0x3e150f9d	0.14556737
206	0xbef67f1a	-0.48143846
207	0x3efc98de	0.49335378
208	0x3ef0e280	0.47047806
209	0xbde24b15	-0.11049477
210	0xbe31dccf	-0.17369388
211	0x3de4295d	0.11140702
212	0x3eb2e75d	0.3494214
213	0x3e4f256c	0.20229119
214	0xbed0b3b1	-0.40762094
215	0xbd9a695c	-0.07539627
216	0x3efc7058	0.4930446
217	0x3f073c64	0.52826524
218	0xbe91f726	-0.28508872
219	0x3ec77a4c	0.38960493
220	0x3f044637	0.5166964
221	0xbf332a1f	-0.69986147
222	0xbe94ef7f	-0.2908897
223	0x3e5ad60d	0.21370716
224	0xbdb802be	-0.08984898
225	0xbcef7c40	-0.029234052
226	0x3ea7e8da	0.3279484
227	0x3f84a754	1.0363564
228	0xbdac75b3	-0.08420887
229	0x3bd6e9c0	0.006558627
230	0xbf37e959	-0.71840435
231	0x3eed46ee	0.46343178
232	0x3ea9a654	0.3313471
233	0x3f82d2e5	1.022061
234	0xbe856474	-0.26053202
235	0x3f065ac2	0.52482235
236	0x3faf6520	1.3702736
237	0xbf1f603c	-0.62256217
238	0xbf542987	-0.82875866
239	0x3ed6a4bd	0.4192256
240	0xbf12d17e	-0.5735091
241	0xbef7450a	-0.4829486
242	0x3e3801c1	0.17969419
243	0x3d235946	0.03988006
244	0xbf22fddb	-0.636686
245	0x3b8581b1	0.0040742983
246	0x3e144997	0.14481197
247	0x3ee82ab4	0.4534508
248	0x3ef93639	0.4867418
249	0x3f3a3bc8	0.7274747
250	0xbe0d81f3	-0.13819103
251	0x3e993a39	0.29927233
252	0x3f2c0cf6	0.67207277
253	0xbf32cf7f	-0.69847864
254	0xbefc28a4	-0.49249756
255	0x3da8c9a0	0.08241582

encoder_variable_selection.single_variable_grns.SinWeekly.gate_norm.glu.fc.bias f4 [32]
0	0x3ece3836	0.4027726
1	0x3da8b2f8	0.082372606
2	0xbde5bd81	-0.112177856
3	0xbe10358c	-0.14082927
4	0x3e53e4c9	0.20692743
5	0xbe68c93a	-0.22733012
6	0xbf1fa9e5	-0.62368613
7	0xbe87ec99	-0.26547697
8	0x3f20d6f9	0.6282802
9	0x3d35f326	0.044421338
10	0x3ddafad4	0.10692373
11	0x3e9aea75	0.30257002
12	0x3e0dc676	0.13845238
13	0xbf0e9ea5	-0.5571082
14	0x3e522be7	0.2052456
15	0xbebeabaa	-0.37240344
16	0xbe30f98d	-0.17282696
17	0xbf1342c5	-0.5752376
18	0xbf1a2468	-0.602118
19	0xbfd3ad91	-1.6537343
20	0x3e3bee44	0.1835261
21	0xbf7539be	-0.9579123
22	0x3e5537b4	0.2082203
23	0xbf55ebd1	-0.8356295
24	0x3eb165d4	0.34648
25	0x3ee4b810	0.4467168
26	0xbfb81399	-1.4380981
27	0xbdd0191e	-0.10161041
28	0xbe9211f0	-0.2852931
29	0x3d380431	0.044925872
30	0xbdb859de	-0.09001516
31	0x3ec1f3d5	0.37881342

encoder_variable_selection.single_variable_grns.SinWeekly.gate_norm.add_norm.norm.weight f4 [16]
0	0x3f5741ec	0.84084964
1	0x3f283678	0.6570811
2	0x3fb966d5	1.4484507
3	0x3dc37398	0.09543532
4	0x3fadfe49	1.3593227
5	0x3f225522	0.6341115
6	0x3fda0473	1.7032608
7	0x3e129a43	0.14316659
8	0x3f6f7b0d	0.93547136
9	0x3f490998	0.78530264
10	0x3f736e3e	0.9509009
11	0x3fd8d416	1.6939723
12	0x3f7cfa67	0.98819584
13	0x3f99b78e	1.2009141
14	0x3f5269f1	0.82192904
15	0x3fda1f7a	1.7040856

encoder_variable_selection.single_variable_grns.SinWeekly.gate_norm.add_norm.norm.bias f4 [16]
0	0x3dbd03c5	0.092292346
1	0x3e86489c	0.26227272
2	0x3e9d7fe2	0.3076163
3	0x3e7f54f7	0.24934755
4	0x3dbb448d	0.091439344
5	0xbe2be405	-0.16786201
6	0xbe4bf094	-0.19915992
7	0xbc7755d8	-0.01509615
8	0x3d4f7711	0.05065066
9	0xbe256bfb	-0.16154473
10	0xbddaa19c	-0.10675356
11	0x3e5a511d	0.21320005
12	0x3e019979	0.12656201
13	0xbdf03303	-0.1172848
14	0x3de9fc9d	0.11425135
15	0x3ce22468	0.02760525

encoder_variable_selection.single_variable_grns.VaccinationFull.resample_norm.mask f4 [16]
0	0xbf0580c8	-0.5214963
1	0xbf193123	-0.598406
2	0x3d29e297	0.04147586
3	0xbf8816c1	-1.0631944
4	0x3f922525	1.1417586
5	0xbe072b47	-0.13200103
6	0xbf8e5ee7	-1.1122712
7	0x3ec5303e	0.38513368
8	0xbf76b629	-0.96371704
9	0xbf237808	-0.6385503
10	0xbf0961cc	-0.5366485
11	0x3ebf22b1	0.37331155
12	0x3e82dcdf	0.25559136
13	0x3ec6d039	0.38830736
14	0x3e897eb8	0.2685449
15	0xbd93422f	-0.07190358

encoder_variable_selection.single_variable_grns.VaccinationFull.resample_norm.norm.weight f4 [16]
0	0x3f04de70	0.5190191
1	0x3e867f48	0.26268983
2	0x3fafe43b	1.3741525
3	0x3eca291d	0.39484492
4	0x4016f031	2.3584101
5	0x3f8a6243	1.0811237
6	0x3eb38df2	0.35069233
7	0x3fd3aa18	1.6536283
8	0x3e9103a9	0.28323105
9	0x3f1ed4c7	0.6204342
10	0x3ec4f92e	0.3847136
11	0x3fbb5f2d	1.463842
12	0x3fb0b8be	1.3806379
13	0x3fb957ef	1.447996
14	0x3f8aebd2	1.0853217
15	0x3f85205e	1.0400503

encoder_variable_selection.single_variable_grns.VaccinationFull.resample_norm.norm.bias f4 [16]
0	0x3d3929a9	0.045205746
1	0x3f036146	0.513203
2	0xbe197a2d	-0.14988013
3	0x3e92a14b	0.28638682
4	0x3e22e7e1	0.15908767
5	0xbe8f3b58	-0.27974963
6	0xbea353fc	-0.31900012
7	0x3e132988	0.14371312
8	0xbebce676	-0.36894578
9	0xbe973ede	-0.2954015
10	0xbda0cfa3	-0.078521036
11	0xbe41df52	-0.18932846
12	0x3dd4f5bb	0.10398432
13	0xbeccad9c	-0.39976203
14	0x3ef23a66	0.4731018
15	0x3e098e32	0.1343315

encoder_variable_selection.single_variable_grns.VaccinationFull.fc1.weight f4 [8, 8]
0	0x3eac83c9	0.33694294
1	0xbc280db3	-0.010257172
2	0xbf2e19b1	-0.6800795
3	0xbe5f61cd	-0.21814652
4	0x3f139921	0.5765553
5	0x3dc7c03f	0.09753465
6	0xbf1375fd	-0.5760191
7	0xbd7b762e	-0.061392
8	0xbe5e6951	-0.21719863
9	0xbd72206f	-0.059112962
10	0xbf5f164e	-0.8714341
11	0xbfc1c33c	-1.5137706
12	0xbe0f7f2e	-0.14013359
13	0x3c3792aa	0.011204401
14	0x3f9bd32e	1.2173822
15	0x3ca58dc1	0.020209195
16	0x3e486d26	0.19572887
17	0xbf48702d	-0.78296167
18	0xbccd76a7	-0.025080992
19	0xbe085b6a	-0.13316122
20	0xbe84e5e5	-0.25956646
21	0x3ea51f7c	0.32250583
22	0xbe566c10	-0.2093966
23	0xbf064835	-0.5245393
24	0xbde1d5b9	-0.110270925
25	0xbf61ae47	-0.8815655
26	0xbe44d36f	-0.1922128
27	0x3f0a7de8	0.5409837
28	0xbf3ceecd	-0.7380188
29	0x3f0a151f	0.5393848
30	0x3b2b8ff1	0.0026178325
31	0x3c9b2df0	0.018942803
32	0x3dc56595	0.09638516
33	0x3f11ee41	0.5700417
34	0xbe9f51b7	-0.3111703
35	0x3d44a8c9	0.04801253
36	0x3d286e2f	0.041120704
37	0x3f5ff998	0.87490225
38	0x3f9cda9a	1.2254212
39	0x3f940c7c	1.156631
40	0xbea8e328	-0.32985806
41	0x3f067202	0.5251771
42	0x3e78bc3e	0.24290559
43	0xbe83507a	-0.25647336
44	0xbf6eb185	-0.93239623
45	0xbf5d7e11	-0.8652049
46	0xbf5b9830	-0.85779095
47	0xbfee7ec2	-1.8632433
48	0xbf3a130e	-0.72685325
49	0x3ee1629e	0.4402055
50	0x3e1ecacb	0.15507047
51	0x3dd45505	0.10367779
52	0x3f411117	0.754167
53	0xbdf227af	-0.11823975
54	0x3e68389d	0.22677846
55	0x3e36b4a5	0.17842348
56	0x3e9d1455	0.30679575
57	0x3cf54d33	0.029944038
58	0xbf3fea58	-0.74966955
59	0xbe8d7434	-0.27627718
60	0xbe918e81	-0.28429034
61	0xbf80bc29	-1.0057422
62	0xbe392083	-0.18078808
63	0xbfb28899	-1.3947936

encoder_variable_selection.single_variable_grns.VaccinationFull.fc1.bias f4 [8]
0	0x3e238326	0.15967998
1	0xbe20f20f	-0.15717338
2	0x3d9cde79	0.07659621
3	0x3d71684c	0.058937356
4	0xbda406f2	-0.08009137
5	0xbf12dd94	-0.5736935
6	0xbe799145	-0.24371822
7	0xbdf0eec0	-0.11764288

encoder_variable_selection.single_variable_grns.VaccinationFull.fc2.weight f4 [8, 8]
0	0xbd3ae1f5	-0.045625646
1	0x3d921b02	0.071340576
2	0xbc8c064f	-0.017092852
3	0xbe90b69e	-0.28264326
4	0xbf8a67ac	-1.0812888
5	0x3eaec76e	0.34136528
6	0xbe365171	-0.17804505
7	0xbd6c5780	-0.057700634
8	0x3ea00965	0.31257167
9	0xbf6373b2	-0.8884841
10	0x3c02b10e	0.007976783
11	0xbe3094f7	-0.17244326
12	0xbf4f8336	-0.81059587
13	0xbf53ac6b	-0.82684964
14	0x3dd022f9	0.101629205
15	0xbdf67b6a	-0.12035258
16	0xbf9040f6	-1.1269825
17	0x3e9c3f87	0.30517218
18	0xbe3acd61	-0.18242408
19	0x3f18ef62	0.5974027
20	0xbe6eb411	-0.23310877
21	0x3eb1a946	0.34699458
22	0x3e583110	0.21112466
23	0x3e57e106	0.21081933
24	0x3dd1b873	0.10240259
25	0xbf1041d3	-0.5635044
26	0xbe05264c	-0.1300289
27	0xbe887b43	-0.2665654
28	0x3f335299	0.7004791
29	0xbf6ac3e4	-0.91705155
30	0x3cc82117	0.024429841
31	0x3e13eadc	0.1444506
32	0xbe7755e4	-0.24153858
33	0xbecc65e2	-0.3992148
34	0x3eaded6d	0.33970204
35	0xbdf9f63a	-0.12205167
36	0x3e7f0594	0.24904472
37	0x3f2a3b2f	0.66496557
38	0xbef20836	-0.4727189
39	0x3f014df8	0.50509596
40	0xbe98ffb4	-0.29882586
41	0x3f389e43	0.7211649
42	0x3ea5bdcc	0.32371366
43	0x3dfbd4c9	0.12296445
44	0x3ea8262e	0.3284163
45	0xbbffdaf7	-0.007808085
46	0xbe755729	-0.2395903
47	0xbf4db2cd	-0.80350953
48	0x3ed493a9	0.41518906
49	0xbf04c0e5	-0.51856834
50	0xbd9df60c	-0.07712945
51	0x3f0e00f0	0.5547018
52	0x3c5ecafc	0.0135982
53	0xbf47a741	-0.77989584
54	0xbde7830b	-0.11304291
55	0x3d1b66d0	0.037939847
56	0xbed3f5c9	-0.41398457
57	0xbe5b62a4	-0.21424347
58	0x3e0a458d	0.13503094
59	0xbd4e59ee	-0.050378732
60	0xbf4beda0	-0.7965946
61	0xbf38e3be	-0.72222507
62	0xbe3ff2e2	-0.18744996
63	0x3c9d1f57	0.019179983

encoder_variable_selection.single_variable_grns.VaccinationFull.fc2.bias f4 [8]
0	0xbe9a9c29	-0.30197266
1	0x3e682488	0.22670186
2	0xbe43d243	-0.19123177
3	0x3d4e1e5a	0.050321914
4	0x3e827ba3	0.25484952
5	0xbd209e32	-0.039213367
6	0x3ef7f39c	0.48428047
7	0x3e8887d8	0.2666614

encoder_variable_selection.single_variable_grns.VaccinationFull.gate_norm.glu.fc.weight f4 [32, 8]
0	0xbc60eb09	-0.013727912
1	0x3f2fdd2f	0.68696874
2	0x3e6448c3	0.22293381
3	0x3f092b35	0.53581554
4	0xbed49c98	-0.41525722
5	0x3eb39d5c	0.35080993
6	0x3d55701f	0.05210888
7	0x3dcc84c0	0.099862576
8	0xbf1d8d25	-0.61543494
9	0xbf00bf31	-0.50291735
10	0xbef85870	-0.48504972
11	0x3e88376c	0.26604784
12	0x3abce1e3	0.0014410581
13	0x3e898f1c	0.26866996
14	0x3eeb7e5a	0.45994836
15	0xbf394e92	-0.72385514
16	0x3cf2da08	0.029644981
17	0x3eaee10d	0.34156075
18	0x3e545383	0.20734982
19	0xbd6816e1	-0.056662444
20	0x3e9a16a7	0.30095407
21	0x3ea373c1	0.3192425
22	0xbd37bae1	-0.044855956
23	0x3e62ff38	0.2216767
24	0xbf4e87d6	-0.8067602
25	0x3f5d4478	0.864326
26	0xbf694232	-0.9111663
27	0x3f67cc58	0.9054618
28	0xbf392d13	-0.723344
29	0x3f1151b4	0.56765294
30	0x3fa27c16	1.2694118
31	0x3f30cfdf	0.69067186
32	0x3f812f7a	1.0092614
33	0x3e60f9b2	0.21970251
34	0x3f24d775	0.6439126
35	0xbf824c72	-1.0179579
36	0x3f46ee6d	0.7770756
37	0xbf20a2e7	-0.6274857
38	0xbf05e29b	-0.522989
39	0x3c9e600e	0.019332912
40	0x3dc510ba	0.09622331
41	0x3e9b5ef0	0.3034587
42	0x3da6f244	0.08151677
43	0xbe4c47bc	-0.1994924
44	0xbf0a2de8	-0.539763
45	0x3e506784	0.20351988
46	0x3deb4a71	0.11488808
47	0x3e54da8f	0.20786498
48	0xbd1547b9	-0.036445353
49	0xbe90bfdd	-0.2827138
50	0x3ea57772	0.32317692
51	0xbe65ef8c	-0.22454661
52	0xbde0516e	-0.109530315
53	0x3e485721	0.19564487
54	0xbef22d04	-0.4729997
55	0xbcf1318b	-0.02944257
56	0xbee40605	-0.44535843
57	0x3faa9228	1.3325853
58	0xbeac5ac5	-0.33663002
59	0x3ec48472	0.38382298
60	0xbc1f5cbd	-0.0097267
61	0xbdfb399f	-0.1226685
62	0x3f5bef7a	0.8591229
63	0x3eedb18e	0.46424526
64	0x3e356fb8	0.17718399
65	0xbd9ee8a3	-0.07759216
66	0x3e8aa999	0.27082518
67	0xbf1efc00	-0.6210327
68	0xbc06407a	-0.008194083
69	0xbd945c7f	-0.07244205
70	0xbec7215e	-0.38892645
71	0x3e92150a	0.28531677
72	0xbe440f67	-0.191465
73	0xbedfa165	-0.43677822
74	0x3e634987	0.22196017
75	0xbe7f3f4c	-0.2492649
76	0xbe591387	-0.21198855
77	0xbe4a70f7	-0.19769655
78	0xbf7f59af	-0.9974622
79	0xbea8cd24	-0.3296901
80	0x3c454256	0.0120397415
81	0x3edce802	0.43145758
82	0xbe5afdfe	-0.21385953
83	0xbc76447f	-0.015030979
84	0x3d571f93	0.052520346
85	0x3dce71a6	0.100802705
86	0x3de47cf3	0.11156645
87	0x3eacfacc	0.33785093
88	0xbf15765b	-0.5838372
89	0xbf21c1bd	-0.63186246
90	0x3c8dbc86	0.017301809
91	0x3e141756	0.14462027
92	0x3e675257	0.22590004
93	0x3e90b2d5	0.28261438
94	0xbe592cca	-0.21208492
95	0xbe34c5bb	-0.17653553
96	0xbe707279	-0.23481168
97	0xbda8df98	-0.08245772
98	0xbe63be77	-0.22240625
99	0xbdb54df0	-0.08852756
100	0x3e20daa1	0.157084
101	0xbd89039d	-0.06690142
102	0xbe41b29e	-0.18915793
103	0xbf13bede	-0.57713115
104	0xbdbaa5e4	-0.091136724
105	0xbf85989a	-1.0437195
106	0xbd9321c4	-0.07184175
107	0x3ebbc32b	0.3667234
108	0xbe0cd46e	-0.1375291
109	0x3ecabea4	0.39598572
110	0xbe5b0c06	-0.21391305
111	0xbf1e73a6	-0.61895216
112	0xbe3ad4a2	-0.18245175
113	0x3c109851	0.008825378
114	0xbe889d1c	-0.26682365
115	0x3e72f4dc	0.23726219
116	0xbdef853b	-0.116953336
117	0x3e7e7209	0.24848188
118	0x3df66189	0.12030322
119	0xbd97e887	-0.07417398
120	0xbe887787	-0.26653692
121	0xbf306013	-0.688966
122	0x3dd0b12e	0.10190044
123	0x3c6984af	0.014252826
124	0xbce69999	-0.028149413
125	0x3e0336d3	0.12813883
126	0x3df60fd8	0.12014741
127	0xbda1a194	-0.07892147
128	0x3f9ae056	1.2099712
129	0xbe179afa	-0.14805213
130	0x3f8024be	1.0011213
131	0xbf22efc1	-0.63647085
132	0x3ec79eab	0.38988242
133	0xbe3a9c9c	-0.18223804
134	0xbea2bc06	-0.31784075
135	0xbeb1b0c9	-0.3470519
136	0xbf22806b	-0.634772
137	0xbf61545d	-0.88019353
138	0xbe40ff9a	-0.18847504
139	0x3e54d21f	0.2078328
140	0xbe895afc	-0.26827228
141	0x3fd153a8	1.6353655
142	0x3e4c7dbc	0.19969839
143	0xbee270bc	-0.44226635
144	0x3ecebaf2	0.40377003
145	0x3e93b7c8	0.2885115
146	0x3e7a5fa3	0.24450545
147	0x3e696444	0.22792155
148	0x3e0eb4b9	0.13936128
149	0x3f10da84	0.5658343
150	0xbea6106a	-0.32434398
151	0x3f1cd6c7	0.61265224
152	0x3f9d0f7c	1.227035
153	0x3e141544	0.14461237
154	0x3ea6eac6	0.32600993
155	0xbf47db09	-0.78068596
156	0x3e9f0c19	0.31063917
157	0xbf24739f	-0.64238924
158	0xbec20006	-0.37890643
159	0x3e840bce	0.25790256
160	0xbc901c7b	-0.017591706
161	0xbce4ca54	-0.027928509
162	0xbe137174	-0.14398748
163	0x3d6c63ba	0.057712294
164	0x3f24c4d4	0.64362836
165	0xbe7adce2	-0.24498323
166	0x3e1534e2	0.14570954
167	0xbf4d5739	-0.80211216
168	0x3e8abd6b	0.2709764
169	0xbe8d27b2	-0.27569348
170	0x3f000861	0.50012785
171	0xbda11a12	-0.07866301
172	0xbe2bc2c7	-0.1677352
173	0x3ed99a90	0.42500734
174	0xbf3103d4	-0.69146466
175	0x3ec16001	0.37768558
176	0x3e38f0b2	0.18060568
177	0x3ee55490	0.4479108
178	0x3e8f6931	0.28009942
179	0x3e355873	0.17709522
180	0xbed65e14	-0.4186865
181	0xbdd3d430	-0.10343206
182	0xbedb15b5	-0.4279
183	0x3ec26d53	0.37974033
184	0x3e02c0ef	0.12768911
185	0xbecb1dca	-0.39671165
186	0x3ef0d644	0.47038472
187	0xbe9e0678	-0.3086431
188	0x3eb35659	0.35026816
189	0xbed3a7a4	-0.41338837
190	0xbf8417b2	-1.0319731
191	0xbea9ea7e	-0.33186716
192	0x3ea8fbd7	0.3300464
193	0x3f037495	0.51349765
194	0x3db19f33	0.08672943
195	0xbe258506	-0.16164026
196	0xbe8a832a	-0.27053195
197	0x3d1daade	0.03849303
198	0x3e3c7a0d	0.18405934
199	0x3e09cacd	0.13456269
200	0x3e2605c9	0.16213144
201	0xbe44dc77	-0.19224726
202	0x3e67dbc3	0.22642426
203	0xbea8f6c4	-0.33000767
204	0x3e7c805b	0.24658339
205	0xbe8f8fbc	-0.28039348
206	0xbebc9141	-0.3682957
207	0x3f44a33c	0.76811576
208	0x3f6e803b	0.93164414
209	0xbbee9420	-0.0072808415
210	0x3fa63919	1.2986175
211	0xbfec9a32	-1.8484557
212	0x3fb4024b	1.40632
213	0xbf00343b	-0.500797
214	0xbf1e3a1f	-0.61807436
215	0x3ea434b7	0.32071468
216	0x3f99ddb9	1.2020789
217	0x3f414f20	0.7551136
218	0x3ea6358b	0.32462725
219	0xbf4446ea	-0.76670706
220	0x3f40ccc6	0.7531246
221	0xbf669be2	-0.9008161
222	0xbe7d6915	-0.24747117
223	0xbe9c3cce	-0.3051514
224	0xbe679079	-0.22613706
225	0xbd87dc0c	-0.066337675
226	0xbf139c3f	-0.5766029
227	0x3f9c83b0	1.2227688
228	0xbf674208	-0.9033513
229	0x3f537a6f	0.82608694
230	0xbab4cdf2	-0.0013794287
231	0x3f210ada	0.62907183
232	0x3ea4a1bb	0.3215464
233	0xbf4f659c	-0.8101442
234	0x3f06dfaf	0.52685064
235	0xbf5c34da	-0.86018145
236	0x3f94e14b	1.1631254
237	0xbe86129a	-0.26186067
238	0xbf5a5b4d	-0.85295564
239	0xbbd4d94c	-0.0064956304
240	0x3efd75bf	0.49503896
241	0x3da6b62e	0.08140217
242	0xbd091353	-0.033465695
243	0x3db247f8	0.08705133
244	0xbe691783	-0.22762875
245	0xbf2edd13	-0.6830608
246	0xbc463cd6	-0.012099465
247	0xbe286c72	-0.16447619
248	0x3e8ed7f3	0.2789913
249	0xbf0e47ac	-0.5557811
250	0x3f48afea	0.78393424
251	0xbf1534f4	-0.58283925
252	0xbcd4d189	-0.02597882
253	0xbeab0aba	-0.3340662
254	0xbec64ac6	-0.38728923
255	0xbf1dc3e6	-0.6162704

encoder_variable_selection.single_variable_grns.VaccinationFull.gate_norm.glu.fc.bias f4 [32]
0	0x3eebb228	0.4603436
1	0x3f0bdfa6	0.54638135
2	0x3d40daa7	0.047083523
3	0xbe313739	-0.17306222
4	0x3dcefa49	0.10106332
5	0x3d0e0916	0.034676634
6	0xbe2edaca	-0.17075649
7	0x3d9779c4	0.07396272
8	0xbe621aab	-0.22080486
9	0xbe2172aa	-0.15766397
10	0x3f08927f	0.53348535
11	0xbf2364f4	-0.6382592
12	0xbe1594d0	-0.14607549
13	0xbf526aa8	-0.82193995
14	0x3e38400a	0.17993179
15	0x3d019949	0.031640325
16	0xbe5f95b0	-0.21834445
17	0xbdada717	-0.084791355
18	0xbf2dcb1b	-0.6788804
19	0x3f52d84b	0.82361287
20	0x3fad0e16	1.3519924
21	0xbf63e5b9	-0.89022404
22	0xbe8decaf	-0.27719638
23	0xbf6040db	-0.8759896
24	0xbea5adab	-0.3235906
25	0xbe53f18d	-0.20697613
26	0x3f16857b	0.58797425
27	0x3f4738cb	0.77821034
28	0xbe7b28e2	-0.24527314
29	0xbeeb301f	-0.4593515
30	0xbe2a22bf	-0.16614817
31	0xbd8c5863	-0.06852796

encoder_variable_selection.single_variable_grns.VaccinationFull.gate_norm.add_norm.norm.weight f4 [16]
0	0x3ed69595	0.41910997
1	0x3f3b0677	0.7305674
2	0x3f9cf338	1.2261724
3	0x3f936985	1.1516577
4	0x3f936f17	1.1518277
5	0x3f3a9da7	0.7289681
6	0x3e9a01e7	0.30079576
7	0x3febd584	1.8424535
8	0x3f1b7af8	0.6073451
9	0xbe51ec8c	-0.20500392
10	0x3e6612fe	0.22468182
11	0x3f8b1f69	1.0868961
12	0x3f409a5e	0.75235546
13	0x3f8b4403	1.088013
14	0x3f846ddc	1.0346026
15	0x3efbfec7	0.49217817

encoder_variable_selection.single_variable_grns.VaccinationFull.gate_norm.add_norm.norm.bias f4 [16]
0	0x3de66842	0.11250354
1	0x3ed651a5	0.41859165
2	0x3d4aaf67	0.049483683
3	0x3e7f7bfc	0.2494964
4	0x3ed66d92	0.4188047
5	0xbd7ee008	-0.06222537
6	0xbd26d3a2	-0.040729173
7	0xbe03da99	-0.12876357
8	0xbe1fba25	-0.15598352
9	0xbeb83a9a	-0.3598221
10	0xbd90696a	-0.07051356
11	0xbcb8029c	-0.022462182
12	0x3cdb1526	0.026743483
13	0xbea8d618	-0.3297584
14	0x3ea164d5	0.3152224
15	0x3e4ccc58	0.19999826

encoder_variable_selection.single_variable_grns.Cases.resample_norm.mask f4 [16]
0	0x3edbf728	0.42962003
1	0x3ee69204	0.45033276
2	0xbff45733	-1.9089111
3	0xbe1b5113	-0.15167646
4	0xbef3f396	-0.4764678
5	0x3ee59123	0.44837293
6	0x3db90d64	0.09035757
7	0xbf90c792	-1.1310904
8	0xbfc90541	-1.5704728
9	0x3ee86c36	0.45395058
10	0x3eca1e9c	0.39476478
11	0xbee4453e	-0.44584078
12	0xbf9f96aa	-1.2467854
13	0xbe62fc16	-0.22166476
14	0x3f3bc56f	0.73348135
15	0xbdbd96cc	-0.09257278

encoder_variable_selection.single_variable_grns.Cases.resample_norm.norm.weight f4 [16]
0	0x3fb49518	1.4108
1	0x3fd56d93	1.6674064
2	0x3ebe4354	0.37160742
3	0x3f9e41c3	1.2363819
4	0x3f4d3500	0.80158997
5	0x3fc020c3	1.5009998
6	0x3fca518b	1.5806135
7	0x3f3d6e70	0.7399664
8	0x3f29d16b	0.6633517
9	0x3fe79d7e	1.8094938
10	0x3fb5c6fd	1.4201351
11	0x3f5e0a17	0.86734146
12	0x3de182bb	0.11011263
13	0x3f7dfc49	0.9921308
14	0x3fff91d5	1.996638
15	0x3f9e46c9	1.2365352

encoder_variable_selection.single_variable_grns.Cases.resample_norm.norm.bias f4 [16]
0	0x3e914527	0.28373072
1	0x3e6f91ba	0.23395434
2	0xbe2154a0	-0.15754938
3	0xbb9d217d	-0.004795252
4	0x3c947d64	0.018126197
5	0xbe6f88bf	-0.23392008
6	0xbe8601e7	-0.26173326
7	0xbdc8de46	-0.0980802
8	0xbe06c8f0	-0.13162589
9	0xbb12e6b1	-0.0022415335
10	0xbe2c3a49	-0.16819109
11	0x3dbc1513	0.09183707
12	0xbe51977b	-0.20467941
13	0xbdc8c890	-0.09803879
14	0x3e3e0964	0.1855827
15	0x3efa0706	0.48833483

encoder_variable_selection.single_variable_grns.Cases.fc1.weight f4 [8, 8]
0	0x3cb026b8	0.021502838
1	0x3fd41b7e	1.657089
2	0x3e33fc8d	0.17576809
3	0xbf58150e	-0.84407127
4	0xbf30b9f0	-0.6903372
5	0x3ef189c0	0.47175407
6	0xbe9342e4	-0.2876197
7	0xbed6f92b	-0.41986975
8	0x3f05dd28	0.5229058
9	0x3f3f99d5	0.74844104
10	0xbe4e9e8e	-0.20177671
11	0xc02f7f1d	-2.7421334
12	0xbfaad429	-1.3345996
13	0x3ea68b8d	0.32528344
14	0x3e17ec08	0.14836133
15	0xbcaee673	-0.021350121
16	0x3fa6ea79	1.3040305
17	0x3c840f74	0.01612065
18	0xbe1df3d3	-0.15425043
19	0x3d444c88	0.04792455
20	0x3c9b5594	0.018961705
21	0x3db36597	0.08759611
22	0xbf6d7bef	-0.9276723
23	0x3f4b95c2	0.7952539
24	0xbf0d2eac	-0.5514934
25	0x3dc567e5	0.09638957
26	0x3f5bc11d	0.8584154
27	0x3e038082	0.1284199
28	0x3f16d5b2	0.58919823
29	0x3eb2d5b1	0.3492866
30	0x3e70d585	0.23518951
31	0x3f56ac24	0.83856416
32	0xbeab0885	-0.33404937
33	0xbe4bdbe7	-0.19908105
34	0x3e6d484b	0.23172109
35	0x3e1e7588	0.15474522
36	0x3e2df457	0.1698774
37	0x3e69c847	0.22830306
38	0x3e56d554	0.20979816
39	0x3e8db93b	0.27680382
40	0xbde0d483	-0.109780334
41	0x3ea4c4e8	0.32181478
42	0x3e3f51d6	0.18683562
43	0xc0028f79	-2.0400069
44	0xbf5e79dd	-0.869047
45	0x3f1de72e	0.6168088
46	0x3d291869	0.041283045
47	0x3f52f9ae	0.8241223
48	0x3e25050b	0.16115205
49	0x3f263e3d	0.6493872
50	0x3e678bb6	0.22611889
51	0xbe821f1f	-0.2541437
52	0xbfd33425	-1.6500288
53	0x3eb022cd	0.3440155
54	0x3f067840	0.52527237
55	0xbe878949	-0.26471928
56	0xbe3381fa	-0.17530051
57	0xbefaf03b	-0.49011406
58	0xbef97675	-0.48723188
59	0xbf206ab2	-0.62662804
60	0xbd67c5d6	-0.056585155
61	0xbea38d28	-0.3194363
62	0xbf3c095d	-0.7345179
63	0x3fa436ce	1.2829225

encoder_variable_selection.single_variable_grns.Cases.fc1.bias f4 [8]
0	0xbed04cac	-0.40683496
1	0xbeb232b2	-0.34804302
2	0xbdd769f4	-0.10518256
3	0xbefd8aaa	-0.49519855
4	0xbd7a611b	-0.061127763
5	0xbea0a601	-0.3137665
6	0xbefde6ea	-0.49590236
7	0xbaa4cd12	-0.0012573323

encoder_variable_selection.single_variable_grns.Cases.fc2.weight f4 [8, 8]
0	0xbe032b03	-0.12809376
1	0x3f49d6bc	0.78843284
2	0x3e48aef2	0.19597986
3	0xbf106dd0	-0.5641756
4	0x3efa6d2a	0.4891141
5	0xbe28ab0b	-0.16471498
6	0x3f6df0ad	0.9294537
7	0x3d6430b7	0.05571052
8	0xbdb78725	-0.08961324
9	0x3e06e2fb	0.13172524
10	0xbe964a89	-0.2935374
11	0xbee1ee56	-0.44127148
12	0x3dd3c9d5	0.10341231
13	0x3e7361e3	0.2376781
14	0x3e508b81	0.20365717
15	0xbf7db38b	-0.99102086
16	0xbe127ff2	-0.1430662
17	0xbf1a3bf7	-0.6024775
18	0xbf6f8647	-0.93564266
19	0x3edcd293	0.43129405
20	0x3ee00d8f	0.43760344
21	0xbed648f8	-0.41852546
22	0xbf26d448	-0.65167665
23	0x3f4aa6f7	0.7916102
24	0xbea95982	-0.33076102
25	0xbf206ca2	-0.6266576
26	0xbef83916	-0.48481053
27	0xbf5c5458	-0.860662
28	0x3eb06769	0.34453896
29	0xbf3b0a70	-0.730628
30	0xbf10b498	-0.56525564
31	0xbe84cbeb	-0.25936827
32	0x3ec0856e	0.376018
33	0x3f297f0d	0.6620949
34	0x3e50b6ce	0.20382234
35	0x3e453815	0.19259675
36	0x3eab29e0	0.33430386
37	0xbe44636a	-0.19178548
38	0x3e80a0a1	0.2512255
39	0x3efad0de	0.48987478
40	0x3ef6048b	0.4805034
41	0x3e57b5d6	0.21065459
42	0x3f697dd1	0.91207606
43	0x3efed54b	0.49772105
44	0xbed134ae	-0.40860504
45	0x3e4b1ec5	0.19835956
46	0x3e923c31	0.28561547
47	0xbdb63da3	-0.08898475
48	0xbf0c3690	-0.54770756
49	0xbed8df74	-0.4235798
50	0xbf215720	-0.6302357
51	0x3eaca2d8	0.3371799
52	0xbe25316e	-0.16132137
53	0xbee0e602	-0.43925482
54	0x3f092ad4	0.53580976
55	0x3df61169	0.120150395
56	0x3f383667	0.7195801
57	0x3f51e6fe	0.8199309
58	0x3e3c6f35	0.18401797
59	0xbe38651f	-0.18007325
60	0x3e68864e	0.22707483
61	0x3d9cc65c	0.076550215
62	0x3e8b0d22	0.27158457
63	0x3dfe0768	0.124037564

encoder_variable_selection.single_variable_grns.Cases.fc2.bias f4 [8]
0	0xbe30632b	-0.1722533
1	0x3dd9d154	0.10635629
2	0x3e963448	0.29336762
3	0x3e407bb8	0.18797195
4	0x3db3fa2c	0.08787951
5	0xbc11f992	-0.0089096
6	0x3e89af36	0.26891488
7	0x3d61153a	0.054951884
