TFT-pytorch/results/age_subgroup/AGE019/checkpoints/latest-epoch=3.ckpt (torch, 703031 bytes, 506 tensors)

prescalers.AGE019.weight f4 [8, 1]
000000 da b6 f4 3e 80 45 70 bf 97 4c 3c 3d 73 2d 57 3f
       0.47795755 -0.9385605 0.04597148 0.84053725
000010 66 d7 e4 be ff 8c 73 3e c3 a4 97 bf 6c ab 02 3f
       -0.44695586 0.23784254 -1.1847156 0.5104282

prescalers.AGE019.bias f4 [8]
000000 98 f6 19 be 95 1e 23 3f ee fd bd 3d 51 74 1c 3d
       -0.15035474 0.6371854 0.09276949 0.038196865
000010 91 e1 44 bd 9e 28 87 be 0d 2c 87 3c e9 e9 2c 3d
       -0.04806668 -0.26398176 0.016500497 0.04221526

prescalers.SinWeekly.weight f4 [8, 1]
000000 1b e3 f1 3d 61 66 a1 bf 5d 61 6d 3f 21 24 6e bf
       0.11810895 -1.2609369 0.9272669 -0.9302388
000010 d3 8c 22 3f 57 42 ff bd 9d 63 73 3f 25 10 cb 3e
       0.6349613 -0.12463825 0.9507387 0.39660755

prescalers.SinWeekly.bias f4 [8]
000000 89 7d 23 3e 71 cf 5d be c9 e9 4c 3f c1 eb cb 3e
       0.15965857 -0.21661164 0.8004423 0.39828303
000010 35 3c 0d 3f 71 f9 2d bf 49 7f 40 3f 40 93 ba 3e
       0.55169994 -0.6795874 0.7519422 0.36440468

prescalers.VaccinationFull.weight f4 [8, 1]
000000 a0 4b d2 bd 46 90 80 3e d7 17 5c 3f 87 39 3a 3f
       -0.102683306 0.25110072 0.85973877 0.7274403
000010 94 cf a9 be 06 21 24 bf c8 ed 63 bf 4b 87 18 bf
       -0.33166182 -0.6411289 -0.890347 -0.5958144

prescalers.VaccinationFull.bias f4 [8]
000000 85 13 e1 bc 72 72 e6 be 94 6d 0b bf 09 1d 57 3f
       -0.027475128 -0.4500919 -0.5446408 0.8402868
000010 56 24 77 3f f2 9f e2 3e fe 1c 4f bd 2a b3 7f 3e
       0.9653982 0.44262654 -0.05056476 0.2497069

prescalers.Cases.weight f4 [8, 1]
000000 37 c2 28 3f 33 70 8a bf 48 03 5c bf f5 78 36 3f
       0.6592135 -1.081549 -0.85942507 0.71278316
000010 5f 74 ae 3f c0 ca 00 3e f6 20 4e bf 57 61 d1 3e
       1.3629264 0.12577343 -0.80519044 0.40894577

prescalers.Cases.bias f4 [8]
000000 97 10 2b bf bb 76 86 be fd f0 08 3f f2 6f f0 3e
       -0.6682219 -0.2626246 0.5349272 0.46960407
000010 81 2f 1f 3e ce 25 f8 bd c5 7e 9f 3e aa 8f 6a bf
       0.15545465 -0.12116586 0.31151405 -0.91625464

static_variable_selection.single_variable_grns.AGE019.resample_norm.mask f4 [16]
000000 e1 ad 04 be eb 10 9e be e4 d0 20 3e 99 34 20 bd
       -0.12956955 -0.30872282 0.15704685 -0.03911266
000010 bc 34 30 be ef c9 29 be 16 a9 d8 3d 60 98 c8 3e
       -0.17207617 -0.16580938 0.105791256 0.39178753
000020 c2 3d a9 3d b8 ee 62 be 7d c4 99 be 69 8e 02 be
       0.082637325 -0.22161376 -0.3003272 -0.12749638
000030 6e fd cd be 65 21 f6 3e ff b9 62 bd 70 bd 2a 3e
       -0.40232414 0.48072353 -0.05535316 0.16673827

static_variable_selection.single_variable_grns.AGE019.resample_norm.norm.weight f4 [16]
000000 88 62 96 3f bf fe 41 3f 8c a8 ae 3f 87 b9 88 3f
       1.1748819 0.75779337 1.3645186 1.0681618
000010 af 0f 9a 3f ef 4e 92 3f 5f 13 a8 3f bd 9c cf 3f
       1.2036036 1.1430339 1.3130912 1.6219708
000020 b9 1c 96 3f 1f 9c 8b 3f 0e 03 77 3f 71 4d 8b 3f
       1.1727515 1.0907019 0.96489036 1.0883008
000030 8e 17 76 3f 8f 36 c3 3f a0 1d 81 3f 58 d2 be 3f
       0.9612969 1.5251025 1.0087166 1.4907942

static_variable_selection.single_variable_grns.AGE019.resample_norm.norm.bias f4 [16]
000000 88 29 33 3e 93 7e 84 be f4 87 7c 3e 87 68 a9 bd
       0.17496312 -0.25877818 0.24661237 -0.0827189
000010 84 b7 9d 3d ff b7 b2 3d 6d f4 83 bd 1c 76 56 3d
       0.077010185 0.08726501 -0.06443105 0.05235873
000020 2a bc a5 bd c9 64 7d 3d ce 2a 4b 3e 52 b2 14 be
       -0.0809253 0.061863694 0.19840547 -0.14521149
000030 a4 8f bf bd 88 e3 3b 3d 36 56 2a be 50 34 11 3d
       -0.09353569 0.045871288 -0.1663445 0.03545028

static_variable_selection.single_variable_grns.AGE019.fc1.weight f4 [8, 8]
000000 4a 47 26 3f 95 d2 27 bf f1 f8 89 be c3 75 45 be
       0.6495253 -0.655557 -0.2694774 -0.19283204
000010 ce d7 0a bf be 18 aa bf 00 88 3d bd 54 77 ec bd
       -0.5423554 -1.3288801 -0.046272278 -0.115461975
000020 fa 23 32 bf 80 6c 60 bf 3f 4b fb bd ff 95 4d 3f
       -0.69586146 -0.8766556 -0.122702114 0.80307
000030 42 95 cb be d9 13 1c bf 1b c4 f0 3e 08 8a 6b 3d
       -0.39762312 -0.60967785 0.47024617 0.057504684
000040 d5 f2 cf 3e ad 51 69 3e 36 72 ee 3e ec c4 93 be
       0.40614954 0.22785063 0.4657151 -0.28861177
000050 e4 1c 14 3e 22 c9 34 bd 2b 8b c3 3e 29 d9 7e be
       0.14464146 -0.044137128 0.38192114 -0.24887528
000060 a1 44 1c bf a7 25 d8 bc 6b f7 90 bd 8a a8 0c bf
       -0.6104222 -0.026385142 -0.07078441 -0.5494467
000070 04 7e 9a bd 1a 13 c8 3d d6 8d 00 3c 74 57 2a 3f
       -0.07543567 0.09769268 0.007846316 0.6653969
000080 5c 80 bd be ec 55 bc 3e 4f 2f 7d be 2a a5 1c be
       -0.37011993 0.36784303 -0.24725078 -0.1529738
000090 24 c3 bc be f9 3f 8b 3f 3e 66 a5 3e dc 6e 70 be
       -0.3686763 1.0878898 0.32304567 -0.2347979
0000a0 dd 80 9d 3e f0 b6 0a be 88 f5 b5 bd 5a 33 0b 3e
       0.30762377 -0.13546348 -0.08884722 0.13593808
0000b0 1c d5 bd 3e b8 8d cd be 9c 15 14 3b 41 f8 ad bd
       0.37076652 -0.40147185 0.0022595888 -0.08494616
0000c0 e1 d7 d1 be 8b eb e4 be 54 08 0d 3e a0 87 fe 3e
       -0.40985015 -0.44710955 0.13772708 0.4971285
0000d0 4c ee 6b 3d 3c 9e 66 3f 5f 29 dd 3d 22 f4 65 be
       0.057600304 0.90085196 0.107989065 -0.2245641
0000e0 d2 1e 3f bf e6 6f 00 bf 7e 03 59 be 1b 73 b0 3e
       -0.74656403 -0.50170743 -0.21192738 0.34462819
0000f0 25 17 c8 3d ae 3a 0d bf b6 75 c2 3e db e6 60 3d
       0.097700395 -0.55167663 0.3798043 0.05490766

static_variable_selection.single_variable_grns.AGE019.fc1.bias f4 [8]
000000 f9 75 7c bc ab 8c 99 3d 34 54 3c be 67 f3 c8 3c
       -0.015408986 0.074975334 -0.18391496 0.024530126
000010 e6 98 1c bd 90 08 60 3d 41 c9 ce 3e 37 e9 f7 3c
       -0.038231753 0.054695666 0.4038792 0.030262573

static_variable_selection.single_variable_grns.AGE019.fc2.weight f4 [8, 8]
000000 aa 06 2c 3e bf be 1a 3f 7c 54 b3 3e 3b 83 67 bd
       0.16799417 0.60447305 0.35025394 -0.056521636
000010 fe 26 d3 3e 41 79 f0 bd 40 16 bc 3e 81 aa ca 3e
       0.41240686 -0.11741877 0.36735725 0.3958321
000020 7d 18 bf be 48 71 db be 7f 54 aa 3e 48 58 e8 3d
       -0.3732337 -0.42859864 0.3326759 0.11344963
000030 be ef 88 bc 39 ed 10 3d 1d 64 29 3d f4 be cc 3e
       -0.01671588 0.035382483 0.04135524 0.39989436
000040 4c d3 7f 3d cb 74 d9 3e 61 41 70 bd 0c b8 f9 be
       0.062457368 0.42471918 -0.0586561 -0.4877323
000050 b1 82 29 3e 30 c9 6f be c4 ea 04 be e3 a9 31 3e
       0.16553761 -0.2341659 -0.12980181 0.17349963
000060 77 fd 29 3f a0 22 aa be 39 0e a8 3e dd d9 96 bd
       0.6640238 -0.33229542 0.3282335 -0.07365773
000070 9a 5d 07 be 21 69 ad be 78 18 1c 3f 2f 58 9b be
       -0.132193 -0.3386927 0.60974836 -0.30340716
000080 03 b0 b6 3e 71 c6 60 be 7b 25 33 3e f1 fb 03 3e
       0.3568116 -0.219507 0.17494766 0.12889077
000090 69 df c5 3d 83 ac 62 3d f2 42 e0 3e 30 2e e8 3e
       0.09661753 0.0553403 0.43801075 0.45347738
0000a0 83 f9 b1 bd b8 e9 2d be cf 6a 10 bf b6 05 3d bb
       -0.08690169 -0.16983688 -0.56412977 -0.0028842515
0000b0 64 37 cf 3e 22 46 46 be e8 f2 e5 be cf 2c b3 3e
       0.40471947 -0.19362691 -0.44911885 0.34995124
0000c0 9a 9d 1e bf 4a 59 a7 bd 99 ca cb 3e 9c 87 d4 3d
       -0.6195923 -0.081713274 0.39803007 0.10377428
0000d0 90 c9 a2 3e b6 14 8e 3d 5b 88 3d bf eb a4 54 be
       0.31794405 0.06937544 -0.74036187 -0.20766036
0000e0 44 2f 7b 3e fa 2d 6a 3e 64 72 08 bf e9 bd ed bd
       0.24529749 0.22869101 -0.53299546 -0.11608488
0000f0 be a0 26 bd 80 c4 af 3d 1f 0b 22 bc df c0 e5 be
       -0.04068064 0.08582401 -0.009890347 -0.4487371

static_variable_selection.single_variable_grns.AGE019.fc2.bias f4 [8]
000000 b6 fd 90 bc 74 fa 35 bc 0e 33 ed bd c7 67 be 3c
       -0.017699104 -0.011107076 -0.115820035 0.023242844
000010 6a 8d cd bc e5 10 cd bd 53 df c0 3d e3 19 2d 3d
       -0.025091846 -0.10012988 0.09417596 0.042261016

static_variable_selection.single_variable_grns.AGE019.gate_norm.glu.fc.weight f4 [32, 8]
000000 16 d4 7e be 6b aa 86 3d 37 96 ad be e4 3a 4e be
       -0.24885592 0.065754734 -0.33903667 -0.20139652
000010 a3 7f ac 3e 18 9b 00 bf 25 b9 a6 be 1f 16 24 3e
       0.3369113 -0.50236654 -0.3256313 0.16024064
000020 73 0c 83 3e 96 7e cc 3e e2 8b b5 3d ea f3 71 3d
       0.25595436 0.39940327 0.08864571 0.059070505
000030 0d 54 ae be 97 70 37 3e 89 66 68 be 66 9a 25 bd
       -0.340485 0.17914043 -0.22695364 -0.04043045
000040 ad 60 9b 3e 5a 17 d7 3e 9b e0 8e 3d 96 c6 9a be
       0.30347195 0.42010003 0.06976434 -0.30229634
000050 00 05 18 3d 5c 3f 52 be bd 5d 98 3e 05 51 20 3e
       0.037114143 -0.20531982 0.29759017 0.15655906
000060 06 94 16 bf 22 f4 80 3e 03 71 de bd 95 53 d9 bd
       -0.58819616 0.2518626 -0.10861399 -0.10611645
000070 73 28 8b 3e da 88 9c bc 42 96 08 be b7 5e a8 be
       0.27179298 -0.019108225 -0.13338569 -0.32884762
000080 e1 ae 8b bd 07 43 aa be 16 74 a3 3e ac a9 80 be
       -0.06820465 -0.33254263 0.31924504 -0.2512945
000090 aa c0 09 3e 00 8c aa 3c a6 c3 17 bf 8e c8 fe 3e
       0.13452402 0.02081871 -0.5928291 0.49762386
0000a0 dd 04 ea 3d 2a 19 be 3b 6a 47 13 bf e2 8d c7 bc
       0.11426709 0.0058013396 -0.57530844 -0.024359647
0000b0 e0 76 b9 be 32 ba 94 be f3 b9 a1 bc 18 72 76 3e
       -0.36223507 -0.29048306 -0.019741988 0.24066961
0000c0 75 44 b3 be b7 a9 18 be 1e e5 7e be c0 32 bb 3d
       -0.35013166 -0.14908491 -0.24892089 0.09140539
0000d0 19 5b e3 bc 38 04 02 bf 5f a2 38 be 21 f3 85 3e
       -0.0277534 -0.5078769 -0.1803069 0.26162055
0000e0 f1 9e 16 3d 17 f8 a3 bd 5c a5 5a be 10 ec 5d 3e
       0.036772672 -0.08006304 -0.21352142 0.21672082
0000f0 88 5c 48 bd fc af eb 3d ec a9 84 bd 3c 12 93 3e
       -0.04891637 0.11508176 -0.064777225 0.2872485
000100 68 20 b6 bd b6 50 46 be 35 89 49 3d 61 d5 a4 3e
       -0.088929 -0.19366726 0.049203116 0.32194045
000110 ef 5a d3 3e 56 54 8e bd 78 fd f3 3e c7 60 81 3e
       0.41280314 -0.069496796 0.4765432 0.25269148
000120 f9 89 17 3f c2 49 03 be 3a bd ce 3d 82 40 d1 3e
       0.59194905 -0.12821105 0.10094686 0.40869528
000130 d5 c0 87 3c fc 95 a2 bc e5 f7 b1 3d cb a6 c7 bd
       0.016571442 -0.019846909 0.0868986 -0.0974861
000140 bb c0 81 3e a6 b8 cf 3d 5d 60 eb 3e 2f 5a b5 be
       0.25342354 0.10142641 0.45971957 -0.35420367
000150 22 3f a0 be 22 fb a8 be 2e 1e 89 3e 98 a0 24 3d
       -0.31298167 -0.330041 0.26780838 0.040192217
000160 4f 69 3b be dd 1c 7a 3b 1b d9 e5 3d ba 9d a1 be
       -0.18301891 0.0038164177 0.1122305 -0.31565648
000170 d1 dc 92 3e 43 91 7e be df ba ae bd a9 32 06 3f
       0.28684095 -0.248601 -0.085317366 0.5242105
000180 52 13 01 3e ea 82 18 3e e0 2f 8a 3e c0 8b 87 3d
       0.12605026 0.1489369 0.2698965 0.06618452
000190 80 44 cc 3d b9 5a a1 3e f7 39 13 3f 02 2d fc 3d
       0.09974003 0.31514528 0.5751032 0.12313272
0001a0 74 d7 16 be e9 c8 a6 3d 6c fc 93 3d 56 cd 6b 3e
       -0.14730626 0.08143789 0.0722588 0.23027548
0001b0 c0 5f 56 3d a7 a1 55 be 6e cb 95 3e a8 e9 22 be
       0.052337408 -0.20862447 0.29256767 -0.15909445
0001c0 be 17 05 3d 6f 0b 86 3e 46 83 eb bd 11 21 a6 3e
       0.032493345 0.26180598 -0.11499648 0.32447103
0001d0 1f cc eb bd b0 56 96 3c 25 6d bd 3e 46 f4 7f 3e
       -0.115135424 0.018351883 0.36997333 0.24995527
0001e0 8a 9e df be 25 85 2e bd 2b 70 1b 3c 41 f1 3f 3e
       -0.43675643 -0.042607445 0.009487192 0.18744375
0001f0 09 74 21 3c 05 a4 09 3f 55 ce 4d bd 9e 97 60 3e
       0.009854325 0.537659 -0.0502456 0.21932837
000200 26 d4 1f bf dd fe 96 bf 6a 77 49 be b4 cd ba 3d
       -0.6243309 -1.1796528 -0.19674459 0.09121266
000210 8a d5 b3 3e ab e4 d2 be 55 63 34 bf b2 4a 90 3e
       0.35123855 -0.41190085 -0.7046407 0.28181988
000220 be f0 87 3e eb d3 b4 bf 7c dd 7b bf 29 87 4c 3c
       0.2655086 -1.4127172 -0.98384833 0.012483397
000230 e8 3a bc 3e 95 37 ce 3e dc 8e 1a bf d5 8a 3d be
       0.36763692 0.4027678 -0.60374236 -0.18509991
000240 09 5b a4 3e 06 56 b1 be 44 d3 bf 3e d0 a5 bc be
       0.32100704 -0.34635943 0.3746587 -0.36845255
000250 6d 80 15 bf 33 1e ba bd fc 0e 9e be 8c 5a 43 3f
       -0.5839909 -0.09087791 -0.30870807 0.7631004
000260 32 b0 bd bd ac 6c 80 be b2 d8 ed be 9a 5d 0d 3e
       -0.09262122 -0.2508291 -0.46454388 0.13805237
000270 ea 29 42 be 1a d5 13 3e dc e6 2e bf be 61 bf 3d
       -0.18961301 0.1443676 -0.68321013 0.09344815
000280 ef b7 df 3e a1 3a 12 bf 16 52 9a be 1a f3 78 3e
       0.43695018 -0.5712071 -0.30140752 0.24311486
000290 27 a3 89 bd a0 ff 47 be 80 21 19 bf 4a d7 20 3e
       -0.06720572 -0.19531107 -0.5981674 0.15707126
0002a0 a7 80 64 3e d3 3c 09 bf da 51 a8 3e 52 05 18 bd
       0.22314702 -0.53608435 0.32874948 -0.03711445
0002b0 5c ab c3 3e 63 ad ce 3d 7a d2 e5 be 49 87 ef 3e
       0.38216674 0.10091665 -0.44887143 0.46782902
0002c0 87 4e 73 3e 53 53 6b 3e dc 29 a3 be c5 b5 38 3d
       0.23760425 0.22981004 -0.31867874 0.045095224
0002d0 07 3e 21 be bc d5 bf be f8 f6 7e b9 f1 d7 30 be
       -0.15746318 -0.37467754 -0.0002431533 -0.17269875
0002e0 bb 64 f1 be a8 be 6f be 45 12 a8 be ef ad 49 3e
       -0.47147164 -0.23412573 -0.3282644 0.19695257
0002f0 f4 5c 62 3e 53 98 7b 3d 6f fe 1c bf 86 77 2c be
       0.22105771 0.061424565 -0.61325735 -0.1684247
000300 cf b8 46 3b aa 69 fc be f3 d8 c4 be 0f 81 7f 3e
       0.0030322557 -0.49299365 -0.3844677 0.24951576
000310 58 86 43 3e e2 2b 99 3e 45 f9 11 bf 64 15 21 3f
       0.19094217 0.29916292 -0.5702098 0.62923265
000320 ca d5 76 be 35 12 02 bf 0c 69 27 3d b9 51 9f bc
       -0.24104992 -0.5080903 0.040871665 -0.019448148
000330 3d 26 83 3e 73 1b 13 bf 79 f9 d3 be 31 84 fb 3e
       0.2561511 -0.5746376 -0.4140127 0.49124292
000340 1f 37 23 3f 11 b4 e7 be 88 7f 21 3f 21 77 39 be
       0.63755983 -0.45254567 0.6308522 -0.1811185
000350 df 54 e3 be fb b5 a6 bd 88 f7 ff 3d 75 61 fe be
       -0.4440069 -0.08140179 0.12498385 -0.4968373
000360 6a 4c 05 bf 1f eb 8c be b9 65 82 bd 99 d0 1e 3f
       -0.52069724 -0.27523133 -0.06367058 0.62037045
000370 48 c7 8a 3e e3 7b b2 3e 34 3a 87 be fa da d3 be
       0.27105165 0.34860143 -0.26411593 -0.41378003
000380 ae 8d ee be e6 60 cc be 3d dc ef bd 70 44 50 3c
       -0.46592468 -0.39917678 -0.11711929 0.012711629
000390 8b 2c 02 3f 85 5e 9a 3d 9f 38 3c bf ca 21 18 3f
       0.5084922 0.075375594 -0.73523897 0.5942656
0003a0 c4 a9 b4 be 71 03 c3 be 7c 35 52 bf 91 bd 90 3d
       -0.3528577 -0.38088563 -0.8211286 0.07067407
0003b0 3b ba 13 3e 4e 5d 1f 3e 87 92 90 3c 14 dd c4 be
       0.1442651 0.15562937 0.017647995 -0.3844992
0003c0 01 ac 23 3f 7c fa eb be 94 98 25 be b8 98 a1 be
       0.6393433 -0.46089542 -0.16171485 -0.31561828
0003d0 9a 24 3c 3e 41 71 2c bf b2 66 c8 3d cc b9 e3 3e
       0.18373337 -0.6736031 0.097852126 0.4447769
0003e0 65 b2 ae 3d b3 6e ad be e4 43 94 be 05 29 9b bd
       0.0853012 -0.3387352 -0.28958046 -0.07576183
0003f0 9d 1a bc 3e 91 bb 93 be 97 89 92 be ae 80 61 3e
       0.36739054 -0.2885404 -0.28620598 0.22021744

static_variable_selection.single_variable_grns.AGE019.gate_norm.glu.fc.bias f4 [32]
000000 f2 48 18 3e 99 fd 2b be 6d 50 51 3e bf e3 f0 bd
       0.14871576 -0.16795959 0.20440836 -0.11762189
000010 7e 0f 84 3e 76 09 e9 3d cd e5 9f bb 95 b1 bf 3d
       0.2579307 0.11378758 -0.0048796893 0.09360043
000020 36 5b d2 bd 04 ea 80 bc 9b 89 36 3e ac b4 0f bd
       -0.10271303 -0.015736587 0.1782593 -0.03508441
000030 91 28 5f be fa 1a f3 ba 2f 78 5d bd 7f 1b 98 3d
       -0.21792819 -0.0018547468 -0.054069694 0.074271195
000040 b3 34 23 bf 2d f9 99 bf 27 7e a5 be dc 22 16 bf
       -0.6375229 -1.2029167 -0.3232281 -0.5864694
000050 4c bc 11 bf 3b 76 0a bf eb df 77 be d5 cd 49 bf
       -0.56927943 -0.54086655 -0.24206512 -0.788297
000060 18 40 f1 be bb e8 08 bf 6d 51 0c be 09 ff f9 be
       -0.47119212 -0.5348012 -0.13702936 -0.4882739
000070 9d ad 1c bf 2c 95 15 bf 45 84 21 bf c3 da fc be
       -0.6120241 -0.58430743 -0.6309245 -0.49385652

static_variable_selection.single_variable_grns.AGE019.gate_norm.add_norm.norm.weight f4 [16]
000000 0e 2e 63 3f 3e 50 db 3e 6b c6 b2 3f 94 e2 88 3f
       0.8874215 0.42834657 1.3966802 1.0694146
000010 65 67 9b 3f 81 70 78 3f f8 0f 9b 3f 96 d3 aa 3f
       1.2140929 0.9704667 1.2114248 1.3345821
000020 fe b1 61 3f ce de 4d 3f 18 38 2a 3f 11 b8 7d 3f
       0.8816222 0.804181 0.6649184 0.9910899
000030 5c 13 37 3f c5 fe a9 3f 7e 8b 09 3f 42 fb 71 3f
       0.71513915 1.3280874 0.53728473 0.94524014

static_variable_selection.single_variable_grns.AGE019.gate_norm.add_norm.norm.bias f4 [16]
000000 30 2b 78 3e 32 09 70 bd ef f9 b3 3e 9c cf 8c 3d
       0.24235225 -0.05860252 0.35151622 0.06875536
000010 80 98 78 3e 8f 61 60 3e 3f 2d 5a ba 0e 8b 7a 3d
       0.24276924 0.21912216 -0.0008322782 0.06116777
000020 5a 75 0c bc 8d 34 1c 3e d9 ba 6c 3e 73 20 55 be
       -0.008572901 0.15254422 0.23118152 -0.2081316
000030 95 ff 89 3b 4a 78 de 3d 9c ba 67 bd f2 fe 0c 3e
       0.004211376 0.10862787 -0.05657445 0.13769129

static_variable_selection.prescalers.AGE019.weight f4 [8, 1]
000000 da b6 f4 3e 80 45 70 bf 97 4c 3c 3d 73 2d 57 3f
       0.47795755 -0.9385605 0.04597148 0.84053725
000010 66 d7 e4 be ff 8c 73 3e c3 a4 97 bf 6c ab 02 3f
       -0.44695586 0.23784254 -1.1847156 0.5104282

static_variable_selection.prescalers.AGE019.bias f4 [8]
000000 98 f6 19 be 95 1e 23 3f ee fd bd 3d 51 74 1c 3d
       -0.15035474 0.6371854 0.09276949 0.038196865
000010 91 e1 44 bd 9e 28 87 be 0d 2c 87 3c e9 e9 2c 3d
       -0.04806668 -0.26398176 0.016500497 0.04221526

encoder_variable_selection.flattened_grn.resample_norm.mask f4 [3]
000000 1a a5 2a bf 49 d5 50 bd 79 f8 c2 3e
       -0.66658175 -0.050984655 0.38080195

encoder_variable_selection.flattened_grn.resample_norm.norm.weight f4 [3]
000000 15 a4 d8 3e b3 8b aa 3f 9b 30 eb 3f
       0.42312685 1.3323883 1.8374208

encoder_variable_selection.flattened_grn.resample_norm.norm.bias f4 [3]
000000 89 84 d0 3e 0d b6 75 bd d3 e5 d5 be
       0.40726116 -0.05998807 -0.41776904

encoder_variable_selection.flattened_grn.fc1.weight f4 [3, 24]
000000 7c 4e 44 3e 1f 21 32 3e 81 df 26 bd e8 0b a7 3e
       0.19170564 0.17395447 -0.040740494 0.3262627
000010 d0 4c 19 be df 2f 1b 3e 08 b4 b1 be 60 5c c6 be
       -0.14970708 0.1515498 -0.34707665 -0.38742352
000020 7f a7 c5 be 3e 32 bc 3d 74 ab c1 bd 49 ed a0 bf
       -0.38604352 0.091892704 -0.0945653 -1.2572414
000030 a5 32 07 bd f3 7c ea 3d 36 22 3e 3e 51 27 21 3e
       -0.033007283 0.114496134 0.18567738 0.15737654
000040 bc 98 0a 3f 45 1e 3a bf e9 6a 92 3e 50 73 bb 3a
       0.54139304 -0.7270244 0.2859719 0.0014301334
000050 3a 87 e9 3d 34 04 96 be 88 22 e7 3d db c0 89 3e
       0.114027455 -0.29300082 0.11285883 0.2690495
000060 44 18 47 3e bc 35 ac 3d bc 3b 82 be 87 18 07 bf
       0.1944285 0.084086865 -0.254362 -0.527718
000070 03 a4 57 3e 9e 95 b0 3c ce b7 48 3e 9c f1 33 3f
       0.2105866 0.021555718 0.19601366 0.7029054
000080 de 69 9b be 7c 57 60 3d 11 11 58 bf 81 99 f9 be
       -0.30354208 0.05477093 -0.8440104 -0.48749927
000090 bf 3f d4 3d 9c 26 65 3e 07 61 bb 3e c1 57 06 3f
       0.10363721 0.2237801 0.36597463 0.5247765
0000a0 dd 88 1e bd 8e cc cf 3d 27 13 c2 be 4d b5 50 be
       -0.03870474 0.101464376 -0.37905237 -0.20381661
0000b0 94 d6 f9 bd 82 93 14 3e 13 a1 d1 3d da 6b 5a 3c
       -0.12199131 0.14509395 0.102358006 0.013331378
0000c0 d2 6e 6f be db f1 ec 3d 37 cf 3f bf 87 c7 e3 3e
       -0.23382118 0.11569568 -0.7492556 0.44488165
0000d0 1e 74 99 be b9 22 22 3f a7 8b 23 bf fc 31 32 be
       -0.29971403 0.6333423 -0.6388497 -0.1740188
0000e0 91 65 27 3e 33 c6 32 3d c6 22 1f 3e 8e 3d 99 3e
       0.16347338 0.04364605 0.15540609 0.29929775
0000f0 4b 1a d5 3d 41 fd 1f bd b8 68 82 3e e1 c2 5a 3e
       0.104054056 -0.03905988 0.2547052 0.21363403
000100 5e 66 55 bd 42 f6 ff 3e b3 33 29 3e f7 67 38 be
       -0.052099578 0.49992567 0.16523628 -0.1800841
000110 29 5c bd be 5c aa 20 bf 2b 01 82 be 8e dc 24 be
       -0.36984375 -0.6275995 -0.25391516 -0.1609976

encoder_variable_selection.flattened_grn.fc1.bias f4 [3]
000000 fb d6 fb bd 03 33 92 bd 84 f7 36 be
       -0.12296864 -0.07138636 -0.17867857

encoder_variable_selection.flattened_grn.context.weight f4 [3, 16]
000000 88 cd 8f be c9 e1 b3 bd 51 e0 16 bd a6 3e c6 be
       -0.28086495 -0.087832995 -0.03683502 -0.38719672
000010 3b 9d bd 3e ed 70 52 be ad ca 1c bd 5c 8e b9 3e
       0.3703402 -0.2055089 -0.038279224 0.36241424
000020 43 83 e5 3d 51 84 21 3e 23 9a ce bd fe 44 18 bd
       0.11206677 0.15773131 -0.10087993 -0.03717517
000030 e3 7b 56 3e 4a 15 18 3f ad e1 58 bd cf 3f 93 bd
       0.20945697 0.59407485 -0.052949596 -0.07189905
000040 47 33 81 3e 16 9c 47 be 6e 2f 6b bc 62 d3 5f bf
       0.25234434 -0.19493136 -0.01435457 -0.8743192
000050 80 5d 1f 3e cd bb 12 3f 23 b2 5e bd ac d7 ae 3e
       0.15563011 0.5731781 -0.054369103 0.3414892
000060 9e 3f d7 3d 47 0f 2e bd 96 5d 35 be d1 df 04 bd
       0.10510181 -0.04249504 -0.17711481 -0.03244001
000070 9f b4 cc 3e c4 83 0b 3f ea a7 ca bd c8 a0 46 be
       0.39981553 0.54497933 -0.09895308 -0.1939727
000080 b5 27 8e 3e fd 62 ec bc 5e a2 b6 3e e8 b8 07 bf
       0.2776467 -0.028855795 0.3567075 -0.5301652
000090 0f 30 4a be ab d0 20 3f 06 b0 b2 3d 8d 1b cc 3e
       -0.19744895 0.628184 0.0872498 0.3986477
0000a0 4c 8b 87 be 87 68 bf 3e a2 2d 18 3e 16 77 3b 3e
       -0.26473463 0.37384436 0.14861158 0.18307146
0000b0 a2 cb 41 3e 11 13 9a 3e 80 cb 86 be cc 3f 23 3f
       0.18925336 0.30092672 -0.26327133 0.6376922

encoder_variable_selection.flattened_grn.fc2.weight f4 [3, 3]
000000 02 69 22 bf 88 33 44 bf d8 f4 e9 bd c6 5d 10 be
       -0.6344148 -0.7664113 -0.11423653 -0.14098272
000010 6c d6 55 bf 22 3d b5 bd b0 6b 95 be 8a 12 7c bf
       -0.83530307 -0.08849551 -0.29183722 -0.9846579
000020 1b d0 2f bf
       -0.6867692

encoder_variable_selection.flattened_grn.fc2.bias f4 [3]
000000 f8 8e 01 be 5d f1 39 bd d6 5d a6 3d
       -0.12652194 -0.045396198 0.081233665

encoder_variable_selection.flattened_grn.gate_norm.glu.fc.weight f4 [6, 3]
000000 0e 9e bf 3d cd eb 87 ba 03 eb 2d 3f ee 05 be be
       0.093563184 -0.0010369957 0.67936724 -0.371139
000010 9b fa 1c be 8a fb ad 3e 22 3e 2d 3e a9 f6 d8 be
       -0.15329973 0.33980972 0.16918233 -0.42375687
000020 45 3f 45 bc 20 e8 ee 3d 1d 8d 2d bf 07 b3 6f 3f
       -0.01203901 0.11665368 -0.67793447 0.9363255
000030 c2 47 32 3f 76 fb a7 be b6 94 be bd 9b 09 28 3f
       0.69640744 -0.32809037 -0.09305708 0.65639657
000040 ff 39 37 3e 93 ef c9 3e
       0.17893218 0.39440593

encoder_variable_selection.flattened_grn.gate_norm.glu.fc.bias f4 [6]
000000 74 d3 83 3e 08 00 e8 3d 85 ae 00 bf d7 c9 ea be
       0.25747263 0.11328131 -0.50266296 -0.45857117
000010 b9 e9 c5 be 56 d0 8a 3e
       -0.3865488 0.27112073

encoder_variable_selection.flattened_grn.gate_norm.add_norm.norm.weight f4 [3]
000000 c5 c1 79 bd 00 bb 9f 3e 26 2e 9c 3e
       -0.06097581 0.31197357 0.30503958

encoder_variable_selection.flattened_grn.gate_norm.add_norm.norm.bias f4 [3]
000000 4e 7d fe 3d b4 a9 0a bf 83 64 21 3f
       0.12426244 -0.54165196 0.63043994

encoder_variable_selection.single_variable_grns.SinWeekly.resample_norm.mask f4 [16]
000000 36 61 a2 3e 49 73 19 3e 50 7e 0d 3e f3 b7 54 be
       0.3171479 0.14985384 0.13817716 -0.20773296
000010 3e 9e 4f 3e d9 8a 7d be b8 5f 86 3e 07 bc 8c bf
       0.20275208 -0.24759997 0.26244903 -1.0994881
000020 b4 4a ad be 49 47 15 be 56 8f 94 be 95 15 c6 be
       -0.33846056 -0.14577974 -0.29015607 -0.3868834
000030 d8 59 83 be f7 f8 30 be 08 6b fb 3e 5b fc ce 3d
       -0.25654483 -0.17282473 0.49105096 0.10106727

encoder_variable_selection.single_variable_grns.SinWeekly.resample_norm.norm.weight f4 [16]
000000 2c ea 0e 3f 66 e7 50 3f fe b3 e1 3f 15 3f 7d 3f
       0.5582607 0.81603086 1.7633054 0.9892438
000010 7b 3f 9a 3f 7b 07 55 3f 29 eb bb 3f f2 8a 12 3e
       1.2050623 0.8321454 1.468114 0.14310816
000020 96 89 1e 3f 40 fe 5d 3f 0b f0 81 3f 19 7d 81 3f
       0.6192869 0.8671608 1.015138 1.0116302
000030 36 ed 71 3f 41 b4 43 3f 3d da e0 3f 3e 76 19 3f
       0.9450258 0.7644692 1.7566601 0.5994605

encoder_variable_selection.single_variable_grns.SinWeekly.resample_norm.norm.bias f4 [16]
000000 3a be 4d 3e 56 e0 f2 3d 33 39 92 be 4c d2 f6 3d
       0.20092097 0.11859195 -0.28559265 0.1205183
000010 58 34 b0 3d 80 e1 2a be 56 65 4d be b0 65 5b be
       0.08603734 -0.16687584 -0.20058188 -0.2142551
000020 be 8e 04 be 7f 48 85 bd aa c8 dd bc b2 69 90 3e
       -0.12945077 -0.06507968 -0.027073223 0.2820564
000030 95 63 1c 3e d8 58 24 bd a9 a9 6c 3d c9 b4 12 3e
       0.15272363 -0.04012379 0.057778988 0.14326777

encoder_variable_selection.single_variable_grns.SinWeekly.fc1.weight f4 [8, 8]
000000 5f 86 62 3f cf f2 d9 bf 2a 5b 3a bf db ca 0e c0
       0.88486284 -1.7027224 -0.72795355 -2.2311313
000010 24 71 89 be 55 04 3d 3d ce dc c2 3e a9 cf 05 3f
       -0.26844132 0.04614671 0.38059086 0.5226999
000020 7c d3 6b 3b 53 ee 8e 3e 17 dd 19 be 97 88 3d be
       0.0035984209 0.27916202 -0.15025745 -0.18509136
000030 9e dc 16 be e1 24 51 3f db 4e d1 be c6 ca 8a be
       -0.14732596 0.816969 -0.40880474 -0.2710783
000040 85 86 0b be dc 4d 7a 3c 59 21 9d be db cb 99 3e
       -0.13625534 0.015277352 -0.30689505 0.30038342
000050 06 e7 3c bf a9 cf d1 3e ef 0c 81 3f e2 c7 cc 3e
       -0.73790014 0.40978745 1.0082072 0.39996248
000060 24 0a 3e 3e b9 0d 00 3e b9 45 c4 be c8 49 28 3e
       0.18558556 0.12505235 -0.38334444 0.16434395
000070 e2 1d 96 3e 03 a7 4f 3e 12 d9 91 3e 84 17 1a 3f
       0.29319674 0.20278554 0.28485924 0.6019213
000080 1c d1 66 bf 2f 4c 77 3e e2 76 6c 3f 54 56 a8 3e
       -0.90162826 0.24150155 0.923689 0.32878363
000090 33 1a 40 bd fc 07 2f 3f 35 f4 cb 3e cd 7e 98 bf
       -0.046899986 0.6837156 0.39834753 -1.1913697
0000a0 32 c7 38 3e 7a 23 6f bd de b7 c6 bf c1 e8 58 3e
       0.18044737 -0.058383442 -1.5524862 0.21182539
0000b0 8a 68 2d bf 78 b3 13 3d 1d 9e 86 bf 08 fa 3b bf
       -0.6773764 0.036059827 -1.0517002 -0.7342839
0000c0 2b 4f b0 bf e4 43 eb bd d5 d7 d5 bf c7 32 fe 3e
       -1.377416 -0.114875585 -1.6706492 0.49648115
0000d0 e1 50 43 bf 49 2f a1 3e cf ab 84 bf 7e 5f 46 bf
       -0.76295286 0.31481388 -1.0364932 -0.7748946
0000e0 7a 3a b5 3e 41 ca ca b9 7a 0c 29 bf d3 21 6f 3e
       0.35396177 -0.00038679133 -0.6603466 0.23352747
0000f0 81 06 63 3f 64 9f f7 3e d1 e4 cf bd 43 61 da 3e
       0.886818 0.48363793 -0.10151065 0.4265233

encoder_variable_selection.single_variable_grns.SinWeekly.fc1.bias f4 [8]
000000 5b ec a5 be eb 3f bd 3c cd 54 54 3c a4 35 22 be
       -0.32406887 0.023101768 0.012959671 -0.15840775
000010 17 ce 0c 3e e0 fb 65 be 52 ed 96 be a2 05 01 bd
       0.13750492 -0.22459364 -0.29477936 -0.031499512

encoder_variable_selection.single_variable_grns.SinWeekly.fc2.weight f4 [8, 8]
000000 e9 ad 4b bf 04 4c 7a 3e 2e b7 80 be 2b fa 23 be
       -0.7956224 0.2444306 -0.25139755 -0.160134
000010 c3 0d a3 be 47 4d 89 3e 5c 06 37 3f 0d f4 de bd
       -0.31846437 0.2681677 0.7149408 -0.10886393
000020 65 24 39 bf d7 7a 26 bf 62 9e 5b 3e 51 6c 05 3c
       -0.7232116 -0.6503119 0.21447137 0.0081435
000030 90 9e a0 bd 30 36 43 be 77 96 bf bc c8 a0 63 3e
       -0.078427434 -0.1906364 -0.023387177 0.22229302
000040 cd d7 52 3f fe 17 e1 bd 1f 95 03 3e 4b 5d 90 bd
       0.82360536 -0.10990904 0.12849854 -0.07049044
000050 4e 72 75 3e 5f 30 1a 3e ee fb 61 3f e9 12 ce 3e
       0.23969385 0.15057515 0.8827504 0.40248802
000060 13 32 67 be 74 94 17 3f 27 54 0c 3b 5e f0 e6 3c
       -0.22577696 0.59210896 0.0021412463 0.028190788
000070 23 61 69 be 24 b5 71 bf 8d fb 48 be f3 d3 7b be
       -0.22790961 -0.94417024 -0.19627209 -0.24592571
000080 f7 20 0e bf da 3b 72 3f 3b e5 3f bb 7a 20 b4 3d
       -0.5551905 0.94622576 -0.002928092 0.08795257
000090 66 a5 88 3e 63 eb ed 3e 1a f5 a3 3d 9e 40 5d be
       0.2668869 0.46468648 0.08005734 -0.21606681
0000a0 a5 d4 3f 3f d2 40 9c bd b0 d4 9f ba 31 7e ca bd
       0.74933845 -0.07629551 -0.0012194123 -0.0988735
0000b0 bd d8 aa be 85 5c 29 3f 2e f8 cd 3d 52 a7 d4 3d
       -0.33368483 0.661568 0.10057102 0.10383476
0000c0 07 43 03 bf cc 1b a9 bd a1 2b 92 bc 05 d8 2b be
       -0.5127415 -0.08257255 -0.01784307 -0.16781624
0000d0 88 8a 5e 3d d9 fd 2a bf dd 19 3c be 2f 25 61 3e
       0.054331332 -0.6679359 -0.18369241 0.2198684
0000e0 92 fe 54 3f d3 91 ca 3d 6c 17 b3 3d 97 c1 09 3e
       0.83200943 0.09891095 0.08744702 0.13452755
0000f0 6f c1 5e 3e 65 00 b7 bb 04 de 81 3f 89 74 42 be
       0.21753477 -0.005584764 1.0145879 -0.18989767

encoder_variable_selection.single_variable_grns.SinWeekly.fc2.bias f4 [8]
000000 e3 0c 04 be fb 9c e7 be 4c f2 ca 3d 76 d0 b6 3d
       -0.12895541 -0.45236954 0.09909496 0.089264795
000010 46 43 a2 bd bf 09 d8 3c 00 02 6f be 90 f6 d8 3d
       -0.07922988 0.026371835 -0.23340607 0.10593903

encoder_variable_selection.single_variable_grns.SinWeekly.gate_norm.glu.fc.weight f4 [32, 8]
000000 3f 20 87 3e cc 07 e3 3d e7 e2 7a 3e 74 0d 23 3e
       0.2639179 0.110854715 0.24500619 0.159231
000010 cb 2a 93 3a 6c 51 9c ba 75 7b 5b be 27 20 86 3e
       0.0011227963 -0.0011926121 -0.21433814 0.26196405
000020 5f ca 35 be 6d 23 79 3e 11 b4 38 be f8 0b 9e 3e
       -0.1775298 0.2432992 -0.1803744 0.30868506
000030 e7 5b 99 bd 32 ed b6 be c1 65 4e 3f f7 9c 48 be
       -0.07488232 -0.3572784 0.80624014 -0.19591127
000040 b9 cd 61 3f 37 da c0 3d d9 d4 a5 3d 87 78 6e bf
       0.8820453 0.09416621 0.08097238 -0.9315266
000050 0b 13 81 3f bf 62 74 3e 16 1f 7b bf 7d d0 10 3f
       1.0083936 0.23865794 -0.9809431 0.5656813
000060 27 5a 3e 3e 7a 10 ba bc c2 ce 3a be 63 b3 05 bf
       0.18589078 -0.022712935 -0.18242934 -0.5222685
000070 6b 73 40 3e 06 d6 c6 bc f9 ed ea be 49 40 8a 3e
       0.18794028 -0.024271976 -0.45884684 0.2700217
000080 fc 98 20 3d 20 29 bb 3d e6 ad 2a 3e a7 40 28 3e
       0.039208397 0.09138703 0.166679 0.16430913
000090 09 7d c6 3d 07 a9 de bd 21 cd 10 3e 83 74 99 3d
       0.09691817 -0.10872083 0.1414075 0.07492926
0000a0 30 14 5f 3d 94 77 91 be 33 c6 7d 3b ac ae 5b 3e
       0.05446261 -0.28411543 0.0038722872 0.21453351
0000b0 93 6d 46 be 9f c7 19 bd 73 14 0d 3e ae ee 92 3e
       -0.19377737 -0.03754389 0.13777332 0.28697723
0000c0 8d 9b ca 3d 01 8b 4a 3f 50 7a 95 bf a3 55 8c 3e
       0.0989295 0.79118353 -1.1677952 0.27409086
0000d0 0f 81 a1 3d e5 c2 97 bf 06 88 31 3f 72 9c 88 bf
       0.07885944 -1.1856352 0.6934818 -1.0672743
0000e0 45 13 df be 74 75 24 be 2d b9 9c 3e 61 23 b4 3d
       -0.4356939 -0.1606043 0.30610028 0.087958105
0000f0 af ce 8d bd ab 59 da 3d 64 ac 36 3e a6 b5 f2 3d
       -0.069241874 0.10661634 0.178392 0.11851053
000100 97 cd cf 3e 8e 34 e1 3e cd 6e b9 be 15 c1 c3 3e
       0.4058654 0.4398541 -0.36217347 0.38233247
000110 70 3e b8 3d 72 af 0b bf 07 88 4c 3e 25 6f 1e be
       0.08996284 -0.54564583 0.19973765 -0.15472086
000120 08 d8 3e be 59 5e e1 be 3f f2 c9 3e 76 4a a7 3d
       -0.18637097 -0.44017294 0.39442632 0.08168499
000130 79 00 87 be 17 1a 5a 3e 5c 36 02 3c 0c 35 e0 3e
       -0.26367548 0.21299015 0.007947531 0.43790472
000140 eb fc c7 3d 0d 9e 1a bb f5 93 bd 3b 70 73 f4 3d
       0.09765037 -0.002359274 0.00578546 0.119360805
000150 1e 07 11 3d bd c7 8a 3e 89 0f 23 be ec 44 cb 3d
       0.035407178 0.27105513 -0.15923895 0.09925255
000160 d1 6e 71 3e 1b 19 af bc 50 d8 81 3d f8 33 46 be
       0.2357743 -0.021374276 0.063400865 -0.19355762
000170 d4 08 74 3e 8f b4 0b 3e cf 01 49 ba 6a 37 e9 3e
       0.23831493 0.13643096 -0.0007667811 0.4555009
000180 2f 97 04 3f a8 50 04 3f d5 a7 8c 3d 03 b4 93 be
       0.5179319 0.5168557 0.06867949 -0.28848276
000190 64 6d c5 3e f6 f8 c9 be fb f5 a2 bd 81 6d 43 be
       0.3856002 -0.39447755 -0.07957073 -0.19084741
0001a0 74 bf 8e 3d e5 0b 09 be 86 63 75 3e 09 87 d2 3e
       0.069701105 -0.13383444 0.23963746 0.4111865
0001b0 27 57 cd 3d 8a ac cf 3c 0e b8 c8 bd 3c 0a 09 be
       0.100263886 0.025350828 -0.09800731 -0.1338281
0001c0 59 bb 4f bf 67 4f 8d bf d9 cd 2a 3f e4 2a 9f 3e
       -0.81145245 -1.1039857 0.6672035 0.3108741
0001d0 f6 4f 35 bf 04 eb 1b 3f 3a 92 28 be 75 76 38 3f
       -0.70825136 0.6090548 -0.16462031 0.7205575
0001e0 d2 b4 91 3e 5c bf 66 be e2 39 77 be 66 2c a0 3d
       0.28458267 -0.22533935 -0.24143174 0.07820968
0001f0 68 93 94 bd 9f e4 0d bf e9 96 f6 3e 15 70 ed bd
       -0.07254678 -0.55426973 0.4816201 -0.115936436
000200 a8 85 96 3c 7d 64 20 be 5a 3d d1 3e 28 53 a9 3e
       0.01837428 -0.15663333 0.4086712 0.33071256
000210 6c f7 57 3f fb 41 93 3d e6 fb 47 be 57 36 ac bb
       0.8436191 0.07190319 -0.19529685 -0.0052555013
000220 16 86 ac 3e 45 27 64 3c a5 9f ff 3d 9d e5 07 3e
       0.3369605 0.013925378 0.12481622 0.13271184
000230 22 60 ae be 9b 03 dc 3d 2a 81 9c 3d 67 31 ac be
       -0.3405772 0.10742875 0.076418236 -0.3363144
000240 fb 15 ad 3e 43 88 5e 3e 4e 5a 38 bd 45 52 7b be
       0.33805832 0.21731667 -0.045007996 -0.24543102
000250 63 c1 c4 3e 54 9b 0d be d9 d6 61 be 23 82 1a 3e
       0.38428792 -0.13828784 -0.22054614 0.15088706
000260 19 23 aa 3e 4d ba ef 3e 43 33 d7 3e bd c0 36 be
       0.33229902 0.46821824 0.42031297 -0.17846961
000270 80 70 af 3e 78 d8 5b 3e b7 b7 89 be d4 6c bd 3d
       0.34265518 0.21469295 -0.26897976 0.09249273
000280 5a 49 3c 3d 44 57 e4 3c 3f ae 5c 3c c4 c6 0c be
       0.04596839 0.027873643 0.013469278 -0.13747698
000290 63 9f 32 3e 44 1c 1a 3e da b7 47 3e a1 5e 30 be
       0.17443614 0.15049845 0.19503728 -0.17223598
0002a0 91 76 a9 3c 78 e7 ed be a6 7e 14 3f d8 4d 97 3e
       0.02068642 -0.4646566 0.5800575 0.29551578
0002b0 98 89 67 be 8b f3 d3 3e b4 5c c7 3e 68 0c 0a 3e
       -0.22611082 0.41396746 0.38937914 0.13481295
0002c0 a8 ba 25 3e 3d a3 82 be 05 b0 9c 3e 38 8e 1e bb
       0.16184485 -0.25515166 0.30603042 -0.0024193656
0002d0 93 47 45 bd 56 bc a4 3e de e7 89 be 6b 7b aa 3e
       -0.04816396 0.3217494 -0.26934713 0.33297285
0002e0 88 6d 10 bf dc 0b 4f 3c ae c9 f6 3e ef 5f f4 bd
       -0.5641713 0.012637105 0.48200744 -0.119323604
0002f0 81 1f 36 3d d0 3b 9b 3e 72 79 b5 be 2c a9 d3 3d
       0.04446364 0.3031907 -0.35444218 0.10335001
000300 4d e5 f0 be 1d e4 3c be 3b 1d 41 3c 7d bf 4a 3c
       -0.47049943 -0.18446393 0.011786754 0.012374756
000310 01 44 23 bd 6f 29 ea 3d 3d 3c f6 3d 52 5a d9 3d
       -0.039859775 0.11433684 0.12023208 0.1061293
000320 d1 69 da be 99 e4 aa be a3 42 ca 3e 25 a3 0d 3f
       -0.42658857 -0.3337753 0.39503965 0.55327064
000330 b0 66 3f bd d2 f5 40 3e c5 4c 69 be a1 43 0b 3f
       -0.04672879 0.18843773 -0.22783192 0.5440007
000340 2c e4 18 3e 69 fa 85 3e a7 40 09 bf e5 8d 94 bd
       0.1493079 0.2616761 -0.53614277 -0.07253627
000350 b3 c6 81 3e f4 94 96 3d a2 b0 3f 3e f8 3d 0e bf
       0.25346908 0.07352629 0.18719724 -0.55563307
000360 35 71 01 3f 33 8b 85 3e 7f 91 81 3e 90 5f 2e be
       0.50563365 0.26082763 0.25306317 -0.17028642
000370 ed 47 e2 3e 34 73 70 3e 9f 0b 82 3d 8a 90 1b 3d
       0.441955 0.23481447 0.06349873 0.03797964
000380 c6 e2 14 3e 9d 61 40 be 7b 6b ae 3e b3 f6 54 bf
       0.14539632 -0.18787237 0.34066376 -0.83188933
000390 ac 49 a0 3e 6b c8 df 3e b1 31 3a bf 7c ff ef 3e
       0.31306207 0.43707594 -0.72732073 0.46874607
0003a0 f7 f2 c9 bd 4a 10 26 bd cc d5 5e be 65 bd bd be
       -0.09860795 -0.04054288 -0.21761245 -0.3705856
0003b0 f5 26 cb 3e 03 66 40 be fa 93 cd be 08 7d 1d 3c
       0.3967816 -0.18788914 -0.4015196 0.009612329
0003c0 1e 2c 0f bf 55 da 45 bf 51 af 07 3e 2b b3 a1 3e
       -0.5592669 -0.77286273 0.13250472 0.31582007
0003d0 73 24 0b bf 1b db f2 3e 17 9b 40 be 30 79 90 3e
       -0.5435249 0.4743279 -0.18809162 0.2821746
0003e0 2e 1d 81 be 59 be 16 3f eb bb 2b be 1c 28 c0 3e
       -0.25217575 0.588842 -0.16770904 0.375306
0003f0 df 98 a7 3d 38 38 9d be f7 d4 8e 3e 7a 8a 52 be
       0.08183455 -0.30706954 0.27896854 -0.20560637

encoder_variable_selection.single_variable_grns.SinWeekly.gate_norm.glu.fc.bias f4 [32]
000000 a3 6f 83 3e 61 4e 6e 3e d9 fd f4 bb 5c 51 3f 3e
       0.2567111 0.23272087 -0.00747655 0.1868338
000010 e9 0a 0c 3e b6 0a 5f bd 90 a5 e6 be 2a 42 c3 be
       0.13676037 -0.054453574 -0.4504819 -0.38136417
000020 7b a0 d5 bd 79 d7 08 3e 95 11 99 3d 64 e1 91 3e
       -0.10431 0.13363446 0.07474057 0.28492272
000030 61 3c 00 3f c2 2a 1b bb 74 66 ca 3e 9c 7c 3e 3e
       0.5009213 -0.0023676609 0.3953129 0.18602222
000040 49 e6 84 bf 38 9b ba 3e 12 d3 35 3f 4f 2c 11 bf
       -1.0382777 0.36446548 0.7102519 -0.56708235
000050 c3 ab 04 c0 c2 46 2e be 83 80 2e 3f 54 f8 49 3c
       -2.0729835 -0.1701918 0.68164843 0.012327272
000060 a2 4a e5 3e db 2f 73 3c 02 13 66 bf 76 80 3d bf
       0.44783503 0.014842953 -0.89872754 -0.7402414
000070 1d 4d c8 be f5 4b a1 bf 62 f4 fd 3d 3e e2 a9 3d
       -0.39121333 -1.2601305 0.12400128 0.082951054

encoder_variable_selection.single_variable_grns.SinWeekly.gate_norm.add_norm.norm.weight f4 [16]
000000 1d 55 7d 3d 7d 01 56 3f 6a dd 05 40 42 d2 79 3f
       0.06184875 0.8359602 2.091639 0.9758645
000010 d5 b2 85 3f 21 fd d7 3e 58 95 cd 3f 5b 1a 98 3e
       1.04452 0.4218531 1.6061201 0.29707608
000020 ab d0 16 3f df a8 6c 3f 0c 88 85 3f 4c c5 9d 3f
       0.5891215 0.92445177 1.0432143 1.2325835
000030 6d f0 44 3f cb 64 a6 3e f6 c3 a4 3f 36 82 84 3f
       0.7692936 0.32498774 1.2872303 1.0352237

encoder_variable_selection.single_variable_grns.SinWeekly.gate_norm.add_norm.norm.bias f4 [16]
000000 8f 47 1e bd fc 9d 34 3e b6 63 bd bd 74 53 4d 3e
       -0.038642462 0.17638391 -0.09247534 0.20051366
000010 32 21 65 3d 0b 5c 58 bc d8 fc 01 be db 30 94 bd
       0.05593986 -0.0132055385 -0.12694108 -0.07235881
000020 95 f3 28 3b 1b fb fa bd 35 37 23 be 42 41 06 3e
       0.0025779952 -0.12254926 -0.15939029 0.13110831
000030 0a d4 e2 bc a7 6b b0 3c 0e 87 52 3d 8e 5f e5 3d
       -0.027688999 0.021535708 0.05139833 0.11199866

encoder_variable_selection.single_variable_grns.VaccinationFull.resample_norm.mask f4 [16]
000000 5c 87 2e bf 72 61 b7 bd b6 35 c5 3d d6 6c 3f be
       -0.6817529 -0.08954133 0.09629385 -0.18693861
000010 f6 1f 41 3f 4b 07 ca bd 2f bb fe be a0 54 e4 3d
       0.75439394 -0.09864672 -0.49752185 0.111489534
000020 1d 74 23 3c af 1d e6 be 57 4e 9f be eb eb 01 3f
       0.009976414 -0.44944522 -0.31114456 0.5075061
000030 26 90 59 bc 5a da 39 3f a6 c2 a2 be 46 29 86 be
       -0.013278997 0.72598803 -0.3178913 -0.26203364

encoder_variable_selection.single_variable_grns.VaccinationFull.resample_norm.norm.weight f4 [16]
000000 83 d9 05 3f 6f 02 89 3f 5c f8 a5 3f a4 76 87 3f
       0.5228502 1.0703868 1.2966418 1.0583081
000010 10 21 f6 3f df 7a 62 3f 28 84 54 3f c3 bc b8 3f
       1.922884 0.88468736 0.83014154 1.4432606
000020 e9 23 99 3f 78 95 40 3f 57 4a 4b 3f f5 e4 c4 3f
       1.1964084 0.7522807 0.7941031 1.5382372
000030 ae 67 96 3f ec bf dc 3f d0 d4 29 3f 00 2a 5c 3f
       1.175039 1.724607 0.6634035 0.86001587

encoder_variable_selection.single_variable_grns.VaccinationFull.resample_norm.norm.bias f4 [16]
000000 1e 8d 44 3c 3c b2 98 bd 8b 94 d0 3d ff fc 84 be
       0.011996536 -0.074558705 0.10184582 -0.2597427
000010 79 d9 ed bd 58 e9 d0 3b fc a7 0e 3d 79 30 88 3e
       -0.11613745 0.006375473 0.03482817 0.26599482
000020 0c eb ce bd 41 8f 87 3e 8a af 0b bb bf 06 49 3e
       -0.101034254 0.26476482 -0.0021314346 0.1963148
000030 9a ce 62 be 2e a6 7c be a1 53 c2 3d 97 42 71 ba
       -0.22149125 -0.24672768 0.09488607 -0.0009203343

encoder_variable_selection.single_variable_grns.VaccinationFull.fc1.weight f4 [8, 8]
000000 22 02 c7 3e 8a 60 8a be 42 e2 61 bf 2e 44 36 be
       0.38868815 -0.27026778 -0.8823587 -0.17799446
000010 6d 09 75 3f 9c 29 84 3e 03 9a 06 bf a9 c7 99 bb
       0.9571751 0.25812995 -0.52578753 -0.004692991
000020 e7 61 34 3e ca c7 bb be 15 e4 8a bf 3b 29 93 bf
       0.17615472 -0.36675864 -1.0850855 -1.1496958
000030 e1 b5 0c 3e ca 76 2c 3e 25 77 99 3f e6 85 96 3e
       0.13741256 0.1684219 1.1989485 0.2939903
000040 06 c5 0b be 7c ee fb be bd a3 96 be bb 9a 1e bf
       -0.13649377 -0.49205387 -0.29421797 -0.6195485
000050 f6 76 fe be 3a 0c 23 3f f6 8f 54 3e 9c 64 73 be
       -0.49700135 0.6369053 0.20758042 -0.23768848
000060 d1 3c b5 be 6e 85 50 bf e3 7d f6 be 5f c7 11 3e
       -0.35397962 -0.814536 -0.4814292 0.1423621
000070 cd 0a 49 bf 65 19 5d 3f fb 93 c6 3e d0 d3 8b 3e
       -0.78532106 0.86366874 0.38784775 0.27310038
000080 0c eb cf bd 13 11 f4 3e 78 00 24 be 5e ae a9 be
       -0.101522535 0.47669277 -0.16015804 -0.33140844
000090 0e 69 af 3d 97 18 5c 3f 93 3f dd 3f ca 50 cd 3f
       0.085649595 0.8597502 1.7285026 1.604028
0000a0 21 a2 6d bd e0 43 f6 3e c3 63 eb 3d 2a 52 19 be
       -0.058015946 0.4809866 0.114936374 -0.1497275
0000b0 1a bb 06 bf a3 80 5c bf f7 07 55 bf 44 11 db bf
       -0.52629244 -0.86133784 -0.8321528 -1.7114644
0000c0 29 ad ec be 0b 10 f9 3d d6 2c 50 be e1 4f 80 3e
       -0.4622586 0.12161263 -0.20329604 0.25060943
0000d0 6a 9e bb 3f e1 78 80 3d 46 51 7f 3e 7b a8 6b 3e
       1.4657719 0.06273056 0.24933347 0.23013489
0000e0 60 e3 6e 3e 01 f0 a1 3e 46 35 e9 be 2d 46 81 be
       0.23328924 0.3162842 -0.45548457 -0.25248852
0000f0 a4 a4 43 bf f4 19 9f bf ba a8 8c be 1a 30 c5 bf
       -0.76423097 -1.2429795 -0.27472478 -1.5405304

encoder_variable_selection.single_variable_grns.VaccinationFull.fc1.bias f4 [8]
000000 a2 58 b2 3e ee 3d 0c 3e 68 03 47 be 1f 71 96 bd
       0.34833246 0.136955 -0.19434893 -0.07345795
000010 78 5a 3a bd f7 5b 9d be 28 92 a2 3e 7f e9 a7 be
       -0.045496434 -0.30734226 0.31752133 -0.3279533

encoder_variable_selection.single_variable_grns.VaccinationFull.fc2.weight f4 [8, 8]
000000 41 d1 b5 be 24 f0 ae bb d5 41 98 bd 3a 9a 95 be
       -0.3551121 -0.0053386856 -0.074344315 -0.29219228
000010 31 34 69 bf 21 9d 50 3e 19 65 59 bf 49 6b b1 3d
       -0.9109526 0.2037244 -0.8491989 0.08663041
000020 8d ce 6e 3f 36 d6 26 bf 7b 04 c1 be 0b ae a0 be
       0.9328392 -0.6517061 -0.3769873 -0.31382784
000030 61 6c 42 bf 79 f2 1a bf c6 18 21 3f e3 79 36 be
       -0.75946623 -0.60526234 0.62928426 -0.17819934
000040 85 4f d3 bf a0 dc 41 3d 59 b3 4b be eb c7 0f 3f
       -1.6508642 0.047329545 -0.19892634 0.56164426
000050 a7 3c 73 be e3 68 f5 3e 41 dc 34 3e 5b e2 16 3f
       -0.23753606 0.47931585 0.17662145 0.5893914
000060 6c 8e 06 3e 2b d4 82 3e 30 69 1c 3e f9 9e 01 be
       0.13140267 0.25552496 0.15274501 -0.126583
000070 ef f0 9a 3f 7c 25 7c bf 18 ac 83 bd 8c 05 0f be
       1.2104777 -0.98494697 -0.06429309 -0.1396696
000080 b4 10 c5 be 42 6f 8e 3e 2f d6 f1 3e 0e 7c c2 3d
       -0.38489306 0.27819258 0.47233722 0.09496318
000090 5c c7 62 3f 36 85 ee 3e 92 97 98 bf 9c 21 68 3f
       0.8858545 0.46586007 -1.1921256 0.90676284
0000a0 f0 25 d3 be f6 a8 6a 3f 08 e0 1f 3f 5a 17 d2 3e
       -0.41239882 0.91664064 0.6245122 0.4103344
0000b0 9c e2 35 3f 0a a9 df 3d 36 dc 66 be bf eb 4c bf
       0.71048903 0.109209135 -0.22544941 -0.8004722
0000c0 1b 3c 4f 3f 32 3a e5 3e 09 83 97 3c 53 ce 49 3f
       0.8095109 0.44770962 0.0184951 0.7883045
0000d0 6e ff 08 3f c6 79 14 bf 7e 84 69 3d b0 43 56 3d
       0.53514755 -0.5799831 0.05701112 0.052310646
0000e0 38 bb 14 3e c3 11 83 be 62 98 2b bc 56 55 30 3e
       0.14524543 -0.2559949 -0.010473343 0.17220053
0000f0 a5 6a 90 bf 55 c0 0a bf 87 a7 02 3f bb 37 ae be
       -1.1282545 -0.54199725 0.51036876 -0.34026894

encoder_variable_selection.single_variable_grns.VaccinationFull.fc2.bias f4 [8]
000000 c3 68 90 be 3e 1e c9 3e 73 26 4b be 93 96 67 be
       -0.28204927 0.39280885 -0.19838886 -0.22616033
000010 71 a2 9e be c4 66 16 be 66 1a f0 3d 0c 68 1b 3f
       -0.30983308 -0.1468764 0.11723785 0.6070564

encoder_variable_selection.single_variable_grns.VaccinationFull.gate_norm.glu.fc.weight f4 [32, 8]
000000 15 f1 81 be 3c b1 29 3f e6 8d ec bd ae 0f d8 3e
       -0.25379243 0.66286063 -0.115505025 0.42199463
000010 49 a4 2c bf 67 62 e5 3e 4e f5 d8 3d fa 71 be 3e
       -0.6743818 0.44801638 0.10593663 0.37196332
000020 1f 08 55 be fc e6 ae be 0b a1 31 be c2 88 14 3e
       -0.20803879 -0.34160602 -0.1734659 0.14505294
000030 25 35 e3 3e 5d 69 e7 3d 3a d4 c6 3e 32 74 4e bf
       0.44376484 0.11299393 0.3883379 -0.8064605
000040 75 a3 9b 3d 2f b5 c2 3e ea 71 87 3e 2e 8f b6 be
       0.07599536 0.38028857 0.26454097 -0.35656112
000050 62 07 b1 bd 87 13 a5 3e c4 c7 ad be 34 f6 b9 3c
       -0.08643986 0.3224146 -0.33941472 0.022700407
000060 67 f9 d6 be 78 60 69 3f 41 5e 0e bf d7 09 0f 3f
       -0.41987154 0.91162825 -0.5561257 0.5587439
000070 c8 d7 78 bf 38 cd de 3e 5b 3f cc 3e 00 0c 60 3f
       -0.97204256 0.43515944 0.39892086 0.8751831
000080 a0 30 de 3f 2f dc 48 bf 96 ee ba 3f dc b5 15 c0
       1.7358589 -0.78460974 1.4604061 -2.3392248
000090 40 c7 87 3f 2d 06 0e c0 ec 84 df bf ec 50 0e bf
       1.0607681 -2.219127 -1.746244 -0.55592227
0000a0 3d 76 55 3e 5b b9 a9 3e de 89 28 3e 95 f7 9c be
       0.20845886 0.33149227 0.16458842 -0.3065764
0000b0 84 7e b3 bd 13 cc c1 3d 2b cc c7 3b a1 49 92 3e
       -0.08764365 0.09462752 0.0060973368 0.285718
0000c0 b7 ca c2 3c a2 5a 8c be 52 8a 36 3e d0 e8 3b 3d
       0.023778303 -0.27412897 0.17826203 0.045876324
0000d0 6f bd 1e 3e 41 cd b7 3e 9b 41 49 3e fb 0e 3d be
       0.1550195 0.35898784 0.19653933 -0.18462746
0000e0 21 3d 5b be 1c 52 3a 3e 17 a3 b2 3d a1 84 f5 be
       -0.21410038 0.18195385 0.08722513 -0.4795275
0000f0 5b f5 84 3e 80 bc b8 be f1 b9 e1 bc c3 05 d6 be
       0.2596844 -0.36081314 -0.027554484 -0.4180127
000100 1e 07 3d bd 3d e0 12 3f b9 c4 3c be 51 be 8c be
       -0.046149366 0.5737341 -0.18434419 -0.2748895
000110 7b 13 ce be ea 07 9d be ef a5 1c 3e 3b cb 3b 3f
       -0.40249237 -0.306701 0.15297674 0.7335698
000120 a5 b3 f9 3e 2a 2d 93 3e 84 29 dc 3e f9 99 2e bf
       0.4876987 0.28745395 0.43000424 -0.68203694
000130 3a 78 eb 3d a8 2a 1b bf 44 16 4c bf 10 16 fa be
       0.11497541 -0.60611963 -0.79721475 -0.48844957
000140 c0 8e 2f bd c2 34 23 bf 6a ee ad 3e e9 80 c8 be
       -0.042860746 -0.6375238 0.33970958 -0.3916085
000150 e1 b7 c0 3e b9 eb 78 3e 80 10 be 3d 5f bd 93 be
       0.37640288 0.24308671 0.09280491 -0.28855416
000160 b2 fc 8d bd 6d 3a d9 bd 06 b6 00 bc 05 28 22 3d
       -0.069329634 -0.10606847 -0.007855898 0.039588947
000170 54 08 82 bd 7f 38 b0 bd 0c 4a f3 be d7 03 43 be
       -0.06349245 -0.08604526 -0.4751743 -0.19044434
000180 48 b6 7a be a4 fc 84 3e 98 b3 16 be 67 5a 7e be
       -0.24483597 0.25974 -0.14716947 -0.24839173
000190 ab 16 65 3e 42 d9 2d 3d f6 e7 cb be b2 fc 8b be
       0.22371928 0.04244352 -0.3982541 -0.2734123
0001a0 b3 db ad 3b 90 ef 8f bf 07 5e c4 3d 8e 9d 05 3f
       0.005305731 -1.1244984 0.09588247 0.52193534
0001b0 a7 74 f5 3e 4b ea f9 3e 54 a5 84 3e b1 1a c9 be
       0.4794056 0.48811564 0.25907385 -0.39278176
0001c0 74 70 d9 be 3c 5e ae 3e a7 8b e3 be b8 52 b4 3e
       -0.42468607 0.3405627 -0.44442484 0.3521936
0001d0 7a f6 83 be c0 b0 ca 3e 81 2f c6 3d 8c 8a 23 3f
       -0.25773984 0.39587975 0.096770294 0.6388328
0001e0 2d b2 76 be ce a1 67 be 56 31 89 3e c3 1d 3e 3e
       -0.24091406 -0.22620317 0.26795453 0.1856604
0001f0 a1 51 21 3e 08 72 56 3e 6c 83 b2 3e 23 dd 85 3d
       0.15753795 0.20941937 0.34865892 0.06536319
000200 7c 8d 68 3e bd 4e 0b bf 2d 9a c9 3e 2e 68 ea bd
       0.22710222 -0.5441702 0.3937544 -0.11445652
000210 56 d8 2f 3f a7 6e 2d 3d 6e 8f 70 be 0c f5 41 bf
       0.6868948 0.042341854 -0.23492214 -0.75764537
000220 7a 27 ea bd db fa 18 bc e3 01 d8 3c 28 64 54 3f
       -0.11433311 -0.009337152 0.026368087 0.82965326
000230 6a 89 13 be c3 fc 1d 3f 22 30 56 3e a4 6d d6 3e
       -0.14407888 0.6171381 0.20916799 0.41880524
000240 53 c2 f6 3e 56 85 60 be 8b d7 83 3d 77 e4 df 3d
       0.48195133 -0.21925864 0.06437596 0.10932248
000250 6b d7 05 3f 5e 46 a6 3e 04 0f 8e bc d2 29 8f 3d
       0.52281827 0.3247556 -0.017341144 0.069903985
000260 dc 0f 8a 3e 7d 19 3f bf 11 c5 2a 3f f1 4f c7 bc
       0.26965225 -0.7464827 0.6670695 -0.024330111
000270 84 a7 04 3f be 52 4d 3e 12 b7 23 be 53 1b 8c be
       0.5181811 0.20051095 -0.15987805 -0.27364597
000280 1c 3f 36 be 56 4b 57 be b6 6e 82 bd 35 68 d8 3f
       -0.17797512 -0.21024832 -0.06368773 1.6906801
000290 b2 a1 89 3d 1b 51 99 3f 3d 51 f6 3e 2d 69 ef bd
       0.06720294 1.1977876 0.48108855 -0.116899826
0002a0 39 01 98 be f8 23 3a bf ef 0e b7 3e 91 1c 1b be
       -0.29688433 -0.72711134 0.3575358 -0.15147616
0002b0 8e 45 ef 3e 24 bf d9 3e eb 0a aa be d6 5b d9 bd
       0.46732754 0.4252864 -0.33211455 -0.106132194
0002c0 e5 3a d1 3e c4 42 80 3f 73 30 91 be 8d 4c a9 3d
       0.40865245 1.0020375 -0.28357276 0.08266554
0002d0 9b d6 2f be 51 26 4d be 9b 50 60 be e9 db 6c bd
       -0.17171709 -0.20034148 -0.21905749 -0.05782691
0002e0 2a b6 9f 3d 5f f5 ca 3f 9d 5c 41 be fd 6d 5d 3e
       0.07798417 1.5856131 -0.18882985 0.21623988
0002f0 17 d8 0e bf 73 52 73 be 4a 2f 42 be 9b 1e df 3e
       -0.55798477 -0.2376192 -0.18963352 0.43578038
000300 ac fe 5b bf 4a e0 d7 3e d5 ca 4a bf dc 90 8d 3e
       -0.85935473 0.42163306 -0.7921575 0.2764958
000310 3d 29 72 bf 2b 6f e4 3d ac aa 20 3f 9a d4 1b 3f
       -0.94594175 0.11154016 0.62760425 0.6087128
000320 4a 2c 8b 3f d6 88 03 bd 6c 27 d9 3e db 69 13 bf
       1.0872891 -0.03211292 0.4241289 -0.575834
000330 95 32 c4 3e b5 80 06 bf d8 ad 59 bf cf c0 27 be
       0.3831984 -0.5254014 -0.8503089 -0.16382144
000340 27 97 31 3e 9c 9b 36 bf ec df 81 3e 86 e0 5e be
       0.17342816 -0.7133119 0.2536615 -0.21765336
000350 bc 04 29 3f 7d 31 78 3d a3 12 a3 3e b5 76 46 bf
       0.6602285 0.06059407 0.31850156 -0.7752488
000360 7e bb 9b 3e 68 4c 5b be 0b 20 19 3f 81 9b 5e 3e
       0.30416483 -0.21415865 0.5981452 0.21739008
000370 67 94 0f 3e b3 40 d9 3e e4 26 4f be d7 e0 86 be
       0.14021455 0.42432174 -0.2022968 -0.26343414
000380 82 e4 22 3f cc 14 ed bc 3f 33 65 be 85 cf 14 3f
       0.63629925 -0.02894058 -0.2238283 0.5812915
000390 90 e8 39 3e 25 9e 19 3f f0 d3 aa be 4f 8d a8 3d
       0.18155122 0.60006934 -0.3336482 0.082300775
0003a0 aa eb 09 3f 76 09 31 bf b7 dd f1 3e 7c fb f6 be
       0.5387522 -0.6915506 0.47239468 -0.48238742
0003b0 a8 a4 13 3f e2 09 b7 be d2 f2 0f bf 2b f5 f5 be
       0.5767312 -0.35749727 -0.5622989 -0.4803861
0003c0 3b f0 26 3f 3a 5c 50 bd 1d b5 67 bb d1 21 26 3e
       0.6521031 -0.050869204 -0.0035355755 0.16223837
0003d0 98 65 8d bd d3 e2 3d bf 6b ce cf 3d cb 89 9e be
       -0.06904143 -0.7417423 0.10146793 -0.30964503
0003e0 07 72 73 bf c6 3d 8b 3f 1b 08 b4 be 13 35 75 3b
       -0.95095867 1.0878227 -0.35162434 0.0037415668
0003f0 b1 3e 27 bf b7 f1 91 be 45 58 18 3f 6b a7 cc 3e
       -0.65330034 -0.28504726 0.5950969 0.3997148

encoder_variable_selection.single_variable_grns.VaccinationFull.gate_norm.glu.fc.bias f4 [32]
000000 ed 28 02 3d fa d9 ff 3d 0f 7c 37 bd 75 ad a5 be
       0.03177731 0.124927476 -0.044796046 -0.323589
000010 90 08 9f bf 37 b4 fc bd 52 cf bd bd 77 cd d9 3e
       -1.2424488 -0.12339061 -0.09268059 0.4253957
000020 a9 74 ff 3e 3a 7b 17 3f ee 85 01 be 33 33 70 3e
       0.49893692 0.59172404 -0.12648746 0.23457031
000030 b9 e0 00 be 0d 22 2f bf 08 93 63 be e4 bd 57 be
       -0.12585725 -0.6841133 -0.22224057 -0.21068531
000040 9d bb 76 be 1b 24 14 be 68 ad 1b bf 36 5f 9a be
       -0.24095006 -0.14466898 -0.6081147 -0.30150765
000050 e9 c4 90 be 7f 3e 5d bf 33 c8 17 3f 5f 7b 74 3e
       -0.2827523 -0.86423486 0.59289855 0.23875187
000060 bf e6 21 3e 00 09 1a 3f 42 d0 e8 be 11 ba 7b bf
       0.15810679 0.6016998 -0.45471388 -0.9833079
000070 65 79 75 bf 99 b0 60 be 07 7c 1b bd 30 d1 91 3e
       -0.9588836 -0.21942367 -0.03796008 0.2847991

encoder_variable_selection.single_variable_grns.VaccinationFull.gate_norm.add_norm.norm.weight f4 [16]
000000 40 67 4f 3f 5e d1 79 3f a8 77 0a 3f 79 d8 54 3f
       0.8101692 0.97585094 0.5408883 0.8314281
000010 7c 35 8c 3f be 49 e9 3e c1 6d b0 3e b6 f3 64 3f
       1.0953822 0.45564073 0.34458736 0.89434373
000020 84 0c be 3f d1 fa 56 3f 37 1e e2 3e a1 e6 8e 3f
       1.484757 0.83976465 0.44163677 1.1164132
000030 de c0 2e 3f 19 8a ab 3f eb 02 57 3f 8e 0b 25 3f
       0.6826304 1.3401519 0.8398883 0.64470756

encoder_variable_selection.single_variable_grns.VaccinationFull.gate_norm.add_norm.norm.bias f4 [16]
000000 be e6 90 bd ce b6 14 3e 62 8e b4 3d cb d6 9c 3d
       -0.070752606 0.1452286 0.0881622 0.07658156
000010 77 e6 a6 bd c5 4d 02 3d ce cb 01 3e ad 03 f0 bd
       -0.081494264 0.031812448 0.12675402 -0.11719451
000020 00 f0 a7 bc 82 66 96 3d 81 7b 97 bd fc 30 95 3e
       -0.020500183 0.073437706 -0.073966034 0.29138935
000030 c6 a8 24 be d9 d4 09 3e 98 d4 01 be d0 93 35 bd
       -0.16080007 0.13460101 -0.12678754 -0.044330418

encoder_variable_selection.single_variable_grns.Cases.resample_norm.mask f4 [16]
000000 7f 1c 9e 3e 07 77 e9 bb 55 44 ed bf c7 96 c3 be
       0.30881116 -0.007124785 -1.8536478 -0.3820097
000010 6d 6a ae be 2d dd 11 3f d0 a9 1d 3d 95 ba 25 bf
       -0.3406557 0.5697811 0.038492024 -0.64737827
000020 7f 52 eb bf 73 79 15 3f c7 3b 1a 3f c7 57 9b 3d
       -1.8384551 0.5838844 0.60247463 0.075851016
000030 b6 a9 49 bf 99 08 2e bf b7 14 d1 3e e7 21 8e 3d
       -0.78774583 -0.6798187 0.40836117 0.0694006

encoder_variable_selection.single_variable_grns.Cases.resample_norm.norm.weight f4 [16]
000000 cf 61 a6 3f 75 0f b2 3f 99 91 db 3e 58 73 77 3f
       1.2998599 1.3910967 0.4288452 0.96660376
000010 be 61 56 3f 6d 83 d2 3f fe a8 bd 3f 18 63 90 3f
       0.8374289 1.6446358 1.4817197 1.1280241
000020 16 bb d8 3e ae 62 eb 3f 94 cd d6 3f ae a0 9b 3f
       0.42330235 1.838949 1.6781487 1.215841
000030 41 65 f5 3e b6 38 21 3f 87 71 dc 3f 35 04 a5 3f
       0.47928813 0.6297716 1.7222146 1.2891909

encoder_variable_selection.single_variable_grns.Cases.resample_norm.norm.bias f4 [16]
000000 2e cd b3 3e 89 9c 27 3e 43 82 95 be d4 72 7c be
       0.35117477 0.16368307 -0.29200944 -0.24653178
000010 d5 a0 af 3c 16 ca 54 be ae e2 d9 be ed 27 3f bd
       0.021438995 -0.20780215 -0.42555755 -0.046668936
000020 c2 3b a0 3c 89 f0 06 bd 4c 0f af 3c 78 e8 01 3e
       0.019559745 -0.032944236 0.021369599 0.12686336
000030 9a 92 88 bd b5 43 20 be 62 d1 31 3e 6d d8 d7 3e
       -0.06668587 -0.15650828 0.1736503 0.42157307
