TFT-pytorch/results/industry_subgroup/Retail Trade/checkpoints/best-epoch=4.ckpt (torch, 703223 bytes, 506 tensors)

state_dict f4 [8, 1]
000000 9e a8 b8 3e d8 3c cb be 23 93 3d 3f 3d 91 3b 3f
       0.36066145 -0.39694858 0.7405264 0.7326849
000010 cc 03 8b bf eb 66 06 3e 21 b3 62 bf 83 ae f5 3e
       -1.0860534 0.13125198 -0.8855458 0.47984704

state_dict f4 [8]
000000 dc 5d 85 bd 39 b2 95 3e 4d 04 0f 3f 2d 3c 2a 3e
       -0.06512043 0.29237536 0.5586594 0.16624518
000010 34 44 ef be a0 4a 04 bf bc 28 7c bc e6 42 a7 3d
       -0.46731722 -0.5167637 -0.015390571 0.08167057

prescalers.SinWeekly.weight f4 [8, 1]
000000 46 0c 2b 3e 44 a0 ad bf 30 d5 79 3f cb f4 8b bf
       0.167039 -1.3564534 0.97590923 -1.093408
000010 6d 14 38 3f b5 87 6b be 3b 17 4c 3f 23 8b e0 3e
       0.7190617 -0.23000987 0.79722947 0.43856153

prescalers.SinWeekly.bias f4 [8]
000000 f3 f6 84 3e 5c 85 b2 bd ac d6 3f 3f 44 f9 ce 3e
       0.25969657 -0.087168425 0.7493694 0.4042455
000010 9b 97 ef 3e a2 90 1b bf a1 35 66 3f 6f 07 e8 3e
       0.46795353 -0.6076757 0.8992558 0.4531817

prescalers.VaccinationFull.weight f4 [8, 1]
000000 eb ed 0d 3d 60 78 b6 3e ee c6 5f 3f 9f 40 53 3f
       0.034650724 0.35638714 0.8741292 0.8252048
000010 0c 38 02 bf 09 8c 30 bf cd 62 4c bf 02 bb 17 bf
       -0.5086677 -0.68963677 -0.7983826 -0.59269726

prescalers.VaccinationFull.bias f4 [8]
000000 71 67 a8 3e 3f 75 f2 be 90 4d 2b bf 5a 12 86 3f
       0.3289142 -0.47355077 -0.66915226 1.047435
000010 2c d6 76 3f 45 0e 8b 3e ec df 1c 3c ed e3 9d 3e
       0.9642055 0.27159324 0.0095748715 0.30837956

prescalers.Cases.weight f4 [8, 1]
000000 8d ec 28 3f 67 3f 85 bf 1b 2c 2c bf 08 f0 3c 3f
       0.6598595 -1.0409974 -0.672548 0.7380376
000010 9c 07 b7 3f 47 34 99 bc 5c 53 14 bf 51 24 b3 3e
       1.4299197 -0.018701686 -0.57939696 0.34988645

prescalers.Cases.bias f4 [8]
000000 0b a4 5f bf d3 29 1a be 0b e2 17 3f db 45 e9 3e
       -0.87359685 -0.15055017 0.5932929 0.45561108
000010 2a 1f ce 3d c3 5d 2d be d6 a4 36 3f e5 7c 83 bf
       0.10064538 -0.16930299 0.7134527 -1.027249

prescalers.Cases.bias f4 [16]
000000 54 c9 f7 be e1 1a 13 bf 6d a3 76 be df b8 60 bc
       -0.4839579 -0.5746289 -0.2408578 -0.013715952
000010 f6 a7 ac be 77 6f 81 3e 5e 36 77 3c ef e9 56 be
       -0.33721894 0.25280353 0.015088646 -0.20987676
000020 77 ad 1d bf cc a4 54 3f 8b 5c be be 89 6f 42 3e
       -0.6159281 0.8306396 -0.3717998 0.1898786
000030 49 18 b5 be f8 c8 00 3e 91 61 9e bf 60 d0 e5 bd
       -0.3537009 0.12576663 -1.2373525 -0.11221385

prescalers.Cases.bias f4 [16]
000000 7e ea 4a 3f 72 42 42 3f e7 24 89 3f 6a b6 a0 3f
       0.79264057 0.7588264 1.0714387 1.2555668
000010 b4 43 7b 3f 0b 6a b6 3f 10 1d 7f 3f de 95 72 3f
       0.9815018 1.4251112 0.9965372 0.9475993
000020 77 8d 14 3f b7 7a d7 3f 7c 2f 80 3f b8 60 b2 3f
       0.5802836 1.6834325 1.0014491 1.3935766
000030 ef bf 36 3f 9c a7 96 3f 1a 50 a6 3d 21 18 5f 3f
       0.7138662 1.17699 0.08120747 0.8714619

prescalers.Cases.bias f4 [16]
000000 a1 93 57 3e 46 fb 17 bd f9 0b 99 3c 79 5e bd 3e
       0.2105241 -0.037104867 0.018682467 0.3698614
000010 b9 06 18 3e c9 4d 7f 3e 6c 22 19 bd 3f 46 7e 3d
       0.14846314 0.24932016 -0.037386343 0.06207871
000020 e1 a0 13 3e e7 c1 3d be 4e 89 ef bd 2b 9f eb be
       0.14416839 -0.18530999 -0.11696111 -0.46019873
000030 d2 04 cf 3d 70 8b 48 3c 06 d9 a2 3d 7c 93 0e 3e
       0.10108341 0.012240276 0.0795155 0.13923448

prescalers.Cases.bias f4 [8, 8]
000000 78 b1 e8 3e 24 6c ff be e2 5e 3d bf e1 b8 28 bf
       0.45447898 -0.49887192 -0.73972905 -0.659071
000010 9e ea 68 3e 76 a6 a8 bf 05 d5 e4 3e 42 e7 d9 be
       0.2274575 -1.31758 0.4469377 -0.42559248
000020 79 8d b6 be cd 5a 7b bf 6c 6b 7f bd 06 d2 62 3f
       -0.3565481 -0.98185426 -0.062358305 0.8860172
000030 eb 81 1d bf d9 0e b4 be db a6 29 3e 0f a8 6b 3e
       -0.61526364 -0.35167578 0.16567557 0.23013328
000040 b2 32 cf 3e b9 9f 51 3e 66 8d d0 3e 79 b5 b1 be
       0.40468365 0.20471086 0.40732878 -0.34708765
000050 7f 67 ac 3e b7 f6 bb bd 32 42 a1 3e 86 77 31 bd
       0.3367271 -0.091779165 0.31495816 -0.043326877
000060 37 4c 29 bf ba 59 29 be 5d 44 71 3c fb 49 69 be
       -0.6613192 -0.16538134 0.014725772 -0.22782128
000070 88 b8 da be f6 b8 32 3e 3d 1e 80 be 9b be 20 3f
       -0.4271891 0.1745337 -0.2502307 0.6279084
000080 d0 6e 12 bf 9f a0 44 3f 40 a1 99 be 8b 6e 3e bf
       -0.57200336 0.7680759 -0.30005836 -0.74387425
000090 55 55 07 3f 58 4d 4c 3f 83 41 79 3f 9f b5 56 be
       0.5286458 0.7980552 0.9736559 -0.2096772
0000a0 27 ec 5f 3e 84 dc 4b bc 2b 87 77 be 53 25 d5 bd
       0.21867429 -0.012442712 -0.24172656 -0.1040751
0000b0 cc f3 27 3f 68 71 ff be 93 86 84 3e e0 a4 2c be
       0.6560638 -0.4989121 0.25883922 -0.1685977
0000c0 ab 24 31 bd 29 cb 0d bf 1f 58 bc 3e 2f 66 4b 3f
       -0.04324786 -0.5538812 0.3678598 0.79452795
0000d0 83 cf d9 be d8 dc 84 3f be c5 e0 bd 9a 0d df 3e
       -0.4254113 1.0379896 -0.10975216 0.43565065
0000e0 03 c4 3b bf 68 4b a4 be 9b f7 b5 be 35 c0 2e bd
       -0.73345965 -0.3208878 -0.3554047 -0.04266377
0000f0 42 c6 56 3f d4 51 f0 be 26 ec 66 3f 2c 9e 98 bc
       0.8389627 -0.4693743 0.90204084 -0.01863011

prescalers.Cases.bias f4 [8]
000000 82 9e 36 be f4 c2 03 3d 52 0d 42 be bc fe 81 bc
       -0.17833903 0.032168344 -0.18950394 -0.015868537
000010 24 35 2d 3e bb e7 87 3d 72 0d c8 3e c7 3e 88 3c
       0.16914803 0.06635996 0.39072758 0.016631497

prescalers.Cases.bias f4 [8, 8]
000000 f1 0b e7 be 0e 68 3f 3f dc d0 30 be 71 f4 20 3e
       -0.45126298 0.7476815 -0.17267174 0.15718247
000010 30 ec 19 3e 0a f5 90 be 44 b8 55 3f 7a ca 90 3e
       0.15031505 -0.2831195 0.8348429 0.28279477
000020 22 c4 e4 be fd 5d 27 bd 24 c9 e5 3c 3c ed 55 3e
       -0.44680887 -0.04086112 0.028050013 0.20891279
000030 a3 3d 33 be 9a 5c 90 bd 35 e2 c0 3e a4 ba 5a be
       -0.17503981 -0.07048912 0.37672582 -0.2136026
000040 ad b0 db bc 68 ca 3d 3c 92 0b 00 bd 9c 82 94 bd
       -0.026817644 0.011583902 -0.031261034 -0.07251474
000050 a6 9b cb 3e 05 c4 93 be 41 a3 77 be 11 7f 38 3f
       0.39767188 -0.2886049 -0.2418337 0.7206889
000060 08 a6 25 3f 1e c6 6d be dd 9a f0 3e ca eb 86 3c
       0.6470647 -0.23220107 0.4699315 0.016469855
000070 dd 58 a2 3e 57 91 c7 bd dd 01 0d 3f 95 57 a4 be
       0.31708422 -0.09744518 0.5508097 -0.3209807
000080 dc a4 9e 3e 44 1f 4f be 5d 33 03 3d 4d 1a 78 be
       0.30985153 -0.2022677 0.032031406 -0.24228783
000090 02 87 28 3f 76 ca e0 3e 77 53 ce 3e 42 12 1f 3d
       0.65831006 0.43904465 0.40298054 0.03883577
0000a0 12 4a d5 3e 75 08 47 be 3c 13 89 be b8 88 8a be
       0.41658074 -0.1943682 -0.26772487 -0.27057433
0000b0 d1 b5 4e 3f ae f8 94 3e a2 57 51 bf af 12 05 3f
       0.8074618 0.29095978 -0.8177434 0.51981634
0000c0 e3 fa 4e be 07 c4 16 be 37 48 9e 3d 73 77 89 be
       -0.20212893 -0.14723216 0.07728618 -0.26848945
0000d0 96 76 e8 3e e8 dd a4 3e c3 80 f3 be 8c 96 80 3d
       0.45402974 0.3220055 -0.47559175 0.062787145
0000e0 d9 f9 04 3e 5c 31 99 3e b0 27 01 bf d1 98 25 be
       0.12985934 0.2992047 -0.50451183 -0.16171576
0000f0 c7 cd 17 bf 93 b5 71 be 35 01 bd 3e 71 c6 5d bf
       -0.59298366 -0.23604421 0.36914983 -0.8663092

prescalers.Cases.bias f4 [8]
000000 38 e0 17 3e b3 20 a8 3c d3 00 84 be 40 04 b8 3d
       0.14831626 0.020523405 -0.2578188 0.089851856
000010 e2 31 46 bd 7c 03 cd bc e6 20 88 3d ab f1 26 bd
       -0.048387416 -0.025026076 0.066469 -0.040757816

prescalers.Cases.bias f4 [32, 8]
000000 b7 bd f6 bd 37 4d 16 3f af d4 fe be e7 d3 77 be
       -0.12047904 0.5871157 -0.4977164 -0.24201928
000010 b6 30 84 be 0d 2d 2a bf 00 6c a4 be bf 55 89 3e
       -0.25818413 -0.6647499 -0.32113647 0.26823232
000020 aa dc c0 be 19 16 d7 bd 9d 0a b1 3c 37 01 88 3e
       -0.37668353 -0.10502262 0.021611506 0.26563427
000030 13 e5 02 bf fc c1 46 be f6 ec 82 3e 11 53 02 bd
       -0.5113079 -0.19409937 0.25571412 -0.0318175
000040 ea 0f 98 3e c7 eb 4b 3e 85 e2 68 bd ee 22 c1 bd
       0.2969964 0.1991416 -0.05685665 -0.094304904
000050 e7 12 53 3e e4 d7 4d be dd 59 b9 be 24 35 d9 bd
       0.2061268 -0.20101887 -0.36201373 -0.10605839
000060 25 28 7c bd 0b 23 c4 3d 56 41 c1 bd 72 57 cd be
       -0.061561722 0.095769964 -0.0943629 -0.40105778
000070 e5 d9 32 bd 91 d1 6f bd e0 60 e1 bd f9 56 ce 3e
       -0.04366483 -0.058549467 -0.110048056 0.4030073
000080 86 5c 2b be 1e 23 0d bd f0 4f c7 3d b9 ef 46 be
       -0.16734514 -0.03445732 0.09732044 -0.19427384
000090 cd 08 8d 3e 77 bf 91 3d f7 59 37 3e 31 f2 b9 3e
       0.27545777 0.07116597 0.17905413 0.3631759
0000a0 4b 69 30 3f e3 41 d9 3e 94 45 4d bf 13 c2 a4 bd
       0.68910664 0.4243308 -0.8018429 -0.08044829
0000b0 1a 27 3f bf 40 a3 48 bf 0b 3c 87 be 2f 52 20 3f
       -0.7466904 -0.783741 -0.26412997 0.626254
0000c0 6b 3a df be fa ed 80 be d5 2b 37 3e 95 e2 42 3e
       -0.43599257 -0.25181562 0.17887814 0.19031747
0000d0 5b 91 72 3e 0d f7 45 3c 05 15 db 3e 08 bf 08 3d
       0.23688261 0.012082827 0.42789474 0.033385307
0000e0 72 f1 00 3c 7d 3a 7b 3d ca ff 10 be 98 b3 01 3d
       0.007870065 0.061335076 -0.14160076 0.031665415
0000f0 d6 44 3c be 6e 95 60 3e 69 3b 08 3e a8 64 44 3d
       -0.18385634 0.21932003 0.13303913 0.047947556
000100 f1 43 44 bf 1d aa a2 be 11 5e e3 bd 21 3f ea 3c
       -0.7666617 -0.3177041 -0.11101926 0.028594555
000110 09 ed 76 3d 19 8f c1 be 29 15 82 3e 51 bf 4a 3e
       0.060284648 -0.37804487 0.2540677 0.19799544
000120 c1 b2 1c 3f 3d 2a 5f 3e 82 36 d4 bc 21 61 99 3d
       0.61210257 0.21793456 -0.025904898 0.07489229
000130 86 d4 79 3e 78 fa fc bd b7 7e d8 be 98 06 88 bc
       0.24397478 -0.123524606 -0.42284176 -0.016604707
000140 be 0f 8a 3d 1c 05 b6 3e 40 47 85 be b9 ac f7 be
       0.06741284 0.35550773 -0.26030922 -0.48373964
000150 d8 66 53 bf 83 7f ee be ae f3 0d be ae 25 27 3f
       -0.825788 -0.4658166 -0.13862488 0.6529187
000160 f1 04 cb be c1 06 af 3d 08 6a af be 3a ed b6 be
       -0.39652207 0.0854621 -0.34260583 -0.35727865
000170 b9 eb 3c bd bc 5f 2f bf 3c de 8b be 7a 9c 21 3f
       -0.04612324 -0.68505454 -0.2731799 0.6312939
000180 5c 48 ef 3e 7d cf 03 3f 48 72 20 be cb bc 79 be
       0.46734893 0.51488477 -0.15668595 -0.24388425
000190 17 65 9f bd 2a fd 8f be ce 3d 05 be 9c a2 9f 3e
       -0.07782953 -0.28122836 -0.13011858 0.3117875
0001a0 7a c1 61 be 40 37 22 3e 31 90 08 3f 03 16 0f 3f
       -0.22046462 0.15841389 0.5334502 0.5589296
0001b0 58 fd 29 3e d1 53 05 3f 40 91 09 3e 75 8a f7 be
       0.16600549 0.5208102 0.13434315 -0.48347822
0001c0 1c 10 99 be 29 0d 65 3f fd 45 01 bf 08 f4 a8 3d
       -0.29895103 0.89473206 -0.5049742 0.0824967
0001d0 79 5b e8 be 8b bb 8a be 8d b0 06 3e c3 93 8b 3e
       -0.45382288 -0.2709621 0.13153286 0.2726117
0001e0 99 4d a2 be a0 dd a0 be a4 6d 0e be 4d 50 92 3e
       -0.31699827 -0.31419086 -0.13909012 0.2857689
0001f0 7a e7 0e bc 19 b8 bd 3e af 5d 19 3f c2 4c e0 be
       -0.0087221805 0.37054518 0.59908575 -0.43808562
000200 fd ce a1 be d0 3c d4 be 72 8b bc be 6e 92 d3 3d
       -0.31603232 -0.41452646 -0.36825138 0.103306636
000210 c7 6b 17 be c6 fc 51 bf f4 f0 59 bf cc cb d1 3e
       -0.14787208 -0.82026327 -0.8513329 0.40975797
000220 c5 25 3c 3f 6b 4c 01 be a7 7f 8a be 6f 61 f4 be
       0.7349513 -0.12626807 -0.27050516 -0.47730586
000230 b5 f4 99 be 20 0f 05 bf 40 de da be 0c 25 b7 bc
       -0.3006951 -0.51976204 -0.42747688 -0.022356533
000240 f1 04 6f 3d 89 1c cb be 97 97 3d 3c 5e 96 86 bd
       0.058354322 -0.39670208 0.011571786 -0.06571649
000250 34 be 64 be b5 7f ac 3e b0 c0 f1 bc 78 0f 2b 3f
       -0.22338182 0.33691183 -0.029510826 0.6682048
000260 d1 4d d1 bd cf 3b 56 3e 55 ca 4c be ce ca 46 bf
       -0.102199204 0.20921253 -0.19999059 -0.77653205
000270 6c a3 86 be fc 25 47 bb f4 25 1f bf eb 10 3f 3f
       -0.26296556 -0.003038763 -0.62167287 0.7463519
000280 1c be 90 3e 30 5e 35 bf 2a 78 9d 3e 60 21 14 be
       0.28270042 -0.70846844 0.3075574 -0.14465857
000290 86 05 ea bd bd 02 84 be 10 0b 9b be 78 0f 48 3d
       -0.11426835 -0.2578334 -0.30281878 0.048842877
0002a0 b4 de 2e 3f 58 83 78 3f 5e 33 07 bf 02 1f e5 be
       0.6830857 0.97075415 -0.52812755 -0.4475022
0002b0 f4 3c 77 be e5 5e 1a bf a0 38 77 bf b7 21 53 3f
       -0.24144346 -0.6030105 -0.9657078 0.8247332
0002c0 db f6 24 3f 1c cb 42 3e 6b fc 14 be ff 6a 85 bd
       0.6443917 0.19022793 -0.14549415 -0.065145485
0002d0 68 65 47 3e d8 fd f8 3d d4 ec c9 be ca 38 2f 3e
       0.19472277 0.12157792 -0.39438498 0.17111507
0002e0 de 97 56 be b7 89 91 3d 67 66 fa 3e 9c 6c 1a bf
       -0.2095637 0.07106345 0.48906252 -0.60321975
0002f0 3c 05 02 be 6d de ae be 94 32 fb bd bd 39 3c 3d
       -0.1269731 -0.34154072 -0.122655064 0.0459535
000300 f4 6a 4c be d9 60 e4 3e ed 6e 2b be 73 58 e4 3d
       -0.19962674 0.4460514 -0.16741534 0.11149683
000310 9c ac 48 3e 0c ea c1 3e a4 88 ef be 58 c9 1b 3f
       0.19597095 0.37873876 -0.46783936 0.608541
000320 c9 c1 8f be 93 40 8c 3e 33 62 cc 3d 6b 57 13 be
       -0.28077534 0.27393016 0.099796675 -0.14388816
000330 f4 76 fe 3e 33 a2 82 be cf 32 13 be 4f 85 5a 3f
       0.4970013 -0.25514373 -0.1437485 0.8535966
000340 de 94 17 3f 93 70 ff be 0f aa 14 3f 1c aa c1 3e
       0.5921153 -0.49890575 0.5807199 0.37825096
000350 65 5a eb 3e 8f 06 56 3e 05 fa 5f be a4 eb 23 bf
       0.45967403 0.2090094 -0.21872719 -0.64031434
000360 f4 cc 4c 3e c5 07 43 bd a1 11 4c 3f 8c 3b 9e 3e
       0.20000058 -0.04761483 0.797144 0.30904806
000370 61 b1 00 3f 6b 46 7a 3f a5 07 72 3e b6 07 83 be
       0.5027066 0.977637 0.23635729 -0.2559182
000380 1f 35 ae 3e 73 04 e0 3e ac c8 e1 3e 5d 78 20 be
       0.34024903 0.43753394 0.44098413 -0.15670915
000390 ef 24 80 3f b1 a6 fd 3e 5a 7b 25 bf e4 ff e9 3e
       1.0011271 0.49541238 -0.64641345 0.45703042
0003a0 9c 31 ab 3e 00 39 de bd c1 d8 4f bf f9 6f 65 be
       0.33436286 -0.10850716 -0.81190115 -0.22405995
0003b0 e8 83 28 3e 68 90 37 3d 1f 61 cc be 40 8f 24 3f
       0.16456568 0.04481545 -0.39917848 0.6428108
0003c0 90 cc ce 3e eb 23 0c 3f 48 c4 be be fb 50 a7 be
       0.40390444 0.54742306 -0.37259126 -0.3267897
0003d0 86 72 59 bd 6b b0 35 bf 97 3e 16 bf 7d 38 04 3f
       -0.053087734 -0.7097232 -0.58689255 0.51648694
0003e0 96 45 b4 3e f9 c2 79 be 0d 0f a1 bd ae 20 c9 be
       0.3520934 -0.24390782 -0.07864199 -0.39282745
0003f0 2e 60 93 be 82 b8 02 be f1 67 04 3e a1 45 27 3f
       -0.28784317 -0.12765697 0.12930275 0.6534062

prescalers.Cases.bias f4 [32]
000000 87 34 cf 3e 68 02 83 bd e8 2a 82 38 e0 9e 94 3d
       0.40469763 -0.06396943 6.206875e-05 0.072568655
000010 fc e3 87 3e c8 07 02 3f ea 6d 8e bd 0f a5 04 3e
       0.26541126 0.50793123 -0.06954558 0.1295359
000020 dc 1c 61 3e f7 d3 aa be b0 25 cf be bf b4 13 bf
       0.21983665 -0.3336484 -0.4045844 -0.5769767
000030 26 a4 30 3d 78 97 39 be 38 42 f9 3d cd 56 3d 3e
       0.043125294 -0.18124187 0.12170833 0.18490143
000040 5f 7a 31 bd b0 c6 4e be 6d 52 3e bf 7c 54 8c bf
       -0.043329593 -0.20192981 -0.7434452 -1.0963283
000050 d7 aa 0a bf 90 22 08 bf ed a7 49 bf 9f 00 7c bf
       -0.5416693 -0.5317774 -0.7877186 -0.9843845
000060 98 7b 45 be ee 44 eb be 63 59 68 3d c7 5c 99 bd
       -0.19285429 -0.45951027 0.05672587 -0.07488399
000070 73 20 23 bf 7c 2b 07 bf c3 04 91 be f7 97 b2 be
       -0.6372139 -0.52800727 -0.28323945 -0.34881565

prescalers.Cases.bias f4 [16]
000000 ef 2c 22 3f 67 e7 65 3e 74 83 83 3f 27 bb ab 3f
       0.63349813 0.22451554 1.0274491 1.3416489
000010 65 09 6f 3f 64 62 9f 3f 50 9d 0a 3f 4e 06 5b 3e
       0.9337371 1.2451901 0.5414629 0.21389124
000020 20 77 22 bc 08 70 bb 3f c8 93 97 3f 85 e1 d2 3f
       -0.009916097 1.4643564 1.1841974 1.6475073
000030 31 34 ee 3e 0f 70 72 3f f1 88 53 3d 35 38 40 bd
       0.46524194 0.9470224 0.05164427 -0.046928603

prescalers.Cases.bias f4 [16]
000000 f7 56 0d 3e e2 86 dd 3c c5 85 19 3e 7a 0c 0a 3f
       0.13802706 0.027041856 0.14992435 0.5392529
000010 e7 58 22 3e 6c cd 42 3e 9b 23 dd bd a4 26 a6 bd
       0.15854226 0.19023675 -0.10797807 -0.08112839
000020 19 bb 96 bc 92 e9 c3 bd 31 59 6d be 78 f3 35 bf
       -0.018399762 -0.095660344 -0.23178555 -0.7107463
000030 7f d9 55 bc e5 ab 97 3c 30 7e 18 bd 65 b9 8f bb
       -0.013052343 0.018514583 -0.037229717 -0.0043861144

prescalers.Cases.bias f4 [8, 1]
000000 9e a8 b8 3e d8 3c cb be 23 93 3d 3f 3d 91 3b 3f
       0.36066145 -0.39694858 0.7405264 0.7326849
000010 cc 03 8b bf eb 66 06 3e 21 b3 62 bf 83 ae f5 3e
       -1.0860534 0.13125198 -0.8855458 0.47984704

prescalers.Cases.bias f4 [8]
000000 dc 5d 85 bd 39 b2 95 3e 4d 04 0f 3f 2d 3c 2a 3e
       -0.06512043 0.29237536 0.5586594 0.16624518
000010 34 44 ef be a0 4a 04 bf bc 28 7c bc e6 42 a7 3d
       -0.46731722 -0.5167637 -0.015390571 0.08167057

encoder_variable_selection.flattened_grn.resample_norm.mask f4 [3]
000000 ed 79 2a bf ef d2 b3 3d 37 05 b2 3e
       -0.66592294 0.08780467 0.34769604

encoder_variable_selection.flattened_grn.resample_norm.norm.weight f4 [3]
000000 ec 01 69 3f 9f 31 96 3f 49 1b 01 40
       0.9101856 1.1733893 2.0172904

encoder_variable_selection.flattened_grn.resample_norm.norm.bias f4 [3]
000000 b3 20 3b 3e ee 9b 72 3e 43 d2 24 bf
       0.18274193 0.23692295 -0.64383334

encoder_variable_selection.flattened_grn.fc1.weight f4 [3, 24]
000000 79 6f e3 3e 62 46 45 be 83 f5 26 3e b7 d0 1b 3d
       0.44420984 -0.1926513 0.16304593 0.038040843
000010 18 3b 6d 3d 24 f1 53 3e d6 bd 55 be 48 db 6a be
       0.057917684 0.20697457 -0.20873198 -0.22935212
000020 90 8d 22 bf fd ac 0f 3d 12 0c d8 bd 24 55 c2 bf
       -0.6349726 0.035077084 -0.10549177 -1.5182233
000030 4a 91 d6 bc a4 1a 88 3e d0 55 ef 3e c0 45 a5 3e
       -0.026192326 0.26582825 0.46745157 0.32279778
000040 df 21 1e 3f bd 5e 4e bf be 90 3c 3e b6 8d 88 3d
       0.61770433 -0.8061331 0.1841459 0.06667654
000050 ee 6a 55 3e 2b dd 9c bd 80 7a c4 3c 93 1b f4 3e
       0.20841572 -0.07659372 0.023984194 0.47677287
000060 91 1c 1c bc 28 19 60 3e e5 d4 09 bf 1e b8 a3 be
       -0.009528295 0.21884596 -0.53840476 -0.31976408
000070 59 4b 8c bd 22 ff 90 3e 87 64 cf bd a0 b5 c2 3e
       -0.06850309 0.2831965 -0.10126596 0.38029194
000080 60 8a 1a bf e0 81 9b 3e 9a 90 05 bf 15 2e 48 bf
       -0.60367393 0.30372524 -0.5217377 -0.78195316
000090 5a 99 2c be 64 1e 7b bd d0 67 b9 3d f0 e1 32 3e
       -0.16855374 -0.06130828 0.09053004 0.17469001
0000a0 80 75 73 be d0 f7 1e 3f 61 34 07 be ff 77 8d bf
       -0.23775291 0.6209688 -0.13203575 -1.1052245
0000b0 5f 20 1c bf 26 53 b2 3e 72 54 96 3e 2b c8 15 be
       -0.60986894 0.34829062 0.29361302 -0.1462714
0000c0 6d e5 6e 3e 0b f6 40 be 97 2d 6e be 5c c6 6e 3e
       0.23329706 -0.18843858 -0.23259579 0.23317856
0000d0 9a b3 60 3e df d6 1a 3f 67 11 0c be f1 ff 8c 3e
       0.21943513 0.6048412 -0.13678513 0.27539018
0000e0 cb 5a 31 bf 7e 07 91 3e e7 7d e9 3c 1f 65 14 bd
       -0.69279164 0.2832603 0.028502418 -0.03622925
0000f0 a4 b1 a5 bd b1 8f 61 3e 5d b3 1f 3f 1b 9e e5 3e
       -0.08090523 0.2202747 0.6238306 0.44847187
000100 d4 1f 33 be e9 7a 78 3f c1 16 b2 3e 8a 57 b1 bf
       -0.1749261 0.97062546 0.34782985 -1.385484
000110 35 f5 50 bf 9d ea 28 be 43 36 f4 bd fe 1c 13 be
       -0.81624156 -0.16495748 -0.11924412 -0.14366528

encoder_variable_selection.flattened_grn.fc1.bias f4 [3]
000000 47 73 87 be de 55 ad be d8 09 9c be
       -0.26455137 -0.33854574 -0.3047626

encoder_variable_selection.flattened_grn.context.weight f4 [3, 16]
000000 86 df f2 bc 9e 6a 27 3c 7e d0 3e bb aa cd 21 be
       -0.0296476 0.010218291 -0.002911597 -0.15801111
000010 bd 2d 72 3c 6b 74 4f 3d 8d b8 fa 39 63 46 67 3c
       0.014781413 0.050648134 0.00047821217 0.014115903
000020 a4 ab 23 ba 75 dd 28 3d 72 c8 8f 3c f5 fc 11 3c
       -0.0006243533 0.041226823 0.017551634 0.008910407
000030 a5 a6 b0 ba ad 89 aa bc ed d9 16 be e5 26 94 3c
       -0.0013477398 -0.020817602 -0.1473157 0.018084953
000040 b8 ad 27 3e 60 d8 a2 bd ac 40 ea 3c 32 57 17 bf
       0.16374862 -0.079514265 0.028595291 -0.59117424
000050 48 00 24 be 3e e2 6a 3f 49 5b 3c bd e5 8b 69 be
       -0.16015732 0.9175147 -0.045985494 -0.22807272
000060 b4 cd 9f 3d b7 80 e8 be 66 c4 ea bd aa 77 d1 bc
       0.07802907 -0.45410702 -0.11463241 -0.025569756
000070 05 a2 a9 bc 7f d0 7c 3d 70 83 0f bf 30 4b a7 be
       -0.02070714 0.061722275 -0.5605993 -0.3267455
000080 cf 37 81 bd 2e 03 bd 3c fa e7 bf bc 20 15 a6 be
       -0.06309473 0.023072805 -0.023426045 -0.32437992
000090 2c 52 91 3d 6a 91 1e 3f 12 5a c5 3d b1 ea 03 3e
       0.07095751 0.61940634 0.0963632 0.12882496
0000a0 01 ba 36 be 88 8f 62 3e cd 37 f4 3d 67 bf 41 bd
       -0.17844392 0.22125065 0.11924706 -0.047301676
0000b0 42 3f 83 3d 77 80 01 3e 03 ca 70 be 61 f1 55 3e
       0.0640855 0.12646662 -0.23514561 0.2089286

encoder_variable_selection.flattened_grn.fc2.weight f4 [3, 3]
000000 3d 66 14 bf 86 1d ac bf 41 dd 99 be f6 3f 96 be
       -0.57968503 -1.344651 -0.30051616 -0.29345673
000010 4b f7 93 bf 26 8b 99 be 6b 93 e2 be 8c d9 53 bf
       -1.1559843 -0.29988974 -0.44253096 -0.82753825
000020 f0 47 28 bf
       -0.6573477

encoder_variable_selection.flattened_grn.fc2.bias f4 [3]
000000 2e dd 8e 3e 32 df a2 3d 78 dd 16 be
       0.27903122 0.079527274 -0.14732921

encoder_variable_selection.flattened_grn.gate_norm.glu.fc.weight f4 [6, 3]
000000 cd 82 26 3e c5 50 18 be 9f 16 19 3f a0 8f c5 bd
       0.16260834 -0.14874561 0.5980014 -0.09646535
000010 43 b6 cc be 41 b1 dd 3e 92 8d 1b bf e2 3c 6d bf
       -0.39982805 0.43299296 -0.60762894 -0.92671025
000020 67 17 04 bf 85 d4 9c be c9 fc 06 bf 2d ba 18 3f
       -0.5159821 -0.3063089 -0.5272947 0.5965908
000030 b0 e1 25 3f b3 c9 bc be 0b 8d f8 be a8 b9 86 3f
       0.64797497 -0.36872634 -0.48545107 1.0525408
000040 12 d2 42 3f f1 de da 3e
       0.7610179 0.42748216

encoder_variable_selection.flattened_grn.gate_norm.glu.fc.bias f4 [6]
000000 a6 af 8d 3d 2f 43 37 3e 04 63 26 bf 11 0b ff be
       0.06918268 0.17896722 -0.64994836 -0.4981313
000010 94 07 eb be 3f 33 71 3e
       -0.4590422 0.23554705

encoder_variable_selection.flattened_grn.gate_norm.add_norm.norm.weight f4 [3]
000000 56 29 a1 3e dc e2 50 3c 34 50 71 3e
       0.3147685 0.0127494 0.23565751

encoder_variable_selection.flattened_grn.gate_norm.add_norm.norm.bias f4 [3]
000000 31 fa a7 3d 2e 5d d6 be 91 16 18 3f
       0.08202017 -0.41867965 0.59409434

encoder_variable_selection.single_variable_grns.SinWeekly.resample_norm.mask f4 [16]
000000 36 50 09 3d 3a f9 90 3e a0 32 ae 3e 13 e3 00 be
       0.03352376 0.28315145 0.34023 -0.12586622
000010 00 ca 7b be 39 f1 c5 be 4b 82 f3 3e a3 10 4d bf
       -0.24588776 -0.386606 0.47560343 -0.8010351
000020 d1 7b 2d bf 74 58 0f be 4d 8e b8 be f8 b1 12 be
       -0.67767054 -0.13998586 -0.36046067 -0.14325702
000030 d5 49 80 3e e2 a9 ee bd ce 2a 17 3f ae 0e 02 3c
       0.2505633 -0.11653496 0.5904969 0.00793807

encoder_variable_selection.single_variable_grns.SinWeekly.resample_norm.norm.weight f4 [16]
000000 7a 97 39 3f bb 7c 2b 3f 42 4d cb 3f fb bf 66 3f
       0.7249676 0.669872 1.5882952 0.9013669
000010 ed 59 7e 3f 24 03 67 3f 4c bb dd 3f 57 46 5e 3e
       0.99355966 0.9023917 1.7322783 0.2170652
000020 a4 6b 30 3c 5d bf 3b 3f cc ac 87 3f c7 42 9e 3f
       0.010767851 0.7333887 1.0599608 1.2364129
000030 9a e4 5b 3f 45 e1 82 3f 6b 90 03 40 b4 1c 4a 3f
       0.85895693 1.0224997 2.0556896 0.7895005

encoder_variable_selection.single_variable_grns.SinWeekly.resample_norm.norm.bias f4 [16]
000000 22 9d 73 3d 69 12 aa 3d f5 d4 87 be 06 34 03 3e
       0.059476025 0.08304293 -0.2652966 0.12812814
000010 93 53 ae 3d d5 05 96 be 99 c1 4a be 30 38 ea bd
       0.08512034 -0.29301324 -0.19800414 -0.11436498
000020 e9 be ee bd 6d 89 ea 3c e4 57 ca 3d ba 47 d9 3e
       -0.11657507 0.028629983 0.09880045 0.42437536
000030 19 59 5e bd d8 dd 9f 3c 6b 70 42 be 31 17 2d bd
       -0.05428419 0.019514963 -0.18988197 -0.042258445

encoder_variable_selection.single_variable_grns.SinWeekly.fc1.weight f4 [8, 8]
000000 28 93 32 3f 39 d4 db bf 97 f7 54 bf ac a0 13 c0
       0.6975579 -1.717414 -0.8319029 -2.3066816
000010 66 54 a7 be 74 a5 2a 3e f1 1a 41 3e f4 d6 bf 3e
       -0.32681578 0.16664678 0.18857934 0.37468684
000020 a9 e7 bb be 43 91 a3 3e 14 35 11 bf d1 1d 69 be
       -0.3670018 0.31946763 -0.56721616 -0.2276528
000030 ad f0 f6 be 37 aa 9a 3f ad 32 04 c0 0f c9 72 bf
       -0.48230496 1.2083195 -2.065593 -0.9483804
000040 c1 61 26 be 8c 2b c6 3d cc 31 3a bf 66 6d bf 3e
       -0.16248228 0.09676275 -0.72732234 0.37388152
000050 68 e1 88 bf 85 fb 0a 3f 1a 9c 2b 3f 01 bf 1d 3e
       -1.0693789 0.5429004 0.6703507 0.15404893
000060 2d dd 70 3e bd de 44 3d d8 e7 cf be 0e 1e 89 3d
       0.23521872 0.048063982 -0.4060657 0.066951856
000070 b2 8c 9f 3e 32 45 6a 3e 81 72 5e 3e 3b 25 12 3f
       0.3116203 0.22877958 0.21723367 0.5708806
000080 8d a8 06 bf e8 8d 87 be dc 60 9c 3f fa 37 08 be
       -0.5260094 -0.26475453 1.2217059 -0.13302603
000090 a3 aa 81 3e 74 73 2a 3f b4 d8 1f 3f f4 fe 5d bf
       0.25325498 0.6658242 0.6244004 -0.8671715
0000a0 a6 b9 39 3f 02 f4 87 be 53 ae 1e bf 0f 41 2b 3d
       0.725489 -0.2655335 -0.6198475 0.04181009
0000b0 4a 55 6d 3e 8d 05 a9 be a8 a5 d4 bd 27 6f 91 3e
       0.23177066 -0.33012047 -0.10383159 0.28405115
0000c0 86 83 96 bf 5b a3 e8 bd 29 f8 e8 bf 99 fd fa 3e
       -1.1758888 -0.113592826 -1.8200732 0.49021605
0000d0 a5 7c 4a bf 3b 92 04 3f 37 42 29 c0 65 c4 a2 bf
       -0.7909644 0.5178563 -2.6446664 -1.2716185
0000e0 a4 54 9f 3e b3 e1 1c 3d 57 e1 23 bf b5 ad 7b 3e
       0.31119263 0.03830118 -0.64015716 0.24577983
0000f0 1a 88 56 3f 9e c9 08 3f 5c f2 75 bd 28 2b ea 3e
       0.83801425 0.53432643 -0.060045585 0.4573605

encoder_variable_selection.single_variable_grns.SinWeekly.fc1.bias f4 [8]
000000 9e 20 ff be b9 08 90 be c0 90 55 bd 16 14 59 be
       -0.49829572 -0.28131655 -0.052139997 -0.21199068
000010 15 0b 3b 3d 2b 31 fb bc 34 14 de be ba fe ad bd
       0.045664866 -0.030663094 -0.4337479 -0.08495851

encoder_variable_selection.single_variable_grns.SinWeekly.fc2.weight f4 [8, 8]
000000 8a b6 99 bf 53 9a 4e 3e f8 ad 9d bf 83 b0 7e bd
       -1.2008832 0.20176058 -1.2318716 -0.062180053
000010 d8 a1 c9 be 6b 44 85 3d 1c a9 5e 3f 50 27 75 be
       -0.3938129 0.0650719 0.8697679 -0.23940778
000020 67 db 9a be cf 61 84 be 2a 1b 94 3e 6c 1a b8 3a
       -0.30245516 -0.25855872 0.28926975 0.001404596
000030 9b 0e d1 bd a5 58 b4 bc 8f 06 58 3f a0 24 4d 3e
       -0.10207864 -0.022014925 0.8438501 0.20033503
000040 ad 50 44 3f c6 bc 6e be 8f 3e 50 3e da 5a c2 bd
       0.766856 -0.23314199 0.20336364 -0.09489985
000050 1c d3 f9 3e e5 97 32 3b 30 ec 45 3f bf b3 d8 3e
       0.48793876 0.002725118 0.7731352 0.42324635
000060 87 e1 1a 3f 02 e8 42 3f c3 a5 e0 3e ef ed 0f 3e
       0.6050038 0.76135266 0.43876466 0.14055608
000070 d3 e1 7d 3e 17 2e 70 bd a7 ea 96 3e e8 bc 9c be
       0.24793176 -0.058637705 0.294759 -0.30612874
000080 40 38 9b bf 44 c7 7c 3f 34 03 18 bf 49 fe a2 3c
       -1.2126541 0.98741555 -0.5937989 0.019896643
000090 f3 c3 bf 3d 3a 4e 31 3c 99 1e c7 3e 5f 60 77 be
       0.09363546 0.010821873 0.38890532 -0.24157856
0000a0 62 f1 53 3f 6b 92 e5 be c6 26 45 be 1b 70 2b bd
       0.82790196 -0.4483827 -0.19253072 -0.04185496
0000b0 26 b8 25 bf 47 6c 1b 3d e4 6e db be e3 c3 9f be
       -0.64734113 0.03794506 -0.4285804 -0.31204137
0000c0 0c 63 b4 3d fc 4b 7b 3e 2c f1 85 3e 11 e1 5e be
       0.08807954 0.24540704 0.26160562 -0.21765544
0000d0 de d5 cd 3e 57 1c cf bc 8b 5b 23 3f a5 11 cb 3e
       0.4020223 -0.025282068 0.6381156 0.396619
0000e0 13 bd 58 3f 8b bb 82 3d 3c 5b e7 3e 93 a3 71 3e
       0.84663504 0.06383427 0.45186794 0.23597555
0000f0 5e 74 1a 3f 6f f6 d3 3c 7b 03 82 3f ff 0b c0 be
       0.6033381 0.025874345 1.0157312 -0.37509152

encoder_variable_selection.single_variable_grns.SinWeekly.fc2.bias f4 [8]
000000 88 60 b1 3d 5b 9a 57 bd 2c 84 00 3e 21 c8 9a 3e
       0.0866099 -0.05263744 0.1255042 0.3023081
000010 e7 ba 84 3e f2 5d 84 3d 33 f6 89 3e d4 d8 6b 3e
       0.25923845 0.06463231 0.26945648 0.23031932

encoder_variable_selection.single_variable_grns.SinWeekly.gate_norm.glu.fc.weight f4 [32, 8]
000000 16 3e f6 3d 33 98 c7 3c 50 fe 2c 3e 1a af 02 be
       0.12023561 0.024364566 0.16893888 -0.12762108
000010 d0 0c 77 3e 64 e6 f6 be 98 6d 70 3c a4 6e 33 3d
       0.24125981 -0.4822265 0.014674567 0.043806687
000020 19 3e d7 3c 3d 24 a0 bc 25 06 dc be 58 a6 6c be
       0.026274728 -0.01954853 -0.42973438 -0.2311033
000030 92 46 af 3e 40 a4 f2 3d d2 69 d8 3a 81 75 77 be
       0.34233528 0.118477345 0.0016511029 -0.24165918
000040 4f 14 06 3f f3 3c 7c 3e 08 bd 22 3e f7 ef 81 3e
       0.5237474 0.24632625 0.15892422 0.2537839
000050 6f d7 cf 3d d6 4f 67 be f8 81 54 bc 55 ea 54 3e
       0.101485126 -0.22589049 -0.01297044 0.20792516
000060 b0 0d 6c 3b 8a 35 73 be 52 12 7a be b9 d4 f8 bd
       0.00360189 -0.23750892 -0.24421051 -0.121499486
000070 1e 50 09 3d 5a 94 c6 bd 35 80 74 3d 4e 6b ee 3e
       0.03352367 -0.096962646 0.05969258 0.46566242
000080 ef 36 fd 3e 7d 94 ed 3e 6b 6d fb 3d 69 51 2b 3f
       0.49455974 0.4640235 0.12276729 0.669211
000090 0c 72 00 3f eb 6d 20 bf 16 58 3a 3f f3 1d c7 3e
       0.5017402 -0.6266772 0.7279066 0.38890037
0000a0 5b 9e d5 3e 14 0f c4 be 54 4b 5e be 06 9d 25 bd
       0.41722378 -0.38292754 -0.21708423 -0.040432952
0000b0 a8 82 77 be 2c 7e 16 be 8b d2 f6 bd e5 03 e5 3e
       -0.24170935 -0.14696568 -0.12051877 0.44729534
0000c0 44 9a 05 3f 20 a9 ee 3e b4 03 4f bf 62 1e 31 bf
       0.52188516 0.46613407 -0.80865026 -0.69186985
0000d0 ac d1 2b 3f 24 81 1a bf 48 2c b9 bd 7e ca 20 bf
       0.6711681 -0.603533 -0.09041649 -0.6280898
0000e0 99 0e 41 3b c5 6d 72 bd 5f 2b b1 3c af 39 2c bf
       0.0029458164 -0.059186716 0.021627126 -0.6727552
0000f0 4d 91 47 3d 9f bb ce 3c 75 72 13 be 1f aa 9b bd
       0.048722554 0.02523595 -0.1439913 -0.076008074
000100 18 6f 16 3f cb b4 09 3f 1d fd ba 3e bf fb 27 3f
       0.58763266 0.53791493 0.36521235 0.6561851
000110 ae bc 04 3f 58 c2 2b bf 43 98 1c 3f ec cd 11 3f
       0.518504 -0.6709342 0.6116983 0.56954837
000120 ce 57 fe 3c 7f 77 88 be d5 1b 50 3e 1f c4 25 be
       0.031047728 -0.26653668 0.20323117 -0.16188096
000130 5f 94 e5 3d a4 8f 02 be 87 e1 5a 3e 25 ac 66 3c
       0.1120994 -0.12750107 0.21375094 0.014079128
000140 d9 db 68 3e bf 26 af 3d 96 d1 ee 3e e1 4b 6b 3d
       0.22740115 0.08552312 0.46644276 0.05744541
000150 bd 0b 9e 3e fd 18 89 bd 88 dc 4a 3d 04 66 68 3e
       0.3086833 -0.06694219 0.04952672 0.22695166
000160 2e 58 b9 3e 76 6e b1 3e 7e 18 0a 3f 3d 27 3d 3f
       0.36200088 0.34654588 0.5394362 0.73888
000170 36 0b 96 3e 0f e6 1a bf 9b c2 1c 3f 34 a6 29 3f
       0.29305428 -0.6050729 0.61234444 0.6626923
000180 c2 d3 6b 3f c0 c3 60 3f 32 34 77 bf 61 d0 22 be
       0.9211999 0.8779869 -0.9656402 -0.15899803
000190 14 44 49 3f 68 f3 7a bf c5 de ce 3b f6 f2 79 bf
       0.78619504 -0.9802766 0.0063131773 -0.97636354
0001a0 25 91 8e be 9c 95 1c bf 05 6f 76 be c7 fe fe be
       -0.2784511 -0.61165786 -0.24065788 -0.49803755
0001b0 8c ec fa be 0e e8 12 3f 8b 39 20 bf da 36 14 bf
       -0.49008596 0.5738534 -0.62587804 -0.57896197
0001c0 8b 22 d8 be 36 be 03 bf 54 4c b2 3e 1a 5f fe be
       -0.42213854 -0.51462114 0.3482386 -0.49681932
0001d0 e2 bb af be a3 28 b8 3e 6f 45 6b bf 50 29 a4 be
       -0.3432303 0.35968503 -0.9190282 -0.3206277
0001e0 1e b9 86 3e 5c 0c 0d bf 27 97 70 be 7b 70 8e be
       0.26313108 -0.55096984 -0.2349516 -0.2782019
0001f0 50 da a9 bd 64 54 a9 be 32 be 49 3d ff db 62 be
       -0.08293593 -0.33072197 0.04925365 -0.22154234
000200 2b 14 2b 3e fd 9b 49 be 98 f0 f9 3c 25 f7 0c 3f
       0.16706912 -0.19688411 0.030510232 0.5506461
000210 9a 04 33 3e a7 da d0 be c3 2f 02 be d7 8a 5c bf
       0.17482224 -0.40791818 -0.12713532 -0.8614935
000220 8b 90 54 3e 82 5e 09 bf 96 1a b4 be 37 f5 72 be
       0.20758264 -0.5365983 -0.35176533 -0.23726355
000230 fe ac 4c 3e 6c d7 4e 3e 06 75 27 bf f0 09 ea be
       0.19987866 0.20199364 -0.6541294 -0.45710707
000240 3a df c1 3e bc a0 7c be c4 fc 5a 3d 74 5f 40 be
       0.3786562 -0.2467069 0.053463712 -0.18786412
000250 9b 51 03 3e 98 12 57 be 58 d7 ba 3d b3 f3 07 3e
       0.12824099 -0.21003187 0.09123105 0.13276558
000260 bb c2 e6 3d 43 48 02 3f 62 9e 41 3e cb 4b ea bc
       0.11267611 0.5089151 0.18908074 -0.028600594
000270 eb bd 90 be ce d6 06 bd 00 41 26 be ba 4e 05 bf
       -0.28269896 -0.032919697 -0.16235733 -0.5207325
000280 91 fc 2d 3f aa fc 60 3f 87 1a 0d bf d5 5b 36 3e
       0.6796351 0.87885535 -0.551186 0.17808469
000290 bc ee 0f 3f ae 78 1d bf 39 52 0a 3f a9 b0 95 bc
       0.56223655 -0.6151227 0.5403171 -0.018272715
0002a0 c9 bf dd bd 42 fc 34 3e 15 cf ac 3e a5 7d 03 3e
       -0.10827596 0.17674354 0.3375174 0.12840898
0002b0 06 e9 49 3d d8 e9 1a be f7 51 05 3f dd 52 4c bf
       0.049294494 -0.15128267 0.52078193 -0.7981394
0002c0 df fc 04 bf eb f7 f3 be 6e f2 b3 3e 76 0c 5c 3e
       -0.5194835 -0.47650084 0.35145897 0.21489128
0002d0 74 0c 17 bf d2 7a d2 3e dd e7 d0 3d 75 8d 0d 3f
       -0.59003377 0.4110933 0.102004744 0.5529397
0002e0 b2 b4 1c be db 8d bb 3e 82 a0 b5 be cd be c7 bd
       -0.15303305 0.36631665 -0.3547402 -0.09753189
0002f0 93 8f 40 3e 34 2a ba be c5 9e 81 bd a0 ef f5 be
       0.18804769 -0.36360323 -0.06329111 -0.48034382
000300 18 0b a7 3e fd 71 2d 3d b2 0a a2 bc 83 e0 92 3d
       0.3262565 0.042345036 -0.01978049 0.071717285
000310 47 8a d3 3e 0c 9f a1 be 28 16 d5 3d 68 ef 8c 3d
       0.41316435 -0.31566656 0.104046166 0.068816006
000320 71 29 88 3c 4e 19 6a be 53 e7 81 be 46 da 32 3d
       0.016621323 -0.22861215 -0.253718 0.043665193
000330 4a c5 15 3e 0b 84 03 be 31 2e 08 be 18 99 a8 bd
       0.14626041 -0.12843339 -0.1329887 -0.08232325
000340 bc 41 18 3f 71 01 48 be d8 07 01 bf 02 ab aa be
       0.594753 -0.195318 -0.50402594 -0.33333594
000350 ab b5 13 3f 4e bc 95 3e 76 b9 cb be b4 5a b2 be
       0.5769908 0.29245228 -0.39789933 -0.34834826
000360 c6 c7 d4 3e c3 88 39 3e 87 8f 01 be 45 80 aa 3d
       0.41558665 0.18118577 -0.12652408 0.08325247
000370 f1 89 0f 3f e6 d7 97 be 0d ad 60 3e 67 80 f1 3a
       0.56069857 -0.29656905 0.21941014 0.0018425108
000380 a6 74 6d bf a6 ed 3b bf ba cb 60 3f d5 f1 d6 3d
       -0.92756116 -0.734095 0.8781086 0.104953445
000390 e2 e4 50 bf 58 58 49 3f 8f d0 c8 bd cb 4c 5c 3f
       -0.8159925 0.78650427 -0.098054044 0.86054677
0003a0 30 a3 5c 3e 12 f7 74 3f 20 02 a0 be eb 73 10 3f
       0.21546626 0.956895 -0.3125162 0.56426877
0003b0 4c 38 5c 3f 23 5b de be d2 27 e7 3e b0 ef b0 3e
       0.860234 -0.43428907 0.45147568 0.34557867
0003c0 54 c3 2f be bb c8 66 3e 31 e4 32 bd ab 3a a1 3e
       -0.17164356 0.2253751 -0.04367465 0.31490073
0003d0 fe 26 27 3d d4 50 15 bf 94 3a c2 3e 3c 0c 84 3f
       0.04080867 -0.5832646 0.37935317 1.0316234
0003e0 53 80 86 3e 62 d8 12 3f 55 a0 94 be 09 71 a3 3d
       0.2626978 0.57361424 -0.29028574 0.07980544
0003f0 a3 23 1c 3f a9 35 2a bd 6a a5 94 bd c9 e6 93 be
       0.6099188 -0.04155508 -0.07258113 -0.28887013

encoder_variable_selection.single_variable_grns.SinWeekly.gate_norm.glu.fc.bias f4 [32]
000000 56 84 8d 3e 9a 74 76 3e 30 67 a1 be 9f b8 f8 3d
       0.27640027 0.24067917 -0.31524038 0.12144589
000010 0e 80 c7 3e 0f 7d b7 be ee e3 91 be e6 e1 ca bd
       0.38964885 -0.358376 -0.2849421 -0.09906368
000020 5c 02 9a bb 72 af e7 3b 1d ec 7d bc fb 6a fc 3e
       -0.0046999883 0.0070704753 -0.015498188 0.4930037
000030 ff 61 ea be 9d 20 b4 be d2 2b fb be d8 78 1f bd
       -0.4577789 -0.35181132 -0.4905687 -0.038933605
000040 b2 c6 ca bf a8 87 94 bd 35 4e ab 3d 99 d9 c3 bf
       -1.5841887 -0.07252437 0.08364526 -1.530078
000050 73 a4 cf 3e 18 dd 06 bf 12 44 62 3e 3f ef 84 bd
       0.40555152 -0.5268111 0.2209628 -0.06490945
000060 f9 92 00 3f ce bf cf bf ca b4 e2 be b9 2a 62 bd
       0.5022426 -1.6230409 -0.44278556 -0.055216525
000070 81 1b 84 bd 1f 05 d4 3d 41 04 64 3f f0 75 66 be
       -0.064505585 0.10352539 0.8906899 -0.22505927

encoder_variable_selection.single_variable_grns.SinWeekly.gate_norm.add_norm.norm.weight f4 [16]
000000 1f 93 21 3e 92 f2 3c 3f aa a2 d6 3f 63 ea f9 3e
       0.15778778 0.7380763 1.6768391 0.48811635
000010 61 b4 58 3f 10 bf 12 3f f1 46 c2 3f 14 32 4c 3e
       0.84650236 0.5732279 1.51779 0.19940978
000020 aa 5b 97 3f 46 de 0a 3f 2d db 98 3f 01 da e6 3f
       1.1824849 0.5424541 1.1941887 1.803528
000030 88 b8 61 3f 2c cb 92 3f 33 03 b4 3f 3d d6 54 3f
       0.881722 1.1468253 1.4063476 0.831394

encoder_variable_selection.single_variable_grns.SinWeekly.gate_norm.add_norm.norm.bias f4 [16]
000000 2e a4 9d bd a0 40 48 3e 07 db 43 3d 82 86 a5 3e
       -0.076973304 0.19555902 0.047816303 0.32329184
000010 0d 14 f6 3c fd 01 71 be 9b 10 b6 3d 0c 42 8a bd
       0.030038858 -0.23535915 0.08889886 -0.06750879
000020 6a 96 0f 3e 5c 4a 5b bd 01 07 a1 be 00 92 63 3e
       0.14022222 -0.05353771 -0.31450656 0.22223663
000030 f5 eb 0a 3e a6 3f 4c 3d 7f 21 8c bd af fa ce 3d
       0.13566573 0.049865387 -0.068423264 0.10106408

encoder_variable_selection.single_variable_grns.VaccinationFull.resample_norm.mask f4 [16]
000000 bc bf 1f bf 28 24 6e bf ae c0 9f 3e 15 6c c3 bf
       -0.6240194 -0.9302392 0.3120169 -1.5267359
000010 77 5f 90 3f 5d 1b 78 be 1b df 94 bf 70 5d f6 3e
       1.1279134 -0.24229188 -1.1630586 0.48118162
000020 27 16 3a 3d b9 c0 3c bf 62 ff 0b bf b6 76 fa 3e
       0.045431282 -0.7373157 -0.5468656 0.48918694
000030 56 3d de be 0c 9e 13 3f 9b 1f c5 be f8 39 89 be
       -0.4340617 0.57663035 -0.38500676 -0.2680204

encoder_variable_selection.single_variable_grns.VaccinationFull.resample_norm.norm.weight f4 [16]
000000 53 f6 e3 3e 82 8e 21 3f d0 ce b6 3f e8 28 28 3e
       0.44523868 0.63108075 1.4281864 0.16421854
000010 1e 79 1a 40 a6 6f 81 3f 6b 25 91 bd 53 76 e4 3f
       2.4136424 1.0112197 -0.07087215 1.784861
000020 b5 c0 96 3f 0c 7a c5 3e ab 4b b6 3e fc b9 d6 3f
       1.177756 0.38569677 0.35604605 1.6775508
000030 61 80 28 3f 9f d0 d6 3f 3d 70 ec 3e f7 42 70 3f
       0.6582089 1.6782416 0.4617938 0.9385218

encoder_variable_selection.single_variable_grns.VaccinationFull.resample_norm.norm.bias f4 [16]
000000 e0 fc c4 bb 95 b2 23 3e 1d 52 a1 3e ab 18 80 3e
       -0.0060115904 0.15986092 0.3150796 0.2501882
000010 65 6c 31 3e de be 7f be 2f ab bc be b2 b1 8a 3e
       0.17326505 -0.24975154 -0.36849353 0.27088696
000020 2d ec b4 bc 58 9d 9b be cd b6 91 3d 89 39 50 be
       -0.022085274 -0.3039348 0.071149446 -0.20334448
000030 94 59 90 3e 41 34 09 bf 90 4e 03 3f 8b 6e 07 3e
       0.28193343 -0.5359536 0.5129175 0.13225763

encoder_variable_selection.single_variable_grns.VaccinationFull.fc1.weight f4 [8, 8]
000000 f0 f3 d9 3e 94 15 64 be aa 4c 58 bf ef 4f 05 be
       0.42568922 -0.22273856 -0.8449198 -0.13018773
000010 b2 1b 7e 3f 7d 99 0c 3e c1 90 13 bf 09 7e a2 bd
       0.9926101 0.13730426 -0.5764275 -0.079341955
000020 68 d3 3f 3e f0 ba de be 9c 04 83 bf 6d 73 71 bf
       0.18732989 -0.43501997 -1.0235782 -0.9431675
000030 58 96 3e 3e dc 54 08 3e 13 3f 9e 3f 08 18 42 3e
       0.18612039 0.13313621 1.2362999 0.1895448
000040 0b 33 30 3e 81 0d 0d bf b7 3a ec bb 4c cd 64 be
       0.17206971 -0.5509873 -0.007209148 -0.2234394
000050 a9 02 ee be 66 68 97 3e 39 ad 84 be cf 1a 21 bf
       -0.46486405 0.29571837 -0.25913408 -0.6293153
000060 07 9a 21 be f3 59 5d bf ed 14 f5 be 3f f2 c5 3e
       -0.15781413 -0.86465377 -0.47867528 0.38661382
000070 40 dc 22 bf 83 71 23 3f c7 34 e5 3d d7 81 ca 3b
       -0.63617325 0.6384508 0.11191707 0.006180029
000080 57 dc 26 bd fc 77 db 3e 8c 3b 9f be 1f 0c 2b ba
       -0.040737476 0.42864978 -0.31100118 -0.00065249385
000090 d6 75 03 3e 3b 29 ab 3f ae da c2 3f 18 85 d8 3f
       0.1283792 1.3371958 1.5222986 1.6915617
0000a0 6d 16 45 be 56 c0 3e 3f 48 d0 ba 3e b1 57 63 be
       -0.19246836 0.7451223 0.3648703 -0.2220142
0000b0 d4 0e 7b bf a0 2e 5e bf a8 c0 56 bf 0d f8 dd bf
       -0.980695 -0.86789894 -0.8388772 -1.7341324
0000c0 f6 db 36 bf 95 89 bc 3e 52 c7 83 bd 52 56 ed 3d
       -0.71429384 0.36823717 -0.06434502 0.1158873
0000d0 e0 61 8e 3f 7b 31 8f bc 3b e8 a1 3e a9 96 6a 3e
       1.1123619 -0.017479649 0.3162249 0.22909035
0000e0 5b 64 a6 3e d7 c4 8c bd 39 5f 23 bf 05 97 62 be
       0.3249844 -0.06873482 -0.63817173 -0.22127922
0000f0 4e 71 b8 be f2 66 89 bf da a9 6f be e3 8d b6 bf
       -0.36023945 -1.0734541 -0.23404637 -1.426205

encoder_variable_selection.single_variable_grns.VaccinationFull.fc1.bias f4 [8]
000000 30 53 b7 3e f7 72 4f 3e 91 39 c3 bd f7 13 03 3e
       0.35805655 0.202587 -0.09532464 0.12800585
000010 c8 5f 22 bd ae 08 f1 be 5a 31 68 3c db d8 fe bd
       -0.039642125 -0.47076935 0.014171923 -0.12443706

encoder_variable_selection.single_variable_grns.VaccinationFull.fc2.weight f4 [8, 8]
000000 f7 15 98 be 38 e6 a7 bd 2d e5 f8 3d c6 34 e2 be
       -0.29704258 -0.081982076 0.12153087 -0.44180888
000010 c4 2a 8b bf 39 dc e3 3e f6 65 22 bf 6e 5a ae 3d
       -1.0872426 0.44503954 -0.6343683 0.08513342
000020 3c 3b 4f 3f e5 cb 6e bf fb 80 a0 ba 79 5f 47 be
       0.8094976 -0.9327987 -0.001224547 -0.19470014
000030 54 17 62 bf 78 63 39 bf a7 fb a8 3e d5 fd b7 bd
       -0.88316846 -0.724174 0.33004496 -0.089839615
000040 86 7b cb bf cb f9 dd 3d 28 9d e7 bc 53 36 1b 3f
       -1.5897071 0.1083866 -0.02827318 0.6062977
000050 7d 69 99 be 97 c8 02 3f 88 3f 67 3e e4 ca f6 3e
       -0.29963294 0.51087326 0.22582829 0.48201668
000060 5a 24 5b 3d 6c 5a e6 3e ab bb b3 3d a4 43 d4 be
       0.053501464 0.4499086 0.08776029 -0.41457856
000070 47 04 c7 3f a0 c0 16 bf 81 0e 5b be c1 35 8b bd
       1.554818 -0.5888767 -0.21392252 -0.06797362
000080 af b6 b9 3a db 81 5b be 93 10 90 3d 2a 61 41 3e
       0.0014168824 -0.21436255 0.07034411 0.18884721
000090 a2 2c c9 3e 9c dd 07 3f 83 3e 2f bf 60 ee 41 3f
       0.39291865 0.53072524 -0.6845476 0.75754356
0000a0 b7 a8 52 be 2d cb 4e 3f aa 96 54 3e 88 38 e2 3e
       -0.20572172 0.8077877 0.20760599 0.44183755
0000b0 6c 63 2c 3f a4 f6 7c 3e 7f d3 2e bd c2 98 5d bf
       0.67339206 0.24703461 -0.042682167 -0.86561215
0000c0 7c 32 1e 3f 5d 05 99 be b3 b5 28 3e 88 a9 21 3f
       0.61795783 -0.29886904 0.16475563 0.6314931
0000d0 79 7f 08 3e 02 a4 28 bf a8 fc fc bd 98 77 5f 3e
       0.13329877 -0.65875256 -0.12352878 0.21822965
0000e0 b5 e2 09 3e c2 d0 91 bd 88 c8 1e be 5f 7c 9a 3e
       0.13465388 -0.071198955 -0.15506184 0.30173013
0000f0 0d 96 27 bf b4 cf 21 bf ce d1 50 3e 1b 9e 6a be
       -0.65463334 -0.63207555 0.20392534 -0.22911875

encoder_variable_selection.single_variable_grns.VaccinationFull.fc2.bias f4 [8]
000000 9f ed 3e be 00 3b d0 3e bd a4 65 be 7e ce 85 be
       -0.18645333 0.40670013 -0.22426124 -0.26134104
000010 30 8f 98 3d bd cd da bc 46 2a ee 3e dc 81 f5 3e
       0.07449186 -0.026709432 0.46516627 0.47950637

encoder_variable_selection.single_variable_grns.VaccinationFull.gate_norm.glu.fc.weight f4 [32, 8]
000000 67 fc 24 be 31 6b 5a 3f 01 9b 97 3d 23 33 c7 3e
       -0.16111909 0.8531981 0.074026115 0.38906202
000010 30 54 d7 be c5 2d a1 3e df 63 c8 3e 95 cb 60 3e
       -0.42056417 0.31480232 0.39138696 0.2195266
000020 11 25 0c bf ce f6 f5 3d ac e3 09 bf 99 40 97 3e
       -0.5474406 0.12009965 -0.53863025 0.29541472
000030 fa fe 66 be 32 90 9f 3e 72 ba 1a 3f d7 d7 f3 bc
       -0.22558203 0.311647 0.6044074 -0.029766006
000040 57 bc 9d 3e 38 7c e1 3c 95 f7 aa 3e ba 72 59 be
       0.30807754 0.027525052 0.33392015 -0.21235171
000050 d3 b7 82 3e ee 4f 28 3d 87 0e b4 be 2c 20 64 bd
       0.25530872 0.041091852 -0.35167333 -0.055694744
000060 28 b4 90 bf 77 2e b9 3e e4 75 3d bf 17 d9 31 3f
       -1.1304979 0.36168262 -0.7400801 0.6947188
000070 7b a9 8f bf b5 cb 1a 3f 8e d8 8c 3f 05 46 5f 3f
       -1.1223596 0.6046708 1.1003587 0.87216216
000080 ed 92 87 3f b1 38 45 3d ef 21 87 3f de a6 a6 bf
       1.0591713 0.04814977 1.0557231 -1.3019674
000090 e0 4f 47 3f 7c a3 48 bf 48 d7 61 bf 4f 8d ba 3d
       0.77856255 -0.7837446 -0.8821912 0.09108984
0000a0 bf 09 99 3e 7c d0 26 be 54 17 ee 3e 10 14 c7 be
       0.29890248 -0.16290468 0.46502173 -0.38882494
0000b0 5e 78 d8 bc a7 b3 0b 3c ca 3a 53 be 21 f1 84 3d
       -0.026424583 0.008526719 -0.20627895 0.06491304
0000c0 d9 f2 5c be 2e 91 61 be 2a 20 63 3e 80 cd da 3e
       -0.21577014 -0.22028038 0.22180238 0.4273491
0000d0 c8 ce b6 3d a0 ea 15 3f cd 73 43 3d 0c 72 a8 bd
       0.08926159 0.58561134 0.047717858 -0.08224878
0000e0 23 d3 9f bd 19 a3 4c 3f ae 44 18 be c5 1e e8 be
       -0.07803943 0.7993637 -0.14869949 -0.45335975
0000f0 bb 96 71 3e 6c 0a 22 bf d7 ea b3 3e d5 0d c0 3d
       0.23592655 -0.6329715 0.35140106 0.09377638
000100 c9 56 23 bf 40 1d 18 3f fd 6a f5 be 45 65 c5 3e
       -0.638043 0.5941963 -0.47933188 0.38553825
000110 98 48 4f bf 6e 07 98 3e eb 61 2b 3f af 24 40 3f
       -0.80970144 0.29693168 0.66946286 0.75055975
000120 50 96 31 bc 35 12 9e 3e 9e 22 d3 3d db c2 60 be
       -0.01083906 0.30873266 0.10309337 -0.21949331
000130 bb 95 bb bd 85 63 8f be 8a de e1 be c7 2e 24 be
       -0.09159418 -0.28005615 -0.44115096 -0.16033469
000140 25 af a0 bd d3 90 38 3e 19 af 21 3e 47 64 d0 bc
       -0.07845906 0.18023996 0.1578945 -0.025438441
000150 48 6b b9 3e a6 fa c0 3d 65 65 4e 3e 85 a0 81 bd
       0.36214662 0.094228074 0.20155866 -0.06329445
000160 16 30 c8 be 92 23 41 bf 77 70 f6 3c 40 bc 96 3e
       -0.39099187 -0.754449 0.030082924 0.29440498
000170 c5 2a 30 3d bb 32 b8 3e bf f5 2d be 4a 3d ed bc
       0.04300954 0.35976204 -0.16988276 -0.028959889
000180 62 ed c6 be d5 82 3c 3f 77 70 8a be 9a 41 10 bf
       -0.38852984 0.73637134 -0.2703893 -0.563501
000190 38 5b 0b bd 59 a0 a1 be 87 f7 0c bc bd 3d bb 3e
       -0.03402254 -0.31567648 -0.008603937 0.3657054
0001a0 f7 9f ea bd 91 05 b1 bf 94 ab 8d 3a 6c 2b 04 3f
       -0.11456292 -1.3829824 0.001080858 0.51628757
0001b0 77 9b 85 bd 0c 37 22 3f 7d c9 c3 bd ad ad af be
       -0.06523793 0.63365245 -0.09559915 -0.34312192
0001c0 06 9a 06 bf 66 aa 24 3f 1d 89 09 bf bd 48 a7 3e
       -0.5257877 0.6432251 -0.53724843 0.32672682
0001d0 3f 14 a5 be f8 bc a9 bc 33 9a dc 3e aa 73 30 3f
       -0.3224201 -0.02071999 0.43086395 0.6892649
0001e0 09 7c 81 be 7a c6 c6 be fe 8a 33 3e 3c 6d cf 3d
       -0.25289944 -0.388233 0.1753349 0.10128257
0001f0 ea d5 b4 3d 99 76 ba bd 9d e1 2f 3e 32 a0 00 be
       0.08829863 -0.09104652 0.17175908 -0.1256111
000200 32 aa d2 3e fc ee fd be 49 f2 53 3f 28 8c 7d bd
       0.41145474 -0.49596393 0.8279157 -0.06190124
000210 a3 01 5b 3c 34 37 9b 3e 63 2b a5 be bd bf 0d bf
       0.013367089 0.30315554 -0.32259664 -0.55370694
000220 71 15 37 be 07 2e 9f bf ca 38 18 3e 3f 3d 8f 3e
       -0.17879273 -1.2435921 0.14865413 0.27976415
000230 77 15 7e 3d 7e 43 87 3f 02 8f 21 be e3 d6 0b bf
       0.06203219 1.0567472 -0.1577721 -0.54624766
000240 8a b1 af 3b 5d 1e d5 3d 29 ec 2f be 46 fa 38 3f
       0.0053617405 0.10406182 -0.17179932 0.72256887
000250 e4 7c 63 be 03 d1 89 3f 57 3b 9f 3e ab 33 41 3f
       -0.2221561 1.076691 0.3109996 0.75469464
000260 93 eb fc 3e 75 c1 4a 3e d0 61 28 3e cf bf 51 bf
       0.4939848 0.1980036 0.16443563 -0.819333
000270 ec 89 12 3e 07 8a c3 be c8 e0 a3 be f4 81 4c be
       0.14310426 -0.38191244 -0.32007432 -0.19971448
000280 26 9e d5 be da 48 cc be 55 2e 45 be e2 9a 11 40
       -0.4172222 -0.3989933 -0.19255956 2.2750783
000290 cf 2b 87 be ea 46 80 3f 87 bb b9 bd 39 59 ea 3d
       -0.2640061 1.0021641 -0.09068971 0.11442799
0002a0 04 5d 05 3e 5a 9c 2d bf 9b 47 5a 3f 2c a9 71 bd
       0.13023764 -0.678167 0.8526551 -0.058999225
0002b0 dd 22 58 3e b8 5a 5d 3d dd fc 2c bf d9 42 09 3e
       0.2110705 0.054041594 -0.6757334 0.13404407
0002c0 f7 db 82 3f 64 96 74 3e 86 8f 01 3d f8 db 1a be
       1.0223378 0.23885494 0.031631015 -0.15122974
0002d0 6e f7 6e 3d 14 ac 3d be 34 13 1e bf e7 37 46 be
       0.058341436 -0.18522674 -0.6174805 -0.19357263
0002e0 10 d3 ae 3e 79 a0 0e 3f 00 23 9a 3e 7a d2 cb bd
       0.34145403 0.5571361 0.30104828 -0.099522546
0002f0 9f b3 d0 be 7d d7 a9 bf 53 db 40 bd ac bd e3 3d
       -0.4076204 -1.3268887 -0.047084164 0.111201614
000300 57 7f 93 3e b2 a4 bc be 1b cc 41 3f 00 ec 35 be
       0.2880809 -0.36844403 0.75702065 -0.17765808
000310 69 e4 c3 3e 0a 3b 71 be 80 56 ab bc 03 45 4e bf
       0.382602 -0.23557678 -0.02091527 -0.80574054
000320 b6 13 94 3e a2 7f 9c bc d2 b8 92 3e 53 3b 4a bf
       0.28921288 -0.019103829 0.28656632 -0.7899677
000330 74 8b a0 3e 91 68 4d be 98 24 3b be c3 7c 87 3d
       0.31356394 -0.2005942 -0.18275678 0.06615593
000340 82 00 1a 3f cd ed ec 3d f2 12 51 3f 6c ff 34 bf
       0.60157025 0.115687944 0.81669533 -0.7070224
000350 9b 34 5b 3f 0d 72 42 bf cd d8 30 bf 35 dc 19 bf
       0.85627145 -0.7595528 -0.6908081 -0.60101634
000360 22 de 1b 3f 34 5c cd 3e 80 5d b9 3e c7 46 88 bf
       0.6088582 0.40109408 0.36204147 -1.06466
000370 c4 24 86 3e a0 ea 5c bf 91 b4 95 be 84 d7 d0 be
       0.26199925 -0.8629551 -0.29239324 -0.40789425
000380 f4 a8 8c 3d 3e 0e 73 3f b9 70 9c be 45 53 55 3e
       0.06868163 0.94943607 -0.3055475 0.20832546
000390 82 dd 29 bf 37 b0 59 3e d2 11 79 3d aa 90 b3 3e
       -0.6635362 0.21258627 0.06080801 0.35071307
0003a0 7c f4 fa 3e 68 10 3f bf 93 79 17 3f 0d eb ce be
       0.49014652 -0.7463441 0.5916988 -0.40413705
0003b0 f5 40 bd 3e 26 55 8f be 57 9b 67 bf 67 af 79 be
       0.3696362 -0.2799465 -0.90471405 -0.24383317
0003c0 29 05 0b 3f 1a be 51 be ff d9 c2 3c 4c 5f 1c 3e
       0.5430475 -0.20482674 0.02378559 0.15270728
0003d0 18 72 14 be ab ac c3 be f8 7a 47 be a5 a8 76 be
       -0.14496648 -0.38217673 -0.19480503 -0.2408777
0003e0 ac 5d 15 bf c2 71 9c 3e df a5 33 3e ce b3 2d 3f
       -0.58346057 0.3055554 0.17543744 0.67852485
0003f0 cc b0 91 be 4e a5 43 3e fb 08 6d 3e ca 29 2a bf
       -0.28455198 0.19106027 0.23147957 -0.66470015

encoder_variable_selection.single_variable_grns.VaccinationFull.gate_norm.glu.fc.bias f4 [32]
000000 3d 26 b8 3e 40 47 d0 3e 5e ba 0d bf c6 1f ef be
       0.35966673 0.4067936 -0.553625 -0.4670393
000010 20 d6 4a bf f2 4a 30 be 4f d8 c8 be ed d2 16 3f
       -0.7923298 -0.1721609 -0.3922753 0.589156
000020 99 34 8b be 51 6e a0 3d 00 1c 04 3f e0 4a 0d bf
       -0.27188566 0.07833541 0.51605225 -0.55192375
000030 39 37 b0 3d ce 3b 8d bf b5 b8 74 3e 18 b6 87 3c
       0.08604283 -1.1033876 0.23898585 0.016566321
000040 c3 3f 19 bf 9c bf c6 bb f6 e3 15 bf af fa 15 3f
       -0.5986292 -0.006065322 -0.58550966 0.5858564
000050 1a 14 1b bf fa 9a 8e bf 4a d1 31 3d 0a d6 c6 3e
       -0.6057755 -1.1141045 0.043412484 0.38835174
000060 7d 26 6e 3e b3 4a 13 3f 25 27 6d 3e a2 4a 01 3f
       0.2325687 0.57535857 0.23159464 0.50504506
000070 1a e9 61 be 27 a2 f0 be a4 ea 17 be 3c a6 30 be
       -0.22061577 -0.46998712 -0.14835602 -0.17250913

encoder_variable_selection.single_variable_grns.VaccinationFull.gate_norm.add_norm.norm.weight f4 [16]
000000 f4 b4 da 3e 91 bf 53 3f be fd a0 3f 43 c6 96 3f
       0.4271618 0.8271418 1.2577436 1.1779255
000010 75 8b 9e 3f fb 31 58 3f 90 e0 03 3f 6c 62 ab 3f
       1.2386309 0.84451264 0.5151453 1.3389411
000020 da a6 9f 3f 63 b5 ba 3e 0a 47 e4 3d 89 e9 91 3f
       1.2472794 0.36466512 0.11146362 1.1399394
000030 84 43 53 3f b0 f8 9a 3f ac 7a 85 3f 85 07 9e 3e
       0.82524896 1.2107143 1.0428061 0.30865112

encoder_variable_selection.single_variable_grns.VaccinationFull.gate_norm.add_norm.norm.bias f4 [16]
000000 b5 a8 35 bc 67 e8 a9 3e 88 44 42 3e 5e 04 9f 3e
       -0.011087586 0.3318512 0.18971455 0.3105802
000010 05 97 6f 3e 17 d9 1c be fe 17 fe bd a5 d1 e0 bd
       0.23397453 -0.15317188 -0.1240692 -0.109774865
000020 a7 b9 13 bd 6f 81 79 be 2d 3a 33 be db 76 82 3e
       -0.036065724 -0.24365781 -0.17502661 0.25481305
000030 20 ab 46 3d 77 7b 5e be 4d 14 00 3e c8 96 e5 3d
       0.04850304 -0.21726786 0.12507744 0.112104

encoder_variable_selection.single_variable_grns.Cases.resample_norm.mask f4 [16]
000000 c6 00 f1 3e 97 d6 a0 3e 62 ca 0b c0 cd d2 71 be
       0.47070903 0.3141372 -2.1842275 -0.2361557
000010 02 2f c8 be 4a f5 c3 3e 3f e4 e5 3a 13 44 73 bf
       -0.39098364 0.38273078 0.0017539336 -0.9502575
000020 0f 0b fc bf 10 17 23 3f 8c 35 a5 3e 52 7b ac be
       -1.9690875 0.63707066 0.32267416 -0.33687836
000030 e2 9f 4c bf 83 f0 4b bd 45 6f 01 3f 0f e7 f1 3d
       -0.7993146 -0.049789917 0.5056041 0.11811649

encoder_variable_selection.single_variable_grns.Cases.resample_norm.norm.weight f4 [16]
000000 0f a7 b8 3f 3a 20 dc 3f 3f a2 94 3e 72 cd 95 3f
       1.4425982 1.7197335 0.29030034 1.1703322
000010 0f 7f 51 3f 7f 0b be 3f 76 91 d1 3f e9 27 5b 3f
       0.818345 1.4847258 1.6372516 0.85607773
000020 54 11 3c 3e d6 15 fc 3f 49 0d af 3f d8 ef 69 3f
       0.18365985 1.9694164 1.3675929 0.913816
000030 53 72 ac 3e d5 b8 87 3f 83 b3 f1 3f c1 d8 b3 3f
       0.33680972 1.0603281 1.8882908 1.4050523

encoder_variable_selection.single_variable_grns.Cases.resample_norm.norm.bias f4 [16]
000000 a9 c0 b9 3e ef 5e 58 3e d2 3a 69 be 46 b6 27 be
       0.362798 0.21129964 -0.22776344 -0.16378126
000010 2a 2c 57 3e 27 33 9b be ef d9 54 be 38 00 21 bd
       0.21012941 -0.30312464 -0.2078626 -0.03930685
000020 7d cc 90 bd dc e4 ad bd 33 ac b7 3c f9 27 27 bc
       -0.07070253 -0.08490917 0.022420978 -0.010202401
000030 80 c7 a3 bb 1f 0f 21 be 9a f7 72 3e 64 99 a1 3e
       -0.0049981475 -0.15728424 0.23727265 0.3156234
