TFT-pytorch/results/industry_subgroup/Health Care and Social Assistance/checkpoints/latest-epoch=4.ckpt (torch, 704055 bytes, 506 tensors)

state_dict f4 [8, 1]
000000 7c 43 53 3f 0d 66 9a bf b7 ae ce 3e ba 64 54 3f
       0.8252485 -1.2062393 0.40367672 0.82966197
000010 31 16 99 bf b3 21 3e bf 57 6f 42 bf 34 a9 10 bf
       -1.1959897 -0.7427017 -0.7595114 -0.56508183

state_dict f4 [8]
000000 b5 3c cf bd 9c 79 21 3f a1 0d 63 3e 46 64 89 3d
       -0.10119001 0.63076186 0.22173168 0.06708579
000010 c9 6e a0 be 17 97 34 bf bc 27 91 3c bd d8 60 bd
       -0.31334522 -0.70543045 0.017719142 -0.054894198

prescalers.SinWeekly.weight f4 [8, 1]
000000 61 58 93 3d dd 11 9a bf 00 93 81 3f ed 8f 8f bf
       0.07194591 -1.2036701 1.0122986 -1.1215798
000010 f5 6a 13 3f cb a5 25 be 0a 3a 33 3f 8f 98 e6 3e
       0.5758508 -0.16176526 0.70010436 0.45038268

prescalers.SinWeekly.bias f4 [8]
000000 9e fc df 3d b6 d6 b0 be 80 4f 3d 3f c3 fc f1 3e
       0.10936855 -0.3453881 0.7394943 0.47263154
000010 54 6a d2 3e 1d 8a 00 bf 3d ee 69 3f b3 68 0c 3f
       0.41096747 -0.50210744 0.9137915 0.5484726

prescalers.VaccinationFull.weight f4 [8, 1]
000000 ea 8a 1d 3e 71 f8 9c 3e 0b 49 62 3f 0f ea 25 3f
       0.15385023 0.30658296 0.88392705 0.6481027
000010 00 56 9c be 52 7e 4d bf 2d 39 49 bf e2 7f 29 bf
       -0.30534363 -0.80270875 -0.7860287 -0.6621076

prescalers.VaccinationFull.bias f4 [8]
000000 96 f9 98 3e 0d 88 fe be e2 f0 c2 be c1 8c 90 3f
       0.2987792 -0.49713174 -0.38074404 1.1292955
000010 d0 71 82 3f 01 4f e0 3e de 67 ce bd 51 c6 c4 3e
       1.0190983 0.43810275 -0.10078405 0.38432553

prescalers.Cases.weight f4 [8, 1]
000000 98 9e 22 3f 59 8b 8d bf 37 44 4c bf 37 df 15 3f
       0.63523245 -1.105815 -0.7979159 0.58543724
000010 19 78 b7 3f 29 ad 18 bc fe 32 22 bf 59 2e b5 3e
       1.4333526 -0.009318628 -0.6335906 0.35386923

prescalers.Cases.bias f4 [8]
000000 58 d8 73 bf 3f 2a 89 be 5f 81 26 3f d9 4e ba 3e
       -0.9525199 -0.26790044 0.65041155 0.3638828
000010 7a 26 eb 3d ad c0 1f bd 83 7e eb 3e cf 52 76 bf
       0.11481948 -0.03900211 0.45994958 -0.96220106

prescalers.Cases.bias f4 [16]
000000 ce 4d 3a 3e ce 02 ea be 4e 3c 97 3e fc 7e 65 3e
       0.18193743 -0.45705265 0.29538196 0.22411722
000010 d1 c1 08 bf ef 93 4a be ae fd b8 3d 0b 44 65 3e
       -0.5342074 -0.19782995 0.090327606 0.22389238
000020 52 46 39 3e 5b 82 c1 3e d7 ea 00 bd dc ec 81 3e
       0.18093231 0.37794766 -0.03147396 0.25376022
000030 22 aa 6e 3e ae 94 c7 be e8 79 1c bf 52 12 50 bd
       0.23307088 -0.3898062 -0.61123514 -0.05079872

prescalers.Cases.bias f4 [16]
000000 e4 04 b6 3f 60 cf 3d 3f fe c3 b5 3f d6 7f b5 3f
       1.4220243 0.74144554 1.4200437 1.4179637
000010 b5 5b 4d 3f 15 21 8f 3f 59 fc a0 3f f9 d8 d2 3f
       0.8021806 1.1181971 1.257701 1.6472465
000020 a7 f5 8a 3f 3e c0 bd 3f b1 60 7b 3f 9e 0c c5 3f
       1.0856217 1.4824293 0.98194414 1.5394475
000030 f6 fb 96 3f d6 ac 09 3f 2f 81 3f 3e 64 97 f4 3e
       1.1795642 0.5377935 0.18701623 0.47771752

prescalers.Cases.bias f4 [16]
000000 b9 b4 30 3e 4c 7d 9e bd 47 31 79 3e 99 84 ea 3e
       0.1725644 -0.07738742 0.24335204 0.4580429
000010 a3 f5 19 be 7d d0 79 3e 8f 11 84 3e 37 e5 16 be
       -0.15035109 0.24395938 0.25794646 -0.14735876
000020 bb 39 ae b8 50 57 b7 be 81 4d 70 3c 82 94 0c bf
       -8.30772e-05 -0.35808802 0.014666916 -0.54914105
000030 3c e1 ad 3d 72 6d 19 bd 4a 4c 30 be 39 48 da 3d
       0.08490226 -0.03745789 -0.17216602 0.10658307

prescalers.Cases.bias f4 [8, 8]
000000 bf 15 3c 3f 17 8b 44 bf 78 64 9e be 03 16 6d 3e
       0.7347068 -0.76774734 -0.30936027 0.23152928
000010 84 ce 48 bf 65 73 c8 bf aa 8a af be 75 33 e3 be
       -0.7844012 -1.5660216 -0.3428548 -0.44375196
000020 49 35 d9 be c0 21 5b bf cc 7a 6b bd c9 cb 76 3f
       -0.42423466 -0.85598373 -0.057490155 0.964047
000030 97 12 e7 be 4b 1e 05 bf 9c 3e cb 3e 30 e4 34 bd
       -0.4513137 -0.5199935 0.39696205 -0.04416293
000040 f0 90 95 3e bb 3d 42 3e 85 3f 0e 3f e1 f9 3b be
       0.2921214 0.18968861 0.55565673 -0.1835704
000050 8d c6 ea 3d 71 1a 4a be 96 33 9c 3e 03 e4 3d be
       0.11463652 -0.19736649 0.30508107 -0.18544011
000060 0d ed 38 bf 10 17 ce bc 2d 19 4f bd fe 21 56 bf
       -0.7223671 -0.025157481 -0.05056112 -0.8364562
000070 27 75 13 3e 87 a9 2f 3e 3e 9c 40 3e ed ec fb 3e
       0.14400159 0.17154513 0.18809602 0.49204198
000080 57 1e 44 bf 3b df 3a 3f a3 ad 79 be cd 70 81 bf
       -0.76608795 0.7299687 -0.24382643 -1.0112549
000090 ac 91 a4 3e 12 47 87 3f 97 39 7b 3f 91 7b 5d 3e
       0.3214239 1.0568564 0.9813475 0.21629168
0000a0 60 44 bb 3e 4d 76 66 be ad d7 4d be f9 53 03 be
       0.36575603 -0.22506066 -0.20101805 -0.12825002
0000b0 03 aa 06 3f 72 1a ee be 28 c4 4c 3e b5 37 e3 be
       0.5260317 -0.4650455 0.19996703 -0.4437844
0000c0 76 d1 c5 be c9 db b6 be 09 a2 52 3e d3 54 97 3e
       -0.3863637 -0.35714558 0.20569624 0.29556903
0000d0 88 ba 94 bd d1 98 78 3f f6 69 f2 3e c3 e1 18 be
       -0.072621405 0.9710818 0.47346467 -0.14929871
0000e0 49 55 1e bf 1f dc 13 bf ae 30 a9 bd 69 95 04 3f
       -0.61848885 -0.57757753 -0.08261238 0.5179048
0000f0 54 74 7f bd 5c 14 e3 be 87 9e 7f 3e 1f a5 2e 3e
       -0.0623668 -0.4435147 0.24962817 0.17055176

prescalers.Cases.bias f4 [8]
000000 f2 a7 8f 3c f3 16 14 3e 9e 33 ae bc 12 73 bf 3c
       0.017536137 0.1446188 -0.021264847 0.0233703
000010 00 72 26 3d f0 4b 3e 3b 10 f8 f9 3e 6a 86 7b bc
       0.040636063 0.0029036961 0.4882207 -0.015351871

prescalers.Cases.bias f4 [8, 8]
000000 70 24 ba 3d fa d7 05 3f 2c 47 93 3e 5f ef 6c be
       0.09088981 0.5228268 0.28765237 -0.23138188
000010 51 89 fe bc 8a ff bf bd 3f 8a fe 3e 15 53 f5 3e
       -0.031071337 -0.09374912 0.49714848 0.4791495
000020 d7 52 69 bf 3b 22 40 bf ca 15 90 3e 20 90 76 3e
       -0.9114203 -0.7505223 0.28141624 0.24078417
000030 f9 6e 53 3f ec f2 a0 bd ba 3e f4 3e b6 ad 69 3c
       0.82591206 -0.07858834 0.47704107 0.014262607
000040 36 58 55 bf d5 ee 2a be 56 53 d4 bd 15 ff 60 3e
       -0.83337724 -0.1669267 -0.103674576 0.21972306
000050 b1 d6 05 3f 7c 1b 7d bd c7 c9 06 bc f9 2c ed 3d
       0.5228072 -0.06179379 -0.008226818 0.115808435
000060 65 c5 26 3f ce bd 11 be 37 6f c8 3e 99 e0 f0 3d
       0.6514495 -0.14232561 0.3914735 0.117615886
000070 3f 6e 79 3e 4f 6d b3 bd 2f 2e 50 3f 93 24 54 bf
       0.24358462 -0.08761083 0.8132047 -0.8286831
000080 58 c2 01 bd c9 b2 05 bf 6d af 91 bd d2 cb 8c 3c
       -0.03167948 -0.5222593 -0.07113538 0.017187033
000090 65 d1 d2 3e 1b dc 03 3b 14 0c 2e 3f 54 ca 66 3e
       0.4117538 0.0020120207 0.6798718 0.2253812
0000a0 52 a7 99 bd 13 0f ad be d2 b4 26 bf e4 8c 92 3e
       -0.07502617 -0.33800563 -0.6511966 0.28623116
0000b0 ab 1e 11 3f 83 4a 36 3d f9 89 72 be 41 57 ae ba
       0.5668742 0.044504654 -0.23685445 -0.001330115
0000c0 20 a3 99 bf c6 7e 9b be 08 b3 bf 3d 91 23 3e 3e
       -1.2002907 -0.30370158 0.093603194 0.18568255
0000d0 7c 82 8b 3f e4 92 8f 3e e6 1d b7 be 57 1f fe be
       1.0899196 0.28041756 -0.35764998 -0.49633285
0000e0 2b 09 ea bd e8 4d 02 3e 44 58 1f bf a4 6c a8 3b
       -0.1142753 0.12725031 -0.6224406 0.005139904
0000f0 a6 2b 09 3d e3 3d ba 3e 50 c3 d1 3e 7b bd 3b bf
       0.033488892 0.3637534 0.40969324 -0.73336

prescalers.Cases.bias f4 [8]
000000 a1 d8 fa 3d 36 c0 8a bc 79 b2 cc be 81 29 70 be
       0.1224835 -0.016937356 -0.39979914 -0.23453332
000010 40 18 8e bd 54 80 e2 be 91 a3 0b bd a6 20 b7 be
       -0.06938219 -0.44238532 -0.034091536 -0.35767096

prescalers.Cases.bias f4 [32, 8]
000000 1a 32 6c 3e 77 97 93 be 5e 7e 88 bf 72 4f ba 3d
       0.23065987 -0.28826496 -1.0663564 0.09097184
000010 c8 72 83 be 06 a0 3b bf 64 c5 4a bf 5a c2 80 be
       -0.2567351 -0.7329105 -0.79207444 -0.25148278
000020 86 91 83 bc 98 6b 80 bd 11 e3 70 3e 52 f8 a4 3e
       -0.016060602 -0.06270522 0.23524119 0.32220703
000030 dd 58 6b 3d 23 7d b5 3e 22 47 ea 3d 20 0a 50 be
       0.057457794 0.35447034 0.11439349 -0.20316362
000040 3f a5 d8 3e 1e 56 5a bd 5b 7d 6b be 84 f8 3a be
       0.42313573 -0.053304784 -0.22997038 -0.18258864
000050 d1 f8 42 bb 16 d6 80 bd 30 e5 96 3e b9 58 70 be
       -0.0029750357 -0.06290834 0.2947173 -0.23471345
000060 3d 1e 2a 3e f9 a6 bd bd 5d 90 ef be 04 1f 63 be
       0.16613097 -0.09260363 -0.46789828 -0.221798
000070 63 65 62 be ad 37 f6 be 3f bb 53 3d 59 bb 84 bd
       -0.22108988 -0.48089352 0.051692244 -0.06481046
000080 32 28 c7 be ac 2f 7f bd aa f7 4e 3e 85 26 a7 be
       -0.38897854 -0.062301323 0.20211664 -0.32646576
000090 f0 a4 ff 3e 88 2e 98 bd c5 5f 81 be 3f 95 2f 3e
       0.49930525 -0.0743075 -0.2526838 0.17146777
0000a0 08 4e e4 3d ee 54 a8 be df 48 48 be 4a eb a6 3e
       0.11147696 -0.32877296 -0.19559048 0.32601386
0000b0 d2 26 30 3e 7f ed 4a 3c 59 b0 96 3e b3 66 f1 3e
       0.17202309 0.012385725 0.29431418 0.47148666
0000c0 f8 48 fa bc eb 2c 88 bd 13 a2 bc 3d 04 85 03 be
       -0.030552372 -0.066491924 0.09210601 -0.1284371
0000d0 2f cf cf 3d de c5 41 bd c9 67 a5 3e 99 ec aa 3e
       0.10146939 -0.04730784 0.32305744 0.33383635
0000e0 55 26 a5 3e 88 05 bc be b9 8d ec be 93 c4 97 3e
       0.32255808 -0.3672297 -0.46201876 0.29642162
0000f0 3a d6 25 be 5c e3 f8 be 9a 81 2e bf ab 48 65 3e
       -0.16195002 -0.4861096 -0.68166506 0.22391002
000100 64 7f c6 be 37 51 f7 bc 39 47 03 3f 01 80 99 3d
       -0.38769066 -0.030190093 0.5128055 0.07495118
000110 9f ed 0a 3f ad 19 73 be cc de 1e 3f a8 ea 1d 3e
       0.5426883 -0.23740263 0.6205871 0.15421546
000120 4f 29 77 bc d4 9f 25 be a2 79 d5 3e a9 ed b3 3e
       -0.015085532 -0.16174251 0.4169436 0.35142258
000130 c4 99 10 3d 8d 80 74 3e a6 6e 3c bf ac 72 68 3e
       0.035302892 0.23877163 -0.73606336 0.22699994
000140 5e 9b 10 bf 60 f0 58 3f a6 40 d3 3e 05 52 25 bf
       -0.5648707 0.84741783 0.4126026 -0.64578277
000150 d0 41 02 3f 25 e8 37 3d a5 e4 4e 3f 28 0e 8a 3e
       0.5088167 0.044899125 0.80817634 0.26963925
000160 59 70 87 bd ef a2 67 bf 2f e8 c4 3e ea 2d 39 be
       -0.066132255 -0.9048299 0.38458392 -0.18083921
000170 89 f3 e6 ba 5f 3c 0b bf 73 65 06 bf f0 f0 02 3f
       -0.0017620187 -0.54388994 -0.5249855 0.5114889
000180 ff 4c 71 be 86 45 01 3f 6a 1b 83 3e 07 d3 3f be
       -0.23564528 0.5049671 0.25606853 -0.18732844
000190 06 96 b7 3d 47 95 c5 3e 4f 26 ff 3e 03 64 85 be
       0.089641616 0.38590452 0.49833915 -0.26052865
0001a0 7e 7e 96 be 32 d8 26 bf 9f a0 a8 bd fc a4 15 3e
       -0.2939338 -0.6517364 -0.08233761 0.14613718
0001b0 c8 9e 9e 3d 36 de 98 be e5 b8 7c bd 07 c8 9e bd
       0.07745129 -0.29857033 -0.061699767 -0.07752996
0001c0 de 36 8d 3d 1b cd 6a bd 50 6d d4 bc 94 34 0b 3f
       0.06895231 -0.05732451 -0.02593103 0.543771
0001d0 a6 e2 eb be 08 8b 99 be 9a 12 ea 3d 1b 31 10 3f
       -0.46071357 -0.29988885 0.11429329 0.5632493
0001e0 c3 08 61 bb 51 bc 45 3f e7 92 c7 3e 67 b7 c6 bc
       -0.0034337498 0.77240473 0.38979265 -0.024257375
0001f0 64 40 7d 3e ad 34 0d 3c aa 32 32 3f 61 84 fd be
       0.24731594 0.008618516 0.6960856 -0.4951506
000200 f7 5b 0e ba 40 23 3e bf d3 f0 4b 3e d7 31 0c 3f
       -0.0005430574 -0.7427254 0.19916086 0.5476355
000210 29 d9 a9 bb 20 c1 c8 bd 0c 29 02 bf a0 fd 8a 3e
       -0.005183358 -0.09802461 -0.5084388 0.27146626
000220 27 85 45 3f 65 c2 a9 be c1 e8 28 3f b1 e6 e1 3e
       0.771563 -0.33156124 0.65980154 0.44121316
000230 87 b8 0c 3f a1 f7 c3 3d e7 d3 82 be c9 4c 92 3e
       0.54969066 0.09568716 -0.25552294 0.28574207
000240 3a d9 96 be 01 fa 82 3e cc f9 9f 3e e3 ac 0a bf
       -0.29462606 0.25581363 0.31245267 -0.54170054
000250 c9 01 85 bc e7 a2 4e 3e 81 37 1b 3e 27 54 1b 3f
       -0.016236203 0.2017933 0.15157892 0.6067528
000260 10 2a 14 3e b3 2c 26 3f 62 3b 6c be 21 8a 89 be
       0.1446917 0.64911956 -0.23069528 -0.26863196
000270 87 d5 8c be c5 c5 f4 bd 71 53 e1 be 8d e6 b0 3e
       -0.27506658 -0.11951784 -0.44008973 0.34550896
000280 35 72 95 3e 06 76 ab bd 32 57 df 3e 01 ee 49 be
       0.29188696 -0.083721206 0.43621212 -0.19719698
000290 f6 c1 78 3e fb af a6 be 24 4a 69 3d 60 f7 24 3f
       0.2429274 -0.32556137 0.05695547 0.64439964
0002a0 cd 74 f6 3e 72 00 39 3e bc a8 02 3f d2 82 37 be
       0.48135987 0.18066576 0.5103872 -0.17920998
0002b0 ad 6a 3a 3f 07 72 e7 be 10 5e 1d be 20 f4 62 3f
       0.72819024 -0.45204183 -0.15367913 0.88653755
0002c0 8c ca 26 bd 28 8b 4e 3e f7 e1 c5 be b2 8e 10 3e
       -0.040720508 0.20170271 -0.3864896 0.14116934
0002d0 7a a5 56 bf 07 14 01 3f 95 7d 70 be 8e c3 a3 3c
       -0.8384625 0.50421184 -0.23485406 0.019990709
0002e0 d2 a5 25 bf 74 3e 4e 3e ba cb 8e 3f e5 d5 5f 3d
       -0.64706147 0.20141011 1.1155922 0.054647345
0002f0 99 55 e1 3e b0 2a d6 3e 01 82 92 3e 0b b2 80 3e
       0.44010618 0.41829443 0.2861481 0.25135836
000300 d5 ad 97 3e b8 ed e1 be 40 a6 a5 bd 9b a5 93 3e
       0.2962481 -0.44126678 -0.0808835 0.28837284
000310 90 98 09 3e 42 15 43 3b 6f 48 02 bf 0d 02 0d 3f
       0.13437104 0.002976731 -0.50891775 0.55081254
000320 48 f4 84 bd 86 62 02 bf a9 95 0c 3e d7 c1 c2 be
       -0.064919055 -0.50931585 0.13728966 -0.38038513
000330 89 3d de 3c b2 70 0b be 92 19 00 bf 41 ba 3f be
       0.027128952 -0.13617209 -0.5003902 -0.18723394
000340 57 4b cd 3e 46 01 06 bf 24 26 b4 bd 25 25 ab 3d
       0.40096542 -0.52345693 -0.08796337 0.08356694
000350 1c 1e fa be 3a 03 4d be cb 54 40 be 38 53 0c bf
       -0.48851097 -0.20020762 -0.18782346 -0.5481448
000360 7b fe 11 bf d9 b9 34 3f 42 43 1e 3e 71 14 65 be
       -0.5702893 0.7059608 0.15455344 -0.22371079
000370 6a 71 3f 3e 5b b4 05 3f d7 f4 69 3e 38 39 8d be
       0.18695608 0.52228326 0.22847305 -0.27582717
000380 18 13 09 bf 74 23 90 3d 48 aa b5 3d b8 99 94 be
       -0.5354476 0.07038012 0.08870369 -0.29023528
000390 92 d8 bb 3e 4e 53 ae 3e f8 cf d7 bc 0b 13 02 3f
       0.36688668 0.3404793 -0.026344284 0.5081031
0003a0 fc d8 44 3e 89 80 8e 3e 0f 22 21 bf cf 4a 02 bf
       0.19223398 0.2783244 -0.62942594 -0.508954
0003b0 3c 0a 86 be f5 55 4d be 51 97 45 3d 65 fe 8e bd
       -0.26179683 -0.20052321 0.04824001 -0.06982116
0003c0 7c 93 53 3e 49 56 ba 3e 62 46 66 3e 72 50 37 bf
       0.2066173 0.36393955 0.22487786 -0.71607125
0003d0 3e 5c 35 3f 8b 77 0b be 1d c5 73 3e db 1a 02 3f
       0.70843875 -0.13619821 0.23805661 0.5082223
0003e0 4d bb 72 bc 38 81 99 be 5f de 00 bf c1 c4 32 bf
       -0.014815164 -0.299814 -0.5033931 -0.6983147
0003f0 81 e4 da 3d 58 3a f8 be eb 34 88 3d f5 9f c1 bc
       0.10688115 -0.48482013 0.06650718 -0.023635844

prescalers.Cases.bias f4 [32]
000000 77 e5 20 3f 77 cb 0a be dd 8b af 3e 4a 11 b9 3e
       0.62850136 -0.13554178 0.34286395 0.36146003
000010 68 75 95 bd fc 7f 9a 3d e1 cc ce 3e 82 9a a2 be
       -0.07297784 0.07543942 0.40390685 -0.31758505
000020 1f 45 7b be 72 77 87 be 74 32 0b bf 6f 93 2a bf
       -0.24538086 -0.26458317 -0.5437386 -0.66631216
000030 5f 77 28 3e 60 98 db bd b2 1d 20 be 10 84 05 be
       0.16451786 -0.107224226 -0.15636328 -0.13038659
000040 e3 87 3d 3d 31 cc 20 bf db e7 f4 be 95 5d 1b bf
       0.04627217 -0.6281157 -0.47833142 -0.6068967
000050 3a c9 1b bf ea e9 93 bf 5c 9a 62 be ec ca 67 be
       -0.6085392 -1.155576 -0.22129196 -0.22636002
000060 d5 77 1f be c1 a4 a4 3c 87 fb 9d 3e 52 8f 8d 3e
       -0.15573056 0.020098092 0.30855963 0.27648407
000070 80 ec 92 bd 7b 57 32 3e fb 6d 05 bf 71 1f fe 3e
       -0.07174015 0.17416184 -0.5212094 0.49633363

prescalers.Cases.bias f4 [16]
000000 2c c6 8c 3f a2 d0 08 3f 09 77 aa 3f ce 3b 9e 3f
       1.0997977 0.5344335 1.3317577 1.2362001
000010 fb b1 4e 3f 1c f5 52 3f 46 0d f0 3e 1c 88 9e 3f
       0.80740327 0.8240526 0.46885127 1.2385287
000020 38 b9 5e 3f 64 f7 9a 3f 7f e0 be 3f 43 b8 df 3f
       0.8700137 1.2106748 1.4912261 1.7478107
000030 6a f4 2f 3f d8 4b 3a 3f 55 59 5d 3e b1 03 44 3f
       0.6873232 0.7277198 0.21616109 0.7656813

prescalers.Cases.bias f4 [16]
000000 bc 0e 6c 3e 3d 94 8c bd 22 91 c0 3d df b6 de 3e
       0.23052496 -0.06864212 0.09402682 0.43498895
000010 48 e8 3d bd 1e 9b f0 3d 00 38 5e 3e bc b4 a8 bd
       -0.0463641 0.11748336 0.2170105 -0.08237597
000020 31 6e 4b be b7 31 a1 be 62 15 7f be 78 88 e0 be
       -0.19866253 -0.31483242 -0.249105 -0.43854117
000030 ea 42 02 be 74 a5 27 bd 65 8c af bd 84 2b 37 bd
       -0.12720838 -0.040929273 -0.085717 -0.044719234

prescalers.Cases.bias f4 [8, 1]
000000 7c 43 53 3f 0d 66 9a bf b7 ae ce 3e ba 64 54 3f
       0.8252485 -1.2062393 0.40367672 0.82966197
000010 31 16 99 bf b3 21 3e bf 57 6f 42 bf 34 a9 10 bf
       -1.1959897 -0.7427017 -0.7595114 -0.56508183

prescalers.Cases.bias f4 [8]
000000 b5 3c cf bd 9c 79 21 3f a1 0d 63 3e 46 64 89 3d
       -0.10119001 0.63076186 0.22173168 0.06708579
000010 c9 6e a0 be 17 97 34 bf bc 27 91 3c bd d8 60 bd
       -0.31334522 -0.70543045 0.017719142 -0.054894198

encoder_variable_selection.flattened_grn.resample_norm.mask f4 [3]
000000 86 60 35 bf 67 00 c3 3d a3 9c a6 3e
       -0.7085041 0.09521561 0.3254138

encoder_variable_selection.flattened_grn.resample_norm.norm.weight f4 [3]
000000 14 9c 70 3f 79 85 99 3f bd 57 fe 3f
       0.93988156 1.1993858 1.9870526

encoder_variable_selection.flattened_grn.resample_norm.norm.bias f4 [3]
000000 04 1b 39 3e 56 77 68 3e c3 c8 14 bf
       0.18076712 0.22701773 -0.5811884

encoder_variable_selection.flattened_grn.fc1.weight f4 [3, 24]
000000 51 f6 1c 3f ca 8d 42 be 41 a0 2a 3e dc 5d 07 bc
       0.6131335 -0.189994 0.16662695 -0.008262124
000010 84 77 64 3d 4b cc 19 3e e4 a1 40 be d3 27 4a be
       0.05577804 0.15019338 -0.18811756 -0.19741754
000020 17 32 2a bf 35 54 61 bd 70 39 49 be 80 58 b7 bf
       -0.6648268 -0.055011947 -0.19650817 -1.4323883
000030 d4 17 fd 3d bd 46 9d 3e 99 fe d9 3e f4 5c b1 3e
       0.123580605 0.30718032 0.42577055 0.3464123
000040 a8 41 2f 3f 89 87 5e bf a9 9a f0 3d 3e 89 03 3e
       0.6845956 -0.8692556 0.11748249 0.12845322
000050 d7 a2 8a 3e e0 7d fc 3d 2d 84 d9 bc 75 9b e9 3e
       0.27077362 0.12328696 -0.026552284 0.45626417
000060 81 09 1f be a9 83 fc 3e 90 fb 51 bf c3 6d 08 be
       -0.15530969 0.493192 -0.8202448 -0.13323121
000070 80 5a b5 be 4b 05 b9 3e 90 d9 eb be 50 f9 29 be
       -0.3542061 0.3613685 -0.46064425 -0.16599011
000080 ae d6 b0 be ee cd 84 3e 70 91 0e bf 0c 6d c2 be
       -0.34538788 0.25938362 -0.5569067 -0.3797382
000090 0b 49 10 be d4 ea 27 bd de 3c e3 3b 13 8d 2c 3e
       -0.14090364 -0.040995434 0.006934746 0.1685069
0000a0 29 98 a7 be fc 88 65 3f 68 06 2b 3c 33 1f d2 bf
       -0.32733276 0.89662147 0.010438539 -1.6415771
0000b0 7a 1b 4e bf e2 72 30 3f 2d ba ff 3e a6 85 0c be
       -0.80510676 0.689253 0.49946728 -0.13722858
0000c0 34 28 ae 3e 49 94 b9 be a3 19 05 be 79 3c d8 3d
       0.34015048 -0.36245945 -0.12998061 0.10558409
0000d0 b5 14 bd 3e f3 91 1b 3f 83 51 c0 bd be a8 a9 3e
       0.3692986 0.60769576 -0.09390547 0.33136553
0000e0 4b f2 0d bf bb d5 ca 3e a9 55 92 3e 4c fe 03 3e
       -0.55447835 0.39616188 0.2858098 0.12889975
0000f0 46 4e 58 be b4 d1 e5 bd 3a 98 f7 3d 91 54 d5 3d
       -0.21123609 -0.11221638 0.12089582 0.104165204
000100 a5 9d 3f be 27 39 80 3f 36 bc b9 3e 0f ea 9c bf
       -0.1871248 1.0017442 0.36276406 -1.2258929
000110 b0 91 4a bf 7c eb f2 3d 26 c8 33 bd ce 5e 0b be
       -0.7912855 0.11861321 -0.04389205 -0.13610384

encoder_variable_selection.flattened_grn.fc1.bias f4 [3]
000000 35 37 40 be 13 40 99 be ef 2f ab be
       -0.1877106 -0.29931697 -0.33435008

encoder_variable_selection.flattened_grn.context.weight f4 [3, 16]
000000 26 11 54 3e 11 86 14 be 2f ef 21 be 55 79 20 bd
       0.20709667 -0.14504267 -0.15813898 -0.03917821
000010 ea 88 20 3d 4d 96 d2 bd 73 88 4d 3d a2 eb 0e bb
       0.03919307 -0.10282574 0.050178956 -0.0021807929
000020 60 cb 09 be ad 42 a0 3d d7 8b d9 3d 31 1a 2c bd
       -0.13456488 0.078252174 0.106223755 -0.042017166
000030 79 93 42 3d f3 1f 04 3d 6d 86 12 3e 41 4d 36 3d
       0.047503922 0.03225703 0.14309092 0.04450727
000040 27 dc 19 3f 79 ee 36 be fd c5 1f 3f 7b f2 e6 be
       0.6010155 -0.17864408 0.6241148 -0.45106873
000050 2f 60 c9 bd b9 87 53 3f 17 68 3e bd a4 40 7e be
       -0.09832799 0.8262897 -0.046485987 -0.24829346
000060 02 04 77 3d 4f fc 14 be ac 3d 7c be 89 b6 0c 3d
       0.060306557 -0.14549373 -0.24632901 0.034353767
000070 cf f0 63 bd ad 4e 9f bc bd 19 80 be 6d 1c b3 bd
       -0.055649575 -0.019446695 -0.25019637 -0.08745656
000080 43 9d 65 3d 9a 1e 1e be 08 93 16 3f 02 48 5e bd
       0.05605818 -0.15441361 0.588181 -0.05426789
000090 ce 23 45 be 02 09 1a 3f 4b 9b 87 bc 59 67 a5 3d
       -0.1925194 0.60169995 -0.016553542 0.080763526
0000a0 ed b2 71 be b7 60 12 3f 20 1a 44 3d 9e a5 c4 be
       -0.23603411 0.57178825 0.047876477 -0.38407606
0000b0 c6 8d 09 be bf dc 92 3d 6c 5f e6 3d 1a 8c 6a 3e
       -0.13432989 0.0717101 0.11248669 0.22905007

encoder_variable_selection.flattened_grn.fc2.weight f4 [3, 3]
000000 9a 95 78 bf e7 9a 9f bf 5d 75 ef bd 9f 93 06 bf
       -0.97103274 -1.2469147 -0.11692307 -0.52569
000010 6c 9a 85 bf e4 ab 5d be 0c 8d db be 28 e8 59 bf
       -1.0437751 -0.21647602 -0.42881048 -0.8511987
000020 aa ad 32 bf
       -0.6979624

encoder_variable_selection.flattened_grn.fc2.bias f4 [3]
000000 1d cc 0d 3e 09 5c da bc 7b b4 8a bd
       0.13847394 -0.026655214 -0.06772705

encoder_variable_selection.flattened_grn.gate_norm.glu.fc.weight f4 [6, 3]
000000 0a 00 3c 3e 25 75 28 bd 2e 09 1f 3f fa 0a 2a be
       0.1835939 -0.041127343 0.6212338 -0.1660575
000010 95 d7 0d bf f8 b0 92 3e d7 76 5f bf 71 c3 86 bf
       -0.5540708 0.2865064 -0.8729071 -1.0528394
000020 c8 fc cc be bd 1b 9a be d2 5e e2 be 77 db f7 3e
       -0.40036607 -0.30099288 -0.44212967 0.48409626
000030 18 01 2e 3f 07 b7 1e 3e 22 b7 06 bf 17 1d ee 3f
       0.6797042 0.15499507 -0.5262319 1.8602628
000040 d4 a4 97 3e 4b 7d 87 3e
       0.2961794 0.26462778

encoder_variable_selection.flattened_grn.gate_norm.glu.fc.bias f4 [6]
000000 73 ea 1d 3e 4d 8d 05 3c 44 03 c5 be cd 2c b4 be
       0.15421467 0.0081513645 -0.38479054 -0.3519043
000010 03 32 4c be 3e 46 9f bd
       -0.19940953 -0.077770695

encoder_variable_selection.flattened_grn.gate_norm.add_norm.norm.weight f4 [3]
000000 8a 64 05 3e 92 49 7c bd 1f 6b 8c 3e
       0.13026634 -0.0615936 0.27425477

encoder_variable_selection.flattened_grn.gate_norm.add_norm.norm.bias f4 [3]
000000 e4 57 66 3d e1 ad aa be 77 01 0d 3f
       0.056236163 -0.33335784 0.5508036

encoder_variable_selection.single_variable_grns.SinWeekly.resample_norm.mask f4 [16]
000000 16 0f 0c be e5 4a bc be 5c be 0c 3e 3e 73 46 be
       -0.1367763 -0.3677589 0.13744491 -0.19379899
000010 fd 47 82 be a1 de 2c be 57 92 a8 3e fb 1e 45 bf
       -0.25445548 -0.16881801 0.32924148 -0.770004
000020 e5 58 98 be 4a c9 c1 be d2 c2 c2 be cc 1f c4 be
       -0.2975532 -0.37848884 -0.3803926 -0.3830551
000030 e4 fc 0a bf 1d 70 04 3e 2d b0 43 3f f3 be 15 3e
       -0.5429213 0.12933393 0.764407 0.14623623

encoder_variable_selection.single_variable_grns.SinWeekly.resample_norm.norm.weight f4 [16]
000000 92 fa 35 3f b8 03 13 3e cd 76 e8 3f 80 83 71 3f
       0.71085465 0.14356887 1.8161255 0.9434128
000010 e7 5f 65 3f 23 dd 86 3f e7 b8 d2 3f a7 98 14 3f
       0.8959946 1.0536236 1.6462678 0.5804543
000020 24 76 35 3f 48 a9 38 3f 61 58 85 3f bd d1 77 3f
       0.70883393 0.721333 1.0417596 0.9680441
000030 cc 9c fd 3e 12 41 9e 3f cc 22 fb 3f 32 9d 64 3f
       0.4953369 1.2363608 1.9619994 0.8930236

encoder_variable_selection.single_variable_grns.SinWeekly.resample_norm.norm.bias f4 [16]
000000 7b f2 02 3e 62 69 21 3e 42 2c bf be 80 79 04 3e
       0.12787811 0.15762857 -0.37338454 0.12936974
000010 94 cd a1 bd e1 0e 07 be 1f b4 32 be 6e 0e df bc
       -0.07900539 -0.1318927 -0.17451523 -0.02722856
000020 47 9c d8 3c 85 6d 82 3b 37 1d e7 3c 9f 30 af 3e
       0.026441706 0.003980341 0.028212173 0.34216782
000030 5f df 99 bd 4a ce ac 3d 2c 99 f6 bb ba f8 9a bd
       -0.07513308 0.08437784 -0.0075255837 -0.07566972

encoder_variable_selection.single_variable_grns.SinWeekly.fc1.weight f4 [8, 8]
000000 e5 cd 61 3f e7 3f e6 bf 5b ba 36 bf b1 f5 64 c0
       0.88204795 -1.7988251 -0.71378106 -3.5774958
000010 d0 cb 61 be a3 0a 3b 3e 70 dc 63 3e de ef c6 3e
       -0.22050405 0.18265776 0.22252059 0.3885488
000020 25 06 a3 3d 7f 4e cb 3d 25 ea ba 3d 58 21 e6 be
       0.07960156 0.09927081 0.09126691 -0.44947314
000030 f0 07 5f 3c a9 93 4e 3f 5b 93 39 be 5e 38 44 bd
       0.013612732 0.8069406 -0.18122618 -0.04790532
000040 f7 d9 a4 be 34 5a 9d 3d 02 b4 03 bf 4b ec 88 3e
       -0.32197544 0.076832205 -0.51446545 0.26742777
000050 fe 12 63 bf 0c ac 18 3f 12 00 4d 3f 20 72 58 3e
       -0.88700855 0.5963752 0.8007823 0.21137285
000060 76 28 bb 3e cd 33 8d 3d cb 46 ce be d1 d7 fd 3c
       0.36554307 0.06894646 -0.40288386 0.030986698
000070 7d ba 9b 3e 61 58 88 3e 78 89 4b 3e cc 1d 0b 3f
       0.30415717 0.26629928 0.19876659 0.5434234
000080 d3 5f 0f bf a4 77 5e 3d 19 a7 81 3f 02 a7 32 3e
       -0.5600559 0.054313317 1.0129119 0.17446521
000090 71 ba 7f 3d c1 76 37 3f 3c c5 09 3f 49 3d 7c bf
       0.062433664 0.7166558 0.5381658 -0.98531014
0000a0 aa ad 1c 3f a1 c2 6e be 6b ae a8 bf 88 0c 4c bd
       0.6120249 -0.23316433 -1.3178228 -0.04981664
0000b0 01 e0 cf be 75 ee c5 3e 19 6b f5 bf 27 d3 8a bf
       -0.4060059 0.3865849 -1.9173309 -1.0845689
0000c0 c3 c5 3c bf 21 e6 1b be 0a 5e d2 bf 73 73 c5 3e
       -0.7373926 -0.15224506 -1.6434948 0.38564643
0000d0 85 f5 40 bf 6e ce 19 3f 41 66 16 c0 0d 6c ca bf
       -0.75374633 0.6008061 -2.349991 -1.5814224
0000e0 0c 2e 75 3e 03 13 bc bd 31 f8 1c bf 77 ef 17 3e
       0.23943347 -0.09183314 -0.6131621 0.14837442
0000f0 3f 6c 64 3f ba a4 15 3f cc d0 14 be c1 69 c7 3e
       0.8922767 0.5845448 -0.14532775 0.3894787

encoder_variable_selection.single_variable_grns.SinWeekly.fc1.bias f4 [8]
000000 8d 4c 0b bf b4 d7 f6 bd f9 55 09 be db 9d 70 be
       -0.5441368 -0.12052861 -0.13411702 -0.23497717
000010 7c 8c c5 3d cf 94 00 bf 3f 2b f8 be a8 6d 1d be
       0.09645936 -0.50227064 -0.48470494 -0.15373862

encoder_variable_selection.single_variable_grns.SinWeekly.fc2.weight f4 [8, 8]
000000 87 40 94 bf 12 b9 0b 3e 8b 1e 9d bf 91 cd 53 be
       -1.1582192 0.13644817 -1.2274946 -0.20683886
000010 05 11 09 be ff 7e 73 3e 2e 24 02 3f 30 00 ac be
       -0.13385399 0.23778914 0.50836456 -0.33593893
000020 6b 23 1c bf a8 64 4a be a3 76 07 3e 05 1c 20 3e
       -0.60991544 -0.1976496 0.1322885 0.15635689
000030 ad 8b bd bd d7 d9 bd 3e 4d 99 00 3f 88 60 39 3e
       -0.09255157 0.3708026 0.5023392 0.1810323
000040 29 b9 6f 3f 54 fa 02 bf 98 bb 8c 3e 73 71 01 be
       0.93641907 -0.5116322 0.27486873 -0.12640934
000050 81 50 95 3e a8 34 05 be 15 55 6b 3f 1d 86 af 3e
       0.29162982 -0.13008368 0.919267 0.34282008
000060 af 9b 3a 3c 3d 48 2e 3f 41 84 51 3e c9 c8 9f 3d
       0.011389657 0.68078977 0.20460607 0.078019686
000070 9e 2e 6b 3d 72 b3 84 bf 6f ae d6 be 72 f5 fc be
       0.057417504 -1.0367262 -0.41929957 -0.4940601
000080 7b 89 8d bf c1 e9 5b 3f 56 4b 96 be 00 12 2a bd
       -1.1057581 0.85903555 -0.29354352 -0.041521072
000090 5a a8 8a 3d 7a 71 13 3f 3e d8 0b 3f 5c fd 56 be
       0.06770392 0.57595026 0.54626834 -0.20995086
0000a0 2f 31 6a 3f 60 d8 2d bf 71 39 8c be 24 92 b0 bd
       0.914813 -0.6790829 -0.27387574 -0.08621624
0000b0 ca 7d 37 bf 47 fc 5c 3e ba fe a7 bd 64 ff 0a be
       -0.71676314 0.21580611 -0.08202882 -0.13573986
0000c0 50 36 ce 3e c6 da 3b be d0 4b 46 bd ad f5 cc bd
       0.40275812 -0.18345174 -0.048412144 -0.100077964
0000d0 b5 06 c3 3e 72 59 08 bf 5d d2 0a be d2 6f a9 3d
       0.38091055 -0.5326148 -0.1355681 0.08273281
0000e0 6c 67 7e 3f e3 f5 85 be 94 da eb 3e 07 f1 bb 3d
       0.9937656 -0.2616416 0.460652 0.09176832
0000f0 75 b8 80 3e cd cc 69 be d8 5e 98 3f e5 de d8 be
       0.2514073 -0.22832032 1.1903944 -0.42357555

encoder_variable_selection.single_variable_grns.SinWeekly.fc2.bias f4 [8]
000000 c8 0d 5d be d0 e7 a5 be 84 2f 96 3e c9 5f 97 3d
       -0.21587288 -0.3240342 0.29333127 0.073913164
000010 a4 e9 b2 3d ef f2 a3 3e 38 90 e2 3d c7 85 aa 3e
       0.0873597 0.3202128 0.11062664 0.3330519

encoder_variable_selection.single_variable_grns.SinWeekly.gate_norm.glu.fc.weight f4 [32, 8]
000000 f5 ed 95 3e bc 89 88 3e 84 4a 53 3e f0 dc ec bd
       0.2928311 0.26667583 0.20633894 -0.11565578
000010 25 dc 30 3e 37 d6 16 bf 39 10 a0 be 12 7f 5d 3c
       0.17271478 -0.58920616 -0.31262377 0.013519065
000020 4d 0c f5 3d 2c 19 85 3e 13 70 33 3e 8d f0 0c bf
       0.11965237 0.25995767 0.17523222 -0.5505455
000030 49 6e a2 3e 15 77 bb 3c de a7 1d 3e 04 70 43 3e
       0.31724766 0.022883931 0.15396068 0.190857
000040 8d 51 cb 3e 2a bb 1a 3f 08 d4 01 3f d5 18 18 bf
       0.39710656 0.6044184 0.5071416 -0.5941289
000050 77 25 44 3f c9 98 38 be c6 db 41 bf 19 12 d0 3e
       0.76619667 -0.18027033 -0.7572597 0.40638807
000060 1b ce 18 3f a5 f1 1f 3f ef 12 f0 3e b4 4c 81 bf
       0.5968949 0.62478095 0.46889445 -1.0101533
000070 45 d1 2e 3f 99 51 f2 be 79 42 6c bf b8 23 80 3f
       0.6828807 -0.4732788 -0.9228893 1.00109
000080 36 22 5c 3e 5b 9a 06 3e c2 77 b2 3d 24 51 6a be
       0.21497425 0.1314482 0.08714248 -0.22882515
000090 2c ba 0a 3e d1 52 95 3d 33 38 8f 3e ef 97 82 3e
       0.13547581 0.072911866 0.27972564 0.2550654
0000a0 ea 63 06 3e a1 ff 87 be c6 f6 7a be 20 95 b0 bc
       0.13124052 -0.26562217 -0.24508199 -0.021555483
0000b0 ee 28 85 3c 07 ad ac bd 16 3c 8f 3c 89 26 56 3e
       0.016254868 -0.0843144 0.017484706 0.20913137
0000c0 27 5f 6b 3f 75 ca 4d 3f 64 8c cc bf de a1 7a be
       0.91942066 0.8038705 -1.5980344 -0.2447581
0000d0 dd ca 51 3f fe a1 ac bf 1a bd 04 bf 30 de 9c bf
       0.8195017 -1.3486936 -0.51851046 -1.2255306
0000e0 f2 cc 07 3c 0e 31 be be 08 ac c1 be 04 73 83 3d
       0.008288609 -0.371468 -0.37826562 0.06418422
0000f0 1f 99 1d be 85 6b cd bd 8d f2 97 bc 7c d1 62 3d
       -0.15390442 -0.10030273 -0.018548274 0.05537556
000100 37 6f 2b 3e 57 ac bb 3e a3 6b 0a bd db 52 3f 3e
       0.16741644 0.36654922 -0.033794057 0.1868395
000110 b8 4a 94 bd ca 77 90 be 54 5c 4b be c6 dd 35 3e
       -0.07240814 -0.28216392 -0.19859439 0.17760381
000120 81 3b 4a be 33 8f 96 be 7b db ba 3e d8 e6 45 bb
       -0.19749261 -0.29406127 0.36495575 -0.0030197408
000130 25 1b 85 be 0e 6a f5 3d 2f 12 11 3e de 63 87 3e
       -0.25997272 0.11983119 0.14167093 0.2644338
000140 42 ec 96 3c 28 dd 84 3d 4f ec 82 3e 2a f3 67 be
       0.018423203 0.06487495 0.25570914 -0.22651353
000150 36 a6 90 3e 71 dc 88 3e 8d f8 56 bd b0 7f 1a 3e
       0.2825181 0.26730683 -0.05248313 0.15087771
000160 b3 32 d8 bc 29 84 d7 3d d4 a5 2b bc 9b fb 6f be
       -0.026391363 0.105232544 -0.010476548 -0.23435824
000170 71 d0 f7 3d ed c3 1f be a0 26 35 3e e5 c2 0e 3f
       0.12100304 -0.15602084 0.17690516 0.55766135
000180 98 81 3c 3f 76 25 1f 3f b2 a3 0d bf 45 27 8c bd
       0.73635244 0.62166536 -0.55327904 -0.068434276
000190 49 20 e6 3e 39 57 29 bf 4b 82 0b bf 9a 2e 6d bf
       0.44946507 -0.66148716 -0.54495686 -0.92649233
0001a0 d2 1b 71 3e b7 06 87 3d 2a bf 5f bd b6 ed a0 3e
       0.23545769 0.06593078 -0.054625668 0.3143136
0001b0 cc 23 e7 3d 2f 5b 3f 3e 62 68 a5 bd b4 f5 d7 bd
       0.112861246 0.18687128 -0.0807655 -0.10544911
0001c0 ba ca c8 bd c3 0d 7d be c3 f3 45 bd 6b a6 e8 3d
       -0.09804292 -0.24712281 -0.048328172 0.11359867
0001d0 a9 6e de be de 0d 21 3e c1 5b 39 3d c0 f7 ad be
       -0.43443802 0.15727946 0.04525352 -0.3397808
0001e0 54 23 ff bd d9 5b 01 bf 34 6b 8a be 53 3d c5 3e
       -0.1245791 -0.50530773 -0.27034914 0.3852335
0001f0 62 4e c1 be 2b 29 75 bd c3 a7 d2 3e 4c 92 29 be
       -0.37755114 -0.059853714 0.41143617 -0.16559714
000200 a1 5b 0b 3f e3 a0 cf 3e d2 24 f6 3e 9a 68 39 be
       0.5443669 0.40552434 0.48074967 -0.18106309
000210 14 1e 3f 3f 13 45 e0 be 9f be ba bd b8 58 25 be
       0.7465527 -0.438027 -0.09118389 -0.16147125
000220 ab b6 e0 3e 3f 02 a3 3e 85 02 f1 3b 49 de f9 be
       0.43889365 0.3183765 0.0073550367 -0.48802403
000230 3d 44 0a 3f f7 05 d8 bd 46 9e 48 bf 09 62 fb bd
       0.54010373 -0.10548013 -0.78366506 -0.12274558
000240 53 8c c2 3e d1 c5 4a 3e 36 8d c1 3d 68 34 b2 be
       0.37997684 0.19802023 0.09450762 -0.34805608
000250 dc 54 e5 3e b4 11 8c be 40 e4 c9 be 99 a0 0a 3e
       0.44791305 -0.27357256 -0.39431953 0.13537826
000260 f9 48 ad 3e 3b df 9a 3e 83 f8 98 3e e2 f0 6e bf
       0.33844736 0.30248436 0.298771 -0.9333631
000270 3c 2f 99 3e 00 bb c2 be a7 c0 27 bf 46 dc 7c 3e
       0.2991885 -0.38033295 -0.6552834 0.24693403
000280 ed a1 74 3c 1e be d2 3d 41 c9 ea be 5a 1e 56 3e
       0.014931184 0.10290168 -0.4585667 0.20910016
000290 35 de b9 3c 5d 66 0f bf d8 e7 a6 bd b6 36 20 be
       0.022688964 -0.5601557 -0.081496894 -0.1564587
0002a0 ec 3d 97 3d 2e 14 05 3f 83 12 9b 3e cd 9c 01 bf
       0.073848575 0.51983917 0.3028756 -0.50629884
0002b0 a9 ad 5b bd 5e f3 fe 3d a4 ca 19 3b c8 d0 93 be
       -0.053632412 0.12448762 0.002346673 -0.28870225
0002c0 d3 68 61 bf bf e5 06 bf 68 78 86 3f a5 65 05 be
       -0.88050574 -0.52694315 1.0505495 -0.13027056
0002d0 97 fc 01 bf 79 67 a5 3f bd b9 7b 3e 70 7d 9b 3f
       -0.50776047 1.2922202 0.24582572 1.2147655
0002e0 42 10 70 be 12 5a 6e 3f ea cd ce 3e fe 43 b7 be
       -0.23443702 0.93106186 0.40391475 -0.3579406
0002f0 cd 38 e6 3e 7c cc b9 3d fa 31 a6 be 9d 14 8c 3d
       0.4496521 0.090722054 -0.32460004 0.06839869
000300 a9 bd 88 3d 11 f5 e5 bd 30 88 8d be 02 f3 a5 be
       0.066768 -0.11228383 -0.27642965 -0.32411963
000310 c6 25 a6 3e bc 6d e8 bd 3b a1 33 bf eb fa ce be
       0.32450694 -0.11349055 -0.70167893 -0.4042581
000320 a5 e7 20 bf c0 fc 30 bf 05 8a ae 3e de 02 e0 3e
       -0.6285346 -0.69135666 0.34089676 0.43752187
000330 72 56 7d bd 84 93 b6 3e 54 14 0e 3d 3f a2 e5 3e
       -0.06185002 0.3565942 0.034687355 0.44850346
000340 d3 8d 83 3e c0 2c 24 3e c5 9c 06 bd f4 04 0e bf
       0.2569414 0.16032696 -0.03286435 -0.5547631
000350 de 66 12 3f b0 6d df 3d 76 c0 7f be cc e0 05 be
       0.5718821 0.10909593 -0.24975762 -0.13074034
000360 57 7a c9 3e c6 42 84 3e c3 84 8f 3e 2c 3b 01 bf
       0.3935115 0.25832194 0.28030977 -0.50480914
000370 ef dc de 3e 73 46 09 be 86 ee 01 bd f3 cf 2b bd
       0.43527934 -0.1340578 -0.031721614 -0.041946363
000380 c5 a8 87 bf 9d c3 aa be ab a9 23 3f f2 e9 b3 bc
       -1.0598379 -0.33352366 0.6393077 -0.02196214
000390 a9 fd 9f be 41 85 4c 3f 1f 5a c1 3e b5 eb da 3e
       -0.31248215 0.7989083 0.3776407 0.42757955
0003a0 a3 66 ab be 6e 66 b6 be 94 f5 ef 3d 91 5c da be
       -0.33476743 -0.35625023 0.11716762 -0.42648748
0003b0 c3 02 30 3d 86 cc 2a be 1f 16 30 be ec 96 a9 3e
       0.042971384 -0.16679582 -0.17195939 0.33122957
0003c0 73 ce 3d 3e 11 18 63 3e 23 f7 a6 3d db 67 ab be
       0.18535785 0.2217715 0.08152606 -0.33477673
0003d0 69 1a a5 3e 13 4b 45 be d1 e6 b7 be 21 54 19 3e
       0.32246712 -0.1926692 -0.35918286 0.14973499
0003e0 58 43 53 3e 7f 85 2d 3f 6d d5 9d be 4e b1 22 be
       0.20631158 0.67781824 -0.30826893 -0.15887949
0003f0 8d 13 93 3e d7 18 f4 be 88 c8 31 bf 2a e8 65 be
       0.28725854 -0.476752 -0.6944661 -0.22451845

encoder_variable_selection.single_variable_grns.SinWeekly.gate_norm.glu.fc.bias f4 [32]
000000 bf 2d 7f 3e ae 42 16 bd 64 18 06 bd ad c7 94 3e
       0.24919794 -0.036684684 -0.032738104 0.2905859
000010 2c 49 95 bd 9e 76 a2 bd 13 37 48 bf ee 46 b5 be
       -0.07289347 -0.07932781 -0.78209037 -0.35405678
000020 b0 ae 21 bd 57 0e 0f 3e 9e 76 67 3d 91 5a 8b 3e
       -0.039473236 0.13970314 0.056509607 0.27217534
000030 e4 4f b9 be a0 ff 32 3e 2f 62 eb bd 2a 9c d0 bd
       -0.36193764 0.17480326 -0.114933364 -0.10186036
000040 54 20 2c bf 2b e7 3f bf e9 6b 98 3e ff d5 62 bf
       -0.6723683 -0.7496211 0.2976983 -0.8860778
000050 68 12 81 bf 75 76 92 be 61 1e 52 bf f4 b2 fe be
       -1.0083742 -0.28606 -0.82077605 -0.49745905
000060 73 b5 8a bf f2 61 3d be ac bc 0b bf 49 40 4f bf
       -1.0836624 -0.18494394 -0.54584765 -0.80957466
000070 06 7f 7d be 49 89 6e bf c1 02 1f be fa 38 e3 3e
       -0.24755487 -0.9317823 -0.15528394 0.44379407

encoder_variable_selection.single_variable_grns.SinWeekly.gate_norm.add_norm.norm.weight f4 [16]
000000 40 17 a5 3e 07 2f b6 3e 9b 16 0a 40 69 fe 9a 3f
       0.322443 0.35582754 2.1576297 1.210889
000010 55 31 2c 3f 7f 9e 13 3f c4 b3 c9 3f 55 d5 7d 3e
       0.67262775 0.5766372 1.5757985 0.24788411
000020 bc b1 d7 3e a4 f8 e3 3e d7 db 75 3f f9 ec 92 3f
       0.42127788 0.44525635 0.96038574 1.1478568
000030 14 c0 28 3f 5a b6 8d 3f b9 5a d4 3f d3 0d 8a 3f
       0.6591809 1.1071274 1.6590186 1.0785469

encoder_variable_selection.single_variable_grns.SinWeekly.gate_norm.add_norm.norm.bias f4 [16]
000000 b4 20 b2 bd ba 30 6a 3e ba 49 3f be b7 fb 74 3d
       -0.08697644 0.2287015 -0.18680468 0.059810366
000010 54 1a 04 3e 35 65 12 bd 2c ed 19 be e5 d0 8a 3d
       0.12900668 -0.03574105 -0.1503188 0.06778125
000020 72 98 52 3e 0d 2c 00 be 49 d2 8d be 33 19 23 3e
       0.20565966 -0.12516804 -0.27699497 0.15927581
000030 62 5b 9f bd fc ff fc 3d 4b ba bb 3c 54 43 17 3d
       -0.07781102 0.12353513 0.02291598 0.036929443

encoder_variable_selection.single_variable_grns.VaccinationFull.resample_norm.mask f4 [16]
000000 11 75 03 bf 58 3b 8b bf 2e 61 69 3e ad 32 8e bf
       -0.51350504 -1.0877485 0.22790977 -1.1109215
000010 35 93 8a 3f cc 89 8c be a0 1e 55 bf db ce de 3e
       1.0826174 -0.2744888 -0.83249855 0.43517193
000020 65 4c 4e be 67 cc 69 bf e8 d4 ce be 5d 6d df 3e
       -0.2014633 -0.9132752 -0.4039681 0.43638125
000030 af a1 19 bf a0 c7 05 3f 80 74 d4 3e 07 9c 57 be
       -0.60012335 0.5225773 0.41495132 -0.21055613

encoder_variable_selection.single_variable_grns.VaccinationFull.resample_norm.norm.weight f4 [16]
000000 3b 36 4d 3f af 32 bf 3e d2 36 b5 3f e7 63 df 3e
       0.80160874 0.37343356 1.4157355 0.43630907
000010 e8 d8 09 40 01 06 52 3f 3a 80 e5 3c 40 05 d4 3f
       2.153864 0.8204041 0.028015245 1.6564102
000020 26 ce a3 3f 9a 55 94 3e 10 b5 2b 3f 4f 90 be 3f
       1.2797287 0.2897156 0.67073154 1.488779
000030 43 3a 30 be 9e 1c c7 3f 99 30 9b 3f 0d 47 74 3f
       -0.17209725 1.5555608 1.2124206 0.95420915

encoder_variable_selection.single_variable_grns.VaccinationFull.resample_norm.norm.bias f4 [16]
000000 19 74 07 be cd fc 9b 3c 03 80 c7 3d 8b 4b 43 3d
       -0.13227881 0.019041443 0.09741213 0.047679465
000010 22 54 9d 3e 4d 85 0c be cf e0 8e be df 81 7b 3e
       0.3072825 -0.13722725 -0.2790589 0.2456126
000020 36 e9 88 3c 92 af 49 be 5e ad a5 3c 09 e6 5d bd
       0.016712766 -0.19695881 0.02022427 -0.054174457
000030 81 b4 01 3f 0a 54 b8 be 24 58 83 3e 1b ea 3c be
       0.5066605 -0.36001617 0.25653183 -0.18448679

encoder_variable_selection.single_variable_grns.VaccinationFull.fc1.weight f4 [8, 8]
000000 0a e7 e3 3e 25 36 64 be 38 01 52 bf 44 19 d5 bd
       0.44512206 -0.2228628 -0.8203311 -0.1040521
000010 99 af 79 3f ad 9f 5d 3e 64 80 13 bf 7b 40 b1 bb
       0.97533566 0.21642943 -0.57617784 -0.005409298
000020 0a 80 37 be 68 d6 38 be 8d 98 58 bf 19 3a 9a bf
       -0.17919937 -0.1805054 -0.84607774 -1.204898
000030 f4 d1 94 bd 1a a6 6d bd 44 42 97 3f e2 e8 ec bc
       -0.07266608 -0.058019735 1.1817098 -0.02891964
000040 ef b8 48 be c7 cb fe be f2 86 d1 be d5 81 10 bf
       -0.19601797 -0.49764845 -0.40923268 -0.5644811
000050 0f 5a de be 63 ca 46 3f e0 ef 9c 3e 47 56 27 be
       -0.43428084 0.7765257 0.3065176 -0.16341506
000060 01 9f c7 be f9 d0 5a bf 64 de 0e bf 78 22 cd 3d
       -0.38988498 -0.85475117 -0.5580809 0.1001634
000070 43 6f 40 bf ae fe 8e 3f e8 23 18 3f 71 4e 0a 3f
       -0.7516977 1.1171472 0.5942979 0.5402594
000080 d6 f4 57 bd 48 7b f9 3e 12 7d 0b be ec 3b d0 bc
       -0.052723728 0.4872687 -0.1362193 -0.025419198
000090 dc 58 b4 3d 43 ec 6e 3f 6b df b3 3f b5 5b b6 3f
       0.08806011 0.93329257 1.4052557 1.4246737
0000a0 fc 21 76 be 7b 36 42 3f fd 10 d7 3e 6c 3e 9d be
       -0.24036402 0.7586438 0.4200515 -0.30711687
0000b0 09 ce 48 bf c8 cf 6e bf 00 fa 43 bf 4b cd e2 bf
       -0.78439385 -0.932858 -0.76553345 -1.77189
0000c0 63 df 3a bf d9 18 e1 3e 70 c5 7f bd f2 86 a9 3d
       -0.7299711 0.4396427 -0.06244415 0.08277692
0000d0 42 d5 78 3f 8c a6 f2 bb 77 87 a7 3e 51 04 73 3e
       0.97200406 -0.007405108 0.3272054 0.23732115
0000e0 29 e2 18 3e d6 37 00 3f 8b b5 8d be 00 f5 cd be
       0.14930023 0.500852 -0.2767757 -0.40225983
0000f0 8f f6 77 bf e2 7d a2 bf 00 a4 5e be da df c6 bf
       -0.96860594 -1.2694666 -0.21742249 -1.5537064

encoder_variable_selection.single_variable_grns.VaccinationFull.fc1.bias f4 [8]
000000 78 be d1 3e d1 62 b2 bd e3 c8 da bd f3 ba 41 bd
       0.4096563 -0.08710254 -0.10682847 -0.04729743
000010 23 9c cf bb c4 dc 0d bf 11 0e 07 bd e6 e1 0a bf
       -0.0063357516 -0.55414987 -0.0329724 -0.54250944

encoder_variable_selection.single_variable_grns.VaccinationFull.fc2.weight f4 [8, 8]
000000 04 5c 1a bd cc e5 a6 bd b5 b3 5f be de 0f eb be
       -0.03768541 -0.08149299 -0.21845897 -0.45910543
000010 4c c7 7b bf bb 19 71 3e 5b 0f f0 be e7 86 63 3d
       -0.9835098 0.23544972 -0.46886715 0.055548575
000020 99 99 44 3f f1 fd 3c bf 5e ac ff be 71 4e 33 bf
       0.7679687 -0.73824984 -0.49936193 -0.7004157
000030 98 87 68 bf fe 47 32 bf a2 00 40 3e 42 08 9e be
       -0.908319 -0.696411 0.18750241 -0.30865675
000040 c7 e7 b0 bf f4 62 96 3e 08 a0 60 3d e3 ef 71 3f
       -1.3820733 0.2937237 0.054840118 0.94506663
000050 c5 cd c8 bb d1 fd d5 3e 7a 7a d7 3e c0 67 17 3f
       -0.0061280453 0.4179521 0.4208563 0.59142685
000060 aa 16 10 3e f3 54 3c be f3 fd 1c 3e 76 bc b2 3d
       0.14071146 -0.1839178 0.15331249 0.08727352
000070 82 19 98 3f 01 1b 29 bf dd 86 80 bd 7c 34 4a 3e
       1.1882784 -0.6605683 -0.06275723 0.19746584
000080 8e 0b 48 be 30 78 dc 3d 71 aa ea 3e d4 e0 5d 3d
       -0.19535658 0.107651114 0.4583316 0.05416949
000090 ae 7e 40 3f 07 ef 11 3f ed 6b 30 bf c2 ee 7d 3f
       0.751933 0.5700535 -0.6891468 0.9919244
0000a0 3c cd 59 be ef c3 9c 3e b3 a0 06 3f ee 4b 1d 3f
       -0.21269697 0.30618235 0.5258896 0.61443985
0000b0 65 51 f4 3e bd 23 8a 3e 08 01 47 bd 64 9f 35 bf
       0.4771835 0.2698039 -0.048584968 -0.70946336
0000c0 7d a1 45 3f cd c8 56 bd 76 31 c2 bd 69 7b 71 3f
       0.77199537 -0.052437592 -0.0948209 0.94328934
0000d0 07 25 c1 3e 54 89 5f bf 1e dd bb 3d 72 bc 2b be
       0.37723562 -0.8731892 0.09173034 -0.16771105
0000e0 b7 94 5e be 31 0b a3 bd 20 39 0e 3e cf 1c 8b 3e
       -0.21736418 -0.07961119 0.13888979 0.27170417
0000f0 17 7a 49 bf a9 4a 6f bf 21 a8 52 bc df c5 0f bf
       -0.7870192 -0.934733 -0.012857468 -0.561613

encoder_variable_selection.single_variable_grns.VaccinationFull.fc2.bias f4 [8]
000000 06 93 73 3d 99 0b f8 3e e3 d0 b9 be 53 52 ad bd
       0.059466384 0.48446348 -0.3629218 -0.08462968
000010 5c c1 7d be 21 eb 57 3e bd f2 8c 3e 07 ec 27 3e
       -0.24780792 0.21085788 0.27528945 0.16398631

encoder_variable_selection.single_variable_grns.VaccinationFull.gate_norm.glu.fc.weight f4 [32, 8]
000000 13 1e a1 3e 2f e9 14 3f 8e 60 a5 3e 4b 0d 89 3e
       0.31468257 0.5816831 0.32300228 0.26767954
000010 00 73 25 be be ed c1 3e 79 d9 a6 3a 5e 10 78 bd
       -0.1615715 0.37876695 0.0012729607 -0.060562484
000020 a9 16 63 be 5d 2d ff bc 17 2a a1 be 91 bf e2 3d
       -0.22176613 -0.03114956 -0.31477425 0.11071695
000030 c1 40 3f be 51 64 b7 3d 8d 4d ac 3e 27 df ae be
       -0.18677045 0.08954681 0.33652917 -0.34154627
000040 dd 9c 87 3e 01 e0 2a 3e 3b 74 92 3e 7c 1d da be
       0.26486865 0.16687013 0.28604302 -0.4260062
000050 5f fc 26 3e d9 aa d7 3c 07 29 bd be 98 a8 00 bf
       0.1630721 0.026326584 -0.36945364 -0.50257254
000060 2f 30 35 bf ea 98 62 3f 87 56 84 bf aa be 66 3f
       -0.7077665 0.8851458 -1.0338906 0.9013468
000070 6c ed a8 bf bb e7 2b 3f 6c e6 56 3f 1f bc 63 3f
       -1.3197455 0.6715047 0.83945346 0.88958925
000080 7d 16 a0 3f 44 26 f0 3c 28 41 2e 3f 1c a2 c0 bf
       1.2506863 0.029315121 0.6806817 -1.5049472
000090 10 2e 29 3f 53 f6 e3 bf 61 ce 66 bf 9b 70 03 3f
       0.6608591 -1.7809547 -0.9015866 0.513437
0000a0 8e da c3 3d 0e 38 81 3f f8 7f 96 be 68 eb 98 be
       0.095631704 1.0095232 -0.29394507 -0.298671
0000b0 c0 ff 47 bf 9f 78 6d 3e bb 40 d5 3d 0f 2b 05 3f
       -0.7812462 0.23190545 0.10412737 0.5201883
0000c0 62 b7 1a bf 2b 54 6a be 2e b5 1e 3e 69 59 73 3e
       -0.6043607 -0.2288367 0.15498802 0.23764576
0000d0 71 74 b5 3d f8 a7 0b 3f 3e d9 d5 3e b6 49 61 3e
       0.088601 0.54553175 0.41767305 0.22000775
0000e0 45 40 8e be cf 85 f5 3e ec 33 ee be a4 44 6c bd
       -0.2778341 0.4795365 -0.46523988 -0.05768265
0000f0 e9 04 48 bd 41 8d 1b be d3 05 1c 3f 90 ba be 3e
       -0.048832808 -0.15190603 0.6094639 0.3725171
000100 ce 09 e4 bd ad 59 b5 3e 1e 03 c8 be c3 58 89 be
       -0.111346826 0.3541998 -0.39064878 -0.26825532
000110 ef 92 98 be 8d 1d 28 be ef ce c8 be f0 48 22 3f
       -0.297996 -0.16417523 -0.39220378 0.63392544
000120 53 e4 1b 3e c8 f7 ce 3e 9f 2a 6b bd 92 89 fb be
       0.15223818 0.40423417 -0.057413694 -0.49128395
000130 e4 c8 4b be 8d 48 da be 07 1f 0e bf f5 f2 ed be
       -0.19900852 -0.42633477 -0.55516094 -0.46474424
000140 94 39 1d be 13 01 b2 3e 4b a4 f6 ba 60 bc cf 3d
       -0.15353996 0.34766445 -0.0018817274 0.101433516
000150 dd e2 2a 3e e7 09 7d 3e 0d 5f 81 3e 27 37 23 3e
       0.16688104 0.24710809 0.2526783 0.15939008
000160 8a 4e 31 bf 2b b1 7f bf f4 8f 9a 3e 22 79 da 3e
       -0.69260466 -0.9987971 0.30187953 0.42670542
000170 c8 41 24 3e 42 fb a9 3e 30 a3 ac 3e b8 f5 06 3e
       0.16040719 0.33199507 0.33718252 0.13179672
000180 b1 0b 02 3f af 7b 58 3f a1 1f 8e be 1e b2 5b bf
       0.5079909 0.84563726 -0.27758506 -0.8581866
000190 7e 6c 82 3e 8c e0 e5 be 0c bb 30 bf 1e d8 4d bf
       0.25473398 -0.44897878 -0.6903541 -0.80407894
0001a0 85 15 89 3d c0 6f c2 bf 5a 91 f9 3e 6e 1a 0b 3e
       0.06693558 -1.5190353 0.48743707 0.13584301
0001b0 5a 18 16 3f c3 20 0d 3e e9 2f 36 be fc 2b 10 bf
       0.5863091 0.13782029 -0.17791714 -0.56317115
0001c0 f6 a5 00 bf 5b 2b 68 3e fe 91 98 be e3 18 dd 3e
       -0.50253236 0.22672789 -0.29798883 0.4318305
0001d0 dd 3e 13 bf 66 ca d6 3e 55 9c 47 3e 1d 4b 22 3f
       -0.57517797 0.41951293 0.1949323 0.63395864
0001e0 9a 27 79 be 87 25 a5 be ef ab bb 3e a1 c9 bb 3c
       -0.24331513 -0.32255194 0.36654612 0.022923293
0001f0 a9 ce aa 3e 0e 71 1d be b4 78 46 bc 0f ea 68 be
       0.33360794 -0.15375158 -0.012113739 -0.22745536
000200 9f 04 dc 3e c8 d1 1a bf da 0f 4d 3f bd 81 38 be
       0.42972276 -0.6047635 0.8010231 -0.18018241
000210 9e 93 ae 3d 8a ef b0 3e 51 f8 59 be aa 6c 15 be
       0.085242495 0.34557754 -0.21286131 -0.14592233
000220 f9 fc 1f bf 42 c4 80 bf 40 69 15 3e 9d 75 4b 3e
       -0.6249538 -1.0059893 0.14590931 0.19869085
000230 6f 84 90 bd 72 3a 83 3f d3 1b 96 3e 63 cf 4d bd
       -0.0705651 1.0252211 0.29318103 -0.050246608
000240 37 52 ed 3e 19 88 92 3e 45 f5 1c 3f 0a a8 c1 be
       0.46351787 0.2861946 0.6131175 -0.37823516
000250 76 9a ac 3e e5 ae a2 bd d2 d9 29 bf 58 a0 bc be
       0.33711594 -0.07943515 -0.6634799 -0.36841083
000260 36 48 78 3e ce a3 76 be 60 6a 12 3f 19 36 be bd
       0.24246296 -0.24085924 0.57193565 -0.09287662
000270 f6 27 e7 3e 55 e1 86 3d e0 a3 41 be 3e 02 84 3d
       0.45147675 0.065859474 -0.1891017 0.0644574
000280 7d 7c b5 bf c2 76 59 be 0e c3 87 3c 5f 20 cc 3f
       -1.4178616 -0.21236709 0.016572502 1.5947379
000290 85 28 cb 3d 3d 01 af 3f 6c ea b4 3e 8c 7c 5b 3d
       0.09919838 1.3672253 0.353351 0.053585574
0002a0 8b 1d 1a 3c 4c 59 50 bf 74 39 39 3f 9c 88 ff 3d
       0.009406458 -0.81386256 0.7235329 0.12477228
0002b0 a4 6d 09 3f 10 67 2b 3d 03 70 b6 be 03 9c 60 3e
       0.53682923 0.041846335 -0.35632333 0.21934514
0002c0 97 24 45 bd c2 2c f6 3e e6 9f 02 bf 00 e9 96 3d
       -0.048130598 0.48081023 -0.51025236 0.0736866
0002d0 6d b3 c6 be 6b 14 27 bd 92 80 53 3d 4e 06 da be
       -0.38808766 -0.040790956 0.051636286 -0.42582935
0002e0 e3 f7 1a be 1a 80 12 3f c4 08 6a 3c 86 34 c0 3d
       -0.15133624 0.5722672 0.014284316 0.09385018
0002f0 3e 52 9c be 31 30 29 be 42 1a 84 be b0 7b 0b 3f
       -0.30531496 -0.1652229 -0.25801283 0.5448561
000300 3c 72 10 3f a1 d6 8f 3e 05 fd 0c 3e 5b 87 97 be
       0.5642431 0.28093436 0.13768394 -0.29595456
000310 fb 91 d1 be d6 05 8c 3e 62 06 8e 3e ef cf b4 3e
       -0.40931687 0.27348202 0.27739245 0.3531489
000320 b2 ba f1 3e 0b 15 6a bc 8d 5e 85 3e ac 3c 36 bf
       0.4721275 -0.014287244 0.260487 -0.7118633
000330 7f da dc 3e ee 2c 17 bf 09 ee b8 bf 9d 1b 88 bf
       0.4313545 -0.5905293 -1.4447643 -1.0633427
000340 ce 05 d4 3c 64 51 3d bf 62 ee 59 3f 9f 6c 02 bf
       0.025881674 -0.7395232 0.8512937 -0.5094699
000350 fd 6c 6c bb 86 9d 32 be 03 56 37 be dd dd 77 bc
       -0.0036075704 -0.17442903 -0.17903905 -0.01512858
000360 d7 4b 14 3f f9 83 8b 3c 8d 55 0e 3f f6 5d 4f bf
       0.5792822 0.017030703 0.5559929 -0.8100275
000370 b8 31 08 3e c8 1c 35 bf c3 60 b7 bf c6 f5 a1 bf
       0.13300216 -0.7074704 -1.4326404 -1.2653129
000380 75 a1 48 3f d1 83 4e bd 3d 4a 99 3e 66 6c d7 be
       0.78371364 -0.05041868 0.29939452 -0.4207489
000390 11 82 b6 3e ca e2 77 be eb d9 df bf 42 ce 53 bf
       0.35646108 -0.24207607 -1.7488378 -0.827366
0003a0 a6 f9 38 be 15 73 3e bf 36 85 b4 3e 19 2f 35 be
       -0.18063983 -0.7439435 0.35257882 -0.17693748
0003b0 8a 73 16 3f ca c1 ad bd 52 e1 34 bf 53 72 31 be
       0.5877005 -0.08484228 -0.7065631 -0.17328767
0003c0 ee d9 b3 3e 57 68 c9 be d0 92 98 3e 4a fa 9d bd
       0.35127205 -0.39337417 0.2979951 -0.077137545
0003d0 be a1 87 3e a5 2d b8 be 9b 64 a5 bd a3 ad 44 be
       0.26490587 -0.35972324 -0.080758296 -0.19206862
0003e0 94 09 d6 be bf 3d 8c bd ee d6 da 3e 4b 7b 6a 3f
       -0.41804183 -0.06847715 0.42742103 0.9159438
0003f0 b7 48 e6 3d 2c 7b 94 3c cf d4 39 3f 47 cf 86 be
       0.11244338 0.01812514 0.72590345 -0.26330015

encoder_variable_selection.single_variable_grns.VaccinationFull.gate_norm.glu.fc.bias f4 [32]
000000 6f 08 a7 3e be a9 d3 3e ac 42 99 3e 3b e8 29 be
       0.32623622 0.4134044 0.2993368 -0.16592495
000010 9d 2c 53 bf 43 7d 37 bb fc da d2 bd 81 f2 ee 3c
       -0.8248995 -0.0027998246 -0.10295674 0.02916837
000020 c1 97 a7 be aa e5 05 3f 9b 42 0b 3e 75 59 4f bf
       -0.32732967 0.52303565 0.13599627 -0.80995876
000030 56 cd 8a 3f 18 8e ae be aa 70 12 be b6 9e 37 be
       1.0843914 -0.34092784 -0.1430079 -0.17931637
000040 33 f3 df be 8e b5 8b be c5 d5 4d be 83 8d db bd
       -0.43740234 -0.27286953 -0.20101078 -0.107203506
000050 16 83 8f be 56 48 a7 bf d7 82 a8 3f 51 d9 66 be
       -0.28029698 -1.306895 1.3164929 -0.22543837
000060 12 28 a7 be 6d d9 42 3f 17 aa 50 bf 68 df 86 3e
       -0.3264776 0.76113015 -0.81509537 0.2634232
000070 21 12 da 3d 72 38 64 bf 0a 96 64 be 65 4c 92 be
       0.10647989 -0.8914863 -0.2232286 -0.2857391

encoder_variable_selection.single_variable_grns.VaccinationFull.gate_norm.add_norm.norm.weight f4 [16]
000000 96 b9 5d bd 86 c1 1b 3f 02 b5 87 3f fd 5e 90 3f
       -0.054132067 0.6084217 1.0602114 1.1278988
000010 7a 16 a1 3f 81 94 41 3f b3 35 5e 3f 9a 7f be 3f
       1.2584984 0.75617224 0.8680069 1.4882691
000020 0e 70 99 3f c1 f3 24 3f 92 df 9d 3e 51 5a a9 3f
       1.1987321 0.6443444 0.30834633 1.3230687
000030 aa e6 66 3f 98 5f 9f 3f 77 b4 93 3f da 7a c0 3e
       0.90195715 1.2451048 1.1539448 0.37593728

encoder_variable_selection.single_variable_grns.VaccinationFull.gate_norm.add_norm.norm.bias f4 [16]
000000 8f 05 94 bd d9 4e 9c 3e 3d 2d d5 3d 4e 10 d6 3d
       -0.07227623 0.30528906 0.10409019 0.104523286
000010 78 fc 89 3e b5 5f 60 bd ec 24 72 be a8 21 d1 bd
       0.2695043 -0.054778773 -0.23646897 -0.102114975
000020 c5 44 01 3d 99 8e 5c be 37 ee 80 be fc 0a 80 3e
       0.031559724 -0.21538772 -0.25181744 0.2500838
000030 cd 95 3a 3d b2 e6 09 bd 48 a6 c2 3d 79 ee 4a bd
       0.045553017 -0.033667274 0.09504372 -0.04954383

encoder_variable_selection.single_variable_grns.Cases.resample_norm.mask f4 [16]
000000 8c 10 10 3f 8b 50 51 3e 75 09 ea bf d4 a1 fc be
       0.5627525 0.20440881 -1.8284136 -0.49342215
000010 32 18 5a be 3c 08 25 3f 76 93 01 be f6 21 ba bf
       -0.21298292 0.6446569 -0.12653908 -1.4541614
000020 c7 70 ed bf 6c 34 0e 3f 1b c5 7b 3e 54 5a 61 be
       -1.8550042 0.5554874 0.24586909 -0.22007114
000030 aa 59 5e bf 68 36 ed be a7 fb a1 3e 5d b9 17 3e
       -0.86855567 -0.4633057 0.31637308 0.14816804

encoder_variable_selection.single_variable_grns.Cases.resample_norm.norm.weight f4 [16]
000000 77 93 b6 3f 4c eb cb 3f 64 ba 2b 3f f0 ca 54 3f
       1.4263753 1.5931182 0.67081285 0.8312216
000010 7a 5e 5f 3f 67 06 d5 3f 63 c5 c7 3f 90 6a 30 3f
       0.87253535 1.6642579 1.5607113 0.689126
000020 65 0d 14 3f 02 39 f6 3f 7e 6c b4 3f c1 19 93 3f
       0.5783294 1.9236147 1.4095609 1.1492234
000030 74 13 35 3e 0b 06 3d 3f 83 f4 d3 3f a3 27 af 3f
       0.17683202 0.73837346 1.6558994 1.3683971

encoder_variable_selection.single_variable_grns.Cases.resample_norm.norm.bias f4 [16]
000000 3f 5a ea 3e 70 99 19 3e c6 57 ae be 0f 5f 1a bf
       0.45771977 0.14999938 -0.3405134 -0.603013
000010 9b a9 80 3e 61 e8 00 bf 94 2f ce bd 8d b2 6c be
       0.251294 -0.5035458 -0.100676686 -0.23114987
000020 72 73 53 bd 71 df 72 bc df 85 2f 3e 7b 2d dc bc
       -0.05162377 -0.01482378 0.17140912 -0.026877156
000030 d5 30 71 3e bb 8b a3 be b9 d3 d9 3e 12 f8 a6 3e
       0.23553784 -0.31942543 0.42544344 0.32611138
