TFT-pytorch/results/TFT_baseline/checkpoints/latest-epoch=7.ckpt (torch, 847205 bytes, 815 tensors)

prescalers.AgeDist.weight f4 [8, 1]
0	0xbe5a320c	-0.21308154
1	0xbf13c2a2	-0.5771886
2	0x3f1b178a	0.6058279
3	0x3ea7e134	0.32789004
4	0xbf4bed1f	-0.79658693
5	0xbef58dc9	-0.47959736
6	0xbf16404b	-0.58691853
7	0xbcc79514	-0.024363078

prescalers.AgeDist.bias f4 [8]
0	0x3cdc4b19	0.026891278
1	0x3e2eebf9	0.17082204
2	0x3f73ffe5	0.9531234
3	0x3f197775	0.599479
4	0xbf372170	-0.71535397
5	0xbf4a7a1b	-0.7909257
6	0xbece61a2	-0.40308863
7	0x3d8b5055	0.068024315

prescalers.HealthDisp.weight f4 [8, 1]
0	0x3f80df8b	1.006822
1	0xbfb3c090	-1.404314
2	0x3f89c747	1.076394
3	0xbf5c0a31	-0.8595305
4	0x3f8300fc	1.0234675
5	0xbdf227ec	-0.11824021
6	0x3f66b34e	0.9011735
7	0x3e75b3d1	0.23994376

prescalers.HealthDisp.bias f4 [8]
0	0xbe48c80a	-0.19607559
1	0x3ebce5a8	0.36893964
2	0x3e99a33f	0.3000736
3	0x3f32039f	0.69536775
4	0x3e127d1f	0.14305542
5	0xbf09003e	-0.53515995
6	0x3e9f17cd	0.31072846
7	0x3e3cd0c2	0.1843901

prescalers.SinWeekly.weight f4 [8, 1]
0	0x3e829a46	0.25508326
1	0x3e080b6e	0.1328561
2	0x3eaf3b31	0.34224847
3	0x3fc47ccd	1.5350586
4	0xbf1f4cd6	-0.6222662
5	0xbf4e4999	-0.8058105
6	0xbeb01513	-0.34391078
7	0xbf8b289d	-1.0871769

prescalers.SinWeekly.bias f4 [8]
0	0x3e628682	0.22121623
1	0xbe086b7b	-0.1332225
2	0xbe3be652	-0.18349579
3	0x3f7b75c1	0.98226553
4	0x3f0a2ac3	0.539715
5	0x3e268b09	0.16263975
6	0xbef9a1bb	-0.48756203
7	0xbce29dde	-0.027663168

prescalers.CosWeekly.weight f4 [8, 1]
0	0x3f232551	0.63728815
1	0xbf3700eb	-0.71485776
2	0xbf1744f1	-0.5908957
3	0x3f797d18	0.974565
4	0x3faeffd9	1.3671829
5	0xbd3e5af5	-0.046473462
6	0xbf8b3db7	-1.0878209
7	0xbe84022a	-0.257829

prescalers.CosWeekly.bias f4 [8]
0	0xbe34131b	-0.17585413
1	0xbf17e6f9	-0.5933681
2	0x3ed24feb	0.41076598
3	0x3ef3c14d	0.47608414
4	0x3ec1408f	0.37744567
5	0xbdf8faa6	-0.121571824
6	0x3dc02444	0.09381917
7	0xbef2e9b6	-0.47443932

prescalers.DiseaseSpread.weight f4 [8, 1]
0	0xbefaf434	-0.49014437
1	0xbe612b99	-0.21989287
2	0xbfdcb253	-1.724192
3	0xbf565f9d	-0.83739644
4	0x3f3b87ba	0.7325398
5	0x3fb508de	1.4143331
6	0xbd785868	-0.060631186
7	0x3d829863	0.06376722

prescalers.DiseaseSpread.bias f4 [8]
0	0x3e8f7dc2	0.28025633
1	0xbe906297	-0.28200218
2	0xbdd59a72	-0.10429849
3	0x3f80e285	1.0069128
4	0xbec441f7	-0.38331577
5	0xbdb83d0e	-0.0899602
6	0x3daaf8e5	0.08348254
7	0xbcae0546	-0.021242749

prescalers.Transmission.weight f4 [8, 1]
0	0x3fb489a9	1.410451
1	0xbfe5de23	-1.7958416
2	0xbe19ceca	-0.1502029
3	0xbf3b00ab	-0.73047894
4	0xbf7a46d5	-0.9776433
5	0xbea9c655	-0.33159128
6	0x3f9cca6f	1.2249278
7	0x3fb117b7	1.3835362

prescalers.Transmission.bias f4 [8]
0	0xbe0d3a72	-0.13791826
1	0x3f6895c3	0.9085352
2	0xbf0ca79a	-0.5494324
3	0xbf507286	-0.8142475
4	0xbda70772	-0.08155717
5	0x3dd5651f	0.10419678
6	0xbf6c4834	-0.92297673
7	0xbf270cff	-0.65254205

prescalers.VaccinationFull.weight f4 [8, 1]
0	0xbed0a587	-0.40751287
1	0x3fb72bc0	1.4310226
2	0x3c9382e8	0.018006757
3	0x3f66322c	0.89920306
4	0xbf197bc8	-0.599545
5	0xbfb2f91b	-1.3982271
6	0xbf143428	-0.57892084
7	0x3ce909c4	0.02844704

prescalers.VaccinationFull.bias f4 [8]
0	0xbe604782	-0.21902278
1	0xbf52c00a	-0.8232428
2	0x3e84ec81	0.25961688
3	0xbe811e82	-0.25218588
4	0xbf0db0d2	-0.5534793
5	0x3ebfd039	0.3746355
6	0xbea28564	-0.31742394
7	0x3cbc50c6	0.022987735

prescalers.SocialDist.weight f4 [8, 1]
0	0x3f0555f5	0.52084285
1	0xbc716fb4	-0.014736105
2	0xbecd417e	-0.4008903
3	0xbef7722b	-0.4832929
4	0xbf079aa8	-0.5297036
5	0xbf11f0c2	-0.5700799
6	0xbf8a2563	-1.079266
7	0x3f2fe98f	0.6871576

prescalers.SocialDist.bias f4 [8]
0	0xbdf124da	-0.11774607
1	0x3d2b61b0	0.04184121
2	0x3f334683	0.7002947
3	0x3b365530	0.0027821772
4	0x3f017256	0.5056509
5	0xbe5d1cc9	-0.21593012
6	0xbf88476d	-1.0646797
7	0xbf145761	-0.5794583

prescalers.Cases.weight f4 [8, 1]
0	0x3ebb9958	0.3664043
1	0x3f3c194c	0.734761
2	0xbf3f338a	-0.7468802
3	0xbea30a06	-0.31843585
4	0xbf91c920	-1.1389503
5	0x3f38f822	0.7225362
6	0x3f3da0bc	0.74073386
7	0x3e92675c	0.28594482

prescalers.Cases.bias f4 [8]
0	0xbf3c3624	-0.7352011
1	0x3f2c24ed	0.67243844
2	0x3f746e96	0.9548124
3	0xbe38724f	-0.18012355
4	0xbef1db86	-0.47237796
5	0x3e9c2d25	0.30503193
6	0x3e4d2009	0.20031752
7	0xbe019098	-0.12652814

static_variable_selection.flattened_grn.resample_norm.mask f4 [2]
0	0x3eacc9ee	0.3374781
1	0xbeaaf415	-0.33389345

static_variable_selection.flattened_grn.resample_norm.norm.weight f4 [2]
0	0x3f551b5f	0.8324489
1	0x3f551cff	0.8324737

static_variable_selection.flattened_grn.resample_norm.norm.bias f4 [2]
0	0x3ea3d7a4	0.32000458
1	0xbea3e5fd	-0.32011405

static_variable_selection.flattened_grn.fc1.weight f4 [2, 16]
0	0x3eda5a15	0.42646852
1	0xbe9f224c	-0.31080854
2	0xbf4d2357	-0.8013205
3	0xbf7aba22	-0.97940266
4	0xbeb0594b	-0.34443125
5	0x3e53fbf0	0.20701575
6	0xbf29af56	-0.66283166
7	0x3f9da7f1	1.2316877
8	0x3e2e5dde	0.17027995
9	0xbe942df3	-0.28941306
10	0x3b79a7ef	0.003809448
11	0xbeaad6fc	-0.33367145
12	0xbebe7bba	-0.3720377
13	0x3f88139f	1.0630988
14	0xbeb3f1c7	-0.351454
15	0x3db2db90	0.087332845
16	0xbf135e5f	-0.57565874
17	0x3e675247	0.2258998
18	0xbf1761ba	-0.59133494
19	0xbeb82b9c	-0.3597077
20	0xbe514bbf	-0.20439051
21	0x3f2dc474	0.6787789
22	0xbefa29a4	-0.48859894
23	0xbeaa9ae2	-0.3332129
24	0xbe585518	-0.2112621
25	0xbf5a6f23	-0.8532583
26	0x3e8d235e	0.27566046
27	0xbf02884a	-0.5098921
28	0x3e3a8a62	0.18216851
29	0x3ed1bd05	0.40964523
30	0xbea60718	-0.32427287
31	0xbd8cbd6e	-0.06872068

static_variable_selection.flattened_grn.fc1.bias f4 [2]
0	0xbf463faf	-0.77440923
1	0xbef836f4	-0.48479426

static_variable_selection.flattened_grn.fc2.weight f4 [2, 2]
0	0xbfaa2eb0	-1.3295498
1	0xbfb4e609	-1.4132701
2	0xbfa97f33	-1.3241943
3	0xbd081535	-0.03322335

static_variable_selection.flattened_grn.fc2.bias f4 [2]
0	0x3f065fb2	0.5248977
1	0x3e229535	0.1587723

static_variable_selection.flattened_grn.gate_norm.glu.fc.weight f4 [4, 2]
0	0x3f72a16c	0.9477756
1	0xbe29b250	-0.16571927
2	0x3e887f12	0.26659447
3	0xbe8e4607	-0.27787802
4	0xbb2e0c4f	-0.002655763
5	0xbe99c26e	-0.3003115
6	0xbf8366d8	-1.026576
7	0xbf618134	-0.88087773

static_variable_selection.flattened_grn.gate_norm.glu.fc.bias f4 [4]
0	0x3e8e85b7	0.2783639
1	0xbe57fa6a	-0.21091619
2	0x3ed8d107	0.42346975
3	0xbf1a36f2	-0.6024009

static_variable_selection.flattened_grn.gate_norm.add_norm.norm.weight f4 [2]
0	0x3d0a173e	0.03371357
1	0x3d0a1710	0.0337134

static_variable_selection.flattened_grn.gate_norm.add_norm.norm.bias f4 [2]
0	0xbde629d9	-0.112384506
1	0x3de629c7	0.11238437

static_variable_selection.single_variable_grns.AgeDist.resample_norm.mask f4 [16]
0	0xbf1ce0cf	-0.6128053
1	0xbc35c0b9	-0.011093312
2	0xbe9818a5	-0.29706302
3	0xbe93ff6b	-0.28905806
4	0x3f1bb929	0.60829407
5	0x3e072803	0.13198857
6	0x3f8de0b4	1.1084199
7	0xbea760ef	-0.32691142
8	0xbf5d9cf1	-0.865676
9	0x3f8aa90d	1.083284
10	0x3d478acc	0.04871635
11	0x3e616422	0.22010854
12	0x3e2ca658	0.1686033
13	0xbf866d95	-1.0502192
14	0xbf31554d	-0.69270784
15	0xbf5f981f	-0.87341493

static_variable_selection.single_variable_grns.AgeDist.resample_norm.norm.weight f4 [16]
0	0x3f89d9b0	1.0769558
1	0x3fd661b4	1.6748567
2	0x3fd4d840	1.6628494
3	0x3f956bcb	1.1673521
4	0x3ff1e7a2	1.8898814
5	0x3faebbab	1.3651022
6	0x3fcde526	1.6085556
7	0x3e9789e0	0.29597378
8	0x3f014314	0.5049298
9	0x3ff225eb	1.8917822
10	0x3fe94190	1.8223133
11	0x3fc763a2	1.557728
12	0x3dbf5ae5	0.09343509
13	0x3f3abfaa	0.72948706
14	0x3f3d376b	0.73912686
15	0x3f6f350e	0.9344033

static_variable_selection.single_variable_grns.AgeDist.resample_norm.norm.bias f4 [16]
0	0xbf18ed15	-0.5973676
1	0x3f37c00e	0.7177743
2	0x3ec079fa	0.3759306
3	0x3e133fd6	0.1437982
4	0x3f079701	0.5296479
5	0x3e825803	0.25457773
6	0x3f4a805d	0.79102117
7	0xbede28e5	-0.43390575
8	0xbe98e99d	-0.29865733
9	0xbcbcfc1b	-0.023069432
10	0xbf64de25	-0.89401466
11	0xbef33594	-0.47501814
12	0x3f39683c	0.72424674
13	0xbf1dff9a	-0.6171814
14	0xbed12a5d	-0.40852633
15	0x3cbc2cb1	0.02297053

static_variable_selection.single_variable_grns.AgeDist.fc1.weight f4 [8, 8]
0	0xbee155a3	-0.44010648
1	0xbe924796	-0.2857024
2	0xbe3604b1	-0.17775227
3	0x3f176437	0.5913729
4	0xbfcabeca	-1.5839474
5	0xbea47d61	-0.32126907
6	0xbdab4fdc	-0.08364841
7	0x3f25fb16	0.6483625
8	0x3f09e029	0.53857666
9	0x3f1b15ff	0.6058044
10	0x3e13796d	0.14401789
11	0x3df1e418	0.118110836
12	0xbf8c71c5	-1.097222
13	0xbe9b40f7	-0.30323002
14	0xbfb4401a	-1.4082062
15	0xbd2a3808	-0.04155734
16	0x3ec3ad18	0.38217998
17	0x3fd5c6b3	1.6701263
18	0xbee752b6	-0.4518029
19	0x3e9cbc66	0.30612487
20	0x3fdc3a99	1.7205383
21	0x3f7dadef	0.99093527
22	0xbf111b26	-0.5668205
23	0x3d88a784	0.06672576
24	0x3ed792ad	0.42104092
25	0xbf50284d	-0.81311494
26	0x3e9eda37	0.3102586
27	0x3eced7b6	0.4039895
28	0x3f30cea6	0.6906532
29	0x3eab116d	0.33411732
30	0xbe1ef659	-0.15523662
31	0xbe31c505	-0.17360313
32	0x3e2f768b	0.17135064
33	0x3e226cfb	0.15861885
34	0x3e1a599d	0.15073247
35	0x3e593223	0.21210532
36	0xbda85ae9	-0.08220465
37	0x3dd612a5	0.10452775
38	0x3f75a4c8	0.9595456
39	0xbf21d793	-0.63219565
40	0xbcb127fc	-0.021625511
41	0xbe811499	-0.25211027
42	0x3f20af20	0.6276722
43	0x3f779a44	0.96719766
44	0xc011cb26	-2.2780242
45	0xbee5ece3	-0.44907293
46	0xbf87b5f2	-1.06024
47	0xbedc25f3	-0.42997703
48	0xbe6a2088	-0.22863972
49	0x3eab1c0d	0.3341984
50	0xbf064748	-0.52452517
51	0x3f3ef8c6	0.7459835
52	0xbd7e6dcc	-0.06211643
53	0x3e6db159	0.23212184
54	0xbdd22a73	-0.10262003
55	0x3d470745	0.048590917
56	0xbdd93e3c	-0.106075734
57	0xbe808afe	-0.25106043
58	0xbe89a333	-0.26882324
59	0x3ebf5284	0.37367642
60	0x3fa85520	1.3150978
61	0xbe9e499c	-0.30915534
62	0x3dd7d1bb	0.1053805
63	0x3e009dde	0.12560222

static_variable_selection.single_variable_grns.AgeDist.fc1.bias f4 [8]
0	0x3e44a253	0.19202547
1	0xbd8aed75	-0.067835726
2	0xbe70b464	-0.23506314
3	0xbe032333	-0.12806396
4	0xbed2c35e	-0.41164678
5	0x3da9125f	0.08255457
6	0xbe6444cb	-0.22291867
7	0xbe866136	-0.2624604

static_variable_selection.single_variable_grns.AgeDist.fc2.weight f4 [8, 8]
0	0x3e58c466	0.2116867
1	0x3f00260c	0.50058055
2	0x3f65d402	0.89776623
3	0xbf656dcc	-0.8962066
4	0xbe0a841b	-0.13526957
5	0xbf7cd78f	-0.98766416
6	0xbe0cf013	-0.13763456
7	0xbf30bed1	-0.6904116
8	0x3f0dd864	0.5540831
9	0xbe20026b	-0.15625922
10	0xbe498a72	-0.19681719
11	0xbf5da7e9	-0.86584336
12	0x3e81fbaf	0.25387332
13	0x3e6364b0	0.22206378
14	0x3ec13741	0.37737468
15	0xbf84f2cd	-1.0386597
16	0x3f39c05a	0.7255913
17	0xbf086fce	-0.532956
18	0x3f0b89a5	0.54506904
19	0xbe04ea5a	-0.12980023
20	0xbcb8cd95	-0.022558967
21	0xbf71ff0a	-0.94529784
22	0x3e5c8b33	0.21537475
23	0x3f34c8cc	0.7061889
24	0xbe43facb	-0.19138639
25	0xbef23049	-0.47302464
26	0x3f6c136c	0.92217135
27	0x3dc0c4ca	0.094125345
28	0xbe923758	-0.2855785
29	0xbeef4322	-0.46730906
30	0xbe1a2a04	-0.1505509
31	0xbcad378c	-0.02114465
32	0xbf1061b5	-0.5639909
33	0xbf445c39	-0.7670322
34	0x3f9e0732	1.2345946
35	0x3f36ae01	0.7135926
36	0x3e1a4391	0.15064837
37	0xbf128f80	-0.57250214
38	0x3dae85f2	0.08521642
39	0xbed04c2a	-0.4068311
40	0x3f13468d	0.57529527
41	0x3dc267d0	0.09492457
42	0x3e039e70	0.12853408
43	0xbe77df4f	-0.24206279
44	0xbed3276f	-0.41241023
45	0x3ecbb2ed	0.39784947
46	0x3e454eba	0.19268313
47	0x3d39e80d	0.045387316
48	0x3de670e2	0.112519994
49	0x3e80a095	0.25122514
50	0x3f4852d8	0.7825141
51	0x3ec3a793	0.38213786
52	0x3c5af8e3	0.013365003
53	0x3db27381	0.08713437
54	0x3f008c79	0.50214344
55	0x3ea74063	0.3266631
56	0x3e8326da	0.2561558
57	0x3e11529a	0.14191666
58	0xbec1bd59	-0.37839773
59	0xbbabf226	-0.005247372
60	0xbf1c67ef	-0.6109609
61	0x3f6a01f6	0.9140924
62	0xbdc714cf	-0.09720766
63	0xbf4fc83d	-0.81164914

static_variable_selection.single_variable_grns.AgeDist.fc2.bias f4 [8]
0	0xbd61cf99	-0.05512962
1	0x3e91ff73	0.28515205
2	0xbe265197	-0.16242062
3	0x3b8d2f29	0.0043086004
4	0xbe8d3772	-0.27581364
5	0xbe38500d	-0.17999287
6	0xbcdb7524	-0.026789255
7	0x3eab42d9	0.33449438

static_variable_selection.single_variable_grns.AgeDist.gate_norm.glu.fc.weight f4 [32, 8]
0	0xbf6a2854	-0.91467786
1	0x3ebe290c	0.3714069
2	0xbeb80ea2	-0.35948664
3	0xbee68274	-0.45021403
4	0xbf0bfb3d	-0.54680234
5	0x3f44a09e	0.7680758
6	0xbe99e527	-0.30057642
7	0x3f127200	0.572052
8	0x3dcdedfe	0.10055159
9	0x3e75741f	0.23970078
10	0xbb72b943	-0.0037036694
11	0xbf056fbb	-0.5212361
12	0xbe5aec29	-0.2137915
13	0x3e984d2f	0.29746386
14	0xbef0bb3b	-0.47017846
15	0x3ec7a92b	0.38996252
16	0x3f2fe494	0.6870816
17	0xbe35b025	-0.17742975
18	0x3ea0cc66	0.31405944
19	0x3ed50448	0.4160483
20	0xbe228d0f	-0.15874122
21	0xbead0874	-0.33795512
22	0x3dec36d8	0.11533898
23	0xbe23cb22	-0.15995458
24	0x3f4057ef	0.75134176
25	0xbf3b17c1	-0.7308312
26	0x3f16d6f0	0.5892172
27	0x3fa069d2	1.2532294
28	0x3f5cce27	0.86252064
29	0xbf27447c	-0.65338874
30	0x3f1d613d	0.614765
31	0xbf609976	-0.8773416
32	0x3e2951e1	0.1653514
33	0x3e0dbed5	0.13842328
34	0xbf2a39e4	-0.66494584
35	0xbdca1ec1	-0.09869147
36	0xbe68612a	-0.22693315
37	0x3ead5c21	0.3385935
38	0xbaea5c21	-0.001788024
39	0x3e28085d	0.1640944
40	0xbeb7791a	-0.3583458
41	0x3e1bd27d	0.15217014
42	0xbe1018ab	-0.1407191
43	0x3ef8b652	0.485766
44	0xbe878c47	-0.2647421
45	0x3ea0cd86	0.31406802
46	0x3e2f65d9	0.17128696
47	0xbe026bdf	-0.12736462
48	0x3dc69818	0.09696978
49	0x3e2bee5f	0.1679015
50	0xbea3f509	-0.32022884
51	0x3e120ea5	0.14263399
52	0x3db6afd3	0.089202546
53	0xbedb0192	-0.42774636
54	0xbef84c85	-0.4849588
55	0xbdd32f5f	-0.1031177
56	0xbe11e0d5	-0.14245923
57	0xbdc6d2b0	-0.09708154
58	0xbce60985	-0.028080711
59	0x3e86ad61	0.26304153
60	0x3f6d35b8	0.92660093
61	0xbec9cb06	-0.39412707
62	0xbe903121	-0.28162482
63	0xbf188fad	-0.5959423
64	0xbeb2b53e	-0.34903902
65	0x3e608f26	0.21929607
66	0xbf26ccc7	-0.65156215
67	0xbf2fe36e	-0.68706405
68	0xbf6336fe	-0.88755786
69	0x3ead9d17	0.33908913
70	0xbf30ecea	-0.691115
71	0x3f3cb0d1	0.737073
72	0x3e25c554	0.16188556
73	0xbefcbc80	-0.49362564
74	0x3e132229	0.143685
75	0x3e29915e	0.1655936
76	0x3dc1a2cd	0.0945488
77	0x3edf5d43	0.4362584
78	0x3e6289d6	0.22122893
79	0xbe87fdd4	-0.26560843
80	0xbf71b6e6	-0.94419706
81	0x3e1f3ea0	0.15551233
82	0xbf3d94bf	-0.74055094
83	0xbf62984f	-0.88513654
84	0xbf4d2877	-0.8013987
85	0x3ec84763	0.39116964
86	0xbf46bbc7	-0.77630275
87	0x3f07b76a	0.5301424
88	0xbe7b70e8	-0.24554789
89	0xbf18518a	-0.5949942
90	0x3f54e204	0.8315737
91	0xbe3e28a8	-0.18570197
92	0x3e2b074f	0.16702007
93	0xbda17f37	-0.078855924
94	0x3dd25d55	0.10271708
95	0x3dbd9e5b	0.092587195
96	0x3f3cdfe2	0.7377912
97	0x3f1f2469	0.6216493
98	0xbeafcaa7	-0.343343
99	0x3dcda079	0.10040373
100	0xbecd48ee	-0.40094703
101	0x3e89e737	0.26934215
102	0xbf1c4de4	-0.6105635
103	0x3dfd863c	0.12379119
104	0xbd8b24b6	-0.067941114
105	0xbd99532e	-0.074865684
106	0x3e98b335	0.29824224
107	0x3edc8065	0.43066707
108	0xbe98dedb	-0.29857525
109	0x3e90b82b	0.2826551
110	0xbe957474	-0.2919041
111	0xbf16677e	-0.58751667
112	0xbf793eb3	-0.97361296
113	0x3f29f138	0.66383696
114	0xbf14b4fd	-0.58088666
115	0xbf85103d	-1.039558
116	0xbf316651	-0.6929675
117	0x3f89106c	1.0708137
118	0xbf2c45c8	-0.6729398
119	0x3f576b1f	0.8414783
120	0xbec1f3fe	-0.37881464
121	0x3df03e98	0.11730689
122	0x3c98cab0	0.018651336
123	0x3e6cc40d	0.23121662
124	0xbe916435	-0.28396764
125	0x3e42cfd3	0.19024591
126	0x3f0e32fa	0.55546534
127	0x3e9b378e	0.30315822
128	0xbfb00e86	-1.3754432
129	0x3e7b3e29	0.24535431
130	0xbccd0660	-0.025027454
131	0xbe8969aa	-0.26838428
132	0xbdfff715	-0.12498299
133	0x3eb062d1	0.3445039
134	0xbf2f37c1	-0.6844445
135	0x3e9467d7	0.28985474
136	0x3e1b7f5f	0.15185307
137	0x3e4b2a79	0.19840421
138	0x3eafc36c	0.34328783
139	0x3e97c6d5	0.29643884
140	0xbd092b43	-0.033488523
141	0x3e2e9014	0.17047149
142	0x3da87c2c	0.08226809
143	0xbedefaab	-0.4355062
144	0x3e3b95dc	0.18318886
145	0xbf6fc8dc	-0.9366586
146	0x3ee6d603	0.45085153
147	0x3f08c0db	0.53419274
148	0x3f15c07b	0.58496827
149	0x3decf1d4	0.115695626
150	0x3c72794a	0.014799425
151	0xbf7094db	-0.93977135
152	0x3e42a367	0.19007646
153	0x3f0f5e82	0.5600358
154	0x3db9c60a	0.09070976
155	0xbe8549f8	-0.26032996
156	0xbdd52401	-0.10407258
157	0x3dac46b4	0.08411923
158	0x3f0dc692	0.5538112
159	0x3d25ca5c	0.040476188
160	0xbeb1721d	-0.34657374
161	0xbbcd0d31	-0.006257676
162	0x3f3505d4	0.7071202
163	0xbf17fc4b	-0.59369344
164	0x3e9bd609	0.30436733
165	0x3e823c58	0.25436664
166	0x3e626164	0.22107464
167	0x3e9e5d88	0.30930734
168	0xbe4ff06e	-0.2030656
169	0xbeecc53a	-0.46244222
170	0x3d7c2443	0.06155802
171	0xbf884a6a	-1.0647709
172	0x3e87e19b	0.2653931
173	0xbca3cc31	-0.019994827
174	0x3e6321a4	0.22180802
175	0x3e813429	0.25235108
176	0x3e76e99c	0.24112552
177	0x3eb03b98	0.34420466
178	0x3e253cd0	0.1613648
179	0xbca4a517	-0.020098252
180	0xbf48c134	-0.78419805
181	0xbe2d4934	-0.16922456
182	0x3e847bb2	0.25875622
183	0xbeb22207	-0.34791586
184	0x3e5c449b	0.21510546
185	0x3e0286eb	0.1274678
186	0x3e1b1c97	0.15147625
187	0x3e06a90b	0.13150422
188	0x3e6d1c58	0.23155344
189	0xbe07e66d	-0.13271494
190	0x3e7a636d	0.2445199
191	0xbf1af702	-0.60533154
192	0xbef14264	-0.47120965
193	0xbf6888e3	-0.9083387
194	0xbdc230c9	-0.09481961
195	0x3eb68ffe	0.35656732
196	0x3e9dcac7	0.3081877
197	0x3d6b69b0	0.05747384
198	0xbdeba988	-0.11506945
199	0xbf36d929	-0.7142511
200	0xbf9b1d4b	-1.2118315
201	0x3e8f59bb	0.27998146
202	0xbecf128a	-0.40443832
203	0xbfa1338d	-1.2593857
204	0xbf09ac1a	-0.5377823
205	0x3f15bfd0	0.5849581
206	0xbf792fe1	-0.9733868
207	0xbd5d2205	-0.05398752
208	0xbe1da67e	-0.15395543
209	0x3e4ff6b9	0.20308961
210	0xbf36ed71	-0.71456057
211	0x3e84659e	0.25858778
212	0xbe93aa15	-0.288407
213	0xbd014828	-0.031562954
214	0x3dff535d	0.12467072
215	0x3bd824db	0.0065961904
216	0xbd077eb0	-0.033079803
217	0xbeb99897	-0.3624923
218	0x3f0953a9	0.5364328
219	0x3f26338f	0.6492242
220	0x3f721d9a	0.9457642
221	0xbf80f124	-1.007359
222	0x3f43e9bf	0.76528543
223	0xbf34a651	-0.7056628
224	0x3f611be9	0.8793321
225	0x3d8b919b	0.068148814
226	0x3ed7a1a5	0.42115512
227	0x3e260337	0.16212164
228	0x3e977513	0.29581508
229	0x3e6ff8a9	0.234347
230	0x3edcd330	0.43129873
231	0xbe8d0ef6	-0.27550477
232	0xbea348d8	-0.31891513
233	0xbed5f792	-0.41790444
234	0x3eadec4d	0.33969346
235	0x3e837469	0.2567475
236	0xbe11d078	-0.14239681
237	0x3e7d6411	0.24745204
238	0x3e6046c2	0.21901992
239	0xbf151722	-0.5823842
240	0xbfce4712	-1.6115439
241	0xbe33a0fc	-0.1754188
242	0xbf417d6b	-0.75582
243	0xbf8490a3	-1.035664
244	0xbef91ba0	-0.4865389
245	0x3dd35646	0.1031919
246	0xbf44776f	-0.7674474
247	0x3d3380a5	0.043823857
248	0xbeaaa786	-0.33330935
249	0xbebf6c28	-0.37387204
250	0xbf04d69b	-0.5188996
251	0xbdbbca55	-0.09169451
252	0xbd32b0d7	-0.04362568
253	0x3dae9801	0.08525086
254	0x3ea790c2	0.3272763
255	0x3d1fef00	0.039046288

static_variable_selection.single_variable_grns.AgeDist.gate_norm.glu.fc.bias f4 [32]
0	0xbf0a773d	-0.54088193
1	0x3f2dbde0	0.6786785
2	0x3ec1f096	0.37878865
3	0xbdb5f00a	-0.088836744
4	0x3f09c1d3	0.5381138
5	0x3e13bdf3	0.14427929
6	0x3f3dd24f	0.7414903
7	0xbf08862f	-0.5332975
8	0xbeb6cadc	-0.35701644
9	0x3e38f438	0.18061912
10	0xbda96829	-0.0827182
11	0xbf017d8d	-0.505822
12	0x3f3dd704	0.7415621
13	0xbf0c2a09	-0.5475164
14	0xbe0985c4	-0.13429934
15	0x3e781a4f	0.24228786
16	0xbf40a4f5	-0.75251704
17	0xbef3d22e	-0.47621292
18	0xbe544d6f	-0.20732664
19	0x3f97d8b2	1.1863005
20	0xbee31cd4	-0.44357932
21	0xbe24e54d	-0.16103096
22	0x3e0a1bf4	0.13487226
23	0x3e30053d	0.17189498
24	0xbeecce06	-0.46250933
25	0xbf31385e	-0.69226635
26	0x3f33785c	0.7010553
27	0xbdc163aa	-0.094428375
28	0x3f20da54	0.6283314
29	0xbee62753	-0.44951877
30	0xbf30fcfc	-0.69136024
31	0x3f0198b0	0.5062361

static_variable_selection.single_variable_grns.AgeDist.gate_norm.add_norm.norm.weight f4 [16]
0	0x3fa4cc45	1.2874838
1	0x3f970826	1.1799362
2	0x3fa38a94	1.2776666
3	0x3fe0961c	1.754581
4	0x3fd2aa6e	1.6458261
5	0x3f261985	0.6488269
6	0x3fa815c7	1.3131646
7	0x3f8f2a08	1.1184702
8	0x3f85a6bb	1.0441507
9	0x40029632	2.0404172
10	0x3fd29933	1.6453003
11	0x3f911a80	1.1336212
12	0x3f32eb4f	0.698903
13	0x3f7b39d7	0.9813513
14	0x400015d6	2.0013328
15	0x3ee41781	0.44549182

static_variable_selection.single_variable_grns.AgeDist.gate_norm.add_norm.norm.bias f4 [16]
0	0x3e54673d	0.20742507
1	0x3d5f105f	0.054458972
2	0x3b0167ba	0.0019745664
3	0xbe261540	-0.16219044
4	0x3ea66761	0.32500747
5	0xbe6cb0e9	-0.23114361
6	0x3e0844b1	0.13307454
7	0xbe0123b1	-0.12611271
8	0xbe062569	-0.13100208
9	0xbe04d854	-0.12973148
10	0xbe2ca6e4	-0.16860539
11	0xbdf64e21	-0.12026621
12	0x3e10bc4c	0.1413433
13	0x3d35d952	0.044396706
14	0x3e44d4e8	0.19221842
15	0xbdfa3c93	-0.12218585

static_variable_selection.single_variable_grns.HealthDisp.resample_norm.mask f4 [16]
0	0x3ecc8263	0.39943227
1	0x3f8067da	1.0031693
2	0x3f685431	0.90753466
3	0xbe7962a1	-0.2435403
4	0x3dd6ff9a	0.10497971
5	0xbd7e0001	-0.062011722
6	0x3ef0b4f8	0.47013068
7	0xbf0e466b	-0.555762
8	0xbe5bdeaa	-0.21471658
9	0xbedec0b8	-0.43506408
10	0xbf389de0	-0.721159
11	0x3da28434	0.07935372
12	0x3e199c06	0.15000924
13	0xbe880fae	-0.26574463
14	0xbe39a6af	-0.18129991
15	0xbbf68492	-0.007523128

static_variable_selection.single_variable_grns.HealthDisp.resample_norm.norm.weight f4 [16]
0	0x3fed9a6d	1.8562752
1	0x3f9eaab6	1.2395847
2	0x40009e67	2.009668
3	0x3fcec129	1.6152698
4	0x3fcf81d5	1.6211497
5	0x3fa25234	1.2681336
6	0x3ff23b81	1.8924409
7	0x3f69526e	0.911414
8	0x3f8b7ec1	1.0898057
9	0x3f2ed6db	0.68296593
10	0x3f963026	1.1733444
11	0x3fdff383	1.7496189
12	0x3f587ac4	0.84562325
13	0x3f8f2b96	1.1185176
14	0x3f977ccb	1.1834959
15	0x3f58c07a	0.84668696

static_variable_selection.single_variable_grns.HealthDisp.resample_norm.norm.bias f4 [16]
0	0xbdd1a3ae	-0.102362975
1	0x3ca5d6c9	0.02024402
2	0x3df12d17	0.11776178
3	0xbe5a53bc	-0.21321005
4	0x3d80f30c	0.062963575
5	0xbd7a9ab0	-0.061182678
6	0x3e00c99e	0.12576911
7	0x3e0172f1	0.12641503
8	0xbd9bec47	-0.07613426
9	0xbd818879	-0.06324858
10	0x3e296e8d	0.16546078
11	0xbd6fe331	-0.058566276
12	0xbd26fc8a	-0.040768184
13	0xbc8d9dbd	-0.01728713
14	0x3bb7d62b	0.0056102476
15	0x3e35d05f	0.17755269

static_variable_selection.single_variable_grns.HealthDisp.fc1.weight f4 [8, 8]
0	0x3e606765	0.21914442
1	0xbe081c90	-0.13292146
2	0xbea147ae	-0.315
3	0xbfefd318	-1.8736296
4	0x3f0898ff	0.53358454
5	0x3ef8efbd	0.48620406
6	0x3eb3370a	0.3500293
7	0xbefbf78b	-0.49212298
8	0xbf2ecd6c	-0.682822
9	0x3ead4991	0.3384519
10	0xbff62a26	-1.9231613
11	0xbe2bcf27	-0.16778241
12	0xbf3f49f4	-0.7472222
13	0xbe80ff1d	-0.25194636
14	0xc0130ea9	-2.2977698
15	0xbf392612	-0.72323716
16	0x3b0659dc	0.0020500338
17	0x3ef15404	0.4713441
18	0x3f29d5c0	0.6634178
19	0x3e87f0bc	0.26550853
20	0x3e9c6e34	0.30552828
21	0xbdea7fc0	-0.11450148
22	0xbed17b4f	-0.4091439
23	0x3edfac43	0.43686113
24	0x3ef98c44	0.48739827
25	0xbded84a2	-0.11597563
26	0xbf7eb30a	-0.9949194
27	0x3f12543f	0.571598
28	0x3cd90ea0	0.026496232
29	0x3e39137b	0.18073837
30	0xbea59c4b	-0.32345805
31	0xbf56879d	-0.8380068
32	0xbd26e4da	-0.040745594
33	0xbec2d18b	-0.38050494
34	0x3eedc2fe	0.4643783
35	0xbe6963af	-0.22791933
36	0xbe8afe5d	-0.2714719
37	0xbeeb4e46	-0.45958155
38	0xbe4b6d22	-0.1986585
39	0xbe4f01d6	-0.20215544
40	0xbd8cae94	-0.06869236
41	0xbee428d9	-0.44562414
42	0xbed9cab3	-0.4253746
43	0xbf074986	-0.5284656
44	0xbe3c132e	-0.18366691
45	0x3f168b15	0.5880597
46	0x3f29939b	0.66240853
47	0xbf115e29	-0.567843
48	0x3f63d465	0.88995963
49	0xbcf40c6b	-0.029791078
50	0x3e1d3545	0.15352352
51	0xbf688ee6	-0.90843046
52	0xbf90cde6	-1.1312835
53	0x3eca0844	0.3945943
54	0x3ee8ff7f	0.45507428
55	0xbe77c4ed	-0.24196215
56	0xbf906931	-1.1282102
57	0xbf2e9a24	-0.6820395
58	0x3e2b3524	0.1671949
59	0xbe9f2fe9	-0.3109124
60	0x3e0f2a87	0.13981067
61	0x3d747fc3	0.059692156
62	0xbe3b7cc3	-0.18309312
63	0x3e4e8e61	0.201715

static_variable_selection.single_variable_grns.HealthDisp.fc1.bias f4 [8]
0	0xbef7ff32	-0.48436886
1	0x3d664f8e	0.056228213
2	0xbf306c7e	-0.68915546
3	0xbda5773a	-0.08079381
4	0xbe830d98	-0.2559631
5	0xbeb0c645	-0.34526268
6	0x3d00f9ab	0.031488102
7	0xbbb1942d	-0.0054192753

static_variable_selection.single_variable_grns.HealthDisp.fc2.weight f4 [8, 8]
0	0x3eb4d923	0.35321912
1	0x3dcb1f91	0.0991813
2	0x3ea40899	0.3203781
3	0x3f107c57	0.5643973
4	0xbecfc625	-0.4058086
5	0x3e474490	0.19459748
6	0x3f07fa47	0.5311627
7	0x3f143a95	0.5790189
8	0xbe7e26f0	-0.24819541
9	0x3f76736c	0.9626987
10	0xbe9b0856	-0.30279797
11	0x3e97cfc0	0.29650688
12	0x3e91e914	0.28498137
13	0xbc4986f5	-0.012300243
14	0x3ea66a11	0.32502797
15	0xbcd16dda	-0.025565077
16	0xbf897c72	-1.0741103
17	0xbf228eae	-0.6349896
18	0xbd4de384	-0.050265804
19	0x3d6ecc1b	0.05830012
20	0xbea241de	-0.31690878
21	0x3e505659	0.20345439
22	0x3e2a362c	0.16622227
23	0xbadd02e4	-0.0016861823
24	0xbe7fce17	-0.24980961
25	0xbf815ff1	-1.0107404
26	0x3e570204	0.20996863
27	0x3eb44e23	0.35215864
28	0xbe8ab5c8	-0.27091813
29	0xbe8ddabb	-0.2770594
30	0xbf482da2	-0.7819463
31	0xbe24228d	-0.16028805
32	0x3f68d01f	0.9094257
33	0xbf6cbf5b	-0.92479485
34	0xbe6f7af9	-0.23386754
35	0x3cf675c4	0.030085452
36	0x3e069ff7	0.13146959
37	0x3e7f130e	0.24909613
38	0xbde07bc0	-0.109611034
39	0xbe94478e	-0.28960842
40	0xbf8c2ebc	-1.0951762
41	0x3e044668	0.12917483
42	0x3d1f06ea	0.038824953
43	0x3ddd7d63	0.10814931
44	0xbeb8263b	-0.35966668
45	0xbdde2a25	-0.10847882
46	0xbd5b1949	-0.05349091
47	0xbe6f1c11	-0.2335055
48	0xbf63061e	-0.8868121
49	0xbf1e6ebb	-0.6188771
50	0xbe7a5845	-0.24447735
51	0xbd01c644	-0.03168322
52	0x3f1ba00e	0.607911
53	0x3e0b41ae	0.13599274
54	0x3ead9c43	0.3390828
55	0x3f014b70	0.50505733
56	0x3f21bad7	0.6317572
57	0x3f2b44f2	0.6690208
58	0x3dea6430	0.114448905
59	0x3f0d6ad0	0.5524111
60	0xbe2838f4	-0.16427976
61	0x3c479efd	0.012183902
62	0xbf0c296e	-0.54750717
63	0xbe8b990b	-0.272652

static_variable_selection.single_variable_grns.HealthDisp.fc2.bias f4 [8]
0	0x3d117787	0.03551438
1	0xbe82b5d7	-0.25529358
2	0x3e11ff51	0.14257552
3	0x3d84187d	0.06449983
4	0x3dbf09d4	0.093280464
5	0x3e8d9c65	0.27658382
6	0x3de156fc	0.11002919
7	0xbebbce96	-0.3668105

static_variable_selection.single_variable_grns.HealthDisp.gate_norm.glu.fc.weight f4 [32, 8]
0	0x3e3ef0e2	0.18646577
1	0x3e31c1be	0.17359063
2	0xbefb10ea	-0.49036342
3	0xbf5951b3	-0.8489029
4	0xbe334c49	-0.17509569
5	0x3dfe855a	0.124277785
6	0xbee992aa	-0.45619708
7	0x3e87d9fb	0.26533493
8	0xbe509009	-0.20367445
9	0x3da6d4cc	0.081460565
10	0x3e9eacf1	0.3099132
11	0x3e0c12bf	0.13679026
12	0xbf2501af	-0.64455694
13	0x3ed2308c	0.41052663
14	0x3e0ef1cb	0.13959424
15	0xbe206108	-0.15662014
16	0x3dad4fda	0.08462496
17	0x3e598885	0.21243484
18	0xbdf3510f	-0.11880695
19	0xbe85e7a7	-0.261533
20	0xbec94a93	-0.39314708
21	0x3ec52059	0.38501242
22	0x3c97652a	0.018480856
23	0x3e8b4ec9	0.27208546
24	0x3dc91f91	0.09820474
25	0x3e30a0ee	0.1724889
26	0xbf00f2b3	-0.5037033
27	0xbec919c2	-0.39277464
28	0x3f068d46	0.52559316
29	0xbe7f0501	-0.24904253
30	0xbe35e3e4	-0.17762715
31	0xbbf316bb	-0.007418481
32	0xbeaba1ac	-0.33521783
33	0xbe509135	-0.20367892
34	0x3e1df212	0.15424374
35	0x3ea12ede	0.3148107
36	0x3ee5be2a	0.44871646
37	0x3e0f9208	0.1402055
38	0x3ede791d	0.43451777
39	0xbee88aa9	-0.4541829
40	0xbe00857b	-0.12550919
41	0xbf88cacb	-1.0686888
42	0x3eb1eaa3	0.34749326
43	0xbcf65af7	-0.030072672
44	0x3efd29c1	0.49445918
45	0xbb2ffc11	-0.0026853124
46	0x3f415213	0.7551586
47	0xbed9c3d7	-0.42532226
48	0xbe7f4af1	-0.24930932
49	0x3ef94d31	0.48691705
50	0x3ceefdc3	0.029173737
51	0x3eee978d	0.466
52	0xbed4151b	-0.41422352
53	0x3f18bd6f	0.5966405
54	0x3eb6aed9	0.35680273
55	0x3d9dec0c	0.07711038
56	0xbe00c254	-0.1257413
57	0x3d8a0063	0.06738355
58	0x3d670d24	0.056409016
59	0x3e9a04b5	0.30081716
60	0x3e0e3bf5	0.1389006
61	0xbeabb4d6	-0.33536404
62	0x3d8c7f88	0.06860262
63	0xbe61ced7	-0.2205156
64	0xbd2a8d67	-0.041638758
65	0xbee279f5	-0.4423367
66	0x3e87b9dd	0.2650899
67	0x3ed57aa4	0.4169513
68	0x3dff7c66	0.12474899
69	0xbe83e1d8	-0.25758243
70	0x3e95dc05	0.29269424
71	0xbefa6df2	-0.48912007
72	0x3f38d2a2	0.721964
73	0xbf0137a7	-0.50475544
74	0xbf300bba	-0.68767893
75	0xbf851e9c	-1.0399966
76	0x3f4ba82a	0.79553473
77	0xbf5a8818	-0.8536391
78	0xbea518c2	-0.3224545
79	0xbf5b2af5	-0.8561242
80	0xbbfc5554	-0.0077006016
81	0xbe676da9	-0.22600426
82	0xbe421bad	-0.1895587
83	0xbd26db0b	-0.04073624
84	0xbe80cdf9	-0.25157145
85	0xbeab316c	-0.33436143
86	0xbe8aa81a	-0.27081376
87	0xbe8afbd8	-0.27145267
88	0xbe1479c4	-0.14499575
89	0x3e9a8de2	0.30186373
90	0xbe279e43	-0.16368966
91	0xbdf4d0c7	-0.119538836
92	0xbeadf0b7	-0.33972713
93	0x3e488aaa	0.19584146
94	0xbef91b24	-0.4865352
95	0x3f27b837	0.65515465
96	0xbe9213ed	-0.28530827
97	0x3ea10d7f	0.3145561
98	0x3f187686	0.5955585
99	0x3ec53e55	0.38524118
100	0xbf05f49a	-0.5232636
101	0x3ed2a376	0.41140336
102	0x3e185cb8	0.1487912
103	0x3e2cc4d1	0.16871955
104	0x3d92de10	0.07171261
105	0xbf221cfe	-0.6332549
106	0xbea05b9d	-0.31319895
107	0x3edfaa49	0.43684605
108	0x3f68ac4c	0.90887904
109	0xbedaade4	-0.42710793
110	0xbe31c69a	-0.17360917
111	0xbf143a13	-0.57901114
112	0xbc7c6fb4	-0.0154074915
113	0x3db41d9e	0.087947115
114	0x3db3b516	0.08774774
115	0xbe36f8d6	-0.17868361
116	0x3e8c9257	0.27455398
117	0x3f2a96ca	0.66636336
118	0x3f10c3f9	0.5654903
119	0xbe8dae41	-0.27672008
120	0xbd24b427	-0.04021087
121	0xbf16fdb0	-0.58980846
122	0x3ee65acc	0.44991148
123	0x3e208cfd	0.15678783
124	0x3ed4028d	0.41408196
125	0xbf79c43e	-0.97565067
126	0xbddf961f	-0.10917305
127	0xbdb0c717	-0.086317234
128	0xbed8f966	-0.42377776
129	0x3f8ef046	1.1167076
130	0xbe1591af	-0.14606355
131	0xbebde069	-0.37085274
132	0xbf0de14c	-0.554219
133	0x3f46cd93	0.7765743
134	0xbc757929	-0.0149825
135	0x3e64c833	0.22341995
136	0xbe1838b9	-0.14865388
137	0xbec74a2f	-0.38923785
138	0xbe97ec24	-0.29672348
139	0xbeae8df7	-0.34092686
140	0x3f554a79	0.8331676
141	0xbf071db9	-0.5277973
142	0x3ea1f1d6	0.3162982
143	0xbd064af5	-0.03278633
144	0x3f061069	0.5236879
145	0x3f4e0bc2	0.8048669
146	0x3e28cd5f	0.16484593
147	0xbeb1b72f	-0.3471007
148	0x3f26a14c	0.6508987
149	0xbe8faf5c	-0.28063476
150	0xbdd84425	-0.105598725
151	0x3f512b5e	0.817068
152	0x3e203cff	0.15648268
153	0x3e3480b6	0.17627224
154	0xbe976003	-0.2956544
155	0x3d2d586d	0.042320658
156	0x3e841027	0.25793573
157	0xbf080a66	-0.53140867
158	0xbc00995e	-0.007849066
159	0xbec4e5eb	-0.38456663
160	0x3e7f7d9d	0.24950261
161	0x3dda15e3	0.10648706
162	0x3dbdb015	0.092621006
163	0xbf06a20f	-0.5259103
164	0xbe29a6d5	-0.16567548
165	0xbd562bf6	-0.05228802
166	0xbe150738	-0.14553535
167	0x3f392d5c	0.7233484
168	0xbe83d759	-0.25750235
169	0x3f80b151	1.0054113
170	0xbe8d3527	-0.27579615
171	0x3e792213	0.24329405
172	0xbf15e5d5	-0.5855382
173	0x3f1671fa	0.58767664
174	0xbe528ed6	-0.205623
175	0x3f7a7a59	0.9784294
176	0x3eb69b72	0.3566547
177	0x3f3d6188	0.73976946
178	0xbf37ce08	-0.71798754
179	0xbf22f4ac	-0.6365459
180	0xbe020182	-0.12695888
181	0x3d5ad7e8	0.05342856
182	0xbe809097	-0.25110313
183	0x3e867057	0.26257583
184	0x3e744e5a	0.23858014
185	0x3fb79038	1.4340887
186	0xbe925696	-0.28581685
187	0xbdd378c3	-0.10325768
188	0xbe61273a	-0.2198762
189	0x3ead50db	0.3385075
190	0xbefac8b6	-0.48981255
191	0x3f9b434e	1.2129915
192	0x3d0c6cc9	0.034283433
193	0x3ef412e9	0.47670677
194	0xbeeae8c5	-0.45880714
195	0xbd1a8811	-0.03772742
196	0xbe4c4bfe	-0.19950864
197	0x3e4f9d6f	0.202749
198	0xbef57cf0	-0.47946882
199	0x3ebf82a2	0.37404352
200	0x3f58b533	0.8465149
201	0x3e1ff3c7	0.15620337
202	0xbf9b1b5a	-1.2117722
203	0xbf99bfe7	-1.2011689
204	0x3e9c5013	0.30529842
205	0xbf0c1ff8	-0.5473628
206	0xbf4e97dd	-0.80700475
207	0x3ed79023	0.42102155
208	0xbec16f17	-0.37780067
209	0xbdf9de7b	-0.12200638
210	0xbea8525b	-0.32875332
211	0xbd9ea61e	-0.07746528
212	0xbdb098b7	-0.08622878
213	0xbf78319e	-0.9695071
214	0xbe26caee	-0.16288349
215	0xbddb855c	-0.10718796
216	0x3c2bd278	0.010487191
217	0x3f1c866b	0.61142606
218	0x3dbad3b4	0.091224104
219	0xbf102bb7	-0.56316704
220	0xbee38795	-0.44439378
221	0x3f1ecbf3	0.6202995
222	0xbe9971de	-0.29969686
223	0x3f1c6165	0.6108611
224	0x3f3dd5d3	0.74154395
225	0xbc0af8ef	-0.008482202
226	0xbf1291cd	-0.57253724
227	0xbeb7b256	-0.35878247
228	0x3f0e5d48	0.55611086
229	0xbef05e56	-0.46946973
230	0xbea19eb0	-0.3156638
231	0xbed193dc	-0.4093312
232	0x3f01d936	0.5072206
233	0x3c8dce25	0.017310211
234	0xbfafd6b9	-1.3737403
235	0xbf6e6366	-0.9312042
236	0x3ea18435	0.31546178
237	0xbeeb15eb	-0.4591516
238	0xbf668b30	-0.90056133
239	0x3e8919e0	0.26777554
240	0x3e2481a4	0.16065079
241	0xbeb0c3e9	-0.34524468
242	0xbe45a6d3	-0.1930192
243	0xbf0fe491	-0.5620814
244	0x3f203717	0.6258406
245	0xbe750bb3	-0.23930244
246	0xbe8a5e00	-0.2702484
247	0x3ef77c39	0.48336962
248	0x3e8fb681	0.28068927
249	0x3e926411	0.2859197
250	0x3e908701	0.28228
251	0xbebae6da	-0.3650425
252	0xbe1b779a	-0.15182343
253	0xbeb4c9fb	-0.3531035
254	0xbf1c2b6f	-0.61003774
255	0x3e5e8218	0.21729314

static_variable_selection.single_variable_grns.HealthDisp.gate_norm.glu.fc.bias f4 [32]
0	0xbe0b7e61	-0.13622428
1	0xbe135212	-0.14386776
2	0x3e093d9d	0.1340241
3	0xbe7bfff3	-0.24609356
4	0x3cb80697	0.02246408
5	0xbe3a6871	-0.18203904
6	0x3e5123cf	0.20423816
7	0xbd604221	-0.054750565
8	0x3e043ce6	0.12913856
9	0x3e1b5020	0.15167284
10	0x3e930367	0.28713533
11	0x3e0249d8	0.12723482
12	0xbdcd1c0f	-0.100151174
13	0x3d4812e8	0.048846155
14	0x3dd736d7	0.10508507
15	0x3e88a26d	0.2668642
16	0xbf4dbac9	-0.80363137
17	0xbea837ca	-0.32855064
18	0xbf59cc61	-0.8507748
19	0xbf10d7a9	-0.5657907
20	0xbe82354d	-0.2543129
21	0xbf0ef12d	-0.55836755
22	0xbeb486ae	-0.35259002
23	0xbead48cd	-0.33844605
24	0xbfbedd3b	-1.4911264
25	0xbcadf63d	-0.02123558
26	0xbf0cf35d	-0.5505884
27	0xbf1e1eb6	-0.6176561
28	0xbf77318e	-0.9655999
29	0x3e6b9d9c	0.23009342
30	0xbed090da	-0.40735513
31	0xbeeca04e	-0.46216053

static_variable_selection.single_variable_grns.HealthDisp.gate_norm.add_norm.norm.weight f4 [16]
0	0x3fc3db80	1.5301361
1	0x3f7a69b6	0.9781755
2	0x40086600	2.1312256
3	0x3f8bbe7b	1.0917505
4	0x3fee2c31	1.8607236
5	0x3fac8048	1.3476648
6	0x3fcf0f48	1.6176538
7	0x3e89844a	0.2685874
8	0x3f54a5d0	0.8306551
9	0x3f5b54b3	0.85676116
10	0x3f7e6545	0.99373275
11	0x400d8aa5	2.2115872
12	0x3be5d134	0.0070134643
13	0x3f908e72	1.1293471
14	0x3f620976	0.88295686
15	0x3f95961c	1.1686435

static_variable_selection.single_variable_grns.HealthDisp.gate_norm.add_norm.norm.bias f4 [16]
0	0x3da691e4	0.08133295
1	0x3d5312dc	0.051531658
2	0x3d594e14	0.053052977
3	0xbe809b20	-0.2511835
4	0x3eafa4f0	0.34305525
5	0xbd91cffd	-0.07119749
6	0x3e3ef0f5	0.18646605
7	0x3dbe506d	0.09292684
8	0x3db5d9f3	0.08879461
9	0xbdbf7abe	-0.09349583
10	0xbeae9d45	-0.34104362
11	0xbe9a83fe	-0.30178827
12	0x3cd0d34e	0.025491383
13	0xbd5a8cf8	-0.053357095
14	0x3dbb31e8	0.09140378
15	0xbb221126	-0.002472946

static_variable_selection.prescalers.AgeDist.weight f4 [8, 1]
0	0xbe5a320c	-0.21308154
1	0xbf13c2a2	-0.5771886
2	0x3f1b178a	0.6058279
3	0x3ea7e134	0.32789004
4	0xbf4bed1f	-0.79658693
5	0xbef58dc9	-0.47959736
6	0xbf16404b	-0.58691853
7	0xbcc79514	-0.024363078

static_variable_selection.prescalers.AgeDist.bias f4 [8]
0	0x3cdc4b19	0.026891278
1	0x3e2eebf9	0.17082204
2	0x3f73ffe5	0.9531234
3	0x3f197775	0.599479
4	0xbf372170	-0.71535397
5	0xbf4a7a1b	-0.7909257
6	0xbece61a2	-0.40308863
7	0x3d8b5055	0.068024315

static_variable_selection.prescalers.HealthDisp.weight f4 [8, 1]
0	0x3f80df8b	1.006822
1	0xbfb3c090	-1.404314
2	0x3f89c747	1.076394
3	0xbf5c0a31	-0.8595305
4	0x3f8300fc	1.0234675
5	0xbdf227ec	-0.11824021
6	0x3f66b34e	0.9011735
7	0x3e75b3d1	0.23994376

static_variable_selection.prescalers.HealthDisp.bias f4 [8]
0	0xbe48c80a	-0.19607559
1	0x3ebce5a8	0.36893964
2	0x3e99a33f	0.3000736
3	0x3f32039f	0.69536775
4	0x3e127d1f	0.14305542
5	0xbf09003e	-0.53515995
6	0x3e9f17cd	0.31072846
7	0x3e3cd0c2	0.1843901

encoder_variable_selection.flattened_grn.resample_norm.mask f4 [7]
0	0xbe1f7b08	-0.15574276
1	0xbfcc26da	-1.5949357
2	0x3f31a914	0.6939862
3	0x3f3dfb39	0.7421146
4	0xbfd487f8	-1.6603994
5	0x3ecb6100	0.39722443
6	0xbe1abd2c	-0.15111226

encoder_variable_selection.flattened_grn.resample_norm.norm.weight f4 [7]
0	0x40022d8f	2.0340307
1	0xbdbdae52	-0.092617646
2	0x3f9e57c9	1.237054
3	0x4001055e	2.0159526
4	0x3fb630fa	1.4233696
5	0x400d596e	2.2085834
6	0x3f942d51	1.157633

encoder_variable_selection.flattened_grn.resample_norm.norm.bias f4 [7]
0	0x3f131dea	0.5746752
1	0xbf3d7440	-0.7400551
2	0x3ce63476	0.028101187
3	0xbf97356c	-1.1813178
4	0xbf006ed2	-0.501691
5	0xbf841fd7	-1.0322217
6	0x3f6d0647	0.92587703

encoder_variable_selection.flattened_grn.fc1.weight f4 [7, 56]
0	0xbe88a540	-0.26688576
1	0x3d59d804	0.053184524
2	0xbe979150	-0.29603052
3	0xbf73266d	-0.9498051
4	0xbe54a35c	-0.20765442
5	0x3f156439	0.5835605
6	0x3f293933	0.66102904
7	0x3ef75439	0.48306444
8	0xbe3fa1ef	-0.18714117
9	0xbe2b8261	-0.16748954
10	0x3dc28c3f	0.09499406
11	0xbc2c8f01	-0.010532142
12	0xbe1517f6	-0.14559922
13	0x3eb2ae24	0.34898484
14	0x3dc2d145	0.09512571
15	0x3ee1662e	0.4402327
16	0xbfdf8b02	-1.7464297
17	0xbe388eb1	-0.18023182
18	0xbfef3d2b	-1.8690542
19	0xbf7afde4	-0.98043656
20	0x3ffcbfc3	1.9746021
21	0x401bef19	2.4364684
22	0xbe172845	-0.14761455
23	0xbd6d4a1e	-0.05793201
24	0x3b6ed8df	0.0036445183
25	0xbe0bb326	-0.13642558
26	0x3ecf89fd	0.40534964
27	0x3ea87386	0.32900637
28	0x3cdd3e0d	0.027007127
29	0x3d8d3ec1	0.06896735
30	0x3e5cd6e1	0.21566345
31	0xbd27aa00	-0.04093361
32	0xbef1b904	-0.47211468
33	0x3f3d98e2	0.74061406
34	0x3d673caf	0.056454357
35	0x3f09ccf7	0.53828377
36	0xbecdb76d	-0.40179005
37	0xbf5b42da	-0.8564888
38	0xbec5ecea	-0.38657314
39	0xbe4645ed	-0.19362612
40	0x3db28428	0.08716613
41	0x3e2d33b9	0.16914262
42	0xbef8358d	-0.48478356
43	0x3b64fe3d	0.0034941577
44	0xbf09f579	-0.53890187
45	0x3d1e70b0	0.038681686
46	0x3e10f584	0.14156157
47	0x3eaacfea	0.3336175
48	0xbea1dd06	-0.3161394
49	0xbeacf3b5	-0.33779684
50	0x3e5bfc94	0.2148307
51	0x3ef5e0b1	0.48022988
52	0xbd778e94	-0.060438707
53	0xbe62bb20	-0.22141695
54	0xbeee1362	-0.46499163
55	0xbec03949	-0.37543705
56	0x3eadd00e	0.33947796
57	0xbd353363	-0.04423846
58	0xbd943dc2	-0.07238342
59	0x3e1a2f48	0.15057099
60	0x3e53f168	0.20697558
61	0x3effaad2	0.49935013
62	0xbd44b306	-0.048022293
63	0x3e1ce775	0.15322669
64	0x3f2a857d	0.66609937
65	0xbe68f985	-0.22751434
66	0xbd0ba29f	-0.034090634
67	0x3ee1c7ca	0.4409774
68	0x3ecc3a31	0.39888147
69	0x3db5c0fc	0.088746995
70	0xbf0dc4f8	-0.55378675
71	0xbe88abc3	-0.26693544
72	0x3cbf46ab	0.023349127
73	0x3b2cbace	0.0026356461
74	0xbea4ac7f	-0.32162854
75	0x3e5485c6	0.20754156
76	0x3d828b49	0.06374223
77	0x3d94d5c1	0.07267333
78	0xbbb84e7c	-0.0056245904
79	0xbe157f30	-0.145993
80	0xbeafc9f5	-0.34333768
81	0x3f1e6871	0.61878115
82	0xbda8d91c	-0.08244535
83	0x3e01a06f	0.12658857
84	0x3e9c34ae	0.3050894
85	0x3e62b175	0.22138007
86	0xbf1e4c70	-0.61835384
87	0xbe96f58f	-0.2948422
88	0x3ee91d87	0.4553034
89	0xbe455cfa	-0.19273749
90	0x3e31a5d6	0.17348418
91	0xbec98b77	-0.39364216
92	0x3eb18a98	0.3467605
93	0x3eda409b	0.42627415
94	0x3e8792f2	0.26479298
95	0xbd1c279d	-0.038123716
96	0x3f23b2a1	0.6394444
97	0xbd8ddd68	-0.069269955
98	0xbdb2813b	-0.08716055
99	0xbf1afb8f	-0.605401
100	0xbe008238	-0.12549675
101	0xbf3801c8	-0.7187772
102	0xbf1bd71b	-0.608751
103	0x3e461dab	0.19347255
104	0xbf198893	-0.5997402
105	0xbd96e516	-0.073679134
106	0x3f571546	0.84016836
107	0x3ed61597	0.41813347
108	0x3e5f5b30	0.21812129
109	0xbe09a200	-0.13440704
110	0xbdcbac2c	-0.099449486
111	0xbe49e81c	-0.19717449
112	0x3dfcfe73	0.1235322
113	0x3e875f19	0.2643974
114	0xbd2a2821	-0.041542176
115	0xbe9962f6	-0.29958314
116	0xbe2547d2	-0.16140679
117	0xbe171985	-0.14755829
118	0xbe20ef4d	-0.15716286
119	0xbec5e632	-0.38652188
120	0xbe9e6022	-0.3093272
121	0x3f1e7aa4	0.61905885
122	0x3e859cc8	0.26096177
123	0xbf30a8a5	-0.6900733
124	0xbef71c46	-0.48263758
125	0xbcb47f36	-0.022033315
126	0x3e4a21f1	0.1973951
127	0x3e055214	0.13019592
128	0xbd8c3631	-0.06846274
129	0x3d4b2156	0.04959234
130	0x3f08ec84	0.53485894
131	0xbe66b340	-0.22529316
132	0x3e89587f	0.2682533
133	0xbccb9cdd	-0.024855072
134	0xbeb0b6fd	-0.3451461
135	0xbe9eee0e	-0.31040996
136	0xbfd9aca9	-1.7005817
137	0x3fce1e45	1.6102988
138	0x3f192f44	0.59837747
139	0x3f24c30a	0.64360106
140	0x3fb47f29	1.4101306
141	0x3f4145db	0.75497216
142	0xbf947195	-1.1597162
143	0xbfc62057	-1.5478619
144	0xbde6385c	-0.112412184
145	0x3e3196e3	0.17342715
146	0x3da4836d	0.0803288
147	0xbc91b525	-0.017786572
148	0x3f0d3e12	0.55172837
149	0xbee0a937	-0.438791
150	0x3cc87a44	0.024472363
151	0x3d953ac7	0.072866015
152	0x3e878408	0.2646792
153	0x3dc01acb	0.0938011
154	0xbe2feaf2	-0.17179468
155	0xbef21fb4	-0.47289813
156	0xbe3a83db	-0.18214361
157	0xbea9d997	-0.3317382
158	0xbdc838db	-0.09776469
159	0x3e69356e	0.22774288
160	0x3f049f8b	0.51805943
161	0x3e7ee79a	0.24893036
162	0xbe8086bd	-0.25102797
163	0x3d520dd2	0.05128271
164	0xbe480cf8	-0.19536197
165	0x3ec2691b	0.37970814
166	0x3ea73b2c	0.32662332
167	0x3e94ee18	0.290879
168	0x3e2b7532	0.16743925
169	0x3dcff820	0.10154748
170	0x3ea89d9c	0.32932746
171	0x3e4bf0f9	0.19916143
172	0xbeaa4a51	-0.33259824
173	0xbe9bf2b9	-0.3045862
174	0x3e325331	0.17414548
175	0xbef5c7cf	-0.48004004
176	0x3def51f5	0.11685554
177	0xbbf6a282	-0.0075266967
178	0x3e74076f	0.2383096
179	0x3e2c6b77	0.1683787
180	0x3e458e6d	0.19292612
181	0xbf0b02f5	-0.5430139
182	0xbe805749	-0.25066593
183	0x3d76abf7	0.060222592
184	0x3f0a3531	0.53987414
185	0x3daeb923	0.08531406
186	0xbd182b0d	-0.03715043
187	0xbd6daf86	-0.05802872
188	0xbeff7fdc	-0.49902236
189	0xbd6a58da	-0.05721364
190	0x3d9bd24b	0.076084696
191	0xbe26ddad	-0.162955
192	0x3da91409	0.082557745
193	0xbea5fd27	-0.32419702
194	0x3e35dd7e	0.17760274
195	0x3e2a8ed1	0.16656043
196	0xbe4cd9d6	-0.20004973
197	0x3dc06333	0.09393921
198	0x3dca93b6	0.09891455
199	0x3d7ddca3	0.061977994
200	0x3e6be11a	0.23035088
201	0xbec84372	-0.39113957
202	0x3e394eda	0.18096486
203	0xbf2b529d	-0.6692293
204	0x3e89f32a	0.26943332
205	0x3ea8d703	0.3297654
206	0x3e8c8105	0.27442184
207	0x3e57c955	0.21072896
208	0xbe99d0d9	-0.3004215
209	0x3e58c8e8	0.2117039
210	0xbe832d21	-0.25620368
211	0xbe1ff007	-0.15618907
212	0xbed946b0	-0.42436743
213	0xbdc51af9	-0.09624285
214	0x3d50f11f	0.0510112
215	0x3e6bc78f	0.23025344
216	0xbf0f6c64	-0.56024766
217	0xbe68c729	-0.22732224
218	0x3e482191	0.19544055
219	0xbdde5373	-0.108557604
220	0x3e2b28bb	0.16714756
221	0xbe371ed0	-0.17882848
222	0xbe38fbc1	-0.18064786
223	0xbd94a128	-0.072573006
224	0x3d962733	0.073316954
225	0xbe89addc	-0.26890457
226	0xbd35cd65	-0.044385333
227	0x3e74d46b	0.23909156
228	0xbd2f82a7	-0.04284921
229	0xbd6ee465	-0.058323283
230	0xbeb6c505	-0.3569719
231	0xbeb3800b	-0.35058627
232	0xbeae90c7	-0.3409483
233	0x3e037d70	0.1284082
234	0x3edad6c4	0.42741978
235	0xbd227d21	-0.039670113
236	0xbe4341d6	-0.19068083
237	0xbdacc9e3	-0.08436944
238	0x3e4999b8	0.19687545
239	0xbe8dd87b	-0.27704224
240	0x3e159528	0.1460768
241	0x3e960573	0.29301032
242	0xbc9b994e	-0.018994
243	0x3f116869	0.5679994
244	0xbd9703b0	-0.0737375
245	0x3e329fbb	0.17443745
246	0x3e347e11	0.17626216
247	0x3e6045f3	0.21901684
248	0xbed051a6	-0.40687293
249	0x3f7935a2	0.9734746
250	0xbd81009d	-0.06298945
251	0x3ded7b6f	0.11595809
252	0x3eb3a0b4	0.35083544
253	0x3eba1f7a	0.3635214
254	0xbf5b8074	-0.8574288
255	0xbf36eee2	-0.71458256

encoder_variable_selection.flattened_grn.fc1.bias f4 [7]
0	0xbea724b4	-0.3264519
1	0x3e18686d	0.14883585
2	0xbe44b54d	-0.19209786
3	0xbda18b70	-0.07887924
4	0x3e6d41e1	0.23169662
5	0xbd33b2e2	-0.043871768
6	0xbea75263	-0.32680044

encoder_variable_selection.flattened_grn.context.weight f4 [7, 16]
0	0x3ee56744	0.44805348
1	0x3fa427eb	1.2824682
2	0xbd9d31b6	-0.07675497
3	0x3e80e696	0.25175923
4	0xbe3b5f52	-0.1829808
5	0xbf8bafb4	-1.0912995
6	0x3f9c9511	1.2232991
7	0x3f1fddc4	0.6244776
8	0x3ea9c76a	0.33159953
9	0xbf7b0d57	-0.9806723
10	0x3d73d6b6	0.059530936
11	0x3f1fd50e	0.6243447
12	0x3ee33f81	0.44384387
13	0xbf47db3a	-0.7806889
14	0x3e38a9e1	0.18033554
15	0x3cd1b5f7	0.025599463
16	0xbe823a45	-0.2543508
17	0x3f0ae931	0.5426207
18	0xbd355e06	-0.04427912
19	0x3e99ba8d	0.3002514
20	0xbd695a61	-0.056970958
21	0xbf033d90	-0.5126581
22	0xbdf36ef8	-0.118864
23	0xbc81bdff	-0.015837668
24	0x3f30444e	0.68854225
25	0xbf439315	-0.76396304
26	0x3d628a6c	0.05530779
27	0x3dafd7a3	0.08586051
28	0xbca76eba	-0.02043854
29	0xbe7cf06e	-0.24701092
30	0xbe98241c	-0.2971505
31	0xbe5dde00	-0.21666718
32	0xbd0a4a4a	-0.033762254
33	0xbee861e2	-0.4538718
34	0xbf2e79fe	-0.68154895
35	0x3ea1e65a	0.31621057
36	0x3c90172e	0.017589178
37	0xbe3fcf9a	-0.18731537
38	0xbec1be40	-0.37840462
39	0xbf0ea1c0	-0.5571556
40	0xbe10363f	-0.14083193
41	0xbe533089	-0.20623983
42	0x3e92a7c8	0.28643632
43	0x3eb1078d	0.34576073
44	0xbe2527ab	-0.16128413
45	0xbcf61a7a	-0.030041922
46	0xbe605c7c	-0.2191028
47	0xbf3be446	-0.7339519
48	0xbd425201	-0.047441486
49	0x3e73594d	0.23764534
50	0xbf20f67b	-0.628761
51	0x3f107c26	0.56439435
52	0x3e4b72e2	0.19868043
53	0xbefbd55c	-0.49186218
54	0x3f45b08e	0.77222526
55	0x3e0c9e5a	0.13732281
56	0x3ebedd7d	0.37278357
57	0xbfad1dc0	-1.3524704
58	0x3f2ac1af	0.6670179
59	0x3f000c91	0.50019175
60	0xbefacfcd	-0.48986664
61	0xbdf4af0f	-0.11947452
62	0xbea7ca75	-0.3277165
63	0xbf7e6785	-0.9937671
64	0xbebec23e	-0.3725757
65	0x3ec70b92	0.38876015
66	0x3e62c05a	0.22143689
67	0xbe388ef6	-0.18023285
68	0x3cb23eb3	0.021758413
69	0x3d2a631b	0.04159842
70	0x3dd1e5f3	0.102489375
71	0xbecdf6f0	-0.4022746
72	0xbd571640	-0.052511454
73	0xbf1e5c41	-0.6185952
74	0xbd942c37	-0.07234996
75	0x3e47b225	0.1950155
76	0xbdacd6ac	-0.08439383
77	0x3ecd02b5	0.40041128
78	0xbece3bbc	-0.4027995
79	0x3b1ac9af	0.0023618748
80	0x3ed64cd8	0.41855502
81	0x3ed142a6	0.4087116
82	0x3cc5ddd8	0.024153635
83	0xbd7f062e	-0.062261753
84	0xbd8d723b	-0.06906553
85	0xbccbf1bc	-0.024895541
86	0x3ead447d	0.33841315
87	0x3ca9c336	0.020722967
88	0xbe40a4b1	-0.18812825
89	0x3db123b6	0.086493894
90	0x3b273d6c	0.0025518788
91	0x3d3fc859	0.046821926
92	0x3eb33282	0.34999472
93	0x3e0ad852	0.13559082
94	0x3e95750e	0.29190868
95	0xbe0eba08	-0.13938153
96	0xbe1d5634	-0.15364915
97	0x3e9110a6	0.28333014
98	0x3f047714	0.517442
99	0x3e40683a	0.1878976
100	0xbe55f90c	-0.20895785
101	0x3edbcab5	0.4292809
102	0xbef3891a	-0.47565538
103	0xbdbcdc60	-0.09221721
104	0x3effc78b	0.49956927
105	0x3e224564	0.15846783
106	0x3d195c33	0.037441444
107	0xbe6a5ba5	-0.22886522
108	0x3e5bdb2a	0.21470323
109	0xbe53c809	-0.20681776
110	0x3e4e111f	0.20123719
111	0x3c7b6408	0.0153436735

encoder_variable_selection.flattened_grn.fc2.weight f4 [7, 7]
0	0x3ee1b655	0.4408442
1	0x3f2b1e1c	0.6684282
2	0xbe97bdc1	-0.29636958
3	0xbde23d66	-0.11046867
4	0x3f73c013	0.95214957
5	0xbe933332	-0.28749996
6	0x3dace1c5	0.084414996
7	0x3c302780	0.010751605
8	0xbe44ecb3	-0.19230919
9	0x3f24e124	0.6440604
10	0xbdae9748	-0.08524948
11	0xbf59e0e5	-0.85108787
12	0xbaf81f14	-0.001893016
13	0xbf4490c3	-0.7678339
14	0x3c03b2a6	0.008038199
15	0xbebac275	-0.36476484
16	0x3f68721e	0.9079913
17	0xbd88172c	-0.06645045
18	0xbf64b54c	-0.8933914
19	0xbedec6da	-0.43511087
20	0x3d96a7f8	0.07356256
21	0xbb873621	-0.0041263257
22	0xbed5a50b	-0.4172748
23	0xbf03bca8	-0.5145974
24	0x3d7aae5c	0.06120144
25	0xbec05024	-0.37561142
26	0xbea99728	-0.33123136
27	0xbf5636b1	-0.836772
28	0xbdbc156f	-0.09183776
29	0xbe0fe408	-0.14051831
30	0xbf0b26f5	-0.5435632
31	0x3ec2ea7a	0.38069516
32	0xbe009d6e	-0.12560055
33	0x3f014d6e	0.50508773
34	0x3f0ef53c	0.5584295
35	0xbf7d71ed	-0.9900196
36	0xbccf11c3	-0.025277024
37	0x3ebb267c	0.365528
38	0xbe846aaf	-0.25862643
39	0xbf628d77	-0.8849711
40	0x3f359c18	0.70941305
41	0x3eaa8321	0.33303168
42	0x3f95d799	1.170642
43	0x3ec6abba	0.38802892
44	0x3e4af124	0.1981855
45	0x3cdfb905	0.027309904
46	0x3e59296f	0.21207212
47	0xbeac0862	-0.33600146
48	0xbe99c1cd	-0.3003067

encoder_variable_selection.flattened_grn.fc2.bias f4 [7]
0	0x3ec5ca7a	0.3863104
1	0xbf07ffea	-0.5312487
2	0xbee584cf	-0.44827887
3	0xbe8021c4	-0.2502576
4	0xbbc396e0	-0.0059689134
5	0xbf27ef32	-0.6559936
6	0x3eb1125b	0.34584317

encoder_variable_selection.flattened_grn.gate_norm.glu.fc.weight f4 [14, 7]
0	0x3dca6d05	0.09884075
1	0xbcb4f552	-0.022089634
2	0xbe69ba45	-0.22824962
3	0x3eb9eb94	0.36312544
4	0x3e18cba3	0.14921431
5	0xbef134f9	-0.47110727
6	0x3ec4a65c	0.38408172
7	0xbe9b5014	-0.30334532
8	0x3e9e155e	0.30875677
9	0x3e5e90d9	0.21734942
10	0x3d3e3406	0.046436332
11	0xbe91d3da	-0.28481942
12	0x3e987f80	0.29784775
13	0x3e9a4c43	0.30136308
14	0xbe008abd	-0.12552924
15	0x3e49144c	0.19636649
16	0x3cd85898	0.026409432
17	0xbd6fc970	-0.058541715
18	0xbcf3abfb	-0.029745093
19	0x3cc6e9b6	0.024281364
20	0x3c7e001b	0.015502955
21	0xbf5b0af7	-0.85563606
22	0x3f358117	0.709001
23	0x3f5dc495	0.86628085
24	0x3f48a8d8	0.78382635
25	0x3e8fbdef	0.28074595
26	0x3f0bf975	0.54677516
27	0xbf1b32eb	-0.6062457
28	0x3e97a4e8	0.29618
29	0xbdb2dbc9	-0.08733327
30	0xbecd47c1	-0.40093806
31	0xbc9ba4c0	-0.018999457
32	0x3eaf5f05	0.34252182
33	0xbf010e72	-0.50412667
34	0x3ed0b182	0.40760428
35	0xbf4c1f54	-0.797353
36	0x3dc0a4ad	0.094064094
37	0xbf018df5	-0.50607234
38	0x3f38f05c	0.7224176
39	0x3f80ab14	1.0052209
40	0x3f29e70f	0.6636819
41	0xbf96d918	-1.1785002
42	0x3efc9b1a	0.49337083
43	0xbf0725c1	-0.5279198
44	0xbebff0e4	-0.37488472
45	0xbef28ad6	-0.47371548
46	0x3bc58385	0.0060276412
47	0xbf017a83	-0.50577563
48	0x3f08d2fa	0.53446925
49	0x3e9bd896	0.3043868
50	0xbf208f49	-0.62718636
51	0x3e918253	0.28419742
52	0xbea270d0	-0.31726694
53	0x3e7c79d1	0.24655844
54	0xbe044402	-0.12916568
55	0x3d2c37c5	0.042045373
56	0xbf62b88b	-0.8856284
57	0xbe3cfe43	-0.18456368
58	0x3f5be9d1	0.8590365
59	0xbe1e8d78	-0.15483654
60	0x3ea14a45	0.31501976
61	0x3ebe4851	0.37164548
62	0xbfab8537	-1.3400029
63	0xbde3ed61	-0.11129261
64	0x3eb98d0a	0.36240417
65	0xbeadab1f	-0.33919618
66	0x3ec48e7f	0.38389966
67	0x3e61f7ed	0.22067232
68	0x3ee81e09	0.45335415
69	0xbe9a7007	-0.30163595
70	0x3f4fcb3d	0.8116949
71	0xbf6a64de	-0.9156016
72	0xbecd6d7b	-0.4012259
73	0xbe03c6bd	-0.12868781
74	0xbda84935	-0.08217088
75	0xbf56d8c6	-0.8392452
76	0x3e40e4df	0.18837307
77	0x3f472d52	0.7780353
78	0xbf606c85	-0.8766559
79	0x3e843560	0.25821972
80	0xbf27e854	-0.6558888
81	0x3f25a6e4	0.6470778
82	0xbf31498f	-0.69252867
83	0x3e9904ba	0.2988642
84	0x3ea46933	0.3211151
85	0x3f0784fe	0.52937305
86	0xbddede26	-0.10882215
87	0xbf020490	-0.5078821
88	0xbf661d72	-0.8988868
89	0xbee116c3	-0.43962678
90	0x3f92d5c5	1.1471487
91	0x3f3e4a0f	0.74331754
92	0xbea24344	-0.31691945
93	0xbea6a844	-0.3255025
94	0xbeac41bb	-0.33643898
95	0xbe1c19f0	-0.1524427
96	0xbea3ba52	-0.3197809
97	0x3ebf039f	0.3730745

encoder_variable_selection.flattened_grn.gate_norm.glu.fc.bias f4 [14]
0	0x3f05baac	0.52237964
1	0xbfb4289d	-1.4074894
2	0x3da98c3f	0.08278703
3	0xbfbecdaf	-1.490652
4	0x3e9c1e66	0.30491942
5	0xbf248c97	-0.64277023
6	0x3f5179b9	0.8182636
7	0x3f24b8f4	0.64344716
8	0x3f0cda8f	0.55020994
9	0xbf953a21	-1.1658365
10	0x3f2d7a09	0.67764336
11	0x3f128b37	0.57243675
12	0xbf67c1e2	-0.90530217
13	0x3e9ef9fa	0.31050092

encoder_variable_selection.flattened_grn.gate_norm.add_norm.norm.weight f4 [7]
0	0x3ec467d5	0.38360468
1	0x3ed0ebcc	0.408049
2	0x3efa34aa	0.48868304
3	0x3f2254ca	0.6341063
4	0x3d9543b4	0.07288304
5	0x3fc751e1	1.5571862
6	0x3f12c1b1	0.573268

encoder_variable_selection.flattened_grn.gate_norm.add_norm.norm.bias f4 [7]
0	0xbd0b3052	-0.03398163
1	0xbd5ef7be	-0.054435484
2	0x3d45ca41	0.048288587
3	0xbe971ab6	-0.29512566
4	0x3d8b5920	0.068041086
5	0xbeca3e30	-0.3950057
6	0x3e97448f	0.29544494

encoder_variable_selection.single_variable_grns.SinWeekly.resample_norm.mask f4 [16]
0	0x3e20ed8d	0.15715618
1	0xbf36e6f3	-0.7144615
2	0xbe98f35d	-0.2987317
3	0xbf5f4423	-0.87213343
4	0xbf5540df	-0.8330211
5	0x3ef958cd	0.48700562
6	0xbf022588	-0.5083852
7	0x3f660263	0.8984739
8	0xbf566c24	-0.8375876
9	0xbfcf57b4	-1.619864
10	0xbfc94e90	-1.57271
11	0xbf013f65	-0.5048736
12	0x3f61a5e1	0.88143736
13	0xbf8ef78a	-1.1169293
14	0x3f00702c	0.5017116
15	0x3f7ee5a8	0.9956918

encoder_variable_selection.single_variable_grns.SinWeekly.resample_norm.norm.weight f4 [16]
0	0x3fc3c34c	1.5293975
1	0x3fa90ac3	1.3206409
2	0x3f952a8f	1.1653613
3	0x3f48754e	0.7830399
4	0x3f4244bf	0.7588615
5	0x3fd2a2eb	1.6455969
6	0x3f4aee06	0.79269445
7	0x40007696	2.007238
8	0x3f75457b	0.95809144
9	0x3edcdf5a	0.43139154
10	0x3e300c54	0.17192203
11	0xbf7da8ac	-0.990855
12	0x3ffc6132	1.9717162
13	0x3f373d2a	0.71577704
14	0x3fc457aa	1.5339253
15	0x3fefdc48	1.87391

encoder_variable_selection.single_variable_grns.SinWeekly.resample_norm.norm.bias f4 [16]
0	0xbc841635	-0.01612387
1	0xbf26a046	-0.6508831
2	0x3e975e11	0.29563954
3	0x3ea380c0	0.31934166
4	0x3eb581b7	0.35450527
5	0xbd875724	-0.06608418
6	0xbeddf7ed	-0.43353215
7	0xbd93a7db	-0.0720975
8	0xbc2cdefd	-0.010551211
9	0xbebdd432	-0.37075955
10	0xbe6d8ce0	-0.23198271
11	0x3d74f092	0.05979974
12	0x3d57c689	0.052679572
13	0x3e6d7f6c	0.23193139
14	0x3e8e2b4c	0.27767408
15	0x3e1c31c8	0.15253365

encoder_variable_selection.single_variable_grns.SinWeekly.fc1.weight f4 [8, 8]
0	0x3ef2bf7e	0.47411722
1	0x3e5e899b	0.2173218
2	0xbe2f286f	-0.17105268
3	0xbdcd2255	-0.10016314
4	0xbe790823	-0.2431951
5	0x3eec1da7	0.46116373
6	0xbec8662a	-0.39140445
7	0x3d85fe52	0.065426484
8	0x3d11e882	0.035622127
9	0xbf119266	-0.5686401
10	0x3f6806ce	0.90635383
11	0x3ee27422	0.44229227
12	0x3b769459	0.0037625043
13	0xbeb1a9df	-0.34699914
14	0x3e6b9fab	0.23010127
15	0xbe82e613	-0.25566158
16	0xbe283ea8	-0.16430151
17	0xbd273d04	-0.040829673
18	0x3fcb9b6a	1.5906804
19	0xbed18264	-0.40919793
20	0x3eb9f7ec	0.36321962
21	0xbfa6dbb3	-1.3035797
22	0xbeb7c42a	-0.3589185
23	0xbfb487ea	-1.4103978
24	0x3e8b2324	0.27175248
25	0x3ec03918	0.3754356
26	0xbe91dd5a	-0.2848919
27	0x3e4e0ae6	0.20121345
28	0xbebf0bf6	-0.37313813
29	0xbf0abea4	-0.54197145
30	0xbf174c20	-0.5910053
31	0xbf94e88b	-1.1633466
32	0x3fc34363	1.525494
33	0xbe909151	-0.28235868
34	0xbe2249bf	-0.15848444
35	0xbe3a7dad	-0.18212004
36	0xbf546935	-0.82973033
37	0xbd8fc849	-0.07020623
38	0xbf50e082	-0.8159257
39	0x3f1b9d26	0.60786664
40	0xbee42d31	-0.44565728
41	0x3eb5cd52	0.3550821
42	0x3fb0bf77	1.380843
43	0x3dda7c28	0.10668212
44	0x3e77dce5	0.24205358
45	0xc01206d6	-2.2816672
46	0x3eb16da9	0.34653977
47	0xbf117809	-0.56823784
48	0xbeb5c6e7	-0.35503313
49	0x3fa7cf34	1.3110108
50	0x3f119ef2	0.56883156
51	0x3f3196c3	0.6937067
52	0xbf4b8a38	-0.7950778
53	0xbf823014	-1.0170922
54	0x3cd3a224	0.02583415
55	0xbfa0f4e7	-1.2574738
56	0xbf1a1aeb	-0.60197324
57	0xbdf769b9	-0.12080712
58	0x3eaf5295	0.34242693
59	0xc03bea34	-2.9361696
60	0xbea720f4	-0.3264233
61	0xbda5d35b	-0.080969535
62	0x40212d08	2.5183735
63	0x3f31c46a	0.6944033

encoder_variable_selection.single_variable_grns.SinWeekly.fc1.bias f4 [8]
0	0xbe1b627e	-0.1517429
1	0x3d7cc1bb	0.061708193
2	0xbe14b160	-0.14520788
3	0xbd3b3d86	-0.04571297
4	0xbd6f7abc	-0.058466658
5	0xbe5ca560	-0.2154746
6	0xbe2d2502	-0.16908649
7	0xbf02165e	-0.5081538
