Archives/TFT-pytorch/results/age_subgroup_old_cs_server/AGE5064/checkpoints/best-epoch=1.ckpt (torch, 702583 bytes, 506 tensors)

prescalers.AGE5064.weight f4 [8, 1]
0	0xbd9ebcce	-0.077508554
1	0xbf042da3	-0.51632136
2	0x3ed5c8e1	0.4175482
3	0x3ed8cb38	0.42342544
4	0xbf0d4dae	-0.55196655
5	0xbe181963	-0.14853434
6	0xbf25b294	-0.64725614
7	0x3b68ecaa	0.0035541453

prescalers.AGE5064.bias f4 [8]
0	0xbe8dd004	-0.27697766
1	0x3ed4deea	0.4157632
2	0x3f55a733	0.8345825
3	0x3e81f85d	0.253848
4	0xbed25342	-0.41079146
5	0xbf17f719	-0.59361416
6	0xbea15363	-0.31508932
7	0xbdb14ff5	-0.08657829

prescalers.SinWeekly.weight f4 [8, 1]
0	0x3dc01912	0.09379782
1	0xbf9e6d31	-1.2377073
2	0x3f6bbd6e	0.9208592
3	0xbf88f1c7	-1.0698785
4	0x3f2b698a	0.66957915
5	0xbe685a2c	-0.22690648
6	0x3f47acfe	0.7799834
7	0x3ef8950f	0.48551223

prescalers.SinWeekly.bias f4 [8]
0	0x3e2af254	0.16694003
1	0x3ca0ea6d	0.019643033
2	0x3f3d71e0	0.74001884
3	0x3eb76db2	0.35825878
4	0x3f07ab5e	0.5299586
5	0xbf24502c	-0.6418483
6	0x3f2a6f9c	0.6657655
7	0x3ec6c07f	0.38818738

prescalers.VaccinationFull.weight f4 [8, 1]
0	0x3ebe839f	0.37209794
1	0x3e7ada63	0.2449737
2	0x3f50740a	0.8142706
3	0x3f54a5e6	0.8306564
4	0xbe8d0d39	-0.2754915
5	0xbf45f433	-0.77325743
6	0xbf1c0778	-0.60948896
7	0xbf0e2f60	-0.5554104

prescalers.VaccinationFull.bias f4 [8]
0	0x3f19b9e3	0.60049266
1	0xbef192b6	-0.47182244
2	0xbf0594b3	-0.5218002
3	0x3f92a13d	1.1455456
4	0x3f71a3dc	0.94390655
5	0x3da48f02	0.08035089
6	0xbc4f6236	-0.012657693
7	0x3e1e784f	0.15475582

prescalers.Cases.weight f4 [8, 1]
0	0x3f1f4e1d	0.62228566
1	0xbf8ad3bb	-1.0845865
2	0xbf58454d	-0.84480745
3	0x3f1b40c8	0.60645723
4	0x3fa9eab3	1.327475
5	0x3d63a068	0.055572897
6	0xbf248878	-0.64270735
7	0x3ea33123	0.31873426

prescalers.Cases.bias f4 [8]
0	0xbf2b4678	-0.669044
1	0xbde9a163	-0.11407735
2	0x3f0b79e6	0.5448288
3	0x3eacf088	0.3377726
4	0x3d82a091	0.06378282
5	0xbe3ba6b9	-0.18325318
6	0x3f03d720	0.5150013
7	0xbf6feb7d	-0.937187

static_variable_selection.single_variable_grns.AGE5064.resample_norm.mask f4 [16]
0	0xbe7020e5	-0.23450048
1	0xbe966971	-0.2937732
2	0xbd884c28	-0.06655151
3	0xbbf2d96c	-0.0074111726
4	0x3df2ab56	0.11849086
5	0x3e868d4f	0.26279685
6	0x3e85399f	0.26020524
7	0x3e4de46e	0.2010667
8	0x3ea4a09c	0.32153785
9	0xbc29c97e	-0.010362981
10	0xbede33f9	-0.43399027
11	0x3e1eea2b	0.15519015
12	0x3e805069	0.25061348
13	0x3dbe8ee7	0.093046
14	0x3e4bcb07	0.19901668
15	0xbe26a30b	-0.16273133

static_variable_selection.single_variable_grns.AGE5064.resample_norm.norm.weight f4 [16]
0	0x3f57d6cb	0.84312123
1	0x3f3d8e36	0.7404512
2	0x3f8b5dbb	1.0887979
3	0x3f8bf0c0	1.0932846
4	0x3f9c2fde	1.2202108
5	0x3fa9eec8	1.3275995
6	0x3fa51f02	1.2900088
7	0x3fa1ca1a	1.2639802
8	0x3f9333d3	1.150019
9	0x3f83eb9a	1.0306275
10	0x3f54369a	0.82895815
11	0x3fa71df2	1.3056014
12	0x3f923002	1.1420901
13	0x3f93ef80	1.1557465
14	0x3f99f61a	1.2028229
15	0x3f7c3a36	0.9852632

static_variable_selection.single_variable_grns.AGE5064.resample_norm.norm.bias f4 [16]
0	0x3dddb746	0.10825972
1	0xbe5eb3f1	-0.2174833
2	0xbc5bcea3	-0.013415965
3	0x3de88732	0.113539115
4	0x3d8f4ed0	0.06997454
5	0x3e16b538	0.14717567
6	0x3d3e9807	0.046531703
7	0xbda78659	-0.08179922
8	0xbd8de1aa	-0.06927808
9	0xbde48219	-0.11157627
10	0x3dc159d6	0.09440963
11	0xbeacb136	-0.3372895
12	0x3cef396f	0.029202191
13	0xbe38ca0a	-0.18045822
14	0xbdbb6fb6	-0.091521665
15	0x3de616d9	0.112348266

static_variable_selection.single_variable_grns.AGE5064.fc1.weight f4 [8, 8]
0	0x3ec0c038	0.3764665
1	0xbf0641a1	-0.5244389
2	0xbf1c80a1	-0.6113377
3	0xbee1d119	-0.4410484
4	0xbe604546	-0.21901426
5	0xbfada6e3	-1.3566555
6	0x3e5fa91d	0.21841855
7	0xbf33ca95	-0.7023099
8	0xbf349db7	-0.70553154
9	0xbf32ca40	-0.6983986
10	0xbd937ed1	-0.07201923
11	0x3f00a8a4	0.50257325
12	0xbeb72d29	-0.35776642
13	0xbf0cc584	-0.54988885
14	0x3f44ebf4	0.76922536
15	0x3e47a51c	0.19496578
16	0x3eb28dd5	0.34873834
17	0x3e5f9617	0.21834598
18	0x3eee13e0	0.46499538
19	0xbe4a0d50	-0.19731641
20	0x3e1cb3b6	0.1530293
21	0xbdce3f02	-0.100706115
22	0x3e8c402b	0.27392706
23	0xbee121de	-0.4397115
24	0xbf0cba92	-0.54972184
25	0xbd2776bb	-0.040884715
26	0xbd18cd57	-0.037305202
27	0xbef11234	-0.470842
28	0xbe217c0f	-0.15769981
29	0x3e18a880	0.14908028
30	0xbd824210	-0.06360257
31	0x3f2a9912	0.66639817
32	0xbebb6aad	-0.36604825
33	0x3ef63ac8	0.48091722
34	0xbe889810	-0.26678514
35	0xbeb810f2	-0.35950428
36	0x3d1b7a38	0.037958354
37	0x3f7ff592	0.99984086
38	0x3f024721	0.50889784
39	0xbe96940a	-0.2940982
40	0x3e9cf1c4	0.30653203
41	0xbe3de77d	-0.18545337
42	0xbeaae353	-0.3337656
43	0xbb857e79	-0.0040739146
44	0x3f211ac1	0.6293145
45	0xbea29d8a	-0.31760818
46	0x3dc52e4e	0.096279725
47	0xbe9b27a0	-0.3030367
48	0xbe7fb4d9	-0.24971332
49	0xbf079130	-0.52955914
50	0xbe99ec1d	-0.30062953
51	0xbd5b376d	-0.053519655
52	0x3f398313	0.7246563
53	0x3fa09dc1	1.2548143
54	0x3f2d391f	0.67665285
55	0xbec3e2d6	-0.38259
56	0xbf1b4b41	-0.60661703
57	0xbee575b0	-0.4481635
58	0xbdc66779	-0.096877046
59	0x3eaf4bb0	0.34237432
60	0x3d779f26	0.06045451
61	0xbef5f64c	-0.48039472
62	0x3edfb08a	0.43689376
63	0x3d474f1c	0.04865943

static_variable_selection.single_variable_grns.AGE5064.fc1.bias f4 [8]
0	0xbdf643eb	-0.12024673
1	0x3e5d1fa2	0.21594098
2	0xbe20895b	-0.15677397
3	0x3c49d345	0.012318437
4	0xbb9e1a1a	-0.004824889
5	0xbd8bd378	-0.06827444
6	0x3e1b93fa	0.15193167
7	0x3d364a8e	0.044504695

static_variable_selection.single_variable_grns.AGE5064.fc2.weight f4 [8, 8]
0	0x3dc1ee52	0.09469284
1	0x3f0d1899	0.5511566
2	0x3e3a33e6	0.1818386
3	0xbe9e9bf5	-0.3097836
4	0x3eabc2c1	0.33547023
5	0xbe6ddaf7	-0.2322806
6	0x3f40cbf3	0.753112
7	0x3f08d612	0.53451645
8	0xbec8f003	-0.39245614
9	0xbe8ea53d	-0.27860442
10	0x3e634a1e	0.22196242
11	0xbd509363	-0.05092181
12	0x3e66a387	0.22523318
13	0x3d28c50d	0.041203547
14	0x3ea9fb4e	0.33199543
15	0x3e4cabb5	0.19987376
16	0xbd3ab731	-0.04558486
17	0x3ea5d36a	0.3238786
18	0x3d8c21d6	0.06842391
19	0xbd9db9a1	-0.077014215
20	0x3ca1e2ca	0.019761462
21	0xbf20596c	-0.62636447
22	0xbf014896	-0.5050138
23	0x3ede5d79	0.4343069
24	0x3f12a93b	0.57289475
25	0x3df06d86	0.1173964
26	0x3f0eae12	0.5573436
27	0xbe570019	-0.20996131
28	0x3c8f920b	0.017525693
29	0xbe183b0d	-0.14866276
30	0x3f06811b	0.5254075
31	0xbf01080f	-0.5040292
32	0x3e1aee30	0.15129924
33	0xbe603fd3	-0.21899347
34	0x3e2c5b61	0.16831733
35	0x3e51e183	0.20496182
36	0x3f110018	0.5664077
37	0x3ded3259	0.11581869
38	0x3f0d1afe	0.5511931
39	0x3e27b98f	0.16379379
40	0x3e7c56b8	0.24642456
41	0xbe3032e7	-0.17206918
42	0xbec75b85	-0.3893701
43	0xbd1b8108	-0.03796485
44	0x3ee84480	0.4536476
45	0x3b4473cf	0.0029976254
46	0xbf24020b	-0.6406562
47	0x3e5790df	0.21051358
48	0xbee85f5b	-0.4538525
49	0x3ba9bbc8	0.005179856
50	0x3e231e78	0.15929592
51	0x3d07ec71	0.033184472
52	0x3ef05e70	0.4694705
53	0x3e5e41c6	0.21704778
54	0xbf07aed5	-0.5300115
55	0xbea24ed5	-0.3170077
56	0x3d76ce19	0.060255144
57	0x3ed19bff	0.40939328
58	0xbf11904b	-0.568608
59	0xbe4bc8a5	-0.19900759
60	0xbdb8d53c	-0.09025046
61	0xbe0f9be6	-0.14024314
62	0x3d974f43	0.07388165
63	0xbec63c49	-0.3871787

static_variable_selection.single_variable_grns.AGE5064.fc2.bias f4 [8]
0	0x3d839128	0.06424171
1	0x3cf88beb	0.030340156
2	0x3dfc453c	0.12317893
3	0x3d15ef1b	0.036604982
4	0x3ae3be6e	0.0017375478
5	0xbd4b8e39	-0.04969618
6	0x3e3d2d63	0.18474345
7	0x3e0b8a3b	0.1362695

static_variable_selection.single_variable_grns.AGE5064.gate_norm.glu.fc.weight f4 [32, 8]
0	0x3db59a38	0.088673055
1	0x3ee4a25a	0.44655114
2	0xbeab9be4	-0.33517373
3	0xbe1f1046	-0.15533552
4	0x3ef59e94	0.47972548
5	0xbde04545	-0.10950712
6	0xbcd8028d	-0.026368404
7	0x3d46514c	0.048417374
8	0x3e915f73	0.28393134
9	0x3e3305f3	0.17482738
10	0xbe430197	-0.19043575
11	0x3f0a2e91	0.53977305
12	0xbe1a36a2	-0.15059903
13	0xbd897c4b	-0.0671316
14	0xbef2796f	-0.4735827
15	0xbd8f65d1	-0.07001842
16	0x3eae9eea	0.34105617
17	0x3eb9024d	0.36134568
18	0xbedb2016	-0.42797917
19	0x3d8a3984	0.067492515
20	0x3ea8e47e	0.32986826
21	0xbe268c7c	-0.16264528
22	0x3dccb3b8	0.09995216
23	0x3eac4798	0.33648372
24	0xbdb5e3cc	-0.088813394
25	0x3e1a2f7d	0.15057178
26	0xbe8fd0ad	-0.28088894
27	0xbe9b96b6	-0.3038842
28	0x3d94b779	0.07261557
29	0xbdcb815d	-0.099367835
30	0xbd695341	-0.056964163
31	0x3e93fa4b	0.28901896
32	0xbdbaa8de	-0.0911424
33	0xbe11d8a7	-0.14242803
34	0x3e90686a	0.28204662
35	0xbe169a9a	-0.14707413
36	0x3c9e55ea	0.019328076
37	0xbe980ea3	-0.29698667
38	0xbe542edb	-0.20720999
39	0x3d7cf875	0.061760385
40	0x3e795d56	0.24352011
41	0xbe9a15e5	-0.3009483
42	0xbe0e0d80	-0.13872337
43	0x3e2d8e53	0.16948824
44	0xbe787a85	-0.24265487
45	0xbe8a1956	-0.26972455
46	0x3e64030f	0.22266792
47	0x3c3bb883	0.011457565
48	0xbe0d22fa	-0.13782874
49	0x3d59a156	0.053132378
50	0x3ea2895a	0.31745416
51	0x3d85ee9c	0.06539652
52	0xbdaecd86	-0.08535294
53	0xbe154ba5	-0.14579637
54	0x3ea55b80	0.3229637
55	0x3defb31e	0.11704086
56	0xbdf0bc2c	-0.11754641
57	0x3e2edd72	0.17076662
58	0x3e9249ea	0.28572017
59	0xbe197d63	-0.14989237
60	0xbe8f6de6	-0.28013533
61	0x3d306573	0.0430655
62	0x3e1616ca	0.14657131
63	0x3cf65acf	0.030072598
64	0xbd8d8886	-0.069108054
65	0xbe697f30	-0.22802424
66	0x3e061199	0.1309265
67	0x3db4b2b8	0.088231504
68	0x3ec38c94	0.3819319
69	0x3d3e257f	0.046422478
70	0xbb9ba393	-0.004749724
71	0x3e7370d4	0.2377351
72	0x3e6c75d6	0.23091826
73	0xbd8dbe00	-0.06921005
74	0xbe56833e	-0.20948502
75	0x3dd5beab	0.10436758
76	0x3cd28e00	0.025702477
77	0xbd426364	-0.047458068
78	0xbe9acba3	-0.30233487
79	0xbe24efef	-0.16107152
80	0xbf0820f9	-0.5317531
81	0xbe131a77	-0.14365564
82	0x3f068a99	0.52555233
83	0xbd95802e	-0.07299839
84	0xbf0e4fc5	-0.5559047
85	0xbdb87180	-0.090060234
86	0x3ea9a780	0.33135605
87	0xbb0f3650	-0.002185244
88	0xbe88891e	-0.26667112
89	0xbce6ef06	-0.028190147
90	0x3f015171	0.50514895
91	0xbe5b6eb0	-0.21428943
92	0x3e47c584	0.1950894
93	0xbe43f970	-0.19138122
94	0xbe5ce9cc	-0.21573561
95	0x3ec972f0	0.39345503
96	0xbe139bab	-0.14414851
97	0x3dc16b36	0.09444277
98	0x3e993e86	0.29930514
99	0xbd9674d2	-0.073465005
100	0x3e265941	0.16244985
101	0x3e1e1ca4	0.15440613
102	0x3e63a7bc	0.22231954
103	0x3dbeb9b8	0.09312767
104	0xbea22f2e	-0.3167662
105	0xbeab0d1b	-0.33408436
106	0xbd9d6c47	-0.07686668
107	0xbcc9228d	-0.024552608
108	0xbd8c9af3	-0.06865492
109	0x3d4e8273	0.050417375
110	0x3deb3e19	0.114864536
111	0x3e672715	0.22573502
112	0x3df04a4d	0.11732922
113	0x3ec80495	0.39065996
114	0xbf16411a	-0.5869309
115	0x3e30917b	0.17242996
116	0xbdac8095	-0.084229626
117	0x3bc007be	0.005860298
118	0xbd1cb72b	-0.03826062
119	0x3dcb4c7c	0.099266976
120	0xbeab78de	-0.33490652
121	0x3e38bc93	0.18040685
122	0xbd2cb269	-0.042162333
123	0x3edf3ba9	0.43600205
124	0x3e3faec4	0.18719012
125	0x3e1f0926	0.15530834
126	0x3d17187a	0.036888577
127	0xbea192e4	-0.3155738
128	0xbd808283	-0.06274893
129	0x3ce30c29	0.02771576
130	0xbdcecc2e	-0.10097538
131	0x3ef4c0de	0.47803396
132	0x3f22c5f0	0.6358328
133	0xbeec4534	-0.46146548
134	0xbf173c23	-0.59076136
135	0xbd34961f	-0.04408848
136	0x3eb76b35	0.3582398
137	0xbf27438e	-0.65337455
138	0xbe7e5a11	-0.24839045
139	0xbc033488	-0.00800813
140	0xbdd79a52	-0.10527481
141	0xbd5e1c52	-0.054226227
142	0x3cc8e318	0.02452235
143	0xbed99163	-0.42493734
144	0xbd36f8c5	-0.04467084
145	0xbe52469b	-0.20534746
146	0x3d6ada25	0.057336945
147	0xbd57b004	-0.052658096
148	0xbe85bc70	-0.2612033
149	0x3ea7919c	0.3272828
150	0x3d7d4e0f	0.06184202
151	0x3e889156	0.26673383
152	0xbd8d3032	-0.06893958
153	0x3eb7b95d	0.35883608
154	0xbee49509	-0.44644955
155	0xbe775d2f	-0.2415664
156	0xbe9efe65	-0.31053463
157	0xbee89048	-0.45422578
158	0xbf57e805	-0.8433841
159	0x3f1aed08	0.6051793
160	0xbd8dfa75	-0.069325365
161	0xbe79864b	-0.24367635
162	0xbe9c8856	-0.30572766
163	0xbe9f6b9c	-0.31136787
164	0xbd58f1e6	-0.052965067
165	0xbe068f99	-0.13140716
166	0xbeaee5e0	-0.34159756
167	0x3f0c9f4e	0.5493058
168	0x3e4b4b47	0.19852935
169	0x3d88cfa6	0.06680231
170	0x3e3c41f9	0.18384542
171	0xbe82b1d6	-0.25526303
172	0x3e89fa2b	0.26948676
173	0xbea036d9	-0.31291845
174	0xbf50a40e	-0.8150033
175	0x3f0b30bc	0.5437124
176	0x3ca2c212	0.01986793
177	0x3ecce958	0.40021777
178	0xbf1091ac	-0.5647228
179	0xbc15087b	-0.00909626
180	0xbd96ab7d	-0.073569275
181	0xbc846b83	-0.016164547
182	0xbe86ee96	-0.26353902
183	0xbd0aec44	-0.033916727
184	0x3d327c4f	0.04357558
185	0x3ea5785a	0.32318383
186	0xbe340863	-0.17581324
187	0x3e88a8cf	0.2669129
188	0x3ed02b21	0.40657905
189	0xbcfa3e59	-0.030547308
190	0xbec3c40f	-0.38235518
191	0xbcdea6c4	-0.02717913
192	0x3ddd7ebf	0.108151905
193	0x3ea27907	0.31732962
194	0xbdb2aa2d	-0.08723865
195	0xbe101b53	-0.14072923
196	0x3d76de65	0.060270686
197	0xbe46e989	-0.19425024
198	0xbf0ff71c	-0.56236434
199	0x3f104489	0.56354576
200	0xbe93d029	-0.2886975
201	0x3e57664e	0.2103512
202	0x3ea0731b	0.31337819
203	0xbedcab57	-0.43099472
204	0x3eefb097	0.46814415
205	0xbecb6d85	-0.39731994
206	0xbe92c2ec	-0.2866434
207	0x3f4fa42e	0.81109893
208	0x3e948bdd	0.29012957
209	0xbe9da9ca	-0.307936
210	0x3df24992	0.11830439
211	0x3e9900d6	0.2988345
212	0xbe8dd8fa	-0.27704602
213	0xbdf41375	-0.11917774
214	0xbd6a16e5	-0.05715074
215	0xbf12500e	-0.57153404
216	0x3d3aac86	0.045574687
217	0x3e95d856	0.29266614
218	0xbd804c65	-0.06264571
219	0x3eb3a23a	0.35084707
220	0x3e998f8d	0.29992333
221	0x3e94f009	0.29089382
222	0xbcb72100	-0.022354603
223	0xbe23fabd	-0.16013618
224	0xbe80ea9d	-0.25178996
225	0x3e83cc88	0.25741982
226	0x3e6a4f20	0.22881746
227	0xbf0505dd	-0.5196207
228	0x3dd27df8	0.10277933
229	0x3c318922	0.010835918
230	0xbe73009b	-0.237307
231	0x3f5b2531	0.85603625
232	0x3e8a1914	0.26972258
233	0x3e05609f	0.1302514
234	0xbeab5648	-0.33464265
235	0xbe880ab4	-0.26570666
236	0x3dc512d1	0.096227296
237	0xbd182d04	-0.037152305
238	0xbe7dd97c	-0.24789995
239	0x3ead095a	0.33796197
240	0x3ed1df9e	0.4099092
241	0x3ca66c2c	0.020315252
242	0xbd095bd1	-0.03353483
243	0xbce70137	-0.028198821
244	0x3e121503	0.14265828
245	0xbeb25e2e	-0.34837478
246	0x3de9c7d0	0.11415064
247	0x3eb1c1bd	0.34718123
248	0xbda8c2ef	-0.08240306
249	0x3d5b9c30	0.05361575
250	0xbe8d29e8	-0.27571034
251	0xbeac7f1b	-0.33690724
252	0x3eb2bd29	0.34909943
253	0xbed471e1	-0.41493133
254	0xbe9f0e08	-0.31065392
255	0x3f012556	0.50447595

static_variable_selection.single_variable_grns.AGE5064.gate_norm.glu.fc.bias f4 [32]
0	0x3da06e87	0.078335814
1	0xbe377001	-0.1791382
2	0x3c2a0c06	0.010378843
3	0x3e0f9225	0.14020593
4	0x3dac0b92	0.08400644
5	0x3e0ee80b	0.13955705
6	0x3bdac757	0.006676595
7	0xbdc2e240	-0.0951581
8	0xbccced7e	-0.025015589
9	0xbdfba476	-0.12287228
10	0x3df57203	0.11984637
11	0xbe98303c	-0.297243
12	0xbc5ceee6	-0.013484692
13	0xbe10e096	-0.14148173
14	0xbd5549ca	-0.052072324
15	0x3de0728f	0.1095935
16	0xbe9dc3ab	-0.30813345
17	0xbd146ea7	-0.03623834
18	0xbb584dcd	-0.0033005357
19	0xbf265adc	-0.6498239
20	0xbf01c321	-0.5068837
21	0xbf095d78	-0.53658247
22	0xbe945c47	-0.28976652
23	0xbf07bb0a	-0.53019774
24	0xbf22a47f	-0.6353225
25	0xbed1c50a	-0.4097064
26	0x3d8ba95d	0.06819413
27	0x3c07c6fd	0.008287189
28	0xbeeb20a6	-0.45923346
29	0xbf066962	-0.5250455
30	0xbe6fa5b2	-0.23403051
31	0xbe1f3b7a	-0.15550032

static_variable_selection.single_variable_grns.AGE5064.gate_norm.add_norm.norm.weight f4 [16]
0	0x3f421551	0.75813776
1	0x3f44ce7b	0.76877564
2	0x3f918188	1.1367655
3	0x3f8da0e3	1.1064724
4	0x3f947543	1.1598285
5	0x3f97e32c	1.1866202
6	0x3f91014e	1.1328523
7	0x3f8e28ea	1.1106236
8	0x3f81c3d3	1.0137886
9	0x3f7b211a	0.98097384
10	0x3f3cf8a7	0.73816913
11	0x3fa56f4b	1.2924589
12	0x3f8b7f4a	1.089822
13	0x3f919553	1.1373695
14	0x3f800f9d	1.0004765
15	0x3e9839e7	0.29731676

static_variable_selection.single_variable_grns.AGE5064.gate_norm.add_norm.norm.bias f4 [16]
0	0x3e01bca0	0.12669611
1	0xbe2331fc	-0.15937036
2	0x3d41280f	0.047157343
3	0x3e30fdfb	0.17284386
4	0x3dfe15b3	0.124064825
5	0x3e497c88	0.19676411
6	0x3da78371	0.08179367
7	0xbd96d049	-0.07363946
8	0xbd9c36e1	-0.07627655
9	0xbdfa1bc4	-0.12212327
10	0x3dddae21	0.10824228
11	0xbebe7013	-0.3719488
12	0x3ccda519	0.025103139
13	0xbe2c8559	-0.16847743
14	0xbd9cad14	-0.076501995
15	0x3e0f5466	0.13997039

static_variable_selection.prescalers.AGE5064.weight f4 [8, 1]
0	0xbd9ebcce	-0.077508554
1	0xbf042da3	-0.51632136
2	0x3ed5c8e1	0.4175482
3	0x3ed8cb38	0.42342544
4	0xbf0d4dae	-0.55196655
5	0xbe181963	-0.14853434
6	0xbf25b294	-0.64725614
7	0x3b68ecaa	0.0035541453

static_variable_selection.prescalers.AGE5064.bias f4 [8]
0	0xbe8dd004	-0.27697766
1	0x3ed4deea	0.4157632
2	0x3f55a733	0.8345825
3	0x3e81f85d	0.253848
4	0xbed25342	-0.41079146
5	0xbf17f719	-0.59361416
6	0xbea15363	-0.31508932
7	0xbdb14ff5	-0.08657829

encoder_variable_selection.flattened_grn.resample_norm.mask f4 [3]
0	0xbf17f317	-0.593553
1	0x3dc15b21	0.094412096
2	0x3e87740a	0.26455718

encoder_variable_selection.flattened_grn.resample_norm.norm.weight f4 [3]
0	0x3f5b1ba4	0.8558905
1	0x3f78acb8	0.9713855
2	0x3fe124ff	1.7589415

encoder_variable_selection.flattened_grn.resample_norm.norm.bias f4 [3]
0	0x3e7b7ef4	0.24560148
1	0x3dc2baaf	0.09508263
2	0xbf1db52d	-0.6160458

encoder_variable_selection.flattened_grn.fc1.weight f4 [3, 24]
0	0x3eab4086	0.33447665
1	0xbcd5a33e	-0.026078817
2	0xbc9a8a72	-0.018864844
3	0x3e31aa23	0.17350058
4	0xbdf5911d	-0.11990569
5	0x3e4ec816	0.20193514
6	0xbeaf4889	-0.34235027
7	0xbeb41c37	-0.35177776
8	0xbf11c6f9	-0.56944233
9	0x3de0afbd	0.109710194
10	0x3d2119e2	0.039331324
11	0xbfa8312d	-1.3140007
12	0xbdec92b0	-0.11551416
13	0x3dd074b8	0.10178512
14	0x3e51dbee	0.20494053
15	0x3e15c37c	0.14625353
16	0x3f237aa4	0.6385901
17	0xbf53400d	-0.8251961
18	0x3e274374	0.16334325
19	0x3d991645	0.07474951
20	0x3e688198	0.22705686
21	0x3e66cb4b	0.22538488
22	0xbc85fb45	-0.016355166
23	0x3ef8d1b0	0.4859748
24	0x3e010bce	0.1260216
25	0xbc5c45b8	-0.013444357
26	0xbeb9b9ef	-0.3627467
27	0xbf116b04	-0.5680392
28	0x3e020ecb	0.12700956
29	0x3e52f456	0.2060102
30	0x3da7d0db	0.08194133
31	0x3f17a06e	0.5922917
32	0xbf112094	-0.56690335
33	0x3e9d05ed	0.30668584
34	0xbf0a0452	-0.5391284
35	0xbf1c004d	-0.6093796
36	0xbe1b25e3	-0.15151171
37	0xbcb65dfa	-0.022261608
38	0x3c095a99	0.008383417
39	0x3e3d8d12	0.18510845
40	0xbe4d2e97	-0.20037304
41	0x3e86fe20	0.26365757
42	0xbe7ad4ea	-0.24495283
43	0xbed98a47	-0.4248831
44	0xbe8cf903	-0.2753373
45	0x3e8901e0	0.26759243
46	0x3e67580c	0.22592181
47	0xbd92a9ae	-0.0716127
48	0x3e9b3f17	0.3032157
49	0xbeda92fa	-0.4269026
50	0xbd863a62	-0.065541044
51	0x3d1b6e1e	0.037946813
52	0x3ed8b551	0.42325833
53	0x3ef358ba	0.4752863
54	0xbc1fa4fa	-0.009743923
55	0x3edd4dfe	0.43223566
56	0xbf07bf8d	-0.5302666
57	0x3e2c119a	0.1680359
58	0xbbd7a176	-0.006580527
59	0x3e2bc7d2	0.16775444
60	0xbcc844fe	-0.02444696
61	0x3e27b501	0.16377641
62	0x3ee81073	0.4532505
63	0x3ec85379	0.39126185
64	0xbdb41db8	-0.08794731
65	0x3f20b391	0.62773997
66	0x3e62fbce	0.22166368
67	0xbec93215	-0.39296022
68	0xbeff497b	-0.4986075
69	0xbe9c1bb6	-0.30489892
70	0xbe526fbe	-0.20550439
71	0xbbe355a9	-0.0069377017

encoder_variable_selection.flattened_grn.fc1.bias f4 [3]
0	0xbe4982bc	-0.19678777
1	0xbe9eb67c	-0.309986
2	0xbe5ee198	-0.21765745

encoder_variable_selection.flattened_grn.context.weight f4 [3, 16]
0	0xbe4cc269	-0.19996037
1	0xbe149f36	-0.14513859
2	0xbe1ef4b2	-0.15523031
3	0xbe994685	-0.29936615
4	0x3e62818d	0.22119732
5	0xbd308591	-0.04309613
6	0xbdbfd00d	-0.093658544
7	0x3c2201c4	0.009888116
8	0xbe0bf178	-0.13666332
9	0xbde2bd51	-0.110712655
10	0xbdb0afdf	-0.08627295
11	0x3d900e63	0.07033994
12	0x3e0bda4c	0.13657492
13	0xbd8b79d6	-0.06810348
14	0xbdbf1554	-0.0933024
15	0xbe159cb6	-0.14610562
16	0x3f487e00	0.7831726
17	0xbea4fa93	-0.32222423
18	0x3f11d88c	0.5697105
19	0xbf11e6f5	-0.5699304
20	0xbf12f7d3	-0.574094
21	0x3f4015bd	0.7503317
22	0x3d37b982	0.04485465
23	0xbf300328	-0.68754816
24	0x3ec7f5d7	0.39054748
25	0xbdfadd92	-0.122492924
26	0xbebf5798	-0.37371516
27	0x3d8ea97e	0.06965922
28	0x3e9e4af3	0.30916557
29	0xbea674be	-0.32510942
30	0xbe81525f	-0.25258157
31	0xbdab8360	-0.08374667
32	0x3e925127	0.2857754
33	0x3d937eb5	0.07201902
34	0x3eacf31d	0.3377923
35	0xbea10616	-0.31449956
36	0xbe8f193f	-0.2794895
37	0x3f59b174	0.85036397
38	0x3dac6bbd	0.08418987
39	0x3db7c44d	0.08972988
40	0xbea29895	-0.31757036
41	0x3eb15297	0.34633324
42	0xbde093ba	-0.109656766
43	0xbdec58a9	-0.11540348
44	0x3de6087f	0.11232089
45	0xbd8dca08	-0.069233
46	0x3daf452d	0.08558116
47	0x3ea206ba	0.31645757

encoder_variable_selection.flattened_grn.fc2.weight f4 [3, 3]
0	0xbf4022fd	-0.7505339
1	0xbfa9594b	-1.3230375
2	0xbeb1db40	-0.34737587
3	0xbe891064	-0.26770318
4	0xbf728366	-0.9473175
5	0xbe43730c	-0.19086856
6	0xbec71fe8	-0.3889153
7	0xbf647006	-0.89233434
8	0xbf47489f	-0.77845186

encoder_variable_selection.flattened_grn.fc2.bias f4 [3]
0	0x3e85d3f4	0.2613827
1	0xbe2fa371	-0.17152192
2	0xbd92e93e	-0.07173394

encoder_variable_selection.flattened_grn.gate_norm.glu.fc.weight f4 [6, 3]
0	0x3eead045	0.45862022
1	0xbe464cf3	-0.19365291
2	0x3f29acdd	0.66279393
3	0xbd93a0b9	-0.0720839
4	0xbec7a2e6	-0.3899147
5	0x3f340299	0.70316464
6	0xbef01bb6	-0.46896142
7	0xbf03e7fb	-0.5152585
8	0xbeb9177b	-0.36150727
9	0xbefa33bf	-0.48867604
10	0xbf0f5123	-0.5598318
11	0x3f28b8de	0.65907085
12	0x3f37947e	0.71710956
13	0xbe541e18	-0.20714605
14	0xbee5b263	-0.4486266
15	0x3f71127e	0.9416884
16	0x3eefface	0.46871036
17	0x3edfc7e2	0.43707186

encoder_variable_selection.flattened_grn.gate_norm.glu.fc.bias f4 [6]
0	0x3df671ca	0.12033422
1	0xbd50e169	-0.050996218
2	0xbf0d689b	-0.5523774
3	0xbe312a3b	-0.17301266
4	0x3eaf0bca	0.34188682
5	0x3e39adf9	0.18132772

encoder_variable_selection.flattened_grn.gate_norm.add_norm.norm.weight f4 [3]
0	0x3e9e8b6e	0.3096575
1	0x3dbf5375	0.0934209
2	0x3e4d31dd	0.20038553

encoder_variable_selection.flattened_grn.gate_norm.add_norm.norm.bias f4 [3]
0	0x3e18d3de	0.14924571
1	0xbecddb7c	-0.40206516
2	0x3f00fc1c	0.5038469

encoder_variable_selection.single_variable_grns.SinWeekly.resample_norm.mask f4 [16]
0	0xbe675e5c	-0.22594589
1	0x3e178ed4	0.14800578
2	0x3e1f9cd9	0.15587176
3	0xbdbaf2be	-0.09128331
4	0xbea3eb53	-0.32015476
5	0xbe5c2ddf	-0.21501873
6	0x3ee81b1b	0.4533318
7	0xbf13cd3e	-0.5773505
8	0xbf53ebd3	-0.82781714
9	0xbe0213a8	-0.12702811
10	0xbe669577	-0.22517954
11	0xbe1a2809	-0.15054335
12	0xbeacfb1d	-0.33785334
13	0x3e105e4d	0.14098473
14	0x3e4a371e	0.19747588
15	0x3eb57a24	0.35444748

encoder_variable_selection.single_variable_grns.SinWeekly.resample_norm.norm.weight f4 [16]
0	0x3f4e1f74	0.80516744
1	0x3f33d34b	0.7024428
2	0x3f98e93c	1.1946177
3	0x3f81095f	1.0080985
4	0x3f59607b	0.8491284
5	0x3f6742c6	0.90336263
6	0x3fc46f11	1.5346395
7	0x3ec6587b	0.3873938
8	0x3dd5d43a	0.1044087
9	0x3f52947c	0.8225782
10	0x3f77626e	0.96634567
11	0x3f8980e8	1.0742464
12	0x3f836994	1.0266595
13	0x3f994be1	1.1976281
14	0x3fce4df9	1.6117545
15	0x3fa4056d	1.2814156

encoder_variable_selection.single_variable_grns.SinWeekly.resample_norm.norm.bias f4 [16]
0	0xb96b3c62	-0.00022433841
1	0x3e2ebf01	0.1706505
2	0x3c9375f1	0.018000575
3	0x3e39f7a1	0.18160869
4	0xbd9bc57c	-0.076060265
5	0xbdd2ca84	-0.10292533
6	0xbe014024	-0.12622124
7	0xbe6a290d	-0.22867222
8	0xbd9dc958	-0.07704419
9	0xbc4b022f	-0.012390657
10	0x3c9c07d2	0.019046698
11	0x3e736ed9	0.23772754
12	0xbded28cc	-0.11580047
13	0x3cde555d	0.027140314
14	0xbe0f43b8	-0.13990676
15	0x3e045d7a	0.12926283

encoder_variable_selection.single_variable_grns.SinWeekly.fc1.weight f4 [8, 8]
0	0x3f7dcde4	0.9914229
1	0xbfceae12	-1.6146872
2	0xbf4483fb	-0.76763886
3	0xbff47116	-1.9097011
4	0xbe9464bf	-0.28983113
5	0xbdac2cca	-0.0840698
6	0x3eafc2c8	0.34328294
7	0x3f00a318	0.5024886
8	0xbe910309	-0.28322628
9	0x3ead42c8	0.33840013
10	0xbf1ec629	-0.6202112
11	0xbe410bf1	-0.18852212
12	0xbf1746bd	-0.59092313
13	0x3f800fc9	1.0004817
14	0xbf4f2bbc	-0.8092611
15	0xbf2200e5	-0.63282615
16	0xbe6d6f12	-0.23186901
17	0x3d95aaae	0.07307945
18	0xbf315ee4	-0.69285417
19	0x3ebf4783	0.37359247
20	0xbf89a08d	-1.0752121
21	0x3f00f304	0.5037081
22	0x3f30fced	0.69135934
23	0x3cbd6f13	0.023124253
24	0x3e8fa845	0.28058067
25	0x3d433556	0.047658287
26	0xbebecd13	-0.37265834
27	0x3dfbf75e	0.12303041
28	0x3ea5c58d	0.32377282
29	0x3e203199	0.1564392
30	0x3e90caf7	0.2827985
31	0x3f107f88	0.564446
32	0xbf1a8e68	-0.60373545
33	0xbda6cd86	-0.08144669
34	0x3f94f1f2	1.1636336
35	0x3d9b6ae4	0.07588747
36	0x3e2e9bb3	0.17051582
37	0x3f2f74f6	0.68537843
38	0x3f1688fa	0.5880276
39	0xbf724b93	-0.9464657
40	0x3f30da84	0.6908343
41	0xbeab61f3	-0.33473167
42	0xbf2e5113	-0.6809246
43	0xbce583bc	-0.028016917
44	0x3e60f0cb	0.21966855
45	0xbe9be792	-0.30450112
46	0xbe13fe97	-0.14452587
47	0x3e808126	0.25098532
48	0xbf98f7d9	-1.1950637
49	0xbe10520f	-0.14093803
50	0xbff10901	-1.8830873
51	0x3ef72cdf	0.4827642
52	0xbf72f136	-0.9489931
53	0x3eb1f98a	0.34760696
54	0xbfabdc8f	-1.3426684
55	0xbf5f4e8d	-0.87229234
56	0x3e9dc57a	0.30814725
57	0x3c820baf	0.015874712
58	0xbf33c195	-0.7021726
59	0x3e60bdde	0.21947429
60	0x3f51cb4f	0.8195085
61	0x3efdda19	0.49580458
62	0xbdfb9ad1	-0.12285388
63	0x3ec8ddb3	0.39231643

encoder_variable_selection.single_variable_grns.SinWeekly.fc1.bias f4 [8]
0	0xbe34954c	-0.17635077
1	0xbdf479b3	-0.11937275
2	0xbbacd70a	-0.005274658
3	0xbdf9c6d1	-0.12196124
4	0x3d4a9cac	0.04946582
5	0xbd8cff45	-0.06884626
6	0xbe9d5603	-0.30729684
7	0xbd829b16	-0.063772365

encoder_variable_selection.single_variable_grns.SinWeekly.fc2.weight f4 [8, 8]
0	0xbf83ba77	-1.029128
1	0x3e01a69c	0.12661213
2	0xbfa384ed	-1.2774941
3	0xbf0816b1	-0.53159624
4	0xbf0265b1	-0.5093642
5	0x3da065da	0.07831927
6	0x3f0085da	0.5020424
7	0xbea0c09d	-0.31396952
8	0xbe4e4e8c	-0.20147151
9	0xbe5eda04	-0.21762854
10	0x3ea9747e	0.3309669
11	0x3e194a3e	0.14969727
12	0xbe02473c	-0.12722486
13	0x3eecd07f	0.4625282
14	0x3f4a3f53	0.79002875
15	0x3e0f865f	0.14016102
16	0x3f474084	0.7783282
17	0xbe942620	-0.28935337
18	0x3d9fa800	0.07795715
19	0xbec8267e	-0.39091867
20	0x3f1b8fc7	0.6076626
21	0xbb0b3bfa	-0.0021245466
22	0x3f49e0a7	0.7885842
23	0x3f19bbc5	0.6005214
24	0x3eb49ac1	0.35274318
25	0x3f684cf5	0.9074243
26	0x3ecaede9	0.39634636
27	0x3e883451	0.26602414
28	0x3e08a018	0.13342321
29	0xbed9bd0b	-0.4252704
30	0x3ea88896	0.32916707
31	0xbeabcae1	-0.33553222
32	0xbf3032b9	-0.68827397
33	0x3f8b3344	1.087502
34	0xbf08276b	-0.5318515
35	0x3e075d2e	0.13219139
36	0x3e2f498e	0.17117903
37	0x3ed9039e	0.42385572
38	0x3ece420f	0.40284774
39	0xbea1d535	-0.31607977
40	0x3f1614ac	0.5862529
41	0xbed6fba4	-0.41988862
42	0xbecebb73	-0.40377387
43	0xbddc8d56	-0.10769145
44	0xbf19b565	-0.6004241
45	0x3e484691	0.19558169
46	0xbeafb68c	-0.3431896
47	0xbe7b2bd8	-0.24528444
48	0xbefd7c80	-0.49509048
49	0x3e3b6f55	0.18304189
50	0x3e2b9668	0.16756594
51	0xbd41b4aa	-0.047291435
52	0x3e34d486	0.17659196
53	0xbeafa6a0	-0.34306812
54	0x3eb03fc1	0.3442364
55	0x3ec7638b	0.38943133
56	0x3f60009c	0.8750093
57	0x3dd631b2	0.104586974
58	0x3ee9d59d	0.45670786
59	0x3f191112	0.5979167
60	0x3f0dfd76	0.55464876
61	0x3bba33f2	0.005682462
62	0x3f811966	1.0085876
63	0xbec6c4cf	-0.38822028

encoder_variable_selection.single_variable_grns.SinWeekly.fc2.bias f4 [8]
0	0xbd901819	-0.07035846
1	0xbe03ccb2	-0.12871054
2	0x3de59513	0.11210074
3	0x3e1a875d	0.150907
4	0x3e224314	0.15845901
5	0xbb0e6bb0	-0.0021731667
6	0x3d92a03b	0.07159468
7	0x3df397c9	0.11894185

encoder_variable_selection.single_variable_grns.SinWeekly.gate_norm.glu.fc.weight f4 [32, 8]
0	0x3e9bd043	0.3043233
1	0xbdba70fd	-0.09103582
2	0x3e33716c	0.17523736
3	0xbd297132	-0.041367717
4	0x3dca8b4d	0.09889851
5	0xbedb56a7	-0.42839548
6	0xbda489a3	-0.080340646
7	0x3e61aeb7	0.22039305
8	0xbd516cd8	-0.051129192
9	0x3d9d9042	0.076935306
10	0xbe34660c	-0.17617053
11	0xbe71101f	-0.23541306
12	0x3d80884f	0.06275999
13	0x3e27b42b	0.16377322
14	0x3ebf5610	0.37370348
15	0xbe2d3690	-0.16915345
16	0x3e98f060	0.29870892
17	0xbd363b1f	-0.044489976
18	0x3e1fd9ff	0.15610503
19	0x3e4d1fe8	0.20031703
20	0x3e49d549	0.19710268
21	0x3d6c109b	0.057633024
22	0xbdbd337c	-0.092383355
23	0x3e2aa362	0.16663888
24	0xbe602d21	-0.21892215
25	0xbe5c0705	-0.21487053
26	0xbd5b222c	-0.053499386
27	0xbe05fc0b	-0.13084428
28	0x3d33049b	0.043705564
29	0x3e9e0393	0.30862102
30	0xbd86537a	-0.06558891
31	0x3ef816e6	0.4845497
32	0x3ea7df27	0.3278744
33	0x3edb8176	0.42872208
34	0x3e9327cc	0.287413
35	0x3f16b69e	0.588724
36	0x3e8a9462	0.27066332
37	0xbebb7978	-0.3661611
38	0x3e8ff1b6	0.28114098
39	0x3e5d59c3	0.21616273
40	0xbba96a33	-0.0051701306
41	0xbe4dff4f	-0.20116924
42	0xbde3dd82	-0.11126234
43	0xbd71b7b7	-0.059013095
44	0xbe8959cb	-0.2682632
45	0xbe59452c	-0.21217793
46	0xbd9fb22d	-0.07797656
47	0x3b9ae9e3	0.0047275885
48	0x3ec9a404	0.39382946
49	0x3e22c47c	0.15895265
50	0xbf74e61b	-0.95663613
51	0xbe66b1a6	-0.22528705
52	0x3e564fce	0.2092888
53	0xbef381bb	-0.47559914
54	0x3effa4f7	0.49930546
55	0xbf5304d4	-0.8242924
56	0xbf04505a	-0.51685107
57	0x3e740797	0.2383102
58	0x3edc5471	0.43033174
59	0xbe588e87	-0.2114812
60	0xbeaf7ddf	-0.3427572
61	0x3d34c6b7	0.04413482
62	0xbde8c483	-0.11365607
63	0x3ea4dcdc	0.32199752
64	0x3f06d5f0	0.5267019
65	0x3f125a65	0.5716918
66	0x3e7fa07f	0.24963568
67	0x3f5339e4	0.8251021
68	0x3eebf257	0.46083328
69	0xbf2aaacc	-0.66666865
70	0x3ee3f1d7	0.44520447
71	0x3f17771c	0.5916612
72	0xbdfecc30	-0.124412894
73	0xbe9f4fd8	-0.31115603
74	0x3da5707c	0.08078095
75	0xbe1558a5	-0.14584596
76	0xbe0070c2	-0.12543014
77	0xbcd66be6	-0.026174497
78	0x3cab0639	0.02087699
79	0x3de46453	0.11151948
80	0x3e1a75b1	0.15083958
81	0x3d96ead6	0.0736901
82	0x3e1a6650	0.15078092
83	0x3df63a3a	0.120228246
84	0x3ddc4b80	0.10756588
85	0x3c88e929	0.016712742
86	0x3d84abab	0.064780556
87	0x3ec8c062	0.39209276
88	0x3e976fed	0.2957758
89	0x3ea12419	0.31472853
90	0x3dffdf72	0.12493791
91	0x3eb59e7e	0.35472482
92	0x3e9b90e7	0.3038399
93	0xbf1015ac	-0.5628307
94	0x3f183aa6	0.5946449
95	0x3f3d47e0	0.739378
96	0x3eefcb10	0.46834612
97	0x3eda705e	0.42663854
98	0x3e16d9a3	0.1473146
99	0x3ed7d56c	0.42155015
100	0x3f2e12fb	0.6799771
101	0xbf3c42f7	-0.7353968
102	0x3e9936a3	0.29924497
103	0x3d8560c6	0.06512599
104	0xbccada43	-0.024762278
105	0xbed629e8	-0.41828847
106	0xbdfda9e6	-0.12385921
107	0xbe844449	-0.25833347
108	0xbe14aaeb	-0.14518325
109	0x3e681b2b	0.22666614
110	0xbea4b452	-0.32168823
111	0xbeea9590	-0.45817232
112	0xbef88df0	-0.4854579
113	0xbf1718b8	-0.5902209
114	0x3ee4b0d1	0.4466615
115	0xbe71e766	-0.23623428
116	0xbea4f672	-0.32219273
117	0x3f0cc406	0.5498661
118	0xbf0e2973	-0.55531996
119	0x3ea95c93	0.3307844
120	0xbd4f43c7	-0.050601747
121	0xbf32f8cb	-0.6991088
122	0xbebb8ff9	-0.3663328
123	0xbe569c29	-0.20958008
124	0xbe88f1bf	-0.26746938
125	0x3d9928ab	0.0747846
126	0xbcbff93d	-0.023434276
127	0xbe4d5843	-0.200532
128	0x3eb01cbf	0.34396932
129	0xbc969102	-0.018379692
130	0x3e1f8df9	0.15581502
131	0x3f0574b4	0.521312
132	0x3e109f18	0.1412319
133	0xbed21f1b	-0.41039357
134	0x3dc9aa5e	0.09846948
135	0xbf1b9e83	-0.60788745
136	0x3eabe78f	0.33575103
137	0xbe76f8fc	-0.24118418
138	0xbe108083	-0.14111523
139	0xbe009b0b	-0.12559144
140	0x3eb2fd08	0.34958673
141	0xbccb520c	-0.024819396
142	0x3d29dd95	0.041471083
143	0xbedd2e32	-0.43199307
144	0x3ea6546a	0.32486278
145	0xbe09a76c	-0.13442773
146	0xbe60bdb6	-0.21947369
147	0x3cbf5a51	0.023358496
148	0x3d93049b	0.07178613
149	0xbe05e8ab	-0.13077037
150	0xbe36f14b	-0.17865483
151	0x3df691c2	0.1203952
152	0x3dd66e78	0.10470289
153	0xbe75da43	-0.24009041
154	0x3f53ad27	0.82686085
155	0xbc0f1829	-0.008733788
156	0xbf3636c5	-0.7117732
157	0x3ecd87aa	0.40142566
158	0xbe9bad58	-0.30405688
159	0x3e8e495f	0.27790353
160	0x3ec4d182	0.38441092
161	0x3ed8ebcd	0.42367402
162	0xbeb8a98e	-0.3606686
163	0x3e7c965d	0.24666734
164	0x3ea4eb17	0.3221061
165	0xbef38499	-0.475621
166	0x3f5aa790	0.8541193
167	0x3da931ed	0.08261476
168	0x3e4555a0	0.19270945
169	0xbb1268e6	-0.0022340356
170	0x3e68a481	0.22719003
171	0x3e89210b	0.26783022
172	0x3ddcdb8f	0.10784065
173	0xbdce321a	-0.1006815
174	0x3ebd9ffd	0.37036124
175	0xbf01507e	-0.50513446
176	0xbddbb86f	-0.10728537
177	0xbeb6fabb	-0.35738167
178	0x3ec2a7a4	0.38018525
179	0xbe2a2a7c	-0.16617769
180	0xbdf74ce5	-0.12075213
181	0x3e447c66	0.19188079
182	0xbe632d31	-0.22185208
183	0x3ed5e179	0.41773584
184	0xbee4e298	-0.44704127
185	0x3ee34eb3	0.4439598
186	0x3ee3bfa0	0.44482136
187	0x3e13bcce	0.14427492
188	0x3dd74702	0.105115905
189	0x3e44f6a5	0.19234712
190	0xbec6385a	-0.38714868
191	0xbca80cf3	-0.020513987
192	0x3e6ac063	0.22924952
193	0x3ddb6749	0.107130595
194	0x3d68e2da	0.056856968
195	0x3db8fee3	0.09032991
196	0x3ee39c0d	0.44454995
197	0xbe58c9e7	-0.2117077
198	0x3eabc91a	0.33551866
199	0x3e722997	0.23648678
200	0xbe2e858a	-0.17043129
201	0xbd17a2c3	-0.037020456
202	0x3dd0e3b5	0.10199682
203	0x3e91c465	0.2847015
204	0x3e2425ff	0.1603012
205	0x3e17ec72	0.1483629
206	0xbe6ddfb3	-0.23229866
207	0x3e930d08	0.2872088
208	0x3e3d5642	0.18489936
209	0xbb9aceba	-0.0047243508
210	0xbed74b5d	-0.42049685
211	0xbe0de4c4	-0.13856798
212	0x3dc3b2c1	0.09555579
213	0x3a1762a6	0.00057748926
214	0xbe31b439	-0.17353906
215	0xbf264d51	-0.64961725
216	0x3e84e6f6	0.2595746
217	0x3e5d059e	0.21584174
218	0x3e890bee	0.26766914
219	0x3f30b430	0.69024944
220	0x3edc01e6	0.42970198
221	0xbe6268a9	-0.22110237
222	0x3eebdced	0.4606699
223	0x3ec07b11	0.37593892
224	0xbdfdf6e2	-0.12400605
225	0x39f8db71	0.00047465743
226	0x3f2c2c2a	0.6725489
227	0x3ea33c18	0.31881785
228	0x3e059997	0.13046871
229	0xbb4153a6	-0.0029499321
230	0x3de19105	0.110139884
231	0x3f4319fd	0.7621153
232	0x3cb9388a	0.022609968
233	0x3ee5af0e	0.4486012
234	0xbe0b5e78	-0.13610256
235	0x3ec4e43c	0.3845538
236	0x3f09f5c4	0.53890634
237	0xbea5e8fc	-0.32404315
238	0x3dcc9d6c	0.09990963
239	0x3e70a99c	0.23502201
240	0xbefb07c4	-0.49029362
241	0xbe84c9ba	-0.25935155
242	0xbd7bdff3	-0.06149287
243	0xbc9638d1	-0.018337639
244	0xbe7b8ef0	-0.24566245
245	0xbc59033b	-0.013245399
246	0xbe56661a	-0.20937386
247	0x3e76abc6	0.24088964
248	0x3e0221c9	0.127082
249	0x3ec69c48	0.38791108
250	0xbe966304	-0.29372418
251	0x3ea0a75a	0.3137768
252	0x3dd522fc	0.10407063
253	0xbed3c2b0	-0.41359472
254	0x3e94e147	0.29078123
255	0xbe7f1ea7	-0.24914037

encoder_variable_selection.single_variable_grns.SinWeekly.gate_norm.glu.fc.bias f4 [32]
0	0x3e27d081	0.16388132
1	0x3e47bdf3	0.19506054
2	0x3cca15b3	0.02466855
3	0x3dd0edeb	0.10201629
4	0x3cc76139	0.024338352
5	0xbe2da12c	-0.16956013
6	0xbdbfd0eb	-0.0936602
7	0xbe963fb6	-0.29345483
8	0xbcb95eae	-0.022628155
9	0x3c50c82a	0.012743035
10	0xbcb57305	-0.022149572
11	0x3eaa3acd	0.33247986
12	0xbd0a300b	-0.033737224
13	0xbd8a6d75	-0.067591585
14	0xbd006bbf	-0.031352755
15	0x3d09e8a5	0.033669133
16	0xbe72b1fb	-0.23700707
17	0xbe663720	-0.22481966
18	0xbe96b753	-0.2943674
19	0xbeef7c68	-0.46774602
20	0x3d9c988a	0.07646282
21	0xbefeb67e	-0.49748605
22	0x3daaf3d6	0.08347289
23	0xbcb388b5	-0.021915773
24	0x3edaeac6	0.42757243
25	0xbe149612	-0.14510372
26	0xbf016a3a	-0.50552714
27	0xbe0431d0	-0.12909627
28	0x3eb2edc0	0.34947014
29	0xbdb91b14	-0.09038368
30	0x3eeedd0b	0.46653017
31	0x3db142be	0.08655308

encoder_variable_selection.single_variable_grns.SinWeekly.gate_norm.add_norm.norm.weight f4 [16]
0	0x3f02d7b7	0.51110405
1	0x3f35e631	0.7105437
2	0x3faa3cec	1.3299842
3	0x3f34e0f3	0.70655745
4	0x3f562e82	0.83664715
5	0x3f6189a8	0.8810067
6	0x3fcfc08c	1.6230636
7	0x3ede7ff7	0.43457004
8	0x3fa86291	1.315508
9	0x3f404952	0.7511188
10	0x3f81e9c3	1.0149463
11	0x3fb2bd5f	1.3964041
12	0x3f67c93f	0.9054145
13	0x3fb0dcca	1.381738
14	0x3fa6c473	1.3028702
15	0x3fba6944	1.4563375

encoder_variable_selection.single_variable_grns.SinWeekly.gate_norm.add_norm.norm.bias f4 [16]
0	0xbde98e8a	-0.1140414
1	0x3df38729	0.11891014
2	0x3e15e5da	0.14638463
3	0x3e9dfc14	0.30856383
4	0xbbb8f96a	-0.005644967
5	0xbd9348a8	-0.071915925
6	0xbe19202f	-0.14953683
7	0xbdcde865	-0.10054091
8	0x3de0e8dc	0.109819144
9	0xbd1d400e	-0.038391165
10	0xbe01cf6d	-0.12676783
11	0x3e8b8c38	0.27255416
12	0x3d1b8c05	0.03797533
13	0x3c8c03fd	0.017091746
14	0xba72b1ee	-0.0009258081
15	0x3d85353a	0.06504293

encoder_variable_selection.single_variable_grns.VaccinationFull.resample_norm.mask f4 [16]
0	0xbe9e6593	-0.3093687
1	0xbe1691ab	-0.14704005
2	0x3de7b521	0.113138445
3	0xbf6f9abb	-0.93595475
4	0x3f398bcf	0.72478956
5	0x3d2bb90f	0.041924533
6	0xbec5eccd	-0.38657227
7	0x3eb2a57f	0.34891888
8	0xbd5015db	-0.050802093
9	0xbeeca0fb	-0.46216568
10	0xbe8f2824	-0.27960312
11	0x3f0b0cc0	0.5431633
12	0xbeb569e1	-0.35432342
13	0x3ec7d9e4	0.39033425
14	0xbe6ba4aa	-0.23012033
15	0xbe6e15ab	-0.23250453

encoder_variable_selection.single_variable_grns.VaccinationFull.resample_norm.norm.weight f4 [16]
0	0x3f2beef0	0.67161465
1	0x3f445467	0.7669129
2	0x3f9ba561	1.2159845
3	0x3ef2f988	0.47456002
4	0x3febfda9	1.8436786
5	0x3f85ef4b	1.0463651
6	0x3f104030	0.5634794
7	0x3fb38c9d	1.4027287
8	0x3f7b1e5a	0.9809319
9	0x3f2950a7	0.6613869
10	0x3f45d23c	0.7727392
11	0x3fd6b09a	1.6772645
12	0x3f1011fa	0.5627743
13	0x3fb436a8	1.407918
14	0x3ee83499	0.4535263
15	0x3f3fc36d	0.7490757

encoder_variable_selection.single_variable_grns.VaccinationFull.resample_norm.norm.bias f4 [16]
0	0xbdcf4cea	-0.10122092
1	0x3ea03785	0.31292358
2	0xbd017625	-0.031606812
3	0x3e9685f5	0.29399076
4	0x3c60377e	0.013685105
5	0xbd746386	-0.059665225
6	0xbd96eb6f	-0.07369124
7	0x3e002e68	0.12517703
8	0xbe1a2726	-0.15053996
9	0xbeb3eb7c	-0.35140598
10	0xbdfbed74	-0.1230115
11	0xbded93fa	-0.1160049
12	0x3e52764a	0.20552936
13	0xbe67dd13	-0.22642927
14	0x3f01dd0e	0.5072793
15	0x3e5ab154	0.21356708

encoder_variable_selection.single_variable_grns.VaccinationFull.fc1.weight f4 [8, 8]
0	0x3f058eb3	0.52170867
1	0xbed8ab93	-0.423184
2	0xbf539c82	-0.82660687
3	0xbe1094a3	-0.141192
4	0x3f60cc28	0.8781152
5	0x3e3f2e0d	0.1866991
6	0xbf119202	-0.56863415
7	0xbbdbe597	-0.006710719
8	0xbcaf4439	-0.021394836
9	0xbe46def8	-0.19420993
10	0xbf529c69	-0.8226991
11	0xbf930b3e	-1.1487806
12	0xbd143913	-0.036187243
13	0xbd4cca1f	-0.049997445
14	0x3f83a576	1.028487
15	0x3a9971fd	0.0011706945
16	0xbe681cf7	-0.22667299
17	0xbf021f5b	-0.50829095
18	0xbe39693d	-0.18106551
19	0xbf21abd0	-0.6315279
20	0xbee98572	-0.45609623
21	0x3f222c56	0.633489
22	0x3e88d7b6	0.26727074
23	0xbe95b16a	-0.2923692
24	0xbea01a1f	-0.3126993
25	0xbf76d2cc	-0.964154
26	0xbef69f30	-0.48168325
27	0x3e1f9d1c	0.15587276
28	0xbf2c1b2b	-0.67228955
29	0x3f849989	1.0359355
30	0x3f1f7e19	0.62301785
31	0x3edea1fd	0.43482962
32	0x3ea63ae9	0.3246682
33	0x3f053a54	0.52042127
34	0x3df05ecd	0.11736832
35	0x3edea063	0.4348174
36	0x3db79b79	0.08965201
37	0x3ec189cd	0.37800446
38	0x3f0d9805	0.5531009
39	0x3f3fe82f	0.7496366
40	0xbe4f99aa	-0.20273462
41	0x3f264de3	0.64962596
42	0x3e2ece1f	0.17070816
43	0xbe3b65cc	-0.18300551
44	0xbee360a0	-0.44409657
45	0xbf5319e0	-0.8246136
46	0xbf51ab14	-0.8190167
47	0xbfdeb92c	-1.740026
48	0xbeece2f6	-0.46266907
49	0x3da8b11e	0.082369074
50	0xbcb243d2	-0.021760855
51	0x3e871be3	0.26388463
52	0x3f9cea21	1.225895
53	0xbd87e5c7	-0.066356234
54	0x3e46ac37	0.19401632
55	0x3e48bc6d	0.19603129
56	0x3e9d830a	0.30764037
57	0x3e2dca9f	0.16971825
58	0xbf16150f	-0.5862588
59	0xbe227efa	-0.1586875
60	0xbec59a12	-0.3859411
61	0xbf9a4957	-1.2053632
62	0xbe9ffc69	-0.3124726
63	0xbfc5a08b	-1.5439619

encoder_variable_selection.single_variable_grns.VaccinationFull.fc1.bias f4 [8]
0	0x3e9288ee	0.28620094
1	0xbb603440	-0.003421083
2	0xbda7feb5	-0.082028784
3	0x3d434396	0.047671877
4	0x3ddef748	0.10887009
5	0xbe90336a	-0.28164226
6	0x3e076fb3	0.13226204
7	0xbd5976d1	-0.053091828

encoder_variable_selection.single_variable_grns.VaccinationFull.fc2.weight f4 [8, 8]
0	0xbe2b61c7	-0.16736518
1	0x3e2e3e6f	0.17016004
2	0xbdf314fb	-0.11869236
3	0xbea103af	-0.31448123
4	0xbf3e93da	-0.74444354
5	0x3ecadb41	0.39620402
6	0xbf22d87d	-0.63611585
7	0x3e83fd64	0.2577926
8	0x3f6aea60	0.9176388
9	0xbf44e138	-0.76906157
10	0xbf05fff4	-0.5234368
11	0xbf283b28	-0.65715265
12	0xbebc4be2	-0.36776644
13	0xbf238393	-0.6387264
14	0x3ef83901	0.4848099
15	0xbe161560	-0.14656591
16	0xbfdf75da	-1.745784
17	0x3e285bc0	0.1644125
18	0xbd8a089c	-0.06739923
19	0x3f230e2a	0.6369349
20	0xbe94264e	-0.28935474
21	0x3f00ee36	0.5036348
22	0x3e26b8f1	0.16281487
23	0x3f28009c	0.6562593
24	0x3ec3b69a	0.3822525
25	0xbedbf298	-0.42958522
26	0x3c968b41	0.018376948
27	0xbe0e388c	-0.13888758
28	0x3f20d078	0.628181
29	0xbf328a11	-0.6974192
30	0x3e28db66	0.16489944
31	0xbc319f8b	-0.010841261
32	0xbf177550	-0.5916338
33	0xbd8384f1	-0.06421841
34	0x3efbe72c	0.49199808
35	0xbe3a1faf	-0.18176149
36	0x3ed0c1ca	0.4077285
37	0x3e92b21d	0.28651515
38	0xbfa2ee39	-1.272895
39	0x3f48616c	0.78273654
40	0xbeaec407	-0.34133932
41	0x3eb5ff26	0.35546225
42	0x3f26b577	0.65120643
43	0x3f0574c2	0.52131283
44	0x3e15f0bf	0.14642619
45	0x3e1dceca	0.15410915
46	0xbe21d0a3	-0.15802245
47	0xbf5dc6a2	-0.86631215
48	0x3f7ffe1a	0.99997103
49	0xbe579a09	-0.21054853
50	0xbe862a3d	-0.262041
51	0x3f460469	0.7735048
52	0x3ebef7f1	0.3729854
53	0xbf185447	-0.595036
54	0x3e7c9ca6	0.24669132
55	0x3debad70	0.1150769
56	0xbe8a48fb	-0.27008805
57	0x3ef1e544	0.47245228
58	0x3edf476b	0.43609175
59	0x3f1b19ce	0.6058625
60	0xbf142522	-0.5786916
61	0xbed4a9d4	-0.4153582
62	0x3c9fb6ce	0.019496348
63	0xbeb32394	-0.3498808

encoder_variable_selection.single_variable_grns.VaccinationFull.fc2.bias f4 [8]
0	0xbd7de25c	-0.06198345
1	0x3e438756	0.19094595
2	0xbe1a607c	-0.15075868
3	0x3e44c393	0.1921523
4	0xbe6898cd	-0.22714539
5	0x3d03fd7b	0.03222416
6	0x3ec68ee2	0.38780886
7	0xbdbd9613	-0.0925714

encoder_variable_selection.single_variable_grns.VaccinationFull.gate_norm.glu.fc.weight f4 [32, 8]
0	0x3e12a600	0.14321136
1	0x3f2e5e8a	0.68113005
2	0x3e606859	0.21914805
3	0x3e593f5c	0.21215576
4	0xbe8b85a8	-0.2725041
5	0xbcb6e7f6	-0.022327404
6	0x3c3d4594	0.011552233
7	0xbea4071e	-0.3203668
8	0xbef2736a	-0.4735368
9	0x3e3525fe	0.17690274
10	0xbeefcbac	-0.46835077
11	0x3b9efc38	0.004851844
12	0x3da17fbb	0.07885691
13	0xbe74f6c5	-0.2392226
14	0x3e5817c8	0.21102822
15	0xbe71e7ba	-0.23623553
16	0x3cc9e1e9	0.024643855
17	0xbda56f26	-0.080778405
18	0x3e4456ae	0.1917369
19	0xbe5cd3a0	-0.21565104
20	0x3e182a73	0.14859943
21	0x3f08f44d	0.53497773
22	0xbef46258	-0.4773128
23	0x3edd060b	0.43168673
24	0xbf8629a8	-1.0481462
25	0x3e842e8a	0.25816756
26	0xbea7520f	-0.32679793
27	0x3f3330e4	0.69996476
28	0xbf302de6	-0.68820035
29	0x3f18c509	0.5967565
30	0x3f532c2a	0.82489264
31	0x3ec0b7b8	0.37640166
32	0x3f353ef7	0.707992
33	0xbef44255	-0.47706857
34	0x3f629868	0.88513803
35	0xbf5ae460	-0.8550472
36	0x3f42c8d1	0.7608767
37	0xbf0fa752	-0.56114686
38	0xbf5cb874	-0.86218953
39	0xbf6912cf	-0.91044325
40	0x3ec0158e	0.37516445
41	0xbe1c9cfa	-0.15294257
42	0x3f0639f9	0.5243221
43	0xbeff44b2	-0.49857098
44	0x3e4d524c	0.20050925
45	0x3b5861fb	0.0033017385
46	0xbeaeec70	-0.34164762
47	0xbcab08d0	-0.020878226
48	0xbc0db017	-0.00864794
49	0x3e123e5c	0.142816
50	0x3c5a2cf9	0.013316386
51	0x3d9570ea	0.07296927
52	0xbe193106	-0.14960107
53	0x3e75f172	0.24017885
54	0x3e83240e	0.25613445
55	0x3e09fa97	0.13474499
56	0xbee6cba0	-0.4507723
57	0x3f219b79	0.6312786
58	0xbde642a1	-0.11243177
59	0xbec12bea	-0.37728816
60	0x3e9c2ece	0.3050446
61	0xbe8e6550	-0.2781167
62	0x3ef615c4	0.4806348
63	0xbef4d600	-0.4781952
64	0xbd7f8699	-0.06238422
65	0x3ef2739b	0.47353825
66	0xbe8c6da8	-0.2742741
67	0xbd6aafc1	-0.05729652
68	0xbe866bb4	-0.26254046
69	0x3e5bfe83	0.21483807
70	0x3dcd8d25	0.10036687
71	0x3de9407b	0.11389252
72	0x3e324706	0.17409906
73	0xbe0c8921	-0.13724186
74	0x3ea8e25b	0.32985196
75	0xbe9650a6	-0.29358405
76	0x3d51d926	0.05123248
77	0xbe44cfeb	-0.1921994
78	0xbf167675	-0.587745
79	0xbe512e73	-0.20427875
80	0x3e3d3bc5	0.18479832
81	0xbe7d3920	-0.24728823
82	0x3e6be8ee	0.23038074
83	0xbec20cf8	-0.3790052
84	0x3e95bb4c	0.2924446
85	0x3d8b9ee3	0.068174146
86	0xbe37cb04	-0.17948538
87	0x3da98b66	0.08278541
88	0xbecd610b	-0.401131
89	0xbf2e39ff	-0.68057245
90	0xbe37771d	-0.17916532
91	0x3e83b6a8	0.25725293
92	0xbe3e5336	-0.1858643
93	0x3eb40944	0.3516332
94	0x3b4093f6	0.0029385067
95	0x3ee80efd	0.45323935
96	0xbda828e1	-0.08210922
97	0x3ee731b9	0.45155123
98	0xbea86bd4	-0.32894766
99	0xbe9662f2	-0.29372364
100	0x3cbda1bc	0.02314841
101	0xbe543907	-0.20724879
102	0xbdb5e853	-0.08882203
103	0xbeae7f05	-0.34081283
104	0x3ea3603f	0.31909367
105	0xbf78edde	-0.97237957
106	0x3e1ef96d	0.15524836
107	0x3d9676ba	0.07346864
108	0x3ed5dbef	0.4176936
109	0x3ea59df4	0.3234707
110	0xbd51f928	-0.051263005
111	0xbeb9ccf1	-0.3628917
112	0xbf06496b	-0.52455777
113	0x3f16e4eb	0.5894305
114	0xbe940dae	-0.28916687
115	0x3e8f6d42	0.28013045
116	0xbe85ec3a	-0.2615679
117	0xbd4301e3	-0.04760922
118	0x3d8e9041	0.06961108
119	0x3e42fc2e	0.19041511
120	0xbe1655cf	-0.14681171
121	0x3e13e458	0.14442575
122	0xbd6796f1	-0.056540433
123	0xbdc2ad2e	-0.09505688
124	0x3e075bd7	0.13218628
125	0xbea1a3d7	-0.31570312
126	0x3e81f016	0.25378484
127	0xbd468277	-0.048464265
128	0x3f25655d	0.64607793
129	0xbea329f2	-0.3186794
130	0x3ed5f2d3	0.41786823
131	0xbda0bfe5	-0.07849101
132	0x3ea77fe6	0.32714766
133	0x3e88673b	0.2664126
134	0xbf0642dd	-0.52445775
135	0xbf3ef20e	-0.74588096
136	0x3dd115db	0.10209247
137	0xbea7191a	-0.32636338
138	0x3ebdf0ad	0.37097684
139	0xbd0438ea	-0.03228084
140	0x3cfec9c0	0.031102061
141	0x3ee53e8e	0.44774288
142	0xbe0e84e3	-0.1391788
143	0x3e37e444	0.1795817
144	0xbd866111	-0.06561483
145	0x3f126205	0.57180816
146	0xbe9e311e	-0.30896848
147	0x3f71068f	0.9415063
148	0xbe5ab310	-0.2135737
149	0x3ed996db	0.42497906
150	0x3ed08fe9	0.40734795
151	0x3ed180d8	0.40918612
152	0x3e171259	0.14753093
153	0xbe0cd2a8	-0.13752234
154	0x3e5176f5	0.20455535
155	0xbdc4cdf2	-0.096095935
156	0x3ebecd5e	0.37266058
157	0x3c14a450	0.009072378
158	0xbf05aa43	-0.52212924
159	0x3d5f78f3	0.054558706
160	0xbec7dce0	-0.39035702
161	0xbe8d57ab	-0.27605948
162	0xbd111d68	-0.035428435
163	0x3f03fcf7	0.5155787
164	0xbe12eaa4	-0.14347321
165	0x3f54e1be	0.83156955
166	0x3db7da30	0.08977163
167	0x3fb21edf	1.3915671
168	0x3e02c35d	0.12769838
169	0xbf35e70f	-0.7105569
170	0x3f3e9afc	0.7445524
171	0xbea2c46c	-0.31790483
172	0x3dba9000	0.09109497
173	0x3e939b5d	0.2882947
174	0xbf1bd856	-0.6087698
175	0x3e19972b	0.14999072
176	0x3ec4ff38	0.38475966
177	0x3ed5fef6	0.41796082
178	0xbe7156b7	-0.23568235
179	0x3e72b8f5	0.23703368
180	0xbd84e5da	-0.06489153
181	0xbdb40698	-0.0879032
182	0xbee79dbc	-0.4523753
183	0x3dffe240	0.12494326
184	0x3c170792	0.0092181135
185	0x3efeec1c	0.49789512
186	0x3e4e4676	0.20144066
187	0x3c1f5aae	0.00972621
188	0xbe0e8e70	-0.13921523
189	0xbf4964b3	-0.7866928
190	0xbf1629fb	-0.5865781
191	0xbedf930e	-0.4366688
192	0xbd55b9c1	-0.0521791
193	0x3eb856a1	0.36003593
194	0xbde22d78	-0.11043829
195	0xbe066052	-0.13122681
196	0xbe92d378	-0.28676963
197	0x3d83e98a	0.064410284
198	0x3e790823	0.2431951
199	0xbdcde49e	-0.10053371
200	0x3d8c63bc	0.0685496
201	0xbdbb74f1	-0.09153164
202	0x3e6b1770	0.2295816
203	0xbe08da51	-0.13364531
204	0x3ee34ebc	0.44396007
205	0xbcfe9223	-0.031075543
206	0xbe5c0de4	-0.21489674
207	0x3dd28ff9	0.10281367
208	0x3d5962f4	0.053072885
209	0xbc0c6ad4	-0.008570392
210	0x3e720728	0.23635542
211	0xbf05974d	-0.5218399
212	0x3ed00cc4	0.4063474
213	0xbf37fc0f	-0.71868986
214	0xbd0c9741	-0.034323934
215	0xbf58081e	-0.84387386
216	0x3eba3a59	0.3637264
217	0x3d3e62e2	0.04648102
218	0x3e9c4d80	0.30527878
219	0xbf0cbbfb	-0.54974335
220	0x3e8f33ba	0.27969152
221	0xbeba1915	-0.3634726
222	0xbf15debf	-0.5854301
223	0xbf0d3f4a	-0.55174696
224	0x3efb5a44	0.49092305
225	0x3ea5468f	0.32280394
226	0xbe9ad4cc	-0.30240476
227	0x3eb64ce3	0.35605535
228	0x3df8aa72	0.12141885
229	0x3e366a72	0.17814043
230	0xbec9cccd	-0.39414063
231	0x3cf29703	0.029613024
232	0xbdcecd29	-0.10097725
233	0xbf91ec37	-1.1400212
234	0x3c374fdf	0.011188476
235	0xbe43591e	-0.19076964
236	0x3eb4799e	0.35249037
237	0x3e6ffe36	0.23436818
238	0xbea63219	-0.32460096
239	0x3e5a5985	0.21323211
240	0x3e69d56d	0.22835322
241	0x3dee1c23	0.116264604
242	0xbd2fb548	-0.042897493
243	0x3ddeb4e3	0.10874345
244	0xbe97be25	-0.29637256
245	0xbeab3675	-0.33439985
246	0x3e7cccd5	0.24687512
247	0xbe9bd9eb	-0.30439696
248	0xbda535b1	-0.080668814
249	0xbe9df806	-0.3085329
250	0x3f70c2f4	0.94047475
251	0xbdb4a93b	-0.08821341
252	0x3e278605	0.16359718
253	0xbebbccb5	-0.36679617
254	0xbce75651	-0.028239401
255	0xbf13ddbf	-0.5776023

encoder_variable_selection.single_variable_grns.VaccinationFull.gate_norm.glu.fc.bias f4 [32]
0	0x3e8b5f58	0.2722118
1	0x3ce4716b	0.027886113
2	0xbe9d50fe	-0.30725855
3	0xbdeafeb4	-0.11474362
4	0xbf1d9079	-0.6154857
5	0x3c2cbf90	0.010543719
6	0x3d8922ba	0.06696077
7	0x3e93e900	0.28888702
8	0x3d5e6ed7	0.054304924
9	0xbda85be6	-0.08220653
10	0x3d336524	0.043797627
11	0xbf1e16d9	-0.6175361
12	0x3e0674d0	0.13130498
13	0xbd852e7b	-0.06503006
14	0x3ebaafb7	0.36462185
15	0x3e815912	0.25263268
16	0xbe0d58bd	-0.13803382
17	0xbe888a50	-0.26668024
18	0x3c0d88db	0.008638586
19	0x3ea2519b	0.31702885
20	0xbd6421dd	-0.055696357
21	0xbf0f4cc8	-0.55976534
22	0x3dd1b7f5	0.10240165
23	0x3de7e83e	0.113235936
24	0x3e437bf7	0.19090258
25	0xbd0e4040	-0.034729242
26	0x3e02fc96	0.12791666
27	0x3eb1171d	0.34587947
28	0xbcff9cc8	-0.031202689
29	0xbf324af6	-0.6964563
30	0x3ebe19b0	0.37128973
31	0xbe66fae9	-0.22556652

encoder_variable_selection.single_variable_grns.VaccinationFull.gate_norm.add_norm.norm.weight f4 [16]
0	0x3f0ada03	0.5423891
1	0x3f60ed7c	0.8786237
2	0x3f8be8d1	1.0930425
3	0x3f8fa0bf	1.1220931
4	0x3f8fd4ea	1.1236851
5	0x3f764809	0.96203667
6	0x3ef5b4cc	0.479895
7	0x3f91f0c2	1.1401598
8	0x3f4bfaa2	0.7967931
9	0x3f25d375	0.6477578
10	0x3f2a271c	0.66465926
11	0x3fa899f9	1.3171989
12	0x3ef37c1a	0.4755562
13	0x3f825562	1.0182307
14	0x3f8df9ee	1.1091897
15	0x3ecdecc4	0.402197

encoder_variable_selection.single_variable_grns.VaccinationFull.gate_norm.add_norm.norm.bias f4 [16]
0	0xbcb67e3d	-0.022276992
1	0x3e97a80c	0.29620397
2	0x3e36955b	0.17830412
3	0x3e71794d	0.23581429
4	0x3def6513	0.116892
5	0xbcb1b5b5	-0.02169309
6	0xbe1977e0	-0.14987135
7	0xbe2a694e	-0.16641733
8	0xbe1c96bb	-0.15291874
9	0xbe3a5f93	-0.18200521
10	0xbdbd6b93	-0.09249034
11	0x3dacec95	0.08443562
12	0x3e0be8b6	0.13662991
13	0xbe267914	-0.16257125
14	0x3dad7587	0.08469682
15	0x3e36741b	0.17817728

encoder_variable_selection.single_variable_grns.Cases.resample_norm.mask f4 [16]
0	0x3e2954f0	0.16536307
1	0x3e848d7a	0.25889188
2	0xbfa2d1c5	-1.2720267
3	0xbe54c029	-0.20776428
4	0xbe2e4e41	-0.17022039
5	0x3ed3ce85	0.413685
6	0xbe2913be	-0.16511437
7	0xbf0a3c09	-0.53997856
8	0xbf934996	-1.1506832
9	0x3ef1c82e	0.47223037
10	0x3ee02696	0.4377944
11	0xbe48328e	-0.19550535
12	0xbf0ac38c	-0.5420463
13	0xbde1652a	-0.11005624
14	0x3ec38408	0.3818667
15	0x3e09dc04	0.13462836

encoder_variable_selection.single_variable_grns.Cases.resample_norm.norm.weight f4 [16]
0	0x3f8c4363	1.0958065
1	0x3fb0f0ba	1.3823464
2	0x3f102660	0.56308556
3	0x3f813176	1.0093219
4	0x3f64442f	0.8916654
5	0x3fb3d82a	1.4050343
6	0x3f94b2cb	1.1617063
7	0x3f6170cd	0.88062745
8	0x3eeb1a3b	0.4591845
9	0x3fd14ecb	1.6352171
10	0x3fb8fd24	1.4452252
11	0x3f655374	0.89580464
12	0x3f052595	0.5201047
13	0x3f6f93b7	0.9358477
14	0x3fc00eec	1.5004554
15	0x3f9a89e0	1.2073326

encoder_variable_selection.single_variable_grns.Cases.resample_norm.norm.bias f4 [16]
0	0x3ea44704	0.3208543
1	0x3e1fec09	0.15617384
2	0xbe28370d	-0.1642725
3	0xbe2c4003	-0.16821294
4	0xbd4ef20e	-0.05052381
5	0xbe3994c7	-0.1812316
6	0xbe6051fb	-0.21906273
7	0xbde3953c	-0.111124486
8	0xbdedee24	-0.11617687
9	0x3db7be23	0.089718126
10	0xbc8a35c4	-0.01687134
11	0x3c95dbc9	0.018293278
12	0xbe214db9	-0.15752305
13	0x3c1ebd3f	0.0096886745
14	0x3d070ee4	0.032973185
15	0x3ebee25f	0.37282082

encoder_variable_selection.single_variable_grns.Cases.fc1.weight f4 [8, 8]
0	0x3c7cb9e5	0.01542518
1	0x3fc5d097	1.5454282
2	0x3e18b676	0.14913353
3	0xbf1c6033	-0.6108429
4	0xbf1003e6	-0.5625595
5	0x3ef9e226	0.4880535
6	0xbe9a9c06	-0.3019716
7	0xbeeab6e1	-0.4584265
8	0x3f058ad1	0.5216494
9	0x3f185aa1	0.5951329
10	0xbe7c0ba5	-0.24613817
11	0xc00f8ea8	-2.243082
12	0xbf9545c6	-1.1661918
13	0x3eb68769	0.35650185
14	0x3df266b2	0.11835994
15	0xbd8d6e43	-0.069057964
16	0x3fa313fb	1.2740473
17	0x3c393c58	0.011305891
18	0xbe05db55	-0.1307195
19	0x3d449b8f	0.047999915
20	0x3c384b23	0.011248383
21	0xbe6bbbbc	-0.23020834
22	0xbf718967	-0.94350284
23	0x3f22eff7	0.6364741
24	0xbf2bfe27	-0.6718468
25	0xbd0bd5be	-0.034139387
26	0x3f586ace	0.8453797
27	0x3ebd2ea9	0.3694966
28	0x3f36cd1b	0.71406716
29	0x3d6f6046	0.058441423
30	0x3e83b692	0.25725228
31	0x3f09d461	0.5383969
32	0xbe8864f4	-0.2663952
33	0xbe932a0b	-0.28743014
34	0x3e1b7428	0.15181029
35	0x3e6ca38d	0.23109265
36	0x3e808e18	0.2510841
37	0x3e999176	0.2999379
38	0x3df32232	0.118717566
39	0x3e883829	0.26605347
40	0xbe41f3c7	-0.1894065
41	0x3ea2af6b	0.31774458
42	0x3e6f594b	0.23373906
43	0xbfe47824	-1.7849164
44	0xbf579a3b	-0.8421971
45	0x3f240be4	0.64080644
46	0x3dd5e973	0.104449175
47	0x3f373fed	0.7158192
48	0x3e3e91b8	0.18610275
49	0x3ecdd1ee	0.40199226
50	0x3e19fbe4	0.15037495
51	0x3e802732	0.25029904
52	0xbfb39c21	-1.4032022
53	0x3e9c09a1	0.30476096
54	0x3ef17d5f	0.47165963
55	0xbe93bf64	-0.28856957
56	0xbe8c9257	-0.27455398
57	0xbed14a73	-0.40877113
58	0xbeca2e27	-0.39488336
59	0xbf3b92ed	-0.73271066
60	0xbe1afbdd	-0.1513514
61	0xbe6c27cc	-0.23062056
62	0xbf2a7ace	-0.66593635
63	0x3fb4a314	1.4112267

encoder_variable_selection.single_variable_grns.Cases.fc1.bias f4 [8]
0	0xbeb04f6f	-0.34435603
1	0xbe8e9826	-0.27850455
2	0x3dafe957	0.08589428
3	0xbe071f81	-0.13195612
4	0x3d6f85e1	0.058477286
5	0xbe48ab69	-0.19596638
6	0xbee0ef12	-0.43932396
7	0xbc4fe69f	-0.012689262

encoder_variable_selection.single_variable_grns.Cases.fc2.weight f4 [8, 8]
0	0xbe1eeff3	-0.15521221
1	0x3f58bbe6	0.8466171
2	0x3e0cb8b4	0.13742334
3	0xbed27b64	-0.41109765
4	0x3f06ea52	0.52701294
5	0xbd657cc8	-0.056027204
6	0x3f56bc6e	0.8388127
7	0x3d4d0ab0	0.05005902
8	0xbe33dbd8	-0.17564332
9	0x3e2413ff	0.16023253
10	0xbe7452d3	-0.2385972
11	0xbf13286a	-0.5748354
12	0x3e011753	0.12606554
13	0x3ea04340	0.31301308
14	0x3e02a70f	0.1275904
15	0xbf9449b4	-1.1584992
16	0xbdf78e28	-0.12087661
17	0xbf123ede	-0.5712718
18	0xbf85434e	-1.0411165
19	0x3e9700e4	0.29492867
20	0x3ee9cf99	0.45666197
21	0xbef27ddd	-0.4736165
22	0xbf1637d2	-0.58678925
23	0x3f435eb9	0.7631641
24	0xbe986d4e	-0.29770893
25	0xbefad66e	-0.48991722
26	0xbf066b33	-0.52507323
27	0xbf6d2a8c	-0.92643046
28	0x3ebd0013	0.3691412
29	0xbf398907	-0.7247471
30	0xbeff967a	-0.49919492
31	0xbe44eae7	-0.19230233
32	0x3ee2939c	0.44253242
33	0x3f44669a	0.7671906
34	0x3e0ce531	0.13759305
35	0x3eb8523d	0.36000243
36	0x3eba2c8e	0.36362118
37	0x3d966a16	0.07344453
38	0x3e58d6bf	0.21175669
39	0x3eeb1dc3	0.45921144
40	0x3ebc7573	0.36808357
41	0x3dfe12d8	0.12405938
42	0x3f6198d2	0.8812381
43	0x3efe4968	0.4966538
44	0xbec75008	-0.38928246
45	0x3e1ffc49	0.15623583
46	0x3e271168	0.16315234
47	0x3e6b062f	0.22951578
48	0xbf111410	-0.5667124
49	0xbe9342e7	-0.2876198
50	0xbf163ff1	-0.58691317
51	0x3e89ba16	0.26899785
52	0xbe5ddac5	-0.21665485
53	0xbe95b7aa	-0.29241687
54	0x3f03ebcd	0.5153168
55	0x3df2493b	0.11830374
56	0x3efb20e3	0.49048528
57	0x3f3b2684	0.73105645
58	0x3d80ba27	0.06285506
59	0xbdf0a60a	-0.117504194
60	0x3dd2c0bd	0.10290668
61	0x3e04b3be	0.12959191
62	0xbc281d0e	-0.010260833
63	0x3d080cd9	0.033215377
