TFT-pytorch/results/industry_subgroup/Manufacturing/checkpoints/best-epoch=1.ckpt (torch, 702903 bytes, 506 tensors)

prescalers.Manufacturing.weight f4 [8, 1]
0	0x3d125001	0.03572083
1	0xbf1fa7fb	-0.6236569
2	0x3ed6cf55	0.41955057
3	0x3f0ca8a8	0.5494485
4	0xbf477969	-0.7791963
5	0xbd14ff91	-0.03637654
6	0xbf3be4a7	-0.7339577
7	0x3e1fb263	0.15595393

prescalers.Manufacturing.bias f4 [8]
0	0xbe9c5a4e	-0.30537647
1	0x3eedf787	0.4647791
2	0x3f3c0d21	0.73457533
3	0x3e5f10e0	0.21783781
4	0xbede8db2	-0.4346748
5	0xbf17e998	-0.5934081
6	0xbe32584a	-0.17416492
7	0xbe24ea17	-0.16104923

prescalers.SinWeekly.weight f4 [8, 1]
0	0x3e27c647	0.1638423
1	0xbf9c4597	-1.2208737
2	0x3f6552f4	0.895797
3	0xbf6d8adc	-0.9279001
4	0x3f389c3b	0.7211339
5	0xbe9a191c	-0.30097282
6	0x3f544255	0.82913715
7	0x3ed3d392	0.41372353

prescalers.SinWeekly.bias f4 [8]
0	0x3dd970a7	0.1061719
1	0xbdd879ac	-0.10570082
2	0x3f35f81f	0.7108173
3	0x3ec70935	0.38874212
4	0x3f08376d	0.53209573
5	0xbf1b15ea	-0.60580313
6	0x3f210903	0.62904376
7	0x3eda24b0	0.42606115

prescalers.VaccinationFull.weight f4 [8, 1]
0	0x3e3d52dd	0.18488641
1	0x3e799187	0.2437192
2	0x3f36684c	0.71252894
3	0x3f622e8d	0.8835228
4	0xbe1343e9	-0.14381374
5	0xbf41199a	-0.7542969
6	0xbf3ad70c	-0.72984385
7	0xbf0bd842	-0.5462686

prescalers.VaccinationFull.bias f4 [8]
0	0x3ea5988e	0.32342952
1	0xbf121e5b	-0.5707757
2	0xbf13a598	-0.5767455
3	0x3f5b8d3a	0.8576237
4	0x3f3ff264	0.74979234
5	0x3e0c7c31	0.1371925
6	0xbdddafc0	-0.10824537
7	0x3db0c3d8	0.08631104

prescalers.Cases.weight f4 [8, 1]
0	0x3f3d7b46	0.74016225
1	0xbf86ad7c	-1.0521693
2	0xbf554a03	-0.8331606
3	0x3f364a1a	0.7120682
4	0x3fa33de6	1.2753265
5	0x3da3c74f	0.079969995
6	0xbf26e429	-0.65191895
7	0x3ecdbfc9	0.40185383

prescalers.Cases.bias f4 [8]
0	0xbf34f050	-0.7067919
1	0xbe04087d	-0.12893863
2	0x3f03f418	0.5154433
3	0x3ee4154e	0.44547504
4	0x3d4af5b4	0.049550727
5	0xbd19108a	-0.03736929
6	0x3ee8f452	0.45498902
7	0xbf5b84af	-0.85749334

static_variable_selection.single_variable_grns.Manufacturing.resample_norm.mask f4 [16]
0	0xbdb5d252	-0.08878006
1	0xbe94e6d4	-0.29082358
2	0xbe0555b4	-0.13020974
3	0x3d9da502	0.07697488
4	0xbc7ae6e5	-0.015313839
5	0x3d57d201	0.05269051
6	0x3ef2053d	0.47269621
7	0x3de9a975	0.114092745
8	0x3de0d194	0.10977474
9	0x3ebde21f	0.3708658
10	0xbcb02e03	-0.021506315
11	0x3e255292	0.1614478
12	0xbe8eae87	-0.2786753
13	0x3e03ece8	0.12883341
14	0xbdbeff05	-0.09325985
15	0xbe081607	-0.13289653

static_variable_selection.single_variable_grns.Manufacturing.resample_norm.norm.weight f4 [16]
0	0x3f876c35	1.0579897
1	0x3f4fc1e3	0.8115522
2	0x3f82062b	1.0158132
3	0x3f944d56	1.1586101
4	0x3f8c0416	1.0938747
5	0x3f8e7b2c	1.1131339
6	0x3fc30515	1.5235926
7	0x3f9673b7	1.1754063
8	0x3f83150d	1.0240799
9	0x3fa7f7ec	1.3122535
10	0x3f8df147	1.1089257
11	0x3fa53a1e	1.2908361
12	0x3f41d576	0.7571634
13	0x3f9247c8	1.1428156
14	0x3f605113	0.8762371
15	0x3f7c8b8a	0.9865042

static_variable_selection.single_variable_grns.Manufacturing.resample_norm.norm.bias f4 [16]
0	0xbd2af69d	-0.041739095
1	0xbdb37746	-0.08762984
2	0xbcb9d54f	-0.022684721
3	0x3dfe3784	0.124129325
4	0x3e07d070	0.13263106
5	0x3e1e01eb	0.15430419
6	0x3ca9d202	0.020730022
7	0x3d92b1dc	0.0716283
8	0x3c39b9e0	0.01133582
9	0xbdceb2f7	-0.100927286
10	0xbe2d5ddc	-0.16930336
11	0xbe9bd6c7	-0.304373
12	0x3e4c65ac	0.1996066
13	0xbdf71ec2	-0.120664135
14	0x3bec3c73	0.0072093545
15	0xbc46951b	-0.01212051

static_variable_selection.single_variable_grns.Manufacturing.fc1.weight f4 [8, 8]
0	0x3ea88d66	0.32920378
1	0xbee3ccd8	-0.4449222
2	0xbf174e00	-0.59103394
3	0xbf207c82	-0.62689984
4	0x3d9853f8	0.07437891
5	0xbfb4cede	-1.4125631
6	0x3ed86031	0.42260888
7	0xbf1107f7	-0.5665278
8	0xbf24077f	-0.6407394
9	0xbf4e0a22	-0.8048421
10	0xbe065ecd	-0.13122101
11	0x3f26320d	0.6492012
12	0xbed1dd0b	-0.40988955
13	0xbefc0d4a	-0.4922889
14	0x3f2a20dc	0.6645639
15	0xbdb1c581	-0.08680249
16	0x3ea672a1	0.3250933
17	0x3e9bed09	0.3045428
18	0x3ed01772	0.40642887
19	0xbf0c0431	-0.54693896
20	0x3ef68ff8	0.48156714
21	0xbde79ce2	-0.1130922
22	0x3f1b0000	0.60546875
23	0xbe731b0a	-0.23740783
24	0xbf171915	-0.5902265
25	0xbe4b50b3	-0.19855003
26	0x3ccb7a56	0.024838608
27	0xbd27fdb0	-0.04101342
28	0xbf1613ac	-0.58623767
29	0x3e2f081e	0.1709294
30	0xbeea1c58	-0.4572475
31	0x3f38122d	0.71902734
32	0xbefeb586	-0.49747866
33	0x3f137dcd	0.5761383
34	0xbe0be457	-0.13661323
35	0xbeba5714	-0.3639456
36	0xbc278519	-0.010224604
37	0x3f62b96c	0.8856418
38	0x3f0ec4be	0.55768955
39	0xbe1b4e53	-0.15166597
40	0x3e964695	0.29350725
41	0xbdf9cf15	-0.12197701
42	0xbe9195eb	-0.2843469
43	0xbe2b1dbd	-0.16710563
44	0x3f477069	0.779059
45	0xbeb71fdd	-0.35766497
46	0x3e4f808b	0.20263879
47	0xbe55317e	-0.20819661
48	0xbe7c43f1	-0.24635293
49	0xbf07bbfd	-0.5302122
50	0xbd91c226	-0.07117109
51	0x3dd127c4	0.10212663
52	0x3e96fc17	0.29489204
53	0x3f92007c	1.1406398
54	0x3f10c151	0.5654498
55	0xbe9a4d4d	-0.301371
56	0xbf2bd606	-0.6712345
57	0xbf14b120	-0.5808277
58	0xbce0debc	-0.027449958
59	0x3f5cb7b7	0.86217827
60	0xbeeb3640	-0.45939827
61	0xbef698e7	-0.4816353
62	0x3b7f9373	0.0038997799
63	0x3e035ecf	0.12829135

static_variable_selection.single_variable_grns.Manufacturing.fc1.bias f4 [8]
0	0xbda4bb97	-0.080435924
1	0x3e0f9721	0.14022495
2	0xbe14339d	-0.14472814
3	0xbc47443e	-0.012162266
4	0x3ddd79a9	0.108142205
5	0xbd168ddb	-0.036756378
6	0x3e6f160b	0.23348252
7	0x3d101cef	0.035183843

static_variable_selection.single_variable_grns.Manufacturing.fc2.weight f4 [8, 8]
0	0x3d825a18	0.0636484
1	0x3ef25022	0.4732676
2	0x3e696269	0.22791447
3	0xbeb2815b	-0.34864315
4	0x3e7cc667	0.2468506
5	0xbeb114b8	-0.3458612
6	0x3f0d6a34	0.5524018
7	0x3f28f8fc	0.6600492
8	0xbef7c27a	-0.4839056
9	0xbea5e9f3	-0.32405052
10	0x3e4c621f	0.19959305
11	0xbc75312e	-0.014965339
12	0x3d8707d8	0.06593293
13	0xbe556132	-0.20837858
14	0x3eaba598	0.33524776
15	0x3e535b6e	0.20640346
16	0xbdfcb768	-0.123396695
17	0x3deb4539	0.114878125
18	0xbd173ac7	-0.03692129
19	0x3df71008	0.120636046
20	0x3e14f1d1	0.1454537
21	0xbeef1bb0	-0.4670081
22	0xbebf05e1	-0.37309173
23	0x3f1b19fe	0.60586536
24	0x3f2b2d93	0.66866416
25	0xbda6f19a	-0.081515506
26	0x3f22ce83	0.6359636
27	0xbf0a26d1	-0.5396548
28	0x3df1ad6f	0.11800658
29	0x3d8cdbe3	0.068778776
30	0x3f1b75b4	0.60726476
31	0xbf6d00ca	-0.9257933
32	0xbc1bfaad	-0.009520215
33	0xbca542ef	-0.020173518
34	0x3c9f923f	0.019478915
35	0x3e42b87d	0.19015689
36	0x3e381e56	0.17980322
37	0x3d7715ec	0.06032364
38	0x3f1cd8c4	0.6126826
39	0x3e840322	0.2578364
40	0xbe1cc9a9	-0.15311302
41	0x3dba9932	0.09111251
42	0xbf0dfb43	-0.5546152
43	0x3d5a8660	0.053350806
44	0x3e0e7ed0	0.13915563
45	0xbd6378f2	-0.055535264
46	0xbf3a114a	-0.7268263
47	0x3e41a9f4	0.18912488
48	0xbe73c575	-0.23805793
49	0xbe3eec9d	-0.18644948
50	0x3e45b808	0.19308484
51	0xbe635d1e	-0.2220349
52	0x3ef24aa0	0.4732256
53	0x3ecb31ae	0.3968634
54	0xbed7a7b2	-0.4212013
55	0xbf080cb7	-0.531444
56	0xbc401e21	-0.011725933
57	0x3eaa2c54	0.33236945
58	0xbf3b56bc	-0.7317922
59	0xbe032cdb	-0.1281008
60	0xbec3ccbe	-0.38242143
61	0xbe8b3822	-0.27191263
62	0x3e434b1f	0.19071625
63	0xbe4c23df	-0.19935559

static_variable_selection.single_variable_grns.Manufacturing.fc2.bias f4 [8]
0	0x3e7ed95e	0.24887607
1	0x3c9cbc7d	0.019132847
2	0x3d8a56c3	0.0675483
3	0xbce1a6e8	-0.027545407
4	0xbdd97993	-0.106188916
5	0xbd91360f	-0.07090389
6	0x3dd0e2cd	0.10199509
7	0x3d1971e5	0.037462134

static_variable_selection.single_variable_grns.Manufacturing.gate_norm.glu.fc.weight f4 [32, 8]
0	0xbe6146ba	-0.21999636
1	0x3eaa472b	0.33257422
2	0xbd01f258	-0.031725258
3	0xbe6aa2e4	-0.229137
4	0x3e42946a	0.19001928
5	0xbe386381	-0.18006708
6	0xbe863f92	-0.26220375
7	0xbc64cf63	-0.0139654605
8	0x3e5ed652	0.21761444
9	0x3dffc760	0.124892
10	0xbe560776	-0.20901284
11	0xbe8577ee	-0.26068062
12	0xbec3b49e	-0.38223737
13	0x3e518ff5	0.20465071
14	0xbf167520	-0.5877247
15	0xbd8911b2	-0.06692828
16	0x3e80c4e4	0.25150216
17	0x3e39a482	0.18129161
18	0xbee90397	-0.4551055
19	0x3c386f9e	0.01125708
20	0x3e493efd	0.19652934
21	0xbedd8874	-0.43268168
22	0x3c6ac9f0	0.014330372
23	0x3ecea0dc	0.403571
24	0xbe7f1ff3	-0.24914531
25	0x3dffea75	0.12495891
26	0xbec7ffdd	-0.39062396
27	0x3da5fd2d	0.0810493
28	0xbdcbafe1	-0.099456556
29	0xbee896b6	-0.45427483
30	0x3d2daf46	0.042403482
31	0x3e87ed37	0.26548168
32	0x3da5d5bd	0.08097408
33	0xbe872164	-0.26392663
34	0x3e82cc30	0.25546408
35	0xbf172d4c	-0.5905349
36	0x3db83be8	0.08995801
37	0xbdea5380	-0.114417076
38	0xbe6bd643	-0.23030953
39	0xbca0d1ef	-0.019631354
40	0x3e8abc37	0.27096722
41	0xbdffb830	-0.12486303
42	0xbe6390a7	-0.22223149
43	0x3e74c7d9	0.23904361
44	0xbe9264b8	-0.28592467
45	0xbe22fa36	-0.1591576
46	0x3eab4a8d	0.33455315
47	0xbc4c9966	-0.012487745
48	0xbd855159	-0.065096565
49	0xbda25817	-0.07926958
50	0x3eb47f24	0.3525325
51	0xbd6deefb	-0.058089238
52	0xbe85e502	-0.26151282
53	0xbe875b01	-0.26436618
54	0x3df00141	0.11718989
55	0x3db4a880	0.08821201
56	0xbc4521c1	-0.012031973
57	0x3e8be939	0.27326372
58	0x3e5f6477	0.21815668
59	0xbd99babc	-0.0750632
60	0xbe824a36	-0.25447243
61	0x3d743388	0.059619457
62	0x3e100f7c	0.14068407
63	0xbd8208b7	-0.063493185
64	0xbe42c4eb	-0.1902043
65	0x3af0eeb3	0.0018381685
66	0x3f021b81	0.5082322
67	0x3cc58911	0.02411321
68	0x3e788dd7	0.24272858
69	0xbd44cb6f	-0.048045572
70	0x3dab1bed	0.08354936
71	0x3d554b73	0.052073907
72	0xbe210794	-0.15725547
73	0xbdf29b2f	-0.11846005
74	0xbe68b777	-0.22726236
75	0x3f060d2e	0.5236386
76	0x3e5bda2a	0.21469942
77	0xbe445559	-0.19173183
78	0x3d6b458e	0.05743938
79	0xbd895fbc	-0.06707713
80	0xbec1afde	-0.3782949
81	0xbdf2f926	-0.118639275
82	0x3f049551	0.5179034
83	0xbe2d1524	-0.16902596
84	0x3af66276	0.0018797654
85	0xbe67998b	-0.22617166
86	0xbdf333db	-0.11875125
87	0x3ee9b3db	0.4564503
88	0x3d056ea2	0.03257621
89	0x3e2c2d90	0.16814256
90	0x3e5ae74a	0.21377292
91	0xbebe04a0	-0.37112904
92	0x3ebea10c	0.37232244
93	0x3ef112c9	0.47084644
94	0xbf01de3f	-0.50729746
95	0x3f148b9d	0.5802553
96	0xbe9081b3	-0.28223953
97	0x3e9e8a82	0.30965048
98	0x3e1935bb	0.14961903
99	0x3d78d2b1	0.060747806
100	0x3c24f0e1	0.010067196
101	0xbe02132e	-0.12702629
102	0x3eea4c11	0.4576116
103	0x3e28cf49	0.16485323
104	0xbe14f092	-0.14544895
105	0xbddc73ad	-0.10764251
106	0xbeb5586c	-0.35419023
107	0x3e71bdd0	0.23607564
108	0x3e1c143e	0.15242097
109	0x3e6a72a9	0.22895302
110	0x3d92a54f	0.07160436
111	0xbb1bfbc8	-0.0023801196
112	0xbe500840	-0.20315647
113	0x3e556936	0.20840916
114	0xbe0c5c59	-0.13707103
115	0xbd2015ff	-0.039083477
116	0xbde63b1c	-0.11241743
117	0xbd3feb6f	-0.046855386
118	0x3e3163fb	0.17323296
119	0x3e14dfce	0.145385
120	0x3e230334	0.1591919
121	0xbe4d90af	-0.20074724
122	0xbdda6a17	-0.10664766
123	0x3d050f35	0.032485206
124	0x3e66d39e	0.22541663
125	0x3e7ae742	0.2450228
126	0xbd31de4a	-0.043424882
127	0xbeb64050	-0.35595942
128	0xbf19f9ee	-0.6014699
129	0xbee4c789	-0.44683483
130	0x3cbf734d	0.02337041
131	0x3ecd6b0f	0.40120742
132	0x3f0d2d2b	0.55147046
133	0xbd55e4f8	-0.052220315
134	0xbe96eb87	-0.29476568
135	0x3e807a71	0.25093415
136	0x3edbacd3	0.42905292
137	0xbed0625d	-0.40700045
138	0xbf3001be	-0.6875266
139	0x3ee1e119	0.44117048
140	0x3ef8b56d	0.48575917
141	0xbea0a41d	-0.31375208
142	0xbde85fb7	-0.11346381
143	0xbe88d82a	-0.2672742
144	0x3e20500b	0.15655534
145	0x3c1c1b1d	0.009527949
146	0xbc850653	-0.016238367
147	0x3db1f78e	0.086897954
148	0xbe46aa82	-0.19400981
149	0x3f395be2	0.7240583
150	0xbe943177	-0.2894399
151	0x3de157ba	0.11003061
152	0xbeaa6b7e	-0.33285135
153	0x3efff647	0.49992582
154	0xbf25bfd4	-0.6474583
155	0x3e9dc4e6	0.30814284
156	0x3e05126d	0.1299531
157	0x3ec26ed4	0.3797518
158	0xbee97278	-0.45595145
159	0x3f58124f	0.84402937
160	0x3e8e2edf	0.27770135
161	0xbe80030a	-0.2500232
162	0xbce30a85	-0.027714977
163	0xbed0495f	-0.40680978
164	0xbc23a381	-0.009987713
165	0x3dbd1591	0.09232629
166	0xbf062bc4	-0.5241053
167	0x3f00cfaa	0.5031687
168	0x3dd4ae9a	0.10384865
169	0xbd4ef442	-0.05052591
170	0xbe17d84c	-0.14828604
171	0x3e311fb3	0.17297249
172	0x3f583580	0.84456635
173	0xbd611798	-0.05495414
174	0xbe4b59dc	-0.19858497
175	0x3e8a481c	0.2700814
176	0x3e3bd676	0.18343529
177	0x3ea157e5	0.3151237
178	0xbed577d7	-0.41692993
179	0x3e22290a	0.15835968
180	0xbd8a0265	-0.06738738
181	0x3ed595e5	0.41715923
182	0xbefdb859	-0.4955471
183	0xbe3696eb	-0.17831008
184	0xbed4db48	-0.41573548
185	0x3ecd17a7	0.40057108
186	0x3e96293f	0.29328343
187	0x3e4da3b2	0.20081976
188	0x3ecf30de	0.4046697
189	0x3ee20182	0.44141775
190	0xbd6e4dac	-0.058179542
191	0xbe9fb256	-0.31190747
192	0xbe18573b	-0.14877026
193	0x3d5cc1ed	0.05389588
194	0xbe77fee1	-0.24218322
195	0xbc56b5d5	-0.013104876
196	0x3f006913	0.5016033
197	0x3e2b5702	0.1673241
198	0xbdad1f9b	-0.08453294
199	0x3f6db794	0.92858243
200	0x3d793c18	0.060848325
201	0x3d566122	0.052338727
202	0x3eb48080	0.35254288
203	0xbe3f1909	-0.18661894
204	0x3f30e18e	0.6909417
205	0x3ee48232	0.4463058
206	0xbf0733cd	-0.52813417
207	0x3f3a6703	0.72813433
208	0xbc23210c	-0.009956609
209	0x3de55373	0.11197557
210	0xbeed1a32	-0.46309048
211	0x3f0a8e82	0.541237
212	0xbb9bf57a	-0.0047594877
213	0x3e00ac9e	0.12565848
214	0x3c88f6c1	0.016719224
215	0xbe833864	-0.2562896
216	0xbdaf5d2c	-0.08562693
217	0xbddeb7fc	-0.10874936
218	0x3e8096bd	0.25115004
219	0x3efc0bea	0.4922784
220	0xbe65b2a6	-0.2243143
221	0xbbbb54bf	-0.0057168896
222	0x3ea0609f	0.31323716
223	0xbd23a20e	-0.03994947
224	0xbe8d5b71	-0.27608827
225	0x3e0a85d3	0.13527612
226	0x3ebfe52b	0.3747953
227	0xbdc5cdb6	-0.09658377
228	0x3cbd8133	0.023132896
229	0x3f273138	0.65309477
230	0xbeb3a57b	-0.3508719
231	0x3f1a8132	0.60353386
232	0x3c2c2bad	0.01050846
233	0xbf16c859	-0.58899456
234	0xbc0ed60e	-0.008718027
235	0xbe79c69a	-0.24392167
236	0xbe6c0164	-0.23047405
237	0x3e6b90f8	0.2300452
238	0xbe5ea57d	-0.21742816
239	0x3e15515e	0.1458182
240	0x3ea15f9a	0.3151825
241	0x3eeec644	0.4663564
242	0xbec0077a	-0.37505704
243	0xbd91513c	-0.07095572
244	0x3f6d7ca5	0.9276832
245	0x3e9c5a51	0.30537656
246	0xbee4d99e	-0.4469728
247	0x3f2b90f3	0.6701805
248	0xbea5177f	-0.3224449
249	0x3e20972e	0.1568267
250	0xbf2e7608	-0.6814885
251	0x3d0baea6	0.034102105
252	0x3f431516	0.7620405
253	0xbdaeaf91	-0.085295804
254	0xbe6dc5ac	-0.23219937
255	0x3f286cae	0.6579083

static_variable_selection.single_variable_grns.Manufacturing.gate_norm.glu.fc.bias f4 [32]
0	0xbcd754cb	-0.02628555
1	0xbdcf942c	-0.101356834
2	0xbcc76ce0	-0.024343908
3	0x3e2186bb	0.15774052
4	0x3e068538	0.13136756
5	0x3e0cb227	0.13739835
6	0xbbce7ab8	-0.0063012503
7	0x3d841f00	0.06451225
8	0x3c8d592b	0.017254433
9	0xbdb39887	-0.08769327
10	0xbe47a932	-0.19498137
11	0xbe987f7f	-0.29784772
12	0x3e08e8c1	0.13370039
13	0xbdd5f54b	-0.104471765
14	0x3cbbe399	0.022935675
15	0x3c09d0c6	0.008411592
16	0xbf16237b	-0.5864789
17	0xbe0ae943	-0.13565545
18	0xbe14dc50	-0.14537168
19	0xbed52e10	-0.41636705
20	0xbeae251a	-0.3401268
21	0xbe6f4066	-0.2336441
22	0xbe836db7	-0.25669643
23	0xbeb7625d	-0.35817233
24	0xbf3a3a3a	-0.72745097
25	0xbeab3258	-0.33436847
26	0xbe3c3dc1	-0.18382932
27	0x3e78b803	0.24288945
28	0xbecd5424	-0.40103257
29	0xbdd16d54	-0.10225931
30	0xbf539fa9	-0.826655
31	0xbf0a314f	-0.5398149

static_variable_selection.single_variable_grns.Manufacturing.gate_norm.add_norm.norm.weight f4 [16]
0	0x3f7354bc	0.9505117
1	0x3ea1b149	0.3158057
2	0x3f82a1e5	1.0205656
3	0x3f9710e4	1.180203
4	0x3f9372da	1.1519425
5	0x3f91ffa1	1.1406137
6	0x3fa4654e	1.2843416
7	0x3f670183	0.9023668
8	0x3f530e6d	0.82443887
9	0x3f9d37a2	1.2282603
10	0x3f8a6649	1.0812465
11	0x3faa1d4f	1.3290194
12	0x3f090975	0.53530055
13	0x3f7ce6c9	0.9878965
14	0x3ee78059	0.4521511
15	0x3f5b2b43	0.8561289

static_variable_selection.single_variable_grns.Manufacturing.gate_norm.add_norm.norm.bias f4 [16]
0	0xbcd2962c	-0.025706373
1	0xbd4096cc	-0.04701881
2	0x3cf8493b	0.030308357
3	0x3e2e576b	0.17025535
4	0x3e62b91f	0.2214093
5	0x3e4fca40	0.20291996
6	0x3d050332	0.03247375
7	0x3daaade0	0.08333945
8	0x3c0007ac	0.007814329
9	0xbe133600	-0.14376068
10	0xbe64fbb3	-0.2236164
11	0xbebdb082	-0.37048727
12	0x3e4d8eb8	0.20073974
13	0xbde915cd	-0.11381111
14	0xbcfdf0ad	-0.030998552
15	0x3c9611c5	0.01831902

static_variable_selection.prescalers.Manufacturing.weight f4 [8, 1]
0	0x3d125001	0.03572083
1	0xbf1fa7fb	-0.6236569
2	0x3ed6cf55	0.41955057
3	0x3f0ca8a8	0.5494485
4	0xbf477969	-0.7791963
5	0xbd14ff91	-0.03637654
6	0xbf3be4a7	-0.7339577
7	0x3e1fb263	0.15595393

static_variable_selection.prescalers.Manufacturing.bias f4 [8]
0	0xbe9c5a4e	-0.30537647
1	0x3eedf787	0.4647791
2	0x3f3c0d21	0.73457533
3	0x3e5f10e0	0.21783781
4	0xbede8db2	-0.4346748
5	0xbf17e998	-0.5934081
6	0xbe32584a	-0.17416492
7	0xbe24ea17	-0.16104923

encoder_variable_selection.flattened_grn.resample_norm.mask f4 [3]
0	0xbea51c25	-0.32248035
1	0xbe43d046	-0.19122419
2	0x3ed90e54	0.42393744

encoder_variable_selection.flattened_grn.resample_norm.norm.weight f4 [3]
0	0x3f4fd30d	0.8118141
1	0x3f8afecc	1.0859008
2	0x3fe21177	1.766158

encoder_variable_selection.flattened_grn.resample_norm.norm.bias f4 [3]
0	0x3e95ae71	0.2923465
1	0xbd563603	-0.052297603
2	0xbec24462	-0.37942797

encoder_variable_selection.flattened_grn.fc1.weight f4 [3, 24]
0	0x3ea59751	0.32342008
1	0xbd4bbcf3	-0.049740743
2	0x3da972d5	0.082738556
3	0x3e1824db	0.14857809
4	0xbd26cf47	-0.04072502
5	0x3df38d01	0.11892129
6	0xbe674107	-0.225834
7	0xbe856a16	-0.260575
8	0xbee744c1	-0.45169643
9	0x3dc53a2d	0.09630237
10	0x3d6e8be8	0.058238894
11	0xbf9360ba	-1.1513894
12	0xbd871725	-0.06596211
13	0x3c4a6be6	0.012354827
14	0x3d3200f4	0.04345794
15	0x3cfac630	0.030612081
16	0x3f0f5ecc	0.56004024
17	0xbf484b89	-0.7824026
18	0x3e80df3b	0.2517031
19	0x3d637004	0.05552675
20	0x3e29285a	0.16519299
21	0xbead0f74	-0.33800852
22	0x3d910179	0.07080359
23	0x3ea47424	0.32119858
24	0x3e1b4671	0.1516359
25	0x3e1e26df	0.15444516
26	0xbe68ab47	-0.22721587
27	0xbe856fd3	-0.26061878
28	0x3e7934c2	0.24336532
29	0xbdae7261	-0.0851791
30	0x3e8c9b11	0.27462056
31	0x3f361b50	0.71135426
32	0xbe49fe3a	-0.19725886
33	0x3ca2bea6	0.019866299
34	0xbf53dddb	-0.827604
35	0xbe8d38dd	-0.27582446
36	0x3e13fcd2	0.14451912
37	0x3e79c5b5	0.24391825
38	0x3e9b2463	0.30301198
39	0x3ef50b0d	0.47859994
40	0xbe77a2d4	-0.24183208
41	0x3e7968d6	0.24356398
42	0xbe5e2e31	-0.21697308
43	0xbeacedaa	-0.33775073
44	0xbe88c50c	-0.26712835
45	0xbe7ebbd0	-0.24876332
46	0x3e857a60	0.26069927
47	0xbeb6a7e6	-0.3567497
48	0x3e0eecba	0.13957492
49	0xbea182c3	-0.31545076
50	0xbe90877d	-0.2822837
51	0x3e036c59	0.128343
52	0x3e51a6cf	0.20473789
53	0x3f153be1	0.5829449
54	0xbe5abc7d	-0.21360965
55	0x3e5f4a4b	0.21805684
56	0xbf12d8c1	-0.5736199
57	0x3e8a1a45	0.26973167
58	0x3dc39b11	0.09551061
59	0x3ddab88d	0.106797315
60	0xbe005f2c	-0.12536305
61	0x3d92d12d	0.07168803
62	0x3ed87548	0.42276978
63	0x3ea1e102	0.3161698
64	0x3d4978a8	0.049187332
65	0x3edd6f22	0.4324885
66	0x3d74bedc	0.05975233
67	0xbe6639f2	-0.22483042
68	0xbe97b0ce	-0.2962708
69	0xbed9f3df	-0.4256887
70	0xbeb7abae	-0.3587317
71	0x3bf23c90	0.0073924735

encoder_variable_selection.flattened_grn.fc1.bias f4 [3]
0	0xbdfc2c77	-0.123131685
1	0xbc07069d	-0.008241323
2	0xbe913bd8	-0.2836597

encoder_variable_selection.flattened_grn.context.weight f4 [3, 16]
0	0xbe62af33	-0.22137146
1	0xbddda4b5	-0.10822431
2	0xbdbe09d4	-0.09279218
3	0xbe1bad63	-0.1520286
4	0x3dee1ab8	0.1162619
5	0xbe569638	-0.20955741
6	0x3d019b57	0.031642284
7	0xba9e4998	-0.0012076376
8	0xbd90ffce	-0.07080041
9	0x3e41a089	0.18908896
10	0xb984ccbd	-0.00025329544
11	0xbb4046b8	-0.0029339027
12	0x3ea3c06f	0.31982753
13	0x3d86b5e7	0.06577664
14	0xbe4fa275	-0.20276816
15	0xbe8ef6f3	-0.27922782
16	0x3edf7d7e	0.4365043
17	0xbd4f5fe2	-0.05062855
18	0x3f2e3828	0.6805444
19	0xbec84b45	-0.39119926
20	0xbeb798a9	-0.35858658
21	0x3f089d0e	0.53364646
22	0x3ca6d75a	0.02036636
23	0xbe9ef5ea	-0.31046993
24	0x3e40ea89	0.18839468
25	0xbd8b6c4b	-0.068077646
26	0xbe9ad41c	-0.30239952
27	0x3d6ae9f0	0.057352006
28	0x3e41a63c	0.1891107
29	0xbd393543	-0.04521681
30	0xbe354bce	-0.17704698
31	0xbda6de4d	-0.08147869
32	0x3da19436	0.07889597
33	0xbe31995b	-0.17343657
34	0x3f2d24e1	0.676344
35	0xbeb175f4	-0.34660304
36	0xbea7f269	-0.32802132
37	0x3f1b2968	0.60610056
38	0x3d56a457	0.05240282
39	0x3d8d7911	0.06907857
40	0xbedfaa18	-0.4368446
41	0x3edabd2c	0.42722452
42	0xbe0cd73e	-0.13753983
43	0xbd21c1f1	-0.039491598
44	0x3e4898bc	0.19589514
45	0xbdd6df58	-0.10491818
46	0xbe7f33c7	-0.24922095
47	0x3e8215a2	0.2540713

encoder_variable_selection.flattened_grn.fc2.weight f4 [3, 3]
0	0xbf26e2c6	-0.6518978
1	0xbfa9f64b	-1.3278288
2	0xbeb34d25	-0.35019794
3	0xbe6f69b8	-0.23380172
4	0xbf72ba36	-0.94815385
5	0xbe3b23e2	-0.18275407
6	0xbea1127e	-0.3145942
7	0xbf2d805c	-0.67773986
8	0xbf0ce462	-0.55035985

encoder_variable_selection.flattened_grn.fc2.bias f4 [3]
0	0x3e6dd127	0.23224317
1	0xbda6cc63	-0.081444524
2	0xbea5977e	-0.32342142

encoder_variable_selection.flattened_grn.gate_norm.glu.fc.weight f4 [6, 3]
0	0x3e95b67d	0.2924079
1	0xbe839e31	-0.25706628
2	0x3ed565e2	0.41679293
3	0xbc68a4d2	-0.0141994525
4	0xbebc12f9	-0.36733225
5	0x3f2238e4	0.6336806
6	0xbe00301b	-0.12518351
7	0xbe88e242	-0.2673512
8	0x3db36b2e	0.08760677
9	0xbf0a6219	-0.54055935
10	0xbf276cc1	-0.6540032
11	0x3eec1b0e	0.4611439
12	0x3f5d208e	0.863778
13	0xbdf485fc	-0.11939618
14	0xbed690ec	-0.41907442
15	0x3f1b69a2	0.6070806
16	0x3ea62995	0.324536
17	0x3e9391e4	0.28822243

encoder_variable_selection.flattened_grn.gate_norm.glu.fc.bias f4 [6]
0	0x3e23f98f	0.16013168
1	0xbcff5245	-0.031167159
2	0xbeb2c063	-0.34912404
3	0xbec9ee4e	-0.39439625
4	0x3de7795a	0.11302443
5	0x3e140ec0	0.14458752

encoder_variable_selection.flattened_grn.gate_norm.add_norm.norm.weight f4 [3]
0	0x3ce6e5cb	0.028185746
1	0x3ec8a4b6	0.39188164
2	0x3e4ef5f1	0.20211007

encoder_variable_selection.flattened_grn.gate_norm.add_norm.norm.bias f4 [3]
0	0x3e3bed3a	0.18352214
1	0xbefbe4d1	-0.4919801
2	0x3f0da17f	0.5532455

encoder_variable_selection.single_variable_grns.SinWeekly.resample_norm.mask f4 [16]
0	0xbe8ffe18	-0.28123546
1	0x3da9a13a	0.08282705
2	0xbe014778	-0.1262492
3	0xbe950d51	-0.29111722
4	0xbdf56a55	-0.11983172
5	0xbdc1060e	-0.09424983
6	0x3e7a8542	0.24464896
7	0xbf611bf4	-0.8793328
8	0xbf42704a	-0.7595259
9	0xbcc830c3	-0.024437314
10	0xbe7f0cb3	-0.24907188
11	0xbc1c2dff	-0.009532451
12	0x3c6c93a0	0.014439493
13	0x3e4a3241	0.19745733
14	0x3e830ddc	0.2559651
15	0x3e9ab0ca	0.30213004

encoder_variable_selection.single_variable_grns.SinWeekly.resample_norm.norm.weight f4 [16]
0	0x3f21c335	0.6318849
1	0x3f4b47df	0.7940654
2	0x3f9c953d	1.2233044
3	0x3f610bda	0.8790871
4	0x3f62f213	0.88650626
5	0x3f7ba47d	0.98297864
6	0x3fbc5e59	1.4716293
7	0x3ea32081	0.31860736
8	0x3e1dc765	0.15408094
9	0x3f6f40f4	0.93458486
10	0x3f74f02e	0.95678985
11	0x3f9570ac	1.167501
12	0x3f36663d	0.71249753
13	0x3f9f0feb	1.2426733
14	0x3fad3eaa	1.3534749
15	0x3f9dfd7c	1.2342982

encoder_variable_selection.single_variable_grns.SinWeekly.resample_norm.norm.bias f4 [16]
0	0x3da390eb	0.07986625
1	0x3d52d623	0.051473748
2	0xbe9105c6	-0.28324717
3	0x3ccbaee8	0.024863675
4	0x3d1667fa	0.036720254
5	0xbdd60421	-0.10450006
6	0xbe795c15	-0.24351533
7	0xbe74d12f	-0.23907922
8	0xbdff8bfa	-0.1247787
9	0x3bfc00a3	0.0076905056
10	0x3d1c9481	0.03822756
11	0x3e4d51f2	0.20050791
12	0x3e24c14e	0.16089365
13	0x3ba24f77	0.0049533206
14	0x3dbd498e	0.09242545
15	0x3d8b5bba	0.06804605

encoder_variable_selection.single_variable_grns.SinWeekly.fc1.weight f4 [8, 8]
0	0x3f88aed6	1.0678356
1	0xbfbcd320	-1.475193
2	0xbf473902	-0.7782136
3	0xbfe9a776	-1.825423
4	0xbea0230a	-0.31276733
5	0xbd913527	-0.07090216
6	0x3ea8c5d5	0.32963434
7	0x3ef5b547	0.47989866
8	0xbe8d1d10	-0.27561235
9	0x3ed8a329	0.4231198
10	0xbf551f67	-0.8325104
11	0xbdffab36	-0.12483828
12	0xbf509d6c	-0.81490207
13	0x3f86cf78	1.0532064
14	0xbf7f8b9a	-0.9982239
15	0xbf9c27e6	-1.2199676
16	0xbeb5074f	-0.3535714
17	0x3ddccdf8	0.10781473
18	0xbf0700ce	-0.527356
19	0x3ebb583e	0.3659076
20	0xbf6d330b	-0.9265601
21	0x3efb5802	0.49090582
22	0x3f5958da	0.849012
23	0x3e326a50	0.17423368
24	0x3e85d83e	0.26141542
25	0x3db83677	0.08994763
26	0xbedac715	-0.42730013
27	0x3e00ac27	0.12565671
28	0x3e8f382d	0.27972546
29	0x3e5181be	0.20459649
30	0x3e826f04	0.25475323
31	0x3f0302fb	0.5117642
32	0xbf4f4fba	-0.8098103
33	0x3d8d4de1	0.0689962
34	0x3f753f23	0.95799464
35	0x3dd47300	0.10373497
36	0xbd19b202	-0.037523277
37	0x3f5efe3f	0.871067
38	0x3ec9c803	0.3941041
39	0xbf944e7a	-1.1586449
40	0x3f24d921	0.6439381
41	0xbe942e76	-0.28941697
42	0xbf4a7832	-0.79089653
43	0x3cd48209	0.025940912
44	0x3dde6364	0.10858801
45	0xbe89554c	-0.2682289
46	0xbe896270	-0.26832914
47	0x3dd58d8b	0.10427388
48	0xbf64f50d	-0.8943642
49	0xbe1ce130	-0.15320277
50	0xbfc16596	-1.5109127
51	0x3ef09193	0.46986064
52	0xbf0f240e	-0.5591439
53	0x3e44ffe6	0.19238243
54	0xbf55c1ec	-0.83499026
55	0xbf1ae67c	-0.6050794
56	0x3eba02a2	0.36330134
57	0xbc38b866	-0.011274433
58	0xbf30f2fb	-0.6912076
59	0x3e4d2ae7	0.20035897
60	0x3f56f71f	0.83970827
61	0x3f00e578	0.5035014
62	0xbde47f06	-0.1115704
63	0x3ebb6e32	0.3660751

encoder_variable_selection.single_variable_grns.SinWeekly.fc1.bias f4 [8]
0	0xbe660339	-0.22462167
1	0xbdb7def0	-0.08978069
2	0xbbfbc840	-0.007683784
3	0xbe2e576e	-0.1702554
4	0xbdec7803	-0.11546328
5	0xbdc4a87a	-0.09602447
6	0xbe532223	-0.20618491
7	0xbd60fa42	-0.054926164

encoder_variable_selection.single_variable_grns.SinWeekly.fc2.weight f4 [8, 8]
0	0xbf842c6e	-1.0326059
1	0x3e07ed28	0.13274062
2	0xbfa99f2d	-1.3251702
3	0xbee6b2d9	-0.45058325
4	0xbecd8f77	-0.40148517
5	0xbd562618	-0.052282423
6	0x3eb33a60	0.35005474
7	0xbe8321c6	-0.25611705
8	0xbdea85c9	-0.11451299
9	0xbe62eb52	-0.2216008
10	0x3e99b61a	0.30021745
11	0x3da012be	0.07816075
12	0xbd99efae	-0.075164184
13	0x3ec85eb9	0.39134768
14	0x3f25cb8a	0.647637
15	0x3e8344bd	0.2563838
16	0x3f2648f7	0.64955086
17	0xbf1834d0	-0.59455585
18	0xbcc25131	-0.023720356
19	0xbeede851	-0.46466306
20	0x3eb7ac78	0.3587377
21	0xbe7915a7	-0.24324666
22	0x3ebd8237	0.3701341
23	0x3eb1ae73	0.34703407
24	0x3eff6e60	0.49888897
25	0x3f870089	1.0547038
26	0x3eb340df	0.3501043
27	0x3e0b42af	0.13599657
28	0x3d0a1421	0.033710603
29	0xbf21dccc	-0.63227534
30	0x3e7d1884	0.24716383
31	0xbe4a6540	-0.19765186
32	0xbf04a1d1	-0.5180941
33	0x3f9a6b5f	1.2064017
34	0xbf33fea3	-0.7031042
35	0xbe9081cb	-0.28224024
36	0x3d9bc047	0.07605033
37	0x3ea36353	0.31911716
38	0x3b89b717	0.004202734
39	0xbe0213ae	-0.1270282
40	0x3f17162a	0.59018195
41	0xbe791b2b	-0.2432677
42	0xbec4d341	-0.38442424
43	0xbe703a8d	-0.23459835
44	0xbf2ef250	-0.6833849
45	0x3ec658cd	0.38739625
46	0xbdde67cc	-0.108596414
47	0xbded9a70	-0.11601722
48	0xbf23f8df	-0.6405162
49	0xbed2e315	-0.41188875
50	0x39bfedbb	0.00036607482
51	0x3d410210	0.047121108
52	0x3f02c38d	0.51079637
53	0xbed0cf57	-0.40783188
54	0xbe9a90ad	-0.30188504
55	0xbe2b5f02	-0.16735461
56	0x3f76c576	0.9639505
57	0x3e99e033	0.30053863
58	0x3e848e20	0.25889683
59	0x3ebf58db	0.3737248
60	0x3eda92f2	0.42690235
61	0xbe0d3564	-0.13789898
62	0x3f65745b	0.8963067
63	0xbe20d7fe	-0.15707394

encoder_variable_selection.single_variable_grns.SinWeekly.fc2.bias f4 [8]
0	0x3d8f9bfb	0.07012173
1	0xbd9e65bc	-0.07734248
2	0xbd9f88e3	-0.07789781
3	0x3e190900	0.1494484
4	0xbe1a6672	-0.15078142
5	0xbdde3b50	-0.10851157
6	0xbe1a8864	-0.15091091
7	0xbd1992d8	-0.037493557

encoder_variable_selection.single_variable_grns.SinWeekly.gate_norm.glu.fc.weight f4 [32, 8]
0	0x3e97f32a	0.29677707
1	0x3d658609	0.05603603
2	0x3b53ffe4	0.0032348568
3	0xbe0e14e0	-0.1387515
4	0x3cc1d9f2	0.023663495
5	0xbec78ca3	-0.38974485
6	0xbe236b48	-0.15958893
7	0x3e898756	0.26861066
8	0x3df494e9	0.11942465
9	0x3e316dee	0.17327091
10	0xbee1011a	-0.43946153
11	0xbecfbd16	-0.4057395
12	0x3e53f0d3	0.20697336
13	0xbe719927	-0.23593579
14	0x3f34a099	0.7055755
15	0xbf1134ad	-0.56721
16	0x3e902936	0.2815644
17	0x3e6d5f6a	0.23180929
18	0xbca84790	-0.020541936
19	0x3f2ef6e6	0.6834549
20	0x3f2546a1	0.64560896
21	0xbe2c5bb6	-0.1683186
22	0xbf36c2a5	-0.71390754
23	0x3f2b20f0	0.66847134
24	0x3b133368	0.002246106
25	0xbdb3d4ff	-0.0878086
26	0xbe02c5d4	-0.12770778
27	0xbe1688f3	-0.1470068
28	0x3e5e711a	0.21722832
29	0x3e49c3e4	0.19703633
30	0xbe4586a8	-0.19289649
31	0x3ef50b8a	0.47860366
32	0x3e7757d0	0.24154592
33	0xbcbd1328	-0.023080423
34	0x3dff8b2d	0.124777175
35	0x3eee586b	0.46551833
36	0x3df5f6b5	0.12009946
37	0xbeaf3096	-0.34216756
38	0x3e30d413	0.172684
39	0x3ce030fd	0.02736711
40	0x3b009d48	0.0019624997
41	0xbe81ea34	-0.25373995
42	0x3e128082	0.14306834
43	0xbe047695	-0.1293586
44	0xbea81271	-0.3282657
45	0xbd1aa961	-0.03775919
46	0x3c187dc2	0.009307327
47	0x3d28928d	0.041155387
48	0x3ef6f164	0.4823104
49	0x3eb7d1e3	0.35902318
50	0xbf420ef4	-0.75804067
51	0xbea9e18d	-0.33179894
52	0x3e8a723b	0.27040276
53	0xbf3f46ab	-0.74717206
54	0x3ede02ac	0.43361413
55	0xbf14578b	-0.5794608
56	0xbf181640	-0.5940895
57	0xbd221b83	-0.03957702
58	0x3e7f875c	0.24953979
59	0xbe348e0b	-0.1763231
60	0xbc91cfe4	-0.017799325
61	0x3e0dfd6a	0.13866201
62	0xbe117d82	-0.14208034
63	0x3e688a7c	0.22709078
64	0x3ecbc787	0.39800665
65	0x3f0e38ec	0.55555606
66	0xbe73a04a	-0.23791614
67	0x3f10a443	0.56500643
68	0x3ef02108	0.469002
69	0xbf00e4e7	-0.5034928
70	0xbe0ca5b7	-0.1373509
71	0x3ee5a23f	0.44850346
72	0x3cf0eb52	0.029409084
73	0xbea124e2	-0.31473452
74	0xbd273386	-0.04082062
75	0x3d73c268	0.059511572
76	0x3cdeca3a	0.027196039
77	0xbe33b68a	-0.17550102
78	0xbd3649ee	-0.0445041
79	0x3e01fce1	0.12694122
80	0x3e44217c	0.19153398
81	0x3d312166	0.04324474
82	0x3c149ce4	0.009070609
83	0x3d83581f	0.06413292
84	0x3def837b	0.11695
85	0x3dd70dcf	0.10500681
86	0xbe1188bc	-0.14212316
87	0x3ecba515	0.39774385
88	0x3e4cb252	0.19989899
89	0x3ee7a0b4	0.45239794
90	0xbecbd37c	-0.39809787
91	0x3f0cc3f9	0.5498653
92	0x3e857fc4	0.2607404
93	0xbf0ca482	-0.5493852
94	0xbf17d279	-0.5930553
95	0x3f2ec961	0.6827603
96	0x3f049cb9	0.5180164
97	0x3ebe73db	0.37197766
98	0xbe4287d8	-0.18997133
99	0xbe39588b	-0.18100183
100	0x3e9a7f18	0.3017509
101	0xbf007456	-0.50177515
102	0x3f202197	0.62551254
103	0xbf49e962	-0.7887174
104	0x3d9da5e3	0.07697656
105	0xbecfff66	-0.4062454
106	0x3ed050f9	0.40686777
107	0xbec6d162	-0.3883162
108	0xbd979a53	-0.07402482
109	0x3dbeee90	0.09322846
110	0x3ea82c22	0.3284617
111	0xbef15109	-0.47132137
112	0xbe6ede3c	-0.23326963
113	0xbe87d268	-0.26527715
114	0x3ea56dc4	0.32310307
115	0xbdf06bc9	-0.117393084
116	0xbe6ebceb	-0.23314254
117	0x3e89b4ab	0.2689565
118	0xbd636dc6	-0.05552461
119	0x3d9f9717	0.0779249
120	0x3e2a5d11	0.16637065
121	0xbef66a1e	-0.48127836
122	0xbebc9011	-0.36828664
123	0xbe734e6f	-0.23760389
124	0xbea22bce	-0.31674045
125	0xbe308d1c	-0.17241329
126	0x3f1a7485	0.60334045
127	0xbe3f5fc3	-0.18688874
128	0x3e9e8cc6	0.30966777
129	0x3e2d60e7	0.16931497
130	0x3e2d5a51	0.16928984
131	0x3f06a8d9	0.5260139
132	0x3ec7a6db	0.38994488
133	0xbe9b66e5	-0.3035194
134	0x3d7972fd	0.060900677
135	0xbe77be2d	-0.2419364
136	0xbdfcd78c	-0.123458
137	0xbf043f86	-0.5165943
138	0x3d6dc9a6	0.058053635
139	0xbe0f264b	-0.13979451
140	0xbe9958eb	-0.29950652
141	0x3ea20eef	0.31652018
142	0xbd80691d	-0.06270049
143	0xbeaf00b3	-0.3418022
144	0x3ea2f99f	0.3183107
145	0x3bf32af6	0.007420893
146	0xbeae3d01	-0.34030917
147	0x3e0178e0	0.12643766
148	0x3e10a54d	0.14125557
149	0xbe988ff2	-0.29797322
150	0xbde05a26	-0.109546944
151	0x3e187ac2	0.14890578
152	0x3e28b76d	0.16476221
153	0xbe753524	-0.23946053
154	0x3e010e41	0.12603094
155	0xbe801008	-0.2501223
156	0x3e328086	0.1743184
157	0x3eaaf649	0.33391026
158	0xbe95a07b	-0.29224
159	0x3ceea3a9	0.029130774
160	0x3e65a66e	0.22426769
161	0x3e897921	0.26850227
162	0xbe1c385f	-0.15255879
163	0xbc2ec1ac	-0.010666292
164	0x3d522216	0.051302038
165	0xbe4a2a1a	-0.19742623
166	0x3edc0720	0.42974186
167	0xbd6829ec	-0.056680605
168	0x3e4d8091	0.20068575
169	0x3df2b6df	0.11851286
170	0x3de50a5a	0.11183615
171	0x3dbe9006	0.09304814
172	0x3cd52f28	0.026023462
173	0xbe9020c9	-0.28150013
174	0x3f2c748c	0.67365336
175	0xbe4f8fc2	-0.20269683
176	0xbe760505	-0.24025352
177	0xbec51946	-0.38495845
178	0x3ecfcce2	0.40586
179	0xbeca3244	-0.39491475
180	0xbebf35f4	-0.3734585
181	0x3ea54d69	0.32285622
182	0x3e5d0622	0.2158437
183	0x3e400eb0	0.18755603
184	0xbeff844e	-0.49905628
185	0x3ec7eda5	0.39048496
186	0x3e9b70d2	0.30359513
187	0xbd417f49	-0.04724053
188	0x3ddfedc5	0.10934023
189	0x3dab95a7	0.08378153
190	0xbebb57ee	-0.36590523
191	0xbb154093	-0.0022774085
192	0x3e4c2781	0.19936945
193	0x3e2f351e	0.17110106
194	0xbebf5471	-0.3736911
195	0xbc3cd1d7	-0.011524639
196	0x3eb0b155	0.34510294
197	0xbe9b5518	-0.3033836
198	0x3e3404cd	0.17579956
199	0xbda75d00	-0.08172035
200	0x3cd19501	0.025583746
201	0xbdf160d0	-0.11786044
202	0xbdce9a70	-0.1008805
203	0x3e64e48f	0.22352813
204	0x3ec30944	0.38093007
205	0xbe9e2bf7	-0.30892918
206	0xbdf4a627	-0.119457535
207	0xbd85abc2	-0.06526901
208	0x3ea1a723	0.31572828
209	0xbc72ab91	-0.014811412
210	0xbeb4664d	-0.352343
211	0xbe56717d	-0.2094173
212	0x3e8d6eb4	0.27623522
213	0x3d21df8b	0.039519828
214	0xbea41c75	-0.3205296
215	0xbebe6618	-0.37187266
216	0x3f11328a	0.5671774
217	0x3ec7de61	0.3903685
218	0xbe081b4a	-0.1329166
219	0x3f3ac090	0.7295008
220	0x3eca5268	0.39515996
221	0xbe8b3027	-0.27185175
222	0xbea1a25d	-0.31569186
223	0x3ebd23c6	0.36941355
224	0xbeb1b02d	-0.34704724
225	0xbf19e42e	-0.601138
226	0x3ece2095	0.40259233
227	0x3e7a255d	0.24428315
228	0x3beb8cf2	0.007188433
229	0x3ec9f694	0.39445937
230	0xbe346be2	-0.17619279
231	0x3f1f9e15	0.6235059
232	0xbe30a231	-0.17249371
233	0x3e89586b	0.2682527
234	0xbebb1454	-0.36538947
235	0x3eb60aec	0.35555208
236	0x3f164fdc	0.58715606
237	0xbdc38855	-0.09547488
238	0xbf3c0de2	-0.73458683
239	0x3ebe8be0	0.3721609
240	0xbe9a04e4	-0.30081856
241	0xbe86deb3	-0.2634178
242	0xbd0cf209	-0.03441051
243	0xbdf653cb	-0.12027701
244	0xbea31758	-0.31853747
245	0xbe005af2	-0.12534693
246	0xbd86d7bd	-0.065841176
247	0x3e01227b	0.1261081
248	0x3e85fd23	0.2616969
249	0x3e99e96a	0.30060893
250	0xbe9d5a62	-0.3073302
251	0xbd86c159	-0.06579847
252	0xbd4f8eb4	-0.0506732
253	0xbe84db4d	-0.25948563
254	0x3e4ed969	0.20200123
255	0xbf071bae	-0.5277661

encoder_variable_selection.single_variable_grns.SinWeekly.gate_norm.glu.fc.bias f4 [32]
0	0x3e4cefa1	0.20013286
1	0x3dcb6633	0.09931602
2	0xbe51c6b0	-0.2048595
3	0x3c4a98d7	0.012365541
4	0x3dc54a9f	0.096333735
5	0xbe01559f	-0.12630318
6	0xbe783172	-0.24237612
7	0xbe9ad840	-0.3024311
8	0xbcacd38c	-0.021096967
9	0x3d31f976	0.043450795
10	0x3d8c33dd	0.0684583
11	0x3e8c0b2b	0.2735227
12	0x3e138c67	0.14409028
13	0xbdf32b49	-0.1187349
14	0x3da9e3a7	0.08295374
15	0x3d239543	0.03993727
16	0xbe8c6b65	-0.27425686
17	0x3e54b3b1	0.20771672
18	0x3e856af3	0.26058158
19	0xbf252beb	-0.6452014
20	0x3d729399	0.05922279
21	0x3cb8e203	0.022568708
22	0x3e82bff0	0.25537062
23	0x3dcc4ada	0.09975214
24	0x3f1de972	0.61684334
25	0xbf001802	-0.50036633
26	0xbee7c601	-0.45268252
27	0xbe13be29	-0.14428009
28	0xbe468ebb	-0.19390385
29	0xbeb9eeb4	-0.3631493
30	0x3e13093c	0.14358991
31	0x3e0f8761	0.14016487

encoder_variable_selection.single_variable_grns.SinWeekly.gate_norm.add_norm.norm.weight f4 [16]
0	0x3e97d4e3	0.29654607
1	0x3f809f04	1.0048528
2	0x3fe39dfa	1.7782586
3	0x3f319240	0.69363785
4	0x3f3bc55d	0.7334803
5	0x3f675bcf	0.90374464
6	0x3fc8e9cb	1.5696348
7	0x3eee5e61	0.4655638
8	0x3f89cf1e	1.0766332
9	0x3f5b5bef	0.85687155
10	0x3f7905f6	0.9727472
11	0x3fc3476f	1.5256175
12	0x3f7bd64a	0.98373854
13	0x3fa011b3	1.2505401
14	0x3f95bcb0	1.1698208
15	0x3fb4b3bb	1.4117349

encoder_variable_selection.single_variable_grns.SinWeekly.gate_norm.add_norm.norm.bias f4 [16]
0	0xbd0d755d	-0.034535754
1	0x3d952c7a	0.07283874
2	0x3d83e00e	0.064392194
3	0x3e53c673	0.20681171
4	0x3d0971f6	0.033555947
5	0xbd5b5111	-0.053544108
6	0xbe98b7c9	-0.29827717
7	0xbdcdb170	-0.10043609
8	0x3d93a02d	0.072082855
9	0xbd08542b	-0.033283394
10	0xbddf87d1	-0.10914577
11	0x3e1d48f4	0.1535986
12	0x3d9f6eca	0.07784803
13	0x3c9bca0d	0.019017244
14	0x3e041b4b	0.12901036
15	0x3df4c7eb	0.11952194

encoder_variable_selection.single_variable_grns.VaccinationFull.resample_norm.mask f4 [16]
0	0xbebd3ed0	-0.36961985
1	0xbb6e280c	-0.0036339788
2	0x3da7ba88	0.08189875
3	0xbf1c98d9	-0.61170727
4	0x3ee98544	0.45609486
5	0xbd227b28	-0.039668232
6	0xbf22dd79	-0.6361919
7	0x3f130e1a	0.5744339
8	0x3e0000ee	0.12500355
9	0xbeb26e46	-0.34849757
10	0xbe3fe7f1	-0.18740822
11	0x3e8a8f92	0.2706266
12	0x3d811507	0.06302839
13	0x3ef4ddee	0.4782557
14	0xbe3d7674	-0.18502218
15	0xbea0301d	-0.31286708

encoder_variable_selection.single_variable_grns.VaccinationFull.resample_norm.norm.weight f4 [16]
0	0x3f1e751c	0.61897445
1	0x3f7e5b02	0.99357617
2	0x3f99bdb3	1.2011017
3	0x3f23b0e8	0.6394181
4	0x3fd4d560	1.6627617
5	0x3f735c1d	0.9506243
6	0x3e78c768	0.24294817
7	0x3fd49838	1.6608953
8	0x3f9f989d	1.2468449
9	0x3f4249ad	0.7589367
10	0x3f579868	0.8421693
11	0x3fa8d17f	1.3188933
12	0x3f85806f	1.042982
13	0x3fbca434	1.4737611
14	0x3f2af074	0.6677315
15	0x3f2c2916	0.6725019

encoder_variable_selection.single_variable_grns.VaccinationFull.resample_norm.norm.bias f4 [16]
0	0xbdb57f8a	-0.08862217
1	0x3e2163ba	0.15760699
2	0xbcae8d4d	-0.021307612
3	0x3e1ca0f6	0.15295777
4	0xbe6f0b22	-0.2334409
5	0x3b4e5254	0.0031482177
6	0xbe73726f	-0.23774122
7	0x3e426c83	0.18986706
8	0x3e008397	0.12550198
9	0xbd65b161	-0.056077365
10	0xbdec43af	-0.11536347
11	0x3d3be058	0.045868248
12	0x3e17b538	0.14815223
13	0xbe409950	-0.18808484
14	0x3e5177f6	0.20455918
15	0x3da47e1b	0.08031865

encoder_variable_selection.single_variable_grns.VaccinationFull.fc1.weight f4 [8, 8]
0	0x3f0886fb	0.53330964
1	0xbf0b5a9a	-0.5443512
2	0xbf6d106f	-0.926032
3	0xbe142455	-0.14466985
4	0x3f727b74	0.94719625
5	0x3e6e8ff7	0.23297106
6	0xbf0ea430	-0.5571928
7	0x3c4c2089	0.012458929
8	0x3c7aa9d2	0.015299277
9	0xbebc1793	-0.36736736
10	0xbf85244b	-1.0401701
11	0xbf935227	-1.1509446
12	0x3df66ccd	0.12032471
13	0x3e62f526	0.22163829
14	0x3fab5961	1.3386651
15	0x3e8c3b89	0.27389172
16	0xbe161a5a	-0.1465849
17	0xbf201609	-0.6253362
18	0xbebad97a	-0.36494046
19	0xbf0a48cc	-0.5401733
20	0xbeb46848	-0.3523581
21	0x3f63544e	0.88800514
22	0x3f016f08	0.50560045
23	0xbd20028e	-0.039064936
24	0xbdc9a924	-0.09846714
25	0xbf7969d0	-0.9742708
26	0xbedea1a2	-0.4348269
27	0x3ee03199	0.4378784
28	0xbf1b285d	-0.60608464
29	0x3f255b70	0.6459265
30	0x3df3f88e	0.119126424
31	0xbce33ffb	-0.02774047
32	0x3e69d337	0.22834478
33	0x3f0b927c	0.5452039
34	0x3d9eca13	0.07753386
35	0x3ebb9f36	0.36644906
36	0x3d0a943c	0.033832774
37	0x3ecdd28a	0.4019969
38	0x3f1ee02b	0.62060803
39	0x3f4bf3ad	0.79668695
40	0xbe2505b7	-0.16115461
41	0x3f18449f	0.5947971
42	0x3e4f6633	0.2025383
43	0xbe0d820c	-0.1381914
44	0xbecd4d9b	-0.4009827
45	0xbf5d1860	-0.8636532
46	0xbf57cb90	-0.84294987
47	0xbfe0512e	-1.7524774
48	0xbef5f319	-0.4803703
49	0x3ccbcc7a	0.024877775
50	0xbdef24ae	-0.11676918
51	0x3e6e3d36	0.23265538
52	0x3fa0cfaa	1.2563374
53	0xbaff9352	-0.0019498861
54	0x3e71f47d	0.23628421
55	0x3e741ea9	0.23839821
56	0x3eca8a6f	0.3955874
57	0x3def8476	0.11695187
58	0xbf09f759	-0.5389305
59	0xbd8b7bcf	-0.06810724
60	0xbeb92b0a	-0.3616565
61	0xbfa1d910	-1.2644367
62	0xbec858f4	-0.39130366
63	0xbfcf27e0	-1.6184044

encoder_variable_selection.single_variable_grns.VaccinationFull.fc1.bias f4 [8]
0	0x3eb7a21c	0.35865867
1	0x3e15c7b7	0.14626966
2	0x3cfdd76f	0.030986516
3	0x3e2ef265	0.17084654
4	0x3cb51093	0.02210263
5	0xbe84cde8	-0.25938344
6	0x3e2939e0	0.16525984
7	0x3bec27a4	0.007206874

encoder_variable_selection.single_variable_grns.VaccinationFull.fc2.weight f4 [8, 8]
0	0xbf00fa4c	-0.5038192
1	0x3e5448b2	0.20730856
2	0xbdd4f67f	-0.10398578
3	0xbf066a3d	-0.52505857
4	0xbf411e15	-0.75436527
5	0x3e93b750	0.28850794
6	0xbf570143	-0.839863
7	0x3e20a96a	0.15689626
8	0x3f8174a2	1.0113719
9	0xbf35a278	-0.7095103
10	0xbeeb5ad0	-0.45967722
11	0xbd8554dd	-0.06510327
12	0xbef280fd	-0.47364035
13	0xbf273bcb	-0.6532561
14	0x3efd9856	0.49530286
15	0xbe20c692	-0.15700749
16	0xc002c3a9	-2.0431921
17	0x3e3d5a73	0.18491535
18	0x3b95e844	0.0045748074
19	0x3ec4a7fa	0.38409406
20	0xbe3d32e4	-0.18476444
21	0x3eaee8d1	0.34162
22	0xbd9293c1	-0.07157088
23	0x3ef4cc9a	0.4781235
24	0x3e6388bf	0.22220133
25	0xbdd740b4	-0.10510388
26	0x3e6d3035	0.23162921
27	0xbeace029	-0.3376477
28	0x3f184da7	0.5949349
29	0xbf718003	-0.94335955
30	0xbd3c9a55	-0.04604562
31	0xbe95a7d1	-0.29229596
32	0xbf028d34	-0.5099671
33	0xbc9510ab	-0.018196424
34	0x3eeb76bf	0.45989034
35	0xbdbcd205	-0.092197455
36	0x3f13369e	0.57505214
37	0x3eb7208c	0.3576702
38	0xbf99b1cc	-1.2007384
39	0x3f563dd4	0.8368809
40	0xbecb7267	-0.3973572
41	0x3f45a14b	0.7719924
42	0x3f6f520a	0.93484557
43	0x3ed79dcb	0.42112574
44	0x3eda86fa	0.42681104
45	0xbe0695fd	-0.13143153
46	0xbe71475b	-0.23562376
47	0xbf986705	-1.1906439
48	0x3f5d16c2	0.8636285
49	0xbdadf7bf	-0.084945194
50	0xbce273a5	-0.027643034
51	0x3f5c6e4d	0.86105806
52	0x3e50a5af	0.20375703
53	0xbf229827	-0.63513416
54	0x3d8dddb8	0.06927055
55	0x3d9a824a	0.07544382
56	0xbe77481e	-0.24148604
57	0x3f1073a1	0.56426436
58	0x3ee9df27	0.45678064
59	0x3ee95965	0.45576015
60	0xbed5c399	-0.41750792
61	0xbee0af31	-0.4388366
62	0x3db1a6c2	0.08674385
63	0xbeadc7a9	-0.3394139

encoder_variable_selection.single_variable_grns.VaccinationFull.fc2.bias f4 [8]
0	0xbe87f7aa	-0.2655614
1	0x3e7373d9	0.23774661
2	0xbec82288	-0.39088845
3	0xbd9db0d9	-0.07699747
4	0xbe179399	-0.14802398
5	0xbdf12dd9	-0.11776323
6	0x3e9b6f20	0.3035822
7	0x3d875870	0.06608665

encoder_variable_selection.single_variable_grns.VaccinationFull.gate_norm.glu.fc.weight f4 [32, 8]
0	0xbe9bb4d3	-0.30411395
1	0x3f60d80a	0.8782965
2	0xbd87c2d5	-0.06628958
3	0x3ee5a24e	0.4485039
4	0xbef1b541	-0.47208598
5	0x3eae3163	0.34022054
6	0x3e66e4f7	0.2254828
7	0xbd80895f	-0.062762015
8	0xbe764fc7	-0.2405387
9	0x3ead12a0	0.33803272
10	0xbe54ef84	-0.20794493
11	0xbec7348c	-0.38907278
12	0x3e9a4c26	0.30136222
13	0xbed5aa91	-0.41731694
14	0x3d5ba2c6	0.05362203
15	0xbf15c59f	-0.5850467
16	0xbc398c19	-0.011324906
17	0x3e35ce3f	0.17754458
18	0x3e7f1e30	0.2491386
19	0x3dc55c8e	0.09636794
20	0xbe140b00	-0.14457321
21	0x3f040cce	0.5158204
22	0xbe075333	-0.13215332
23	0x3eccd58e	0.4000668
24	0xbf99e174	-1.2021928
25	0x3f048ef3	0.51780623
26	0xbf4c2a37	-0.79751915
27	0x3f33669e	0.70078456
28	0xbf624b23	-0.883959
29	0x3f14762c	0.57992816
30	0x3f2ee3f8	0.683166
31	0x3efe14ed	0.4962534
32	0x3f2739e6	0.6532272
33	0xbf09e3e6	-0.5386337
34	0x3f3f37b5	0.7469438
35	0xbf702028	-0.93799067
36	0x3f5d86b3	0.8653366
37	0xbf8ef2ff	-1.1167907
38	0xbf618c10	-0.88104343
39	0xbf4fbead	-0.81150323
40	0x3ea1060f	0.31449935
41	0xbdc3d105	-0.09561352
42	0x3f0b265b	0.543554
43	0xbec725ac	-0.3889593
44	0xbcd40e17	-0.025885625
45	0xbceb81d3	-0.028748428
46	0xbebf6285	-0.37379852
47	0xbc8d8753	-0.017276442
48	0xbeb1cf62	-0.34728533
49	0x3e4a00c0	0.19726849
50	0xbd64cc13	-0.055858683
51	0x3e32ebb4	0.17472726
52	0xbe409030	-0.18805003
53	0x3ea95594	0.33073103
54	0x3eb74d98	0.35801387
55	0x3e9a7ce5	0.30173412
56	0xbedec964	-0.43513024
57	0x3f2fc0a9	0.6865335
58	0xbe40c7ce	-0.1882622
59	0xbec3faa1	-0.38277152
60	0x3e626224	0.2210775
61	0xbeb4fbfa	-0.35348493
62	0x3eb42ff0	0.35192823
63	0xbee0b6d5	-0.4388949
64	0xbe7c27df	-0.24624585
65	0x3f0eed7d	0.5583113
66	0xbe48685a	-0.19571057
67	0x3cc961c9	0.02458276
68	0xbea93f40	-0.33056068
69	0xbdc72037	-0.09722941
70	0x3e84fd9f	0.25974748
71	0x3e96e3f9	0.29470804
72	0x3eae58c9	0.34052113
73	0x3dc16cf0	0.09444606
74	0x3e6fef66	0.23431167
75	0xbf005420	-0.50128365
76	0x3e9ea7ba	0.3098734
77	0xbf0753b1	-0.5286208
78	0xbf24c017	-0.64355606
79	0xbf0f0dcc	-0.5588043
80	0x3e415cf2	0.18883112
81	0xbe9e0bc1	-0.30868343
82	0xbd0e69c9	-0.034768853
83	0xbdfdbc72	-0.12389459
84	0x3e36f980	0.17868614
85	0x3dd30a1d	0.10304663
86	0xbd167740	-0.03673482
87	0x3dcbf952	0.099596635
88	0xbdf0010d	-0.117189504
89	0xbec6103f	-0.3868427
90	0x3ba8d69a	0.0051525356
91	0xbcfe6321	-0.031053128
92	0xbc37d709	-0.011220702
93	0x3b7b3b1e	0.0038334797
94	0xbdba0e03	-0.09084704
95	0x3df8a87b	0.1214151
96	0xbe95766d	-0.29191914
97	0x3eabca6f	0.33552882
98	0xbeac36ec	-0.33635652
99	0xbeb290c8	-0.34876084
100	0xbd8e745e	-0.06955789
101	0xbddcd93e	-0.10783623
102	0xbe03bab1	-0.12864186
103	0xbe2bbd14	-0.16771346
104	0x3d2fdeea	0.042937197
105	0xbf2893d5	-0.65850574
106	0x3d01976e	0.031638555
107	0x3ebc2a10	0.3675084
108	0x3e18b682	0.14913371
109	0x3ebfe6c7	0.37480757
110	0x3d8572c1	0.06516028
111	0xbe001104	-0.12506491
112	0xbeac77b2	-0.3368507
113	0x3eb5bf2d	0.35497418
114	0xbe0e3c15	-0.13890107
115	0x3ddb7054	0.10714784
116	0xbe4adcd9	-0.19810809
117	0x3dd3ffb6	0.10351507
118	0xbdf16e54	-0.117886215
119	0x3e33c1c2	0.17554381
120	0xbea341a3	-0.31886014
121	0xbe9b3792	-0.30315834
122	0x3e157ef4	0.1459921
123	0x3d85c90e	0.06532489
124	0x3de1a609	0.11017997
125	0xbd0b2da8	-0.033979088
126	0x3e84c050	0.25927973
127	0x3de4c806	0.11170964
128	0x3edafb27	0.4276974
129	0xbf3898ce	-0.7210816
130	0x3ee76ce6	0.4520027
131	0xbe09bb84	-0.13450438
132	0x3e893e8d	0.26805535
133	0x3ea75d11	0.32688192
134	0xbea783d1	-0.32717755
135	0xbe2035f1	-0.15645577
136	0x3e879823	0.2648326
137	0xbec53a9b	-0.38521275
138	0x3f42477f	0.75890344
139	0xbeba89ea	-0.36433345
140	0x3f09d016	0.5383314
141	0xbde2f40c	-0.110817045
142	0xbf4614d3	-0.77375525
143	0xbec4e77b	-0.38457856
144	0xbde6d4c3	-0.1127105
145	0x3f1eca0a	0.6202704
146	0xbec927a1	-0.39288047
147	0x3e9f6339	0.31130388
148	0xbe27473b	-0.16335766
149	0x3e8318c3	0.2560483
150	0x3f0a4d75	0.5402444
151	0x3e4dcef1	0.20098473
152	0x3e8f6113	0.2800375
153	0xbe50c4d9	-0.20387591
154	0x3ebfecff	0.374855
155	0x3d75ed90	0.06004101
156	0x3e7272d7	0.2367662
157	0x3c20b482	0.009808661
158	0xbecbd9d4	-0.39814627
159	0xbd5ff1b2	-0.054673858
160	0xbdd8822f	-0.105717055
161	0xbe8ea71b	-0.27861866
162	0x3d6be09b	0.057587247
163	0x3f1f8924	0.62318635
164	0xbdf71b4d	-0.12065754
165	0x3f8bcc36	1.0921695
166	0x3d4b9519	0.049702737
167	0x3f84941c	1.0357699
168	0x3e880992	0.26569802
169	0xbf4af6f3	-0.79283065
170	0x3f2b3b03	0.6688692
171	0xbdd3a5f5	-0.10334388
172	0xbdb04b4b	-0.08608111
173	0x3ea26b94	0.317227
174	0xbf181b4c	-0.5941665
175	0x3d0c891d	0.03431045
176	0xbda13d7e	-0.07873057
177	0x3f08f094	0.53492093
178	0xbe2373ed	-0.15962191
179	0x3e273755	0.16329701
180	0xbd5e82b9	-0.054323886
181	0x3dd62679	0.10456557
182	0xbe37244c	-0.1788494
183	0x3cdaaddb	0.026694229
184	0xbd6df807	-0.058097865
185	0x3ecd5b68	0.401088
186	0x3e8e9e1b	0.27855
187	0x3d8289c1	0.06373931
188	0xbe1004a8	-0.14064276
189	0xbf7a6f13	-0.97825736
190	0xbee84373	-0.4536396
191	0xbe443076	-0.19159111
192	0xbdf87454	-0.12131563
193	0x3ebe9add	0.37227526
194	0xbe3923c2	-0.18080047
195	0xbceebc34	-0.029142477
196	0xbe931617	-0.2872779
197	0x3d987425	0.07444028
198	0x3f3cac5c	0.737005
199	0xbdc194de	-0.09452222
200	0x3e089243	0.13337044
201	0xbe598958	-0.21243799
202	0x3edef7e6	0.43548506
203	0xbee8618e	-0.45386928
204	0x3f809573	1.0045608
205	0xbe3c59bd	-0.18393607
206	0xbeb7483b	-0.35797295
207	0xbdfc2a3f	-0.12312745
208	0x3d40f6af	0.047110256
209	0xbe8f5a5f	-0.27998635
210	0x3f08cb4f	0.53435224
211	0xbf24071e	-0.6407336
212	0x3f0c4d01	0.54805
213	0xbeadfbc1	-0.33981135
214	0xbe831fb2	-0.2561012
215	0xbeb5024b	-0.35353312
216	0x3e9aef0d	0.30260506
217	0xbe00081d	-0.12503095
218	0x3ea1c0ff	0.31592557
219	0x3e63170a	0.22176757
220	0x3da21095	0.07913319
221	0x3e8aa3ce	0.27078098
222	0xbebab877	-0.3646886
223	0xbe27979c	-0.16366428
224	0x3ea04508	0.31302667
225	0x3ebb5109	0.36585262
226	0xbeb83a5b	-0.35982022
227	0x3e8d8431	0.27639917
228	0xbcb0be43	-0.021575099
229	0x3f0c566c	0.5481937
230	0xbedbee94	-0.42955458
231	0x3e641dd0	0.22276998
232	0x3e93d6e1	0.28874877
233	0xbf562bbc	-0.83660483
234	0x3e6f9aea	0.23398939
235	0xbe969bbd	-0.29415694
236	0x3ea46cdd	0.32114306
237	0xbe30775e	-0.17233035
238	0xbf0d9c3d	-0.55316526
239	0x3cbf39e8	0.023343042
240	0x3eb51cfe	0.35373682
241	0xbe3f886c	-0.18704385
242	0x3e228751	0.15871932
243	0x3e5c512d	0.21515341
244	0xbda03955	-0.07823435
245	0xbf193b97	-0.5985655
246	0x3dbe65a6	0.09296732
247	0xbf06ac3a	-0.52606547
248	0xbda017e2	-0.07817055
249	0x3f466aa2	0.7750646
250	0x3dd1330f	0.10214817
251	0x3eec2e19	0.4612892
252	0xbf17497a	-0.5909649
253	0xbdd54b81	-0.10414792
254	0x3eadcd29	0.33945587
255	0xbe040ed6	-0.12896284

encoder_variable_selection.single_variable_grns.VaccinationFull.gate_norm.glu.fc.bias f4 [32]
0	0x3d9cc41c	0.076545924
1	0x3efd685b	0.4949368
2	0xbe94588c	-0.28973806
3	0xbd443621	-0.047903184
4	0xbf144fe0	-0.5793438
5	0x3db3888b	0.08766278
6	0x3e221743	0.15829186
7	0x3eafc545	0.34330192
8	0x3e893ed7	0.26805755
9	0x3e81dd9a	0.2536438
10	0xbe1d6c17	-0.15373264
11	0xbda1e5cc	-0.079051584
12	0x3db04f82	0.08608915
13	0xbed68075	-0.4189488
14	0x3d8d6504	0.06904033
15	0xbcf9d430	-0.030496687
16	0xbef88e40	-0.48546028
17	0x3e7fd6c0	0.24984264
18	0x3e77f2da	0.24213734
19	0x3dc52a9c	0.09627268
20	0xbe51ccff	-0.20488356
21	0xbf550335	-0.8320802
22	0x3f1166eb	0.56797665
23	0x3d8117e4	0.06303385
24	0x3e7d92a9	0.24762978
25	0x3e4014ce	0.18757936
26	0xbe600102	-0.21875384
27	0xbf1bbb8a	-0.60833037
28	0xbdff334a	-0.124609545
29	0xbeb4bb32	-0.3529907
30	0xbe9011ea	-0.28138667
31	0x3e3af323	0.18256812

encoder_variable_selection.single_variable_grns.VaccinationFull.gate_norm.add_norm.norm.weight f4 [16]
0	0x3f1b9b18	0.6078353
1	0x3f8a8a04	1.0823369
2	0x3f3e741b	0.7439591
3	0x3f6f7277	0.93534034
4	0x3f865628	1.0495043
5	0x3f511f4b	0.81688374
6	0x3f36c992	0.7140132
7	0x3f9812ee	1.1880777
8	0x3f76869c	0.9629915
9	0x3f6d06d2	0.9258853
10	0x3ec4aa9e	0.3841142
11	0x3f7b7d2a	0.9823786
12	0x3f452728	0.7701287
13	0x3f7fde1a	0.99948275
14	0x3f453682	0.770363
15	0x3eb4de9f	0.35326096

encoder_variable_selection.single_variable_grns.VaccinationFull.gate_norm.add_norm.norm.bias f4 [16]
0	0xbdded3e9	-0.108802624
1	0x3e4364f9	0.19081487
2	0x3e8777f1	0.26458696
3	0x3e56ee89	0.20989431
4	0xbb3ed603	-0.002911926
5	0xbd1a5bc0	-0.037685156
6	0xbe396ff5	-0.18109114
7	0xbe3dd404	-0.18537909
8	0x3c30eeee	0.010799153
9	0x3c92a9df	0.017903266
10	0xbdbe5e10	-0.09295285
11	0x3e6d8a37	0.23197256
12	0x3d1303ed	0.035892416
13	0x3ba072f7	0.0048965174
14	0x3d26635b	0.040622097
15	0x3da928d9	0.08259744

encoder_variable_selection.single_variable_grns.Cases.resample_norm.mask f4 [16]
0	0x3eb62dc3	0.35581788
1	0xbcf4353e	-0.029810544
2	0xbfa4ff95	-1.2890497
3	0xbdf0b4fa	-0.117532685
4	0xbe2f4658	-0.17116678
5	0x3edf211d	0.4357995
6	0xbd338704	-0.043829933
7	0xbf0fa103	-0.5610506
8	0xbf6e02a3	-0.92972773
9	0x3ed024b8	0.40653014
10	0x3ed2d7e8	0.41180348
11	0x3c1e2a27	0.009653605
12	0xbf11a6ef	-0.56895345
13	0xbe89d38f	-0.2691922
14	0x3eade59e	0.33964247
15	0x3d6baffd	0.057540882

encoder_variable_selection.single_variable_grns.Cases.resample_norm.norm.weight f4 [16]
0	0x3fa46c47	1.2845544
1	0x3f9b0a38	1.2112494
2	0x3f00e2da	0.5034615
3	0x3f894015	1.0722681
4	0x3f67c963	0.90541667
5	0x3fbb14fe	1.4615781
6	0x3f9c856d	1.2228218
7	0x3f57d391	0.843072
8	0x3f15c6b3	0.58506316
9	0x3fc2323a	1.5171578
10	0x3fbb1507	1.4615792
11	0x3f80e8c5	1.0071036
12	0x3efb6137	0.49097607
13	0x3f470820	0.7774677
14	0x3fbf9b3a	1.4969246
15	0x3f98acdb	1.1927751

encoder_variable_selection.single_variable_grns.Cases.resample_norm.norm.bias f4 [16]
0	0x3e5f51e8	0.21808589
1	0x3e754397	0.23951565
2	0xbe45d192	-0.19318226
3	0xbdf1713e	-0.11789177
4	0x3d5c0862	0.053718932
5	0xbe244ae9	-0.16044201
6	0xbec56e14	-0.38560545
7	0xbd76f60c	-0.060293242
8	0xbdf5a335	-0.1199402
9	0x3dd81788	0.10551363
10	0x3cf70a09	0.030156152
11	0xbc258e37	-0.010104707
12	0xbc86a6a7	-0.016436888
13	0xbd97f9dc	-0.07420704
14	0x3e05ba88	0.13059437
15	0x3e9b1696	0.3029067

encoder_variable_selection.single_variable_grns.Cases.fc1.weight f4 [8, 8]
0	0xbd738d62	-0.059461005
1	0x3fc953a9	1.5728656
2	0x3e4f93b6	0.20271191
3	0xbef9f3f3	-0.4881893
4	0xbf149b4c	-0.58049464
5	0x3ec67185	0.38758484
6	0xbe71c5a8	-0.23610556
7	0xbf09bd07	-0.5380406
8	0x3ef854e2	0.4850226
9	0x3f1680ab	0.5879008
10	0xbe655aad	-0.22397871
11	0xc00848a6	-2.129434
12	0xbf94e100	-1.1631165
13	0x3e329515	0.17439683
14	0x3e218cc7	0.15776359
15	0xbdec5b60	-0.11540866
16	0x3f9f081d	1.2424351
17	0x3d772e33	0.060346793
18	0xbdbb30bd	-0.091401555
19	0xbc2bba8f	-0.010481491
20	0xbd17b1b3	-0.0370347
21	0x3cd3bfb6	0.02584825
22	0xbf66a9d9	-0.90102917
23	0x3f2ad385	0.66729003
24	0xbf1df0a3	-0.6169531
25	0xbd1f0153	-0.038819622
26	0x3f4cea96	0.8004545
27	0x3eb2cdaf	0.3492255
28	0x3f392b26	0.72331464
29	0x3dfbb839	0.12290997
30	0x3e5cc737	0.2156037
31	0x3f1de135	0.61671764
32	0xbe568d9f	-0.20952462
33	0xbebe8428	-0.37210202
34	0x3d90e945	0.07075743
35	0x3e97c5b9	0.29643038
36	0x3eae884f	0.3408837
37	0xbaf32ab0	-0.001855215
38	0x3d36e441	0.044651274
39	0x3e883c71	0.26608613
40	0xbe433a06	-0.19065103
41	0x3e4a746f	0.19770978
42	0x3e59d6fb	0.21273415
43	0xbfba3d87	-1.4550027
44	0xbf3bf0dd	-0.73414403
45	0x3f01f26e	0.50760543
46	0x3db7f3a5	0.089820184
47	0x3f26c147	0.6513867
48	0x3e75d491	0.24006869
49	0x3df01c5e	0.117241606
50	0x3d8f4cea	0.06997092
51	0x3f54a6f1	0.8306723
52	0xbf91e77a	-1.1398766
53	0x3d1e9de3	0.03872479
54	0x3ec31993	0.3810545
55	0xbeb2077a	-0.3477133
56	0xbe84ff90	-0.2597623
57	0xbeceab7a	-0.403652
58	0xbed46454	-0.41482794
59	0xbf413277	-0.7546763
60	0xbe1affbd	-0.15136619
61	0xbda5c2f9	-0.08093829
62	0xbf2c52e2	-0.6731397
63	0x3fc0de32	1.5067809

encoder_variable_selection.single_variable_grns.Cases.fc1.bias f4 [8]
0	0xbe8f9044	-0.28039753
1	0xbe7d58ca	-0.24740902
2	0x3ce5b1ff	0.028038977
3	0xbe5e4787	-0.21706973
4	0xbc598376	-0.013275972
5	0xbdf5ce09	-0.12002189
6	0xbea5182f	-0.32245013
7	0xbdb14e59	-0.08657522

encoder_variable_selection.single_variable_grns.Cases.fc2.weight f4 [8, 8]
0	0xbd5701e6	-0.052492045
1	0x3f79f72a	0.9764277
2	0x3d9200ac	0.071290344
3	0xbed80e48	-0.42198396
4	0x3f0877f6	0.53308046
5	0xbd366333	-0.044528197
6	0x3f5c8d5e	0.8615321
7	0x3d1d474e	0.03839808
8	0xbe72c887	-0.23709308
9	0x3df3d154	0.119051605
10	0xbe99ad50	-0.3001504
11	0xbf19d616	-0.60092294
12	0x3d741f25	0.059600014
13	0x3e6f837a	0.23389998
14	0x3d8f679a	0.07002182
15	0xbfa30084	-1.2734532
16	0xbe0ce790	-0.13760209
17	0xbf01b6f7	-0.5066981
18	0xbf7b046c	-0.9805362
19	0x3e9e3e2f	0.30906817
20	0x3f0094e5	0.50227195
21	0xbea1c809	-0.31597927
22	0xbf0ec6a0	-0.5577183
23	0x3f4ebc32	0.80755913
24	0xbec302ef	-0.38088176
25	0xbf4cbd76	-0.79976594
26	0xbed93a26	-0.42427176
27	0xbf54d53b	-0.83137864
28	0x3f07279b	0.5279481
29	0xbf6733f5	-0.90313655
30	0xbf041640	-0.5159645
31	0xbe4a5668	-0.19759524
32	0x3eeb55a4	0.45963776
33	0x3f3208a3	0.6954443
34	0x3e658ff1	0.2241819
35	0x3ebf1566	0.37321013
36	0x3eb2656f	0.34843013
37	0xbda5deb2	-0.080991164
38	0x3e15aba7	0.14616261
39	0x3f08d5e2	0.5345136
40	0x3f00a140	0.5024605
41	0x3e281dfb	0.16417687
42	0x3f806797	1.0031613
43	0x3f0713d4	0.5276463
44	0xbeac1908	-0.33612847
45	0x3e2a5f5d	0.1663794
46	0x3e48532a	0.19562975
47	0x3e83a334	0.25710452
48	0xbf3982af	-0.7246503
49	0xbedf56aa	-0.43620807
50	0xbef37c72	-0.47555882
51	0x3ea63081	0.3245888
52	0xbe1824b4	-0.14857751
53	0xbea67514	-0.325112
54	0x3efef8b7	0.4979913
55	0x3e1b04a0	0.15138483
56	0x3eef70af	0.46765658
57	0x3f502d0f	0.81318754
58	0x3d60c44c	0.054874703
59	0xbe6c312c	-0.23065633
60	0x3de5ff63	0.11230352
61	0x3d93e514	0.072214276
62	0xbdb2f111	-0.08737386
63	0x3d99ff67	0.07519417
